notebook_workflow/saved_model_test.pt (torch, 354592 bytes, 75 tensors)

module.model_upsampling.down_path.0.block.0.weight f8 [8, 4, 3, 3]
000000 d2 8c 0c 43 c8 23 c4 3f 33 7c 3d b9 17 3a be 3f
       0.15734198831441987 0.11807392380204433
000010 e6 d3 79 f8 34 7c a0 bf 49 ee 51 af e2 11 b6 3f
       -0.03219762356903981 0.08621041088366001
000020 fd 29 34 cd f4 74 b2 bf b7 40 7e 9b 75 78 c0 3f
       -0.07209711084230004 0.12867612926902947
000030 e5 27 17 d8 d1 49 c5 3f 9b 2f e3 be 1b 69 ba bf
       0.1663152985695994 -0.10316632662141816
000040 ae d6 3e 1e b4 00 8e bf e1 77 47 d0 b6 32 ba bf
       -0.01464977948476628 -0.10233633599224802
000050 40 02 1e 83 50 29 64 bf 47 6d 3b 24 6b cd b7 3f
       -0.002461106539101615 0.09297818789075506
000060 97 3d e3 de 44 3d 5d 3f 74 f4 49 75 71 83 c1 3f
       0.0017846272053708473 0.13682382800098802
000070 74 37 e6 49 8f ed c3 3f 12 29 51 0f 91 f3 55 3f
       0.15568724735606632 0.0013398090934680401
000080 8a 0f 3e a9 08 8f bd 3f 08 70 56 49 28 f4 c0 3f
       0.11546377307791836 0.13245109158458512
000090 57 02 2b 3c c7 0a bd bf 13 70 09 95 a9 7c ac 3f
       -0.1134457132238905 0.05563859886453328
0000a0 e7 03 6f 92 44 38 c1 bf 44 53 8c bb 6a 13 c5 3f
       -0.13452965879517295 0.16465505750297826
0000b0 db bc 5c a7 94 71 c2 bf 3d 8d ea 49 fc b3 b3 bf
       -0.14409120723710242 -0.07696511082263142
0000c0 09 ec 36 a2 92 14 93 3f d4 07 5a 29 30 56 9b 3f
       0.01863316645697569 0.026695969127565736
0000d0 7d 15 2c fb 65 a4 89 bf c5 ff dd da 9a bc 9b 3f
       -0.012520596244494748 0.027086658104508183
0000e0 07 aa c7 19 2c a8 c0 bf 69 d8 df 5b 13 98 7b bf
       -0.13013221033845943 -0.006736827488557842
0000f0 e8 c5 c8 9b f5 1d 99 3f 56 f5 7a 16 4a 0c bb bf
       0.02452834857303357 -0.1056562714465675
000100 e9 c7 5f ed 91 c0 bf bf 93 ad e9 c5 ac 1e b1 bf
       -0.1240321354414672 -0.06687431175094209
000110 06 05 a7 4b d2 23 b9 3f 12 a7 82 38 47 b8 b2 3f
       0.09820284220679207 0.07312436227462296
000120 b5 53 7e 15 97 01 b5 3f 41 a5 65 b5 5d d1 b3 bf
       0.08205551409476082 -0.07741342238081918
000130 83 d2 22 de 64 38 ab 3f c2 38 d5 26 e5 91 be 3f
       0.05316462718602557 0.11941368291920454
000140 e6 bc 7d 23 e5 23 c4 3f f6 4f e1 16 6e 41 b5 bf
       0.15734543068854306 -0.08302963312718234
000150 86 63 c0 d1 eb a5 c0 bf ec 9d 1e d0 e6 ee b7 3f
       -0.1300635122468316 0.09348909932179311
000160 3b 00 89 5d 25 19 c5 bf 8f 4a a5 29 47 ac a3 bf
       -0.16482989375254128 -0.03842375167245848
000170 38 85 00 6e a9 01 c5 bf 04 6f e6 9f f6 89 bc bf
       -0.16411321517174726 -0.11148015407382778
000180 c3 13 69 e3 ff 95 b9 bf 76 0e 41 68 85 14 c3 3f
       -0.09994506170285349 0.1490637549451212
000190 29 76 34 93 60 85 c0 bf 3b b3 c6 b5 53 de bc 3f
       -0.12907035053005814 0.11276744068045456
0001a0 4c 89 89 81 f8 85 a5 bf 30 49 64 03 33 dc af 3f
       -0.04203774052872919 0.06222686211016748
0001b0 0f 04 bd ee 2b 64 97 bf e9 14 56 60 b3 db ad 3f
       -0.022843061872894362 0.05831680823306746
0001c0 72 94 37 88 ad 11 c0 bf 6f 11 be 32 4c 45 bb bf
       -0.12553948546625154 -0.10652614821271354
0001d0 a2 c1 32 e7 35 7c bc 3f 27 e1 16 99 1e 9c c0 bf
       0.11127030271996444 -0.12976438975398105
0001e0 2c a4 e2 1a 3f da a7 bf b3 bd ee 87 c0 8e a2 3f
       -0.04658696368398582 0.03624536189397123
0001f0 16 48 11 bc 91 d2 ba bf 7c 5e b3 01 e3 c8 c4 bf
       -0.10477553216449595 -0.16238057692565977
000200 23 8c d8 e0 14 2b bf bf e9 e7 b4 d6 6b a8 bc 3f
       -0.12175112237359591 0.11194490424978167
000210 26 c5 cb 8a 53 7f a3 3f b5 50 86 58 16 2f b6 3f
       0.03808079785620526 0.08665599499937822
000220 20 68 26 e1 74 32 c5 3f 4f 54 33 e4 42 4d c4 bf
       0.16560231202748898 -0.15860782759287637
000230 68 86 0d 46 a8 06 a8 3f f0 f5 24 e9 33 d6 90 3f
       0.04692579131257163 0.016442118744853518
000240 4d f1 fe 1b de ce b6 bf c2 44 05 a4 d6 61 95 bf
       -0.08909404929631144 -0.020881036530515436
000250 1b 34 77 db 1f ad c3 3f 3d 97 16 dd b7 0e be 3f
       0.15372083870025297 0.11741208217298733
000260 e1 54 d3 e3 bc 00 71 3f 98 dc 3f 21 7d bd be 3f
       0.004151094294873676 0.12007886945490254
000270 0a af 77 d4 df 34 a5 bf de 06 9f a7 47 f1 bf 3f
       -0.04141902416799155 0.1247753891211931
000280 ca 2b 46 26 5b 7d c1 3f 41 4a bf ee cb 32 b3 3f
       0.13663806313374344 0.07499384478368488
000290 70 7f 9f 43 98 64 b7 3f e8 47 ae ec 00 bb c1 bf
       0.09137870455697139 -0.13851939732245389
0002a0 0c 08 19 f4 b9 ae b3 3f 7e 28 17 6d 19 e5 c0 bf
       0.07688486298960145 -0.13199155642206856
0002b0 6c 2d 36 97 cd b2 ac 3f 55 40 8e c3 cf c3 b0 3f
       0.056051659306002616 0.06548784756000832
0002c0 cc 8a 83 64 95 cd c2 3f 3c 40 42 22 28 5e b9 bf
       0.14689891250517062 -0.09909296833416276
0002d0 b4 1e 82 52 3d 5e c0 3f 36 c8 d6 53 f4 8a b9 bf
       0.12787596253132494 -0.09977652594423678
0002e0 8e c9 5a f2 40 52 a5 bf d6 c3 4f 21 36 c5 b0 bf
       -0.04164317091398849 -0.06550920785208744
0002f0 3f 6a ad 87 85 1b c0 bf 56 9f ed 42 04 86 c2 bf
       -0.12583989262459913 -0.1447148634717858
000300 20 7c 61 1a b9 04 a2 3f 82 0a af 3b 3d 33 c2 3f
       0.035192284078896074 0.14218869604345136
000310 a8 66 1d 56 39 fa b6 bf c1 53 c5 27 3c fa c0 3f
       -0.0897556147805526 0.13263656560834927
000320 7d d8 aa 0e 6c 3b b6 3f ee c7 50 44 43 a9 c4 3f
       0.08684420927133547 0.16141548953743218
000330 40 bf 26 50 13 c0 c3 bf c4 a1 09 d4 85 1a a9 3f
       -0.15429917729988496 0.04903047765111837
000340 94 5a 89 e6 8c d4 c4 bf 6f e9 9a fc 85 66 b8 bf
       -0.16273652321497833 -0.09531438271634383
000350 4d af 83 78 6a 9c b8 3f 4b e5 81 85 47 19 c2 bf
       0.09613671724554003 -0.14139646548191317
000360 66 e6 bc 9a f3 29 a2 3f eb 16 21 67 07 99 c4 bf
       0.03547631515398279 -0.16092007194145394
000370 55 11 39 f6 60 b3 aa bf 69 df 5e 71 bb 0d b9 3f
       -0.052149801308163525 0.09786578672253445
000380 a8 99 97 37 b6 30 ac bf 6a 9e 98 9d c4 22 94 bf
       -0.05505914143195706 -0.019663879507929506
000390 80 7d ee 2d 39 00 b8 3f 7e 53 4c 69 d1 30 c2 3f
       0.09375340815903677 0.14211480752478772
0003a0 31 c9 ff 8b fa ab ba 3f 25 72 01 75 d8 fa ad 3f
       0.10418668668697674 0.058554424555698405
0003b0 76 b4 9a c3 1a 49 c1 3f a6 7e a7 f0 f4 4b aa bf
       0.13504347373001097 -0.05136075437235137
0003c0 a8 e0 f2 de bc de bd 3f 4c 05 cb 9e 30 0e 9e bf
       0.11667995875439152 -0.02935100526042804
0003d0 3c 2b e1 9b 02 1f c3 bf 9a f7 84 01 44 76 63 bf
       -0.14938385592753345 -0.002375729393093229
0003e0 14 29 a3 0a 94 06 c5 bf 86 31 98 e1 a0 ed 9e bf
       -0.16426325339700354 -0.03020335556907263
0003f0 ef a4 76 5f c6 97 9e bf db fa 79 44 3d ab ad 3f
       -0.029875850273730128 0.05794707737822132
000400 5f 84 03 8a 4b 1e a9 3f f3 aa 6d 6e 17 84 c1 bf
       0.04905925807703037 -0.13684361354838578
000410 d8 78 d6 88 e8 cb c4 bf 08 57 03 d3 26 b1 a0 bf
       -0.16247278863460823 -0.03260155988543373
000420 9e f1 59 1f fa 38 c2 bf 41 33 78 17 fd 3c bb 3f
       -0.14236380129649445 0.10639936278330443
000430 d0 68 32 8a a4 cb a1 3f 5f 15 74 8b 50 67 a1 bf
       0.034756795758953296 -0.033991353057028155
000440 b9 e7 75 d6 3e c6 c1 bf 16 3f f8 93 09 b2 b2 3f
       -0.13886247131068588 0.07302913534681141
000450 09 68 7b c5 f4 d4 b1 3f 43 bf 79 c4 ae 54 92 3f
       0.06965570279444945 0.017901163808743858
000460 f2 28 47 b6 30 08 c2 3f 38 08 18 85 a2 96 7d 3f
       0.1408749475506919 0.007223734706260081
000470 76 5b 37 10 60 d0 bd bf 4a 5c d2 74 30 8f 94 3f
       -0.11646080394653588 0.020077473764640787
000480 1e 17 0e 03 b5 75 a2 3f ec 25 ce 6f 45 d6 8e 3f
       0.036054283736161916 0.015057127451444573
000490 de ad 3c 23 27 15 7a 3f a2 75 b9 74 50 d3 b2 bf
       0.006367829209732416 -0.07353690004079863
0004a0 fd 78 3d 9e f3 4b ba 3f db 7b 93 d5 47 32 be 3f
       0.10272142995151863 0.1179547211099669
0004b0 e1 80 95 a2 d1 c8 be bf a5 f4 7d 50 63 87 bb bf
       -0.12025175303779491 -0.10753460612427775
0004c0 36 67 cf 72 a5 67 bb 3f 1c a3 94 5a 12 78 be 3f
       0.1070502667711509 0.11901964866104858
0004d0 42 f3 1e a2 be d3 a4 3f 33 df cd 2d ee fc aa 3f
       0.04067798356070408 0.05271095570691244
0004e0 10 ab 65 d7 fd 7b ad bf b6 0f d0 44 1d 3a bc bf
       -0.05758660559043538 -0.11026175432203797
0004f0 e7 c1 76 b0 2b ba b5 bf 9c ca 19 75 3a 54 b2 bf
       -0.08487198885155288 -0.07159772261528946
000500 91 fc aa 92 0e 99 7a 3f 03 fc 03 9a f2 77 a1 3f
       0.00649362270877342 0.03411825304100804
000510 a0 95 e4 0c eb 67 8a bf 28 72 33 7e 22 e4 69 3f
       -0.012893520670852976 0.003160540932738227
000520 1c b8 e7 b7 fd 08 8a 3f 2c 3e 59 a9 ec 9a b6 3f
       0.012712461638297916 0.08830145964133668
000530 21 e4 51 41 38 42 a5 3f 90 1c ca ce a0 a4 a7 3f
       0.0415208415733519 0.04617788814817303
000540 03 77 86 2e 02 b9 a3 bf 52 1a fc 7a 8c a8 c2 bf
       -0.03852087800917838 -0.1457686996947865
000550 3a 74 7b 8a b1 4f b2 bf 49 7c 69 3c ad 9f ae 3f
       -0.07152852660097234 0.05981198656513038
000560 3b 2d b0 dc c6 f3 81 bf 23 ac 12 f9 c5 89 be 3f
       -0.008765748605603299 0.11928975420839598
000570 47 2f d2 57 08 6f b8 bf 9d a5 52 0f d1 74 c5 3f
       -0.09544422287052355 0.1676274609392693
000580 93 49 d6 51 57 b6 74 3f bb 30 0f 27 f6 fb b0 bf
       0.005056706516727866 -0.0663446278915129
000590 b1 44 ba bd 7c ba be bf 90 a2 21 5f 0c e4 a5 3f
       -0.12003306991597885 0.04275549565574466
0005a0 52 4f 21 8a 6c 34 bc bf 0f ee 06 40 8b 9d 9e 3f
       -0.1101749264938097 0.02989785745897505
0005b0 b9 ce 97 72 af 88 a8 bf 82 d3 6b a5 de dd b2 3f
       -0.0479178264030486 0.0736979631290762
0005c0 f7 f6 7c 09 2e 67 b2 bf 89 7d e2 81 14 4e 9e 3f
       -0.0718868992962277 0.029594726970228833
0005d0 2d 14 1f 59 1b 30 bd 3f a6 c5 91 b1 98 4e 90 3f
       0.11401530195060224 0.015924821699120927
0005e0 65 c0 e6 81 ac ba b4 bf 5b f2 2d 19 a5 30 c3 3f
       -0.0809734170095467 0.14992202500788462
0005f0 49 24 a6 0c 12 6b ae bf 4e fa ed 0e da ab a7 bf
       -0.059410633129183106 -0.046233000109158526
000600 66 ad 72 93 fe 58 9e bf 12 98 b0 ac 4e 5b b2 3f
       -0.029636361836919 0.07170573917446202
000610 03 c5 9b e5 8f 47 ab bf fe 65 3a 0d cd 00 c3 3f
       -0.05328035047376469 0.14846194406418073
000620 f3 73 e8 d9 3c 7b b1 bf 06 32 0b e7 a8 8f b5 bf
       -0.0682867080690384 -0.08422332421032061
000630 34 74 75 8f 7d c2 a8 bf a8 02 05 e8 13 10 87 bf
       -0.04835884453016384 -0.011261134641814621
000640 83 40 30 5d 38 ad b7 3f a2 51 5d b3 9a 1c a6 bf
       0.09248688006505472 -0.043186983485301825
000650 e8 73 a1 65 79 3a 9d bf 1f 53 cb c9 b7 27 b4 bf
       -0.028543373897594565 -0.0787310474073135
000660 97 25 5e fd b7 85 c3 bf 49 91 82 a6 20 31 b8 bf
       -0.15251827117417058 -0.09449962678133263
000670 d7 8e e9 e9 0e c0 b7 3f 15 2a bb d5 ba cc c2 3f
       0.09277432642698656 0.14687285839166067
000680 1a e4 a2 d8 be 56 bd 3f 67 35 61 93 f9 e0 b8 bf
       0.11460488118144987 -0.0971828446210644
000690 a6 1a f8 0c fd 05 bf 3f 7f 96 24 cb 4d 27 b4 bf
       0.12118512694005776 -0.07872472962898235
0006a0 00 cb a9 f7 e0 e1 c1 bf 6e 89 41 e4 a1 75 ab bf
       -0.13970577328617395 -0.05363183890655675
0006b0 0b 78 9d 51 ce 8b a7 3f 4c a0 44 79 1d 92 bd bf
       0.045988509619505256 -0.1155107899727465
0006c0 c7 04 b2 77 12 fc a2 3f 2e 1c 6e d8 d6 61 97 bf
       0.03707940779805479 -0.022834164581152
0006d0 cc 57 14 82 55 95 b2 3f f1 8a b4 7f 3a 18 c3 3f
       0.0725911562516039 0.14917689548118276
0006e0 d5 94 7f 53 65 70 be bf ea 9f af eb 5a 39 b9 bf
       -0.11890252388510032 -0.09853142026952325
0006f0 13 97 75 69 49 35 c5 bf ad 37 c5 db c1 99 ac 3f
       -0.16568868302709258 0.055860574796141683
000700 e6 7d 3b 56 16 f8 a7 3f dc 09 5d 4e 3b 80 a3 bf
       0.04681463053361394 -0.038087704959724994
000710 d0 be 8e ef eb c2 92 3f 2e 8e b5 22 68 b9 ab bf
       0.0183216919864993 -0.054148916470492345
000720 4e bb 92 3f e1 7f b4 bf 82 fd 20 5e 91 75 89 3f
       -0.08007629205779418 0.012431274113736238
000730 3b 24 04 19 b7 4e b8 bf a0 3c 1a 77 bc 4b b0 3f
       -0.09495109902140168 0.06365564258361411
000740 6e c6 e7 8b c8 45 bc bf 88 49 be 63 32 51 b1 bf
       -0.11043980994852529 -0.06764521536960022
000750 fa 05 1e df f5 6a b5 3f f3 98 36 f0 df 20 c0 bf
       0.08366333672713458 -0.12600325802959098
000760 5b 63 ca 5e d6 fb 9c bf 8e 42 d8 e8 77 c3 56 3f
       -0.028304433379705212 0.0013893767348955063
000770 09 f8 82 33 69 7f ad bf 20 34 79 3a 86 d4 b6 bf
       -0.057612693346058626 -0.08918036391806128
000780 4f 82 eb a2 69 2e bc bf 81 fc 4d 12 f7 d3 a4 bf
       -0.11008320071733489 -0.04067966555066339
000790 21 86 cf 96 bd f6 9f bf 57 f5 13 7b 3f ec ae bf
       -0.031214678125144005 -0.06039617898384602
0007a0 6d a2 0c a1 dc d4 bd 3f 0d 8b c6 0b db d8 b1 bf
       0.1165292638003252 -0.06971520459641685
0007b0 da d0 58 d1 76 d2 c3 3f e6 b5 9e 31 97 ae aa bf
       0.1548603555871811 -0.05211327057564201
0007c0 0e 39 dc c3 e7 12 94 3f 2c c0 25 23 ad 56 7b bf
       0.01960336811958379 -0.006674457852895482
0007d0 ae 86 f1 9e a8 ca b1 3f 2a bf 9c 98 88 34 c1 3f
       0.06949857597785566 0.13441569759151523
0007e0 cd a0 05 ee 78 31 b3 bf 2a da 94 79 73 a6 70 bf
       -0.07497363864024749 -0.004064990114150771
0007f0 d5 9e 27 17 08 b1 bd 3f 32 55 a3 07 62 23 a2 3f
       0.11598253789236009 0.03542620032537015

module.model_upsampling.down_path.0.block.0.bias f8 [8]
000000 35 4c 0d 40 c7 52 ba bf 7b 63 d5 f5 8a 42 8c 3f
       -0.10282559694069067 0.013798795344585937
000010 1a f7 f8 f3 0e 10 b4 3f 04 56 9b 1a 5d a9 c3 bf
       0.07837003189430583 -0.15360606955680123
000020 83 85 48 2a cf 28 9f 3f b2 7d 67 b4 ff 57 c2 bf
       0.03042911239220337 -0.1433105116729912
000030 55 f3 cb 2f ad 50 c5 3f 32 3c ae 7e e5 bd c1 bf
       0.16652455171415662 -0.1386076801831862

module.model_upsampling.down_path.0.block.1.weight f8 [8]
000000 35 ee 4e c9 c3 06 f0 3f f2 03 7f 9f c6 ef ef 3f
       1.001651560173639 0.9980195155295617
000010 94 8b bf b4 40 06 f0 3f fb 06 de 00 03 08 f0 3f
       1.0015265522458536 1.0019559892538712
000020 20 d9 d5 5f 21 f0 ef 3f 7a f8 06 a9 ed ef ef 3f
       0.9980627891334599 0.9980381299317422
000030 1e 3a aa 59 d0 f2 ef 3f 8b 79 a1 b9 2b fd ef 3f
       0.9983903647678891 0.999654638824539

module.model_upsampling.down_path.0.block.1.bias f8 [8]
000000 d0 cf f4 a3 27 ab 5b 3f 8d d2 d2 79 75 78 54 bf
       0.0016887557138263072 -0.0012494227624248206
000010 b0 87 e8 54 31 19 60 bf 06 67 99 72 43 5f 59 3f
       -0.001965137816356731 0.0015485914867867114
000020 4c f4 c7 cf 53 77 4a 3f 1c 58 5a 57 9b aa 5c bf
       0.0008076819645449567 -0.0017496602062343552
000030 fe 3c 58 09 b6 cd 55 bf 86 50 5d b3 c9 8a 55 bf
       -0.0013307836246701506 -0.0013148278935277992

module.model_upsampling.down_path.0.block.1.running_mean f8 [8]
000000 a6 0a cc 97 00 4d e3 bf ac e5 32 bb 5b 5f b3 3f
       -0.6031496968065155 0.07567380256923312
000010 9a fb f8 80 82 39 99 bf 16 ec 6b c3 e1 f7 99 bf
       -0.02463344490228856 -0.02535965686091054
000020 ed 1b f1 34 3b 01 d1 3f ba 68 10 6f 69 2d d2 bf
       0.2657001511583406 -0.28402171941855736
000030 9e f0 e5 ef fc 07 ed 3f 94 d2 28 69 66 8d ed bf
       0.9072251019965909 -0.9235107473274007

module.model_upsampling.down_path.0.block.1.running_var f8 [8]
000000 2e f7 fd 61 57 98 c0 3f b5 a4 46 63 e6 0e c0 3f
       0.12964908871429642 0.1254547104593137
000010 9f 4b 84 c1 94 86 be 3f e9 a4 17 12 c9 01 bc 3f
       0.11924104427843794 0.1094022435351182
000020 8e 9a 8a d4 02 63 bc 3f 4a 7b fd 54 0e ed c0 3f
       0.11088578881263286 0.13223437452230719
000030 77 8b bb 18 42 a7 c3 3f b9 a0 25 a4 22 3e c5 3f
       0.15354181487699822 0.16595871939649046

module.model_upsampling.down_path.0.block.3.weight f8 [8, 8, 3, 3]
000000 d0 4d 11 97 36 45 b7 3f 63 94 c9 2c fe ec 52 3f
       0.09089986026929542 0.0011551363160376075
000010 0f 22 53 56 9d 95 b5 3f 9a 84 fb 04 bc eb 82 3f
       0.08431418759858665 0.009238690282872764
000020 dd c2 39 e5 c7 a8 aa bf 9a 99 20 6d 26 8d a7 3f
       -0.052068945628780595 0.04599876482125183
000030 c6 46 92 cf 69 47 64 3f fe 92 1b 5e f1 21 ba 3f
       0.0024754587762537443 0.10208042666961245
000040 c4 d2 18 0a 3f 6d b6 bf fe a7 e5 a7 04 b0 a7 bf
       -0.08760446545131645 -0.04626478719258385
000050 00 bb 24 39 24 64 b0 bf a0 81 dd d0 35 51 8c bf
       -0.06402803797821477 -0.01382677119880854
000060 a5 67 dc 0d c4 5b 71 3f 37 17 0f 86 be 60 81 3f
       0.004237905346394931 0.008485306230692309
000070 a2 91 82 c4 eb 9c b2 3f 59 93 1b 1f 91 0c bc 3f
       0.07270692393883008 0.10956675538507223
000080 6a ba e0 20 08 b1 a5 bf 31 4b ba 68 ac 4c 51 3f
       -0.042366270078095195 0.0010558780367417415
000090 c4 be 57 16 b9 fc b1 3f b7 40 03 b5 b7 d9 68 bf
       0.07026249690511138 -0.0030335033444331655
0000a0 3a b2 46 44 a6 27 bc 3f a2 75 7e 3f 09 01 b3 bf
       0.1099800030412518 -0.07423456001421028
0000b0 8b f5 c4 48 87 b1 b5 3f 60 17 78 06 7d ae 7a bf
       0.08474011923404683 -0.006514061336479887
0000c0 92 1a 11 76 01 8d b9 bf 33 50 ed f5 31 6e bb 3f
       -0.09980782635202903 0.10715019468381186
0000d0 02 e5 72 bb 25 cc b2 3f 28 96 f1 78 84 22 9e 3f
       0.07342754198443305 0.02942854870015857
0000e0 10 7a 22 21 19 15 b8 3f d2 dd 46 f0 5a 61 b9 bf
       0.0940719324011996 -0.09914177290089946
0000f0 35 71 f2 c4 63 79 7b 3f 7c 22 1c b5 77 1c a9 bf
       0.006707563136981333 -0.04904531560720657
000100 4d e0 e2 58 6e e0 af 3f a1 d6 c5 d3 70 c6 80 bf
       0.06225914797818231 -0.008190995657723578
000110 f8 f8 40 0d e4 4e 95 3f ef ad 7c 43 6b 19 92 bf
       0.020808757122943583 -0.017675090784150468
000120 f8 9f 27 a5 7b 42 a9 3f 22 b9 27 54 aa 24 9e 3f
       0.049335349951263596 0.029436742197440975
000130 5d 38 c0 21 9e 20 99 bf 14 06 28 ef 8e 94 b5 bf
       -0.024538489160527244 -0.08429807032373332
000140 ce 26 43 0c 14 b1 80 3f 22 15 71 b0 db 5e ae bf
       0.008150250076499967 -0.05931746033506104
000150 eb fb f8 3e 1d 88 6f bf e2 5a fa 8a aa 43 aa 3f
       -0.0038490840159108772 0.05129750200756235
000160 89 70 1f 89 d2 b6 b1 bf 1b 9a 53 99 44 48 ab bf
       -0.06919589851117015 -0.05328573581373438
000170 9d bd 21 97 82 85 b3 3f c3 be 5c e3 9a 77 a2 bf
       0.07625595273724746 -0.03606876397532013
000180 cd d5 42 4a 83 05 a8 bf 59 33 b6 00 f9 9c b0 bf
       -0.046917059722015965 -0.06489521281600953
000190 cd 4b 2d 40 55 db 9d 3f 00 7f cc 33 b9 c5 a7 bf
       0.02915700153546279 -0.046430385182473444
0001a0 ac ad 9a 7d c4 cd 8d 3f e0 38 a5 03 4a 8a bd bf
       0.014552626689087265 -0.115391374483099
0001b0 ed 34 34 01 b5 ba b5 bf 2e 08 c6 cf 3f e1 b6 bf
       -0.08488017348664174 -0.0893745310077356
0001c0 33 8e a5 8d 2c 0a a4 3f 9a 3e b5 ac f5 73 b2 3f
       0.039140121737343846 0.07208190409186913
0001d0 7b 86 b4 67 8c 92 b1 3f b5 71 ef 11 d4 58 b1 3f
       0.06864240199913667 0.06776166379808653
0001e0 60 b6 3c d4 09 0b b4 3f af 52 42 4c 6c 78 a1 bf
       0.07829343253680454 -0.03412187987229253
0001f0 38 ad 27 ce 49 95 b2 bf b1 1d fa 5a 61 44 bb 3f
       -0.07259045870857939 0.1065121504890303
000200 f6 98 0b 73 3f 3c b3 3f 33 37 8d 4b fe 96 70 bf
       0.07513805922244274 -0.004050248470617568
000210 ee 1c d7 33 82 f4 88 bf ac ef 8d 0b de b8 a2 bf
       -0.01218511315063472 -0.03656667605443373
000220 e1 b8 39 c3 e4 d4 af bf 8a 6c db c2 6a d3 ba bf
       -0.06217112429736616 -0.10478846795324351
000230 90 a7 2f 75 d9 8a a4 bf d4 2e e7 43 b9 44 84 3f
       -0.04012183719153406 0.009896705040680777
000240 12 09 3b 9d ac 17 97 bf 01 19 1d 70 a7 e1 b1 bf
       -0.022551247688860583 -0.06984945761823626
000250 22 8c 5e b0 ef 43 af bf f0 8f 65 53 55 9d af 3f
       -0.06106518772073623 0.06174723284746608
000260 15 46 cf 79 67 6d b1 3f 5d c4 61 ec d6 02 86 bf
       0.06807562564724663 -0.01074760350113218
000270 dc af 61 45 60 9c a5 3f 49 bd 00 00 19 e3 85 bf
       0.04220867964690431 -0.01068706065424742
000280 b0 79 96 c6 96 93 76 3f ce ce e9 a1 45 29 82 3f
       0.005511845557889236 0.008867782596304077
000290 58 ac 2e 98 ba 91 7c 3f 93 96 dd 77 e3 34 b8 3f
       0.0069749153944186 0.09455701519399388
0002a0 ab 06 cb f7 73 4b 88 bf f4 ab 9d c6 f4 10 72 bf
       -0.011862665175957096 -0.004410701900137138
0002b0 8e 07 66 d1 d0 ff a4 3f 58 1d 68 00 6d 5c ad 3f
       0.0410142188657253 0.05734577779736111
0002c0 7c 65 35 9d 89 ab aa 3f 4a 11 d2 f9 a2 b1 94 3f
       0.05208997768449827 0.020208879945600423
0002d0 28 56 67 9a a4 12 61 3f 92 9c 0f a6 44 96 a3 bf
       0.002084084978586604 -0.03825583006965262
0002e0 62 c8 63 a1 41 2a b3 bf 39 44 79 1d dc 24 b2 bf
       -0.0748635310190209 -0.07087493629048049
0002f0 9f cc d6 e9 19 f2 ab 3f df 20 e6 8c af 90 b3 3f
       0.05458146075707159 0.07642647924342637
000300 f9 ac f8 21 21 d4 b9 bf 73 9b 6c 8c 26 e3 ac 3f
       -0.10089308814410804 0.056420521394378385
000310 1f e4 9a 78 dd 3f ad 3f 81 74 73 56 d7 a8 90 3f
       0.057127877208991366 0.016269077922391965
000320 d7 e5 9d d8 05 35 70 3f 81 be f6 e8 99 69 af bf
       0.003956816517410164 -0.06135254830166748
000330 43 2a 7b 17 e9 64 a8 3f e7 02 54 cb 19 57 af bf
       0.04764488612780273 -0.061211401052792706
000340 63 cc 26 86 71 95 88 bf d5 a3 a9 2a d8 32 b6 bf
       -0.012003790766220662 -0.08671332398957017
000350 70 6f aa b6 58 ab bd bf 07 06 ef 2c 83 5f a4 bf
       -0.11589579066861488 -0.03979120181567102
000360 7f f8 52 3a 74 b1 9e bf 36 23 c5 12 ca f6 b3 3f
       -0.029973808345623795 0.07798445661786677
000370 eb 83 a3 d3 33 5e a6 bf 6d ab 75 a4 d0 cb b7 bf
       -0.04368745764237033 -0.09295372023704625
000380 a4 b5 b7 da a0 6f b4 bf f0 b7 69 7b fe 87 bb 3f
       -0.07982831325326473 0.10754385483753004
000390 aa 0f e4 80 3b 42 a8 bf 83 e2 92 02 3a 9b b0 bf
       -0.04738031338095479 -0.06486856997333672
0003a0 87 f1 8c 37 cf 48 b4 3f 0c 41 ae 19 2b 7e aa bf
       0.07923598390784124 -0.0517438382004248
0003b0 b5 78 ca 3a af e8 b9 bf e9 ed e9 92 12 c0 a2 bf
       -0.10120673356365979 -0.03662164729481871
0003c0 3f e9 05 1b d6 c2 92 3f 6b 1f c5 e8 a5 9c 92 bf
       0.01832136669097761 -0.018175690014032336
0003d0 5d 0b 15 bf e9 f1 b1 3f ef 2e 4c 0e d2 b4 a3 bf
       0.07009755053608786 -0.03848892616778509
0003e0 c3 2d 44 36 d1 00 be bf 22 1f 5d d0 8c 7d b9 bf
       -0.11719997000562103 -0.09957199179654855
0003f0 0c dc 5b f3 70 f7 b7 3f 09 9d 33 bb 64 76 b0 bf
       0.09361940328004453 -0.06430654116012503
000400 95 44 85 99 f1 45 b2 bf 9a 87 4d d9 cd 7e a3 3f
       -0.0713797569089983 0.03807681348440824
000410 08 07 cc c8 96 01 8e 3f f3 fe 80 6c 56 5e ae bf
       0.01465146827968368 -0.05931348871717814
000420 1b 0b 6e 58 6b 31 a8 bf c6 48 91 76 bb ea bb bf
       -0.04725203947511699 -0.10905048031534922
000430 b0 5a 32 23 f5 16 bd 3f a6 0d bf 42 7d 9b bd bf
       0.11363155469221442 -0.11565382842586888
000440 d3 c8 d0 39 c5 d8 b1 bf 8b 1e c6 2a 79 49 82 bf
       -0.06971390401375581 -0.008929201715331977
000450 57 11 50 67 58 7b a4 3f 26 21 9e dd 7d a9 ba bf
       0.040003550158902605 -0.1041487375315496
000460 f5 ad a1 dd 1a 0f 92 bf 22 d5 ca ec b7 2e b0 bf
       -0.017635745789830144 -0.06321286707937593
000470 dd 15 cb 33 e4 af aa bf ff ce 12 63 e8 a1 9f 3f
       -0.05212319500200711 0.030891066595997604
000480 97 5a b6 3c 31 37 95 bf c2 f6 3d f2 50 e5 85 bf
       -0.020718354540429997 -0.010691292183533267
000490 d3 2d 9a b1 f1 b6 b9 3f b7 88 05 42 ca 43 84 bf
       0.10044775568001478 -0.009894924297160974
0004a0 78 0d d2 3e 29 79 8b 3f 08 38 32 36 31 cd 97 3f
       0.013414690236692492 0.023243683750983762
0004b0 aa 3a 56 3f 41 a8 8b 3f fe 61 b6 c2 ca d9 a5 3f
       0.013504514451395739 0.042677246349914086
0004c0 15 81 2f 59 ec a2 b1 3f c6 ad 6d 92 95 97 95 bf
       0.06889226128942412 -0.021086060583383824
0004d0 5a 84 a7 67 ca 50 8b 3f e8 36 6d 59 65 bf aa bf
       0.013337689674644593 -0.052241484800658544
0004e0 a9 73 6f f0 d7 e5 bc 3f 3a b9 8a f8 50 be 99 bf
       0.1128821336746585 -0.025140061540406246
0004f0 d5 1c 1b 97 b5 9f bc bf a1 a3 0f 6c 49 17 b0 bf
       -0.11181197108372783 -0.06285532844743937
000500 40 b7 c1 83 af ec b8 bf 79 dd 65 ea 05 92 96 bf
       -0.09736153570858352 -0.02204140895034132
000510 f5 f1 ea 6e 22 7d 7d 3f b9 fc 31 b8 7d 5b b4 bf
       0.007199415688486689 -0.07952104327158595
000520 f0 e8 77 85 4b 61 a3 bf 11 e0 43 fb c4 31 bd bf
       -0.037851676981476845 -0.11404067167666222
000530 c9 69 71 42 ff 03 71 bf 44 3e 86 54 c2 f8 b3 bf
       -0.004154202563848527 -0.078014512668454
000540 8e 33 e1 0d c2 1e b0 bf b6 cb ad b0 c8 26 ad bf
       -0.06296933020457926 -0.056936523024794836
000550 81 76 25 2f e9 61 99 bf f3 76 6e c0 d3 44 b4 bf
       -0.024787562849601933 -0.0791752190402482
000560 1a 88 0e b2 f7 12 b2 bf d2 be 1e 5a 72 d1 bc 3f
       -0.07060192200745555 0.1125709028262876
000570 e5 a0 3a c9 ce 7e a9 3f e2 51 bb 71 27 39 b1 3f
       0.049795591415490205 0.06727835203793789
000580 e3 fa 26 b5 27 1e af bf e2 f8 20 45 ff 01 ac 3f
       -0.060776940215409934 0.05470273703439134
000590 d0 eb 7a d0 99 79 9b bf b1 95 9c 08 08 ac ab 3f
       -0.026831057881945786 0.05404687028048317
0005a0 53 e3 37 78 38 d9 9b 3f 0c 4f 40 dc 40 25 b9 3f
       0.027195818269294247 0.09822469117380822
0005b0 cd 86 42 d4 5e f8 b7 bf 0e a2 33 02 cc 02 9b bf
       -0.0936335819447109 -0.026377856859570108
0005c0 11 2b b0 3c 4b a3 a6 bf 33 21 8a fd a5 30 b3 bf
       -0.04421458354780417 -0.074961065673169
0005d0 b1 f9 2d 13 53 de bc 3f 5f de 50 85 53 82 71 3f
       0.11276740282298793 0.00427467942522916
0005e0 29 66 d0 3d 08 e2 b6 3f bd 04 85 90 7b 53 a8 bf
       0.08938647755749031 -0.047511922256043594
0005f0 d3 3c 3d 87 75 08 b1 3f ce 6f 26 58 10 be bc bf
       0.06653532554377088 -0.11227514412024606
000600 3d 5e 26 1c 02 bf b2 bf f5 d2 5f 40 a1 d2 ba bf
       -0.07322705447438067 -0.1047764570392465
000610 c4 b2 da 0e 27 3d ad bf 82 05 bd 2e fa e3 96 bf
       -0.05710718208624635 -0.022354039290126256
000620 86 a1 95 f5 19 18 9b bf aa 7d 07 42 6f c9 b4 3f
       -0.02645912705830391 0.08119864809076796
000630 9e 48 72 3b a8 b3 9b bf 71 5a cf 73 f1 27 b0 3f
       -0.02705252516586453 0.0631094844569391
000640 9e ab eb 48 b6 d0 a8 3f 03 b5 cf e2 9d 2f 9c bf
       0.04846734657424821 -0.027525393455950297
000650 4a 50 65 27 93 d6 b7 3f 6c b6 e3 78 ab c3 b3 bf
       0.0931179019146963 -0.07720443440822472
000660 f2 4d 10 ab 59 29 8e bf 22 49 e4 d1 6b 6b b2 3f
       -0.014727306874227051 0.0719516169959076
000670 c6 86 c3 b4 12 8a be bf af 6d 20 48 6b 8b b9 bf
       -0.11929432786157709 -0.09978361616997831
000680 07 b2 9e 6a cf a6 ac 3f 10 3b 5a 07 a7 74 72 3f
       0.05596016098511219 0.004505779701175397
000690 54 22 31 fc 68 55 bd 3f 5c 95 73 54 6c 66 b1 bf
       0.11458450467137854 -0.06796910344890733
0006a0 84 f0 11 78 57 67 b3 3f 01 e7 45 cb f7 22 b1 3f
       0.07579561883352609 0.06693981850358101
0006b0 58 1e 0a 88 d4 c8 b9 bf 4f a6 81 29 34 b4 b9 3f
       -0.10072067567136267 0.10040594113675037
0006c0 8d 1a e2 a9 d1 5c bc bf 1e ab a0 9d 99 2f a2 bf
       -0.11079130551852696 -0.035519409648563136
0006d0 ee 5f ce 27 f5 74 ba 3f 38 69 f8 f6 ea 1d ba bf
       0.10334713193731179 -0.10201900987195678
0006e0 ea e3 66 1e 95 2f b6 3f 00 09 6a 99 47 0a 6f 3f
       0.08666355125650652 0.003789081423122842
0006f0 79 96 12 8b 96 26 b0 3f 73 21 b5 12 c1 6d a2 bf
       0.06308880706145627 -0.035993608029971556
000700 bc aa aa 74 d0 cf ad 3f 8e b8 d3 cf 9b 6d 8d 3f
       0.05822612213281306 0.014369218139531872
000710 3a 5a ff 07 e9 04 a1 3f c5 f3 f0 47 94 df a3 3f
       0.033240587450269435 0.038815149099242365
000720 c6 8d bd 7d 0e 70 93 3f 2e ad b6 8f 09 53 a8 bf
       0.018982149529063873 -0.04750852469745791
000730 2c 66 bf 85 e3 82 97 3f 85 a5 3c 89 f9 d7 8a 3f
       0.022960238493260274 0.01310725164474281
000740 ba 6c 92 3c 68 9b 9d bf f3 c0 25 3d d8 3e bd 3f
       -0.028913143822688815 0.11424018376215254
000750 b7 70 4a a2 4a 23 8b 3f 5e 3e dc 07 0f b9 9f bf
       0.013250907018396025 -0.03097938046908976
000760 05 2d fa d0 ef ef b6 3f 1e 97 0b c3 0b b6 a7 3f
       0.08959864475234632 0.04631077533649218
000770 ec 54 15 5f 76 f2 a7 bf bf dd 89 c9 55 0f b4 3f
       -0.04677171621976037 0.07835899515509136
000780 3c 33 6e 65 7a 14 b9 3f 94 45 2a e2 b3 29 bc 3f
       0.09796872116403404 0.11001133224114873
000790 37 29 53 0a 30 64 bb 3f 13 5c e0 4b 67 a4 bd 3f
       0.10699749233314014 0.11578984835101407
0007a0 c4 1f e2 35 5d 88 ae bf 89 3f 7b 1b 2b bf ae 3f
       -0.05963412554507344 0.060052249054591895
0007b0 70 ff a4 b4 03 52 b4 bf e8 a2 28 a7 15 4b b8 3f
       -0.07937644157663981 0.09489569979690382
0007c0 54 c6 45 3d 89 22 be 3f db c4 5c 8b 84 75 94 bf
       0.11771447893058823 -0.0199795446453138
0007d0 72 74 e0 73 bf 55 7c bf 9d ee d4 53 02 e5 b8 3f
       -0.006917713033570571 0.09724440142320608
0007e0 fc 71 12 12 fa 45 a3 bf 44 52 74 67 af c9 ae bf
       -0.037643255907116896 -0.06013248575087407
0007f0 18 6a 8b c2 b8 e1 bc 3f c3 3d 05 57 61 43 b3 3f
       0.11281924008964272 0.0752468907787636

module.model_upsampling.down_path.0.block.3.bias f8 [8]
000000 b2 e4 47 06 39 a2 57 3f f7 8c a3 ac fd f1 b6 bf
       0.0014424855118007449 -0.08962998833480983
000010 16 40 9d ee 2b a6 84 3f 3c 16 83 1d c3 79 bd bf
       0.010082572192601485 -0.11513919325360517
000020 77 60 b4 11 c2 c8 83 bf af 03 d9 b3 37 8c aa bf
       -0.00966025940446989 -0.05185102529913565
000030 7e c2 de e4 52 dd 80 bf 97 05 29 90 0c 68 a3 bf
       -0.008234641656458704 -0.037903206441579566

module.model_upsampling.down_path.0.block.4.weight f8 [8]
000000 64 2d 62 89 0a 07 f0 3f df dd ff c8 26 f1 ef 3f
       1.0017190329116028 0.9981874395152167
000010 07 cc 7c 66 8f 07 f0 3f 10 1e 74 48 1a 08 f0 3f
       1.0018457415978916 1.001978190442859
000020 0e 44 9d 66 d1 07 f0 3f 60 01 53 29 6b 05 f0 3f
       1.0019086845752585 1.0013229002216448
000030 9d 92 81 e7 dd 07 f0 3f 51 cb f7 32 95 f0 ef 3f
       1.0019206088265158 0.9981180186717699

module.model_upsampling.down_path.0.block.4.bias f8 [8]
000000 ea 3f 62 bc 37 21 56 3f 09 d8 4c 0b 6c 88 5c bf
       0.0013506931586881829 -0.0017415099257056552
000010 94 90 10 d9 15 ab 5f 3f 9e 71 ae da e3 26 60 3f
       0.0019328797682272346 0.0019716692235773456
000020 e6 62 90 ff 90 a1 5f 3f 1c 59 f0 46 34 0b 5d bf
       0.001930610275172545 -0.0017726908224680654
000030 2c 45 24 dc e0 49 60 3f f0 96 de 02 b1 2f 59 bf
       0.001988352946803792 -0.0015372494340026265

module.model_upsampling.down_path.0.block.4.running_mean f8 [8]
000000 ca b0 d0 23 c4 aa a4 3f 6c 59 7d 36 e9 b9 d8 bf
       0.04036534249493824 -0.3863471061826178
000010 a9 2b 93 25 5f 15 9d bf 14 97 2c 7b 82 1b a7 bf
       -0.028401838940037703 -0.04513175729361599
000020 ed 34 b4 8f e0 3d ab 3f 7c 52 43 c5 83 58 b3 3f
       0.05320646051596065 0.07556937757483156
000030 d5 d9 46 e8 b1 75 9d 3f f4 ce 6f 0a e8 74 b3 3f
       0.0287692831058964 0.07600260023883348

module.model_upsampling.down_path.0.block.4.running_var f8 [8]
000000 f9 0b b6 55 25 03 c0 3f f7 29 d2 6f 29 36 c9 3f
       0.12509600339043894 0.19696538887031043
000010 ad 7a e2 fc 37 4f c9 3f 67 13 bf 35 78 c5 c6 3f
       0.19773006294140796 0.17790129303298416
000020 c0 df 60 48 c9 76 c9 3f e7 41 8f bf 7f 7f c7 3f
       0.19893756898977522 0.18357846120353757
000030 22 ac 8f 1f a6 ef cf 3f 64 b7 d0 15 cf b5 c9 3f
       0.2495010046107789 0.2008608681221019

module.model_upsampling.down_path.1.weight f8 [16, 8, 3, 3]
000000 11 99 3c d9 02 cd a8 3f 0f c0 6a 30 0c dc b1 3f
       0.0484391107732326 0.06976391012244697
000010 6b 61 27 a4 08 54 8c 3f cc ad 04 9c 53 2f af bf
       0.01383215666730627 -0.06090794829864485
000020 b5 11 0e ea a6 88 9b bf 72 f2 d7 ec dd e0 93 3f
       -0.02688847354467479 0.01941248663023249
000030 e8 d7 48 ae 92 b5 b9 bf ed c7 d2 b4 8d 26 ba bf
       -0.10042683367723237 -0.10215078034050835
000040 64 d3 10 49 34 99 b4 3f 8b fe 29 46 cd ee ae bf
       0.08046271118003073 -0.060415663542696306
000050 54 b8 31 9e 6e 8b b2 3f 09 1d f2 7e b3 6a bb bf
       0.0724400650230746 -0.10709688042890177
000060 fd 04 fc 95 03 07 be bf 3d e0 37 e2 4f 31 a2 bf
       -0.11729452525834812 -0.03553247105077204
000070 48 3a d7 27 92 33 8c bf 87 02 ab 10 52 7c 6d 3f
       -0.013770238724558528 0.003599319728295139
000080 ab d4 57 99 69 0b a3 bf 01 e7 27 62 5e b9 b5 3f
       -0.03719644543517949 0.08485975166686545
000090 7f 03 15 e2 4f cd b9 3f 73 c1 1d 26 f9 e4 b7 bf
       0.10078906316358703 -0.09333760433742615
0000a0 32 61 9b 19 74 69 8f bf 67 42 49 7b 1c 1f b1 bf
       -0.01533785536905494 -0.0668809700957894
0000b0 20 eb 75 09 8a a6 bb bf 72 75 4b 30 3f 59 b3 3f
       -0.10800993662807601 0.0755805485636836
0000c0 5c 65 cb ad 76 c1 96 bf 82 d6 dd 40 d9 dd b8 3f
       -0.02222238002545872 0.09713514169365037
0000d0 2e ea 85 9f 8e 0a ba bf 1b 5c d2 30 e6 76 98 3f
       -0.10172358889205022 0.023891064386216337
0000e0 94 dd d6 54 d3 7b a1 3f 1a 1b d0 c2 a9 46 bd 3f
       0.03414783869396412 0.11435948377775809
0000f0 42 ca 22 45 14 ae b7 3f 8d 1c 9a f1 70 f6 a7 bf
       0.0924999874867263 -0.04680207204096929
000100 b0 07 c4 37 3a 11 9a 3f c3 44 b9 5a af f3 b0 bf
       0.025456342366858287 -0.06621833767828193
000110 bf e6 a0 9d 46 01 bb bf 9c 08 ce 82 60 43 b9 bf
       -0.10548821781494676 -0.09868434136845611
000120 11 6a ba 45 3f 4a 9d bf 22 bc 82 9d 2f 0c af 3f
       -0.028603542929525775 0.060639846780184095
000130 21 b5 5a 17 a3 87 90 bf 04 75 25 6b 5a 21 b8 3f
       -0.01614241437953468 0.09425892940403818
000140 03 ee 2b 32 9f 49 af 3f 8d 1e 67 ee 1c 16 ad bf
       0.061108565210783915 -0.056809333898454197
000150 bc 05 33 84 cf 2b a6 bf 81 21 f0 22 0a c6 a0 bf
       -0.043302998435602785 -0.0327609222077312
000160 50 c8 1d 2b db f0 b8 3f bc 25 48 b3 8f 4b b2 bf
       0.09742517283101049 -0.07146547438619327
000170 b7 d9 48 2f 45 5d be 3f 60 7e fe 36 b1 b2 a7 bf
       0.11861069111259935 -0.046285188639782815
000180 77 b0 12 e4 41 c6 76 bf ef aa fe 31 58 f9 8b 3f
       -0.005560166727416874 0.0136591806657029
000190 3a 2f 4d 66 28 f4 b6 3f 4f c8 9b d4 28 58 a6 3f
       0.08966305253596554 0.043641353562535394
0001a0 41 b0 59 29 86 6b bc bf b2 2d 45 fd 7b 72 9f bf
       -0.111015687079715 -0.030710160573375674
0001b0 4b 2c da 8b af f8 aa bf 8d c0 a6 13 a8 69 b9 bf
       -0.05267857153111118 -0.0992684410073272
0001c0 9a f0 77 6a b0 0c be bf 80 e9 ab 79 28 99 9c bf
       -0.11738112067536335 -0.027928001810303638
0001d0 2f d2 ff 2e c5 41 9b bf fe e0 7f 3d 9f 77 a3 3f
       -0.026618081086740183 0.038022018677965605
0001e0 ba aa 85 c8 51 58 91 3f 3b 22 4d 90 79 af b7 3f
       0.01693847452535622 0.09252128384572071
0001f0 d6 a4 40 a4 bc cb bc 3f 9f ac cd 2e db b9 ae 3f
       0.11248377809592411 0.0600117201455188
000200 2e 18 3c 8b b6 b8 9c bf c4 56 04 46 47 58 b8 bf
       -0.028048374412741044 -0.09509702166937034
000210 62 4e 7c 7d 08 39 b6 3f 50 43 c7 65 45 25 a1 bf
       0.08680775703060697 -0.0334874808064628
000220 4e 56 73 41 7e 43 a3 bf 06 45 31 14 89 33 a1 bf
       -0.03762430714565977 -0.03359630938997253
000230 ae c1 42 a7 7d 57 a2 3f 68 3f 69 0a d1 02 b6 3f
       0.035823752086233326 0.0859804773729117
000240 6a b4 bc d7 54 66 64 bf 30 86 43 24 8d 98 5e bf
       -0.0024902016720234526 -0.0018674257599332715
000250 25 4e 07 6c d7 eb 8b 3f 70 8e 5d 30 26 f1 a9 3f
       0.013633425697583476 0.050667947200761954
000260 22 08 7d a0 9b bc b4 3f 7a bd e5 47 e0 ed bc bf
       0.0810029284303089 -0.11300470118816533
000270 c9 b6 c7 11 fb bd 91 bf 9d 2e b4 3e 96 57 a7 bf
       -0.017326281509602724 -0.04559010997226418
000280 c8 7b b2 bd e8 4d a6 3f a7 30 09 f3 ae 39 8a 3f
       0.04356314960136093 0.012805334846369766
000290 26 16 81 1d f8 59 68 bf 63 d5 97 4c 7e ce b7 3f
       -0.0029725881577487177 0.09299458856533742
0002a0 57 66 1c 32 a7 2c bd 3f 32 fd 02 a8 d1 1b b2 bf
       0.11396260236178911 -0.07073698379371221
0002b0 e5 e3 01 13 ff 88 a1 bf c2 a9 e0 49 50 80 9f 3f
       -0.034248324461209546 0.030762915143137233
0002c0 fb 42 f4 a3 c8 f8 af bf 6e 94 6d 07 fe 55 a6 3f
       -0.06244494439500233 0.0436248191897811
0002d0 8a ba c8 2d 8a 77 85 bf 61 eb f3 50 59 88 b1 bf
       -0.010481910249919641 -0.06848676897417995
0002e0 e5 5b 1a d7 6e 08 a3 3f 2a 5f f2 98 a3 32 b0 3f
       0.03717371345299351 0.06327269062091703
0002f0 f2 a2 a0 4e 57 08 9d bf dd 8a b7 f5 80 68 a0 3f
       -0.02835213105587093 0.03204730033373491
000300 08 55 c6 70 26 be b7 bf 52 53 12 f9 47 29 97 3f
       -0.0927452111557906 0.022618412568209685
000310 b5 78 42 0e 4c 77 b9 bf ba e5 02 6c 55 78 a3 3f
       -0.09947657917152493 0.03802744811532528
000320 9a 74 3e 18 44 30 9f 3f 3a 6d 1c dd 7e 00 b3 3f
       0.030457557658895774 0.07422631166666785
000330 b6 be c5 c8 42 d3 a2 3f 73 e5 19 f4 9b 01 b7 3f
       0.0367680425723597 0.08986830434323227
000340 09 cb ad 50 07 d5 b5 3f 2e 00 2c 77 65 7a b4 3f
       0.08528180808734133 0.07999262008161231
000350 2c 3b db 8a 0f 4f b9 3f ff 23 fe cb 1c d4 b2 3f
       0.09886262073562752 0.07354907970706391
000360 8c d1 eb 9f eb 4c bd 3f a6 ba 84 b0 d0 9f b4 3f
       0.11445496229482027 0.08056358632596047
000370 e3 35 78 c9 be d0 99 3f 6b 79 f9 ce 2e f5 b2 3f
       0.025210362478949377 0.0740536933239803
000380 31 81 28 b6 50 c3 ac 3f d4 18 63 60 62 05 b8 bf
       0.05617763732539272 -0.09383215764237046
000390 e6 fe cc de 75 4c a1 bf 9b 56 61 f8 02 6b b0 3f
       -0.033786471793517056 0.06413286746950535
0003a0 a8 fa ed e5 25 b6 a1 3f 3d 4a 66 61 df 99 91 bf
       0.03459280425794492 -0.017188539809988013
0003b0 81 6b c0 9f 20 84 b3 bf 29 86 04 64 9c 67 9d 3f
       -0.07623485469996007 0.02871555672130036
0003c0 d2 ac 27 57 4f 3f bb 3f 67 77 e4 8f de 76 b6 3f
       0.10643478277022503 0.08775130284308617
0003d0 a3 6b b0 8c ae ba b4 bf e3 c4 b3 2c ff 47 b2 3f
       -0.0809735387305595 0.07141108361590258
0003e0 e4 85 48 be 4d 57 b6 bf 6b 66 fe be 43 5e a3 3f
       -0.08726964850986679 0.03782855707613638
0003f0 42 ed e7 5d 1e 2a b4 3f 6c 2f b5 ad e8 bb 8a bf
       0.0787676791441543 -0.01305372028459547
000400 38 e1 e0 3e 24 ef bb bf 72 20 80 60 3b 33 81 3f
       -0.10911776099317627 0.008398498423062704
000410 18 75 cb 80 6e 4c 98 3f 3e e0 26 6b 8c 06 b9 bf
       0.023729063616760276 -0.09775617233287989
000420 22 4f d4 64 bd a8 a7 bf 93 fe d0 2c bd 48 bb 3f
       -0.046209257658260464 0.1065786585249902
000430 67 ae cc 9d 6d 43 83 bf 71 a3 fd 7e 4d 06 ab 3f
       -0.009405952814254449 0.05278246092968331
000440 cd d5 eb 38 ec 26 b2 bf d7 04 86 48 f1 98 bc bf
       -0.07090641393354886 -0.1117087175425867
000450 9b e3 96 a9 26 78 89 3f c5 63 be 8c 46 c0 ae bf
       0.012436201143701633 -0.06006069629729142
000460 8c 52 8f 3d 60 71 a6 3f ec 0f 85 28 c6 59 78 bf
       0.043833739771490604 -0.005944990211279571
000470 9b 6c e9 83 ec 6c 92 bf ec 18 81 61 c9 7b b6 bf
       -0.017993636657007355 -0.08782633429027314
000480 69 34 65 41 f7 c5 bb 3f 7d 80 6e a8 e7 97 a3 bf
       0.10848946901860902 -0.038268317518714824
000490 74 71 04 81 9d 7f 95 3f e3 22 c1 4a 2f 91 b4 3f
       0.020994626044840328 0.080340343237491
0004a0 b1 83 42 4e 93 3b ba 3f a0 82 b7 cd 32 32 b6 bf
       0.1024715486587542 -0.08670346758254732
0004b0 36 b9 24 be 41 90 99 bf b4 21 cc cb e9 0e 9e 3f
       -0.024964358549533126 0.029353764594846246
0004c0 97 f4 95 5e 3f 14 b8 bf e0 51 34 5f 41 4b 85 3f
       -0.09405895289633502 0.010397444456011706
0004d0 bf 8c 85 b9 b9 cc b2 3f 33 c9 15 0c b8 e4 8c bf
       0.07343636302316535 -0.014108121746833823
0004e0 e0 0e 30 eb 3f d8 a3 3f 56 13 4a fb 51 03 b4 3f
       0.03875922914451535 0.07817566285127717
0004f0 dd 5f da 7d 53 56 87 bf a9 e4 a2 01 bb 2f bc bf
       -0.01139512279341653 -0.11010330953549165
000500 7f 0a 48 df 44 83 a5 3f 65 ba 68 10 5a 93 b4 bf
       0.042017128234893335 -0.08037341023075724
000510 fa 83 d3 cc 27 6f aa bf 25 9e ec 6a 31 b9 bc bf
       -0.05162929892845365 -0.11220082149940731
000520 08 67 cd 2b 87 81 a3 3f 39 95 07 fb 8e 94 b1 3f
       0.038097595307318655 0.06867307308819627
000530 67 e1 5a 52 b0 f9 83 3f 41 bb c4 1f d9 34 b3 bf
       0.009753587258601383 -0.07502514863584243
000540 ed 65 15 dc b4 3c a6 bf c7 0f 81 3d f0 ae ad bf
       -0.04343190371100634 -0.05797529936583561
000550 57 60 04 60 c4 8b b8 bf 42 8c 93 e2 50 b2 6f 3f
       -0.09588267654578551 0.0038692073618320786
000560 6c 5d e7 99 2d 97 94 3f a8 71 0c de b8 d5 b7 3f
       0.020107948797741512 0.09310489102467179
000570 07 39 00 9b 2d ce bd bf 8e 2c dd 0c de 79 bb 3f
       -0.11642727884484226 0.10732829870282698
000580 b0 5a ca 25 fa 69 ac bf 5c ff 90 20 a3 69 b1 bf
       -0.05549604140576514 -0.06801814599111594
000590 04 98 e2 3e 14 4d b6 bf b4 55 28 7a 89 45 95 bf
       -0.08711363349229378 -0.02077307518091738
0005a0 cb 46 53 8d fa 2a 89 3f 73 80 56 06 80 10 7e bf
       0.012289006650834896 -0.00733995446844925
0005b0 0e 5e 89 04 03 e3 b5 3f af 3f e9 c5 03 d8 92 3f
       0.08549517498737932 0.01840215583280241
0005c0 e7 54 40 a7 19 03 90 bf 16 46 27 ff 53 b4 b5 3f
       -0.015636826356133417 0.08478283862429978
0005d0 e5 9d 72 dd 65 9f b1 3f 72 66 cc f8 04 b6 b4 bf
       0.06883846908987541 -0.0809023959558546
0005e0 fa 87 4b 19 b2 f7 b4 bf c1 f7 b7 8f 04 08 b5 3f
       -0.0819045364146688 0.08215359219317887
0005f0 43 fd 4b 38 d6 aa b2 3f bc 94 05 89 4f 64 94 bf
       0.07291926264223485 -0.01991390489401533
000600 c2 54 39 ae f3 9e b0 3f ad 94 9c 9f 55 40 b7 3f
       0.06492541316522973 0.09082541605728763
000610 2c 54 a6 f5 d5 a4 7f 3f 8e f2 59 3b 44 55 a5 bf
       0.007725559024398126 -0.04166615700248598
000620 6a c5 1a 1c dd 7a 7a bf 0e fe 17 b8 51 54 b7 3f
       -0.006464828214732913 0.0911303591201362
000630 fe 0f 56 e9 5d ad 97 3f 9b 11 32 0a 30 fc b9 bf
       0.023122279516897486 -0.10150432824054294
000640 af 69 5c ee b5 62 b5 bf f6 79 51 e0 fb da b1 bf
       -0.08353745526657151 -0.06974767900963016
000650 20 88 18 33 13 35 b4 3f 18 41 98 9f d0 b0 b9 bf
       0.07893486020523754 -0.10035423179966008
000660 4c 85 8c 9f ef c8 bb 3f 45 55 93 9c 6d 7d 94 bf
       0.10853479047047648 -0.020009720498668022
000670 4b c0 56 9f 3a d0 a2 bf 99 53 43 1e 59 fe a6 bf
       -0.03674491114668451 -0.04490927214070623
000680 05 46 e6 f9 4c b1 ac 3f 12 2c 20 85 e4 ae ba bf
       0.05604019690066412 -0.1042311501516198
000690 43 b9 17 d2 ed 0a aa 3f d0 6f cf 31 b7 c2 bc 3f
       0.05086463155372425 0.11234612432548308
0006a0 be a7 49 1a 72 c7 b4 3f 3f 70 8b b2 bb 58 94 bf
       0.08116830007352768 -0.019869740269186528
0006b0 82 06 98 bf 18 6b aa bf 2c 26 11 26 60 0a a6 bf
       -0.05159833277504068 -0.04304790939984246
0006c0 09 cf 8f d6 a3 f1 b9 bf c6 d6 d1 f9 e4 89 a9 3f
       -0.10134338367771191 0.04988017606312449
0006d0 7a dd a7 b4 f1 30 a0 bf d4 59 87 cd 45 42 b9 3f
       -0.03162341432828959 0.09866749065199737
0006e0 b6 3c 72 e2 25 c2 ba bf 89 19 77 6a 2d eb 9c 3f
       -0.10452496317360524 0.028240880606767802
0006f0 7e 65 50 ba 00 22 a6 bf f9 44 0e 1f 7a 2e b6 bf
       -0.043228171103872434 -0.08664668329426552
000700 14 39 4f a9 08 8c 99 3f 51 01 76 87 76 d9 b9 3f
       0.02494824918158496 0.10097447211410794
000710 56 be 0e 28 5c af b4 3f 95 23 43 76 39 41 b4 3f
       0.08080078103989172 0.0791202462888932
000720 df cc 29 5c a0 b3 b3 3f c3 0a 98 91 ef 2f 47 3f
       0.07695963144378791 0.0007076186913653404
000730 51 02 7e 12 e0 d5 b0 3f 56 97 8e 1a 63 eb b0 bf
       0.06576347781629834 -0.0660917224728029
000740 dc 92 46 1b c3 12 b3 bf 97 b4 6a a9 a5 5a a4 3f
       -0.07450503745946996 0.03975408261371987
000750 b3 e4 91 96 6c 01 b6 3f e7 6d c5 fa 52 bc ab bf
       0.08595923114798402 -0.0541711741559217
000760 2c 34 b9 3f 4a af b3 bf 45 55 18 e4 ec dd b7 3f
       -0.0768934636664233 0.09323006218649706
000770 71 5d 2f a1 57 53 b0 3f 21 bc 7a c9 af 41 8b bf
       0.06377170262509481 -0.013308881126560536
000780 27 20 7b 86 29 42 b7 3f fa 72 d9 1d cb 72 b7 bf
       0.09085330517984912 -0.0915953586458719
000790 35 9a c9 70 65 93 99 3f 53 dc a0 b4 7a 9b b2 bf
       0.024976334580424548 -0.07268492612716786
0007a0 f9 d1 f6 20 09 6e b9 bf 72 ec c5 7d 13 f9 53 3f
       -0.09933526091374024 0.0012190523476352214
0007b0 fc be e4 05 5f eb 86 3f 25 df d0 1f 32 f8 a5 3f
       0.01119112240539221 0.042909208663728195
0007c0 dc 24 51 1a 21 4b ae 3f 70 43 d7 9e 26 41 8a bf
       0.05916694113018092 -0.012819577906073326
0007d0 42 b1 bf ba c0 c8 a2 3f 0a c9 d3 30 0c e3 b3 3f
       0.036687872692569914 0.07768322174141332
0007e0 f8 de 00 bd 92 18 a4 bf 61 8d 4c d9 00 f6 71 bf
       -0.0392499786107105 -0.004384997668953034
0007f0 5a 10 72 c2 7b cf a2 3f 72 05 a1 5b bb ca b8 bf
       0.036739222990065115 -0.09684344279323456
