results/run_2/saved_model_end_to_end_unet128_0.pt (torch, 342451 bytes, 35 tensors)

restriction_net.0.weight f8 [6, 3, 3, 3]
0	0x3fc8d7347f90309a	0.19406753758119494
1	0x3fbb0296b6481ee7	0.10550825071561186
2	0xbfb577310175d0eb	-0.08384996686601524
3	0xbfc2ac55db3f80bc	-0.14588425832244478
4	0x3fb4cb0e883a6f02	0.08122340036282696
5	0x3fbb4f21b04f54e2	0.10667620233956002
6	0xbfc1934d3ee6d9ef	-0.1373077923905863
7	0xbfc0619eae2b8fd0	-0.1279791212501764
8	0x3f916d2ea4f0f0b3	0.017018059556207898
9	0xbfa16a71d8299ada	-0.03401523364737154
10	0xbf957e02a8730651	-0.020988503962831754
11	0x3fb8fc13c0a5f7ce	0.09759639218643132
12	0xbfa6fd7e3b25b3cd	-0.04490274879467613
13	0xbfc6298946cb1855	-0.1731425853415113
14	0x3fc5b8d9ee329292	0.1697037137102098
15	0x3fc1d30ca5f0d288	0.1392532167680154
16	0xbf9281677cde57e3	-0.01807176303517356
17	0xbfc77599e048949f	-0.18327640010207788
18	0xbf9c4739c117382c	-0.027615454111405466
19	0x3fc65b967049be0d	0.17467003329100841
20	0x3fc5b267ae842c25	0.169506988728558
21	0xbfb274080afbc40b	-0.0720829989256943
22	0x3fc70754dd4c7560	0.17991123967741895
23	0x3fb1feee7e59300c	0.07029619774510837
24	0xbfa3ab2a7396bc78	-0.038415266618692934
25	0xbfa3f2db5301e5e5	-0.03896222484850024
26	0x3faa7d134f798538	0.051735499812603114
27	0x3fc8c707d1930c81	0.1935739301025912
28	0x3fa3f75ef381acdd	0.03899666521541587
29	0xbfb1fa0f888a6499	-0.07022187312613183
30	0xbfc19a302910a01b	-0.13751794819950267
31	0xbfc6342c3c9ced7a	-0.1734671874963672
32	0x3fc35e8765e09fa2	0.15132229303821726
33	0xbfbb8a787a969c22	-0.10758164399031547
34	0x3fba74de0806841c	0.1033457536309616
35	0x3f95f7054aedfb6b	0.021450121591893117
36	0xbfc5e69f1635fb7e	-0.1711005075885303
37	0x3fc6118785ba393e	0.17240995435390433
38	0xbf86c89245e1bfdb	-0.011124747045158692
39	0x3fc1df1d864f50d1	0.13962143953415887
40	0xbfc49595c9c0e275	-0.16081497527354185
41	0x3fc060ed7037a4c9	0.127957992356903
42	0x3f9ce92d35c6494b	0.02823324814523546
43	0x3fc6d1524ef17bf8	0.17826298575070587
44	0x3fbab44ebe94efc5	0.10431377556682182
45	0x3fc00ff636be77fa	0.12548711464927448
46	0x3fa891c3c0110fe0	0.047987096019397546
47	0x3fadecea99ce32a7	0.05844815375812589
48	0x3fb801886981a03b	0.0937733895858636
49	0x3f95510f2a12019f	0.020817028944749457
50	0xbfc7efe256ea0142	-0.18700818294383664
51	0x3fbf79526fea6e0e	0.12294497711484828
52	0xbfc70dbe15616f3b	-0.180106888236759
53	0xbfb9ce4d86628081	-0.10080418139341597
54	0xbfc048ea963c3542	-0.12722523055746576
55	0xbfc8c685409624b8	-0.19355836537969195
56	0x3fc61365b19f39e5	0.17246695683429816
57	0x3fbb5c2a74ee9a44	0.10687508921419303
58	0xbfadec9473679947	-0.05844558628796164
59	0x3fc2282c8d209f8f	0.14185101405132314
60	0xbfc7f747df5926e9	-0.1872339096610667
61	0xbfbe7e8d007fabb1	-0.11911851179290413
62	0xbfb6eefe7e053020	-0.0895842607180275
63	0xbfc08102dc1c1d25	-0.1289371084933261
64	0x3fc44800752378f9	0.1584473201718948
65	0x3fc2641929b1bac6	0.14367975746013978
66	0xbfb7c7476a2a1bfd	-0.09288450567156299
67	0x3fba1f5fc503032b	0.1020412307725677
68	0x3fc2f23f350d06dc	0.14801778879523553
69	0x3fc3cd4576e08988	0.15470188431306675
70	0xbfc3a3abc3eec83a	-0.15343234126118138
71	0x3fc71c284ac2b958	0.18054679537221818
72	0xbfb51f790d559a72	-0.08251148772760944
73	0x3f7ee0d0e038e513	0.007538619920120187
74	0x3fc2b7413af34db7	0.1462174928516171
75	0x3fa5caeeb9a1e152	0.04256387725848988
76	0xbfbe8427b19bb017	-0.11920402609001744
77	0x3fa88a41f79c8252	0.047929822422024274
78	0xbfc47ec42589a160	-0.16011859734431777
79	0x3f6eec1e836a1526	0.003774699779855911
80	0xbfc602120f299480	-0.17193818798401495
81	0x3fc1c84d1264934a	0.13892520330514407
82	0x3fc835b10805cac4	0.18913853542070147
83	0xbf9d0683a2ff4eae	-0.02834516222340138
84	0xbfb67d2515b52e58	-0.0878470590588959
85	0x3fc2f7779b239eec	0.1481770999446249
86	0xbfa9cd05ba8395f4	-0.05039232160360632
87	0xbfc261dad847757b	-0.14361129341606813
88	0x3fb54595b64b2915	0.08309302998091923
89	0xbfc00fe5843f6536	-0.12548512418178753
90	0x3fc7380b01a88b68	0.1813977964494271
91	0x3fb06f3faaac9b13	0.0641975204167518
92	0x3fad7184505b9b37	0.0575066898434699
93	0x3fb550725fe5021c	0.08325877038169732
94	0xbfc335a4645fb507	-0.15007452870433033
95	0xbfb5ed21252666b5	-0.08564955861074959
96	0x3fc1a3b72206f4b0	0.1378086963794991
97	0x3fa1063bdedda3a9	0.0332506856491997
98	0xbfc15d65fa5d1549	-0.1356627914885087
99	0x3fb2c85d6f8d3979	0.0733698270171085
100	0x3fbe93be86b7ee67	0.11944189824128558
101	0xbfb45377e10887b9	-0.07939862483956873
102	0x3fb8bd9ee20af2a6	0.09664338129636948
103	0x3fb4150ac60fc468	0.0784460767315679
104	0x3fbce83dac35c482	0.11291871504160336
105	0xbfc66aaaaac76b73	-0.17513020838563484
106	0x3fc73fe8e5517bc9	0.18163787076170326
107	0x3fbe161c4926af58	0.11752487932124944
108	0xbfa41aeef639565c	-0.039267985874783945
109	0xbfc12b6a0814295f	-0.13413739580603143
110	0xbf81334e7afe1ad1	-0.008398640755115679
111	0xbfc0feadea81ab91	-0.1327721972514522
112	0x3fb1f9d4f1284213	0.07021838081005453
113	0xbfb22b9eebb3f9ac	-0.07097810034244983
114	0x3fc3f5ec8f80498a	0.15594250685587624
115	0xbfb4d59e60f8c0f6	-0.08138456218216902
116	0x3f8e296dd1eb00e4	0.014727457016647745
117	0x3fac667a8c665a5f	0.055469350470208616
118	0xbfc52b1bc1c6fa32	-0.16537806474475897
119	0xbfb5cf2893b814b8	-0.08519223791525377
120	0x3fc27ae5aded44e8	0.14437552444954993
121	0x3fc445f27a86544d	0.1583846185937169
122	0x3fbcfd21c17634a2	0.11323748562991168
123	0xbfbc9db57b9d0ee1	-0.11178144710452954
124	0x3fb67f4dc5f4046f	0.08788000185815446
125	0x3fc550dd7ecc30d1	0.16653031054773362
126	0x3fc2a1a300a9d139	0.1455577615012176
127	0xbfb75f8fb52e4c9d	-0.09130190060959582
128	0x3fc6f23454efa7c3	0.17926649234078526
129	0xbfc0118e4820b762	-0.12553576013436457
130	0x3fc7205605ae09e6	0.1806743171437823
131	0xbfb6903a92f67fe1	-0.08813825691186096
132	0xbfa85cab2bb747f0	-0.047582005583208686
133	0x3fb3abcbd9450ac7	0.07684015325962
134	0xbfa34d02f02abd10	-0.037696925942663495
135	0xbfc1fbb01cb55e70	-0.14049340631276008
136	0xbfbf9a8e6e9fe5f7	-0.12345209313198056
137	0xbfa3a24e818eeeba	-0.03834767657778344
138	0x3fc01fa3d80b3439	0.12596557663928978
139	0xbfa66272aea43b19	-0.04371984845976424
140	0xbfbac50e6e7df682	-0.10456934163627277
141	0x3fc8a96d29835766	0.19267048384670743
142	0x3fc18a6fc6fdae1f	0.13703725067476655
143	0x3fc1218f3ca235a0	0.1338366552412653
144	0x3fb8533b7b46a23b	0.0950200248686394
145	0x3f933b2e95d9e7d9	0.018780448814574278
146	0xbf9fc775b0d8e6b2	-0.03103431598558499
147	0xbfa7777c7b576d53	-0.04583348279603663
148	0xbf697955384a2af4	-0.0031096138430418644
149	0x3fac50ac45905284	0.055302985660238085
150	0x3fc3ddba4bbc9381	0.15520409296109608
151	0xbfb076dcd6b6d72c	-0.06431370012327581
152	0xbfc1528556e10759	-0.1353308366979558
153	0xbfa51a7bbb7b08f6	-0.04121767676908121
154	0x3fb2d08d802d2b9b	0.0734947622233179
155	0x3fc822dfee207d3e	0.18856429221430376
156	0x3fbf181786f8fe26	0.12146136327009369
157	0x3fb5440bb898a818	0.08306954628702135
158	0x3fb50b5cbc441817	0.08220462414109907
159	0xbfa59673c85d1db9	-0.04216348477217075
160	0x3fb40120c457c8d4	0.07814221185234099
161	0xbfc34e4870f22716	-0.150826506757135

restriction_net.0.bias f8 [6]
0	0xbf968160a2fd3fd7	-0.021977910945963543
1	0xbfc758a569a79a72	-0.18239276560707968
2	0xbf9d4458edcc9506	-0.028581037057979784
3	0x3fc1906133719b16	0.13721861850645983
4	0x3fa1665ea38fa093	0.03398414370150351
5	0xbf74a77653158918	-0.005042516904128179

restriction_net.1.weight f8 [6]
0	0x3fefe4c32ca9df87	0.996675097688226
1	0x3fefe3737799780e	0.9965150199820998
2	0x3ff00cd0e51f25e6	1.0031289053025545
3	0x3ff00cdd558e75e6	1.0031407682466749
4	0x3ff0007167d9066d	1.0001081520607855
5	0x3fefe35545e31092	0.9965006222705759

restriction_net.1.bias f8 [6]
0	0xbf6b1c9aa68f4c1a	-0.0033095379371643864
1	0xbf47f877123ba5dd	-0.0007315236475424165
2	0x3f6c3f3a43576881	0.0034481180143589034
3	0x3f67063e1e35ae5d	0.0028105939142529083
4	0xbf64cffd9db92350	-0.0025405839385580845
5	0xbf6ccae26b27a1b4	-0.0035147115934146215

restriction_net.1.running_mean f8 [6]
0	0x3fe0256f4f2c947f	0.50456967796039
1	0xbfa782a788e33e7f	-0.04591868921272368
2	0xbfd404da3c5429da	-0.3127961720607836
3	0x3fe3748872acfd94	0.6079752197037345
4	0x3fcbef18babad5f5	0.21823414914767594
5	0x3fdb1d1f49f59cc8	0.4236524793872829

restriction_net.1.running_var f8 [6]
0	0x3fe7cb5f0f658df5	0.7435756016461129
1	0x3fe5537f4fc63cca	0.6664425428479259
2	0x3fe60811aa5f0a28	0.6884849860728695
3	0x3fe81cf8ab59e483	0.7535365435316098
4	0x3fe5793cd9ff1686	0.6710495240919989
5	0x3fe6e4fda0a26b6a	0.7154529702560073

restriction_net.4.weight f8 [12, 6, 3, 3]
0	0xbf9bfa97c8d70b62	-0.027323123582174154
1	0x3fbb186ac67be0b0	0.10584132524297973
2	0x3f8ecdfa35c8d83a	0.015041308180212199
3	0xbfb08163cb01deff	-0.06447433191521766
4	0x3fb5384c17570961	0.0828902775747671
5	0xbf73e2984a1db483	-0.004854769593163446
6	0x3fb53264f9b1b792	0.08280020805406554
7	0x3fb52b5aa3d60077	0.08269278049374572
8	0xbfad52bd86c25990	-0.05727188367852698
9	0xbf95b2b32d4884b6	-0.021189498556968465
10	0x3f65edbdf79c9f7f	0.0026768408105403703
11	0x3f924791291f9807	0.01785113156793019
12	0xbfaefd0ad25815db	-0.0605243093269043
13	0x3fbdfe6fd6b935b7	0.11716364853165016
14	0xbfb874887459bb96	-0.09552815285290558
15	0xbfbbeb9798f24fdc	-0.10906360134168785
16	0xbfb792ca8354cd2e	-0.09208360391931045
17	0x3fbb8d3282db9075	0.1076232499577275
18	0xbfbae0dedcfc9ecd	-0.10499375243363858
19	0xbfa1e529260be320	-0.03495148267206205
20	0xbfbd5e4f8f4566d0	-0.1147203182967147
21	0xbfaf23402b155645	-0.06081581617278834
22	0xbfc074c9b486c1ed	-0.12856408419385393
23	0x3fab1fee3046247c	0.05297798480302959
24	0x3fbddd86da8aec54	0.1166614802886426
25	0x3f97273cb269b146	0.022610615148026335
26	0x3fb79d7998d18db8	0.09224662762567604
27	0xbf52f2b76dc969ff	-0.0011565009400756885
28	0xbfab05539ab426a8	-0.05277501357529718
29	0x3fada41fae17acaf	0.05789278984215095
30	0x3f90c8ffd15759f7	0.016391751434491977
31	0x3fb392d369839255	0.07645913435005387
32	0xbfa0bf7877e341ae	-0.03271080459092289
33	0x3fb743c0905567f3	0.09087756656427341
34	0x3fa4f4b61f3f6152	0.040929499925996496
35	0xbfbd813ac3cb5ab8	-0.11525313644538471
36	0x3fbf339b7a6643bd	0.12188121546047533
37	0xbfa1fcac2777fa1b	-0.035130863016082446
38	0x3fb46fff58d2c689	0.07983394545115109
39	0x3fa88ac246c67851	0.04793364633518194
40	0x3fb992311e79e927	0.09988696092651549
41	0x3fb8d80e40cbfd57	0.09704674798921552
42	0xbfbe9f5619ce8a16	-0.11961877946900076
43	0x3f8c704d3d7ec7ed	0.013886073531327947
44	0x3fb77fd10e116f69	0.09179407685718179
45	0xbfb17e50fe8a145a	-0.06833368505802309
46	0xbf3560051884025e	-0.00032615780266101967
47	0x3fbc5550141428c4	0.11067677011684213
48	0x3fc06f7c546b56a0	0.1284022724345748
49	0x3f9544f71019fd85	0.020770893438109467
50	0x3fb3112c9fb1cf90	0.07448080920022293
51	0xbfaf19400499e1ba	-0.060739517747552665
52	0xbf830eb0507097ac	-0.009305360274151152
53	0xbfbcf0769eb5f9e3	-0.11304417967583151
54	0x3fbd181b3843ac72	0.11364908336297377
55	0xbf9285ddd4c21242	-0.018088785277102788
56	0x3f9b52de416298a3	0.026683304539482432
57	0x3fbe446246f69918	0.11823095543386264
58	0xbfb947dc5f1cb868	-0.09875275919032023
59	0xbfc08ebc6858b379	-0.12935595603030572
60	0x3fa1ca9362cc5c3e	0.034748655138337345
61	0x3f8f8b9bdc2b957c	0.01540300145775108
62	0x3f9e6fd494c8a6f6	0.029723474103014312
63	0x3fb95a1200dfc072	0.09903061410273198
64	0xbfa316fc7577a617	-0.03728474553993182
65	0xbfb7dbed24ea7c7a	-0.09319955970066643
66	0xbfb20917a63ad0d4	-0.07045123871177178
67	0xbfc19a5b9d1b7e4e	-0.1375231282354314
68	0x3fb64181424d65db	0.08693702572545396
69	0x3fba0eddb69a43d7	0.1017893381888507
70	0x3fc0e69f0d376898	0.1320380034001729
71	0xbfb4684cc9335396	-0.07971649086114349
72	0x3fbf158828a10ef7	0.12142230026170951
73	0x3fbf2b8c04dd24a3	0.12175822371240712
74	0xbfb54dd5bb48556b	-0.0832189161522671
75	0x3fbce8ea28b6bdbd	0.11292899602880531
76	0x3fc1842426339ae9	0.1368451296359219
77	0x3fbe107ae2888d85	0.11743896513558212
78	0x3fb24b5202b350e8	0.07146179738930736
79	0x3fb71a88fae77032	0.09024864316546724
80	0xbfb634859285c077	-0.08673891856392567
81	0x3fa50b4debeb5a5b	0.04110187058329436
82	0x3f84ad0d2b72a935	0.010095694435524475
83	0xbfb04d98de489fb2	-0.06368403841827222
84	0x3fbb303e0932786d	0.10620486950435444
85	0xbf9abfb99118ef4c	-0.026121997338335576
86	0xbfb2cc027f52f825	-0.07342544182299145
87	0x3fbd0521d580837d	0.11335956060839965
88	0xbf92bef3e53f5aa1	-0.01830655180659824
89	0xbfc10b04bd3b7580	-0.13314875831467177
90	0xbfc0101f12cd0132	-0.12549198549278057
91	0xbf9240a972e368ab	-0.017824790608621893
92	0xbf9425ab7407cfb3	-0.01967494865125703
93	0xbfc01a1183eab762	-0.12579554501774753
94	0x3faa0a643637e634	0.050860530489398675
95	0x3fab098860eded11	0.05280710395069311
96	0x3fad8ffe79644646	0.05773921233970873
97	0x3fb4b2d4f9feeb79	0.08085375884449587
98	0xbfafef21f8bd712d	-0.06237131272675565
99	0xbf9884d170668173	-0.023944160924317125
100	0x3f65f00ca87bd0c2	0.002677941058090467
101	0xbfbd6b85b30022ae	-0.11492190952425105
102	0x3fc00ab62149cc67	0.12532688737300932
103	0x3fa660828315a149	0.043705061437153754
104	0xbfb4c6cc6fb33862	-0.08115842558911049
105	0xbfb443691573e732	-0.0791536023497457
106	0xbfb6a9f790490750	-0.0885309912928538
107	0x3f9bff37cea08476	0.027340766893875622
108	0xbfae54f56f041b01	-0.059241933633577666
109	0x3fc03b3896493cc7	0.12680728281200102
110	0xbfb8e86a0fd190c9	-0.09729636083790462
111	0xbf93531559d70a1e	-0.018871625526808093
112	0x3fb75c1c09da76f4	0.09124922981797196
113	0x3fb8908d17d59744	0.09595567542927791
114	0x3fbc0b3ee295b0a2	0.10954659492353128
115	0xbfb7f22c5b118558	-0.09353902076101883
116	0x3fc008148b7af999	0.12524658976140016
117	0xbfa8f594ed03733c	-0.04874863999586984
118	0x3f8b04b5bd57b08b	0.013192577210212405
119	0x3f982907947f6bc8	0.023594015539724983
120	0x3fb6bf71fd0f5e54	0.0888587229559275
121	0xbfbdc7ea77d415df	-0.11633172441005211
122	0xbf6f61d6f994ff0c	-0.0038308333138558134
123	0x3fbb8dca61655ae4	0.10763230207281144
124	0x3fb61b65122c58d2	0.08635551160509472
125	0xbfbd2ea117078ca6	-0.11399275600665479
126	0xbfb91e3f2afbde95	-0.09811777877245682
127	0xbf59528cb1711ae1	-0.0015455602604263418
128	0xbfbeaf0bca794cc8	-0.11985849087914169
129	0x3f9b0c2cd5e82c7f	0.026413631969302017
130	0x3fad9b9646c99783	0.05782765974144779
131	0x3fa340cb3bc9cbd8	0.03760371308171501
132	0x3fba5d995e1b75b8	0.10299070880451822
133	0x3fb65ba8476caab4	0.08733608001481735
134	0xbfbf2c112601cc1c	-0.12176615884691028
135	0xbfac494f9a3cad89	-0.05524681813980254
136	0x3fc0c83effeb2940	0.13111102577233602
137	0xbfaae5fdc050b65f	-0.05253594372366587
138	0xbfc18eede61c3d16	-0.13717435584883536
139	0xbf6efb8d172f13f3	-0.0037820583033600862
140	0xbfac27459e8449cb	-0.05498712120074208
141	0x3fbc22f85b169809	0.10990860198816689
142	0xbf9a66e7df4178af	-0.02578317928452439
143	0x3fb3c43ee2cac464	0.07721322094836719
144	0x3fb014cc53feb910	0.06281735468539673
145	0x3faf388bfd47ca0e	0.060978293102284295
146	0x3fb684bea965892c	0.0879630244794824
147	0xbf954ab46a6f51e2	-0.020792788501994404
148	0x3fb299abf7fa634f	0.07265734485771456
149	0x3fb59d89cb7327a2	0.08443509308850008
150	0xbf929ce3639be02f	-0.01817660613502897
151	0x3fb514cfa9b1de03	0.08234880345286659
152	0xbfb7041bbdfe2d09	-0.08990643871782224
153	0xbfbaeddf6985c694	-0.10519214941248328
154	0x3fbcfad152cf42c6	0.11320217391699847
155	0xbfa75c48f2fc0c17	-0.045625953351212604
156	0xbfb1fed2483b8249	-0.07029451621520723
157	0x3fba1ae84a95454e	0.10197307415844145
158	0xbf94b06856463122	-0.020204191461332795
159	0x3fc134d1e3d11360	0.13442443488943479
160	0x3fb3539845e64bc3	0.07549430567296071
161	0xbfb571f1dd5ff5a6	-0.08376990942630033
162	0x3fb1bdf4765b848a	0.06930473222338854
163	0x3fc0d3aeb6102d0f	0.13146003618053512
164	0xbfc0e4e2ed6c1ae9	-0.13198505967030563
165	0xbf924c9c3124d7a0	-0.01787036943388609
166	0x3fc0ede27ae82e1d	0.13225966454807372
167	0xbfbcb3dbc92beadb	-0.11211942349829533
168	0xbfb9e40cc1417a5a	-0.10113601415785337
169	0xbfa2d0f3a22a01da	-0.036750424905225024
170	0x3fb51380b1d20d9a	0.08232883778878489
171	0x3fa1981804da082e	0.034363508789298045
172	0xbf87554ebd9de12a	-0.011393180047648405
173	0x3fbe6221ff14a560	0.11868488767199414
174	0x3faeb16c4ba33e8e	0.059947380288233196
175	0x3fab06f98d66d18a	0.05278758860677886
176	0x3f855acd02b03f59	0.01042709507422017
177	0xbfb699e1a3bb7b53	-0.08828554389354552
178	0x3fba666469963bd1	0.10312488153270684
179	0xbf7a7ca1a74f8dee	-0.006466514071664415
180	0xbf9fb334d1a76117	-0.030957055374387723
181	0x3fc090c4f55f2fb7	0.12941801053091037
182	0xbfa8c968d0413385	-0.048411631986346605
183	0x3faa9b1cfaf1fb95	0.05196466983124207
184	0xbfadab8d5f8751d7	-0.05794946471329226
185	0xbfb407a7b0de7b7d	-0.07824180667965482
186	0x3fc169327c70ba80	0.13602286411465414
187	0x3f96c6826c1f28c2	0.022241628503061113
188	0x3fbd89683218623e	0.11537791464832822
189	0xbfb971ac999c0dde	-0.09939078092798279
190	0x3fab0205ac616048	0.052749802868391316
191	0xbfadcec5cb275dd8	-0.058218174981160054
192	0x3fab84c70dfca112	0.053747387368561786
193	0xbfb66ece8293d489	-0.0876282757561332
194	0xbfb825635dd12e48	-0.09432049789864394
195	0x3f9ab95cafbe021b	0.026097725130513987
196	0x3fa0b7e443febb1c	0.03265298204438791
197	0x3fbac4e72d293db8	0.10456700184408063
198	0x3fa373d89d90991d	0.03799321101569062
199	0x3fa723c042e67ae4	0.045194633642713616
200	0xbfbbd4ef4307b19c	-0.1087178743980019
201	0x3f96d16cb903795d	0.022283266823131743
202	0xbfb70e5180ad9869	-0.09006223098330825
203	0xbfb6b9059e102fc7	-0.08876071080174973
204	0xbfbacf217dfde37d	-0.1047230656239559
205	0xbfc0aa78dd4592cb	-0.13020239643369388
206	0x3fbc1e133c5821c6	0.10983391021011987
207	0x3f9b5e3afbcea1ae	0.02672664796742346
208	0xbfa34687dbef7be3	-0.03764748153457
209	0x3fa9676541e7921d	0.04961697034358201
210	0x3fa2673857c66c70	0.03594375678513806
211	0x3fbd139d9a0fd315	0.1135805607917287
212	0xbfb11705ae680962	-0.06675754077881416
213	0xbf95f07eab2b6482	-0.021425227353436778
214	0xbfbaa416b1b1cbba	-0.10406629408116333
215	0x3f9f29ca0d2ea423	0.030432850889756346
216	0x3fb177ff5b3634aa	0.06823726631974361
217	0xbf8d6282f4187c24	-0.01434805209561147
218	0xbfb671cbdd18758c	-0.08767389438476964
219	0xbfc060b681f257a4	-0.12795144410182246
220	0xbf85178a229af51f	-0.010298804455823927
221	0x3fb9859169402d91	0.09969433612439206
222	0x3f9afd49dce7c979	0.02635684405135794
223	0xbf9cc579e1a1e828	-0.028097061535369644
224	0x3faf15f51bc98ee6	0.06071439708901298
225	0xbfb90ee54b513d82	-0.09788354004671443
226	0x3fb1d580c95e4526	0.06966404834954129
227	0xbfb0c0bf7d06f8c2	-0.06544110109732329
228	0x3fb912398249ef26	0.09793433600310361
229	0xbfb578123a1542ff	-0.0838633910946207
230	0x3fb45609299e6792	0.07943780199130249
231	0x3f945135646ef215	0.019841036086051107
232	0xbfa8f687faf8587b	-0.04875588358497481
233	0x3fb43c4e9570db68	0.07904521130045128
234	0x3fc076edffe31265	0.1286294459770431
235	0xbfb21bfbcb2e90b7	-0.07073949537749767
236	0x3fb06745c3ebaeff	0.06407581361025548
237	0xbfa9c540283f501e	-0.050333027756693335
238	0x3fc077e4e7ea1814	0.12865887950846455
239	0xbfc10b8ec4e67b06	-0.13316521276734522
240	0x3fbc18196296b939	0.10974272400810471
241	0x3fab2615731116b0	0.05302493123649066
242	0x3f93a1e8bbb2a25b	0.019172321754611903
243	0xbfb4389b43259275	-0.07898874654126493
244	0x3fb9d1298c5d32dc	0.1008478133855521
245	0xbf71bba4bc175e84	-0.004329341406865365
246	0xbfb5c9380d2d3f86	-0.08510160752962123
247	0xbfc11b4b9375b4f0	-0.13364548397240794
248	0x3f90df967d1e2ed7	0.01647791994723388
249	0x3fb486ad4e5a3bb0	0.08018000758077792
250	0x3f75eca2c9d2a26e	0.005352626697608371
251	0x3fb1cdf1425c8b5f	0.06954868192819451
252	0x3fb5673a658a9d33	0.08360638598479823
253	0x3fa08940172311f8	0.03229713709291454
254	0xbfbc1024e0fea9f0	-0.10962133877789149
255	0x3fa01de88921ade7	0.03147818254441486

restriction_net.4.bias f8 [12]
0	0xbfc1218189c48898	-0.1338350222295659
1	0xbfb4cb51d43f01cf	-0.08122741157331535
2	0x3fa49c5678747cde	0.04025526256941146
3	0x3f648c18bdb2b492	0.0025082095358671197
4	0xbfa6cfc43502d944	-0.04455388209446423
5	0xbfb4c062d8a9130f	-0.08106057920037933
6	0xbfc0737f5b0632e0	-0.12852470345060052
7	0xbfbca11dbfe5b651	-0.11183343825333593
8	0x3fbb6452b8786bb2	0.10699955943748199
9	0x3fa61d7e948fcedb	0.04319377482889105
10	0xbf78fed825dcf887	-0.006102413490053255
11	0x3f9dd8bd3c76e91a	0.02914710694833742

restriction_net.5.weight f8 [12]
0	0x3fefe883e20b6983	0.9971331992085627
1	0x3ff00b8ed3531a40	1.0028217558734838
2	0x3ff00e2a14f8e625	1.0034581011990522
3	0x3ff00d8917a60613	1.0033045696039877
4	0x3ff00ca86539f853	1.0030902818830512
5	0x3fefe8e78bd973b3	0.9971807223733918
6	0x3ff0022d71204550	1.0005316180216433
7	0x3fefe81f363d47c1	0.9970851954806151
8	0x3ff00122eb356a7a	1.000277441772282
9	0x3fefe464f717a808	0.9966301752112949
10	0x3fefe5941ab122f1	0.9967747231795255
11	0x3ff00cd10558eb32	1.0031290253525182

restriction_net.5.bias f8 [12]
0	0xbf58d872e31cb488	-0.0015164491600885583
1	0x3f6c60173b419f4b	0.0034637883891725277
2	0x3f6999eaba5adf56	0.0031251511125808635
3	0xbf479e9ff2b7ad87	-0.0007208138462692506
4	0xbf6b89b315a70f58	-0.0033615586991987793
5	0xbf66cf34e094fba0	-0.0027843506583446614
6	0x3f2f0e04c920a878	0.00023692902010569498
7	0x3f6b964532802b39	0.003367552901186424
8	0x3f43f9d842b6c5dc	0.0006096178016631831
9	0xbf6dd5ade58e6a2b	-0.003641929285050046
10	0xbf673bc56f70cdb2	-0.0028361183317657463
11	0x3f6b1a8b3fca92a5	0.00330855557543182

restriction_net.5.running_mean f8 [12]
0	0x3fa4acf62f9a853e	0.04038209277247028
1	0x3fa343c685f1fe30	0.037626460886709956
2	0x3fc03727a32c51c8	0.12668319194257394
3	0x3f6a050c03654d7c	0.0031762346872398744
4	0x3fa4287e54566730	0.03937144069204945
5	0x3fb504ab54757e49	0.0821024972151402
6	0xbfbaac8cbbf4d06f	-0.10419540013100613
7	0x3f9aea308d84de06	0.026283987653384265
8	0xbfabe67a5a09c022	-0.054492782107331786
9	0xbfc4b2b2398c8a7c	-0.16170337495812592
10	0x3f5b9850af6c3996	0.001684263986763667
11	0xbf198a1ba5ac6f50	-9.742540116202997e-05

restriction_net.5.running_var f8 [12]
0	0x3fe778009d53234a	0.7333987305401959
1	0x3fe6ebc7fd4c4ab6	0.7162818858363014
2	0x3fe6ea2db153e25d	0.7160862410956487
3	0x3fe662d8739edb43	0.6995661028111971
4	0x3fe5633eb99f1bf8	0.6683648705883334
5	0x3fe67e9af6ea24c4	0.702954752211689
6	0x3fe69882325caff7	0.7061167701372132
7	0x3fe59a16a2f85727	0.6750596220979092
8	0x3fe5cdb3f46f4c2e	0.6813602232090312
9	0x3fe676025c64b48a	0.7019054226453971
10	0x3fe567e521de5fb6	0.6689325009820013
11	0x3fe5e7ad8c353ab2	0.684530996173484

restriction_net.7.weight f8 [6, 12, 3, 3]
0	0x3f8646690db4eb9e	0.010876484614177614
1	0xbfaabf5a777597a6	-0.05224116047138176
2	0xbfb79e8292ab40c4	-0.09226242142472346
3	0x3fad6244f8b3b12f	0.05739036117469919
4	0x3fa017123cd7c015	0.031426019599052925
5	0xbfb278999dac2f38	-0.07215271090916253
6	0x3fa2c338c1640d64	0.036645673377303095
7	0x3fa5848234e66c03	0.04202658553841589
8	0x3f9b41d7f129cb5f	0.026618360609471533
9	0xbf9e0fcccd3d43db	-0.02935714724236847
10	0xbf8ddf264020be3a	-0.014585779983547476
11	0x3fb033af4f33394c	0.06328864749523183
12	0xbfb920c127708212	-0.09815604412916226
13	0xbf9a17890b92382a	-0.025480405169723643
14	0xbf9f4ff472525bad	-0.030578441121715084
15	0xbfaf06d9a99d830b	-0.06059913821696313
16	0xbfb19e5841885c12	-0.06882239913862545
17	0xbfb2de1997a7f6c6	-0.07370147659818391
18	0xbfa6d55f5edeb413	-0.04459665330009712
19	0x3fb0a579246b5bf9	0.06502492083687618
20	0xbf969f16f2d28349	-0.022091253824899657
21	0xbf8df2cda4732998	-0.014623266774283647
22	0xbfad737663a894ad	-0.057521533646914015
23	0x3fb66439b1e014ff	0.08746681778582753
24	0x3fa86185fc5ff82b	0.04761904435871175
25	0xbfac0a38139bed98	-0.054765465158165216
26	0x3f9f4ef039e1d4c7	0.030574563534590007
27	0xbfa9bf19dd2b9755	-0.05028611016113752
28	0xbf82492f85a1ae1d	-0.008928653016673721
29	0xbfb2e0327cbb260a	-0.07373347802344923
30	0xbfb536506ca96840	-0.08286001828074152
31	0xbf71772b020c497f	-0.0042640380859374485
32	0x3fa399e6fdfecbcb	0.03828355646637468
33	0x3fa7d43d87334efa	0.0465411403216915
34	0x3fa9818029a14509	0.049816136438162024
35	0xbfa0775b327342e8	-0.032160615833736916
36	0x3fb3ab7a5d35a356	0.07683529639838346
37	0x3f8bdd3b76c91873	0.013605560839220687
38	0x3fb01460102c8f74	0.06281090159296615
39	0x3fb58029b5b9d4c7	0.08398686110179475
40	0xbf848bae961b5622	-0.010032047229667166
41	0x3f87c6b8c19342db	0.011609500319907642
42	0x3fa8b2afc63180b5	0.04823827070572532
43	0x3f83969b118e50d3	0.00956460139585894
44	0xbfa68eddeefa7970	-0.04405873815743433
45	0x3fa93c4892cf854a	0.04928805153009337
46	0xbf9628d612a3b27f	-0.021640152824078825
47	0xbf875bc2902180a1	-0.011405487082982115
48	0x3fb15bc7acc61cca	0.06780670135605074
49	0x3f7014f5c0ed9442	0.003926238989923782
50	0xbfb03e7446e700e0	-0.06345297556891039
51	0xbfa4dfc8e4ab0dec	-0.04076984206542619
52	0x3fb6a762ba3fce3a	0.08849160239315604
53	0xbfac5e67872729d3	-0.05540774845902132
54	0x3fb3750f884cd018	0.07600495412481256
55	0x3fb878fb29e5d0d4	0.0955960252084112
56	0x3fa56eafe3908351	0.041860100296850285
57	0xbfaed8ae5627b349	-0.06024689485261676
58	0xbf602f3c83c97782	-0.00197564906402098
59	0xbfb3c9562ff06c08	-0.07729090376271597
60	0xbf7c139e9b936a42	-0.006854648171805313
61	0x3fb1cb17140fac8c	0.06950515975738564
62	0xbf9b2ba762edec05	-0.026533713734789206
63	0xbfb0198702fab548	-0.06288951704728618
64	0xbfb408be1472f054	-0.07825839995615641
65	0x3fa152af5491165d	0.03383396060284547
66	0xbfa7b5d8818949ee	-0.04630924779180022
67	0xbfb0dc52facdb06f	-0.06586187956935573
68	0xbf9471b2fd5e07bb	-0.019964977945626333
69	0x3fac352f1b0c8f83	0.05509326176823406
70	0xbfb2dad70f37550b	-0.0736517345570357
71	0x3faa7d24ddc267ab	0.05173602301620347
72	0xbfb491047441183e	-0.08033778990019955
73	0xbfa641057a7dbe60	-0.043464823915994044
74	0xbf37a000b4d449aa	-0.0003604890560648064
75	0xbfb3e8fd9471955b	-0.07777390359986695
76	0xbf9b6e0820ac19c0	-0.026786925310284593
77	0xbf737c5c70f50604	-0.004757271860684312
78	0xbf9309280e953d42	-0.018589616670678717
79	0x3fb48f9df3b9e194	0.08031642151207158
80	0xbfb8442d99fd275b	-0.09479031571859535
81	0x3f9e1dd9322c38f9	0.02941073769312028
82	0xbf9795330ab66f84	-0.023030087975356675
83	0xbfa897418a2c5b8b	-0.04802899181065986
84	0x3f8dc583dbe56f31	0.014536886356544794
85	0xbf7056072e4ef421	-0.003988292742119121
86	0x3fb27207451a307c	0.07205243527477195
87	0xbf9057865bbcf1b1	-0.01595888075756741
88	0xbfb442dabab5faa7	-0.07914511736269479
89	0xbf9c2b8baadbed23	-0.02750986318913563
90	0xbf956e9cb6ed7aa9	-0.02092976442815578
91	0xbf965a6a9696b937	-0.02182928604241249
92	0xbfa437b863675290	-0.039487611898640584
93	0xbfb71e85c0e85b15	-0.09030948600444007
94	0x3f72c11daf8fbe37	0.004578700981241072
95	0x3fac44eedda9a3a4	0.05521341758578238
96	0xbf5080ffb091632c	-0.001007318207731876
97	0x3f99425fe521decd	0.024667261467100233
98	0x3f967afd492214c9	0.021953542317096706
99	0xbf95e8a0113c35be	-0.021395207454636404
100	0xbfb77e0ba91a865c	-0.09176705244547051
101	0xbfb3680bd3fdb39d	-0.07580636907159861
102	0x3fa922d851b5d0ba	0.049093971228019354
103	0x3fa1410aae64fc86	0.03369935396994443
104	0x3f9a76628a08f22b	0.02584222762583203
105	0x3fb2f9d1bb714fff	0.07412443948970802
106	0x3faa81f72c085bd1	0.05177280819423625
107	0xbfb1541d3695b6c9	-0.06768972952496734
108	0xbfb17a29a107d3db	-0.06827030354891354
109	0x3f8392ff98294a2b	0.009557720976919168
110	0x3fb59b3942f5cedd	0.0843997753598233
111	0x3fb030fae8314274	0.0632473770977045
112	0xbfae0de9d9260085	-0.05869990134942874
113	0xbfb4f4b13060dffd	-0.0818587058173534
114	0x3f9efbacc2d92409	0.030256938355055527
115	0x3fb5f43e9a757618	0.08575812598197563
116	0x3fab68f92f92e40f	0.05353525834784289
117	0xbfa53e4e822bfb4b	-0.0414909871960761
118	0x3fb68b6bee048f01	0.08806490479451769
119	0xbf9a1221b0a9c174	-0.02545979157224694
120	0xbf72b7ca119ae3b5	-0.0045698064147296396
121	0xbfb60d5e9b7e519a	-0.08614150329805739
122	0xbfafe09b04e43d85	-0.06226047930442306
123	0x3f92f7e4339152bc	0.018523755690994945
124	0xbfb42b0c0b7585c5	-0.07878184585344801
125	0xbf9dcc585e838c52	-0.029099827545803265
126	0xbf824c4eba3f18b7	-0.008934607561866021
127	0x3fb62e6b63080f73	0.08664580505143053
128	0x3fb378900445b96a	0.07605838875108409
129	0xbf956d87c0225732	-0.02092563734239334
130	0xbf9ef4bae0d058f5	-0.030230445834683334
131	0xbfac9ac50cc04d18	-0.055868299299755175
132	0x3f9c8c0ef5cda0ae	0.027878030541075453
133	0x3fb391d6cb30fe6c	0.07644407711722473
134	0x3fb2bf97a42babcd	0.07323596723624277
135	0x3fb626d2f76f83c7	0.0865299085703689
136	0xbfb7b0546bf79b82	-0.09253432880323767
137	0x3fa903511b51ff79	0.04885343035220919
138	0x3f824ad3ea639e9c	0.008931785192955836
139	0xbf875c3b670ac7c4	-0.011406387407394088
140	0xbf9d701c5cb112b6	-0.02874798122162999
141	0x3fa478325788a2f2	0.03997952765013747
142	0x3f95f51e82b3049e	0.021442867972613848
143	0x3fac257ac0e11091	0.05497344593507692
144	0x3fb4c8d1da374a49	0.0811892659906245
145	0xbf78fb3002dbb866	-0.006098926108945779
146	0x3fb316bc2d21cd20	0.07456565954071381
147	0x3fb53baaa1bbb3ab	0.08294168900074676
148	0xbfa97fe0db8f211c	-0.04980375938572676
149	0x3fb7be59e02f91d9	0.0927482769325886
150	0xbfb6bbd2feeff04b	-0.08880346988729675
151	0x3fb7e33c28f5dcf3	0.09331108093271094
152	0x3fb4127eef9632c6	0.07840722417149512
153	0x3fad91c1fb229051	0.05775266829121562
154	0xbfb4de0cd19bedc9	-0.08151321523103329
155	0xbfb5ddacf14cc27a	-0.0854137505637115
156	0x3faa8435ee29f8a7	0.05178993732714448
157	0xbfb2fabcab52e1af	-0.07413844282826319
158	0xbfae8228d3eb476c	-0.05958678805258341
159	0x3fb67faf3524e8ab	0.08788580939736572
160	0x3f5aeb1592231528	0.0016429625180063943
161	0xbfb79090fd50ef9e	-0.09204965767361137
162	0x3f9f91d569c538ec	0.03082974870749748
163	0xbfa74a4ea91c9296	-0.045488794463641444
164	0xbfaf803970538941	-0.061525149308879985
165	0xbfb3eaefd1dc8310	-0.0778036010128853
166	0x3fb4a4cd6457b84a	0.08063968372127409
167	0x3f929d9ee106c95e	0.01817939995243855
168	0x3fb691d06c850419	0.08816244744686265
169	0x3f931563611363ad	0.018636277008088054
170	0xbfa5b3b0d43df7a3	-0.04238655653806169
171	0x3fa06cee556ff307	0.032081077508314286
172	0x3f914f37f7fb9240	0.01690375758234297
173	0x3fb7b2df3b6a6dd8	0.09257312012271457
174	0x3f909cff6401f131	0.016223898390749617
175	0xbfa6e6be23433694	-0.04472917728854245
176	0xbfa2f8d16990f7bb	-0.037054580818661496
177	0x3f81db37da2b9a3e	0.00871890673211084
178	0xbfb39bb513de1ec0	-0.07659465537119114
179	0xbfb3e66e586ed3be	-0.07773484858519361
180	0x3fa3f1180468cc61	0.038948774851086616
181	0xbf81bb4e229286d0	-0.00865803759581088
182	0x3fa4948902054dac	0.04019573354403447
183	0x3fa1434add3a10f3	0.03371652555964202
184	0x3fb384290653d0b7	0.07623535541989922
185	0xbfb34137cf6ee760	-0.07521389784133481
186	0x3fb236e76c2ce220	0.07115026846884875
187	0xbfb78ddc5d566035	-0.09200837401147129
188	0x3fa7f9d0ea3e632b	0.04682782039089369
189	0x3fb050ca695b2dfd	0.06373276779338961
190	0xbf88a247b6e6fd84	-0.012028274792895706
191	0x3f95e2cc7e3c567e	0.02137298126679931
192	0xbfb5993faee67c46	-0.08436964054134063
193	0x3f9d6bd580ee854d	0.02873166655957009
194	0x3f8dc9070b0d5bd3	0.014543585800920333
195	0xbf8d8bc5ca8ac9a0	-0.014426751369090607
196	0xbf7fc651b5a8b2b2	-0.007757491281648642
197	0xbfac6c7985ef1422	-0.055515096282342094
198	0xbfa4c63a5bd392e0	-0.040574859341892866
199	0xbfb456f6b16d9d47	-0.07945195991270736
200	0x3f646ebed13b60f1	0.0024942137623434825
201	0xbf6288b047656d7e	-0.002262443823537629
202	0xbfa68054b657d047	-0.04394783712260213
203	0x3fb1b9e1cb9e95fd	0.06924258443049065
204	0x3fa082bf312a7736	0.03224751925630047
205	0xbfa0706ee8c4268a	-0.03210779754051625
206	0x3fb613b0d3264f57	0.08623795657177645
207	0xbfb46f07764b4c31	-0.07981917036094967
208	0xbf8221f4cc9909cd	-0.008853828901128314
209	0xbfa5851187f4791f	-0.042030856939378795
210	0x3fae11bf8e3d5f3c	0.05872915850949176
211	0x3fa1f60d61a72f4c	0.03508035485319158
212	0x3f674cc44c5b92aa	0.002844222445548124
213	0x3f87f3335d292f2d	0.011694337158722224
214	0xbf9ca936611a6089	-0.027989244152735657
215	0x3fa590795cc15af1	0.0421178746916463
216	0xbf7a576b23705003	-0.006431025037290541
217	0xbfaef1366c86c82e	-0.06043405604158668
218	0x3fb1cdf034882a29	0.06954861910359313
219	0xbfa927b4ffa3626e	-0.049131065564954265
220	0x3fb21de21bac5f13	0.07076848197572998
221	0x3fb7c203f7f9a304	0.09280419162827164
222	0xbfb3ff52a395cc03	-0.0781146668794435
223	0xbfa56f6decd4a2e1	-0.04186576381682073
224	0xbf8b9ea1618920a8	-0.013486157216121633
225	0x3fa88b782959b7cc	0.04793906693235747
226	0xbfa9194f79b09850	-0.049021228413309914
227	0xbfaf00600ae8e4d9	-0.06054973729301034
228	0x3fb80f5b28ee0001	0.09398431538829756
229	0x3f9e29ba3051016a	0.029456052016258928
230	0x3f82b3270f20ed9c	0.009130768918217673
231	0x3fad0cce86b075a6	0.05673833269268451
232	0xbfaee45e946825ff	-0.06033607064825829
233	0xbfb51592507bdc94	-0.0823604055875527
234	0x3f5a4131abcf6cd8	0.0016024575299898227
235	0xbf4800874efb3608	-0.000732484882939922
236	0x3f9ccf651abfba8b	0.028134898908258193
237	0x3fa6778d5b03d86e	0.0438808606722184
238	0x3fb040e2c128d12d	0.0634900781231564
239	0xbfb271d80f4fc2bc	-0.07204962133233556
240	0x3fb3ab7bafecaab3	0.07683537526160471
241	0x3faafffc69109801	0.05273426802186521
242	0xbfb91c76004cbb1d	-0.09809052951161985
243	0xbf90ed7de01c44e0	-0.016530958942046037
244	0x3fa7abd03c2d8d2b	0.046232707353534096
245	0x3fb397deafe0b1a0	0.07653610032929814
246	0x3fabb49c0c5c3212	0.05411231661682704
247	0x3f95411486060496	0.02075607364668438
248	0xbfaf5901290f5a67	-0.06122592569561363
249	0x3f9d0d40e5b72c0c	0.028370870609972385
250	0x3fb1949989727e2c	0.06867370229382946
251	0xbf830283464be147	-0.00928213651921851
252	0xbfac6b9f257d2a01	-0.055508588148388334
253	0x3fb65346fc7a184c	0.08720821060168865
254	0xbf958cfa5e6a648b	-0.021045600903196997
255	0x3fb61a1b3a190be7	0.08633585136799092

restriction_net.7.bias f8 [6]
0	0xbf8e258b613df095	-0.014720047860230326
1	0xbf96aebd56060fbe	-0.02215095365092145
2	0xbfa0597d6d6b17f0	-0.03193275414155028
3	0x3f918afbc87830e4	0.017131742582976353
4	0x3fa121f217c4ee1c	0.03346210994865492
5	0x3fac2ab47b06cae2	0.055013313310515746

restriction_net.8.weight f8 [6]
0	0x3ff00b9ff9252828	1.0028381092292964
1	0x3ff008abffdf761d	1.0021171565089226
2	0x3fefe88f2134a68d	0.9971385620639964
3	0x3fefe7890fbb5cd9	0.997013598181094
4	0x3fefef5b1a1bd4fa	0.9979682455001744
5	0x3fefe8a2e26966c8	0.9971479818443294

restriction_net.8.bias f8 [6]
0	0x3f68b94d1cf5d228	0.003018046008657533
1	0x3f6a73609e899b0e	0.0032288443656399773
2	0xbf67b0906590da5a	-0.0028918094872339263
3	0xbf67637a8a21c742	-0.0028550523139125048
4	0xbf524077a46f3b03	-0.0011140030271580843
5	0xbf670f3c11deb05b	-0.002814881633602479

restriction_net.8.running_mean f8 [6]
0	0xbfb7e2acb288c185	-0.09330252989525974
1	0x3fa765f0df6f2b5c	0.04569962241620004
2	0xbf96071c5a620ccc	-0.02151150037435627
3	0xbf75ed78a1d6c1d9	-0.005353423327889983
4	0xbfa503e46220b73b	-0.04104531953667708
5	0x3f9f39115abe1add	0.03049113384579526

restriction_net.8.running_var f8 [6]
0	0x3fe62a8af694e48c	0.6926932159468762
1	0x3fe5a534b9c5e922	0.6764167431240689
2	0x3fe5f6cd4ddb9907	0.6863771935138921
3	0x3fe6664bedd3446e	0.6999873776459375
4	0x3fe70a2b582eb0a1	0.71999137137529
5	0x3fe6563f1bb113d5	0.698028139195794

restriction_net.10.weight f8 [3, 6, 3, 3]
0	0xbfa8e003a805ffd6	-0.04858409334246942
1	0xbfae3b951c7ed194	-0.05904832814067898
2	0xbf8f79b7c4729a26	-0.015368877108199074
3	0x3f8d7c6199c14d7e	0.014397394661648685
4	0x3fb759f7865e9911	0.09121653585916457
5	0x3fad9c0c7677856e	0.05783118196610358
6	0x3fb64b6f7ba3b137	0.08708855408230397
7	0xbfbd417d64b06204	-0.11428054531314308
8	0x3fbd3886b935aae8	0.11414377233237938
9	0xbf8eda3682bf358a	-0.01506464563854128
10	0xbf9e825fc7a990da	-0.029794212876723992
11	0x3f854fe2fbdc5908	0.010406277953319179
12	0x3f83d101e9f9b361	0.009675993874418589
13	0xbfa688600f1bc65f	-0.0440092104380596
14	0x3fa26f7471e2b191	0.03600658312038541
15	0xbfb58a68b1dff192	-0.08414320318838112
16	0xbf5f265ee66a7d6a	-0.0019012381323263113
17	0xbfa922e5842065bb	-0.04909436452744439
18	0xbfa217ec76881fb4	-0.03533877322121218
19	0x3fc041877a1261a8	0.1269997926763271
20	0xbfb8a736a3816402	-0.0963014744933304
21	0xbfb7fa4d58d7a4a5	-0.09366305750849564
22	0xbfa3819f8149d11d	-0.038098320514935426
23	0xbfb76a5c2a04f1cf	-0.09146667505132842
24	0x3fb2fa794d6a1d4b	0.07413442745211289
25	0x3f945652cf7496ea	0.01986054793555684
26	0x3fbb8b40fcaf78a4	0.1075935952098655
27	0x3fa516d6527859d4	0.041189858977464106
28	0xbf9121b1658f3829	-0.016730090926835004
29	0x3fc087115c7d846c	0.12912194267395039
30	0xbfa089f7c863de53	-0.03230261155289029
31	0xbfbfc091ec0f4d68	-0.12403213513544176
32	0xbfbfdab4ec176e67	-0.12443094982102708
33	0xbfc0cef73639d5d0	-0.13131609103918018
34	0x3faf363bf69083cd	0.06096064934559529
35	0xbfab6d853192b0ae	-0.05356994848384154
36	0xbfc0b7550cc5c74f	-0.13059485553417935
37	0xbfbe6b7b6becce85	-0.1188275469292482
38	0xbf9fc7df177c74a4	-0.031035886581879737
39	0xbfb361061fa1f108	-0.07569921753196607
40	0xbfb3d0fb4ab5af9a	-0.07740755628554866
41	0x3f70a84dc49409d5	0.0040667569930996255
42	0xbf7e7ffc6adf42a0	-0.0074462757165326965
43	0xbfa7e1a1ba538ac6	-0.04664330863467607
44	0x3fb2c953caf7f88d	0.0733845110443971
45	0x3fbad716ecb338c5	0.1048445060616557
46	0x3f993a4498f645ab	0.024636337123927692
47	0x3fa2501e5df84a26	0.03576750657170562
48	0xbfaaa9720c478ec4	-0.052074016570057974
49	0xbfbb2ae170733e9c	-0.10612305636754588
50	0x3fa36e7f468d6379	0.03795240150674934
51	0xbfa33adda218e5d6	-0.037558485066664524
52	0x3fb5ad2b0ac7262b	0.08467358601696932
53	0xbfa10ea89b2c3f14	-0.03331496137809445
54	0x3fba6b38f772e735	0.10319858590346771
55	0xbfa552fec9be6634	-0.04164882862751221
56	0xbfabf6540ac7d690	-0.05461371070479715
57	0xbf9335c704f754aa	-0.01875983207522284
58	0x3fbc6711a9fcb1c1	0.11094770813060163
59	0x3f935fdae57708d0	0.018920345549994277
60	0x3fb3c8b4ac844123	0.07728127681571499
61	0xbfa2dfcd3ffabc5c	-0.036863721904744934
62	0xbfb7e83a84319cae	-0.09338727691066381
63	0x3fac0629ee574983	0.05473452600894559
64	0xbfad52ed68b155b6	-0.05727331068980439
65	0x3fbebc367a418d48	0.12005939945952548
66	0x3f87534099a004af	0.011389259994759674
67	0xbfc1338280ca3b11	-0.13438445366451693
68	0x3fb58a7232479141	0.08414376952675175
69	0x3fa5f3868e9f100e	0.04287357798560275
70	0x3fbb1f36761a3cd9	0.10594501860963436
71	0x3fb715c7d530e98a	0.09017609553203534
72	0xbfbd84cb6ffa5125	-0.11530753597100281
73	0x3faabbb6c2548d8d	0.05221339342304097
74	0x3fb39df9eae4bbe3	0.07662927612976449
75	0x3f9f8c09cb9a703d	0.030807641078908644
76	0x3fbf2578a157e15f	0.1216655153183459
77	0xbfbd5b4c0ed2555c	-0.11467433320861659
78	0xbfacc9de5f36b671	-0.05622763550068733
79	0xbfb0afe3dfc43e42	-0.0651838704400172
80	0xbfb25d7891a0cb90	-0.07173875384687123
81	0xbfb2e0fc36408876	-0.07374550175203062
82	0xbfa32af61a084d41	-0.03743714397219345
83	0x3fba28244093701a	0.1021750123649671
84	0x3f7c770b930216fe	0.0069494678610959575
85	0x3faaf9db5a7f2f9c	0.052687506482100604
86	0xbfb966f79d11b186	-0.09922740540213768
87	0xbfaae1d211eda419	-0.052504124344359755
88	0xbfb6b72733bd43d5	-0.08873219502608205
89	0xbfbb9be38fa1f11b	-0.10784742600111878
90	0xbf87325cb58ef4cb	-0.011326526919101096
91	0xbf8b9792cb111f3d	-0.01347269708834597
92	0xbfba436bf42e18d9	-0.10259127341678055
93	0xbf6b0278569f1048	-0.003297076259487528
94	0xbfbaf9357c3110ea	-0.10536512643836074
95	0x3f89c8fd763e7e95	0.012590389414810313
96	0x3fb8407c4b329a34	0.094733970984273
97	0xbfb7b406b05cd2d1	-0.09259073072173442
98	0x3fbb36b627b013ed	0.10630358189526108
99	0xbfa381eda2374ad6	-0.03810064892936331
100	0xbfb12797e5915da2	-0.06701039652522536
101	0x3fa9330da6656cb8	0.04921763092235082
102	0x3fc0d78ed5f3e01c	0.13157830664545223
103	0x3f606797075bbbc1	0.0020025205402513795
104	0x3f62ea9194161e12	0.0023091166810365127
105	0x3fba00bde182ad96	0.10157381778360838
106	0x3f7ce843841dc031	0.007057441458400191
107	0xbf926de4eced5e08	-0.017997338257684375
108	0x3fa04090e37dce1b	0.03174259926791142
109	0xbfaf95329fd2442c	-0.061685163506929847
110	0xbfa7e14c345268ad	-0.046640759837104674
111	0x3fb5deec6a78e374	0.08543279265803766
112	0x3fc0d102824b7cd9	0.13137847291998275
113	0x3fb00c25ee5d6391	0.06268536633923662
114	0x3fbcac0e650e7ca5	0.11200036971284762
115	0x3f9704c143c21cd5	0.022479076157222295
116	0xbfb03af260daa476	-0.06339945664025656
117	0x3f96e9b4c6979b16	0.022375893231493547
118	0x3fc04fc42191ce13	0.12743426932466714
119	0xbfb73767e4d658f9	-0.09068917595718408
120	0x3fb8a5ba067064ac	0.09627878815844565
121	0xbf88e6d9763f62de	-0.012159060402994578
122	0xbfae79e383b53bf9	-0.05952368719828622
123	0xbfb3b52acf0fa815	-0.07698314242557587
124	0xbfaa9b95a9725747	-0.05196826642456514
125	0x3fb8e060e55de306	0.09717374419950539
126	0xbfaf11dd1d585a42	-0.06068316443650136
127	0xbfa8f73fe48b50bf	-0.04876136460157587
128	0xbf9d98edcbc78daf	-0.02890368992110631
129	0x3fbd05eddb047efd	0.11337172124012436
130	0xbfa8530ab4ced290	-0.047508558818127544
131	0xbf97ae9ba018b9ac	-0.02312701382305142
132	0x3fbdc1f237df61a0	0.1162406336219477
133	0xbfbf6d32fafa0d13	-0.12275999667513231
134	0xbfb117192dcda7fd	-0.06675870292897908
135	0x3fc0a26191865ed3	0.12995547872264143
136	0xbfbca3e0e727279b	-0.11187558787710687
137	0x3fb78e1e5e34699d	0.0920123081199677
138	0x3fc0ea393a16a55a	0.13214793526030172
139	0xbf9073aebfdeaa36	-0.016066294155885973
140	0xbfb0db54bfcb704c	-0.06584672625052795
141	0xbf779d9329dc19c8	-0.005765509469489456
142	0xbfb1037516284745	-0.06645900526953337
143	0xbfc0482c5f12db7c	-0.12720255510586387
144	0xbfbb44daa4cab7a4	-0.10651937983740695
145	0xbfb49d7833812374	-0.08052779443199914
146	0xbfbd9418107d6461	-0.11554098513205836
147	0xbfb95f0115068e17	-0.09910589946098756
148	0x3fbe289f24223bb3	0.11780733711405737
149	0x3fa8f5af4ebf2d56	0.048749426233906476
150	0xbfb60c106b20f520	-0.08612158408591997
151	0xbfb155544dde6f4f	-0.06770827199073647
152	0x3fa4a8ce664ceb2e	0.04035038946900325
153	0x3fb6453cd7c981a8	0.08699398296585648
154	0xbfbf90092f512d81	-0.12329156308367396
155	0xbfb94d0b8f41c59a	-0.09883186576350625
156	0xbfb88b3ee4b45cb1	-0.09587472041708868
157	0x3fc0d6a0802e4402	0.13154989489387964
158	0x3fc113972012443a	0.13341034952148495
159	0xbf9fe772bf5b8cc1	-0.031156342439214727
160	0x3f96c35a38ba439c	0.022229585373284885
161	0xbfbcc27d01bee2b3	-0.11234265606516196

restriction_net.10.bias f8 [3]
0	0xbfb100bdcd3dcbd7	-0.06641756306434786
1	0xbfbeb724f055f322	-0.11998206012317472
2	0x3fad7c3c7012e7fd	0.05758847110833185
