results/run_2/saved_model_end_to_end_unet128_1.pt (torch, 342451 bytes, 35 tensors)

restriction_net.0.weight f8 [6, 3, 3, 3]
000000 dc cf af 66 aa 6a c8 3f 49 f5 a0 9e 1f 6b b9 3f
       0.190755176677725 0.09929082510730781
000010 fb 79 7c 56 06 2e b7 bf a6 c7 26 6e 6d 57 c3 bf
       -0.09054603206138971 -0.15110557440271782
000020 bb 49 0c e7 95 3a b3 3f b4 17 b4 fd fe 94 b9 3f
       0.0751126946527511 0.09992974943096905
000030 fa 15 40 d0 82 2d c2 bf f5 12 41 9d 55 07 c1 bf
       -0.14201388519738584 -0.13303632906367793
000040 12 5f 13 e8 b8 39 87 3f 49 7c 90 1d e1 66 a1 bf
       0.011340565283191082 -0.03398803220647346
000050 b4 99 8f 4a 9c 79 95 bf e5 2a 6c 5a f6 f6 b8 3f
       -0.020971719790304724 0.0975183459051255
000060 95 0d a9 5b c9 f8 a6 bf 54 c2 8f cb ff 24 c6 bf
       -0.04486684078122064 -0.17300412597207304
000070 27 b8 91 84 67 b4 c5 3f d3 94 35 81 66 cf c1 3f
       0.1695680043516756 0.13914185818717914
000080 2b 25 88 a6 9d 7d 92 bf 9b 65 2a 6a cc 70 c7 bf
       -0.018057311333938102 -0.18312983688228432
000090 9e 44 44 df 9f 84 96 bf dd 43 78 4f 17 e6 c7 3f
       -0.02199029731952306 0.1867093217884123
0000a0 e9 8b a9 ff b2 b0 c5 3f 87 f8 1d 84 ea 56 b1 bf
       0.16945493205557163 -0.0677324841071557
0000b0 9f 1f fc d7 b3 5b c7 3f 28 5b ed 26 64 f4 b0 3f
       0.18248603864799137 0.0662291140591661
0000c0 d9 a7 04 29 74 43 a3 bf c0 72 4d df 11 a0 a3 bf
       -0.037624006278136064 -0.03833061076031674
0000d0 49 51 5f cb 5d d8 aa 3f 43 3c 6d ba cd ee c9 3f
       0.052431994510387776 0.20260020830980538
0000e0 7f 0a 03 06 5b a9 a8 3f a1 32 ca ee 8d 21 af bf
       0.04816708038699335 -0.06080287494578341
0000f0 c6 5d 47 e3 ad 5a c0 bf 71 1a 7b e4 a6 f6 c4 bf
       -0.12776731107326905 -0.1637772193555125
000100 af 84 bb 27 0f 95 c4 3f f0 bb 83 45 aa f9 b8 bf
       0.16079892578185226 -0.09755958745130022
000110 50 f3 ef 0c 3a f5 bc 3f e4 0d ce 85 2d 06 a0 3f
       0.11311686340191085 0.03129713304863538
000120 dd 46 db 4d 23 e2 c5 bf 71 29 a6 f4 02 0d c6 3f
       -0.1709636812361656 0.1722720808578049
000130 92 c9 eb 3b e8 c3 86 bf 06 f1 39 e9 74 db c1 3f
       -0.011115850762028843 0.1395097864914378
000140 4e c3 d4 00 5f 91 c4 bf d5 e7 de 10 93 5d c0 3f
       -0.1606863740976458 0.12785566638723248
000150 5f 5d 33 0c 42 e3 9c 3f 30 88 67 7a a6 cc c6 3f
       0.028210670466106588 0.17812043167856606
000160 1c 8c b7 38 d7 ae ba 3f d4 ac 3c 10 cb 06 c0 3f
       0.10423035750095305 0.1252073125154768
000170 d0 f6 1e b8 ea f8 a8 3f 37 dc 34 85 c6 e7 af 3f
       0.048774085021688784 0.06231518150382736
000180 8d 5b 7a cc b5 6e b8 3f f1 c6 39 c2 ff 51 9b 3f
       0.09543930284631426 0.02667998908004327
000190 45 b3 96 65 8c a0 c7 bf 1e 9c f5 a7 e6 b7 bf 3f
       -0.18458704910644932 0.12389985657283417
0001a0 ac ed 38 2d dd e9 c6 bf 1b 0e 61 0c 7c 9c b9 bf
       -0.17901196201442582 -0.10004401495194097
0001b0 4d 4b b4 2a 12 01 bf bf fa 90 53 8f 43 01 c8 bf
       -0.12111009161553206 -0.18753857134209523
0001c0 1f 89 94 47 72 cd c6 3f 57 a3 10 71 a9 0a bd 3f
       0.17814472670676992 0.11344393740058699
0001d0 bd 4e 2f df 93 8b aa bf 01 fa 9b b0 da fb c2 3f
       -0.0518461427633645 0.14831098197460338
0001e0 b5 22 fd ae fa f4 c6 bf 8b ea 5a bf 34 7d bc bf
       -0.17935117287040261 -0.11128549262768155
0001f0 b7 a0 60 b6 2a e8 b4 bf 7c 98 51 eb a1 7d c0 bf
       -0.08166758492064018 -0.1288339995400668
000200 35 de 35 8e d9 43 c4 3f 59 18 3a 53 55 60 c2 3f
       0.15832061237209563 0.14356485904517305
000210 bf d1 76 3b 69 c2 b7 bf 81 c8 77 bc 06 1a ba 3f
       -0.09281022741089993 0.10195963002459686
000220 2c 74 d8 44 5e ee c2 3f 90 8b 04 b0 37 c9 c3 3f
       0.14789942132566247 0.15457817167870447
000230 e0 3c 45 81 a6 9f c3 bf 27 53 37 24 6d 17 c7 3f
       -0.1533096438601893 0.18040241497387763
000240 27 86 d4 67 82 7f b2 bf d3 2f 83 35 f2 2f 8e 3f
       -0.07225813898960408 0.014739887483663871
000250 29 46 0b 73 cd 95 c3 3f 7a 2c 28 28 8d 5f ab 3f
       0.15300911061653835 0.05346337428280719
000260 8d e4 fe e6 b9 79 bc bf 6b 89 dd 9f 3a 6d ac 3f
       -0.11123239411871762 0.055520851149384175
000270 56 33 6e 36 99 bd c4 bf ba 86 c2 a3 b1 c8 73 3f
       -0.16203608663308938 0.0048300684976837985
000280 10 3b 0c ed 3d ed c5 bf 5a 01 03 f1 06 0f c1 3f
       -0.17130254816626023 0.13327109115744912
000290 98 42 56 94 e4 95 c7 3f d8 62 af f1 70 67 a0 bf
       0.18426186793341937 -0.0320391936326751
0002a0 a1 0b 2f 60 6c 20 b6 bf c3 60 a8 a4 2a 25 c3 3f
       -0.0864322409461651 0.149571733855515
0002b0 c8 cd 6c 58 e9 f4 a8 bf 59 ae 5b 90 72 2e c2 bf
       -0.04874352650076791 -0.142042465674751
0002c0 11 5d 65 b5 13 b8 b5 3f 4d 69 8f 8b 4e 98 bf bf
       0.08484004191028684 -0.1234177675936838
0002d0 9f b6 ae 25 4a 33 c7 3f 0e d2 c7 5c e2 6b b0 3f
       0.18125273551907115 0.06414618268156166
0002e0 c0 77 73 3d 7d 6b ad 3f 1a 78 e8 55 15 4c b5 3f
       0.05746070265898551 0.08319218966832445
0002f0 d5 90 1c a8 b5 31 c3 bf d1 bf b8 07 a4 e8 b5 bf
       -0.14995451649259076 -0.08558106602208616
000300 90 9e fb ad 1a a0 c1 3f 50 71 20 a8 bf 02 a1 3f
       0.13769849295862402 0.033224095605165815
000310 b1 00 80 eb d7 59 c1 bf a6 d0 dc 31 55 ce b2 3f
       -0.1355543041136165 0.07346088855121255
000320 fb 4c fe a8 c6 b0 bb 3f 08 21 7f f0 90 5d b7 bf
       0.1081661379414988 -0.09127145644663781
000330 fd fa 0f 41 92 d5 b8 3f 5e 5a 04 e6 bd 89 b0 3f
       0.09700883949697565 0.06460177293443212
000340 27 f7 68 83 64 a6 bd 3f 0c 54 6a 12 74 29 c6 bf
       0.11582020004513237 -0.17314005755602613
000350 72 0f f5 fa 72 4a c9 3f d4 b8 7f de 58 95 c0 3f
       0.19758450750134277 0.1295577131672362
000360 40 c8 36 20 90 d3 a6 bf 0c 14 45 b3 67 e6 c1 bf
       -0.04458284753071995 -0.13984390500459687
000370 b3 cc 2a 5a 63 a4 8e bf a5 75 b1 0b 51 94 c1 bf
       -0.014961982907470838 -0.1373387629600248
000380 2b 15 af 8b f1 ab b0 3f 95 5c d8 d1 6e 9d b3 bf
       0.06512365017177461 -0.07662098525212209
000390 45 1a 8a 07 58 63 c3 3f 74 e6 2d 8a 4c 01 b6 bf
       0.15146923416269167 -0.08595732091444025
0003a0 2e 68 dd 8a 53 83 83 3f 90 2e 74 24 aa 60 ac 3f
       0.009527828860587641 0.0554249925135909
0003b0 b8 63 9f 5c c6 26 c5 bf 3a 1d 03 99 b1 ca b5 bf
       -0.16524581453884735 -0.08512411103867104
0003c0 76 ea 9c 2c 1d 77 c2 3f cd 47 46 ff cb 41 c4 3f
       0.1442600696407969 0.1582579609353715
0003d0 0e 22 12 82 32 f7 bc 3f 0d 41 28 c5 d9 97 bc bf
       0.11314693141515184 -0.11169205726060145
0003e0 4f 7e ce bb b2 7a b6 3f af a8 e1 5e 80 4c c5 3f
       0.08780972561953003 0.1663971389091947
0003f0 bf b2 76 9d d9 c6 c2 3f a1 b7 a4 9d 31 76 b7 bf
       0.14669342220931544 -0.09164724444118956
000400 bb 21 4b 18 78 50 c7 3f 3b ee 6d f7 7c 69 c0 bf
       0.18214322267728086 -0.12821924287332984
000410 5c 70 4b f4 db 39 c6 3f 80 d0 29 54 2f c2 b8 bf
       0.1736407225461133 -0.09671302609223353
000420 1e ea cd c8 07 65 ad bf b8 52 32 0e 42 1e b1 3f
       -0.05741142584061641 0.0668679508838278
000430 03 fe f5 c0 82 9c a5 bf 42 22 36 4c 52 85 c0 bf
       -0.04220970731239151 -0.12906864854109484
000440 f2 c3 c5 4e db 95 bc bf 2c 80 28 c5 1e 4e 9a bf
       -0.11166163132817511 -0.025688629897672552
000450 bd eb c2 59 f0 88 c1 3f 4c 06 2d 58 c1 8f a0 bf
       0.13699154265290572 -0.03234676553121271
000460 c8 e2 6a 25 59 b5 b7 bf ae df 12 cf 17 0d ca 3f
       -0.09261090434564345 0.2035245667555023
000470 51 0c b8 85 8b f3 c2 3f 7f ac 7f d8 63 97 c2 3f
       0.14805740384335533 0.1452450568316159
000480 b3 93 e2 a5 40 4e b8 3f 86 f4 41 b7 3e 37 93 3f
       0.09494403886726736 0.01876543038860181
000490 7e 87 e4 34 f4 c0 9f bf 36 cc 6c a2 ae 72 a7 bf
       -0.031009498337091206 -0.04579683048941556
0004a0 a5 46 a6 2d 1e 74 69 bf 09 a5 6a 54 e0 4a ac 3f
       -0.003107127134349979 0.05525876074291076
0004b0 77 1b 6e 26 a9 d9 c3 3f 08 a9 c9 f9 7d 73 b0 bf
       0.15507997871847198 -0.06426226948102365
0004c0 58 8e 15 82 f9 4e c1 bf 17 d7 ac 85 9c d2 a4 bf
       -0.13522261478202569 -0.040669337575691404
0004d0 9f 51 2f 1c 6e ed b2 3f 44 8b 40 93 a9 99 c8 3f
       0.07393539608103204 0.19218940439267318
0004e0 80 b0 7d 85 b3 17 c0 3f 2e 4d 49 37 94 da b5 3f
       0.12572330492128359 0.08536650037540447
0004f0 a0 cf 06 15 25 ed b5 3f 70 81 2f 91 f9 82 a2 bf
       0.0856497932753073 -0.036155508969161754
000500 2a ed c3 50 f9 ed b4 3f 5f 00 5c 79 8a f4 c2 bf
       0.08175619336900711 -0.14808779645682343

restriction_net.0.bias f8 [6]
000000 0f 46 0d 55 1a 01 90 bf 3e 8b a1 53 59 86 c8 bf
       -0.015629207078125925 -0.19160000403925354
000010 73 61 9a d8 2a be 9e bf 67 d6 23 48 ed 45 c1 3f
       -0.030022305937195747 0.13494649908504927
000020 50 d4 d0 61 d0 94 9d 3f 06 f9 cf 47 45 ac 8a bf
       0.028887992830466225 -0.013023892644920664

restriction_net.1.weight f8 [6]
000000 19 a1 9b 47 b3 12 f0 3f a6 f5 c2 bb 29 15 f0 3f
       1.0045655057129521 1.0051667532382935
000010 b5 0a 23 a5 15 36 f0 3f c1 5c 83 d1 a0 ce ef 3f
       1.0132042360934694 0.9939731685689354
000020 2b b1 0f 4c c8 c8 ef 3f 8e a2 95 be 15 e1 ef 3f
       0.9932595716068467 0.9962261888841384

restriction_net.1.bias f8 [6]
000000 46 3b 08 5c ce 16 7d 3f 90 ff 2b 85 53 d6 86 bf
       0.00710182770900653 -0.011150982381422897
000010 b4 c4 32 55 ad d2 68 3f 03 af 8e 97 97 2c 65 bf
       0.0030301461607327943 -0.002584739759603384
000020 f7 d2 76 f5 9a ee 78 bf ef 82 10 fe 6b ff 69 bf
       -0.006086926753984249 -0.0031735524394352825

restriction_net.1.running_mean f8 [6]
000000 38 3b 5e a6 dc 07 f8 3f 71 43 76 5d 69 10 c2 bf
       1.5019194124940451 -0.1411258417470225
000010 9a 22 82 42 37 42 e8 bf 7e 64 9a 80 e8 0f fc 3f
       -0.758082990550139 1.7538838409002717
000020 72 64 dd 08 9d 1d e0 3f 0e bd ed b3 17 80 f4 3f
       0.5036149190083405 1.2812726047957912

restriction_net.1.running_var f8 [6]
000000 5e 8b c8 95 5e b4 d0 3f be f9 76 74 ab f7 9e 3f
       0.26100887896807545 0.030241660102314098
000010 a6 4a ba 84 3b 82 b1 3f f8 22 1d ca 8a a6 d1 3f
       0.06839344015524293 0.2757899259345744
000020 b1 aa 9a a9 0b 14 9e 3f 5b da 9b 6f f9 d2 c7 3f
       0.029373342730347477 0.1861259264912459

restriction_net.4.weight f8 [12, 6, 3, 3]
000000 ea bd 43 32 6a af a2 bf e6 3e 4c 76 3e a2 ba 3f
       -0.036494558940713365 0.10403814685946208
000010 54 6b 27 69 c2 97 7a 3f 7e 20 19 c7 c0 e1 b2 bf
       0.006492385308287069 -0.07375721798701027
000020 69 7b 5f c5 85 78 b3 3f d2 e2 99 b6 64 b4 7c bf
       0.07605777805973236 -0.00700797406317895
000030 5c 95 25 ec 19 a8 b4 3f fd b9 2a a3 fb 71 b5 3f
       0.08069002166083322 0.08377049192015558
000040 ef ed e7 96 a4 1f ad bf 05 b1 fa 18 0f 99 98 bf
       -0.0568820413791079 -0.02402137365304304
000050 1b 79 8c 1f a9 7c 75 3f 40 00 01 b7 a4 97 85 3f
       0.005245838773389157 0.010543143114887354
000060 7e 1d b2 9f 79 0d b2 bf 76 12 d9 05 bf c7 bd 3f
       -0.0705181136018975 0.11632913487216875
000070 af ba 1d 5b 40 94 b9 bf 2e 73 19 7c 10 b2 bc bf
       -0.09991838669314278 -0.11209204702158779
000080 fc 82 26 78 cd c9 b5 bf 7f 94 c0 b1 6b c6 bd 3f
       -0.08511051352844484 0.11630890931754044
000090 34 5d 99 6c 60 7b ba bf c8 54 86 58 4d 0f 9c bf
       -0.10344507838577927 -0.027402123001213835
0000a0 b4 6f 77 c3 2e 47 bb bf f7 f9 e4 a8 4c 21 af bf
       -0.1065549113476994 -0.060800929657933205
0000b0 2c 3c da 30 a3 5e c0 bf 5b 58 d8 91 44 11 ab 3f
       -0.1278881062066558 0.05286611824355766
0000c0 03 96 40 b8 94 a2 bf 3f 46 bb dd 68 d8 54 9e 3f
       0.1235745382151308 0.02962053432514302
0000d0 87 49 b5 7c 0d 3a b9 3f 4a 76 91 fa bc e5 85 bf
       0.09854206366188666 -0.01069209708856102
0000e0 45 92 32 25 e5 85 ae bf a6 53 7c 50 61 8a aa 3f
       -0.059615288534847134 0.051837006640347114
0000f0 36 67 92 d4 7a 53 7d 3f 48 44 c3 05 cf 3c b1 3f
       0.007159690672006216 0.06733411684696577
000100 0f dc a3 b6 ad e6 a4 bf 63 94 34 29 0a 60 b6 3f
       -0.040822437806063865 0.08740294939032504
000110 07 7d ab f6 88 c3 a5 3f 9b 80 14 c4 40 46 bd bf
       0.042507438765591536 -0.11435322558509357
000120 41 dc 62 62 6e a4 bc 3f 2f e3 5a ae 33 73 a3 bf
       0.11188402082449135 -0.03798829558713234
000130 12 7e 49 80 41 49 b2 3f 28 d5 2e 3f ab 4c a3 3f
       0.07143029577263629 0.03769431253696559
000140 4d 84 4b d4 56 c1 b7 3f f1 8d 24 b7 b9 12 b7 3f
       0.09279387171729177 0.09012947770366232
000150 f3 8c d0 9f 82 03 c0 bf 87 2c 8d 8a 29 a3 8a 3f
       -0.12510712436151258 0.013006519833331133
000160 62 cf b8 13 fb 91 b7 3f 6d 0f d1 2d a6 09 b4 bf
       0.09207123977176715 -0.07827223414011338
000170 bd 97 74 f0 aa 67 79 bf 54 96 d6 78 2b 24 ba 3f
       -0.006202380878027766 0.10211440754081852
000180 db fa 08 78 06 c1 be 3f f5 77 91 31 c0 64 8c 3f
       0.12013283186477557 0.013864041817381415
000190 a4 32 44 d4 a4 21 b1 3f 08 32 21 58 79 d2 af bf
       0.06691961462292767 -0.06215266419221527
0001a0 a4 d9 3c d6 d8 19 82 bf 17 04 e9 6c 49 b5 bc bf
       -0.008838361776366828 -0.11214121731701741
0001b0 cc 89 6d 82 4b 55 bf 3f 95 7b 41 7a 92 68 83 bf
       0.1223952477862788 -0.009476799350691492
0001c0 a6 e3 64 cd fa 8e 9e 3f 91 2e 0e d0 75 51 c0 3f
       0.02984229925752726 0.12748596819834693
0001d0 e3 be 88 d6 71 c5 b8 bf 91 a8 7f 66 e3 51 c0 bf
       -0.0967627667202993 -0.12749903206651372
0001e0 4b 2f 78 a9 9c 99 a2 3f a6 ea 68 a7 97 67 91 3f
       0.03632821625441681 0.01699673613823429
0001f0 9c ba a4 fa 90 73 a2 3f 8f ef 9b ac 75 ae b9 3f
       0.036037951084258085 0.10031829322900719
000200 8a 27 29 22 01 6f 9c bf 80 0b db 02 9a 7b b5 bf
       -0.02776719828606348 -0.0839172608348644
000210 8b 2c 36 4e b3 28 af bf 69 b1 a4 6e 0c 5e c0 bf
       -0.06085739450198798 -0.12787013437754105
000220 ea 2b e9 12 34 c8 b6 3f fa b4 a6 9b bf 99 bc 3f
       0.08899236165704819 0.11172101545408344
000230 98 81 6f 43 f0 33 c2 3f cf 81 2d 1c 9a c3 b1 bf
       0.14221003811600208 -0.06939089954312937
000240 f6 22 e6 6e 70 bd c0 3f 51 a8 f3 59 fc 8f c0 3f
       0.13078122534741227 0.12939409629990675
000250 2f 11 1e 2f 72 a9 b2 bf 8f a3 7e 9c bc 9d be 3f
       -0.07289804125145304 0.11959437199278809
000260 6f f6 a1 62 e1 81 c1 3f ac 8f d0 fd ea 02 bf 3f
       0.1367761355976884 0.12113827416084061
000270 d0 1f ee 66 36 c4 b4 3f 2f 87 d5 1a 5b 95 b9 3f
       0.08111896527236628 0.09993523984078644
000280 3e be 65 e4 2b bc b3 bf b1 db 6f 97 4c d0 a9 3f
       -0.07709001852139694 0.05041732166858227
000290 80 f6 b2 67 07 ca 8f 3f 94 4b 09 11 ce 8e af bf
       0.015522058345932566 -0.061636390285136816
0002a0 a2 3d 1e 20 87 c5 bc 3f 4e dc b6 dd 65 7f 93 bf
       0.11238903555044158 -0.019040671975485694
0002b0 de ce 1f de 13 34 b2 bf ea 07 43 fe d1 65 bd 3f
       -0.0711071412368329 0.1148349042660183
0002c0 3f f2 af 9c 13 ab 91 bf ef 73 e1 2c b5 ef c0 bf
       -0.01725416797488521 -0.1323152989524767
0002d0 c3 95 22 be 4f b2 bd bf e9 9b 78 53 89 6e 80 bf
       -0.11600206748933943 -0.00802333150848074
0002e0 d2 32 13 9c 0d 3d 89 bf e7 c2 87 6c 81 c0 bd bf
       -0.012323480916529492 -0.11621865176835976
0002f0 2d d1 ea 29 6c fc aa 3f 0d d2 ce b1 35 f3 ab 3f
       0.05270708095250352 0.05458991809374334
000300 26 91 c7 a1 24 66 ae 3f c4 7a 90 c8 9b 29 b5 3f
       0.05937303995941283 0.0826661457690348
000310 d9 18 38 e7 6c de ad bf 66 4e 5b 95 58 9f 91 bf
       -0.0583375961542047 -0.017209419361121546
000320 bc 74 94 b2 43 a2 88 3f 7a 4e 65 86 86 37 bc bf
       0.012028244864774933 -0.11022225171228142
000330 e2 bf 61 b8 af 40 c1 3f 19 d7 ed f0 25 85 a7 3f
       0.13478657248515363 0.045937715206419046
000340 8c 9c 83 5f 06 4a b4 bf 6e 69 42 e9 68 ce b2 bf
       -0.07925453025710477 -0.07346206373987282
000350 64 94 2c 3e fc 3f b4 bf 71 9f 81 6d 2c d9 a2 3f
       -0.07910133855746576 0.03681315266368202
000360 14 90 59 a4 30 63 ad bf 56 ae d9 08 46 46 be 3f
       -0.05739738470290959 0.11825978962013414
000370 52 1a 20 d9 37 7e bb bf c3 bc ce 80 6f 18 8e bf
       -0.10739468623078466 -0.014695044630427373
000380 fb 78 b2 c7 34 6d b6 3f 54 3d 08 47 55 4e b7 3f
       0.08760385394495877 0.09103901848015045
000390 29 63 19 25 3c 37 bd 3f 88 31 ea 17 66 cd b6 bf
       0.1141240683149475 -0.08907163699968212
0003a0 1e 64 39 3e 3f 15 c0 3f 79 1c 28 e8 b3 c2 a9 bf
       0.12564840830126028 -0.05031358918136503
0003b0 83 30 3a 91 ce c8 95 3f 21 1e 11 69 e1 9c 96 3f
       0.021273830045672525 0.022082826650402624
0003c0 99 b0 6d 5d ec 81 b4 3f aa 20 8c de 01 07 be bf
       0.08010747223824168 -0.11729442294393047
0003d0 20 fc 59 16 ad 33 75 bf a1 0c bf 33 cd f4 bb 3f
       -0.005176235315615535 0.10920412553155014
0003e0 82 50 87 89 69 2e b8 3f db 2d 55 46 a0 dd bc bf
       0.0944581948054424 -0.11275674550159158
0003f0 02 4b 7f 2d 15 fb b9 bf 7f cd 82 c5 34 31 74 bf
       -0.10148746834537906 -0.004929739130762
000400 f9 e6 ed 10 ae b3 bf bf 7c cf b3 2b 21 e8 88 3f
       -0.12383544839203954 0.012161502023878994
000410 b7 15 ce 52 48 a2 a6 3f d9 37 5b 33 25 bb 99 3f
       0.04420686732104733 0.02512796522096736
000420 97 74 d7 55 aa 94 b9 3f 5b c2 d9 20 04 65 b5 3f
       0.0999247035574221 0.08357263376252304
000430 20 be e7 e8 dc 0a c0 bf bb 1a ac ad b9 1a aa bf
       -0.1253315102799073 -0.05098514790556893
000440 48 cf 23 8b a2 b1 c0 3f 8b 7d 09 dd 90 9f ae bf
       0.1304209880250886 -0.05981114099699444
000450 b0 2b 6e a4 32 ef c0 bf d2 ce 3d eb 2f 83 5b 3f
       -0.1322997382052029 0.0016792266805766743
000460 f4 e1 af 2c 3a 26 ad bf 86 8b 52 8b 48 4e bd 3f
       -0.056932275729142306 0.11447575951983255
000470 a7 db d7 6f bf 3b 97 bf 51 4d a6 27 a9 08 b4 3f
       -0.022688857270590692 0.07825715272911295
000480 f5 60 d9 08 e9 ea af 3f a0 80 4a eb 96 16 a9 3f
       0.06233909829160381 0.04900046941952607
000490 18 df ce db 05 40 b3 3f 73 3f d5 b2 d9 d7 92 bf
       0.07519566170128333 -0.01840152887353903
0004a0 92 ff 32 17 d4 3d b1 3f 3a 70 f8 72 b7 7a b3 3f
       0.06734967771899239 0.07609125668426567
0004b0 6b 62 d0 34 c2 a6 89 bf f0 39 7b ef 2c 0c b7 3f
       -0.01252509807277243 0.09002953383171763
0004c0 de 36 45 59 7a ae b6 bf ad 5c 70 f0 a2 c2 ba bf
       -0.08859982184841494 -0.10453241701212575
0004d0 b6 05 35 5f 5c fc bb 3f ff 37 ed 7f a0 84 ad bf
       0.10931947063820399 -0.057652488342327494
0004e0 32 b3 f5 b7 ed 0a b1 bf 39 4f fa 36 b7 c1 b8 3f
       -0.06657300702290739 0.09670586673956628
0004f0 28 4c 70 13 9d 7c 9c bf b6 9c 70 b7 3f fb c2 3f
       -0.027819113074723983 0.1482925077154726
000500 14 d3 74 ed 35 67 b7 3f 75 e4 c4 e1 3e fc b4 bf
       0.09141861960672443 -0.0819739628976935
000510 d7 43 81 61 a3 90 b2 3f b5 7b 2f 8c 27 b3 c1 3f
       0.07251950388423666 0.1382798609256192
000520 ff 7c b9 c3 0e 6d c0 bf 77 d5 5f 9e 06 85 88 bf
       -0.12832817608703093 -0.011972476680947903
000530 d9 ad 15 ba b0 69 c1 3f 54 20 bd ed a5 b0 bb bf
       0.13603791319051942 -0.10816418699425984
000540 08 00 2f 7c b7 34 b9 bf 0f 5b 9a 0a 9a 43 a1 bf
       -0.09846064359499007 -0.03371888522558752
000550 c9 46 0b 26 73 ed b5 3f 81 80 b2 29 0b 42 a2 3f
       0.08565444639978205 0.03566012271881026
000560 33 a1 28 28 11 89 2d 3f 4c 7c 3b df 84 9b c0 3f
       0.00022533735689590217 0.12974606418626633
000570 e5 ea 55 a2 22 28 af 3f 3b 38 e5 c6 83 b9 ac 3f
       0.0608530829585641 0.05610286524698479
000580 1f 33 d9 66 1b 56 8b 3f 9f 2f 6f 7d d0 2c b6 bf
       0.013347829891381445 -0.08662131368981683
000590 34 ee 9b 82 6a d2 ba 3f ee a6 0a 73 fe ee 70 bf
       0.10477319420527281 -0.004134172385116248
0005a0 34 de 3f ac 28 bf a0 bf 2b d0 02 90 ac 61 c0 3f
       -0.03270842650084341 0.1279807761362702
0005b0 de c0 fb 5a f1 9a a9 bf 40 e0 6c ea 0d a7 a8 3f
       -0.050010244709371085 0.04814952360760616
0005c0 25 3a 71 20 7d d2 af bf d7 be a9 b9 1a cf b2 bf
       -0.062152776918640996 -0.07347266228475334
0005d0 84 da 30 0b 63 b1 c1 3f ce 5f f7 71 0d 57 99 3f
       0.13822591825892883 0.024746141510916968
0005e0 ae 67 01 c8 07 3a be 3f 29 08 b9 19 36 93 b8 bf
       0.118072973565545 -0.09599626663205697
0005f0 96 e4 b9 9a 9d 34 ad 3f 73 5c 75 c3 c3 40 ab bf
       0.05704205049273374 -0.05322849045722302
000600 8d 50 98 dc a7 c1 ad 3f 18 ab 63 fa 31 50 b5 bf
       0.05811810081300548 -0.08325493205090273
000610 8a 4e 66 83 db eb b6 bf 78 0e ba 9c 2d 73 9d 3f
       -0.08953639944075512 0.028759682360500055
000620 3a 73 44 55 1d 39 a2 3f fa 19 1b 07 ea aa bb 3f
       0.03559199968206035 0.10807669328196559
000630 55 9c 95 bc e4 bd a4 3f 38 dd ad dd d9 3c a9 3f
       0.040511272450026205 0.04929238158268351
000640 6d 3e e1 7d c3 b8 ba bf 20 22 ad 76 76 b2 9a 3f
       -0.10438176940191975 0.026071406358172067
000650 9d 8f c3 bb 1e 27 b6 bf 48 a4 2a bf 7e c4 b5 bf
       -0.08653442462997281 -0.08502952735092706
000660 d5 2b 61 84 d5 2e ba bf a8 a6 eb 3f 7a 4a c0 bf
       -0.10227713090823383 -0.12727287407988297
000670 a3 98 08 a6 91 e2 bc 3f e9 37 91 db 12 38 9e 3f
       0.11283216765932251 0.02951077904827307
000680 bd ca 06 fb ae 33 a0 bf ae e3 43 4d d7 3b ab 3f
       -0.03164431394852361 0.0531909257715094
000690 02 b1 4f d9 58 ad a4 3f f9 88 36 9a fb e9 bd 3f
       0.04038503315664067 0.11685154452291958
0006a0 c3 d6 e9 f9 73 3e b0 bf f7 c5 a1 84 df c2 93 bf
       -0.06345295764352969 -0.01929806944867171
0006b0 9a a9 ea f8 06 04 ba bf bc e2 2d b1 3c d2 a0 3f
       -0.10162395073954258 0.03285398161728412
0006c0 be 35 8c 29 27 2a b2 3f f1 f7 91 92 c1 f7 89 bf
       0.07095570339534782 -0.01267958859011384
0006d0 50 a9 19 fe 5e 0e b6 bf 5a 7d 47 59 ac 2a c0 bf
       -0.08615678504580626 -0.12630228385294623
0006e0 54 2d a3 d4 88 db 81 bf a1 82 b7 93 0a e8 b9 3f
       -0.00871951006811026 0.10119691950195399
0006f0 81 74 5e 8b 52 77 9c 3f c8 f9 73 94 e7 15 9b bf
       0.02779892898216874 -0.026450746951917542
000700 ef 08 a5 32 ab 05 b0 3f f7 21 1b de 9d 3d b6 bf
       0.06258649813119964 -0.08687769577512215
000710 6e 7d e5 b1 1c a2 b4 3f 16 fa e6 6f e0 3f ab bf
       0.08059863417792254 -0.05322171560282045
000720 5c fc 6f 6f 18 c7 bb 3f 97 c9 7e e6 be 9f b2 bf
       0.10850670548096403 -0.07275002600980539
000730 85 0a 45 84 59 bb b4 3f 2a 1e ac c2 39 91 9d 3f
       0.08098372916450998 0.028874304301124955
000740 ed 8f f1 e3 6d 96 a8 bf 67 ae 94 4d 93 b7 b4 3f
       -0.04802268416895559 0.08092613834440386
000750 55 26 7a 6a b9 21 bd 3f ec 36 8c 52 66 1a b2 bf
       0.11379584168948871 -0.07071532740902925
000760 e9 89 6c 86 db ab aa 3f 35 d4 1a 29 68 5b a9 bf
       0.05209241882245747 -0.04952550412910065
000770 47 7f 6e dc 25 9e c0 3f 4a 9b b4 87 f9 e1 c0 bf
       0.12982629073393978 -0.13189620138401842
000780 56 3c d4 41 02 29 bc 3f f5 03 60 43 bb ee ae 3f
       0.11000074488787112 0.060415126776213336
000790 a6 8d 5c 6b a0 fc 86 3f af 6f b9 e7 b6 ae b3 bf
       0.01122403457299621 -0.0768846812947561
0007a0 95 cb a4 3a 09 35 ba 3f 1e 9a 37 42 4e 48 67 bf
       0.10237176591617321 -0.002842095231005772
0007b0 bb 5e e6 7d a7 62 b5 bf 76 77 b6 2c 75 e3 c0 bf
       -0.08353659461715328 -0.13194145854225398
0007c0 85 74 fa d2 34 6d 92 3f ba a9 d0 68 b0 e5 b4 3f
       0.017994714142890906 0.0816297775169578
0007d0 2e eb f2 61 47 7b 7c 3f de 9b 78 96 8a 46 b2 3f
       0.0069535053618732644 0.07138887570964367
0007e0 53 33 af c1 77 c1 b8 3f d2 6e e5 67 1b ac a1 3f
       0.09670208433744891 0.034516197617191616
0007f0 fc 11 21 24 dd a9 bb bf b8 18 cd 48 e2 f5 a0 3f
       -0.10806066639003825 0.03312594546018616

restriction_net.4.bias f8 [12]
000000 76 28 f3 5a c5 c8 c0 bf 64 f9 9a 27 7a 9b b5 bf
       -0.13112704220685928 -0.0844036432926934
000010 df 9b fc 09 11 1c a4 3f 8b 34 fd 83 cd 8c 50 bf
       0.0392766308489667 -0.0010101325023755016
000020 93 47 dc 12 4e 8c aa bf b6 1d 30 6a 81 48 b5 bf
       -0.05185169201116859 -0.08313759653548555
000030 6e 81 17 83 84 6e c0 bf 1f d5 49 dc fa 33 bd bf
       -0.12837273026435575 -0.11407440069327322
000040 b2 6c 72 81 72 4b ba 3f 35 9d 6b f3 26 d2 a8 3f
       0.10271373424841349 0.04847833367767366
000050 dc 81 15 e4 c5 8a 66 bf b5 c9 35 e2 06 1f 9e 3f
       -0.002751719003456039 0.02941523318936286

restriction_net.5.weight f8 [12]
000000 bf ba ef 9b 88 89 ef 3f d9 8d 75 3e ba 30 f0 3f
       0.9855387731202753 1.0118963661014873
000010 44 29 3b 3d 7f 33 f0 3f 03 fd e5 61 9c 12 f0 3f
       1.0125725166168005 1.004543669143289
000020 f8 c5 16 85 c9 32 f0 3f a8 0a cd 6e 5f 8e ef 3f
       1.0123992155826027 0.9861294902878699
000030 b9 86 8e 08 1e 0e f0 3f 2d f5 3c 61 f4 94 ef 3f
       1.0034466108558446 0.9869329356367068
000040 61 8f ab 53 44 0d f0 3f c8 42 e8 e8 34 17 f0 3f
       1.003238989674138 1.0056656930866428
000050 13 47 33 4e f8 7b ef 3f 98 7c 61 83 de 01 f0 3f
       0.9838830497121499 1.0004563457548894

restriction_net.5.bias f8 [12]
000000 31 3c a3 3d 47 c8 89 bf 9d 57 5e bb f7 29 6c 3f
       -0.012589031761676224 0.0034379805101236297
000010 d9 43 d9 dd 58 ae 8a 3f 15 cc e8 55 06 01 88 bf
       0.01302785326984861 -0.01172070455240796
000020 ce 71 16 5a 09 51 87 bf 60 35 c5 fd 29 95 85 bf
       -0.011385033666379576 -0.010538414055782652
000030 64 3b 10 77 d1 f0 71 3f f6 63 a9 6f 87 66 54 3f
       0.004380052779210473 0.0012451479548387634
000040 0b 4f b4 83 c8 7a 73 3f 81 a4 09 1c f7 47 72 3f
       0.004755767116211516 0.004463162681170308
000050 c0 86 01 c8 4a 57 8f bf d3 10 90 92 2f 70 6a 3f
       -0.015303215244958479 0.0032273224974251695

restriction_net.5.running_mean f8 [12]
000000 c8 cb 6b 1c be ad ae 3f 92 1a f6 df fc 3f cc 3f
       0.05991930100380888 0.22070275245296905
000010 2a 25 fb c9 28 5a d5 3f 21 aa ce 9a 4e ba bb 3f
       0.3336278889151624 0.10831156997179693
000020 a6 e4 b5 90 36 94 c4 3f da ab 7b bc eb 9c 9f 3f
       0.16077310625022284 0.030872043017477903
000030 2e 5f 1c 00 f6 d1 be bf 1c 8a 50 8f 07 8a bc bf
       -0.12039124968248124 -0.11148116349117071
000040 d0 61 4f e9 d2 6f cc bf 9a 07 73 0d d2 7a e2 bf
       -0.22216259376615577 -0.5774927389795608
000050 a0 7b 04 2e 7c 9a b8 bf 9d f9 11 91 d1 63 c1 3f
       -0.09610725520586394 0.1358587225294742

restriction_net.5.running_var f8 [12]
000000 fa 20 5e 5f 32 28 c3 3f 51 70 bb 31 be b6 c5 3f
       0.14966420799851915 0.1696393721421168
000010 dd 17 82 1a 27 fa c5 3f 7c a0 d7 11 51 4f b7 3f
       0.17169655603737413 0.09105402646639676
000020 6e 59 3f fc a8 8b a4 3f b9 9f 6d 8a 8e ce c1 3f
       0.040128021995473925 0.1391161132735286
000030 42 c0 51 52 5a 50 d1 3f 68 0d b7 11 17 a9 c0 3f
       0.2705293468379787 0.13016022076599687
000040 52 56 a4 d4 5d 7b bb 3f 80 94 fd 63 59 0d cf 3f
       0.10735117379621187 0.24259488470412194
000050 00 a8 aa 4d 7f 81 ae 3f ae a8 6e 8e 60 db ab 3f
       0.059581735831059746 0.05440809000659051

restriction_net.7.weight f8 [6, 12, 3, 3]
000000 2a 97 3f 73 d9 88 91 3f 86 07 e2 9c 9b a6 a8 bf
       0.017123601588443872 -0.04814611711573406
000010 56 d4 cc 6a 2c 89 b6 bf 8b 2f fc e8 46 65 b0 3f
       -0.08803060157227213 0.06404536426651768
000020 8a 13 39 fd db f1 a1 3f c8 b0 38 91 72 51 b1 bf
       0.035048365269665885 -0.06764904065556998
000030 eb 7d 1e 49 87 03 a6 3f 3b 94 a3 92 9d a6 a6 3f
       0.04299567000930068 0.04423992552782648
000040 6e 6b 3f a5 55 75 9f 3f e3 4e 1e fb d8 88 a3 bf
       0.03072103329746361 -0.03815343919191407
000050 25 11 47 83 02 d0 94 bf b4 10 d4 77 29 7b a8 3f
       -0.020324744474934726 0.04781465137242105
000060 04 0f 44 16 c2 5d b9 bf 9d 75 e2 cd 4c 2b 9c bf
       -0.09908688586807207 -0.027508926454734007
000070 fd 1b 8a 0d 27 f0 a5 bf 88 9f f9 54 2e 02 aa bf
       -0.042847843554277155 -0.05079788958829484
000080 5a 55 58 e6 fe 68 ae bf c2 87 0b 56 c4 f4 b0 bf
       -0.059394803636829877 -0.06623484707554808
000090 2f c4 ea ab f9 bc a5 bf 3d fb c5 54 84 0f b2 3f
       -0.04245739196392894 0.07054926938688495
0000a0 e2 12 3a ee fb 4a 91 bf 3d 2d 87 02 05 fb 83 bf
       -0.016887604155743648 -0.009756125583314396
0000b0 f2 91 ed bc 1f b0 a8 bf a6 8a aa b1 b9 fa b6 3f
       -0.048218719303608895 0.08976326549103905
0000c0 a1 b9 66 03 45 d4 aa 3f a2 48 cf 43 82 f7 a9 bf
       0.05240073839682969 -0.050716467645217436
0000d0 e5 c3 9c dd e9 ff a0 3f d8 54 d5 a1 15 9f ab bf
       0.03320246534565977 -0.053948093419117604
0000e0 06 da 0e 99 c3 31 8d bf 72 b2 d3 4d 25 0a b2 bf
       -0.01425507365079871 -0.0704673113829786
0000f0 f6 66 03 25 34 fb b4 bf 61 e1 a3 46 67 9d 50 bf
       -0.08195806411404391 -0.0010140904001315276
000100 51 2b 73 4a ac 60 a5 3f ed 5b d1 e6 a9 40 aa 3f
       0.04175318154155739 0.05127459471321303
000110 c5 ec af 83 26 c1 ab 3f b5 2b eb c8 ae f6 9d bf
       0.054207995963190515 -0.029261332524395296
000120 04 85 03 5b fc 97 b4 3f a1 f4 b1 62 4f 88 96 3f
       0.08044411870971052 0.022004356764672498
000130 17 52 df e0 30 3a af 3f 83 3b a8 75 28 bf b6 3f
       0.06099083657287368 0.08885434029092036
000140 7c ac 70 5e f7 eb 7a bf 8d ff db 13 66 e0 90 3f
       -0.0065726912353439824 0.01648101326190914
000150 1d cd a8 5d c9 dd ac 3f 24 0d a5 d7 b0 e0 90 3f
       0.056379597361593016 0.01648212734404554
000160 f7 d8 90 68 b2 51 a1 bf f9 ce b8 8f 3a b1 a9 3f
       -0.033826422943478755 0.05018027309816193
000170 81 e9 75 7d 8a 43 94 bf f0 3c 0e d3 56 dd 83 bf
       -0.019788898379809353 -0.009699514690309802
000180 3d d5 f3 08 e4 cb b1 3f 87 29 9d f7 f3 fa 76 3f
       0.06951737612310623 0.005610421177900788
000190 67 df 8b 2c 54 ac af bf 26 9f 32 89 1f 01 a4 bf
       -0.06186163944033645 -0.03907106923844443
0001a0 b3 0c 33 5b 7c 10 b7 3f 7f 8d bb ca 95 6f ab bf
       0.09009530283497007 -0.05358570194018863
0001b0 22 a5 66 f2 96 f0 b3 3f a3 b8 21 7b 71 7c b8 3f
       0.0778898565100872 0.09564885383744808
0001c0 21 ed d0 3c ed c3 a7 3f 64 a0 69 5f 0b fb ad bf
       0.04641667716392762 -0.05855594196037897
0001d0 83 82 f9 72 4b 5a 27 3f 90 3c 33 5b db 86 b3 bf
       0.00017816706666719606 -0.07627650238576877
0001e0 c1 16 ea 8a 7f 36 74 bf 92 bd 8b 6c 2f e9 b1 3f
       -0.004934786046424556 0.06996437454266971
0001f0 49 43 07 65 1c 12 9b bf 09 07 fb 00 10 8c b0 bf
       -0.026436275163919807 -0.06463718437137457
000200 75 86 66 d7 e8 34 b4 bf ec fe b5 26 69 4b a0 3f
       -0.07893233546067242 0.03182533834023879
000210 ad e0 cc 47 31 73 a7 bf 4e b0 8a f2 31 31 b1 bf
       -0.04580072404354616 -0.06715690776280889
000220 67 50 4c 67 d8 85 98 bf 1c d6 7a 91 ff 9d af 3f
       -0.02394807939988688 0.06175230646969629
000230 87 af 6a 62 72 76 b0 bf b8 aa 35 29 0b bb ad 3f
       -0.06430735495331251 0.05806765440032308
000240 a7 f5 7b b5 1d a4 b6 bf d5 3b ea 82 c7 8c a7 bf
       -0.08844171219603557 -0.04599593613703915
000250 3d 07 f3 56 45 54 67 bf ec 1c ca 02 0d ab b2 bf
       -0.0028478006639439933 -0.07292252843955155
000260 30 94 46 51 4d 6a 9c bf af 85 f3 a5 17 2c 73 bf
       -0.027749260030436484 -0.004680721641507387
000270 ba 1d af 3a c2 60 93 bf e7 37 99 e5 5c 83 b3 3f
       -0.018923792678632735 0.07622318845207553
000280 38 ef b3 46 6a 7b b9 bf db cf 44 a9 9d df 99 3f
       -0.09953941560882817 0.025267089325282526
000290 9a c5 37 6a 26 ed a0 bf 26 2a 43 51 48 93 ad bf
       -0.03305931135754321 -0.057764301223489675
0002a0 16 82 72 2b 38 b3 8c 3f ef f6 f8 23 f8 1d 81 bf
       0.014013708902269644 -0.008357943151277662
0002b0 e2 54 49 33 92 f9 b0 3f 27 c1 68 19 71 25 95 bf
       0.06630815269575721 -0.02065064160905297
0002c0 68 d5 fe c0 84 8f b5 bf b7 00 89 19 45 b8 a2 bf
       -0.08422116958430126 -0.036562117926679454
0002d0 17 07 d0 50 22 19 97 bf 83 29 87 48 fc 94 94 bf
       -0.02255681627503411 -0.02009958450961725
0002e0 f8 98 93 22 4d 94 a3 bf e5 1e c4 9c 68 8a b7 bf
       -0.03824082419468938 -0.09195569827363277
0002f0 fe d0 dd b1 25 5f 76 3f c2 58 9e 2e c9 f1 ab 3f
       0.005461833234097433 0.05457905477594373
000300 3d 2e 08 d1 09 57 74 3f ec 3a 9e 78 63 88 9f 3f
       0.004965818734955327 0.030793718563979874
000310 3a 53 cf 45 87 58 9e 3f b2 68 8c 2e b0 0e 92 bf
       0.029634584079605043 -0.017634156075566572
000320 5d 33 a6 3a 30 a1 b7 bf 3f 66 60 34 9e a6 b2 bf
       -0.09230328971734765 -0.07285488871311772
000330 8c 17 11 35 b9 14 a6 3f e4 6f f8 d4 75 35 a1 3f
       0.04312685749805131 0.03361099457489994
000340 cc ed 2d ed df 79 9a 3f fa 8d 18 63 7e a7 b2 3f
       0.02585554013374551 0.0728682510312452
000350 98 1f 08 ec 81 b4 ac 3f d3 d3 4a 0d 73 fc b0 bf
       0.056064662992923064 -0.0663520724727527
000360 3c bd b0 1b 7e c4 b0 bf 4d a8 52 c3 07 28 7c 3f
       -0.06549823928866244 0.006874113392010339
000370 19 d2 81 fa 90 04 b6 3f 94 38 d4 99 94 69 b1 3f
       0.0860071765508298 0.06801728015509162
000380 fc 2a ec b5 1c af aa bf 9e bd 11 8d b5 49 b3 bf
       -0.05211724968656559 -0.07534346288752267
000390 59 32 10 61 88 f6 a1 3f e7 c5 a5 c9 8a 5c b7 3f
       0.03508402047018384 0.0912558309844581
0003a0 22 df ac bd 3a ba ad 3f d5 62 04 c4 53 8c ad bf
       0.05806144299861972 -0.05771123664653081
0003b0 a9 f8 61 a4 9f 01 b5 3f d5 59 b5 7c 13 fd 9f bf
       0.08205602420091175 -0.031238846289250184
0003c0 a5 38 fd ab dc bc 91 bf dd e3 75 6b 5f 38 b9 bf
       -0.017322013852486013 -0.09851642964885295
0003d0 6e 67 48 18 40 33 b2 bf 69 0f d2 23 9e 37 82 3f
       -0.07109451859323965 0.008895144909054147
0003e0 34 ec cc 1d 49 c3 b6 bf 8d e4 5c 99 3d 11 a4 bf
       -0.08891732194472085 -0.03919403550248388
0003f0 97 3a 3b 16 ad cc 82 bf e7 d0 d6 6c 75 b1 b5 3f
       -0.00917945121855483 0.08473905474858477
000400 10 18 96 87 03 e0 b1 3f 67 fc c7 56 01 fe 91 bf
       0.06982442913258091 -0.017570515557960322
000410 e8 e7 b7 aa 23 48 9e bf 0a 7b 26 70 03 db a9 bf
       -0.029572064680884497 -0.05049906486532592
000420 aa af 5e 55 44 ce a0 3f 78 5a ba ee e7 3e b5 3f
       0.03282369176972051 0.08299111917799873
000430 0f 68 59 60 48 ca b4 3f bf db 4d 03 46 29 b7 3f
       0.08121158935810534 0.0904735334460005
000440 88 63 f1 75 87 0e b6 bf d0 2f 3e f5 35 d4 a6 3f
       -0.08615919713464681 0.04458778971374466
000450 2a 6f 14 35 d5 ea 8f 3f bb 85 20 e4 3d c0 8d bf
       0.015584626848571387 -0.014526828312287124
000460 ac 22 cb 78 3a fa a0 bf d0 5f 86 b5 d0 f7 a4 3f
       -0.03315909122972491 0.040953180464554984
000470 df 93 ec 37 38 42 93 3f 6c f1 2f 70 ca ec ab 3f
       0.01880729523977098 0.054540945238815336
000480 3e 99 34 29 a3 75 b3 3f 6e 44 1a 65 c1 ab 93 bf
       0.07601375347130543 -0.019209882541478533
000490 92 56 27 be 15 7f b4 3f 7f 4b 31 d3 ad da b3 3f
       0.08006416218207793 0.07755552679127041
0004a0 a6 1a 72 f0 2a cf ab bf 5c 55 48 ab 07 78 b7 3f
       -0.05431493935707481 0.09167526179984037
0004b0 f1 c3 8f f5 22 11 b7 bf 1b 2c 1f 02 a4 c5 b7 3f
       -0.09010523314624642 0.09285950710106798
0004c0 0f b9 4b 1d c9 f5 b3 3f 23 c4 61 5b 55 08 b0 3f
       0.07796914067487058 0.06262715798381228
0004d0 c1 d2 6c 7a 77 b8 b3 bf b8 7c 09 f2 46 d2 b4 bf
       -0.07703348864454097 -0.08133357438190358
0004e0 8c d4 61 55 55 d5 ac 3f 67 a3 a2 bc 75 cf b1 bf
       0.05631510417234961 -0.06957183699945589
0004f0 ef f3 0c 70 4e 4c ac bf e0 7f ca 3c 9d ad b7 3f
       -0.055269671609927566 0.09249289259105309
000500 5e 3d 5b 2d 36 6e 79 3f d9 4f 05 15 94 94 b6 bf
       0.006208621625503367 -0.08820462716295142
000510 75 4e 5d c0 57 1e a4 3f 75 ba d0 e0 b9 08 a4 bf
       0.03929399703215789 -0.039129074757842476
000520 b4 06 cc 0f 65 c5 ac bf cd 0e 8b 1e 78 6f b2 bf
       -0.0561935025962276 -0.0720133852547022
000530 ed c3 4a 33 fa 35 b6 3f f3 f1 d8 14 3c 50 9a 3f
       0.08676112892386785 0.025696696064402457
000540 68 9c 29 6d 3c 15 b8 3f 7d bc 2e 76 36 05 9b 3f
       0.09407403626538413 0.02638707252816318
000550 68 ef a1 30 8c eb a1 bf df af 4d 57 c9 34 99 3f
       -0.03500021070155307 0.02461542697294294
000560 5f 0a e3 9e 66 9d 81 3f 4e 99 11 56 79 5e b8 3f
       0.008600999568789179 0.09519155837333423
000570 09 86 a3 ee 3e 34 83 3f 95 71 eb 0e 0e 70 a5 bf
       0.009376994760205386 -0.04187053615689532
000580 fc 2d ab c5 5b 83 a1 bf c3 e3 40 17 74 72 7a 3f
       -0.03420531070659291 0.006456807594127536
000590 c0 3c e9 af 56 01 b6 bf df 21 fd 8a fd d8 b5 bf
       -0.08595792574600392 -0.08534226077347949
0005a0 32 cc 34 f2 fe 9f a1 3f 5f 06 b3 b0 61 5d 90 bf
       0.03442379671687269 -0.015981222543592796
0005b0 ab 28 8b 65 73 28 a4 3f 12 cd f3 0b 0a 80 97 3f
       0.03937111486955421 0.02294936845733015
0005c0 fe 5b c6 a1 0c b8 b2 3f 29 7d 18 ea 21 79 b3 bf
       0.0731208701093777 -0.07606708493448323
0005d0 b9 3e 80 79 11 9e b1 3f 85 5e c5 2d 14 a7 b8 bf
       0.06881818023998222 -0.09629942052321823
0005e0 10 fb 98 a2 7d 42 a3 3f 07 e4 56 e0 3d 88 aa 3f
       0.03761665925821067 0.05182069171446107
0005f0 54 1c 84 bc d1 a7 95 bf 18 5f 63 98 5e 8f 8c 3f
       -0.021147992259127626 0.013945330644147755
000600 a3 19 76 9c 55 90 b8 bf 42 1f c0 4b e6 68 92 3f
       -0.09595236844879777 0.01797828519195766
000610 4e e7 cc fa fd 77 7d 3f aa fc 60 40 0a 2d 96 bf
       0.007194511516724079 -0.021656189135907646
000620 21 01 04 8e 02 ea 8d bf ad e0 b2 d5 8f ad af bf
       -0.014606494864438492 -0.06187104686381537
000630 ea c2 0e 0f 7a df a8 bf cb 35 9a ef 08 95 b3 bf
       -0.048579992616742576 -0.07649284219424783
000640 14 f5 c9 e7 f9 a6 7a 3f 9c 45 7b ed bd d2 47 3f
       0.006506897156780118 0.0007270266896403535
000650 7a 2b ac 5f 57 3e a6 bf 6b 22 a9 b4 c0 8c b2 3f
       -0.04344437640073458 0.07246021662388961
000660 a5 bb 0d f4 c7 48 a1 3f 87 01 79 ca ee f7 9c bf
       0.033758400479988716 -0.028289538486434587
000670 1b e0 09 91 2d 49 b5 3f 68 10 0d 8c 2e 28 b7 bf
       0.08314785758000236 -0.0904568759843315
000680 11 5e e5 e4 38 93 80 bf f3 df b9 de f4 d6 a8 bf
       -0.008093304143286269 -0.04851498812507762
000690 43 8e a3 85 23 af aa 3f 94 6a b3 32 7d f2 9e 3f
       0.05211745268186665 0.030221897334608075
0006a0 5a 2e c2 02 9e a7 60 bf 9c 68 6f 7f 91 58 7d 3f
       -0.0020330511234243733 0.007164543486363108
0006b0 bd 1f 45 1d 1b da a1 bf 79 70 09 cf a8 eb a4 3f
       -0.034867141077995246 0.04086043860726902
0006c0 f9 33 5e 47 67 40 44 3f d7 c1 2b f8 83 55 af bf
       0.000618029049961443 -0.061199306530287316
0006d0 c3 0f 6c a2 95 4a b2 3f 92 5a 2c 40 b9 70 a7 bf
       0.07145056929954223 -0.04578188808789209
0006e0 19 4e 32 8e 77 5c b3 3f ae fb 09 2e aa f7 b8 3f
       0.07562968465418186 0.09752906440733852
0006f0 62 44 f2 9b e6 79 b2 bf 78 8a fd af 00 bc a2 bf
       -0.07217255885395127 -0.03659059665985337
000700 a0 3e d5 0e a9 e8 84 bf 9a c6 9e ae be dd a6 3f
       -0.010209389462630114 0.04466052896112878
000710 19 ba f9 ce 6a b2 a9 bf 20 c5 b9 f7 8d 18 b0 bf
       -0.05018934036785456 -0.06287467287053916
000720 22 e7 59 a7 f1 d6 b8 3f d2 73 e9 cb 75 a6 a3 3f
       0.09702978454324954 0.03837936510237906
000730 c5 c6 51 7b d3 c4 87 3f 38 2b ef 02 40 79 a9 3f
       0.011605884743605252 0.049753189428506095
000740 c0 23 6e bd f6 6a ab bf 33 d5 ab 9c 25 18 b4 bf
       -0.05355044424420141 -0.07849345278721813
000750 1b 17 9f e2 bc d4 77 bf 05 4c 7e 73 42 ef 60 bf
       -0.0058181169824303115 -0.002067212855715097
000760 b7 23 86 1e 2c 28 96 3f 0d 03 5b a6 ab 9f a8 3f
       0.02163762031844715 0.0480931892939279
000770 27 98 40 73 ed a6 b1 3f 67 ff 56 e1 f0 11 b1 bf
       0.068953362119459 -0.06668000699482733
000780 c4 ff a3 7b 83 c3 b4 3f b6 1c d7 d5 a8 e5 ae 3f
       0.08110830086297854 0.06034591303210261
000790 09 ee 98 03 b2 1e b8 bf 43 55 24 54 46 df 93 bf
       -0.09421837413622582 -0.01940641296922264
0007a0 17 5f 3a 2d 6b 60 a9 3f 01 a8 53 8d 45 bf b3 3f
       0.049563740988729225 0.07713732433663269
0007b0 f2 4d 42 4e 88 ff ab 3f 05 17 3a 6e 32 70 94 3f
       0.05468393283186036 0.01995924756786051
0007c0 51 dd 75 c5 60 5f ad bf fb b4 42 68 77 93 9d 3f
       -0.057368301490834946 0.028882852304993083
0007d0 33 75 f1 88 b6 46 b2 3f b8 42 e3 5d b8 38 6f bf
       0.07139149516429626 -0.003811225978190027
0007e0 8e 0b 47 f7 db 47 ae bf 3c 72 a0 e7 86 85 b5 3f
       -0.059141992507213734 0.08406870989751608
0007f0 b6 4b d6 01 b4 bc 91 bf 5a c2 1a 43 c1 15 b7 3f
       -0.017321407901885265 0.09017570389074461

restriction_net.7.bias f8 [6]
000000 fd 74 03 83 52 72 8f bf ff 4d ae 60 51 5e 97 bf
       -0.015354771254744376 -0.022820731664593193
000010 c7 11 c9 6b 9a 28 a0 bf 5d 2a 05 be 14 03 91 3f
       -0.03155977788677294 0.01661331567565082
000020 d9 ee a4 96 90 95 a2 3f d1 14 65 3a ee 2c ac 3f
       0.036297338856881196 0.0550302931101584

restriction_net.8.weight f8 [6]
000000 d2 5f ab 35 6f 16 f0 3f 4f 0a a4 0f f1 d1 ef 3f
       1.0054771515333312 0.9943776422008542
000010 38 52 d8 96 ba 03 f0 3f 83 00 8d 05 ba 90 ef 3f
       1.0009103672392836 0.9864168270505761
000020 49 a6 f6 dc 3c d9 ef 3f 52 3d 5e 83 27 cf ef 3f
       0.9952682796185367 0.9940373960288673

restriction_net.8.bias f8 [6]
000000 3c 61 ab af 20 dd 83 3f b9 0b 4d d2 95 56 4c 3f
       0.009699111329084624 0.0008648139524683941
000010 b1 50 69 cf 69 51 50 bf 86 a0 6a ab 25 ad 88 bf
       -0.0009959729483357933 -0.012049001973835748
000020 e0 14 3d 43 59 63 76 bf e9 19 c9 30 d4 e6 20 bf
       -0.005465840036611186 -0.0001289495488824976

restriction_net.8.running_mean f8 [6]
000000 3f 62 75 c0 98 f2 d0 bf 62 3f 70 6b c0 d7 ae 3f
       -0.26480692667749745 0.06023980437760092
000010 77 33 07 30 3d f3 aa bf ca b1 0e 0f 9a ae b6 3f
       -0.0526370164039695 0.08860171191799462
000020 cd c4 b3 60 61 0c 97 3f 06 95 7f 45 03 00 b4 3f
       0.022508164908633433 0.078125194995284

restriction_net.8.running_var f8 [6]
000000 09 98 15 df b5 1d d2 3f d9 56 db 9d 23 71 cb 3f
       0.2830633810575596 0.21439023216105715
000010 6b 91 b6 40 01 5f bc 3f 08 9d 74 fd 24 45 c5 3f
       0.11082465963278813 0.16617262244947306
000020 7e 9b a7 82 31 4c bf 3f 26 62 2a 75 ab 98 bd 3f
       0.1222563690167657 0.11561080561148937

restriction_net.10.weight f8 [3, 6, 3, 3]
000000 1c 0f a7 b8 c6 c6 77 bf 34 e3 31 c5 4a 38 a0 bf
       -0.005804802184176141 -0.0316794744221113
000010 2b cd e7 c4 1a de 92 bf 00 0f 77 27 6f 09 41 3f
       -0.018425386684566874 0.0005199234719203971
000020 11 57 89 01 39 d2 b0 3f d7 d9 cc 3a 76 11 a5 3f
       0.06570774352561794 0.041148848226317085
000030 74 42 0d b0 e4 f9 b0 3f ab 44 ad a1 e7 dd bd bf
       0.06631306932582409 -0.11666724869907578
000040 e3 0a 7c 01 2c 21 b8 3f 30 b4 83 02 0e 5e 94 3f
       0.09425616298907928 0.019890040305586776
000050 0a b0 cb f8 e4 0f 62 bf 5e 21 ee 4c 36 7a a5 3f
       -0.002204844675693711 0.041948029414075036
000060 91 6d e9 13 ca d3 94 bf 24 01 22 30 8c 73 b2 bf
       -0.02033916231662897 -0.07207561659925382
000070 fb 8e 5b 89 85 46 68 3f 3e 25 41 1f 8b 44 ad bf
       0.002963314832287509 -0.0571635699894366
000080 f4 f8 54 75 52 01 8b 3f 00 e3 34 93 1b 5c 99 bf
       0.013186115461050175 -0.024765425548340936
000090 97 6a b5 6a 02 af 90 bf d0 4b 04 bf ff 15 c2 3f
       -0.016292608035068126 0.14129635645858096
0000a0 44 31 d0 72 98 fb b2 bf f3 c5 44 31 54 6c b1 bf
       -0.07415154269273666 -0.06805921748016157
0000b0 d3 44 8f 99 63 fe 86 bf cd 93 77 3c e8 24 b1 bf
       -0.011227396129387312 -0.06696940876243147
0000c0 85 81 d7 36 9e ca ad 3f 9c 85 e3 ac 55 29 81 bf
       0.05818647784667789 -0.008379620875021136
0000d0 73 68 8b 31 4d 48 b4 3f 96 2c 3a 12 74 19 ab 3f
       0.07922823390564009 0.05292856905460856
0000e0 37 65 06 94 dd fa 52 bf e5 08 3c 89 81 a9 c2 3f
       -0.0011584438180761278 0.14579791260627598
0000f0 59 19 75 48 a8 fa 8c bf 65 a2 e9 1d 7c c8 ba bf
       -0.014149965964531818 -0.10462165575303002
000100 51 a0 5c b7 cc 72 ba bf 4c 5b 2a 25 06 6d bd bf
       -0.10331420399291004 -0.1149448242889381
000110 1f 0b e1 e4 af 68 b3 3f 81 53 c3 39 87 c4 9f bf
       0.07581614816539826 -0.031023133183072375
000120 41 5d 87 f1 0e 45 b5 bf a9 99 a0 18 d0 5f b5 bf
       -0.08308499714563757 -0.08349323846105129
000130 f4 9c 3b 05 6c ac 86 3f c1 00 68 f6 d3 f4 a1 bf
       0.011071056279844595 -0.03507101424111304
000140 68 45 b5 98 7c 5c a5 bf d3 c0 70 1d 1e 6f a4 3f
       -0.04172124256241255 0.03991026028995894
000150 42 88 55 a6 cd 25 70 bf f0 85 e2 de f1 37 a8 bf
       -0.00394230205469809 -0.04730182500612645
000160 60 37 58 60 7b 2f ab 3f 07 89 cd 6e c6 c3 b6 3f
       0.053096633444609465 0.08892479138515706
000170 e2 0a 14 6d 44 af 8b 3f 38 98 2f d1 ab 6f b0 3f
       0.013517889574818868 0.06420396668508566
000180 30 c4 45 88 e3 cd 8c bf 7c a7 0c bc c3 f0 ae bf
       -0.014064576717574523 -0.060430638032200584
000190 04 9c 92 86 94 e4 b4 3f ec e7 e7 3c f2 74 ae bf
       0.08161285672632351 -0.059485979018020746
0001a0 d2 3a 05 5d 53 19 ad 3f 17 f0 15 0c 62 0a af bf
       0.05683384428504258 -0.060626090979866536
0001b0 01 79 dc 24 49 d1 ba 3f a6 91 2d 37 ea 5e a4 bf
       0.104755946635553 -0.039786643252941276
0001c0 b9 53 6c 0c 37 46 af bf c5 90 b0 5b 75 06 9f bf
       -0.06108257319116412 -0.03029807445649692
0001d0 d4 7a f4 05 6d 98 ba 3f 92 35 68 1b 93 74 80 3f
       0.10388833423028682 0.008034848474404641
0001e0 cd 42 63 83 65 45 b0 3f a0 68 38 d6 17 b1 a7 bf
       0.06355890710552643 -0.04627298822397674
0001f0 3e 6c cf 0c 50 40 ba bf 70 25 87 31 01 37 ac 3f
       -0.10254383385419971 0.0551071522673493
000200 3b d1 15 12 d1 5f aa bf 03 94 26 38 cd de bb 3f
       -0.051512273271244934 0.10886843319765664
000210 c5 00 f4 d0 10 7e 8e 3f 11 d8 ed b8 1b a0 c0 bf
       0.014888888718360591 -0.12988611726513047
000220 9d 8f 02 2b bd 41 b1 3f 6e 85 33 92 27 41 9e 3f
       0.06740934658097193 0.029545419977585245
000230 5c 45 59 05 0a c4 b9 3f d8 9c c9 68 b9 6a b2 3f
       0.10064756994804241 0.07194098289766104
000240 ab d4 b7 98 42 5f ba bf 0a b3 06 12 2c 49 b0 3f
       -0.10301605442494359 0.06361651840297725
000250 b1 52 bd a3 f6 22 b6 3f e4 66 df 8e 66 8d a7 3f
       0.08647099969432294 0.046000676098356924
000260 a3 68 7b 1b e4 63 c1 3f f1 03 e4 f2 5c ed b9 bf
       0.13586093274972652 -0.1012781231875264
000270 9b 8d b4 69 b0 a7 a0 bf fe 7b 42 39 00 88 aa bf
       -0.03252936640117384 -0.051818854322156924
000280 4b eb 1a 36 81 7a b0 bf f8 89 d8 d5 65 7b ac bf
       -0.06436927386213857 -0.055628950456838966
000290 14 20 96 8f d3 0e 97 bf 6f 44 26 24 0f d1 bd 3f
       -0.022517495764560705 0.11647123940044123
0002a0 28 cb 96 47 3a 1e 96 3f aa 31 20 ba 17 6a b1 3f
       0.02159968435234841 0.06802509588323483
0002b0 8d 3b 0c 51 13 b1 b5 bf 0d 1d 2c d0 5b 05 a0 bf
       -0.08473320702272087 -0.03129088321844096
0002c0 34 b8 71 36 96 f8 b2 bf 7c c6 06 92 70 ce b6 bf
       -0.07410563306049839 -0.08908752026652594
0002d0 30 59 1e c9 c5 ce 6f 3f 80 c7 63 55 e0 39 72 3f
       0.003882776546514276 0.0044497263936466025
0002e0 22 84 06 84 97 2b b7 bf c3 05 73 93 02 b2 8e 3f
       -0.09050890897061994 0.014987964749141441
0002f0 e3 fc 80 62 aa 7f b5 bf de 46 2a 65 87 39 9c 3f
       -0.08397927193526615 0.027563205289488184
000300 e9 2f a2 78 28 65 bc 3f 3d 0d 9e a0 5f dd b4 bf
       0.1109185499682891 -0.08150289222071634
000310 c6 e1 0c a8 54 7a bc 3f 0f f3 f6 5b 62 af a5 bf
       0.11124161818305031 -0.04235370037665664
000320 ce 5f 14 8a 6f 9c b2 bf 92 69 97 b8 2f 97 a7 3f
       -0.07269951935847915 0.04607533577264457
000330 9a 97 e8 00 7a f6 bf 3f 2f 67 fd 33 4d b9 70 bf
       0.12485468408757897 -0.004082967352440111
000340 17 1b cf 8c ef e9 50 3f 72 8c af ea 16 9e b7 3f
       0.0010323371272861809 0.09225600461609121
000350 8b 9b b7 9f 41 6c 50 3f 3a 47 6e b3 d3 74 9b bf
       0.0010023728235581699 -0.02681284697207007
000360 48 26 44 ff 80 7f 99 3f 7f 4e 04 83 50 fa b0 bf
       0.02490045125981613 -0.0663194961419382
000370 64 2c 80 3c dc 9e a9 bf a5 98 92 41 9e dd b6 3f
       -0.05004013289006862 0.08931912518400738
000380 0c e2 d3 ad a4 20 c1 3f f8 b5 58 fa d1 93 b0 3f
       0.13380869376830196 0.06475555765128849
000390 f2 33 3d c6 c6 b3 bc 3f 19 28 7a 1d cd f9 9a 3f
       0.1121181711179842 0.026343541072982733
0003a0 e9 fb ef a6 ab 4e ad bf 5b 88 bd 6d 6d 6c 92 3f
       -0.05724083340464132 0.0179917429189874
0003b0 74 44 35 7e e8 46 c0 3f 1e ac 85 e2 dd 34 b7 bf
       0.1271639457941408 -0.0906504323990451
0003c0 35 a7 35 17 8c 6a b7 3f ae 3f f6 be 4e 84 8f bf
       0.09146953169479562 -0.015389075472540838
0003d0 5d 80 c6 e4 a0 79 ae bf 3d 66 59 95 63 0b b4 bf
       -0.05952170174282465 -0.07829878231259442
0003e0 8b e0 06 7d 5c 0e a9 bf 26 4c 56 5f 05 79 b9 3f
       -0.04893769289213975 0.0995028836971846
0003f0 76 b5 c0 51 e1 e3 b0 bf f6 42 33 2b 74 79 ab bf
       -0.06597717519681176 -0.05366099383684812
000400 ae 10 50 c9 ce 37 a1 bf 7f 6c 6c 83 50 29 ba 3f
       -0.03362890441351972 0.10219290932256973
000410 a6 71 09 90 56 c0 ad bf 37 1c 6b 01 f8 f9 a0 bf
       -0.05810804851782629 -0.033157110379356806
000420 1a 78 b5 2b 6b f1 bb 3f 8a 05 4b 05 2a ea c0 bf
       0.10915250603781637 -0.13214612253618113
000430 b2 67 26 5d b1 33 b2 bf ee d6 29 09 00 c8 c0 3f
       -0.0711012699524918 0.13110351989205732
000440 b0 a1 da 37 a0 3e bc bf f8 6b 37 a9 a2 e3 b7 3f
       -0.11033059466956874 0.09331719046842568
000450 c4 37 75 b6 58 1c c1 3f e7 d7 1c 45 37 05 8d bf
       0.13367756756855276 -0.014170104786540306
000460 d1 ee 5d 66 7a 77 b0 bf 29 a6 a6 f3 91 77 5d 3f
       -0.0643230914992572 0.001798527270333481
000470 ef fb 0f ef 79 9e ad bf c7 0e b0 0a 0a 18 bf bf
       -0.05784970324747706 -0.12146055947237776
000480 45 66 82 e4 32 dd b8 bf 23 6e 0a 06 8c 09 b4 bf
       -0.09712522581903567 -0.07827067515830115
000490 ee df 9a 63 03 2c bd bf 1b 18 5e 54 ed 82 b9 bf
       -0.11395283872377579 -0.09965403852228898
0004a0 5c 11 79 3b a2 4e be 3f b0 b4 c5 8b a2 42 a9 3f
       0.11838735534644712 0.049336509286925234
0004b0 f3 36 6b 7e 7f 5b b5 bf 8d 87 ed 8d cf 0a b0 bf
       -0.08342739902874623 -0.06266495909724608
0004c0 9b b5 14 cf 03 b3 a5 3f a5 d5 f4 0d 61 b7 b5 3f
       0.042381400135450074 0.0848293932984548
0004d0 e4 17 38 c1 ca a3 bf bf 22 53 97 5e f6 c2 b9 bf
       -0.12359301774276293 -0.1006311398444493
0004e0 e8 ed af a1 5b 57 ba bf b5 b0 8b ce 11 83 c0 3f
       -0.10289547631685247 0.12899992547261765
0004f0 fd 5b 20 3d e6 a3 c0 3f 92 c0 af 44 e0 c2 a0 bf
       0.13000181183517148 -0.03273678625544209
000500 93 19 fe a8 2d 29 95 3f f0 c7 71 73 de af bc bf
       0.02066489547680701 -0.11205854719608488

restriction_net.10.bias f8 [3]
000000 f2 fc 52 b6 42 fd b0 bf 5a b9 70 77 43 4e b9 bf
       -0.06636444999002203 -0.09885045686744345
000010 b8 73 42 d4 e9 45 af 3f
       0.06108027187403969
