results/run_2/saved_model_end_to_end_unet128_0.pt (torch, 342451 bytes, 35 tensors)

restriction_net.0.weight f8 [6, 3, 3, 3]
00000000: ca52 8119 95d7 bf3f 49d1 e09a 1e71 a0bf
00000010: c1f7 8443 8613 a43f 0fbe 6086 6faf b2bf
00000020: 0e86 cbe9 8d43 bc3f 72e8 811c 266b ba3f
00000030: 33c3 15d4 e0cb 84bf ea16 4ad7 ba0e bbbf
00000040: 1973 f986 849c be3f 318f 0804 9175 b1bf
00000050: ea15 fb9c 8439 c9bf 6d42 35bb ace3 c13f
00000060: 7e9d 1a73 efb6 92bf 74db ac14 d66f 97bf
00000070: b164 7f4b a124 bd3f d045 0c04 ee51 c1bf
00000080: 927f 1115 0ec5 42bf adde 7461 bc00 b3bf
00000090: 80d7 fdc2 2939 ba3f b1db b15a 90bf a4bf
000000a0: df8d b1f8 b04f a03f f14c a8da d905 b73f
000000b0: a880 9d7d f3d7 b93f c6a5 15b3 311a c7bf
000000c0: e97c 36ce 3f2c c43f 9cda 0de3 918f b9bf
000000d0: 1a00 3631 f202 c3bf 25dd a29c 29e4 b3bf
000000e0: f36f 712b bf31 b4bf 58d3 445e ca5e a5bf
000000f0: 092b 92dd 142d a9bf 75b2 c8bb eba8 ab3f
00000100: fe40 6d06 2888 bf3f d7ee 11cd 3bcf 943f
00000110: eb6e 81d0 6c2c c33f f56d 8bac 1f77 c6bf
00000120: 03a9 b237 877f bdbf bdec 6827 62e7 b1bf
00000130: acc5 9ab6 560d c3bf b555 73d0 c52c c63f
00000140: 377a 7f69 5604 b2bf 2a7f cf1f 7e39 a13f
00000150: 57c7 9339 f34a ae3f 6ed5 6724 9409 c43f
00000160: 233f 9c03 c8b4 803f f6e8 35ad 5d33 c3bf
00000170: 7df0 aaf9 77c3 b9bf f04f fa40 e895 b2bf
00000180: 8c74 47ea 233a 9d3f 197a 5b0e d52b c0bf
00000190: 90ae f513 3846 b33f 6c7c 208a 6584 b7bf
000001a0: d518 32e4 8027 b7bf 560d 26a1 5d0e c5bf
000001b0: f3eb 5389 d8ad c2bf e88b 89eb 4262 c2bf
000001c0: 5934 9b77 22cf a83f 1d3a 1641 45be aa3f
000001d0: f4a3 da95 7cdf 97bf fe5e 0843 468c 943f
000001e0: df42 be93 b234 ad3f 360f 1dde 2814 b03f
000001f0: 48a4 e055 bf3c c13f e8db 6034 a89b c43f
00000200: 494f a067 b1f7 8fbf 303f 15cf b810 c73f
00000210: f15a 4d9d efdc c23f 49da c13f c011 bcbf
00000220: 6c37 8716 bb88 95bf 5b00 8b72 53f4 bd3f
00000230: 8a63 be76 79f7 c0bf 76ca 83ed 1e42 c13f
00000240: 9479 512d ffd6 c6bf e71b 2e3a d3e7 c43f
00000250: 6c99 339e 2ad4 c73f e298 6c46 53f1 c5bf
00000260: 1973 17fd c7e0 b6bf b1cc e8b6 7398 b83f
00000270: c347 a0fb 20d9 bbbf 9123 367b 0563 7cbf
00000280: cc52 db29 3377 c0bf 9388 7b38 a5d6 af3f
00000290: dd00 1160 c92b a1bf aeeb e625 d550 b1bf
000002a0: 02db 2f73 d714 c1bf a7ab 7f90 92b7 c3bf
000002b0: 87ab f6e6 bc09 c8bf ee5e fd62 c1d0 b8bf
000002c0: d032 b664 4df5 c0bf 6ea1 bde0 2280 433f
000002d0: bb6a 834a 122e c43f 8c01 751f d2f7 c6bf
000002e0: 7674 0c1b aedb bd3f 723d 7ae2 83d9 c9bf
000002f0: 0a9a b100 ad96 b63f d60e fc56 4f91 9f3f
00000300: 1346 a35a 1362 c4bf daee 98fc a22d bebf
00000310: c830 5442 48ff bbbf 10c5 694f ab78 ba3f
00000320: a993 0381 c294 9ebf 0654 3261 d725 ad3f
00000330: 7bf6 30db fd19 aebf 1a75 f25d 6d77 c83f
00000340: 6465 e672 4631 c3bf 14d0 289c bcc3 c93f
00000350: ad3c f8fc bcec b7bf 49fa 1b1b 2a7b c73f
00000360: c6eb 9440 8942 bbbf 7454 744f 199e 953f
00000370: cd4b 9b65 a14d b23f d4d4 a8ea 5140 b03f
00000380: 6a5c 3392 1941 bc3f 3bff c7a6 4f2a 6dbf
00000390: 01c3 cd23 1ce1 bdbf 7701 a880 e428 babf
000003a0: 8033 5c41 8c2a 963f eae2 00ad 62cb 933f
000003b0: 3b95 379e d04f b83f d3c0 1c5a aa1e bf3f
000003c0: ab67 6afb cce0 b1bf 61c9 fc02 e1e3 9ebf
000003d0: bd87 12e2 9297 aebf 6cf6 d916 0824 b7bf
000003e0: 38b0 3b8f 2b17 a53f 3b0b 897d 2d4b c8bf
000003f0: 13ca ce47 9a61 93bf f13f 4d18 24fa c1bf
00000400: 422f 6474 25ca c43f 0f02 38d8 1113 903f
00000410: 68c7 0011 4a3f a8bf 1dbc f84c 9899 c33f
00000420: 63a5 3525 24ea be3f 1935 534c aed4 b73f
00000430: dafd 9a86 6f59 9dbf be9c ece8 3293 c03f
00000440: 6db0 ce92 6593 993f bc67 d4b7 6e56 babf
00000450: 5cea 2e0f 95ff c4bf 04fd afea ddc1 c93f
00000460: 1c23 b56d 115e acbf 68fd 03cc 309f c5bf
00000470: 6c96 d490 171c c4bf bfab ce3a 4f94 abbf
00000480: 9555 b8e2 c37d a43f 68aa a7e1 e824 ab3f
00000490: 3c11 3dae 8eca b93f eede 4d5d 19ce b5bf
000004a0: 8e6d a6c4 0025 c6bf 26d8 2ced a90f abbf
000004b0: 4ce1 2f2b 6532 c43f 1571 15d9 d803 c83f
000004c0: b78f 6dbd 1c9c a23f b7fc 0620 697c abbf
000004d0: a566 0d87 a93f b0bf 6d45 abcf e8c8 c4bf
000004e0: 4f1a 155d 03c0 c63f af5e f76d 7312 c13f
000004f0: 068f 325b 78cc c2bf 4133 2d4b 05a8 c53f
00000500: 94b5 d8f0 3dbd 903f 4be1 8727 dd26 aabf
0.12438327667889407 -0.032113033681897614 0.03921145986758701 -0.07298943548880053 0.11040579755674448 0.10319746204359762 -0.010154491875000815 -0.10569350963677562
0.11957577033303969 -0.06820017193291218 -0.19706781067922857 0.13976058140771688 -0.01827596797980168 -0.022887558948436262 0.11384018033222067 -0.13531279752400716
-0.0005728071938726367 -0.0742299783640827 0.10243474016701093 -0.040524016448152074 0.03185799632845109 0.08993302906337754 0.10095140282419612 -0.18048688167918508
0.15760037964807985 -0.09984695237458613 -0.14852740671995052 -0.07770023416639 -0.0788840752661029 -0.04173881912939831 -0.04917206959460969 0.054023138687942764
0.1231713309946407 0.020321783439142784 0.149793245133757 -0.1755103676322133 -0.11522717580615809 -0.0699368807044491 -0.14884456554640957 0.17324135473488203
-0.07037868571885829 0.03364175928413567 0.05916557386252801 0.15654231813065728 0.008157312975100311 -0.15000506360576765 -0.10063886495021453 -0.07259990297671925
0.028542100118887734 -0.12633765412370293 0.07529020774171102 -0.091863962385547 -0.09044652529891846 -0.16450090759836183 -0.14593035417041697 -0.1436237001499585
0.04845531187093206 0.05223289889828584 -0.02331347145687697 0.02006635460028771 0.0570426755285831 0.0628076116818733 0.13466636365163454 0.16100027616059198
-0.015609155630989984 0.18019781218981157 0.1473674314572331 -0.10964585835049791 -0.02102939915658146 0.11700936838588076 -0.1325523214152578 0.1348303470363878
-0.17843618119054538 0.16332474079919665 0.18616230702100312 -0.17142716349298498 -0.08936738900179043 0.0960762330585563 -0.10878187316146097 -0.006930371676738726
-0.12863769096170186 0.06218448938831602 -0.03353719041524681 -0.06763965773909206 -0.1334485351978501 -0.1540396886406061 -0.1877971771003468 -0.09693535486928415
-0.13248603265346626 0.0005951090147223012 0.15765598905894315 -0.17943789039601332 0.11663330231063349 -0.2019505363318604 0.08823663012444896 0.03082775085842012
-0.1592430298392605 -0.11788386027268008 -0.10936404818875467 0.10340376557157449 -0.029864348530185634 0.056929331412142445 -0.05879205036806653 0.19114462935696325
-0.1499412594828683 0.20128591179820943 -0.09345608879106022 0.183446181523282 -0.10648401095106327 0.021110911821854164 0.07149704676275732 0.06348144511214865
0.11036834544516841 -0.003560214585604541 -0.11671615480532795 -0.10218647137663149 0.021646682252185467 0.01933054142884575 0.09496787893984486 0.12156166744239565
-0.06983643663480048 -0.03016616421445784 -0.05975016603157666 -0.09039354856391818 0.04119239924861556 -0.18979424123434704 -0.018927012093351857 -0.14044619738206124
0.16241901572390743 0.015697745153376682 -0.04735785920674013 0.15312484510784055 0.12076021107136152 0.09308900226024654 -0.028661482420600716 0.12949215291266641
0.02497633656064162 -0.1028813551714895 -0.1640497516762761 0.20122884711597788 -0.05540518249705981 -0.16892061196993358 -0.1571073014430796 -0.05386588662016533
0.04002201216296012 0.053015973611611866 0.1007470298182555 -0.08517607238706734 -0.173004241962968 -0.052853880121276384 0.15778793915502332 0.1876174030284196
0.03634729206422043 -0.0536835528941934 -0.06347140834022953 -0.16238126888360274 0.17773477597275408 0.1333755766815918 -0.14686493351938895 0.169190084178263
0.016346900773148557 -0.051077757907423825

restriction_net.0.bias f8 [6]
00000000: a2c9 9e56 5b6b c43f f4f3 dbeb d367 c5bf
00000010: 7e7b 615d ba93 c2bf 711a 9785 fbb7 c33f
00000020: 5048 2564 1449 c73f c1c6 b430 3266 bbbf
0.15952626924042784 -0.1672310735374648 -0.1451333003960506 0.15405220053635874 0.18191771402286117 -0.10702813805689983

restriction_net.1.weight f8 [6]
00000000: d166 c11a 1ab2 ef3f 97b1 f8c4 8bdc ef3f
00000010: d9a1 bd8d e458 f03f 47fb 041f c026 ef3f
00000020: 5d88 5db8 7c0c f03f 1e40 6af4 24a3 ef3f
0.9904909632270692 0.9956721160029244 1.0217023407695847 0.9734802823876202 1.0030486299297288 0.9886650823336856

restriction_net.1.bias f8 [6]
00000000: 1688 c33e d8f9 75bf d5b7 eaca b78b 86bf
00000010: 890e d689 9c71 963f 8245 de39 9d95 643f
00000020: 94e8 46ed 72f3 95bf 39b8 19c7 945f 72bf
-0.005365223605823052 -0.011008678321868285 0.021917768395282287 0.0025127478429076153 -0.02143649647926134 -0.004485684550315888

restriction_net.1.running_mean f8 [6]
00000000: 12e0 6d87 2986 b73f ac6b 4a39 593a 02c0
00000010: 004c 354f f51f efbf 7931 67a0 1e6e f63f
00000020: 2511 c945 51f4 f03f c327 229e 12a6 babf
0.09189090305687866 -2.2784904933773387 -0.9726511523280124 1.4018846765275994 1.059647820090569 -0.10409656868628674

restriction_net.1.running_var f8 [6]
00000000: 536e a502 2fc7 c53f 27a1 6817 421e e33f
00000010: 5c63 e869 758f d63f b88c 7843 603b da3f
00000020: 732c cfa0 73a0 c53f b086 6639 f72e b93f
0.1701411021157236 0.5974436242295597 0.3525060209517983 0.40987402523951344 0.16895909645095095 0.09837289000872818

restriction_net.4.weight f8 [12, 6, 3, 3]
00000000: 2f42 fc2d 3584 c1bf 101e 7eae ef61 79bf
00000010: 8031 bcfa b436 acbf 1f35 9380 e44e c0bf
00000020: c432 eaea f2b3 99bf 1ae7 0116 259f b13f
00000030: 8802 8e6d 6dd5 023f caac 1b3e 7ee9 b43f
00000040: b438 7090 e5f2 a4bf bf17 4439 e9b8 bc3f
00000050: cd46 53e2 40a0 b8bf 42b6 fc56 1224 bcbf
00000060: 0176 4192 b5a9 bfbf 81af e8b7 d94f b33f
00000070: 32b1 0992 3f08 67bf b760 3811 f717 a0bf
00000080: 2af7 ba78 3ed3 703f b8e2 1cce 9b9c b33f
00000090: 403a a02b 3698 b33f 9cc9 af36 c8e6 bcbf
000000a0: 80bf 537c 67a8 b23f f0c3 8467 e0a7 a7bf
000000b0: 5255 1bad d052 91bf fdfa be60 3ebb bd3f
000000c0: 6aed 8e78 f45a 683f 4365 c388 0315 a8bf
000000d0: 8597 861e 7b91 b5bf 2852 e312 965b b03f
000000e0: 7109 8715 93bd bcbf 2624 174e 3c66 b83f
000000f0: ba9a 064b d177 8abf 8114 a0a8 ecc8 b73f
00000100: bd5f bad6 81a9 a93f 6823 d7fa ca0b a63f
00000110: 861f 7d00 cbeb b13f fbb3 1303 0092 b83f
00000120: 5fba ff0f b259 9d3f a01c 5c13 e7ec bf3f
00000130: b86b 35e1 f447 a0bf 095d 6a7d de0e 9e3f
00000140: d6ef cb04 beeb 893f 4707 a4b5 5387 bc3f
00000150: b428 50a7 d13a b93f 0a62 c82f 276f adbf
00000160: b0c9 4ea0 5bd1 b53f 3b5f 2f89 ed22 b93f
00000170: 4d25 b32a 172e b4bf b91d 7cd0 f9e4 b3bf
00000180: 6a18 63ce 6632 b4bf d6ba 8e0e eee9 b3bf
00000190: 0065 a9f4 8330 b73f 7728 d691 da24 a1bf
000001a0: ecb1 845b c25a a1bf eed1 539c a47a aebf
000001b0: 0fd0 1e0e ebf9 9ebf 4ac9 e122 4496 bc3f
000001c0: 976f ff75 f073 c0bf 347f 4646 f9cb ac3f
000001d0: c047 f4aa 3eab adbf 737e 3543 73c2 b8bf
000001e0: 0d53 fcfc 06e3 b93f be5e c8b1 ebfe ae3f
000001f0: 5b34 9df0 ace1 c1bf ab84 e64e a35d bb3f
00000200: 2804 2b8c ec54 7ebf 7f0e 2ac5 6e73 a1bf
00000210: 0bba 51bc 1f96 c1bf 112f 23f3 9dfa 8d3f
00000220: 9833 f176 a14b b4bf 1a90 7442 dd31 b1bf
00000230: 9fcf dbbb 589e b13f d4d7 d32c 1c48 76bf
00000240: d131 99ee 5e0b a63f 2164 44ae e118 abbf
00000250: eb23 136b 7330 c13f 4113 12b4 4072 ba3f
00000260: c6b9 2a36 3b1e c03f e69c 930e f215 913f
00000270: 149e c06e 085f 85bf b48e e2cc eff6 c03f
00000280: dcbe e7b8 3181 9a3f 25c5 6f39 1adb b53f
00000290: fef8 606b c931 b2bf 1ca2 8060 b720 c33f
000002a0: 32d2 bf08 f0ce b2bf 0bb7 eaf0 4e07 c13f
000002b0: 54ab 65ed ed32 b3bf be7c a8c7 43c2 a4bf
000002c0: 0064 2de8 a237 a8bf ffbe 58d2 d785 aa3f
000002d0: a7eb cc6e 2b32 bf3f c043 1aba 59cd b23f
000002e0: ca4a 9a5f 3e7c bd3f 832b dac6 6acd b33f
000002f0: c651 203b e685 c23f 6b79 2260 6ed4 b7bf
00000300: e7f4 854a 2c7c bcbf 846e b1c9 a58a b03f
00000310: 7704 9ef7 75d5 bebf d5c0 da19 5cfb aebf
00000320: 8d5e 078a 066a b1bf a537 27d9 430b bd3f
00000330: 583d 87e9 07c2 b93f 4a34 0c3e d107 9f3f
00000340: 788d d2e1 f74a b13f 4711 a2c7 6ea8 b3bf
00000350: 060a 07df 8487 b9bf c8c1 9d0d abfc b43f
00000360: 45ff 0238 9408 b3bf 6617 3ee9 d0be af3f
00000370: c2c5 df34 4502 b03f 6ff2 b2b6 d123 753f
00000380: 9919 7fc5 859e b43f 62ba 20f9 5f53 51bf
00000390: 1a39 30b5 80c1 bb3f 75b4 14c0 269f b23f
000003a0: 6243 ca33 ca43 c03f 874b 01d2 2d4a 823f
000003b0: 142a 7ee4 510f c03f 0f34 6096 5474 b13f
000003c0: 087f 3f1e 353e 413f 0abb 46b4 6967 acbf
000003d0: 2e90 7015 2a59 b93f bdf6 72e9 fa5a c03f
000003e0: d2c5 b806 8707 ba3f 421c 750f b48b b43f
000003f0: 9477 8612 6586 a23f d0a2 fa53 c032 9d3f
00000400: 142e a4fc 996e b63f f280 0b2c d457 8d3f
00000410: 156a 132c f43c b43f 8f59 edd6 602f b93f
00000420: c4a3 52b1 8036 b73f 3844 727f 8871 a6bf
00000430: 00d5 6b75 d452 be3f f692 6e1c 495b b1bf
00000440: 7c94 d027 f091 78bf 5b02 26a1 2171 bc3f
00000450: 7641 55b0 b23b ac3f 1968 eb3d 96ca a7bf
00000460: 2077 1f4d b1b2 b53f 1162 9852 952f afbf
00000470: 377b f7d9 fccb a83f 9189 d12a 508b 923f
00000480: a666 4d78 338d bebf 76ba 035b fa35 bbbf
00000490: f9dc 3566 290b b13f 353a c156 fec7 b93f
000004a0: ea9a e13b 696c af3f 453f 554e 6052 c0bf
000004b0: a33c 24cc a5b0 943f f22b 0c60 66af 953f
000004c0: 1372 ff9e 467d b73f d990 1ff7 f149 bbbf
000004d0: 99e1 c989 2345 9c3f b173 39f5 f934 973f
000004e0: ff3d 3ed1 9413 b0bf b51d 81ad 214e 9b3f
000004f0: 0442 6101 ede5 843f d02c 3856 e116 aa3f
00000500: 94b0 a5ef f317 b9bf fffa a649 0e7d b7bf
00000510: 535a 040d 1f35 993f 58be 249d bad9 bb3f
00000520: 4b5c 50af ede5 bd3f b33d b98d 1c48 c2bf
00000530: f857 338d a9ca a7bf c05c 92b2 2a82 bd3f
00000540: 6a76 e29e 534e c1bf 7ce6 f1da da51 a63f
00000550: 1cb9 8ec8 8320 9bbf e3a4 8bae 9b35 b73f
00000560: 9ee0 0812 41b2 a93f efa6 c1a2 15c9 963f
00000570: 434a 9553 82b5 b53f b696 2fcf 6b11 a3bf
00000580: 5a4c 1f50 f22b a8bf bda5 6e7c 190b b2bf
00000590: 17f6 8312 49c8 bcbf 06d9 7322 2b94 b8bf
000005a0: f310 4bfd 07f6 b3bf 9b21 fd08 2172 983f
000005b0: bc2f 02fb 9ead ba3f 5e02 9c92 bbac b03f
000005c0: cb90 422e 56e6 a93f c1a3 b178 7f0b c03f
000005d0: 2a65 41c7 cf8c bd3f b4f9 b36d 245e afbf
000005e0: 2b64 ce40 f2a8 c03f be0a 06f7 62a9 b23f
000005f0: 8eb1 fb7e a5fb 8b3f 2b7d a23e f4d7 b3bf
00000600: 46b2 a511 ff39 84bf 3498 86e4 5d64 b4bf
00000610: fc05 5541 6de9 bc3f a4c4 393b 88b8 70bf
00000620: a94f dc1a ca6f b73f 156d 2a46 866c a3bf
00000630: 5e54 d8f6 3784 abbf 5cd7 795c 3072 af3f
00000640: a06b e5f5 bf88 bbbf 4132 c89a faab aa3f
00000650: 0e38 c02b b5a2 a53f 17d6 c716 4273 afbf
00000660: 4d43 8629 fb3c b0bf 312d 01ab c378 c13f
00000670: e04f aa46 52c4 b33f 75a5 0617 fc38 b9bf
00000680: d154 c963 3360 ba3f cdb3 6d0f f339 86bf
00000690: 69d0 6207 4469 a5bf 6f3d 8e59 4de6 a8bf
000006a0: ecbb 12e3 da5d b13f d1e0 d573 64f1 bc3f
000006b0: beca 3d1c 97f1 bfbf 7661 4ff0 40a9 b1bf
000006c0: 6b8a 5b3d 8a25 b4bf 8179 fed0 b44c be3f
000006d0: 38d7 a65b 4bc2 b63f f15a c5fa f913 b8bf
000006e0: f866 fc9f 2911 a4bf 4541 2f1d 0b62 b5bf
000006f0: c687 9de4 de67 c03f b446 ddce 33af b63f
00000700: feb9 4f13 4afa aa3f 6db1 5f53 dbd8 c0bf
00000710: 7881 9c47 5de7 bbbf 59b5 5da9 0206 c13f
00000720: 8046 cb3b 29fb b93f 1b1e f886 3110 5ebf
00000730: 6680 6dbf 22c5 b6bf c8af b8f2 24ca a73f
00000740: 1b50 4c70 e85c a0bf 1643 0e60 6958 bfbf
00000750: 18ed c93f c9b8 713f be37 7a9d 117b a63f
00000760: 552a 6c28 c316 b6bf e241 18f7 a614 22bf
00000770: 2fb1 f088 532e b7bf 91d6 8628 77a4 b3bf
00000780: 1709 fb24 fe1a a9bf 812b bb71 d2a5 a03f
00000790: 76ba bbda 0044 8fbf 1ac3 4a02 ac0b b63f
000007a0: 893c a689 3bdc c03f cfff 21ce 3fbc c1bf
000007b0: 73b4 50f8 a2af 98bf 8fff 55ea a5d9 b2bf
000007c0: 5d43 cab0 1862 b23f b704 b303 8e82 a0bf
000007d0: 7ed3 eda1 8dfb 6b3f 3a1b 39ce 1410 c23f
000007e0: 5e80 79f7 ea34 b8bf 9ecf a691 61ce bf3f
000007f0: 2923 daaa ca4a a6bf 3f59 30be a8ac b33f
-0.1368471598184597 -0.006196914917274934 -0.055104880912128174 -0.12740761068418124 -0.02510051306539897 0.06883460795679888 3.592243383021993e-05 0.08168782249747433
-0.040915655023228054 0.11219651840300936 -0.09619527364273069 -0.10992540954313149 -0.12368330784507721 0.07543717136348783 -0.0028115502939753062 -0.031432839252546634
0.004107708005617808 0.0766084078030741 0.07654131474576165 -0.11289645514606267 0.07288214478808008 -0.04620267165808645 -0.016917477193449777 0.11613836156810105
0.0029730582068318483 -0.04703532261346279 -0.08425111289269978 0.06389749489910257 -0.11226767802785333 0.09530999094489853 -0.012923846342187562 0.09290961376980712
0.050121362173001206 0.043058722610630096 0.07000416528637574 0.09597778391953675 0.02866247389459386 0.12470859739925055 -0.031798984996121715 0.02935359611964564
0.012656673928624611 0.11143992600048334 0.09855375609200473 -0.05748865564618562 0.08522579826129717 0.09818920706981953 -0.07882828514552394 -0.07771264400445589
-0.0788940671801314 -0.07778823714646008 0.09058403704820606 -0.033484297087014996 -0.0338955628124927 -0.05952944191259123 -0.030250237213934435 0.11166787959681304
-0.128538186660873 0.05624369604924909 -0.057947119110522305 -0.09671707526057975 0.10112041164786607 0.06053864045332834 -0.13969957112059003 0.1068975513103562
-0.007405208600801884 -0.034083806579499935 -0.13739391989970814 0.014638170225587584 -0.07927903322088381 -0.06716711876339368 0.06882242761986256 -0.005439863261235762
0.043055502534659625 -0.052924206278653914 0.1342911026788721 0.10330585857634579 0.12592258591526057 0.016685278072057573 -0.010435167198081387 0.13253591064596082
0.025883461867066568 0.08537448789845266 -0.07107218619873731 0.14943592273745387 -0.0734701176987265 0.13303553355711303 -0.07499587102726696 -0.04054462253793066
-0.04729947170444149 0.05180239145954423 0.12185927825059527 0.07344589990158479 0.11517705759096511 0.07735316614905056 0.14471128356002633 -0.09308519217527127
-0.11126972979942061 0.0646155946173455 -0.12044465346663623 -0.060511472850863925 -0.06802407140582485 0.1134531407508051 0.10061692668317812 0.030303258335198792
0.06755017531627583 -0.0767888295541229 -0.09972410626418346 0.08198041040828408 -0.07434965484116869 0.062002685997000026 0.06253464260932787 0.0051611129703671285
0.0805438620728637 -0.0010574757802818348 0.10842136786979886 0.07274095715975355 0.12706878212750455 0.00893054768690661 0.12546752602459377 0.06818131133350412
0.0005262145391462256 -0.05547647786749195 0.09901679061346222 0.1277764930618356 0.10167735971551586 0.080256704114718 0.03618160105837301 0.02851391327445435
0.08762514513016867 0.014327676386017594 0.0790550811392808 0.0983791851734621 0.09067539529009055 -0.04383493953458423 0.11845138422707535 -0.06779915756358065
-0.005998552424931632 0.11110124763764288 0.05514295961859521 -0.04646749025205583 0.08475788243182736 -0.060909906704356705 0.048431302649751755 0.018109562505182423
-0.11934205710476906 -0.10629238817248585 0.06657656426783722 0.10070790880238507 0.06137398582432303 -0.12751392197469094 0.02020510729294912 0.02117691003062911
0.0917553079775149 -0.10659706385883129 0.027607493672321935 0.022663026420889746 -0.06279878719782771 0.026665235724321074 0.010204173664676304 0.05095581223948786
-0.09802174187433571 -0.09175195024634418 0.024616704148764445 0.10879103027831982 0.11678967981457437 -0.14282566948030037 -0.04646806572570478 0.11526743755017588
-0.1352028394511991 0.04359325335185546 -0.02649122153860005 0.09066174517979024 0.05018809647703047 0.02225145154844815 0.08480085888485527 -0.037242287675139193
-0.047210285454320114 -0.07048186576743994 -0.11243111326253828 -0.09601087180258014 -0.07797288831631359 0.023872867749817322 0.10421174648416714 0.06513569192248655
0.050585454127288175 0.1253508891416271 0.11542986502299316 -0.061265123740656874 0.13015583195081723 0.0728971341214146 0.013663571298331314 -0.07751394776504543
-0.009876244283725143 -0.07965647534601389 0.11293680996916317 -0.004082233575546077 0.09154952197815071 -0.037937351288940636 -0.05374312294240079 0.0614180672536537
-0.10755538705181644 0.052093345064438974 0.042256986227684576 -0.06142622497638344 -0.0634304977777564 0.13649793481668263 0.07721437669016451 -0.09852576791913299
0.10303040682022703 -0.010852717312184535 -0.04181873884354632 -0.04863206594665825 0.06783836406496818 0.11305835559858514 -0.12478012504088107 -0.06898885600037893
-0.07869781492221654 0.11835794546502677 0.08890219676581246 -0.09405481693589103 -0.03919344022706456 -0.08352727377428433 0.12816988146647484 0.08861087608718315
0.05269080625281573 -0.13161794253336315 -0.10899909017871845 0.13299592275454122 0.10148866376700916 -0.0018349155105869045 -0.08894555257347889 0.0464641138354121
-0.031958831508888084 -0.12244280428991447 0.004326616410817573 0.04390769049960806 -0.08628482567670777 -0.00013794458531936256 -0.0905506333662671 -0.0767282937948386
-0.04903406335280829 0.032515121825404066 -0.015266424823008534 0.0861155992122459 0.13172096463356223 -0.13855741086081116 -0.02410750046344785 -0.07363354655353603
0.07180933300175014 -0.03224605364949567 0.0034158483753636273 0.14111576146589205 -0.09455746213780133 0.12424287610957527 -0.043539365154236905 0.07685331958086737

restriction_net.4.bias f8 [12]
00000000: 0733 e6e1 fba4 b7bf 2e2f fd2a d0fa a43f
00000010: ffd3 d515 91c1 9bbf a755 7fa4 35d0 a33f
00000020: 018c 226a 4edd c03f fe00 b0ee 0678 b1bf
00000030: 7ec6 df75 b32f 9c3f 114d fa9b d4bb bcbf
00000040: a808 1a93 3a92 b2bf 2c67 6753 c932 b0bf
00000050: 41c0 82c4 8285 a03f 8638 ce80 d8c0 bfbf
-0.09236120476834851 0.040976052520447545 -0.027105586011618495 0.03869788773560439 0.13175373251314684 -0.06823771788913643 0.027525714940515027 -0.11224106605577712
-0.0725437745223042 -0.06327493940571277 0.032268606651428396 -0.12403634209315059

restriction_net.5.weight f8 [12]
00000000: fe57 164e 7ac7 ef3f 80e2 ce58 3169 ef3f
00000010: 3289 27b2 9e5f f03f b0c9 b992 9a5f f03f
00000020: 7b5f cafe 13bf ef3f 35ad 2917 c16d f03f
00000030: fe78 cca5 2baa ef3f 1012 eab5 bc2a ef3f
00000040: 4dc2 04ca afe0 ef3f 8314 8ce7 d129 f03f
00000050: e7df 243d 8419 f03f f18c d9d4 6c08 f03f
0.9931003117696944 0.9815909132513099 1.0233447035939887 1.023340771815679 0.9920749641778309 1.0267954735562175 0.9895227659469865 0.9739669373526016
0.9961775727916319 1.010209946137622 1.0062296284140702 1.0020569147534923

restriction_net.5.bias f8 [12]
00000000: e1c4 fa3e 422e 5cbf 96b2 e605 6fba 8dbf
00000010: 0e45 88b0 cfe9 7f3f 0c24 430d a66a 773f
00000020: 8da8 8259 5680 203f e3d8 cb70 8abf 963f
00000030: 8d00 328e c4b3 90bf 9a0a 610c 5fc3 9fbf
00000040: d374 c514 248b 853f 1eb4 e4eb d51e a4bf
00000050: 139d ae4a dc8f 783f de16 3326 06c3 86bf
-0.0017200133260469252 -0.014515750281895817 0.007791339194697556 0.005716942443720018 0.0001258950621879123 0.02221504510358664 -0.016310759714997892 -0.031018719797666884
0.010519296535387223 -0.03929775719220906 0.005996571077879115 -0.01111416629863576

restriction_net.5.running_mean f8 [12]
00000000: c232 75e7 c04b a83f 06dd d574 2d32 da3f
00000010: c576 b4fa e781 e63f 0261 e7d8 f351 d33f
00000020: 6baf 80df 0cbb d33f 1f5e 0c40 386e 88bf
00000030: 68b4 2357 1f9d c73f 58a2 61a4 0f20 a6bf
00000040: 09a5 1737 7158 bc3f e24d 98de 68f8 c8bf
00000050: a97e 6f21 b6b8 95bf 7844 92c7 e7c6 c3bf
0.047452953580977134 0.40931259546000864 0.7033576866703802 0.30187698537839946 0.3082916433947875 -0.011928977446173992 0.18448249583107956 -0.04321335679634747
0.11072452158954972 -0.19508086079495884 -0.021212430754416065 -0.15450761074729136

restriction_net.5.running_var f8 [12]
00000000: 4130 0186 fb83 cf3f 3980 61f9 db7d bf3f
00000010: 4c23 1038 7eb5 d53f 4f7f bc38 f80a c03f
00000020: 12b6 01d4 cdc9 d33f c0f3 631d 6ef8 d33f
00000030: 4b34 ca6c 88e9 c83f 40f2 ff1f 9adf d03f
00000040: 8a34 e700 3cee c53f f00b 17bf 5480 c03f
00000050: 6991 36c0 f2c5 c83f d55e 8860 99c7 c33f
0.2462152866668266 0.1230142101135251 0.33920245623499024 0.12533476610496527 0.309192139661577 0.31203797216567963 0.19462685882573036 0.26364758610705863
0.1713328365716829 0.12891635256354972 0.19354090104492208 0.15452878201971623

restriction_net.7.weight f8 [6, 12, 3, 3]
00000000: 12e2 db12 3eaa afbf 50ba 1fed dabd 983f
00000010: 4ca0 43c3 d8bd a13f 2574 d44d e36f a5bf
00000020: 7bb8 3857 a01a b0bf e880 1f4d 18ca be3f
00000030: aa13 e767 8bfc b83f 1158 4ae2 92e5 b1bf
00000040: 4d2d 5b5f abb1 a6bf 0623 bd76 b48d a2bf
00000050: ce20 fd85 6035 913f 69a7 af7e 396e b33f
00000060: 3428 0848 a056 b03f fcf8 a33c a246 b33f
00000070: 1d86 be36 87f4 a4bf db1c 2e0e ac59 9c3f
00000080: 8e3b b0c2 3b3a ab3f 36b0 4272 c289 99bf
00000090: 0bc8 b65d e826 81bf cf38 2cbd 9969 96bf
000000a0: 1649 c0e1 6ed9 b33f 5cea e340 28b2 a7bf
000000b0: 2077 2221 c3c0 b33f 8baa 25cf 9398 a1bf
000000c0: c0f2 a2d3 e6ba af3f bb1f efd2 9396 a1bf
000000d0: ba95 8ca1 c7a8 a63f 9f6c dffb 7733 b1bf
000000e0: b1a4 a04e cdce b0bf 095c d3fe a301 a43f
000000f0: c077 026a 8468 ac3f 443c c060 72aa 903f
00000100: 96ff 8a2d 6fd7 983f e25f 7890 8f1b 793f
00000110: 4276 532b da66 80bf 0a6f d9bc 3b91 b2bf
00000120: 7678 4807 f86f b6bf fc3b 5f10 2a01 6d3f
00000130: 6e25 c009 4420 a83f 7199 f029 1bc8 a83f
00000140: f7c2 5375 2987 b43f a285 baee 0e1a b33f
00000150: 1382 498e 2a9d 9abf e93b 63be c735 a8bf
00000160: 709b 627d 72db 713f a6ff 0d95 8221 a33f
00000170: c8ea 93fc 11e0 b2bf bf60 f650 7ef5 b6bf
00000180: 7820 5f1d 83cc b53f 2de4 24c6 601b b5bf
00000190: 44ba fc09 980a b9bf 6bee ac81 b745 73bf
000001a0: 3ccb cd49 d442 a5bf 14fa 022e e532 b23f
000001b0: 974e 3cf8 f60c b3bf 8972 e854 c516 b8bf
000001c0: 2f67 b88f 76a5 a8bf d2be 854c 3e26 95bf
000001d0: 56d7 80c8 14d1 b2bf 49ab 6297 fcaf 9ebf
000001e0: 3c0c 087b 5ece b1bf c848 f025 20a5 b2bf
000001f0: e6d1 7464 9d5c b53f e276 bdc9 d6b8 653f
00000200: c589 4708 1286 90bf 4f04 6e38 a633 9cbf
00000210: 3739 793c 918e b63f 7a1b 732b 6ce0 a73f
00000220: 1294 da74 c8f8 953f 3984 173e 6484 b5bf
00000230: 0722 e4a5 a430 a1bf b6f3 5464 6d1e aebf
00000240: ff59 c432 a215 9e3f 9f8d 5bec 94d5 b43f
00000250: 0423 d713 987e b73f 7589 9b1a cf95 afbf
00000260: 948c 95f1 9f99 a33f 0c37 96ac 17f4 ab3f
00000270: 998b bdf5 2939 9c3f f325 580f a5b0 783f
00000280: d6a2 4399 9d0d b3bf e8e9 53ff b1c3 693f
00000290: f0e0 1256 85ee 9abf f8e6 49f5 3652 b33f
000002a0: 12ff 9863 ab8a b53f c5bc 5ba5 28b4 bbbf
000002b0: 8b02 8eef 1693 a0bf 4260 c24f 2025 bc3f
000002c0: 65f6 17dd 0fef 9fbf 3f7b ea8b d5df a33f
000002d0: c97a 0cd3 43ec 90bf 8760 12a6 400d b23f
000002e0: 0013 e72a 74a3 ac3f 64da e435 8d96 ab3f
000002f0: 1024 9593 2ee5 a33f f96e d466 42ba 7cbf
00000300: 532f 74c5 76bd 97bf 87a9 1c55 8588 b03f
00000310: 95ce c4c3 9e55 b73f 60ee 0007 853f 983f
00000320: 7768 15ba 5e59 92bf 6153 7bdb 280b 873f
00000330: b84e 5adc 23a1 93bf 85e7 fed6 1e3c 93bf
00000340: d8f9 db8e d486 9bbf 8daa e092 54af babf
00000350: e791 b636 294b aabf 5320 70ce 22cc a13f
00000360: ff94 8e65 b0e2 ab3f 518c 2cc9 ba19 90bf
00000370: 3402 8ded e93f af3f fd8e 0ed8 7e8a 963f
00000380: 6cb0 34ff 2dcd 5c3f 97af f2ec bdb8 b4bf
00000390: d7d5 79cf 62bd b3bf 14e3 97d6 f363 b3bf
000003a0: 028a 9653 fc9f b43f ed6b b368 4202 943f
000003b0: 545e f335 fade b13f 85cb eb01 606d b5bf
000003c0: a59d 9371 f15c a13f de24 41ac d280 b63f
000003d0: 96d8 4e9a 63e4 b3bf 65ce b698 32bf b1bf
000003e0: 03df 809a cb5a b2bf 83b2 36d7 3a9c adbf
000003f0: 3758 a044 5816 a5bf 8e99 24c2 b08f a93f
00000400: 51e5 a486 92fb b3bf 718c 1e04 b6b1 b6bf
00000410: 4b6c 1af4 132f b1bf 122b 38bf 553d 933f
00000420: 71e0 61df e898 b2bf d9b6 b986 d8d2 a1bf
00000430: 72f6 9e82 afd1 b3bf 6fbf ea52 7fe7 b63f
00000440: ddda 1a10 9273 a63f 9dbc 0f0c e519 a13f
00000450: 667c caf6 a3dd afbf 6330 68a4 0940 b4bf
00000460: e1b9 f6c9 54b3 98bf 8de4 d7e2 1631 b23f
00000470: 7b9b e3f9 ab25 87bf d77f 4187 2a01 a5bf
00000480: d07d c960 18d5 abbf 9573 df3e 70bd 9b3f
00000490: 3770 db68 b17c 953f ce7c 5d29 d9b9 98bf
000004a0: 94d9 32a5 c40d a73f bb2a 215b 8dad 9b3f
000004b0: afbe d65d 24a6 b73f 261b 52d4 932b bb3f
000004c0: 221b d616 fc45 b33f aaf4 35dd 97e9 b63f
000004d0: a3a4 f27b 0b9c 96bf 7322 0e7f 710b ae3f
000004e0: da19 cbf7 9d06 b9bf fe37 ed87 c300 863f
000004f0: c61b 3068 7483 b33f 68e2 6064 2b68 a2bf
00000500: e2f8 2a69 3a90 abbf bf6c 13be 3228 ad3f
00000510: 0f4b 53e6 d537 a33f 5647 7464 d32c bf3f
00000520: 911a 84fb 7dac b93f 9fb3 802c 15b8 b2bf
00000530: e839 b233 1c7d 9e3f 5a53 4422 5d4c aa3f
00000540: 1d41 3916 58b8 b83f 4cdc 70b1 0cf3 a8bf
00000550: 5b6b 83a3 dc69 bd3f 3d35 79ba f2f6 a4bf
00000560: 3697 ad7a a80b 563f 489f 7f67 8f0b acbf
00000570: 6978 63f9 88d9 a13f c46f 3987 75ab a03f
00000580: 1ca3 9d22 076e 723f ab4d fa82 14f8 b2bf
00000590: 3aca f84f 00bf 9a3f 26fd e3ca bed6 8abf
000005a0: ed8a 3c8b 71bf 81bf 5925 6b7d b6ce a23f
000005b0: 1d6c bedd 40e1 b5bf 6a43 4e8e ceab b33f
000005c0: 7775 5dc1 c33b babf a33f 838f b276 aabf
000005d0: c8dc 0373 e6f5 b1bf 59a7 b556 6a10 72bf
000005e0: 12e4 2c9b 3d87 5f3f 7c32 9a81 328c b9bf
000005f0: 742e 2f19 e645 b33f 8224 d81f af0f b7bf
00000600: 499f 7bdc 53fe ba3f 0289 1ce5 85ee afbf
00000610: 97b8 d8bc 91ea 853f 2e33 883a 40f7 b1bf
00000620: 02ba b014 c7f9 aebf dd98 8489 d558 a0bf
00000630: 3d33 f84a 14f6 a6bf 3940 7810 1b2d b03f
00000640: 861c f790 8dd9 8cbf 8b99 fe16 644b a03f
00000650: 1d33 1cb3 511c b5bf 7556 d7f3 61a5 a43f
00000660: ab25 f543 650b afbf 8f36 9931 18e4 a6bf
00000670: 3105 2213 ac0b a6bf 0cbd f133 80ca ad3f
00000680: 2d6d a800 7114 b03f b9e4 cad0 db99 bb3f
00000690: c5cc b3af 77f3 653f 62fa 07d4 901a 973f
000006a0: e4e2 9547 6568 a2bf 28f3 4ee7 7c1b 9e3f
000006b0: 9744 d6f8 c50c afbf ad9e 9967 1908 b1bf
000006c0: f2d6 d369 f17c 943f bf51 7de1 b7f6 b1bf
000006d0: 8b94 ab87 225a b53f ea2f 7a9a acd6 83bf
000006e0: 3ec9 821d c080 99bf f83d 4db1 5bf3 b8bf
000006f0: 5e5b 639c f04e 8b3f fa62 a931 d726 b3bf
00000700: f71d 9dc8 d73e 8cbf 798f cf22 49fc 8f3f
00000710: 5bba 0ae9 a49c b1bf 8aa2 1b46 6da5 6cbf
00000720: 215a 4ab0 20a4 aa3f 32b9 f39d 2f94 b43f
00000730: 6483 7996 e628 193f d763 819d f4ea b4bf
00000740: 00da b7bc 51f1 ba3e 06d3 f0f5 4c3d 9f3f
00000750: 5b45 c268 ea2f 8abf 25cd 0929 322b a43f
00000760: 0d83 2c5d b571 823f 2f5f 4761 abb0 af3f
00000770: 1683 dda3 37c3 a3bf 761c b762 0929 a73f
00000780: f4c2 29d5 5b66 b1bf fe37 316d d333 983f
00000790: a233 a18a 123d b53f c676 19f6 a96f a0bf
000007a0: 3c55 b21f 32ca af3f b186 1e2d 0b12 bebf
000007b0: adfe 4ad8 baf6 a5bf 0c12 0705 4f15 abbf
000007c0: 33cf 5356 a2b9 aebf a384 7a54 d81a 813f
000007d0: 709a 6c66 c2db a5bf 86fc 7add f1b6 6e3f
000007e0: 88e2 3106 4665 a23f 0cba 8b3c 5af0 babf
000007f0: a787 e462 71a6 b1bf 0407 b446 bd6e b8bf
-0.06184572200976758 0.024161740038773083 0.034651540599782565 -0.04186926198074329 -0.06290628556664217 0.12027122385871147 0.09760352408109321 -0.06990926766079066
-0.0443242601300776 -0.036237372869953474 0.016805179765726312 0.07590064375804463 0.0638218093737642 0.07529653530579944 -0.04092810195221495 0.027685821881758037
0.05317866088454713 -0.024939573501498745 -0.008374991760181435 -0.021887209101856094 0.07753651629926525 -0.04628110687368256 0.07716006812048848 -0.03436719802524121
0.06197282155469486 -0.034351939677037056 0.04425643775020256 -0.06719159983861055 -0.06565554780594841 0.03907501683868737 0.0554849032789515 0.01627520289917707
0.024259316591951206 0.006129799650373942 -0.008008675048070239 -0.0725285850580201 -0.08764600923356788 0.0035405942498765147 0.04712116831803824 0.048401688451394594
0.08018740763123931 0.07461636856398582 -0.025990166601674924 -0.04728531073634896 0.004359671807981566 0.03736503667369044 -0.07373154083681321 -0.0896834323560851
0.08515185801582159 -0.08244900548460583 -0.09781790012196107 -0.004705159017983722 -0.04152549172331141 0.07108909962969562 -0.07441657600821326 -0.0940974552435795
-0.04813738350294582 -0.02065369932228018 -0.07350282569026709 -0.029968210925896775 -0.06955519202897248 -0.07283211637721643 0.0834444399122912 0.0026516146735236926
-0.01613643813642242 -0.027540776437948996 0.08811290480045818 0.04663408308402146 0.02145684445590141 -0.08405138507761557 -0.033574242830642524 -0.05882589196924164
0.029379400585719747 0.08138399858903832 0.09177542194732885 -0.06168982696341888 0.038281439056640526 0.05459665281078516 0.02756181299572411 0.006027836575876122
-0.07442650787164537 0.0031450726042951856 -0.02630050981380888 0.07547324646466425 0.0841471784742647 -0.10821775471753188 -0.03237220453502684 0.10994150111435011
-0.03118538653324378 0.03881709416349687 -0.01652627921714148 0.07051471762167881 0.05593455337251463 0.05388299258122656 0.03885789443535981 -0.00701356828838206
-0.023183685113550578 0.06458314254692797 0.09115021018515741 0.023679808189838503 -0.017919044597285407 0.011251753995944193 -0.019169388126626358 -0.018784028885171295
-0.026881524295271436 -0.10423782907370534 -0.05135468285451222 0.0347605587958816 0.05446387519558903 -0.015723150757491592 0.061034498451139646 0.022012693345131663
0.0017579030216650316 -0.08094393763411599 -0.0771085506947523 -0.0757439040097661 0.08056618729327883 0.019539868965562524 0.0698086148944353 -0.08370018050099588
0.033912224878629695 0.08790318208152167 -0.07770369069371194 -0.0693236944996954 -0.07169792673164115 -0.05783256413574114 -0.04118610227321578 0.04992439622792509
-0.07805743968210278 -0.08864915466851798 -0.06712460240889688 0.018788661762339016 -0.07264571622533979 -0.03481175083730443 -0.07741829813945758 0.08946986936893862
0.04385048338501971 0.03340068599924815 -0.062237857700204555 -0.07910213722078789 -0.02412159426392602 0.07106154478232636 -0.01130232197142588 -0.04102452183792565
-0.054360162558392155 0.0270898378729388 0.020983478569960048 -0.024146454953890388 0.045026917615746204 0.027029236495119884 0.09237887660014608 0.10613368924724095
0.07528663213279832 0.08950184965756827 -0.02207963890092358 0.05868105579344709 -0.09775721835749299 0.010743644319202158 0.0762245897641228 -0.03595100021670278
-0.05383474859034877 0.0569473130251139 0.03753536640728871 0.1217777366876168 0.10028827085998616 -0.07312137924664207 0.029774132399831205 0.05136385958954888
0.09656286757058692 -0.048729321155797395 0.11489657394433321 -0.04094656492507418 0.0013455529503629388 -0.05477569712075919 0.03486278576177499 0.03255812907875069
0.004499462005562529 -0.07409790227602879 0.026119236832707872 -0.013104906622628375 -0.008665930806789979 0.0367333438967516 -0.08546834386508846 0.07684031461964272
-0.10247443648173325 -0.051686840075148476 -0.07015838916764772 -0.004410186181624664 0.0019243337271304156 -0.09979549087638334 0.07528532137728822 -0.0900830700631037
0.1054432309425667 -0.06236666127940006 0.010701311660423136 -0.07017899922375356 -0.06049940230910879 -0.03192775062261586 -0.04484618582873743 0.06318825866787926
-0.01408682440422938 0.031825187498998174 -0.08246336577230946 0.04032426930977532 -0.06063381628571148 -0.044708972982886334 -0.04305780156665618 0.058185583439689464
0.0628119112592926 0.1078164467570727 0.0026795709251189203 0.022562277737956278 -0.0359527253994594 0.029401733034080696 -0.06064432776032296 -0.0665298345498921
0.02000786980075637 -0.07017087226024098 0.08340659916173558 -0.009686802353165509 -0.024905206490708702 -0.09746335104613724 0.01333415963419576 -0.07481141054575949
-0.013791738328690946 0.015617915510979451 -0.06879645051479015 -0.0034968504195272464 0.05203344490034945 0.08038613897563066 9.597690006436576e-05 -0.08171013684604077
1.605907288813207e-06 0.03050728083708789 -0.012786704370486282 0.039392058858448466 0.009005944162312507 0.061894755959370655 -0.03859876513775455 0.0452349598886536
-0.06796812013795855 0.023635200061384858 0.08296314129365936 -0.03210192803520111 0.062089506501403297 -0.11746282435935985 -0.042898024466464825 -0.052896947253916776
-0.060010026014337824 0.008351984098512516 -0.04269225597663684 0.0037493442467560504 0.03592890573140034 -0.10522998788994914 -0.06894596733448442 -0.09543974853661658

restriction_net.7.bias f8 [6]
00000000: 4aef 9111 387d aabf fcc1 c93d 0be6 86bf
00000010: 06ea ff4d a5dc 903f 4286 b857 c826 ad3f
00000020: fae7 124e 56fa b03f 572a 86aa 708e 673f
-0.05173659529188386 -0.0111809614402043 0.016466696630212517 0.05693651266871004 0.06631984144306094 0.0028755379209475618

restriction_net.8.weight f8 [6]
00000000: 623d ab3f 0e3d ef3f ee32 42ec ecc6 ef3f
00000010: 6f19 23a8 da0d f03f 7ee2 76c6 cc48 ef3f
00000020: 0b50 7eb9 de2d f03f f4ab 9fb9 4bb7 ef3f
0.9762030833752926 0.9930328955102519 1.0033823554855095 0.9776367069490133 1.0111987348400386 0.9911249757254823

restriction_net.8.bias f8 [6]
00000000: 46b6 dc63 a234 99bf 34aa 85bb 6135 65bf
00000010: 7c6b 66a3 34f6 72bf a2f6 4cfd bf6a 78bf
00000020: 068f d8df a614 a33f 8671 b7da 871c 72bf
-0.024614846558668434 -0.0025889309728672986 -0.004629331224715535 -0.005961179693995485 0.03726693613523761 -0.00442174022779474

restriction_net.8.running_mean f8 [6]
00000000: 055f bc74 aa5a 9fbf 2cc8 692c c630 b9bf
00000010: 4d5a b1cb 2277 d3bf f43c 3254 310d a43f
00000020: d671 32d6 5c01 e3bf f8f1 3390 9bcc ca3f
-0.030619300246228515 -0.09840048393542195 -0.3041464795291276 0.03916315224443592 -0.5939163383041499 0.2093691305270935

restriction_net.8.running_var f8 [6]
00000000: 0ef4 5b0b 0b8d c73f 8194 a47f 6815 c43f
00000010: 716a 34e0 bf15 c93f 1653 d179 c07c c53f
00000020: 18b9 53f5 8a8f e03f c1ee f7d0 2dd2 c33f
0.18399179510734637 0.15690332634509122 0.19597624251840132 0.16786962459686866 0.5175223151725588 0.15485165313281438

restriction_net.10.weight f8 [3, 6, 3, 3]
00000000: 1472 d5eb 755a b3bf 03ae eef6 b290 973f
00000010: 42a7 dd40 0f31 5ebf 07a6 7a0b 9600 b73f
00000020: 09d3 849c 5245 aa3f 47ec 19ae daea 72bf
00000030: 1289 320e 6e7d 84bf 4ac7 b441 e507 963f
00000040: 52a1 040a 6734 b4bf dffa 6778 216a a03f
00000050: a23e 64f1 4aef 7a3f f2d3 d99d d38a afbf
00000060: dcd8 ada2 40fb ac3f e3fc 193b 8e49 963f
00000070: 3ca6 5122 a570 57bf 591b 0ec0 c1bd a3bf
00000080: 92d7 2875 b26d 93bf 2348 2026 6eb2 86bf
00000090: d816 fd97 bd45 8dbf 0eb5 e8c3 6433 a5bf
000000a0: 1252 8cad 5c7f b6bf 843c cf7b 66a2 b6bf
000000b0: 4a20 d877 826a 9ebf 303f 19be 329d b93f
000000c0: 809a c46b 011c b93f 082a 31eb 2504 b5bf
000000d0: a380 8c85 cfd0 b13f 845e 2144 a27e 813f
000000e0: f58e d914 0abe a13f e9fa 55da d88c 913f
000000f0: ebfe 9c83 1ca3 703f 64d6 3759 d70a b83f
00000100: ebdd 2b32 de76 993f 9eb2 f208 fc6f a93f
00000110: dd20 4661 d246 a2bf 4a19 ac77 4596 ac3f
00000120: f21f 83f8 f9ff b0bf 3b45 2a54 71e9 8b3f
00000130: 5574 28e2 1f4c b63f ca1d b11c 52c7 acbf
00000140: 4950 7f2b eca0 a13f 1492 f34f a3a5 b3bf
00000150: 73b9 dcce bf0d b43f 1ee2 7639 0413 b53f
00000160: 28f0 2544 0525 b13f e5ae 48c4 f496 843f
00000170: f53c 7814 926f 933f 462e 5cc2 9f42 a93f
00000180: 00d5 4105 6c4c a23f 313e 3f8e 17d5 8cbf
00000190: 1843 9258 73a1 95bf d336 bd4d 484b 9a3f
000001a0: 220c 8d09 80aa 9b3f c034 9cb6 e092 a73f
000001b0: 543b 0834 b81b b63f 29f4 2e41 a230 bebf
000001c0: 4a8b 0198 5569 b33f 2bb5 6295 d7fb b1bf
000001d0: 36ec f432 6372 b43f e248 05b2 b6d1 b8bf
000001e0: 5142 a8c9 4da9 a1bf d5a5 a14b f2cf 9c3f
000001f0: c7bf 57ba 5900 b3bf 59b5 55dc 8eb8 bbbf
00000200: 31dc 657e c1f2 a7bf 9e6c 54d2 c634 a73f
00000210: 48e6 0ad2 b224 be3f 5918 c9c5 522a c0bf
00000220: e3c9 8c82 fab9 ba3f 9dca c545 6f46 a9bf
00000230: 08d3 ef3d 3e4f 9f3f 4685 b452 57ff abbf
00000240: cad8 bfed 1db2 b23f db26 a194 6c80 973f
00000250: 9a48 1430 84ab bebf 649e 76d9 95e9 b0bf
00000260: c742 b76b 7965 a63f 7d3e ef22 d902 babf
00000270: 4180 4019 4b07 b0bf 8663 038e 6bb5 a23f
00000280: d468 7da2 9be5 a2bf 5e05 b845 0ef3 a93f
00000290: 51eb 5a0e e656 bc3f ac61 6519 8a59 91bf
000002a0: 893e 596c f80e ad3f 4a4e 9b0a 7ba4 803f
000002b0: 93fd 499f 3e81 b6bf 9397 6c4e c1b2 bfbf
000002c0: 834a bae3 475b bb3f 6241 6617 1452 bb3f
000002d0: 9588 014d 23a2 b7bf ffd6 6d49 679d a23f
000002e0: 3ec5 d7ea be88 b5bf 0f2b 07d7 d148 c03f
000002f0: bdf1 bb22 9ea9 95bf 3757 ced3 0bea b53f
00000300: 789d f1cc b0fe aebf 4ad5 8421 65ae b53f
00000310: 26e8 53c5 4453 b8bf 508a 206d 80cc b4bf
00000320: 5f7b 4012 347f 943f ed23 b912 cc14 b13f
00000330: 2ee9 4c74 caf9 b73f 249b 94c2 a579 b83f
00000340: 1c40 7de1 8bcf bbbf f89c 9acd 3519 a7bf
00000350: 4163 9764 43b2 aa3f 9115 b034 55fb adbf
00000360: 883c 85ad 2e47 933f 232b 74d8 cb5e be3f
00000370: b546 cb02 f24e c1bf f810 6650 8d3b 76bf
00000380: 46b1 fef8 80d0 a7bf cf43 af35 3cc1 bd3f
00000390: 6561 30f0 063f b6bf d48e 148d 8c33 6c3f
000003a0: 0011 f8f1 7eee b13f 9f0c d783 544b abbf
000003b0: 587b e448 022b c03f 3294 d838 9f6e c23f
000003c0: 2156 f6a3 04cb 7fbf 56a2 e201 1b68 b73f
000003d0: 7ea4 dd7c e554 b4bf 9faa 0ea2 f5ce a13f
000003e0: 4aa5 2f50 318e bc3f 5669 bbdb b3ac abbf
000003f0: efaf 0848 3ad6 bebf 27cd 8522 8b2e 8c3f
00000400: c9ac bd26 e3ca b3bf b20e 1694 3d43 893f
00000410: 3388 a568 d6b5 ac3f 236e 160e 49e1 b2bf
00000420: 3cf4 0981 f9ea a6bf 8e95 b72b 3263 bc3f
00000430: 560f d1fd d547 ba3f e6e4 fbfd fd85 bbbf
00000440: 1a74 a7af 488e bc3f 2224 ad84 f498 a9bf
00000450: a263 607d 387d b13f 65e8 c9ff b8f4 b0bf
00000460: 1e11 4078 16fd b7bf eba6 f97b 74ab a23f
00000470: 4e2d fb73 5c3b 493f 15e6 8af6 7cbe b33f
00000480: 35b0 8328 d896 b73f 8da2 865a c4c3 bdbf
00000490: 9024 30af 5f56 a0bf bcd0 18ee 8ad9 b93f
000004a0: 12cd badc 88ad c33f fdb4 73e1 23ea c23f
000004b0: fbc8 bd03 709e b0bf 44f4 ae55 ef79 b93f
000004c0: fea1 ad07 b1fc 6c3f 0755 8900 b56e 9fbf
000004d0: 0ed0 9f2a 32d1 b0bf 8824 3810 6410 b53f
000004e0: 5a63 2bae 8810 b53f 2530 8d64 3537 b6bf
000004f0: 6240 8123 732c 8dbf 3ea1 f927 3ea6 733f
00000500: 5cbf 3af6 751f 8cbf df3e 67f7 0a82 b7bf
-0.07559906966839264 0.023012920686296578 -0.001842751403695123 0.08985269336940159 0.05131014023428377 -0.0046185056868309265 -0.010004863556166064 0.02151449407137499
-0.0789245986421794 0.03205971331407453 0.006575863595812999 -0.061606038111598496 0.05660440431431521 0.021764967305441096 -0.001430665267685773 -0.03855710477278391
-0.01897314872822837 -0.011082516230121858 -0.014293175888848195 -0.04140772716014328 -0.08788089024557902 -0.08841553232854166 -0.02970317703696449 0.10005490437583542
0.0980835807900835 -0.08209454528802251 0.06959244738073038 0.008542316154645187 0.03465301041140193 0.017138851476825066 0.004061805136927647 0.09391542366196287
0.024867507755486 0.04968249901989917 -0.035696577429065825 0.055833979471617015 -0.0664058906287435 0.013628850346580115 0.08709906836925659 -0.05620819664232675
0.03443086653683786 -0.07674618436755792 0.07833479690882487 0.082321418790237 0.06697113908552466 0.010053550949201415 0.018980295657510877 0.04933642623481353
0.03573930324720642 -0.014078315762076606 -0.021123697548833226 0.02567780470354004 0.027017593939728475 0.046042463580400206 0.08636046667400638 -0.11792959300414964
0.07582602463803059 -0.07024905583485423 0.07987041467724584 -0.0969499764080726 -0.034494810930600146 0.028137002817322305 -0.0742240981996921 -0.10828488234775104
-0.046773955039434496 0.04532452886106707 0.11774747493736826 -0.12629160554405663 0.10440030753378653 -0.04936549879757488 0.03057572606117545 -0.054682473035664134
0.07303034834316971 0.022950836726784423 -0.11980463193711657 -0.0660642295757668 0.04374293746844198 -0.10160595991987438 -0.06261128775122506 0.036540375791168464
-0.03690801962393811 0.05068249321994743 0.11070096826999289 -0.01694312839512839 0.056754840112828005 0.008126221905889203 -0.0879096163644049 -0.12382133640912078
0.1068615847564534 0.10672116824412606 -0.09231777792004643 0.03635714312888005 -0.08411782487362005 0.12722228049673176 -0.021154852743153308 0.0856025116066491
-0.06053688527827722 0.08469230717021961 -0.09502057855198184 -0.08124544777141662 0.020016492475515842 0.06672358948811992 0.09365525569311181 0.0956061935472517
-0.1086356568823707 -0.0451142133218187 0.05214129069253782 -0.05855814235841728 0.01882622655949409 0.11863397631183807 -0.13522172104290112 -0.005427886970555067
-0.046512632746586166 0.11622978506717561 -0.08689921726216239 0.0034425492418835666 0.0700454083199169 -0.053309098333124576 0.12631252822117278 0.14400091434177537
-0.00776197254835645 0.09143227382686211 -0.0794204168174861 0.03478210070837417 0.11154468734425396 -0.054051991055262746 -0.12045635470047932 0.013760649672554038
-0.07731456466506183 0.012335282403689394 0.05607481028961594 -0.07375008195816028 -0.044761464120690125 0.1108886105281128 0.10265862890906638 -0.1075133080556899
0.11154608047895956 -0.049995080180970555 0.06831696568441584 -0.06623417134133687 -0.09370556293294327 0.036464347966853904 0.0007700158530154295 0.07712536830049317
0.09214545239564205 -0.11626841745477119 -0.03190897954488847 0.10097568810380414 0.15373335626427626 0.1477703905906437 -0.0649175652631903 0.09951682893638841
0.003538461457925245 -0.03069575134062055 -0.06569207707053712 0.08228135486582933 0.08228353740868269 -0.08677991585608476 -0.014244937439940656 0.00479721336123645
-0.013731881691768137 -0.09182804622764305

restriction_net.10.bias f8 [3]
00000000: 79a7 8382 8953 bebf 2533 6b06 e7a6 b03f
00000010: 890c 7209 83d2 b33f
-0.11846217571624419 0.06504672915179961 0.0774309061107933
