results/run_2/good_one/saved_model_end_to_end_only_unet3lvl128_10_2.pt (torch, 321912 bytes, 15 tensors)

module.jnet.down_path.0.block.0.weight f8 [8, 4, 3, 3]
000000 a6 c3 a0 9f e5 ba 74 bf 97 9a 62 b8 88 8c b6 3f
       -0.005061051337222821 0.08808187963095758
000010 d5 b4 4d 3b 3e 7f b7 bf 65 4b b3 7d 5f 3d af 3f
       -0.09178532550659509 0.06101511392048201
000020 19 d0 e4 da ea 41 cb 3f f5 76 cc 16 7f 16 c8 bf
       0.21294913948224872 -0.18818653691499035
000030 ba 68 71 9c da e4 95 3f f3 5d e3 8b bd 24 c7 bf
       0.021380821035884102 -0.18080872850872218
000040 7c 40 90 82 e1 52 a5 3f 6b 01 65 41 e9 18 87 3f
       0.041647956073689735 0.011277983005698563
000050 17 79 ad 40 93 6e c4 3f 75 f1 41 b9 8d 71 ab bf
       0.15962448747718191 -0.053600720276309945
000060 6a c8 e6 0b 00 e1 b5 3f 71 35 e8 dd 6b d6 b8 3f
       0.08546448031009538 0.09702181022313085
000070 5f 96 69 e6 65 ff c8 bf 14 c0 02 ab 9f 20 c3 3f
       -0.19529412985427805 0.14943309641012148
000080 d8 06 d5 a3 8f 0a c3 3f ff 22 48 38 cf 96 ad bf
       0.14875979899993896 -0.05779120981248375
000090 e1 4e c7 52 f3 22 c2 3f 07 b4 d8 7a 00 66 a7 3f
       0.14169160406037576 0.045700087543401983
0000a0 2a e0 ba a7 6c 6c b7 3f 0f 3f fd 0e 36 35 c7 3f
       0.09149817557306564 0.18131137592217114
0000b0 27 4f 5a d4 e1 79 af 3f 45 cd 03 2b 8b d3 c2 bf
       0.06147676198193457 -0.1470807991059734
0000c0 3c 3b 3f 5b 40 44 c6 3f 6f 8a 32 4d c9 c8 a9 bf
       0.1739578671972256 -0.05036000316001298
0000d0 76 03 1d 16 32 27 61 3f 1b ef 6d ae 38 57 b7 bf
       0.0020938852548230647 -0.09117464312106131
0000e0 54 fc d0 6d a5 d2 90 bf f9 1b fb a5 53 52 bf 3f
       -0.01642855150953111 0.12234995653408011
0000f0 59 df 77 2d db 6d be 3f cd 07 b9 5b 7d 62 90 3f
       0.11886377201142063 0.016000708316148683
000100 6e 76 1c b6 0d 1c 8d bf 56 5f 50 06 5e 14 b4 3f
       -0.014213664169399478 0.07843578008794103
000110 25 27 4b ef 7f 55 c1 bf e3 c4 18 fd 0a 2b b0 bf
       -0.13542174515014796 -0.06315678290481545
000120 32 1d f0 fc b4 ef a9 bf 43 63 04 82 d4 80 a2 bf
       -0.05065694415685086 -0.03613914572833334
000130 5a 47 fc 5f d5 96 c2 3f 84 91 e0 f8 cf 37 a2 bf
       0.14522807299413892 -0.03558206475307471
000140 04 50 dd 6d 91 8b c1 3f 3d d3 bd d5 cc 0f ab 3f
       0.13707177986600538 0.05285492047452187
000150 b5 25 36 0b 6f 01 c5 3f 9d e0 9e e5 60 c2 be 3f
       0.16410625503003265 0.12015348058673898
000160 55 5e dc eb df 99 80 bf 77 08 67 69 9b 33 bd bf
       -0.00810599268474658 -0.1140687115030533
000170 20 84 f1 9d 12 6e c0 3f bf 1b cb 67 9f 4c 9d 3f
       0.12835915290909927 0.028612604818387895
000180 2f 71 7b 00 46 78 d0 bf f8 c8 4e 5d 81 40 97 3f
       -0.25734090849961694 0.022707005806020114
000190 b6 a0 63 c9 80 3e cd 3f 35 2b 31 f2 1f 6a cb bf
       0.22846994241195312 -0.2141761715486951
0001a0 ff db 6f 23 b1 3b d0 3f 84 61 17 94 e9 ad c7 3f
       0.25364330731048307 0.1849948857404905
0001b0 26 e4 80 ee 19 ce a9 bf 9b b8 9d 0b bc 81 cb bf
       -0.05040055309695672 -0.21489668433372774
0001c0 83 96 b9 85 97 e6 bd bf 51 29 67 fd 82 f8 c8 3f
       -0.11679980292100293 0.19508397458259677
0001d0 7e 96 99 7a 00 bc 8a 3f a6 cf 79 10 f2 7e b1 bf
       0.013053897611096984 -0.06834328558198752
0001e0 51 ec 8f 21 0c 29 86 3f d1 7f f9 5e 0a c3 a5 3f
       0.010820479177701044 0.04250366601331702
0001f0 ed 0b 1a 51 b9 0f bc bf 5e af 0c 0a 17 e4 c1 3f
       -0.10961492757819231 0.13977325430584647
000200 41 41 09 f8 79 48 a6 bf 16 19 49 88 63 0a b0 3f
       -0.043521701362467365 0.06265852048190754
000210 5a 59 2b cd 38 48 c1 bf b6 b3 36 61 a9 9f b8 3f
       -0.13501653688463017 0.09618624328022815
000220 00 23 df 79 f8 0f c2 3f bb 8e 8e 70 47 0e 9f bf
       0.14111238432658268 -0.030327907795835368
000230 21 81 22 2f dd a7 b8 bf 90 77 f0 4f 66 0c b4 bf
       -0.09631140137435469 -0.07831420375484144
000240 9b e8 9c e0 df 14 ce 3f f7 f6 e5 1d c4 3c bc 3f
       0.2350120398276133 0.11030221681536632
000250 33 e6 5f 02 d2 ab c0 3f f5 29 1e 3a 24 71 c5 bf
       0.1302435409159429 -0.1675153049257713
000260 ee 67 39 27 34 af c7 bf c3 3b a6 53 69 42 b8 bf
       -0.1850342933201427 -0.09476335804195828
000270 52 77 b5 52 2f 5e c5 bf 80 d2 b8 70 fc b1 c3 bf
       -0.16693679369466935 -0.15386920455934572
000280 ca a5 9c 0e e8 24 b0 bf 8f a3 bf 41 33 07 cc 3f
       -0.06306314808593708 0.2189697333372149
000290 ae b4 d8 66 06 fa bb 3f 89 60 02 63 22 b8 94 3f
       0.10928382883931206 0.02023366669945451
0002a0 2e 80 14 3e 0b 73 98 3f 91 fe 40 a6 e5 28 b7 bf
       0.023876357711856304 -0.09046778973515247
0002b0 f9 e3 24 f6 60 94 61 bf 95 3f 7e 14 f1 a9 be 3f
       -0.0021459478167824533 0.11978060484238846
0002c0 33 1a fb dc 06 6b bc 3f fa b5 88 c8 29 fe ce 3f
       0.111008099508674 0.24213144580555462
0002d0 e8 6a c5 df 0c a7 c0 bf 71 9d 2f be b7 35 c2 3f
       -0.1300979702599172 0.14226433550286857
0002e0 c4 43 69 b0 c8 a5 ba bf c7 1f 84 47 ff 93 bf 3f
       -0.10409216219819856 0.12335200782774712
0002f0 dc 2c 42 35 47 e9 be 3f f8 74 ad 67 f4 2e c2 bf
       0.12074704218155169 -0.14205794393902926
000300 ff ff 51 46 60 6a ba bf ca 8a 04 20 57 d6 85 bf
       -0.10318567005924704 -0.010662727989772764
000310 13 50 30 c8 f9 31 c5 3f 11 c2 54 53 e4 dd be 3f
       0.16558763766136106 0.12057330164385173
000320 99 01 12 92 77 f3 b0 bf 0c 08 09 5f 36 d8 af bf
       -0.06621501270456633 -0.06219644460772153
000330 a1 b1 b3 53 4e 2f 81 3f ba 2d 32 45 e0 62 a0 3f
       0.008391010217075503 0.032004364439753144
000340 92 ec 4a 79 57 c8 80 3f c2 9e 3b 63 9b 10 9b 3f
       0.008194621457155802 0.02643053811234953
000350 66 36 47 f4 9a 7e bd bf 20 8b 1a 16 20 4e ac bf
       -0.11521309341261485 -0.05528354902096155
000360 ac 8b af 47 08 76 6e bf 62 7b 4e af 0f 68 5a bf
       -0.003718391582411459 -0.0016117242023267688
000370 83 a3 81 a0 a7 bf c3 bf 50 a4 64 56 31 91 c9 bf
       -0.1542863401148474 -0.19974343031325015
000380 bd 78 91 43 65 b9 bc 3f dd e1 90 d7 8f 4e b7 bf
       0.11220391177764362 -0.09104250920143593
000390 e0 ab b4 88 7d 30 ca bf f1 37 c5 0b 29 b7 a0 bf
       -0.20460480856976826 -0.032647402464689786
0003a0 6c fd cd 1e 6f 5c b1 3f fe fc 2d ab dd df b7 bf
       0.06781668188158613 -0.093259672443299
0003b0 08 58 8a ca ef 6f c4 3f 8b 86 90 2a 84 e8 c0 bf
       0.1596660365073037 -0.13209583357188523
0003c0 ef c6 36 13 c3 62 b2 bf 9f c1 15 b2 e5 27 c3 3f
       -0.0718194887074579 0.1496550674014658
0003d0 9a 9b c2 f0 fb cd 8b 3f 5c 4a 50 fb bf f6 b2 3f
       0.013576477322500047 0.07407760511004241
0003e0 aa fe 3a 9b 40 91 b4 bf 5c 1c 82 da 5f 67 c2 3f
       -0.08034137525373333 0.14377973718021309
0003f0 e4 24 fa c0 3e f3 c6 bf bf de ab 4a dd e7 cb bf
       -0.17929825232230379 -0.21801344057143088
000400 a9 aa 5d 83 80 40 9b 3f 3b 3a 33 83 e3 e8 c3 3f
       0.02661324312013372 0.15554469972853888
000410 a9 f0 99 6f 24 2c cb 3f eb d7 4b dc 4e 5b 82 3f
       0.2122846169403421 0.008963218782337598
000420 ce f2 f2 ed 20 81 cc 3f 7b 91 70 31 e5 48 be 3f
       0.22269069307903638 0.11829979378723536
000430 e1 02 55 35 68 64 bb 3f 2a c8 a2 c4 d4 f0 bb 3f
       0.10700084020664803 0.1091435413425478
000440 e1 88 5b d6 46 9a b2 3f c6 54 a5 f8 d3 91 a7 bf
       0.07266657574976733 -0.04603445444323877
000450 fd 40 d3 d3 1c 9e b1 3f da f0 5e 25 60 3c b1 3f
       0.06881885692132879 0.06732750809073043
000460 e6 be a4 e4 a5 98 ba bf 78 3d 99 3d 98 21 9b bf
       -0.10389172393911003 -0.026495341071777173
000470 05 3d a0 54 04 c9 b3 3f 8d 40 04 90 82 34 c1 bf
       0.0772860247236516 -0.1344149783331016
000480 5d 46 9c 0c c4 13 ac bf 91 4f 80 85 db 08 d2 bf
       -0.05483830121933118 -0.28179061925151766
000490 90 13 24 05 c3 2d c2 bf d4 e3 53 b3 eb 93 ca bf
       -0.14202153922101646 -0.2076391816733848
0004a0 c0 4d c6 4b a9 26 92 3f 0e c1 28 73 7e 82 a9 3f
       0.017725606202999122 0.04982371478797819
0004b0 60 7f ab 2a f1 91 c2 3f 11 58 65 c7 8a 6a c5 3f
       0.14507879813663305 0.16731390701414786
0004c0 8c 1c fb ff f7 3c b2 bf 7a be 33 48 99 fa c3 bf
       -0.07124280929120824 -0.15608516717428583
0004d0 72 e1 86 3b c4 00 bc 3f f3 ce 1c 1e 7a e2 c1 3f
       0.10938669637005718 0.13972403021181598
0004e0 e4 46 36 5b 31 88 d0 bf 62 30 70 f2 12 35 5d bf
       -0.25831254870818854 -0.0017826733617338987
0004f0 09 0d 51 9b 64 d9 9e bf f5 ca 10 4e 67 51 b6 bf
       -0.030126163463376297 -0.08717961936853753
000500 e3 54 6c 71 a2 37 cf 3f a0 08 18 0c 19 69 cb 3f
       0.2438853315185617 0.21414483156701625
000510 d5 6d 20 e6 4c 1f 6c bf e9 20 ea c4 bc 8a b7 3f
       -0.003432893937327578 0.09196071441158761
000520 ce 51 66 93 5b 1f cf 3f 6f fa 63 8c 64 e5 c1 bf
       0.24314446160555153 -0.1398130116940197
000530 c1 8d 28 d4 31 b5 ad 3f 4d 36 27 74 01 31 94 3f
       0.058023030422443174 0.019718191828181287
000540 1d ec 32 2d 25 3b a5 bf c2 7d 07 f8 14 9b b1 3f
       -0.041466867225118366 0.06877261214639588
000550 8c 38 23 71 97 d2 ae bf c6 49 ff 77 dc 52 9b 3f
       -0.06020043617319101 0.026683277916001356
000560 97 cb 9f 32 23 da c5 bf 4e 6b d6 b8 6a b6 b1 3f
       -0.17071952793011455 0.06918971073757271
000570 51 3e 6d fb 59 67 95 bf 50 9d 2b 80 d0 37 b7 3f
       -0.020902067156667595 0.09069541100654033
000580 0f a8 62 ad 2f 18 7e bf dd d7 83 9a 93 08 b6 3f
       -0.007347284545327084 0.08606836817111181
000590 79 da 87 4b e2 43 97 bf 82 3c 0c a1 b9 7b b8 bf
       -0.022719894275690742 -0.09563789541083348
0005a0 84 79 1d da 0c 1c 9b bf 5a 1b f7 05 aa fe ba 3f
       -0.02647419053334367 0.1054483666003824
0005b0 71 62 a4 0f 3a e6 c0 3f 03 73 f3 8f de ce c0 bf
       0.13202596439147699 -0.131313152588426
0005c0 e6 89 86 42 bb 15 ad bf 21 32 7d bf d4 59 c4 3f
       -0.05680642306403509 0.1589914259915455
0005d0 43 b4 c3 f3 66 c5 a1 3f 41 71 65 a6 1e 70 c9 bf
       0.03470918393745894 -0.19873412251298286
0005e0 a8 2d d1 58 81 87 bf 3f 02 59 2f 3c 78 11 70 3f
       0.12316139620195676 0.00392291037402104
0005f0 8e c7 0f f1 be 02 c0 bf 35 9d be d8 22 12 cb bf
       -0.12508379717433765 -0.2114909704516578
000600 ea 52 64 32 ea 54 b5 bf 76 9c 4f 37 8e 20 c2 bf
       -0.08332694750090366 -0.1416185159752989
000610 10 0c 3d 2f dd d1 c4 bf fc da 7b 82 fe 43 c5 bf
       -0.1626545410782403 -0.16613751765517992
000620 07 ec 58 4d 23 84 c4 3f 53 27 53 ff fa 31 82 3f
       0.16028252865530154 0.008884392659087281
000630 75 47 a2 5a 3e 44 c2 bf ff fa 7e 07 b4 46 99 bf
       -0.14270762849315202 -0.02468377395393428
000640 44 53 ba cb 57 d3 c4 3f eb 4a 49 8a 7e 05 88 bf
       0.1626996750607309 -0.011729229540980287
000650 ea de a6 27 c8 88 d1 3f 60 a0 c9 34 13 f5 93 bf
       0.273973501894473 -0.019489574524783726
000660 36 e1 d6 72 f9 5c c8 3f bb 35 4d d1 f4 7d ca 3f
       0.19033735377684885 0.2069688817959284
000670 75 f7 ce 4b c0 05 6a 3f 41 98 cb ab 46 1a 97 3f
       0.0031765704902388344 0.02256117270999192
000680 ce 27 02 5e b3 91 be bf 0b 4c bb 50 fa 60 b6 bf
       -0.1194107155335182 -0.08741726370799101
000690 05 3f 3b e0 b9 dd b4 bf a3 d8 38 c4 c4 0e b7 bf
       -0.0815082714500442 -0.09006910124375848
0006a0 2d 12 ff 6c d8 b3 9c 3f 81 d2 39 84 82 74 c0 3f
       0.028029805805788555 0.12855559784260964
0006b0 b9 63 4f f7 7e d3 c2 3f 8f 77 0a 9e b0 ba a0 bf
       0.1470793445176051 -0.032674330989933435
0006c0 4b cf 30 ca 3b 4a b5 3f ad 24 88 a8 01 fe c7 bf
       0.08316396414084896 -0.18743916253177897
0006d0 6a d5 69 2e ae 0d b0 3f 01 c9 c8 c3 71 65 cd 3f
       0.06270874627246817 0.22965833720952136
0006e0 02 39 83 91 cc 74 99 bf c8 35 e8 ac de b6 c1 bf
       -0.024859615689643462 -0.13839324419715937
0006f0 50 b4 8f 82 7d 55 aa 3f f1 ff c6 f8 2e 59 b1 3f
       0.05143348902479572 0.06776708196321103
000700 7a ef 22 4e d1 92 b9 3f 99 ab e0 94 23 98 bf bf
       0.09989650876644687 -0.12341520676333885
000710 8b 86 e8 7b 80 b2 c1 3f 04 08 e7 db 33 c7 65 3f
       0.13825994539461237 0.002658463751886055
000720 2f 7d e2 2f fe 53 b2 bf 91 b6 77 18 21 6b b3 bf
       -0.07159413022099125 -0.07585341307977901
000730 d2 05 89 a8 da 8a a4 3f c2 ba 77 66 65 01 c3 bf
       0.04012187297167781 -0.14848010543160767
000740 e0 e8 31 77 31 fd b5 3f d8 51 8f 71 3c 46 ad bf
       0.08589467201264567 -0.05717648397663638
000750 dc b4 85 d4 05 1f bb 3f e4 01 69 78 77 73 c4 3f
       0.10594211996586317 0.15977376346019334
000760 c0 ec 7c 8d 27 7e a7 bf ec 05 34 f6 a2 86 c4 3f
       -0.04588435747288022 0.16035878202096343
000770 c0 61 00 42 07 01 c4 3f 7d 07 dc 70 4a 7a c8 3f
       0.15628138277749137 0.1912320185729718
000780 c7 77 ec 83 0b 9e c0 bf 71 19 50 f7 e0 7a c2 3f
       -0.12982315007769626 0.14437496257614726
000790 4d 24 7d 55 47 1a 71 bf 42 b0 39 62 de bc 5f bf
       -0.0041754518968640355 -0.0019371196475743845
0007a0 59 64 01 df 1a a3 a6 bf b3 0b f4 0f 84 02 bf bf
       -0.0442131421302256 -0.12113213910565328
0007b0 1a e3 79 43 7b 3e b8 bf cf 66 ec 38 6a 06 94 3f
       -0.09470339200369118 0.01955572102006081
0007c0 40 90 ee c5 35 c9 b5 3f 46 8f ff 76 c8 64 bb 3f
       0.08510147173234461 0.10700657754165119
0007d0 80 49 76 be 4a 1f 96 bf 6b 68 0d f1 51 22 51 3f
       -0.021603744387513668 0.001045780202011427
0007e0 ca 6d 8b 83 35 f5 b2 bf 0c 49 66 cb 17 1f ca bf
       -0.07405409299410973 -0.20407388145083194
0007f0 41 23 96 d1 98 98 bb bf f5 06 18 d0 ae 05 b9 bf
       -0.10779719464165984 -0.09774296360412989

module.jnet.down_path.0.block.1.weight f8 [8, 8, 3, 3]
000000 56 04 35 55 d5 95 b9 3f 54 f3 33 e7 ae fa b3 bf
       0.09994252519847299 -0.07804387230494331
000010 ec d4 f4 fe 4d 83 c0 bf 40 fd 40 e6 4f 60 b5 bf
       -0.1290071005729837 -0.08350085612709268
000020 a0 a1 07 95 e4 8e bd bf fa 15 67 78 50 01 b2 bf
       -0.11546162260459036 -0.0703325551940778
000030 9f 94 1c 4c d3 80 73 3f c4 da 42 ed 7f b0 c3 bf
       0.004761529331323149 -0.15382384381310577
000040 12 ee 68 41 18 88 b6 bf c9 fb a0 84 c8 24 bd 3f
       -0.08801414105339969 0.11384251821526371
000050 ce e6 77 13 da 18 a6 bf 09 a1 0f 5d 9d 13 b4 bf
       -0.04315835464144656 -0.07842429658888163
000060 d7 81 0a 27 0e 7b a4 3f b9 3c 25 57 fd 2f b6 3f
       0.040001337304832844 0.0866697633511987
000070 03 9a 88 32 3a 5a b2 bf cd 65 20 a1 6a 42 bf 3f
       -0.0716892598507926 0.12210718568567032
000080 d9 c3 11 82 8c 24 be 3f 66 99 29 1d 7d 6d ba bf
       0.11774519134065943 -0.10323316537833235
000090 60 19 62 32 a1 fa 98 3f ba cd 70 ac b4 86 ac 3f
       0.024393576336046663 0.055715223359949786
0000a0 eb 8e bd c7 a4 c6 ba 3f 56 82 a1 5a cf b5 87 3f
       0.1045935619018185 0.011577243760428828
0000b0 5b c5 21 6e 2b ae a4 bf ed 71 93 6d 09 1c 9e 3f
       -0.04039130896934281 0.0294038270120484
0000c0 ce 2c bf 43 f8 94 bd bf b3 be 10 0c eb 99 a3 3f
       -0.11555434850668009 0.03828367731364093
0000d0 5d 9d ac 5f fa a2 7e 3f 46 d6 3d 15 e6 b8 72 bf
       0.007479646704076384 -0.004570864450092643
0000e0 c3 50 88 10 82 bf c1 bf f0 12 9e 2e 8f 79 b4 bf
       -0.1386568623280536 -0.07997984779474243
0000f0 28 ef dd dc 2b f1 b1 bf 21 83 a0 fb e5 e7 b0 bf
       -0.07008623258837743 -0.06603848832356764
000100 15 40 fc 9b 38 4b a4 bf dd 20 bb 79 a7 0e a7 3f
       -0.03963639167898251 0.04503367768262632
000110 7e be cb 16 bc fe c1 3f 5b f8 13 2b 26 83 a9 bf
       0.14058638680534224 -0.04982871318678469
000120 d0 e1 84 ab 05 79 93 3f 6a c0 89 24 2b eb c4 3f
       0.019016350358670497 0.16342677387320076
000130 65 b6 f8 fe ad a0 c0 3f 98 7d 97 6d 28 93 aa bf
       0.12990355443746462 -0.051903975847149286
000140 3e 03 29 3e 75 81 bf 3f 54 2d f0 2f 80 b8 c1 3f
       0.12306912200530193 0.13844301548702254
000150 6e a3 c0 30 d6 02 99 bf 4b d4 64 7f a9 85 7b bf
       -0.024424883580795358 -0.006719266986967186
000160 47 cc 0b 27 79 a0 c1 3f 32 53 2b ed 31 ff 79 bf
       0.1377097550062862 -0.006346888566174868
000170 9d 7a d5 53 f4 27 aa 3f 72 9b 0b a5 79 b8 c3 bf
       0.05108607791293205 -0.15406723555426144
000180 2f 20 5b e9 a3 ed 9f bf 78 41 5e 6c a7 82 bc bf
       -0.031179963224332304 -0.1113686217852371
000190 97 d0 f4 39 b2 29 c1 bf 02 bd 37 f3 5f d0 90 bf
       -0.13408496694467395 -0.016419886798698442
0001a0 76 10 8b eb 15 d2 a2 3f 28 6c 8f bd f2 b8 99 3f
       0.03675907612117239 0.02511958391174232
0001b0 a5 98 33 5b d6 60 b1 3f 2a c8 26 7a eb 98 b8 bf
       0.06788387037849704 -0.09608337146963267
0001c0 01 0c a8 04 b3 d6 ba 3f ef b4 2d 24 a1 6f be bf
       0.10483855117495013 -0.11889083035721958
0001d0 10 3c e6 c2 03 71 be bf d0 eb 71 35 c2 f8 b0 bf
       -0.11891196735653886 -0.06629575543222122
0001e0 4f 30 5d c5 13 82 97 3f 82 8f 46 da 34 6a a9 bf
       0.02295714275469179 -0.049638415951704054
0001f0 d0 c4 df a0 01 24 b3 bf 13 52 81 d1 b9 23 90 bf
       -0.0747681634673143 -0.01576128331392297
000200 7a 79 d3 61 63 a9 b2 3f 53 d7 51 be 3a 32 b6 3f
       0.07289715898830265 0.08670394083477832
000210 17 14 fd 11 1f 29 b8 bf 07 b3 4f 67 6b 00 a9 bf
       -0.09437746228384501 -0.04883132587551669
000220 50 6f 73 80 91 8a a7 3f da 89 d8 08 c8 8b c6 3f
       0.045979067735713586 0.17614078933645666
000230 0b 68 af 1c dd 30 92 3f 5f ae 8a 3d 0b d0 88 3f
       0.017764525295071148 0.012115562263111444
000240 4e e8 d5 0a 0a 3a c2 3f 22 fe a2 68 91 5e 87 bf
       0.14239621666985375 -0.011410842900999422
000250 fb c9 3d da de 47 b5 bf e0 4a 03 37 16 62 b1 bf
       -0.08312790706785471 -0.06790293543898995
000260 4e f1 72 59 e4 15 bb bf 3d 02 e4 3e b9 a6 ab bf
       -0.10580279525578826 -0.05400637524326555
000270 c1 ee b3 48 2c 17 c0 bf 44 75 56 20 0d f6 74 3f
       -0.12570718336052347 0.005117465281185677
000280 3b 84 41 1f f0 12 63 bf ad 5f 15 33 d0 2b c0 bf
       -0.0023283662686002494 -0.1263370751792058
000290 07 a7 15 ab 20 a0 ad 3f 64 ba 21 8e 9b 52 c2 3f
       0.05786230171618283 0.1431459850313842
0002a0 74 a7 06 0f 58 b3 be bf a2 8c 5f 20 12 82 a4 3f
       -0.11992407194943927 0.04005486149960659
0002b0 cb d4 d2 01 72 72 c2 3f 2b 18 a1 26 20 d4 93 bf
       0.14411759461441984 -0.019363882405990445
0002c0 a5 27 d8 2a ce e5 b2 3f 10 77 b9 7b c4 f9 b3 3f
       0.07381905122761497 0.07802989979378716
0002d0 dc fa 38 92 66 8e 94 bf b7 c5 81 14 4c 0c aa bf
       -0.02007446544143475 -0.05087507009819652
0002e0 c4 a9 c9 f0 53 33 86 bf e5 f8 1d f7 00 aa c3 3f
       -0.010840087686308737 0.15362560335410716
0002f0 c7 80 51 32 31 08 aa 3f 9e 67 3d ff a1 82 b2 bf
       0.05084375132787638 -0.07230579835359527
000300 9d fd 3b a7 18 1e 8f 3f 2c 68 36 0f 7f f9 9c 3f
       0.015194122890078538 0.02829550295209786
000310 29 51 79 d7 17 0a a6 bf 0f b1 b9 88 a5 62 9f bf
       -0.04304575448319021 -0.03064974448209151
000320 81 73 6a a9 ba f5 9b 3f 0c 7b c2 78 3c be b0 3f
       0.027304569807359073 0.06540277431711788
000330 85 58 4a 36 90 8e b2 3f 36 bc 3c 63 7e 35 61 bf
       0.0724878437561945 -0.0021007030972195707
000340 29 7a c4 ba aa 2f 92 3f cb c7 7b 30 98 65 a4 3f
       0.017759959840186 0.039837604444883455
000350 3a 7a d7 72 d6 a8 b8 bf 02 2b 63 4a 27 48 b5 3f
       -0.09632625869515091 0.08313222471330664
000360 37 b9 1d 3a 52 37 91 3f b5 ce 12 01 0d 4d 8a 3f
       0.016812596127629944 0.012842275233516312
000370 d4 3c ca 63 a5 08 b6 3f 61 c3 72 f5 ee 6f 9e 3f
       0.0860694283130557 0.029723867159819565
000380 47 86 d7 2a 97 25 b6 3f e5 06 23 a9 15 23 c0 3f
       0.08651108547157903 0.12607069738992674
000390 46 36 c1 e3 1a 0f a4 3f 54 82 21 1c f0 60 95 3f
       0.03917774229249153 0.020877601353620115
0003a0 bd c0 1a a0 80 fb a1 bf f0 4a 45 2e 72 79 a9 3f
       -0.03512193636322667 0.049754684589648934
0003b0 1b b8 7a 15 e1 52 bc bf 4f dd 49 16 09 89 a4 3f
       -0.11063963674925541 0.0401079978664095
0003c0 17 3e 1a 95 21 c5 ba 3f 1d fe 26 5f c6 a2 c0 bf
       0.10457048311422344 -0.12996749540433053
0003d0 b0 e8 c5 9b 0b b6 98 3f d2 7f 40 c1 63 9d a0 3f
       0.024131947882303606 0.03245078786881063
0003e0 4a d0 23 47 8a da b4 bf 92 60 65 db 79 70 af 3f
       -0.08145965802015201 0.06140499880956542
0003f0 c9 7a 97 4c 66 ae ae 3f 87 2e ab dd 4b 4f b6 3f
       0.059924313401770464 0.0871474662955568
000400 f7 6b bb 16 76 f9 9b 3f ef 74 81 f2 31 bc a9 bf
       0.02731880677934481 -0.05026393971705
000410 db d9 21 61 64 ed 6b 3f 3b a3 b7 98 58 2a c1 3f
       0.0034090958152390555 0.13410479981328102
000420 c4 f3 85 f4 27 f0 b2 bf 21 0f 2f 0a 76 7b 98 bf
       -0.07397699088865212 -0.023908466693469358
000430 4a 8e bb d6 b8 3f b9 3f de 9d 31 df 05 10 ba bf
       0.09862857096191494 -0.10180699061458351
000440 5a f9 8f da e5 53 a0 3f 7b 41 fb f2 0b da a4 3f
       0.0318900899219325 0.04072606412012455
000450 91 6c 70 b5 e8 45 c5 bf cc e6 6c ca 80 83 bd 3f
       -0.166195953934992 0.11528782789255415
000460 7a c2 45 51 56 f5 7c 3f 57 8d d9 44 05 50 aa 3f
       0.007069909265155711 0.05139175858928507
000470 e6 f7 c6 25 ab fd a8 3f 65 16 96 af 3c 37 77 bf
       0.048810337411381785 -0.005667912534936902
000480 93 f7 ec 1f 05 bf 91 bf 98 77 65 54 23 ef b4 3f
       -0.01733024604185791 0.08177395639856255
000490 33 68 59 29 13 d6 c0 3f 17 22 85 fc df bb 92 3f
       0.13153304594999468 0.01829481104621963
0004a0 f2 82 78 f2 f9 bd 73 3f 5b 3d 6a ca 6f 28 9b bf
       0.0048198474464988695 -0.026521441201621126
0004b0 7c ff 4f 3c 51 4a a5 3f 74 87 67 8a c6 b3 b9 bf
       0.041582621204724085 -0.10039940718664103
0004c0 50 49 96 87 4f 6f ad 3f 9d 80 bf 6e 00 3d 8d bf
       0.057489857960848156 -0.014276507739794215
0004d0 5a 68 27 25 85 f3 a8 3f 48 4f e3 09 d4 86 bb 3f
       0.04873291090525873 0.10752606622128014
0004e0 10 9f 16 2b 84 17 b5 3f 65 3e 05 b4 d6 59 af bf
       0.08239007999383952 -0.06123228976741472
0004f0 08 ef 35 1f 11 aa 99 bf b4 7b 04 c5 44 cc b3 3f
       -0.02506281617159714 0.07733564195630899
000500 79 79 68 9a cf e3 bc 3f 06 87 08 e2 b1 95 b2 bf
       0.11285111922959414 -0.07259666221991887
000510 a5 a9 e3 63 43 2a b4 3f e3 cc 18 2e 29 0a bd 3f
       0.07876988590911667 0.11343629241382618
000520 61 dc d3 46 b0 8c b3 3f 66 d3 22 2b 36 19 b1 bf
       0.07636548737706185 -0.0667909484207719
000530 f4 81 85 f2 18 0d b3 3f d9 b1 d8 e6 2f f6 bc 3f
       0.07441860123572736 0.11313151727581018
000540 9b 4a d1 9c 3a b7 91 3f b6 44 92 eb 83 c4 b0 bf
       0.017300525494941082 -0.06549858571294717
000550 2e 46 25 ce f4 f3 b1 bf e0 02 df 14 9e 0f aa 3f
       -0.07012872727252592 0.05090040211462621
000560 52 e8 15 a1 8c 8b bb 3f 35 fd c3 8c 29 bf c0 3f
       0.10759810383561444 0.13083381055182888
000570 b6 91 ba e4 46 14 a0 bf e6 ab 1d f9 e2 fe bf 3f
       -0.03140470068072736 0.12498301107341056
000580 ca 7c 95 07 e1 4b ba 3f 0d 36 e2 01 cd 1a 85 3f
       0.10272032199053452 0.010305024738296554
000590 91 ec 85 80 94 e1 b7 3f 9b 83 92 87 96 64 b1 bf
       0.0932858289506149 -0.06794110116835698
0005a0 48 d1 3d 4d 9f 9e 3f 3f bc 3b fb ec 31 c6 b6 bf
       0.0004824770851350646 -0.08896171603849629
0005b0 18 bd 1f ae ee d7 bf bf c8 06 94 ba 73 cd ac bf
       -0.12438861609529217 -0.05625497486654535
0005c0 32 6b 94 8b ec f0 bd 3f d0 98 12 40 7e df b3 3f
       0.11695745856961251 0.0776289850642542
0005d0 94 d6 20 4e 13 63 c2 3f 6e 15 ba 8e 76 11 aa 3f
       0.1436485415921892 0.05091448299666977
0005e0 d9 eb 1e d6 41 9f 9d bf 4f cd e2 0f 3c 7f 84 3f
       -0.028927830404182096 0.01000830577354486
0005f0 b4 d1 3c 27 a5 b4 88 bf d6 2d 83 aa 4b 58 b5 3f
       -0.012063303241668467 0.08337853348637422
000600 6b dd a5 7e d4 c7 b7 bf cf a6 3c 1c 01 da a8 bf
       -0.09289291469564424 -0.04853824109734505
000610 20 22 7e 71 02 93 85 bf bc 3b 45 71 7a c3 a0 bf
       -0.010534304703257169 -0.03274138100334009
000620 b2 8a 86 f2 ca cc 92 bf 64 32 0f 1d a0 b4 82 3f
       -0.018359347393593857 0.009133578192540522
000630 95 12 43 64 9a b4 83 bf b9 fb 5e 02 b9 a6 b2 3f
       -0.009621816811326492 0.07285648639570654
000640 14 61 7a db 7f 44 b9 bf 79 0b 47 a5 ad 20 a1 bf
       -0.09870146854735068 -0.033452440667608614
000650 2f 53 d1 39 54 8b 98 bf d8 47 ef bb e4 c4 96 3f
       -0.02396899798289381 0.022235464068053407
000660 13 f1 07 fc 69 08 bc 3f b2 5f 8d 6a 7a 03 bd 3f
       0.10950338748074655 0.11333432294247706
000670 8f d5 1f 94 d7 13 b3 3f a4 8e d6 88 70 1a a8 bf
       0.07452151647870252 -0.047076718047973004
000680 47 3f 3f 49 38 34 c2 bf 04 76 6d 3b 08 bf 91 bf
       -0.14221862389103476 -0.01733029234616447
000690 f7 2f 6d ae 40 d2 a9 3f c5 af 5b c4 d8 12 8e bf
       0.050432225506113974 -0.01468438481557389
0006a0 cc 88 cf f8 db 8d ac 3f 97 42 08 8b 25 63 ae 3f
       0.05576980030288467 0.059350178930008095
0006b0 77 98 c8 93 6d 61 94 3f ad d3 a3 75 68 97 8c bf
       0.01990290846347206 -0.013960662927709888
0006c0 1b 42 6f ea 82 88 b5 bf 81 b4 ce 34 7a 48 6f 3f
       -0.08411424849988018 0.003818739589823539
0006d0 70 18 da 88 c3 0f 7a bf 0f cd 0f 25 30 3b a6 bf
       -0.006362689787812056 -0.043420319103370734
0006e0 78 25 4d 2f 28 8d b5 3f 89 76 5c e2 a9 91 bd 3f
       0.08418513445680798 0.11550390030284964
0006f0 1d a4 cb 0b 43 85 c4 bf 55 71 e9 a6 96 5e 87 bf
       -0.16031683040572 -0.011410881966349132
000700 78 77 d8 44 55 96 b4 3f a2 31 87 4e ce a6 a1 bf
       0.08041890078353997 -0.034475752912473526
000710 74 6b 55 90 89 52 ab bf 4e 10 f5 76 84 ae 7e bf
       -0.05336408507238036 -0.007490651550430339
000720 82 69 ff aa 3f f6 82 3f 30 17 64 f1 3b 44 b1 3f
       0.009258744626937657 0.06744742053350872
000730 38 3e 3d 84 e1 f0 ad 3f 28 b5 f3 54 ac 25 bf 3f
       0.058478400604709824 0.12166859697363874
000740 7a ba 01 18 03 00 a4 3f bc 22 56 1c ee 7a b5 3f
       0.03906259220172088 0.08390701476867951
000750 f6 ca e8 45 38 ca c0 3f aa 94 c4 97 f4 ab b8 bf
       0.13117125905554133 -0.09637383179922901
000760 f0 01 f4 ad 10 70 b0 bf aa d3 31 88 b5 b2 8d bf
       -0.06420997855094135 -0.014501016825514263
000770 35 05 23 0d 34 9e bc bf 99 36 c9 ae 55 2a b7 3f
       -0.1117889911720525 0.09048972623096531
000780 e6 13 ce 13 e7 01 b5 bf 9a 5a 3f 62 f4 18 98 bf
       -0.08206028207321445 -0.02353269433646208
000790 e1 74 a4 a4 ff 21 be 3f 54 e6 a8 38 45 78 a5 3f
       0.11770627755727815 0.04193321530005947
0007a0 7e c2 b8 ea ec 46 84 bf 8b 94 0e d5 61 c8 85 3f
       -0.009900904572618826 0.010636104883653871
0007b0 c1 0b 07 8c 97 14 ad bf b2 cb 2c 0c 49 11 c2 3f
       -0.05679772934265471 0.14115250677568053
0007c0 36 c5 41 7d 88 49 c7 3f bf 99 0f da aa ed ac bf
       0.1819315539938004 -0.056500758284346635
0007d0 e6 53 6f c3 b4 1e b4 bf ce f5 9e b5 d6 b8 bc bf
       -0.07859353801116206 -0.11219541486840187
0007e0 2e 89 2c 26 d6 a5 91 bf 95 b1 70 68 e5 e3 a8 3f
       -0.017234178619341005 0.048613709448861155
0007f0 f4 4b 83 f6 94 2c b7 bf 60 3f a5 f9 58 82 c6 bf
       -0.09052401560192874 -0.17585289182397457

module.jnet.down_path.1.weight f8 [16, 8, 3, 3]
000000 0f 03 87 57 84 1c a4 bf b7 f4 c4 a5 b0 7c c3 bf
       -0.0392800671429595 -0.15224273771483407
000010 9c c7 51 91 d1 d1 b7 bf 87 ed ca 8e 7a 86 92 3f
       -0.09304532811964211 0.018091120686887698
000020 ea bd 50 5a c5 25 bc bf 70 80 43 2a af 6c bf bf
       -0.10995133833852547 -0.12275213987186517
000030 19 b5 a9 30 6d b8 ab 3f ae 14 d9 bd 13 a4 ba bf
       0.0541414377119997 -0.1040661180969262
000040 7c 8a e9 f1 d5 18 82 3f 7f 64 99 35 d9 13 b9 bf
       0.008836432881428317 -0.0979591136796376
000050 a4 b8 67 9c 48 a3 9d bf 95 92 ff ba b0 79 ba 3f
       -0.028943190141881417 0.1034193474329846
000060 52 21 fc 06 a1 5b b8 3f 15 e5 04 ee ab 22 b8 3f
       0.09514814777879124 0.09427904664052662
000070 99 fe 55 c1 44 36 ba bf 6f c2 c1 cd 7e eb b1 3f
       -0.10239057273974551 0.06999962352143439
000080 d4 77 1b cf 41 fc ab bf 4d 24 f0 98 fc b2 b1 3f
       -0.054658943683292854 0.06913737043227393
000090 42 07 85 f4 c9 00 b5 3f e4 1e 3d de 17 b6 b4 bf
       0.08204328746526549 -0.08090352226019665
0000a0 eb 5a 7f 1b d0 79 8c 3f f8 b2 b9 b1 d2 4e b1 bf
       0.013904214705616499 -0.0676089939021941
0000b0 c4 19 60 85 68 9f c0 bf 58 48 a8 51 1b f1 ab bf
       -0.12986475479574555 -0.05457387325090285
0000c0 99 99 0c dd a1 bd bd 3f f1 95 52 0c 42 0a a3 bf
       0.11617480894765321 -0.03718763733312958
0000d0 bf a2 92 2a 16 b7 7a bf 6b ee 96 de 06 da b1 3f
       -0.0065222612258046255 0.06973307546916778
0000e0 e2 ba e8 f5 3d 52 c7 3f 93 32 5d 93 c4 7b c0 3f
       0.1821973276832614 0.12877709575186155
0000f0 4c 07 67 72 1f 9b bc 3f c2 1e 91 20 b9 27 b8 3f
       0.11174198668507279 0.09435612721528755
000100 0b ad ff 1f b0 c0 90 bf f1 9b 1e d5 de e7 a9 3f
       -0.016360046341941586 0.050597156062671796
000110 0b 8c ec 72 69 e7 94 3f 8a 18 67 a3 f6 55 8b bf
       0.020414016379742644 -0.013347555982260912
000120 56 2d 41 4f e9 7c b5 3f 77 a0 d2 77 92 cb b3 bf
       0.08393724617888174 -0.07732501435623527
000130 26 e4 76 32 ff 95 bb bf 4c 82 fd 40 cd 14 bc bf
       -0.10775752050439333 -0.10969240986515522
000140 12 a7 0b 4f 17 5f b1 3f 56 1a cb 0b 6c 8a b6 bf
       0.06785722427198618 -0.08804965293811881
000150 0e b9 3c 1e 7a f4 ad bf da 77 6e 48 f8 62 62 3f
       -0.05850583666902952 0.002244458129509558
000160 09 36 09 d2 39 f7 aa 3f c0 f5 be 80 0f 3c b1 3f
       0.052667433633001144 0.06732270138942109
000170 dd dd 24 cc 9f 15 aa bf 61 18 20 ff 88 8d bd 3f
       -0.05094622961990656 0.11544090489050653
000180 8f c7 39 a6 8d 02 ad bf 79 71 6b b5 7b ed c1 bf
       -0.056660105267737675 -0.1400599132383709
000190 15 17 95 cc 42 18 94 bf 8a 2d 66 b9 ba 74 c2 3f
       -0.0196237981192758 0.1441872983235551
0001a0 b9 f6 ce f3 ea 40 bb 3f 16 24 c2 4c 88 62 96 bf
       0.10645931675295629 -0.021860246357878386
0001b0 c4 2b c8 98 0d 79 b0 3f 3d e2 29 9f 08 11 b9 bf
       0.06434712390925684 -0.09791616330938609
0001c0 f0 22 ae 73 ea 2d 6e bf fb 5d 78 b3 57 f6 c3 bf
       -0.0036840037477684426 -0.15595527899925785
0001d0 01 b6 fa 4c 51 9e ad 3f 4c 84 0f 93 e6 0f a8 bf
       0.057848492285625504 -0.046996312572226445
0001e0 78 07 fe b0 fd bc a1 bf 9a 92 30 8e 54 20 b2 3f
       -0.03464501176405482 0.07080582114628911
0001f0 40 6c 67 56 39 c3 a0 3f 63 09 2f b6 bd b9 c0 bf
       0.032739440724718794 -0.1306683673447636
000200 02 b3 78 d3 7f c7 a8 3f d5 f0 5c 86 77 cc 7e 3f
       0.04839705902518256 0.0075192135753321026
000210 1b 11 63 fb be 50 ab 3f 68 cb 8d e0 33 88 9a 3f
       0.053350418269049814 0.02591019685810228
000220 a7 85 d7 20 03 7d 86 bf 67 2a d3 46 23 8c a1 bf
       -0.010980629386667952 -0.03427229156075811
000230 25 e7 ae 88 b1 bf 92 bf f3 fe 19 50 18 3e a6 bf
       -0.018309377639275887 -0.043442497041722115
000240 56 cf 50 92 78 ef 9c 3f 8f 1d 5e 18 69 b0 62 bf
       0.028257259302520175 -0.0022813847198823243
000250 da 61 a0 fd 3a 02 b3 bf 29 dd 3d 9b 89 55 96 bf
       -0.07425278369954161 -0.021810674762915348
000260 97 eb a0 70 35 6d b9 bf 54 e4 d5 af 4e 2a b8 bf
       -0.09932264327737382 -0.09439555924281368
000270 bf 22 31 40 ff b3 4b 3f 21 0d c1 af 1c aa b1 bf
       0.0008454319325973055 -0.06900195399162047
000280 0d e6 82 00 3e 61 a0 3f 4e d5 d0 8c f2 4a b2 3f
       0.031991899073045095 0.07145610750088346
000290 49 60 ea 2d 07 06 6d 3f 07 1d bf 7c 17 a7 b5 bf
       0.003542913458044726 -0.08458086772508376
0002a0 e1 e9 6c cd b5 f2 96 bf 80 8a 58 0a de 38 bd 3f
       -0.022410240805791907 0.11414897682747416
0002b0 4e 9a f3 36 b6 79 97 3f 0b 33 a6 09 da 90 b8 3f
       0.022925231079080448 0.09596026168419429
0002c0 b0 e0 98 fd 33 23 c0 3f 2f d0 93 f4 82 aa 77 3f
       0.12607431299853067 0.005777846855597387
0002d0 b8 ea e3 43 d6 3f 93 3f a0 29 2f 11 41 75 78 bf
       0.018798206227965436 -0.0059711972889523734
0002e0 c9 ac c4 c7 ab 9c 89 3f 11 7d 00 8f 5e f3 89 bf
       0.012505857500022437 -0.012671221484252844
0002f0 92 67 4d 3a 8d cd b7 3f 12 65 d7 f8 a6 55 5e bf
       0.09298021958730221 -0.0018514757715507074
000300 02 bd 6a ba 92 61 bd bf 01 44 67 f6 77 fd b7 bf
       -0.11477009822077736 -0.09371137395579866
000310 c0 70 60 df e4 e2 b7 3f 05 6f 3b a2 84 1a 9a bf
       0.09330587819607938 -0.025491783525338558
000320 c8 7f 89 73 0a 6e 79 bf 7f 18 a9 74 7e 4d c0 3f
       -0.006208458733993845 0.127364928210401
000330 8b 90 cd d2 64 2f 7d bf e9 da 21 df 01 f3 8c 3f
       -0.007125276414488134 0.014135374662357108
000340 24 94 3c ab da 17 ab 3f 3c 1b 3d 47 3b e0 b3 3f
       0.05291636791506729 0.07764025201059338
000350 3d 76 09 3a d1 48 b7 3f 42 2b 60 68 02 e5 b0 3f
       0.09095485369604091 0.06599440620645416
000360 50 a4 de c0 0d 81 a4 3f b1 06 71 8d ba 51 79 3f
       0.04004710177770987 0.0061814582068692595
000370 e9 3e 0e 75 f9 0f a2 3f 44 b9 e1 7e 5e 2c 90 3f
       0.035278125323314154 0.015794254774328623
000380 21 b2 64 29 98 a2 aa bf 30 e9 dc 93 8c 4d af 3f
       -0.05202174668588478 0.06113852791755148
000390 9b b9 cd 00 ce 70 82 bf 3e d2 d5 5c 35 c5 a9 bf
       -0.009004220389866193 -0.05033270605318706
0003a0 46 a8 b6 1b c5 b7 9b bf e5 89 51 75 9c 0b b4 3f
       -0.027068214241502873 0.07830217231961674
0003b0 83 5d 6d 8b 7a 29 ba 3f 47 07 fd 96 9b dc af bf
       0.10219541458115171 -0.062229978734207374
0003c0 8c a4 07 92 b4 fc a9 3f b8 28 89 47 e3 e4 b0 bf
       0.0507561138400173 -0.06599255081633515
0003d0 c3 d9 30 71 9d 5e b6 bf c5 ff cf d8 17 d5 7c bf
       -0.08738121045539686 -0.007039158966108465
0003e0 9e f5 b8 21 df 40 b8 bf 66 62 6b ef 63 f9 bf bf
       -0.09473986218741579 -0.12489914508058461
0003f0 d2 dc 95 c0 04 90 ba bf f7 1d d2 5b 77 d4 b0 bf
       -0.1037600488833619 -0.06574197761266719
000400 cf b2 26 93 23 8d b1 3f 8d 81 67 15 76 f5 a6 bf
       0.06855985968168031 -0.04484147082598886
000410 5d c6 8d 12 61 4f c4 bf ee 54 92 7b f4 bd ac bf
       -0.15867246061275156 -0.05613674171869741
000420 7c 63 b6 d5 4a a7 b3 3f 7e 90 b7 60 77 b3 8e bf
       0.07677142827595945 -0.014990742339201054
000430 a5 82 1e 55 d0 3b bd bf 1f 8d c4 cd d8 1e a2 3f
       -0.11419393613915448 0.03539159309209538
000440 79 11 ef 8c cb dc b4 bf 3e e4 3d 66 34 7c b2 bf
       -0.08149406615036082 -0.07220771309029403
000450 fe b1 cd e0 0a d3 99 bf ae e0 ce fc 48 58 b0 3f
       -0.02521912571994455 0.06384712383340016
000460 47 15 98 a6 8b cd b4 3f 21 b4 7a 1d c4 6a b7 3f
       0.08126137559164191 0.09147287101468794
000470 84 64 c8 e9 b6 fe 7e bf 12 8f f6 72 7a 1b bc 3f
       -0.0075671334311887585 0.10979428583828746
000480 81 13 11 0d 2a e9 bc 3f 8a 60 fb 0d 64 04 a7 bf
       0.11293280428897214 -0.044955374438076026
000490 46 4f 7b 6b 31 d4 a7 bf b3 25 d2 a2 b0 f9 a1 bf
       -0.046540779466936175 -0.03510810840186753
0004a0 4e 4e bb a2 20 21 b5 bf 87 71 d3 fa 01 9c c0 3f
       -0.08253673527661329 0.1297609781967248
0004b0 cb d9 ea c3 aa 2d b7 3f 2b fa 86 ce eb 2b b4 3f
       0.09054057391299535 0.07879518310708337
0004c0 91 24 5e 2d e2 64 96 3f 3e 1b 5f 11 a5 0e 79 bf
       0.021869215029742654 -0.006117481991117666
0004d0 81 b5 39 ca ef 81 a5 3f a4 75 a3 71 11 7c ae bf
       0.04200696319171993 -0.05954031479061975
0004e0 18 6d 52 72 b8 b7 95 bf 30 76 f8 de c9 d6 b5 bf
       -0.021208650567683923 -0.08530866330735232
0004f0 57 9c 2d 1d 81 8f 98 bf 3d ed 77 0f 59 4e b6 bf
       -0.02398492565717122 -0.08713299396179237
000500 d1 bb cc 2a 73 3e bb bf 8f 59 08 ad 65 bb a9 3f
       -0.10642165942111538 0.05025785195555265
000510 51 ba 50 e5 3c 70 bf bf 5c b1 5c 5e 45 29 b9 bf
       -0.12280636404532543 -0.09828599504243613
000520 64 42 a3 e2 ff c4 a7 3f 95 81 af 29 29 ac a9 3f
       0.04642486230443835 0.05014160760743206
000530 c3 f4 ab e5 9b c3 ac 3f 99 b6 4e 1d ec b6 bb bf
       0.05617987803086912 -0.10825992312921996
000540 21 b1 6a b4 4b a8 92 3f 24 13 a8 54 e4 61 93 bf
       0.018220122229352435 -0.018928115527177117
000550 65 63 40 0b 9b 93 bf bf 1f 6c 54 8c 1b ba b9 bf
       -0.12334603333182555 -0.10049602676410573
000560 03 45 9f e7 1a bc b0 3f 72 6e be b2 2a 8b a2 3f
       0.06537025599324768 0.036218008345909505
000570 c3 e3 26 93 bc 03 b2 bf 74 16 b8 9f be 16 bc 3f
       -0.07036951630187986 0.10972205542938146
000580 90 57 fc 22 e9 ab b6 3f 21 43 53 09 79 3c 99 3f
       0.0885606489576658 0.02464474791924254
000590 9f 25 4a ce fc 41 92 bf cc 46 87 2e 91 ea b1 3f
       -0.01782984742252369 0.06998546014736035
0005a0 10 e7 1b bb 48 da a5 3f 82 84 0e f7 37 d4 a9 bf
       0.042681000557378224 -0.05044722452954266
0005b0 04 31 bf 3a ad 19 b7 bf 43 86 88 a2 e2 14 b1 3f
       -0.0902355450081736 0.06672493427370178
0005c0 76 15 06 61 45 43 bf bf 9d 30 40 f5 eb 1e bb bf
       -0.12212022417778265 -0.10594057786528528
0005d0 48 05 75 42 df 81 81 bf 41 ee 2f 4b 3f c0 c2 bf
       -0.008548492637262442 -0.14649192019702365
0005e0 b7 5a c2 6e c8 aa 9a 3f d4 24 79 f5 bb 71 bd 3f
       0.026042110214428784 0.11501669638632289
0005f0 32 42 fc 49 8f c3 b7 3f b0 7e 39 ed 84 79 b7 3f
       0.0928277545574552 0.09169798652282668
000600 00 1a 07 ea 56 3e 92 bf 01 40 c5 86 e2 49 ae 3f
       -0.017815931352538783 0.059157446814992916
000610 5e 7b d1 0e 31 c0 bb 3f 10 d8 77 ca 99 34 96 bf
       0.10840136157774569 -0.021685030920672033
000620 9e 0e 04 c7 22 9b 7f bf 86 7a 15 30 fe d4 83 bf
       -0.007716308449974866 -0.009683595507053566
000630 f4 5d 1b 94 0c 46 b2 3f 06 32 e1 85 43 fc c2 3f
       0.07138136497393771 0.14832347905247917
000640 04 cc d8 96 58 8c b5 3f 27 af 60 fe 32 84 71 bf
       0.08417276079926245 -0.004276465600962876
000650 8e 69 68 19 86 bd 8f bf e3 94 29 95 8a ba bd 3f
       -0.015498206758867619 0.11612764493618814
000660 29 2f 64 77 e9 d4 88 bf b7 e0 5d d9 77 d9 a0 bf
       -0.012124847370180785 -0.0329091503944609
000670 2e 6f 04 9f e6 2f b2 bf 72 7f 12 3b 2e e5 c2 3f
       -0.07104340917834115 0.14761903652560765
000680 31 ca 50 78 06 fe c0 3f 6c c4 71 5c d5 c1 b9 bf
       0.1327522361257976 -0.1006139136022896
000690 d1 a0 78 14 89 42 c0 3f 94 f4 9e f0 74 c7 ab bf
       0.1270305013615656 -0.0542561095930775
0006a0 47 57 35 fd 7a 2b 8b 3f 9b 47 1b e2 53 9d b5 3f
       0.013266526081377029 0.08443187971286507
0006b0 52 69 00 bb 85 b1 b5 3f 85 2e 9d 7c 08 2c b5 3f
       0.08474002662152216 0.08270314256986395
0006c0 d8 1f 94 e0 c5 11 61 bf 0d e8 13 54 81 16 9f bf
       -0.0020836701193083056 -0.030359287983607475
0006d0 65 b4 00 cd 8d 56 b7 bf 63 a6 c6 27 1f 1a ae 3f
       -0.09116445784521117 0.05879304276033961
0006e0 ad 66 ce b1 88 93 a6 bf 5e d6 e5 1e dc 43 b3 bf
       -0.04409434481131078 -0.07525420908299327
0006f0 8a f3 e5 d3 fe d3 a5 3f f1 a1 b1 0b fa 53 b5 bf
       0.042633021704182886 -0.08331263337607432
000700 c2 d3 30 87 7b 5f 83 3f ec 6d 76 67 f6 f1 ae 3f
       0.009459462226098728 0.06043977749797222
000710 e0 69 49 60 4c c9 a8 bf 52 39 d7 c8 0e 97 be bf
       -0.04841078448653824 -0.11949245837533809
000720 23 1e 21 2a 14 3f b7 bf f6 b7 ff a7 cb 8d a2 3f
       -0.09080625561284043 0.03623806405799705
000730 b4 41 5b b4 f5 0a a6 3f 47 09 6f 18 85 97 b6 bf
       0.043052366510554135 -0.08824951025511495
000740 d7 a2 9c 0a 65 9b bd bf fc 0e f0 3c 87 7c bf bf
       -0.11565238484457595 -0.12299390065896526
000750 71 40 8e bd 5b 20 a2 bf 61 cc 4a 82 03 19 b1 3f
       -0.0354031247035217 0.06678792887650921
000760 64 fd e1 28 00 f2 97 3f 3f 55 25 60 42 d3 ae 3f
       0.02338409661797182 0.06020553039221931
000770 97 19 8a fd 5b 7c be 3f 66 b2 b8 ae b8 91 be bf
       0.11908507289817859 -0.11941103234921399
000780 72 d8 33 16 7e 4b a3 3f 9f 57 0a c8 ae 79 bb 3f
       0.03768533726717828 0.10732548126028839
000790 15 b1 03 6e 0f d5 ba bf 80 fc 12 ef aa f1 49 bf
       -0.10481354175471254 -0.000791748489198954
0007a0 b8 1e e7 f2 1f 05 91 bf ad f0 6b 99 77 39 61 bf
       -0.016621112061129678 -0.002102597801579695
0007b0 2b d0 06 76 65 61 ab 3f 9e 22 f4 4f 7c 6e ad bf
       0.05347745004419865 -0.057483563194243845
0007c0 8f 2f 38 15 26 42 bf bf 86 4a cc a0 3a c7 83 3f
       -0.12210309999517065 0.009657342941442392
0007d0 fd a3 99 98 3f 95 aa bf 3b 28 22 6f 14 48 a2 bf
       -0.05191992509646324 -0.03570617539033135
0007e0 39 c8 d3 70 1b 30 b8 bf ba 79 4f 40 53 e4 c2 bf
       -0.09448405747005574 -0.14759293213042018
0007f0 40 b1 0f bf 6d 83 c5 bf 02 36 52 07 6c 91 71 bf
       -0.1680733855167862 -0.004289075838767699
