results/run_1/NLModule_w1_3layer_data[16].pt (torch_old, 337640 bytes, 75 tensors)

down_path.0.block.0.weight f8 [8, 4, 3, 3]
-0.09515296278919413 0.4039379323865906 -0.0681783695788753 0.09698969974337984 -0.47255190879625264 0.13963074386941332 0.13062057891565626 0.29386539095382264
-0.07234220462887962 0.08801800609217951 -0.024856635611938415 0.11732336342901074 0.10577324569717299 -0.23172489488617298 -0.06604992158749011 -0.059722182590012614
0.1395007952070232 -0.15003840696734322 0.10382279412049653 -0.05651272776788137 0.02045018040642502 -0.16152331149181504 -0.04632258619734436 0.005337327830312353
0.06518612779000132 0.07789421205214275 -0.06656949986850572 0.03660855738859353 0.11275335774423381 -0.011531350192893445 0.1319139677455222 0.25870913725290134
0.053483997198371956 -0.04780042090886259 0.1095959440297995 -0.09895095022395395 0.012591153956375317 -0.005826197783242295 0.02931501300412107 0.017198956290128922
-0.07138389502029352 -0.05399497972856217 0.0625507755260476 -0.07670001730010557 0.10191170252729434 -0.07991820565795409 -0.04652854433636243 0.060491862147082166
0.07885462901153287 0.08603847231086018 -0.11367455715568313 0.005761965175722695 -0.10228972157254418 0.1132058746060584 0.07733127022442524 -0.01752688694404505
0.0981342154341581 -0.00861575115371074 -0.1482721591750365 -0.11375447572579221 0.08216234685641222 -0.07433053769127258 0.14696498890482645 -0.06629124702141788
-0.0008366075124383446 -0.34689128861415125 0.0762262292230803 0.04972051989835672 0.27776084022225955 -0.0434165391410561 0.014261464254510388 -0.32447577120843096
-0.014419819503525215 0.0741202250665955 0.02666446537288086 -0.132965927393725 0.7840809344386006 -0.20060111609864667 -0.024304974372709384 0.24408575456956186
0.005745090017277001 -0.004716610719607856 0.05882206735148467 0.0067686220233007756 0.46837254404010864 -0.22351829126395764 -0.17767345475608542 -0.41779920546662624
0.08886646293890228 0.11488822117078633 0.06534453450530478 -0.03255207688241079 0.020715342396847972 -0.23930467716867979 -0.3495264718730576 0.07655156663268436
0.10710842270199362 0.14699441053491807 -0.06717568766671947 0.05128785282043171 -0.057125827356654106 0.06093789283885272 0.1043902515740891 0.09664620219674719
-0.035239790724229746 -0.12906476921043797 0.07024040915001478 -0.043062683225632024 0.06062339870279511 -0.21327266161624125 0.021430221234037 -0.1529853059482441
0.19725158187983718 -0.07261348047552411 0.06733588226476506 -0.012852575375815944 -0.09128500241003311 0.16599076855035252 0.02443093554980952 0.1464888132261543
-0.7009834825775098 -0.293338755304915 -0.6377720543754312 -0.06357250578050966 -0.05926701940491333 0.14113497942294803 -0.20171915629580278 0.014049344166689312
0.0447216750238849 0.437934118328314 -0.053150948508193886 -0.33272749877111557 0.00895467031789338 0.025084426313246536 0.1084963070732177 -0.049869088298156616
0.008204629242251571 0.08981524671811444 -0.04787779246033924 -0.045483946842303107 -0.03154149852795425 0.03974092445287712 -0.04905369713668804 0.00043193251762139057
0.23973849178597753 -0.17859692641162714 0.024918390342913776 -0.06566592720812878 0.20307634662909435 0.10107020985456737 0.1752257357740107 0.38411594663985554
-0.00549001061373518 0.10243189756518059 -0.1643113901532132 0.0067685954843800565 -0.45413080470916495 0.20154386997038992 0.4203146603946643 -0.010751090525727132
-0.05245712635924856 0.07442651877416635 0.08044843432813112 0.19692393244321083 0.04375540996139234 0.21569923550920625 -0.08005523658881916 0.29951080907680966
0.19258145735111554 0.17901412893814933 0.11906544055547247 -0.007395947825765968 -0.1396288882621824 -0.042716918566500256 -0.007267939045256544 0.06486217113428791
-0.055483338968310196 -0.0008247671203913958 0.0497198850066929 0.016794855510486883 -0.060707275135181545 0.21792569145352697 -0.028789444408456613 0.1422415479014849
-0.20510720845016878 0.08511414658620133 -0.06773548366119257 0.021072856160776803 0.08130083567398122 -0.15846375333710855 -0.027370235050405374 -0.13844236342908267
0.6834146717523667 0.2906494550400397 0.6168153916237371 0.06554075052264763 0.034094659881796316 -0.1324695486451736 0.1937042809186523 -0.015096625462251115
-0.039405997036818026 -0.41998927311773177 0.04630834508868144 0.32406915360407257 -0.007390684685814996 -0.024995879894951674 -0.10671379841715309 0.06615060946081644
-0.03366788812660941 -0.10282686242133245 -0.005912396063569294 0.15889514221053214 0.01883134160987026 -0.01327801614333425 -0.024832552974998864 0.01982072572187622
-0.21794594924270605 0.1617321992778532 -0.023179942129004545 0.0499121117721712 -0.18062605302153495 -0.07769129204709471 -0.14408424094341385 -0.34890382948383736
0.009118996264158501 -0.0841861778041054 0.15050808547018918 -0.005966559244934058 0.3932782068748934 -0.18452755949706684 -0.37351653503159304 0.018767793928121963
0.03449433663999322 -0.061289723898401434 -0.07682666695535555 -0.17281310884213752 -0.04231667140606297 -0.18923837724834439 0.07801891481330127 -0.26455815184810033
-0.17514140184783 -0.1592734477411237 -0.10759902549945494 0.045201342800606115 -0.0007534485730395546 0.10034061790055636 -0.04400390923214123 0.07312150135908994
-0.005304962421780729 -0.00798347187486621 -0.03123767148941335 -0.0244381161687537 0.07740842607426676 -0.7308018587449003 0.091728627405715 -0.05695939730663652
00000000: 560e 4ccf f15b b8bf 88b6 4d7c 1eda d93f
00000010: 6cc8 a23b 2374 b1bf 5c59 7224 51d4 b83f
00000020: 504e 7c5c 4a3e debf 58b7 3793 6bdf c13f
00000030: 604c 50d5 2cb8 c03f c3aa e4c8 b0ce d23f
00000040: 6767 00cb 0485 b2bf 9b02 a019 5988 b63f
00000050: 83de 2a94 0474 99bf a1fc fb68 e708 be3f
00000060: 43a6 0f97 f413 bb3f 6042 9a4e 29a9 cdbf
00000070: 6f23 1fcd a5e8 b0bf b1c2 23ea e793 aebf
00000080: 6c0f 977c 29db c13f 6eca 8861 7534 c3bf
00000090: fead 5371 2194 ba3f 1a40 247b 3cef acbf
000000a0: c9ec 2b60 e4f0 943f 5611 33be cbac c4bf
000000b0: b845 9111 98b7 a7bf e4e4 aa07 98dc 753f
000000c0: 78cc 02bf 09b0 b03f c8c7 4f05 e0f0 b33f
000000d0: aaa7 d8e0 b20a b1bf 28ba 7959 5bbe a23f
000000e0: 7a92 0670 67dd bc3f cf58 a89f bf9d 87bf
000000f0: 8b22 ad90 8ee2 c03f 945d ebc4 b08e d03f
00000100: 1319 a725 4162 ab3f 4ec3 13f9 4b79 a8bf
00000110: 2cda 61d3 7a0e bc3f b8b8 1e77 d954 b9bf
00000120: 3638 b113 64c9 893f cf5c 060f 36dd 77bf
00000130: 39be 8938 c104 9e3f 846e 2a6b 9a9c 913f
00000140: 08c1 9206 3746 b2bf c22a 2ae0 3aa5 abbf
00000150: b84b 39df 5303 b03f 2116 e8c1 9ca2 b3bf
00000160: 7a35 6fa5 e216 ba3f 0bea a7ff 8475 b4bf
00000170: aea4 82e0 96d2 a7bf 5514 3113 caf8 ae3f
00000180: a224 be24 d12f b43f cadf c508 9e06 b63f
00000190: 0bf6 5e99 c619 bdbf 81c2 d8bf db99 773f
000001a0: 5cfb dec0 a82f babf bbe9 2569 0ffb bc3f
000001b0: 8a71 926c fbcb b33f 86c5 e678 91f2 91bf
000001c0: 2688 e8ed 521f b93f 4e3c 7c8b 22a5 81bf
000001d0: 0a34 4805 95fa c2bf 3f12 0469 031f bdbf
000001e0: 78fd b570 9708 b53f 7d65 7a7c 5307 b3bf
000001f0: ec69 80ae bfcf c23f f1d1 f791 76f8 b0bf
00000200: 7ec5 e7f3 f869 4bbf 6b5d f784 7733 d6bf
00000210: a74b 9ce9 8f83 b33f 559f cecd f774 a93f
00000220: 304d 3767 d5c6 d13f 1ac4 6e4f b13a a6bf
00000230: 5191 8754 1d35 8d3f 50d0 6b06 36c4 d4bf
00000240: fc74 7469 2388 8dbf 8d18 a206 8bf9 b23f
00000250: efa6 f7fa ed4d 9b3f c3b5 d10a 0705 c1bf
00000260: d096 5ae6 3017 e93f 16a7 9720 4cad c9bf
00000270: dc5d 3e38 67e3 98bf 29db a5b6 333e cf3f
00000280: a8da c9db 2988 773f a16d 9e8c b951 73bf
00000290: 938f 1d0f ed1d ae3f 1b3d aa23 6ab9 7b3f
000002a0: 12c8 bfd5 d0f9 dd3f 0dac 8453 3f9c ccbf
000002b0: 78b9 c5f6 00be c6bf 4d88 f1e0 38bd dabf
000002c0: e5a5 08d8 f3bf b63f c7c7 9f80 5069 bd3f
000002d0: 5231 ac5e 6bba b03f 1ff0 4073 aaaa a0bf
000002e0: 31c8 7a18 6736 953f 9912 1c21 89a1 cebf
000002f0: a9fc 7147 a45e d6bf 101b 252b e298 b33f
00000300: c196 a124 756b bb3f 569c f87c b6d0 c23f
00000310: 2a68 9d05 6d32 b1bf 2375 17c5 6642 aa3f
00000320: 57ee 81b0 983f adbf 0af9 a861 4033 af3f
00000330: 402c 88cc 51b9 ba3f c4b6 b735 cebd b83f
00000340: eb5d 5b29 f30a a2bf 1c8d 69c1 3185 c0bf
00000350: 5c2f 2884 46fb b13f 43a2 43e0 4f0c a6bf
00000360: 220c 9ab5 070a af3f 90e5 62c1 844c cbbf
00000370: 158b 62cd cdf1 953f 4c7b e8c2 0595 c3bf
00000380: 9d0b a132 8a3f c93f d31f e40b cc96 b2bf
00000390: 38aa 2ca4 ec3c b13f f39d 4477 7352 8abf
000003a0: 3f64 f733 745e b7bf 2f4b 2e7d 2f3f c53f
000003b0: b1d8 c954 6c04 993f b6a1 043b 25c0 c23f
000003c0: 639c 96e9 746e e6bf f1c5 2bea 0fc6 d2bf
000003d0: f70b 7bf0 a068 e4bf 0087 40a9 4946 b0bf
000003e0: f4a7 262c 3f58 aebf 9bba 7804 b610 c23f
000003f0: 2233 a2ed eed1 c9bf eb36 cf0d e7c5 8c3f
00000400: 0fc3 4c67 c2e5 a63f f773 01d3 1c07 dc3f
00000410: 4d2a 30e3 9936 abbf a5ea 6c47 684b d5bf
00000420: 2265 4b81 d356 823f f104 9e5a bbaf 993f
00000430: 22c2 9dfa 69c6 bb3f 90d2 a4ee 7088 a9bf
00000440: a092 2bb2 96cd 803f 1623 56cb 21fe b63f
00000450: 38c7 a421 7083 a8bf f783 5c00 ac49 a7bf
00000460: 3aee 4911 3526 a0bf 0e03 ad25 ec58 a43f
00000470: ae61 e6f1 901d a9bf 510e 8a09 a04e 3c3f
00000480: e914 e83a c0af ce3f bf51 0d9b 43dc c6bf
00000490: c3fa 5dde 3484 993f ae07 d271 7bcf b0bf
000004a0: b87a aedd 67fe c93f 77db ecbd bcdf b93f
000004b0: 9d90 4802 cc6d c63f 3b2d 2c0d 5b95 d83f
000004c0: d3a5 a680 b17c 76bf 8213 1c12 fa38 ba3f
000004d0: 99bf 88d7 2708 c5bf a59b ec03 63b9 7b3f
000004e0: eb3f 95a6 7a10 ddbf 7eb5 1d85 30cc c93f
000004f0: db29 1b76 6fe6 da3f 9779 a2f1 aa04 86bf
00000500: db6a 4f14 a9db aabf ad15 17c8 9d0d b33f
00000510: 7227 74c2 4498 b43f c857 d2ac cd34 c93f
00000520: 3b50 9ded 1b67 a63f 1162 2455 089c cb3f
00000530: eec3 05ff 7f7e b4bf 2f23 7262 2f2b d33f
00000540: b8cc 915a 82a6 c83f fad7 a75a efe9 c63f
00000550: 9c03 459d 127b be3f 3eab 8da0 364b 7ebf
00000560: 4ada 5402 5cdf c1bf 4c41 75f0 fdde a5bf
00000570: daa0 2388 fcc4 7dbf 46f2 c4a7 ce9a b03f
00000580: 17fd aeec 4f68 acbf 04f1 89e7 a506 4bbf
00000590: c216 2180 e274 a93f 8364 a2ac ab32 913f
000005a0: 3975 ab22 0615 afbf 8e23 e032 fde4 cb3f
000005b0: 343c d1e8 fa7a 9dbf 1045 2f96 f834 c23f
000005c0: 76d1 3bf8 f340 cabf 61c2 036c 0aca b53f
000005d0: 3383 1ad7 1c57 b1bf 9ee6 2c70 1f94 953f
000005e0: bc72 5bae 21d0 b43f e296 174f 8a48 c4bf
000005f0: 2288 b361 f106 9cbf 9c88 a7b7 7ab8 c1bf
00000600: 410e 1972 88de e53f 02d2 ff2b 009a d23f
00000610: 3230 d6a1 f3bc e33f 28d1 0c54 47c7 b03f
00000620: b634 52f2 da74 a13f adcd 921d c3f4 c0bf
00000630: 0306 d247 4dcb c83f 0865 1fc5 faea 8ebf
00000640: 112d 14d9 052d a4bf b988 2db0 1ae1 dabf
00000650: 4223 6037 bab5 a73f 15cd 178c 8cbd d43f
00000660: 3f79 54d0 b145 7ebf 82f7 bb1a 8598 99bf
00000670: cecd 3b72 9851 bbbf 02a3 3e10 3fef b03f
00000680: b6bc dbdc ea3c a1bf 61fa 3f7b dc52 babf
00000690: 7695 bebb 9837 78bf f4cc a40f ad56 c43f
000006a0: 8eb2 6af1 8548 933f c825 bb28 8131 8bbf
000006b0: bf7f 9d6b b46d 99bf a3a5 0863 e24b 943f
000006c0: 4084 2522 a7e5 cbbf 74e4 4d05 a4b3 c43f
000006d0: a20f 7895 7bbc 97bf 18b7 788f 148e a93f
000006e0: 223b 4427 c11e c7bf c2b8 8696 93e3 b3bf
000006f0: fb47 5c37 5a71 c2bf 7443 45ba 7054 d6bf
00000700: 96b4 d0f5 faac 823f b6a1 71b0 398d b5bf
00000710: 7663 7054 d943 c33f 03e9 390d 6470 78bf
00000720: cb75 305b 782b d93f 8a13 a05c 999e c7bf
00000730: a575 9ee5 b1e7 d7bf 15b2 8e54 dd37 933f
00000740: 3d2f 88df 3da9 a13f 29f2 72df 5d61 afbf
00000750: 07b0 0896 e9aa b3bf 5c06 666d bd1e c6bf
00000760: 1d7c 87df 87aa a5bf 0902 b790 f638 c8bf
00000770: a1b0 972f 0cf9 b33f 8ffa 8450 85ee d0bf
00000780: cc56 8e90 086b c6bf 57ab 9584 1263 c4bf
00000790: 5c04 9a17 9c8b bbbf f8b5 2062 a124 a73f
000007a0: 297e 7e7d 62b0 48bf efe3 5738 ecaf b93f
000007b0: 8cad 182e ae87 a6bf 0bc2 f838 17b8 b23f
000007c0: 2d9a ba01 a8ba 75bf 2681 e374 a359 80bf
000007d0: fc06 cda5 c4fc 9fbf 04f1 e136 4e06 99bf
000007e0: c67e 6ce2 09d1 b33f 9e4a 6594 ba62 e7bf
000007f0: 1284 d0fe 867b b73f 0885 4339 c829 adbf

down_path.0.block.0.bias f8 [8]
-0.18479253098857124 -0.09108725799095349 0.16360205496154945 0.15390669354684403 -0.14519723556964012 0.08861985758460686 0.10436712931265259 -0.06571174684559607
00000000: a20b 921a 48a7 c7bf 2649 279a 7e51 b7bf
00000010: cc22 cf81 e9f0 c43f ffa7 b5eb 36b3 c33f
00000020: 0be0 1eb1 d295 c2bf de20 1a7e caaf b63f
00000030: e9dc 2cdf cdb7 ba3f ad34 aa2b 7cd2 b0bf

down_path.0.block.1.weight f8 [8]
1.2383497819515852 1.3538508189008385 0.823523814216155 0.7494552228505472 0.9923157425201524 0.7432885254619849 0.9644508289388811 0.9234165009105457
00000000: 46da 67dc 47d0 f33f 8178 ed79 5fa9 f53f
00000010: 5a23 319d 4e5a ea3f 29b4 fe84 89fb e73f
00000020: a7c2 adf1 0cc1 ef3f c13d 8b04 05c9 e73f
00000030: 0e90 1cfc c7dc ee3f eaeb ffc2 a08c ed3f

down_path.0.block.1.bias f8 [8]
-0.13625333470136752 0.041772722804448936 0.19081323821081728 0.043897825679255736 0.058736427211113995 0.001284353266649841 -0.0032710553975607683 0.15955906911010356
00000000: 52b4 41d0 bf70 c1bf e8b5 9efc 3b63 a53f
00000010: 5331 e174 916c c83f e4d9 509b c679 a63f
00000020: e846 e973 b312 ae3f 36a1 b6d1 f70a 553f
00000030: daf5 967e e6cb 6abf 2dd6 cd7b 6e6c c43f

down_path.0.block.1.running_mean f8 [8]
0.12902019511184215 -0.29047710349933875 0.20338129900461463 0.08829922599610655 -0.254117135397872 0.16037273151355852 0.21160427619432204 -0.006192293729965872
00000000: 08b3 43d7 bb83 c03f cc0d f146 2d97 d2bf
00000010: 6fe1 ebfd 6508 ca3f 0b57 ea2f c79a b63f
00000020: a9c5 7884 7443 d0bf 96ad 82fa 1787 c43f
00000030: 0264 f952 d915 cb3f f63a eb30 175d 79bf

down_path.0.block.1.running_var f8 [8]
0.3799106983071574 0.17032711151460211 0.07214347325858637 0.051647050350025266 0.11585898344305692 0.051762037100480864 0.08710630696314474 0.1365173133418611
00000000: 0c4e 28f6 7450 d83f f8e6 c95e 47cd c53f
00000010: 6ff6 43a2 fe77 b23f e15e 6070 7b71 aa3f
00000020: baf2 d530 efa8 bd3f edb3 0ac1 8d80 aa3f
00000030: 6b9a ae53 994c b63f d70e 123a 6679 c13f

down_path.0.block.3.weight f8 [8, 8, 3, 3]
-0.07302334048640927 -0.15732046750042117 -0.16004081964653635 -0.08099392589632762 -0.17861012764739165 -0.1171556341120443 0.08784587522221199 -0.06846220741265478
0.0989984357455308 -0.06711674636030744 0.09870228630585273 -0.10602476304870594 0.01033647429794091 0.10971374393311058 0.023629632907697498 -0.019921137021317568
0.016637921126072878 0.02292641115089152 0.07394551654990976 0.3925531201257238 0.16022309741690557 0.036249278760525576 0.20050811107921093 0.09088532734293527
0.010268486087006251 0.009298974394059781 0.0021338848248704336 0.012404369073087982 0.00015023680095888284 -0.018965030384477808 0.008555860112921487 0.0017473206575492305
0.023563960146946998 -0.00585311672591824 -0.021407118680060677 -0.02016386679336493 -0.022359882733564304 0.03010374155610697 -0.06459676273935631 0.046561501955623266
-0.04553171342330858 0.028626496891943767 -0.03972560482801786 0.006659293927915505 -0.006163340096835001 -0.01461403279787914 -0.04104593866081056 0.053252720293988004
0.010972300554691209 0.03918915236207881 -0.044912501865599586 -0.01944728729841032 0.014918452109095068 0.012003474591281111 0.016555964757015235 -0.03525554182446292
0.06401424162273447 -0.03346539747274977 0.050733193584324494 -0.02939214568340158 0.03087662955164928 -0.011032526154189825 0.0036088944229398295 0.005070130014843276
-0.04311164148361283 0.03705347804419466 0.019827423682398832 0.021633571572760375 0.043954483941594624 -0.016765383653537885 -0.08840577703021921 0.004381839710093023
-0.031794181413124165 -0.09724431612894588 0.13931502135545493 0.10225717748577783 -0.1405220441476003 -0.08058222081405281 0.05155201628865459 0.0508457442699303
-0.0838055585234339 -0.06290397921901107 -0.04113673431188164 -0.023916707858495524 -0.11136707929866406 -0.03941768882159613 0.15644331753528457 -0.2202057232115043
0.004620445131151914 -0.08385486407293849 0.03703384079590595 0.0748012410009019 0.03346596574608749 0.04359465242183433 0.10385804040646715 0.06555706649122364
0.010297164240756463 0.030424754882796952 -0.013324183632396286 0.14276718082542722 -0.14242497410224675 0.05128705988265446 0.14456506332021862 -0.29366849297198994
0.0702384683237177 0.004944619230877949 -0.03038146471482052 0.09773844780051681 0.11992806698371133 -0.03247031343060008 0.04677595530797103 0.12319959263202776
-0.0340454900983015 -0.051502776882815224 0.017550978160150672 0.1343000272584378 -0.005493234927181727 -0.09635997113801943 0.20366566379966775 -0.00612350202722851
-0.0964668192611247 0.41375280019247346 -0.007705645626469336 0.054123920023912815 0.07472868265353778 -0.021339644130569307 -0.0737082395493549 0.10503334158555573
0.006266604307656211 -0.07836321551618809 0.11494371532244561 0.10861635481506367 0.02749531530816969 -0.102627146230489 0.0698794122757807 0.038068303341288925
0.06314596699106967 0.05705406871500045 -0.07213964367958728 0.09521713432873186 -0.014335102136635643 0.061366535807476225 0.0323898540338148 0.01262463699571375
-0.03040408701994063 0.1264578098415699 0.00331373845181005 0.08643922111040268 0.15184764153316868 0.13132682946687024 0.2280941911197046 0.1148190070516402
0.06366064802897968 -0.006699668228949611 0.3292856972938205 -0.3384911187700054 0.23368672638383453 0.17346825465379803 0.2547007989383257 -0.5771207270337936
0.435423672656617 -0.259469767464756 -0.020536406808326416 0.09538192201724345 0.00431767164631135 0.09353101522433452 0.08874735704000515 0.1952593116171411
0.03207125198833554 0.0943228213205923 -0.06002056111705781 0.01532533729586572 0.10601129095650079 -0.08395892448644673 -0.005963289351366207 0.1607659035878919
-0.07855094030329274 0.07986986780131909 0.020349890779693444 0.04812366514482277 0.2109959913726582 -0.08470340508952251 0.10593188646937139 -0.08457877851988549
0.11765023373614505 0.044411164861095094 0.09632238097147922 -0.15355037748989528 -0.006220142103012707 0.0498658096309005 -0.055269084151997924 0.14529742513521715
0.0917695239203811 -0.03165424987680063 0.1961147444825518 -0.025573476698880514 0.032284993207743126 0.03709173976461082 -0.14109303726157113 0.17516396598805078
-0.029723034311281954 0.15241686940905416 -0.022626180385815306 0.03389309452756329 -0.03800346209294545 0.19203024970324323 0.08909721468027139 0.01915795162216893
-0.025248792259951056 0.025113504362106725 -0.06273106731945066 0.10976723338468951 0.09919884015123415 0.027590370265602356 0.07125907759246054 -0.012867145879112656
-0.016211723358020423 -0.48101809159872944 -0.22229586585281336 0.03379011857564656 0.18170616532616343 -0.1175360353113301 -0.18705277297558537 0.060584931865783204
-0.5069404082940194 -0.04906893726837545 -0.38633831941150515 0.035860894622339566 -0.11665130898294909 0.26000044643880277 0.27421783984795395 0.29086870062422554
-0.3508639872827022 0.1634391639394716 0.015209917609125647 0.0038521736790447974 0.0014325299722330609 0.0004018940585442646 0.07436432039325597 0.07523418046015137
-0.04988851588651964 0.0036544633933311816 0.10589715385952891 0.12857674996699126 -0.19042407181129334 0.06897483095924366 0.06313827555021657 -0.14385557375160876
0.10663876066925353 -0.0031009138991658003 -0.01192003099307547 0.10696243600706949 -0.02096138369323416 -0.03152993832336776 -0.04419487755656082 0.036381798872359775
00000000: 5ada 3b5b a8b1 b2bf 48ef 73bb 1323 c4bf
00000010: 8f15 34b3 377c c4bf 6a3d e696 04bc b4bf
00000020: 6e6e 7d58 b2dc c6bf cea9 0d61 e9fd bdbf
00000030: 50fb 2a39 117d b63f 1b6d d93d bd86 b1bf
00000040: a8d8 e123 f657 b93f 8ba6 a126 902e b1bf
00000050: 665c b993 8d44 b93f 533f dc59 7024 bbbf
00000060: b259 8618 4a2b 853f 2d4b 1d2e 3316 bc3f
00000070: 045e 38d2 5d32 983f 99d4 05e0 3466 94bf
00000080: 618c 70fc 8709 913f 7550 6e68 057a 973f
00000090: 4787 44e7 17ee b23f dd7e 381f 971f d93f
000000a0: 5516 bcc1 3082 c43f 0762 8ff5 438f a23f
000000b0: 437f d5f1 3faa c93f 0dc9 9fc4 4244 b73f
000000c0: 3d8e 62df a407 853f b547 4537 570b 833f
000000d0: 15f4 28b1 147b 613f 92ae f83b 7667 893f
000000e0: 53f8 254b 1cb1 233f 196f 13a5 916b 93bf
000000f0: a641 fe1a bc85 813f f06d 1b45 cba0 5c3f
00000100: ee12 c898 2621 983f 6709 ae0e 70f9 77bf
00000110: 50a1 876a bfeb 95bf a7ec c031 d6a5 94bf
00000120: 0c0c 5554 82e5 96bf 4403 e2e5 83d3 9e3f
00000130: 179c 64d7 6989 b0bf 72d8 4dc0 e8d6 a73f
00000140: 17fc 2ac8 ee4f a7bf 27be ccaf 4350 9d3f
00000150: 1aae 191b ea56 a4bf e056 289a c646 7b3f
00000160: bf87 6602 bb3e 79bf 5abe 6f47 f6ed 8dbf
00000170: 5615 5d28 f903 a5bf b4e2 2bc8 f043 ab3f
00000180: 35b0 5a40 a578 863f f794 81bf 9910 a43f
00000190: e079 637d c5fe a6bf ed35 c55b fde9 93bf
000001a0: 92f4 52bf 908d 8e3f 6a9e 7616 4795 883f
000001b0: 388d bdfc 0bf4 903f 8514 47ae 030d a2bf
000001c0: 7e75 3fc2 3c63 b03f 2dde 6267 6022 a1bf
000001d0: e159 887e b3f9 a93f acbe e081 f918 9ebf
000001e0: 2348 8a88 1f9e 9f3f 4632 3298 3898 86bf
000001f0: 8e06 ae70 6690 6d3f 2580 9aa9 6ac4 743f
00000200: 257c 7fa4 ba12 a6bf fe44 ce68 acf8 a23f
00000210: 158e 1ee1 a34d 943f 254c 9a69 1c27 963f
00000220: 805a 15be 3381 a63f 28c3 fcd9 f12a 91bf
00000230: 664c 1fd1 c2a1 b6bf 2ec4 0424 b1f2 713f
00000240: feb2 beb2 5347 a0bf b6e6 7ee5 00e5 b8bf
00000250: 9c17 481a 13d5 c13f bb2a 15c1 862d ba3f
00000260: c991 fd57 a0fc c1bf 7410 0953 09a1 b4bf
00000270: d258 01a0 0665 aa3f 346d 8f11 7408 aa3f
00000280: 13c7 14f5 4774 b5bf bbae 88a5 791a b0bf
00000290: a84a 11c1 df0f a5bf 5d26 5218 9f7d 98bf
000002a0: 3f55 708b 8d82 bcbf 50cd be28 8e2e a4bf
000002b0: fef2 3eaa 5506 c43f abef ca7d b32f ccbf
000002c0: 953d b34b e3ec 723f 96c5 cd2a 8377 b5bf
000002d0: 8a9b 207e 19f6 a23f 0791 cc93 2c26 b33f
000002e0: 2d27 d178 7322 a13f ec51 ddcc 0952 a63f
000002f0: b6f0 f8c6 7096 ba3f 1afc 9910 59c8 b03f
00000300: cda5 3efd ad16 853f c27a d7bc aa27 9f3f
00000310: fd89 93a7 b549 8bbf 922d 4bea 3146 c23f
00000320: d88e f346 fb3a c2bf 5ed8 ce29 4c42 aa3f
00000330: 8660 8da5 1b81 c23f 148a 4bef 76cb d2bf
00000340: 971a 5ff4 25fb b13f eb66 341e cf40 743f
00000350: e43e 6b95 511c 9fbf 2372 dd0c 6305 b93f
00000360: 244a 9115 9bb3 be3f b7f3 8cec f29f a0bf
00000370: aae3 929c 04f3 a73f 522e 3c2d 028a bf3f
00000380: 91d4 1815 696e a1bf 0ed1 ba6c 925e aabf
00000390: 92b6 d734 e2f8 913f 9fa4 7648 be30 c13f
000003a0: 38aa c805 1380 76bf 8169 ae0c 0cab b8bf
000003b0: e339 ab6a b711 ca3f cb5c 1a0f f514 79bf
000003c0: 232c e0a9 0cb2 b8bf 4b20 5d06 ed7a da3f
000003d0: 6530 5d7f f48f 7fbf 8938 de64 21b6 ab3f
000003e0: 8df2 1140 6b21 b33f bba6 9846 0fda 95bf
000003f0: 206a 4f0e 8bde b2bf ad7c 190f 77e3 ba3f
00000400: db06 efc8 02ab 793f 29f7 d997 9c0f b4bf
00000410: a7cd 308a f36c bd3f 65ce bd0b 48ce bb3f
00000420: d4cc 2a60 bb27 9c3f fbe3 bdcc c545 babf
00000430: b45f 63fe 9de3 b13f fae6 ba4b b07d a33f
00000440: 30d7 1987 552a b03f d625 78de 3036 ad3f
00000450: da52 5962 be77 b2bf 34f3 f56d 2660 b83f
00000460: 24b3 e4d6 b85b 8dbf 044e b940 6f6b af3f
00000470: 234b 9827 6795 a03f 1ce8 2918 f2da 893f
00000480: 305a a9bd 3f22 9fbf 3af2 cbfe c42f c03f
00000490: 0d8e e5c8 6925 6b3f d7c9 c27b e120 b63f
000004a0: 590a 2e57 be6f c33f cce3 d24a 51cf c03f
000004b0: 6323 a2c1 3032 cd3f 13f9 3e48 c764 bd3f
000004c0: 539e 5371 104c b03f 6b8b ff7e 1c71 7bbf
000004d0: 90b8 3a51 0413 d53f caa1 46a7 d6a9 d5bf
000004e0: a2f7 a957 72e9 cd3f f9ed 5030 3534 c63f
000004f0: ad21 6d94 044d d03f 3d86 0ee3 c577 e2bf
00000500: 65b8 7d40 fbdd db3f 61f5 6315 279b d0bf
00000510: f1f8 79ee 7e07 95bf 3595 b11b f36a b83f
00000520: f49b 4028 68af 713f 92d9 8c0b a6f1 b73f
00000530: b9df 1794 25b8 b63f c24a d1d2 41fe c83f
00000540: a704 dda4 a46b a03f 16a1 d658 8a25 b83f
00000550: b4b0 2bd6 03bb aebf 0326 e3f3 e362 8f3f
00000560: a337 aa53 8e23 bb3f 526a e002 557e b5bf
00000570: 4ceb d94b f66c 78bf b866 1c25 fa93 c43f
00000580: 7435 ac17 ea1b b4bf 777b 2406 5a72 b43f
00000590: 6cfa 800d 9ad6 943f cbdc eb3f aaa3 a83f
000005a0: 5f2e 44a9 ea01 cb3f 9c26 b852 1faf b5bf
000005b0: 2b52 fd23 5a1e bb3f 80b4 ad6f f4a6 b5bf
000005c0: aa74 4362 531e be3f b1b3 4f69 0fbd a63f
000005d0: 0c36 2564 95a8 b83f 5bc4 cdec 89a7 c3bf
000005e0: 90e7 8aae 4a7a 79bf 7347 1beb 0288 a93f
000005f0: ce4d d3b9 3a4c acbf c40a 9324 1b99 c23f
00000600: 42ed 0120 357e b73f 7c23 0060 fc34 a0bf
00000610: 4371 e8b6 491a c93f 964f 44f8 ee2f 9abf
00000620: 5e2a f59b a887 a03f 1643 7b42 b0fd a23f
00000630: 3aaa 5d2e 560f c2bf 5e9c add8 c56b c63f
00000640: 7828 3811 b76f 9ebf 4f3c bc5e 6582 c33f
00000650: dc71 2943 512b 97bf e1bb 1c89 6f5a a13f
00000660: 3de0 a595 3075 a3bf ecb8 287d 7294 c83f
00000670: b569 3737 13cf b63f 7fc7 b35e 249e 933f
00000680: a977 14c4 d1da 99bf cb5b b1bf 5ab7 993f
00000690: f888 94aa 240f b0bf 9f44 8f95 b419 bc3f
000006a0: b82c 405e 1865 b93f 32b3 e667 a640 9c3f
000006b0: a980 cdef 083e b23f c9fe f215 175a 8abf
000006c0: 96b9 8956 ce99 90bf 24db 0c1b 00c9 debf
000006d0: e0d9 efe0 3074 ccbf d7b4 6b3c f04c a13f
000006e0: 3b5a c7ca 2542 c73f 7b7f c373 d716 bebf
000006f0: 4233 4763 58f1 c7bf 04e4 fcf9 fc04 af3f
00000700: 3299 5417 db38 e0bf 3d61 a251 901f a9bf
00000710: d918 c45b c4b9 d8bf a36c 37f3 5b5c a23f
00000720: 220b 1e35 dcdc bdbf 8b9a 99e9 d8a3 d03f
00000730: 4f1c 88fb c88c d13f aa1b 27c1 979d d23f
00000740: a04b ae39 8e74 d6bf eeb7 0014 93eb c43f
00000750: 1bfd a595 6026 8f3f 2a51 0aff 978e 6f3f
00000760: 85e7 6658 7778 573f dde5 80d6 a956 3a3f
00000770: 7c0b 1444 8a09 b33f 6622 9e18 8c42 b33f
00000780: 9d6e 5bd0 fc8a a9bf dbfa 4718 f7ef 6d3f
00000790: a8ef 906c 131c bb3f 5a2d 11f4 3375 c03f
000007a0: 0a7c 66e4 d05f c8bf 8b92 37a3 55a8 b13f
000007b0: 3130 9d7c d429 b03f 1124 4e04 dc69 c2bf
000007c0: 5b77 8f85 ad4c bb3f 2eae 1b79 1667 69bf
000007d0: bab1 427a 8769 88bf eb04 8de4 e361 bb3f
000007e0: d7f0 c3a5 e676 95bf b834 e32b b124 a0bf
000007f0: 8026 8303 b6a0 a6bf 7a22 a798 a2a0 a23f

down_path.0.block.3.bias f8 [8]
-0.21837799623687668 0.09878919053822281 -0.1431126073015235 0.21957465720155445 0.09673301125364137 0.14149765701965172 -0.16364786867173112 0.07984087091933209
00000000: 4b6f 0068 cff3 cbbf d35a 8f96 3f4a b93f
00000010: cbae 0090 8351 c2bf e804 dbb9 051b cc3f
00000020: 542a c79f 7ec3 b83f 6e15 ae60 981c c23f
00000030: 01aa 00d2 69f2 c4bf 7e91 7b89 7370 b43f

down_path.0.block.4.weight f8 [8]
0.6682348373124775 1.0243382895650568 1.018801571159357 0.357024477743095 1.0272940330812488 1.1831018801400282 0.7140375976014925 0.9186502593424054
00000000: 53c2 8906 2e62 e53f 598f db8b b063 f03f
00000010: bce2 53e0 024d f03f f2cb f131 7dd9 d63f
00000020: c65b 37de cb6f f03f bc99 b03c fced f23f
00000030: 9c02 3a60 65d9 e63f 35cd 8a3a 9565 ed3f

down_path.0.block.4.bias f8 [8]
-0.41318362824247895 0.48376933164766 -0.3017728637802972 0.2642906548510014 0.46855333827279455 0.2935245049349841 -0.9478955604341489 0.06744965381686674
00000000: 07d2 a2be 9971 dabf ae01 8fa4 13f6 de3f
00000010: c86c 3021 3f50 d3bf 694d ce59 23ea d03f
00000020: be0c 1424 c7fc dd3f 5f4d 5101 1bc9 d23f
00000030: 09d3 0212 2955 eebf 601c 4569 6144 b13f

down_path.0.block.4.running_mean f8 [8]
-0.034867373272906656 0.07706019914207354 0.5298220653711397 -0.5719052259482816 0.1015241051885481 0.21107588088499446 0.42174016149927673 0.3518687992250656
00000000: 4d22 cfe7 22da a1bf aa71 239b 37ba b33f
00000010: a7fb 6e67 4df4 e03f e17f 3b30 0c4d e2bf
00000020: c45c 8ad7 7bfd b93f 820e b0d2 8804 cb3f
00000030: 4e25 4372 cafd da3f 75e2 49b6 0485 d63f

down_path.0.block.4.running_var f8 [8]
0.35550347058814885 0.9992749719957374 3.036379452637827 0.976624266313212 1.6455138381711991 0.8183814139298964 0.8135918981672852 1.6205494569421615
00000000: 2599 f2a0 91c0 d63f 34db 8d81 0ffa ef3f
00000010: 569b 7a4f 814a 0840 9b72 8988 8140 ef3f
00000020: c7f8 8051 0654 fa3f ea75 0f38 2e30 ea3f
00000030: e068 5de0 f108 ea3f d2df 7144 c5ed f93f

down_path.1.weight f8 [16, 8, 3, 3]
-0.07536427956921009 -0.1470687991082335 -0.15981218912191014 0.08332001566715032 0.13659390419774967 0.0150124873523541 -0.030401184699624956 -0.0009286283598169668
0.012902798208099048 0.09431528550051442 0.060585208322539344 0.13356403644867695 -0.05618043667723781 -0.0636454749619872 0.13235115252782173 -0.006725553209301408
-0.12380060943162548 -0.048643510620528366 -0.11392029324176117 0.0504306437198837 -0.1896441727730257 -0.16350348225847777 -0.015123442016266999 -0.12062660048227122
0.08379081531185326 0.24419561858395217 0.09971564078307595 -0.010318098126696361 0.13248667323760255 -0.31089641072137086 -0.031306654732941884 0.13936977050465216
0.33863547933343996 -0.4533242583919912 -0.2573383681863803 0.4330602648343631 -0.0055401106533178885 -0.09898142724991714 0.016737588189222018 0.14076812729332677
-0.02811385413449798 0.11108261835513883 0.008986155367515892 -0.21011665135025523 -0.13562006426076662 -0.032143443634284126 0.04167820916042306 -0.14464288495372937
-0.052057342196855524 0.2417939198093752 -0.028083915446101313 -0.10807702463589583 0.2867540848922709 0.05290325668503992 -0.002762374832140727 -0.18698264586865668
-0.11339755359562069 0.17894695899661267 0.004595136279165342 -0.03250963663982892 0.014080319865548504 0.07923755283725054 0.024162271306810038 0.05120055595325668
0.03260588897382625 0.14901371017540488 0.045369444676882906 -0.21565161046054843 -0.04799196127260448 0.14238020157686004 -0.14034329141715662 -0.072259165285216
0.13889260533166953 -0.02884134972399321 0.02564426650063014 -0.09965977364361851 -0.05270289364852851 0.02730425266164174 0.07489601037692083 0.1400236642283685
0.28783377570926355 -0.1366832517169703 0.060047116263542616 -0.0715668839742926 0.006922981196089562 -0.06485234192071153 -0.13541890526176684 -0.04045441219496884
0.08058881814887607 -0.02875281536700502 0.09574321728599731 0.04435729475642314 -0.02856622416878668 0.08167547014127786 0.17875752742091597 0.16501136190587073
-0.06639604942822698 -0.053227873822875735 -0.17412400621615473 0.2440721928375098 -0.09732229196802539 0.35356954900921206 -0.35445779496077867 -0.6337518186294919
0.49183104674066175 -0.44931749317446096 0.15311749717576978 0.21409188432742968 -0.11509417645528155 0.014119587013468307 0.03978210790001961 0.03278556270187891
-0.03749474449163507 -0.09619909240179765 -0.04483523644425689 0.05898944809028498 0.22301719259751884 0.07760815939533752 -0.07106430242088413 0.06184481653620313
-0.26246635350828984 0.05597892170211147 0.1763292058318725 0.04679706826357388 0.14965813594429953 -0.07957040096695647 0.2747475875581106 0.14710010557851466
0.015334335073612284 0.11352844141712377 -0.043185087060712474 -0.15533976719495693 0.07942971473584834 -0.039757232301389174 -0.27774187739982714 -0.07056897460074506
0.023663858357707065 -0.01762718102602986 0.23321520944612606 -0.004907808861992436 -0.12728252408242086 -0.062142815061219436 -0.15272732260454613 -0.15552745518308303
0.0031418970289669784 -0.01728483024679207 0.03346915939541913 -0.026397490507608187 0.12775655343287703 -0.04571996884925025 -0.018989336151501945 0.11675496257428364
-0.1631368266391666 -0.03425708335241338 0.21290118090638557 -0.1742995503073312 -0.2020808625955967 0.2938832499000789 -0.1613288756999859 -0.11578605474909788
0.13028974967520368 -0.16539924293729288 0.20189764720991782 -0.05188949911893255 -0.024752496426995632 0.11929349703888499 -0.03093833798304241 0.1344966622448531
0.15148437081603483 0.10653814434815828 0.17847201489567371 0.07427691046899547 -0.32318315889604654 -0.2818242891260839 0.2993708344503036 -0.04138609634324966
0.0026264854127534573 -0.14863883253552362 0.050982819881083316 0.25562314417977366 -0.03673367390410618 -0.026444804389868997 0.04420669471599053 -0.017401924737508342
0.048852630949716834 0.033907041082102296 0.0428036645282761 -0.10045581682122963 -0.12373686989909417 0.01844220813453079 -0.11562973651356641 0.08187758566455156
-0.020508628370944377 -0.010873184329988477 -0.04003406126075086 -0.045215450034252334 0.11740719097777812 -0.1360188953987897 0.06377260188459204 -0.08779051514502537
0.16953947535923292 -0.015735301671505934 -0.18210976186614808 0.18964498188422044 -0.17243463623978778 -0.3189244340711064 -0.1961676514393555 0.02541909877355669
-0.09712389168884203 -0.05644648883607859 0.10670963060103106 -0.15188831129504282 0.2599684424932166 0.09653467570690905 -0.264146412805374 0.17618676526039265
0.08360777915341502 0.044519191342 0.09422036672555628 -0.07957396371362521 0.0039405185669793485 -0.07953588476496586 0.07141064751002553 0.007889913744932052
0.07676824524989596 0.20358350457239327 -0.03008222591722906 0.044242000774404676 0.07171854242021977 -0.26944658267746635 -0.025201626843790906 -0.10933874261380873
-0.24069457272626316 -0.02778385670386453 -0.05158846777075535 0.011817869648903634 0.012836526024765251 -0.01840858590459136 -0.0017103257267212868 0.10938164931216884
0.09286266645880205 0.0973081228711196 0.07247961710836098 -0.026597190530827843 0.2954458212923284 -0.303645737927405 0.16261407195151514 0.0673492968206468
-0.4119199467211329 -0.2590580993412377 0.17333515846122935 0.02284398820879309 0.05263093563546469 0.06383541450771407 -0.01811038610674789 -0.15208985422755877
00000000: c74e 09cc 124b b3bf 1647 3781 26d3 c2bf
00000010: 4ef0 e3ce b974 c4bf a182 64e6 7554 b53f
00000020: 955f aeb7 e87b c13f 1b07 aef1 ddbe 8e3f
00000030: 259d 2df8 7c21 9fbf ef2a c037 e66d 4ebf
00000040: ca37 a542 c86c 8a3f 2bd4 bcea 0b25 b83f
00000050: 02ba bb40 0605 af3f 4702 3c58 a018 c13f
00000060: fe4f 68a4 aec3 acbf fd07 80e1 114b b0bf
00000070: 8df2 d8ef e1f0 c03f 44a6 4df1 408c 7bbf
00000080: cdd3 bb90 65b1 bfbf 8a3b 8e5e cde7 a8bf
00000090: d4f7 d25d e129 bdbf 4f7b fc9a 0bd2 a93f
000000a0: 84f3 f79f 4246 c8bf 1888 8a9e aeed c4bf
000000b0: ae0d e706 0af9 8ebf e658 1988 62e1 bebf
000000c0: c636 789b 5073 b53f 1681 d251 cd41 cf3f
000000d0: 7120 10d8 f686 b93f f9b0 16b0 a721 85bf
000000e0: 3c0d 5bc4 52f5 c03f 1a7e 1f0f bae5 d3bf
000000f0: bb46 7304 6d07 a0bf 382b 2f5f ded6 c13f
00000100: 7627 4025 34ac d53f 48bb 11c0 4303 ddbf
00000110: e774 d758 3b78 d0bf b848 aa66 42b7 db3f
00000120: c2d1 2721 3ab1 76bf eb25 f3c8 d856 b9bf
00000130: 46e7 8b87 a823 913f e8a1 85a3 b004 c23f
00000140: 65ea 49d0 e0c9 9cbf 6447 fd14 e96f bc3f
00000150: faae 5c5b 5567 823f 0f7b f238 1ae5 cabf
00000160: 7a38 578e ff5b c1bf d150 61fe 1a75 a0bf
00000170: dc87 99a2 d856 a53f 89d8 3c76 a883 c2bf
00000180: 1e1d 818c 42a7 aabf 0ef9 f968 1af3 ce3f
00000190: 99dd 89a9 07c2 9cbf c699 4296 efaa bbbf
000001a0: 5bd4 26ce 2d5a d23f f0d6 a0ba 2216 ab3f
000001b0: 3bdd 06b2 1ea1 66bf 7d74 761e 0cef c7bf
000001c0: b3bc 2340 9f07 bdbf 22f7 4de4 bbe7 c63f
000001d0: af85 a280 59d2 723f 7887 5864 1aa5 a0bf
000001e0: d1ce b78a 24d6 8c3f 7812 0d8a e948 b43f
000001f0: a143 3d94 febd 983f 2067 b692 f536 aa3f
00000200: f563 9915 b8b1 a03f 44f3 ed99 e112 c33f
00000210: 06f2 3ff2 a93a a73f 2aff 20d3 789a cbbf
00000220: 1a02 4600 6792 a8bf 986c afb2 8339 c23f
00000230: 7cc2 6cdb c4f6 c1bf 9e7b bc9f 937f b2bf
00000240: 0223 c79e 3bc7 c13f 7f23 5937 9688 9dbf
00000250: e6ea cc97 7d42 9a3f c5ae 868c 4d83 b9bf
00000260: 7cff 3fa9 dffb aabf e7d5 e460 a5f5 9b3f
00000270: d774 2b8b 622c b33f 5f72 43a1 4bec c13f
00000280: 49c0 565b de6b d23f 7985 0438 d67e c1bf
00000290: 6c5d 24e1 7ebe ae3f 3b6e 2512 3552 b2bf
000002a0: e799 3f9d 455b 7c3f c753 9ebf 299a b0bf
000002b0: 2d01 ae1c 6855 c1bf 446c b6d2 70b6 a4bf
000002c0: 2f6a 5f02 78a1 b43f 1f46 adc6 6071 9dbf
000002d0: 5fa3 0ea3 a082 b83f d0bf a2d4 ffb5 a63f
000002e0: 70f2 4cda 7640 9dbf 1168 2401 afe8 b43f
000002f0: 63e4 17d3 86e1 c63f 4c54 6da1 171f c53f
00000300: c1b9 e0dc 54ff b0bf 5e17 9c12 af40 abbf
00000310: 23cd 1208 b249 c6bf 68d0 0cf3 c13d cf3f
00000320: 9ca7 2c1d 1dea b8bf 47c9 762c e2a0 d63f
00000330: eacd 4abf 6faf d6bf 046a d9e4 b147 e4bf
00000340: 5526 3aed 287a df3f ef1e ad28 9ec1 dcbf
00000350: de5b 68a9 5a99 c33f dd3d c3e4 5c67 cb3f
00000360: 82e2 d5db cf76 bdbf 95a0 a5e3 baea 8c3f
00000370: a605 cb08 525e a43f 3dca 2bef 44c9 a03f
00000380: f515 bada 8232 a3bf 3d46 c5f3 80a0 b8bf
00000390: ed17 79e4 a4f4 a6bf d5b6 b66c dd33 ae3f
000003a0: 4077 53ce d38b cc3f 8277 81da 20de b33f
000003b0: 608d cf26 4531 b2bf 2375 e6b0 1faa af3f
000003c0: 2c95 27ad 3fcc d0bf ecaa f3eb 44a9 ac3f
000003d0: 6453 3096 f491 c63f e040 7b0b c9f5 a73f
000003e0: f304 bb6f ff27 c33f a2f7 e1cd b95e b4bf
000003f0: 06e3 cde7 7695 d13f ba53 591f 2dd4 c23f
00000400: 4e33 2d9d 9b67 8f3f fd69 0d2f 3310 bd3f
00000410: 648b 3311 5b1c a6bf 9d6f ef69 2ce2 c3bf
00000420: f6fe 1e7b 8155 b43f 5123 0759 0f5b a4bf
00000430: 8e5c 0ade 85c6 d1bf 97bf 05ee ce10 b2bf
00000440: 6f5f f9a6 563b 983f 1721 1c18 dc0c 92bf
00000450: 8c1d c0f8 fed9 cd3f c19a eae8 351a 74bf
00000460: 76a6 2433 cb4a c0bf b016 bddc 2ed1 afbf
00000470: bc65 e5a3 918c c3bf f21a d2da 52e8 c3bf
00000480: 4ef8 931f 09bd 693f c3ed 8152 1db3 91bf
00000490: ab4d 0ea2 de22 a13f 1ce3 b499 f107 9bbf
000004a0: 5f04 6ca5 535a c03f 449d f695 9b68 a7bf
000004b0: 504b f9c6 f071 93bf 00fa e639 a7e3 bd3f
000004c0: df1e 98e3 aae1 c4bf 1d57 4ff9 248a a1bf
000004d0: 05e8 a28c 5840 cb3f ef84 239a 724f c6bf
000004e0: 6e6e ff23 c9dd c9bf 276f cab0 fbce d23f
000004f0: ed14 84b2 6ca6 c4bf 11f1 7aa6 27a4 bdbf
00000500: 94f4 eda2 55ad c03f 5373 9969 cd2b c5bf
00000510: eef5 f337 c8d7 c93f 4a7a 71ab 4291 aabf
00000520: c4dc 97ea b758 99bf dd50 68c4 048a be3f
00000530: 11ad 51b7 4cae 9fbf 7fa3 e1c6 2f37 c13f
00000540: e447 4101 d763 c33f 5c7a c075 1546 bb3f
00000550: ce33 9dc5 2bd8 c63f fbef 4fc5 cf03 b33f
00000560: 3ce5 846a 08af d4bf 6af5 40be 6809 d2bf
00000570: 37c7 d549 e428 d33f 5452 9bf4 8e30 a5bf
00000580: 0735 709e 2384 653f ceed 53e6 9806 c3bf
00000590: fe1e 1890 6b1a aa3f 9d94 162d 215c d03f
000005a0: 3dfe 2890 c1ce a2bf ebb0 03c8 5814 9bbf
000005b0: 078d 2388 42a2 a63f ff4a 8a66 cfd1 91bf
000005c0: a353 8148 3603 a93f 0080 1a81 435c a13f
000005d0: 7f86 98a6 5cea a53f 89ad f0ef 78b7 b9bf
000005e0: 01a9 8631 38ad bfbf 8020 37a3 83e2 923f
000005f0: 6557 c510 e999 bdbf 6466 b4f0 edf5 b43f
00000600: 455c 8ec0 3600 95bf 6931 ce18 ae44 86bf
00000610: a695 ae2f 587f a4bf 0392 57be 7a26 a7bf
00000620: a395 90cd 650e be3f be1b b031 1169 c1bf
00000630: 7ba3 79b7 6653 b03f 8266 726f 7079 b6bf
00000640: 7642 0633 78b3 c53f 1e89 4938 ea1c 90bf
00000650: 92ac bf67 5f4f c7bf dd88 8569 4946 c83f
00000660: 5a7c ac91 5612 c6bf f4c3 8e07 4269 d4bf
00000670: 568a bb87 051c c9bf ef72 b4d7 7607 9a3f
00000680: 16bd 7682 1cdd b8bf 0dcb 0cdf 8de6 acbf
00000690: ec83 9985 5251 bb3f 8614 d480 1371 c3bf
000006a0: ea06 a0ad 52a3 d03f f454 171b 7fb6 b83f
000006b0: feb4 165b c6e7 d0bf 6b05 64b5 498d c63f
000006c0: 2ab5 27c5 5167 b53f 606d b72d 38cb a63f
000006d0: 6c11 b471 d31e b83f 3e5b c393 f55e b4bf
000006e0: b7c6 fde5 ee23 703f 2f88 ecb7 765c b4bf
000006f0: 4d49 a4db f747 b23f ac9e 054c 9628 803f
00000700: 6538 b86e 15a7 b33f 105e 1237 060f ca3f
00000710: f882 0502 e0cd 9ebf c310 df34 e3a6 a63f
00000720: 8e2d 367a 255c b23f 6c98 27e1 9c3e d1bf
00000730: c17a 668c 74ce 99bf 394a b6b3 9ffd bbbf
00000740: 1c8d 176b 14cf cebf e371 990f 5f73 9cbf
00000750: 942f dabb cd69 aabf c015 349d f733 883f
00000760: 3bd4 c35b 094a 8a3f da0b b449 b3d9 92bf
00000770: a420 f443 a005 5cbf de0b 948e 6f00 bc3f
00000780: b9bc 7503 d9c5 b73f 0bda 5d65 2fe9 b83f
00000790: 2c65 1b31 068e b23f 9746 fb3d 4b3c 9bbf
000007a0: b12f 0c97 95e8 d23f 92f3 7d88 ee6e d3bf
000007b0: d558 73b4 89d0 c43f 9ed6 40b3 cd3d b13f
000007c0: 6330 ef7a e55c dabf 6ccf 1b6c 6894 d0bf
000007d0: 3342 6bb2 d82f c63f 2462 1119 6a64 973f
000007e0: ebd8 9f26 71f2 aa3f e421 a389 8457 b03f
000007f0: 6787 2f70 878b 92bf 96fa fa2a ae77 c3bf
