results/run_1/NLModule_3layer_data[9, 10].pt (torch_old, 337632 bytes, 75 tensors)

down_path.0.block.0.weight f8 [8, 4, 3, 3]
0	0xbfa21e0bb5f06cab	-0.03538548084198941
1	0xbfc6b74bc2d0de16	-0.17746874821180886
2	0xbfc1ef3866ca7fd0	-0.14011292475788517
3	0x3fbb13d1139e5653	0.10577112893073463
4	0xbfe386ca8d857976	-0.6102040065850776
5	0x3f98558d5404be12	0.023763855221828285
6	0xbf947720eac5948b	-0.01998568947728478
7	0x3fc4e6074490c411	0.163269909362072
8	0xbfc0c9b376585721	-0.13115542677467665
9	0x3fd0f79dc035ce76	0.26511329432035013
10	0xbfeb1bafce1ced67	-0.8471297288555605
11	0x3fb7e80e60a52625	0.09338464602947079
12	0xbfc812b5d531e977	-0.18807099256430224
13	0xbff53c355af916f5	-1.3271993211396282
14	0x3fd0de7878cd3ff6	0.26357852742239574
15	0x3fa954e437ab1df1	0.04947579555078708
16	0x3fc094882d0f6fa3	0.1295328350087149
17	0x3f87685d4848c9ad	0.011429528015558821
18	0xbfb7c12b8a94aae6	-0.09279129155462904
19	0xbfaa50bb39217703	-0.05139718124767791
20	0xbfc069082516dbf4	-0.12820531664848966
21	0x3fc1b0fce18d71ff	0.13821373952204394
22	0xbff00174319428db	-1.0003549515409336
23	0x3fc511a903ff0d8c	0.1646014470589815
24	0x3f22c821d5505b64	0.0001432935047495878
25	0xbf5073f16312f52c	-0.001004205445766469
26	0x3f8ec3e89feb3857	0.015022103672347393
27	0xbfa29e22ffda527f	-0.03636273740008721
28	0xbfc9c4a21e93965a	-0.2013132714557056
29	0x3fb4d7981508d6e7	0.08141470445192632
30	0xbf7b26f42e41a086	-0.006628946142974828
31	0xbf9ead54bf74f76d	-0.029958080468751747
32	0x3facc702a282f343	0.05620582803519494
33	0x3fa50cb2c688f332	0.04111250566027137
34	0xbfa5262c827cf1f0	-0.041306868485182835
35	0x3fa429e6a05e1b14	0.039382178379176264
36	0x3fc2320035f9c202	0.1421509040406051
37	0xbfa753672f040eac	-0.04555818985866486
38	0x3fb669e71a6c08eb	0.08755344767635946
39	0xbf9296b43c5bb270	-0.018153015312167786
40	0xbf92a9dbdeb8f26f	-0.01822608515634488
41	0x3fb4c4d342c8b188	0.08112831478564975
42	0x3fc2b2a4d200c540	0.1460767770200082
43	0x3fc559e9defa5b3b	0.1668064440497917
44	0xbfd3629e5b5bca4d	-0.3028942005322833
45	0xbfb0283a8a183f20	-0.06311384078457793
46	0xbf858c98d98c7edf	-0.010522073878348191
47	0xbf82e0ecbff40e8b	-0.009218072517348538
48	0xbfd6d27b3b60fc9a	-0.35659676359859704
49	0xbfd6897cbaf2487b	-0.35214155441747835
50	0x3fa06d2dc00c2197	0.03208296746567212
51	0xbfe1228a4d826928	-0.5354663385253717
52	0xbfc76b7b515e994f	-0.18296758149262835
53	0xbfc5036f558384bf	-0.1641673247859554
54	0xbfc1e653bbc1cabc	-0.1398415247709489
55	0x3fbf2e7da17cd173	0.12180314247672701
56	0xbfab8fc9984ffd32	-0.0538313864162724
57	0x3fc0c8cff4f48c4c	0.1311283060141214
58	0xbfd8a63a7ca6650a	-0.3851457803044275
59	0x3f604b9cbb769423	0.0019891797234827964
60	0x3fea186dd249f092	0.8154820544437078
61	0x3fec2bb096c5e537	0.8803332276139945
62	0xbfc7c54bab9d1b87	-0.18570848350119837
63	0x3fa5043b489c14cd	0.04104790936802658
64	0xbfa3450aefc10d6c	-0.037636129156932124
65	0x3fb26a1ec9f261fb	0.07193176679937345
66	0xbfa4f64a40c1cab6	-0.04094154396525111
67	0x3fd1250a63184134	0.267885777256214
68	0x3fd1127f7c990ace	0.26675402801280945
69	0x3faae05e8cb5f6de	0.052493052174197294
70	0x3fd8d1bcf5011786	0.38780139852712414
71	0x3fc06bc0b297fe9d	0.12828835220715443
72	0x3fb7f29418ad5e75	0.09354520418616537
73	0x3fd3881cff9b444e	0.30518269502232875
74	0xbfca4fee256108e8	-0.20556427788876097
75	0x3fb87bdb326d0751	0.09563989621258641
76	0xc0023e3ce449ea90	-2.280389579301591
77	0x3fc0de0a14139c63	0.13177610378554325
78	0x3faad232898476f3	0.05238492897681892
79	0x3fe0626ae5ca379e	0.5120138633808329
80	0x3f9fa42afcd8b054	0.030899688417932517
81	0xbfc287642dd74fbd	-0.1447568153222373
82	0x3fb9707067c9b2f1	0.0993719342602153
83	0xbfaec553b1e2f0d2	-0.060099235024127076
84	0x3fe1537487f386a7	0.5414374022768315
85	0x3fe77f849417a01c	0.7343161480357625
86	0xbfe0a52e95d43230	-0.520163815149834
87	0xbf8458e2a2bc7861	-0.009935160247149523
88	0x3fb508753a5e5293	0.08216030764590192
89	0xbfa170657c314251	-0.034060641679961486
90	0xbfada86adb3433d9	-0.05792554784611754
91	0x3fd72177572753d5	0.3614176131352996
92	0xbfc34330dacddbad	-0.1504880016688878
93	0x3fa9a2d8b069b0ce	0.050070544752857424
94	0x3fa242408739c64d	0.03566171313003661
95	0xbf85b3a5cedc814e	-0.010596557021529531
96	0x3fc6e2096c4816e3	0.17877309596240484
97	0x3fc5371ccac30ef3	0.1657443990753716
98	0x3f967c99f0f3da96	0.021959691363884724
99	0x3f91073e5cabcdd1	0.016629194647021898
100	0xbf994145a2be8001	-0.024663055475343757
101	0x3fb56d18c883ea5f	0.0836959352053923
102	0x3fa3bdf907e493d0	0.038558752263533
103	0xbfc1eaab552551d5	-0.13997403771885666
104	0x3f189d9d499f0e2c	9.390137202474534e-05
105	0xbf80ddf6b75e32be	-0.008235862227388476
106	0x3fc4f7445361cf35	0.16379598685636557
107	0xbfb3ecac73ce25ff	-0.07783010318066629
108	0xbfb5c3e891e22d4c	-0.08502057611092545
109	0x3fc5be17504509e5	0.16986361903589323
110	0x3fd1412faf1fbc55	0.26960365392637203
111	0x3fd10b2fffece23a	0.26630783074100217
112	0xbfe0eab9520c2d15	-0.5286528208247626
113	0x3fae7a581ab2e7b0	0.05952716184533757
114	0x3faab476d99a86a1	0.052158083022061826
115	0x3fbe60591affc425	0.11865765484959974
116	0xbfa09d6dbeff0418	-0.0324510856294255
117	0x3fb5d639ed6d8f7e	0.08530008360463445
118	0xbf9f977fbb5880eb	-0.03085136013953697
119	0xbfa71d106162f5ad	-0.04514361561585232
120	0xbfa08bbf7a59295c	-0.032316192326635046
121	0xbff1ecd6e04a249f	-1.1203221093476612
122	0xbf8f649396d5e72d	-0.015328553238521525
123	0x3fd142e9b5a10390	0.2697090409965819
124	0xbf8d72cd4cb37ba6	-0.014379123595458964
125	0xbfc0e98178102bbf	-0.1321260296102462
126	0x3f6113e9cdc62c56	0.002084690712029362
127	0xbfcf9fef9dea0bb4	-0.24706835947662642
128	0xbfcd4a2e3d09b16b	-0.2288263128315394
129	0xbfd2a51390651882	-0.2913254652124878
130	0x3ff5e4b0ffb0d24c	1.3683328617018047
131	0x3fd951cd54be1a6b	0.3956178023876535
132	0xbfcc5b7084a6cdca	-0.22154051282050907
133	0x3fd4e323dcb40818	0.3263635306649362
134	0xbfd33feabee385cc	-0.3007761825702715
135	0x3f817c78e6e809af	0.008538193270401033
136	0xbf75d0eb15bc8206	-0.005326193142338292
137	0xbfb13750383309ea	-0.06725026485495503
138	0xbf94c815426641b0	-0.020294506242466148
139	0x3f99d403a034e03f	0.02522283234904443
140	0xbf8d930df328012c	-0.014440640433349992
141	0x3f81fe872285ab87	0.008786254635841718
142	0xbfa6d326327f2a16	-0.04457969061293825
143	0xbf9ff4cd53758a64	-0.03120728322881873
144	0xbfb7e3252111fa00	-0.09330970818880502
145	0xbfd04da168efe12b	-0.2547381901527099
146	0x3fc739a06d58fa56	0.18144612635838325
147	0xbfa9739974fdde75	-0.04971007874604264
148	0x3fffaca013bc05b9	1.979644848907226
149	0xbfc01065188993ed	-0.12550033281436815
150	0xbfab34228c9052ad	-0.05313213315836172
151	0xbfdaec78c2c0786a	-0.4206830884812748
152	0xbfa86aa131feff5d	-0.04768851981452713
153	0x3fbc7a7e6a5f37dc	0.11124410721751538
154	0xbfb3235c6aba7998	-0.07475831609415307
155	0x3fa3389f35bd35e7	0.0375413659190647
156	0xbfdde6d7b7dbbe83	-0.4672145171634627
157	0xbfe59baee3760bf0	-0.6752542917823785
158	0x3fdd1640bc5c03db	0.45448320764995537
159	0x3f802b4284fb1671	0.007895011599781317
160	0xbfa47c311aa7519c	-0.04001000833855814
161	0x3fa30eaeb3df65c3	0.03722139306746499
162	0x3fa75c210311fbd7	0.04562476313093782
163	0xbfd24e42f5e0967b	-0.2860267068047972
164	0x3fbd6d4d918b50c2	0.11494908145261021
165	0xbfa9cfdcaef999c6	-0.05041398654866529
166	0xbfb0abb56a32b667	-0.06512006609656283
167	0x3fa116bdf233bbc8	0.03337663251465234
168	0xbfc340daf57663a1	-0.15041672692748612
169	0xbfc1bed422c7d63b	-0.13863612840911962
170	0xbf9f59b25356813d	-0.03061560281423791
171	0xbf7ebda12ed3cddd	-0.007505063648966606
172	0x3fa834ab16b45a96	0.04727682735590581
173	0x3fb2ca8990a8977a	0.07340297490790518
174	0x3f8731fae05775c1	0.011325798007358114
175	0xbfb6d51bee7d0d9b	-0.0891892869231498
176	0xbfb16f53a672be95	-0.06810496152570018
177	0xbfa51eb177ea4977	-0.0412497958069648
178	0xbf9e587352365356	-0.029634286778292683
179	0x3faa881881e5f0ab	0.051819578034128476
180	0x3f870e201401470c	0.011257410631660324
181	0x3fb2495820affef8	0.07143164442095074
182	0xbfb58541c31b4f05	-0.0840645886740355
183	0xbfb613813b60ea15	-0.08623511981651462
184	0x3fd32d9329c7623d	0.2996566684719573
185	0x3fc85c874f991b95	0.1903237475073324
186	0x3f994a904f5a5a0f	0.024698500483816995
187	0x3fd7630c07359ac2	0.36542034820596936
188	0x3fb7bbecb05ea39e	0.09271125131512156
189	0x3f574d82eb128640	0.0014222887514637877
190	0x3fa4ddb12d31471c	0.04075387646356729
191	0xbfc3f8e6a9f6ff95	-0.15603335665764165
192	0xbfd06ab7d76310de	-0.2565135577572287
193	0x3fef9cd1e09e3123	0.9878930460995757
194	0x3fc7dab2af7a31ee	0.1863616329977868
195	0x3fc09e574e72caeb	0.12983218508232794
196	0x3ff2df434963f62e	1.1795075289550243
197	0xbfdc4708184a123f	-0.4418354260635943
198	0x3f903fdfe0a60f15	0.015868661962954073
199	0xbf843c2001af36d0	-0.00988030438557122
200	0x3f77e732f948d07e	0.005835723034170679
201	0x3fb705972dea8d3f	0.08992905493737612
202	0x3fa4501034493dd6	0.03967333448656134
203	0x3fc483b8e60b9705	0.16026984436683037
204	0xbfc3d1bbe43397aa	-0.1548380722298906
205	0x3ff1995aa2fe41c1	1.099939953510429
206	0xbfcaab0fcd345254	-0.20834538955445459
207	0x3fae806c8ba5c733	0.05957354740793477
208	0x3fb6cbff022b1437	0.0890502338689466
209	0xbfb60d6d8e14869b	-0.08614239424471253
210	0xbfadf5cc353ac679	-0.0585159125306633
211	0xbfa30f1e2d38162a	-0.037224715251835086
212	0x3fc26d420888d11f	0.1439592878028941
213	0x3fa48eb3272b8550	0.040151213199133395
214	0xbf8deef49e6239fd	-0.014615927775847299
215	0xbf96c283c9116ff2	-0.022226390025352268
216	0x3fb465d66b07e45c	0.07967891800935106
217	0xbfc6503c9a5b9cc3	-0.1743236306858532
218	0xbfcbe3d0b3164ade	-0.21788986916052172
219	0xbfcfeeaa580d275a	-0.2494709901750934
220	0x3fe060fca939f926	0.5118392281727082
221	0xbfb80d4ab716ff61	-0.09395281763044984
222	0xbf9b821f09f76c5b	-0.026863560660654744
223	0xbfc17b637571faff	-0.13657801851874038
224	0x3fa4d131b9d504d9	0.04065852540453258
225	0xbfb6b4778536b575	-0.08869120600021126
226	0x3fb1279cbef0185a	0.06701068555421
227	0xbf6e4c6e57121bab	-0.003698554523512828
228	0x3fa47321a7713743	0.039940883340575904
229	0x3fefa2be0da5eeab	0.9886160151067619
230	0x3fb4f2cab39183aa	0.08182970890039934
231	0xbfcfc56b6e2d373d	-0.24821226958959555
232	0x3fa7fd779a8a2f13	0.0468556762835687
233	0x3fb77eff1f15f1fa	0.09178156384400174
234	0xbf9601bddb0bb482	-0.021491018766870436
235	0x3fcf701286cc5078	0.24560767728747002
236	0x3fcb3ce605524c94	0.21279597530210437
237	0x3fd29fcb7d5e365d	0.291003105573372
238	0xbff4ea4b2857a1c4	-1.3072005821105543
239	0xbfd719d1176479e0	-0.36095073017523127
240	0x3fc93882a6b7e317	0.19703705921690393
241	0xbfd330260a884506	-0.2998137572149776
242	0x3fd1343fa51be82d	0.26881400226523305
243	0x3fbabb4a504360ed	0.10442032298613287
244	0xbfa38b0922a1a2b0	-0.038170133092369496
245	0x3f91f986613f2e14	0.017553424535249176
246	0xbfc0b42a71b878ff	-0.13049822380794038
247	0x3fc31b0d8fce851c	0.14926309129536086
248	0xbf9e3dce58ec89c8	-0.02953264634846578
249	0x3fb2aa4a362a23c5	0.07291091749551899
250	0xbfbc8565a13f037c	-0.11141047655747899
251	0x3fb2aed8c2e8ced4	0.07298044928102893
252	0xbfd13e7feab0014b	-0.269439677416831
253	0xbf52b8131662fa98	-0.0011425196076257135
254	0xbfcaede4c1888ee8	-0.210384935854669
255	0xbfb28f5c9e854191	-0.07250002737169427

down_path.0.block.0.bias f8 [8]
0	0x3fc3482d52c0fa61	0.15064016857828036
1	0x3fc0dd74f64d74fc	0.13175832773678298
2	0x3f75eb4d7783592d	0.005351355175852651
3	0xbfbea006ee18f221	-0.11962931931424993
4	0xbf952086f9a6e4a4	-0.020631894099754647
5	0xbf93064d025d4c5d	-0.018578723210634574
6	0xbfc545023e160ad3	-0.1661684802202986
7	0xbfb987c986a8e31a	-0.09972819840994554

down_path.0.block.1.weight f8 [8]
0	0x3ff163bc308c3b29	1.0868493935010497
1	0x3fe89ab4cb153c07	0.768885037084943
2	0x3ff35ba215d269d0	1.209871373407271
3	0x3ff425c889692f19	1.2592244498836804
4	0x3ff2dffde5051cee	1.1796854921429332
5	0x3ff14cf893e8713d	1.0812917497306238
6	0x3ff21fd727725f06	1.1327735463036688
7	0x3fe73ec132b71300	0.7264104834108309

down_path.0.block.1.bias f8 [8]
0	0xbfa60d7ddc6690fd	-0.043071683077217295
1	0xbfb86fc7402a3328	-0.09545560184978952
2	0x3f91f3974eeaefe8	0.017530788604503217
3	0x3f9a046c3a3e68be	0.025407496504705966
4	0x3f820b0be1932000	0.008810131856435532
5	0x3f9bcc422bd6651e	0.02714637177050349
6	0x3f96acf8c5d41d24	0.022144209932801875
7	0xbf5a0c2cc0034101	-0.0015898167621806738

down_path.0.block.1.running_mean f8 [8]
0	0x3fc1d8a2090e60ad	0.1394236129970116
1	0x3fd07ef4c1a8ffde	0.2577487841808742
2	0x3f865305f8e0b124	0.010900541932720893
3	0xbfc1502a64ac140b	-0.13525895991929845
4	0xbf9af1429257b8d7	-0.026310959035918593
5	0xbf78a2c0e7a6e104	-0.006014588865973506
6	0xbfc3c64cd48c1df7	-0.1544891393498202
7	0x3f8641dc4488baa8	0.010867806283468909

down_path.0.block.1.running_var f8 [8]
0	0x3fc27556a3e4d21d	0.14420588495853873
1	0x3fce61cf68f77536	0.2373599302799591
2	0x3fb82295a954470f	0.09427771934522532
3	0x3fbb4e4359a69684	0.1066629499315131
4	0x3fb2b9489d307efc	0.07313970410950427
5	0x3fc556a7fc1677e4	0.16670703705761902
6	0x3fb86c59a54a8595	0.0954032925169684
7	0x3fb263194dee1640	0.07182462837780523

down_path.0.block.3.weight f8 [8, 8, 3, 3]
0	0xbfb5d4e77e848858	-0.0852799114113919
1	0x3fcaf57855ab70d0	0.21061615164842928
2	0x3fae34a64e9fbaa5	0.058995434854172836
3	0xbfb486c2ae3e3b36	-0.08018128160459245
4	0x3fd1ae72ef3e5f44	0.2762725197185214
5	0x3fc212e10b52332c	0.14120114376819382
6	0xbfc9d036d013b694	-0.2016666904450416
7	0x3fd14dfa6f00aa69	0.27038441505525285
8	0xbfcd5daf9187f44a	-0.2294215641594824
9	0x3fb7de71c083670e	0.09323798131972813
10	0xbfcd47054a8077dc	-0.2287298787859403
11	0xbfd10ddb36a50ec7	-0.2664707215919688
12	0x3fc3ce40ef20bf60	0.15473186184089638
13	0xbfb8134fe3aba8ba	-0.0940446787678039
14	0xbfb4bc5218b7a027	-0.08099854567956354
15	0x3f87ca56bdac30f4	0.011616399443959292
16	0x3fcf8a137d955d16	0.24640124923710321
17	0x3fcc618bcbca6fcf	0.2217268700668442
18	0xbfab77d2c1636c22	-0.05364855395028935
19	0x3faaad1123fa93d5	0.052101646081872545
20	0x3fba18398faf4a3d	0.10193214185645956
21	0x3fbc82a276ea18d2	0.1113683262175045
22	0x3fb8d31c21fe9165	0.09697128133718065
23	0xbfc9389892ac9433	-0.19703967248747886
24	0xbfab2b9cbb5e50e0	-0.053067109939691326
25	0xbfc070e793aca40e	-0.12844557486212732
26	0x3fa3db3dae8712b9	0.03878205066169955
27	0x3fcf2e378a74f490	0.24359792957867343
28	0x3faa09ac223d2fd8	0.05085504453617745
29	0x3fbf097c131dcb28	0.12123847452839398
30	0xbf8f3657e880039e	-0.015240370543325995
31	0xbfd9669618182072	-0.3968863711638796
32	0x3fd0eac0f6fb63d7	0.26432823294959235
33	0x3fce2310d68d52a8	0.2354451224915881
34	0x3fd19b722f562209	0.27511267302227843
35	0xbfa2052c7d26c97d	-0.03519572284439485
36	0x3fb7841817ea7cd6	0.09185934623609468
37	0x3fcd1d273e82351f	0.22745218803576336
38	0xbfbb89d649662df0	-0.10757197658511308
39	0x3fc467c74df810c9	0.15941706950264337
40	0x3fcaa3e7757944b0	0.20812695728321762
41	0x3fd60fea51cdd238	0.34472139347716135
42	0x3fba4dfc2a55e59f	0.10275245698530576
43	0x3fd796cd833b5134	0.3685792714652678
44	0x3fac0b3f112e2a8a	0.05477330288620859
45	0x3fcfa7acc8601b78	0.24730453285175336
46	0xbf82f418bf3e4ce3	-0.009254639946254922
47	0x3fc288470b225be1	0.14478385966933074
48	0x3fcdfac0f55212c6	0.23421489695114966
49	0x3f9b1d851483d7df	0.02647979676927281
50	0x3fcababca050dc9a	0.20882375553057814
51	0x3fc9a485f8c54f0f	0.20033335349091216
52	0x3fce40d6f087e0bb	0.2363537477938332
53	0x3fc450b0e419a134	0.1587124933023546
54	0xbfa966d2ef78395a	-0.04961260960782239
55	0x3fccb7fdaaf3a7f9	0.22436495635275813
56	0xbfb5d2f66e7707e6	-0.08525028416536848
57	0x3fe2db9cca928c7c	0.5893081623547824
58	0x3ff4c78de9b7f01e	1.2987193231229024
59	0xbfd3eb4ee593d833	-0.31123707217864477
60	0x3fa705519ea71833	0.044962454430376296
61	0xbfd38e663d95d324	-0.30556636823830474
62	0x3fb6a9a9a190a63e	0.08852634615382102
63	0x3f778e89b616f31a	0.005751169142453683
64	0x3fdded716b0e8c1e	0.46761737303512685
65	0x3fcc1067b7e96e1a	0.21925064544744616
66	0xbfa8bee0324b0a13	-0.04833126653604238
67	0xbf9385c3957cf582	-0.019064956664114792
68	0xbfc493e15dd7e4bf	-0.1607629497737317
69	0x3f61a71d49a56839	0.0021548816704753085
70	0x3fb62be8ae1e5234	0.08660749674738427
71	0x3fbf747780898539	0.12287089241137474
72	0xbfb86fef2a178712	-0.0954579808963241
73	0x3fae2c7dce17f088	0.05893319264211622
74	0x3fc5fe3ee8f98552	0.17182146430699646
75	0xbfc71fdbfcf13643	-0.18065976954169302
76	0xbf715d584001df8f	-0.004239411093401104
77	0xbfc16fbf4e719ca9	-0.13622275667441855
78	0x3fb8b7c56bb4fd1b	0.09655412559094538
79	0xbfc65299eef807ae	-0.1743957917061016
80	0x3fb96afdb404ba36	0.09928880352956856
81	0x3fa6fcdbd011bd0e	0.04489790835293138
82	0x3fc39de92b19a5db	0.1532565556001789
83	0xbfadf475cc9c2025	-0.0585057079570677
84	0xbfa96475481cfd88	-0.04959455971993082
85	0x3fdaad06e463e7f8	0.416810725247728
86	0x3fb00c48d2fa4100	0.0626874461252136
87	0x3faa3fd53559d1db	0.05126825596099468
88	0x3fb2728b92fb9490	0.07206032122083372
89	0x3fb4ff34b69bef6a	0.08201913316946521
90	0xbfbd0beef4841100	-0.11346333951593479
91	0x3fca26cf70d3da28	0.20430939683110805
92	0x3fb0f4a33b1f5244	0.06623287385384297
93	0x3fd63d192d973725	0.34747914745536185
94	0x3fddafb21a09af58	0.4638486151004506
95	0x3fddc5d871e66db7	0.46520053027208114
96	0xbfb80a85e0ccd621	-0.09391056764874196
97	0xbfc9e0eb0c7207c5	-0.20217645747839988
98	0x3fcfbd8a25f70144	0.24797179082635
99	0x3fc12f61d9aedbb6	0.13425849083952607
100	0x3fd91c88cb84644b	0.3923665988418789
101	0x3fcda651b62ee38d	0.23163815875684826
102	0x3fd5fae2dfe63aa1	0.3434378801838794
103	0x3ff20c382b9a0f87	1.1279832556910792
104	0xbfa8804cc54f8b8d	-0.0478538504464928
105	0xbfbfba9b87cbad0a	-0.12394115510294426
106	0xbfcb78ca0f6b1d4e	-0.21462369683124866
107	0x3f99bf0a3823a6b5	0.02514282195708147
108	0x3fc1f3eb2027f945	0.14025630064129238
109	0x3fc37fcbde77a1d3	0.15233753550206916
110	0xbfac14acf85fd9e3	-0.05484524280466354
111	0xbfa34ecdca7f399e	-0.03771060082327725
112	0xbf9049e3b3f0739c	-0.015906865937825296
113	0xbfbca765fae22422	-0.1119292962558949
114	0x3fc0c61931281ec9	0.13104548359137017
115	0x3fd87620aa4fe0e2	0.38220993644746504
116	0xbfc6f1b78714eb28	-0.17925161453043725
117	0x3fd970f959238cb0	0.397520386743234
118	0x3fc2bdefc35f4daf	0.14642140426313463
119	0x3fc7c6d49ccb5041	0.18575532585112067
120	0x3fc27c7f97edbaf3	0.14442439001455618
121	0x3ff5535f5203df3b	1.332854576465208
122	0x3fc397e74f9ab5bc	0.1530732287114186
123	0x3fbeb158efbfc484	0.11989360669373822
124	0x3fa261f65bf976e2	0.03590364334807618
125	0x3fc1f4c79f566103	0.14028258590838769
126	0x3fb7ece39565f1fb	0.09345838925759857
127	0xbf7194eb49c083ab	-0.004292410940281248
128	0xbf974a6a64828405	-0.022744810471184724
129	0xbf3f6082efaf6960	-0.0004787749928120335
130	0xbfd48761338c1767	-0.32076292070302376
131	0x3fc6e9055128f73d	0.17898622954265334
132	0x3fc86ec739cc50d5	0.19088068315671217
133	0x3fd0e589d01d0363	0.26400990794723195
134	0x3fb6f822ed703819	0.08972376152834761
135	0x3fcdeca61bd38ff5	0.23378445013724983
136	0xbfb3de1814001cd1	-0.07760763634006486
137	0xbfca17f20f96db86	-0.20385576020427382
138	0xbfadca10bef854f5	-0.05818226176431011
139	0x3fd176772bdd9847	0.2728555611014411
140	0x3fe0dec0e35e5ee7	0.5271915856164612
141	0x3fb86cde840aa0e6	0.09541121219320167
142	0x3f94b88b92a51a44	0.020235234094139423
143	0x3f960c35fccce45b	0.021530955843648374
144	0xbf7df4f31c921c00	-0.007313680319504634
145	0xbfb97517dbd6c3f0	-0.09944295041238127
146	0x3fb7837468e596bd	0.0918495899291782
147	0x3fd0b9c151a4359f	0.26133759472653567
148	0x3fac1035c7c28c40	0.05481117309070571
149	0x3fc2492ec36c21be	0.14285835783108597
150	0xbfd08d056516674a	-0.2586072432692289
151	0xbfd474c8067a1ec1	-0.3196277678730262
152	0x3fab3cf4bb9d8911	0.05319943227984159
153	0xbfbb21783d4c72d8	-0.10597945686863441
154	0xbfe3414216f61486	-0.6017160843336036
155	0xbfe52a5667764ffe	-0.6614181538338924
156	0x3fb971727f9bff3a	0.09938731780493706
157	0xbfd846713203ebdf	-0.3792994488173331
158	0xbfd336dac2fef44a	-0.3002230552918418
159	0xbfd6cf3e850f73bd	-0.35639918321777114
160	0xbf99d91f023e244e	-0.02524231387318237
161	0xbfc6bf68bf00aa32	-0.17771634413050347
162	0x3f960c336f649f38	0.02153091781033753
163	0x3f923024efe08d05	0.01776178087324089
164	0xbf8c9e62114e790d	-0.013973966744569322
165	0x3fcdd5eb9bfac0c8	0.2330908309572861
166	0x3fd08e4792b8921c	0.25868405655117654
167	0x3fc28338ba7477c1	0.14462956527944296
168	0xbfd0365cdf627937	-0.253318040989956
169	0xbfc68d0916c23a65	-0.17617906199707814
170	0x3fba19cb6c9e8119	0.10195609475932023
171	0x3fc320ba5975f2c1	0.14943627708625765
172	0x3f9bb2429569761f	0.02704719578684067
173	0x3fb680d81bd0482d	0.08790350607913018
174	0x3fe3c82cd60fcdb2	0.6181854420560084
175	0x3fc348d130986753	0.15065970299547846
176	0x3fbcbc84300d5671	0.11225153134486178
177	0x3fd38ec373597b7f	0.305588591238056
178	0x3fcb35b2861f07e5	0.2125762133492223
179	0x3fbd387de6e24266	0.11414324652492666
180	0xbfa8dc681130a20a	-0.0485565682395795
181	0x3fc4108fc73f3a8b	0.15675542096001424
182	0x3f441a4aeb2f7325	0.0006134858907632419
183	0xbfbce082e3aff9af	-0.11280077036642554
184	0xbfc101c5f0a030cb	-0.13286661385826046
185	0xbfb15634cf5a8f99	-0.06772165357921124
186	0x3fd82bdda5a15af3	0.3776773564799633
187	0x3fa29c62b8a1358c	0.03634937766819765
188	0x3fb235a13dff101a	0.07113082660276895
189	0xbfd05a24b62330b3	-0.25550191676007755
190	0x3faa891eecaa4b2d	0.05182739867190942
191	0x3fbcdb2969324d0a	0.11271914308808931
192	0x3fd909db6598c25e	0.3912266246943882
193	0x3fbd719121ff9861	0.11501414375342868
194	0xbfd53b3ba1140c6e	-0.3317402909307877
195	0xbfb177c44a530bf5	-0.06823374571381165
196	0x3fb510d37813495f	0.08228799516226591
197	0x3fc94bdac0cb9689	0.1976273957617887
198	0x3face312e99e5fdc	0.056419936197187076
199	0x3fb94ffa3ba1b9ff	0.09887660938122876
200	0xbfa2d67380d6d828	-0.03679238269562318
201	0xbfd1a595bc234294	-0.27573150036645555
202	0x3fe3208dd141a155	0.5977238738096654
203	0x3f923dc831a73176	0.017813804655632613
204	0x3fc696eab252f9fd	0.17648061473114743
205	0x3fd2af2dd856f982	0.2919420826618976
206	0xbfa2b579c0d1aaea	-0.03654079893825275
207	0xbfddd2e8f63d2d6e	-0.4659979252507672
208	0xbfeb2d88dab8aefc	-0.8493084213164077
209	0xbfd79ccc54f70749	-0.3689452008949173
210	0x3fdf0dda04dbc315	0.4852204368062741
211	0xbf8d5566ecf8113a	-0.014323047739715922
212	0xbfa0ffdba2aa5200	-0.0332020412508065
213	0xbfd22df30cb5c494	-0.2840545295831103
214	0xbfad327f3ee78e43	-0.057025886944555036
215	0x3fcd89cad5264398	0.23076758773507033
216	0xbfb7f42bf851357d	-0.09356951534683407
217	0x3fcc325da2595cbe	0.2202870409698558
218	0xbfbfe1325472a7b7	-0.12452997743335358
219	0xbfc398f62bffdf93	-0.15310551784909573
220	0x3fb9368f7329c1cd	0.0984887748870797
221	0xbfa37b63a32a149b	-0.03805075995209358
222	0x3fc74cd8ac559b6e	0.18203266539350288
223	0xbfd834fa4f6845ab	-0.3782335067235986
224	0x3fabf4d5bd600c4a	0.05460231720646698
225	0x3fc45f2fbc0f21e2	0.1591548603303315
226	0xbfe79487ae61ff38	-0.736881104079635
227	0x3fc1afcc9e9abd37	0.13817746872289557
228	0xbf9aeb8ea2fae037	-0.02628920430899503
229	0xbfec9c76ac57c983	-0.8940995565483693
230	0xbfcaa0cab3e0d64e	-0.20803197653883604
231	0xbfc98464f6a2b8bb	-0.19935285609012063
232	0xbfc98c68a8f6ea9f	-0.19959743738384803
233	0xbfb2cd5d8a54659f	-0.07344612719716402
234	0xbf80cf3ecea16346	-0.008207789116725938
235	0x3fccf2c806b9cd84	0.2261590988961012
236	0x3fbb0915d59e8310	0.10560738053619567
237	0xbfc23d35d448c57f	-0.14249298921053463
238	0xbfb37b7785146494	-0.0761027049924386
239	0xbfd5c705f2b4b4cd	-0.3402724142241141
240	0x3fde7360e5491ba4	0.4757921446911786
241	0xbfd0c72563f4b662	-0.2621549106723703
242	0x3fc4b660e5e27eb5	0.16181575035897358
243	0x3fa1bbff26826257	0.034637425852626684
244	0x3fb66822bea55461	0.08752648500861106
245	0x3fb73d935ed569d5	0.09078332009577335
246	0x3fe50e205cecfeb5	0.6579744162517814
247	0x3fc2b9c565da83e4	0.14629428361243335
248	0xbfb269efc57443e6	-0.07192896433504323
249	0x3fd26ea6447e0dc8	0.2880035084601471
250	0x3fc2dfd40165063c	0.14745569294068328
251	0x3fb03fa6f9659412	0.0634712561491855
252	0x3fcaec83b5324528	0.210342849230565
253	0xbfc1518f6c4b7480	-0.13530152118520178
254	0xbfc36e0efce75ac0	-0.15179622029127948
255	0x3fc5a58c71271e00	0.16911464238204132

down_path.0.block.3.bias f8 [8]
0	0x3fb8817ff4045d7a	0.0957260103935961
1	0xbfa5400d214e8315	-0.0415042975575998
2	0xbfbbf6d39b7b4700	-0.10923502489029246
3	0xbfaffb0d5f852ef7	-0.06246225157755519
4	0xbfa3f508cef6e532	-0.03897883917256663
5	0xbfb1fb3e4f91df6a	-0.07023992006895488
6	0xbfbc3971dc744930	-0.11025153762992512
7	0xbfb55df35cf740cd	-0.08346482295678755

down_path.0.block.4.weight f8 [8]
0	0x3fed5ecbb6beec3a	0.9178217477086783
1	0x3febf22d90528b79	0.8733127421186132
2	0x3fe215e6d1f51268	0.5651735401848557
3	0x3fdb6872967ae738	0.428249976113523
4	0x3fec691a04a609d4	0.8878297892372822
5	0x3fee832a8688fb4f	0.9535114886892674
6	0x3fed80d8301d2909	0.9219780864453081
7	0x3ff0953699544baf	1.0364290227341646

down_path.0.block.4.bias f8 [8]
0	0x3fd83b7c31889729	0.378630684254278
1	0x3fca30a0267be84e	0.20460893515684336
2	0xbfbe987f1a3f96da	-0.11951441183881731
3	0x3f8ccfe8a6ceb81d	0.014068429556427781
4	0x3fbbd93161cfbde4	0.10878285062766896
5	0x3fc352e71cabf311	0.15096749210342655
6	0x3fc5cea828be5a7f	0.17036916722709702
7	0x3fe0832421e14e5c	0.5160084401818028

down_path.0.block.4.running_mean f8 [8]
0	0x3fec5598a9a22e26	0.8854487717775938
1	0x3ff161f1780effd6	1.0864119233883591
2	0xbfd93db7d9beebf7	-0.3943919779227935
3	0xbfe2a826a21a85b3	-0.5830262342535008
4	0x3fea8e23519f5975	0.829850825709214
5	0x3fe5617a3c6735aa	0.6681491069554586
6	0x3fe8cad296392c93	0.7747586187409915
7	0x3fe4bb8109eae54e	0.6478886789038059

down_path.0.block.4.running_var f8 [8]
0	0x40217d21a3bb865f	8.74439727462885
1	0x402833d1ae05f787	12.101209104755766
2	0x400910064de77aff	3.1328245245234707
3	0x400719f7e0e978d1	2.887679822087286
4	0x4027e20d2893e3c7	11.941506641438435
5	0x4019c44719e23920	6.441677479202809
6	0x402512a46baf91a4	10.536410679990531
7	0x4013c5d0276c50c3	4.943176856981327

down_path.1.weight f8 [16, 8, 3, 3]
0	0xbfa96e1a3d908b11	-0.04966814042588486
1	0x3f87afcae2b155bd	0.011565766375649095
2	0x3fbc67468302d511	0.11095085810196205
3	0x3fbf15ad0f632190	0.12142449975647751
4	0x3fd2cdf56cb79598	0.2938207208338439
5	0x3fe229843b03bcf2	0.5675679352406446
6	0xbfd2520d99a8cea6	-0.2862581253604993
7	0xbfe9bca1ad69fa0a	-0.8042763125411636
8	0x3fd6a069eeab98ac	0.3535408812298424
9	0xbfcc5258e4e34625	-0.22126303840791298
10	0x3fbe7e64d858cd2e	0.11911611825853605
11	0xbfc8cd60c409dbd0	-0.19376763889496695
12	0x3fda8e17ccf58745	0.41492266669785166
13	0x3fe5162abc6645a3	0.6589559249570595
14	0xbfd2ccad6d216b96	-0.2937425199249274
15	0x3fc7637d8d72128c	0.18272370726130693
16	0x3fd65d835ef34c9a	0.34945759079455174
17	0xbfd676e764cc1064	-0.3510073170039105
18	0x3fc52fdcf283ff5c	0.16552316514570975
19	0x3fd4f836e22f02cf	0.32764980400319826
20	0x3fd64b3cef114291	0.34834216448238303
21	0xbfc2fc01cb7b8d5c	-0.148315643650771
22	0x3fbafd76a9d01f9f	0.10543004651856201
23	0xbfb49c67faaa3aee	-0.08051156873464624
24	0xbfbc05824b31ebef	-0.10945906005683502
25	0x3f9aa911fc049356	0.026035576827001826
26	0x3fb4925f6ef58b3d	0.08035847147907034
27	0x3fcfe5211b6943db	0.24917997206151096
28	0xbfd848d6d14e5e05	-0.3794457477574443
29	0xbfc693fd4696ab78	-0.17639127680498823
30	0xbfb91e8459aa5daa	-0.0981219023618595
31	0xbfdb1cb347ca01c6	-0.4236267281594589
32	0xbfd445abc219e6b9	-0.3167523761290841
33	0xbf863310ebfba99f	-0.010839588357573869
34	0xbfdace847ce68810	-0.41885482976260935
35	0xbfd758b29c6605de	-0.36478867791455893
36	0x3fb9e360af1045ea	0.10112575792324888
37	0xbfc43f5605814ed3	-0.15818286198429252
38	0x3fcee3dbc648832d	0.2413286894016208
39	0x3fd1eb25857852ea	0.2799772075098149
40	0xbfd5104046edc6bd	-0.32911688734666794
41	0x3fc1874eec8d17ec	0.13694178152417125
42	0x3fcea1a73c8af451	0.23930826622191373
43	0xbfe2872c078e619e	-0.5790004870969374
44	0xbfc3311f8ab143a7	-0.14993662139980055
45	0xbfc9349d0c1cec8e	-0.19691813556150745
46	0xbfd8d670eab71187	-0.38808844491384104
47	0xbfd9b3a680a08029	-0.4015899902460683
48	0x3fd4a1883751add8	0.32235913660289617
49	0x3fd8fe3f04e0689c	0.39051795459966754
50	0x3fc66e18805d2223	0.17523485439075256
51	0xbfd28930e859aebf	-0.2896234768911476
52	0x3fc0199924d7adaf	0.12578119563054943
53	0xbfc141a1d9a3060f	-0.13481543661878034
54	0x3fcf26cb3205f544	0.24337139074843084
55	0xbfcfc82a61f4e631	-0.24829606802977502
56	0x3fc357ab8ce00e67	0.15111297968552437
57	0xbfb35b270d441c29	-0.07560962747457779
58	0xbfd307266f667d08	-0.2973114097494123
59	0xbfdb2863c2003dd3	-0.4243401903667891
60	0x3fb5d8b87a30d6d4	0.08533814414189617
61	0x3fda2221b094dfe9	0.4083332275799863
62	0x3fb2bd0d20a042b8	0.07319719358953136
63	0xbfacc7aae7d936ca	-0.0562108428972415
64	0x3fd9b53ed4774d5b	0.4016873431075589
65	0x3fc06a3fbd0f2f7e	0.1282424615040973
66	0xbfe72acfab3985e6	-0.7239759773476038
67	0xbfe2af014b118d6f	-0.5838629213507555
68	0xbfd4cbd76329ded8	-0.32494148906651565
69	0x3fd30463413b1040	0.2971428048151701
70	0x3fda6c10f3962cc2	0.4128458384299841
71	0x3fa4c9c22bbe8c4e	0.04060179504383453
72	0x3fc0bdb9e16ceb77	0.13078998095610547
73	0x3fcbb13a60cb932a	0.21634607054070304
74	0xbfc59680e3f4725e	-0.16865550165757076
75	0xbfdf9ba048f7b208	-0.49387366414774236
76	0xbfcd76964135ab85	-0.23018148597779145
77	0xbfd00a345d74ca80	-0.25062283636649596
78	0xbfc6f5b823cfa2ea	-0.17937375782573578
79	0xbfe336e2846ad079	-0.6004498087190903
80	0xbfec59c5d58f0552	-0.885958592516696
81	0xbfc88d2d5c05d4aa	-0.19180838578509923
82	0xbfe00418413128e1	-0.5004998467714153
83	0xbfcdb30415811fb2	-0.23202563333529508
84	0x3f9430ac00182b12	0.019716918473970564
85	0xbfc2cc4a0b85a4c4	-0.14685941279029724
86	0x3fd25da620a10d59	0.2869658774036075
87	0x3fb86aaadd44306e	0.09537761594782676
88	0xbf7b0579b683c287	-0.006597018662646398
89	0xbfaf3f09c8cfedbb	-0.0610278184539896
90	0xbfe342ed30961b03	-0.6019197415306227
91	0xbfbb5755a996301c	-0.10680137052821731
92	0x3fd36da602c8c59d	0.30356741210843
93	0xbfc2c1a57b438619	-0.14653461951006433
94	0xbfc7359f43874834	-0.18132391736304643
95	0x3fb664eb54693ab0	0.08747740565125173
96	0xbf9df91782dd57c5	-0.02927052246317154
97	0xbfc2f05399928ae6	-0.14795918463376906
98	0x3fdbc02ecf083028	0.4336049100681998
99	0xbfb8952e9ede3f93	-0.09602633837334755
100	0xbfc0af6d53638274	-0.13035360881532976
101	0x3fd02935acd158f9	0.25251523854002716
102	0x3f96c68404b23a68	0.02224165228522637
103	0x3fc0af8ee519a817	0.1303576105740951
104	0x3fc21bcb4de1977d	0.14147321036142194
105	0x3f947b268fc983c0	0.020001032377311878
106	0xbfc4f4029521fa36	-0.16369659692641542
107	0xbfaf222b513e4512	-0.06080756537188327
108	0x3fd536bfcbc70c70	0.3314666261687256
109	0x3faf10ff96b309cd	0.06067656244842432
110	0x3fb91c4f9f649ff9	0.0980882419722774
111	0x3fce99181927af2f	0.23904706218979174
112	0x3fb8fd70ba9588cb	0.09761719279552776
113	0xbfc9dc208c312e95	-0.20203024716680731
114	0x3fce6345de51ce11	0.23740456920096212
115	0x3fda38d2da52f2bd	0.4097182399816964
116	0x3fc1aab38697a062	0.13802188941849908
117	0x3fad8ee6e2722d19	0.05773087991937071
118	0x3fccd602f077f33a	0.22528111211422602
119	0x3fb10a1a795e72d8	0.06656041586979755
120	0x3fd0a21449a3fcb4	0.25989253226721165
121	0x3fd58a82a9a29da9	0.33657900396289137
122	0x3fda2ca751dd57cd	0.40897543902007955
123	0xbfa75649ce4234f0	-0.04558020251088546
124	0x3fddd9f466a57fed	0.46642789863653783
125	0x3fd6a6e8820e49cc	0.3539372701717667
126	0xbfcce5388e6cbcd9	-0.22574526743253534
127	0xbfd5842de319a96d	-0.33619258096464116
128	0xbfd059d31e691702	-0.2554824635484324
129	0x3fe0110bfd25efb1	0.5020809120464859
130	0x3fae5be4828337ab	0.05929483502551077
131	0xbfc48d6a58ec1465	-0.16056565610793708
132	0x3facf47853b78b79	0.056552658290249753
133	0xbfc98daef3738f96	-0.19963633429790367
134	0x3fc78c54014900a1	0.18396997511627425
135	0x3fce6a40adbc96da	0.23761757357822583
136	0x3fa5b3e218747eff	0.042388024792897376
137	0xbfc5375c176ff300	-0.16575194496535772
138	0xbfbdf52a261a0108	-0.11702216558660805
139	0xbfda9d5943fc3114	-0.41585380210087064
140	0xbfcdaf00c301860c	-0.23190316697859747
141	0x3fd1a66b182d30c5	0.27578236924160776
142	0x3fda4a0a37ae7fa2	0.4107690376058547
143	0xbfb24aed21517a4f	-0.0714557844489516
144	0xbfd786500dd1296c	-0.3675727972919478
145	0xbf9c79e9ba9cfe98	-0.02780881120202014
146	0xbfb62a6e234978ac	-0.08658493386744465
147	0xbfdaa735c6314172	-0.41645569185950315
148	0xbfb8358ae053d40f	-0.09456699349159713
149	0xbfc66f84efa3912a	-0.1752782983886701
150	0xbfcbea8bcf00a17a	-0.2180952797655314
151	0xbfc553f2d4eac265	-0.16662440677966397
152	0xbfc77b9dcd2a563a	-0.1834599735054086
153	0xbfafdf9cd1f9ef6e	-0.062252903587220895
154	0xbfc996799ab7705d	-0.19990463308829734
155	0xbfa1fd97ca9dc6e4	-0.035137885554730436
156	0x3fc6208fb26b1131	0.17286869251086892
157	0xbfb36f9deb96eeca	-0.07592188836764105
158	0x3fc86dd2a22b1d21	0.19085152548198273
159	0x3fa8df1e90c3f73e	0.04857726590306165
160	0x3fa70b5a01f0d101	0.045008480774784594
161	0x3fbfcf7be2aa8a20	0.12425970348207516
162	0x3fe51c9a70492441	0.6597416108207953
163	0x3fdf226d8baa13ae	0.486476313010196
164	0x3fbc17d337ba1a2f	0.10973854170342955
165	0x3fdab4d33d063e09	0.4172866912785769
166	0x3fcf2ff49939d2bc	0.2436509845898821
167	0x3fc79d19d58ad026	0.1844818394362175
168	0x3fe391e93f89fd1d	0.6115614167210058
169	0x3fc50a52c7e11952	0.16437754401904187
170	0xbfb9795fe6f9a832	-0.09950827969592593
171	0xbfca9560a8a66be7	-0.20768364176623708
172	0xbfc99d2c745e4766	-0.20010905916256688
173	0xbfce4a8e94a4f8ed	-0.23665029771831972
174	0xbfc88e61be6e5fb5	-0.1918451480712499
175	0xbfc87429ee9e6397	-0.19104503775886592
176	0x3fbf30dc5418e078	0.12183930447725
177	0xbfcf34dbabc3cfca	-0.24380060088117111
178	0xbfc75d1fd4d399fd	-0.1825294293586949
179	0xbfb5f8396df5ee18	-0.08581885275446444
180	0xbfbd5c96f7e9b2a2	-0.11469405701218219
181	0xbfc7ac2bfdec4fe7	-0.1849417676791056
182	0xbfc3e4bd4e6bde53	-0.15541807488601708
183	0x3fcdd215541df4ea	0.2329737339713696
184	0xbfb9f263ba1cfa90	-0.10135482114581351
185	0xbfafe59bf848b245	-0.062298654611684635
186	0xbfc35372460de48a	-0.15098408146494463
187	0xbfb8dcaea40acc88	-0.09711734299598807
188	0xbfaf79bb4b3e6e37	-0.061475613532107
189	0xbfd51728696dfe0e	-0.3295384435259344
190	0xbfce5ddefc87d3d8	-0.23723971682161848
191	0xbfabf83124b4becc	-0.05462792943069203
192	0x3f8cb46a12f778d6	0.014015988067452783
193	0xbfc424ffecb94b5b	-0.15737914141444773
194	0xbfc0f98c05ea8a37	-0.13261556900859414
195	0x3f511df700977ad8	0.0010447418338725336
196	0x3fb00826bc65ff66	0.0626243791539288
197	0xbfd0797e4015b8fd	-0.25741535433088797
198	0x3faa9c0cb9e23395	0.05197181481444272
199	0x3fc3a44c97fb091f	0.1534515134899914
200	0xbf72f6978538278b	-0.004629699589267742
201	0xbfaf2f022041cbb2	-0.06090551990282424
202	0x3fc8e991609ae2db	0.19462792603532972
203	0x3fd4243df2f9204d	0.314712035444704
204	0xbfb17f0430c6e65c	-0.06834436598628585
205	0x3fb50ae261471f1f	0.08219733118960136
206	0x3fc1fece2959fb26	0.14058854121318481
207	0x3f6db05495d9de0a	0.003624119954846132
208	0xbfbc5b4ef586ebdc	-0.1107682561331979
209	0xbfc4688dbefd92cf	-0.1594407255717187
210	0x3fd84cc2de156aa4	0.3796851319108703
211	0xbfc628d2c0f238be	-0.17312082692337144
212	0xbfc817ae8b031052	-0.1882227114457487
213	0xbfc85e0b2478f540	-0.19036998062976274
214	0xbfd66e2de2a9519b	-0.35047480711843954
215	0xbfd25a20627ba131	-0.2867508851764056
216	0x3fc6c335bec8f9b6	0.17783233466793796
217	0x3fb154d746dc7e73	0.06770081977855984
218	0x3fcc7cdb7dde5fe0	0.22256034513406941
219	0xbfb3d06427166ce6	-0.07739854769026841
220	0x3fe1d5dbe98fc43e	0.5573558389425057
221	0x3fd58d706ad13bab	0.3367577593934878
222	0xbfd7616f0ac3dcf0	-0.3653218846443016
223	0x3fb8af1c43b74c08	0.09642197278235198
224	0xbfd01cb34f2e31a6	-0.25175173504319515
225	0xbfd5acd473ac4b1a	-0.3386736993426652
226	0xbfdebc8476e537fe	-0.48025619135739805
227	0x3fcdd58e3c850715	0.23307970004139436
228	0x3fce350d9e274e65	0.23599405500737017
229	0xbfd6dfa49f83e96a	-0.35740008905090426
230	0x3f7ca83a2a6b164d	0.006996371469261198
231	0x3fd30484a01c25af	0.29715076099145227
232	0xbfb93c09965f1e24	-0.0985723487966586
233	0x3fad8e805fd4d3fc	0.0577278248769417
234	0x3fd196c464ac50ac	0.27482709723814014
235	0x3fbf4b397cd96111	0.12224158571314471
236	0x3fe92ce32aba6e30	0.7867294153724682
237	0x3fd20fe1b40f24df	0.28221933921720493
238	0x3fc67afec9912836	0.17562851755275383
239	0xbfacea43275c5860	-0.05647477965810377
240	0xbfc42fa12a1a49f2	-0.15770353847308588
241	0xbfd98525ae5a7148	-0.39875165964783266
242	0xbfb4edb0ca873748	-0.08175187058006117
243	0xbfd47d3a5dcd07ae	-0.3201433101677321
244	0xbfdaa8c8392cef79	-0.41655164321468124
245	0xbfe3d8e8dd2544d5	-0.6202282256364479
246	0x3fd3bbbd8bbf654f	0.3083337654803317
247	0x3fd5a885c70c7282	0.33841080129949586
248	0xbfc4f6489e4df81d	-0.16376598100390619
249	0xbfc23e7be0ba0f81	-0.1425318572329353
250	0x3feb3e35be2ef226	0.8513439859885394
251	0x3fc11c03ae8eb802	0.1336674311000366
252	0xbfd0eacd7107bc4d	-0.2643312076388085
253	0xbfde3b39fcaebba6	-0.47236489940672255
254	0xbfca2f509072fc60	-0.20456893017942246
255	0x3fbfbbda348a2264	0.12396014960007445

down_path.2.block.0.weight f8 [16, 16, 3, 3]
0	0xbfc057ebe45bf364	-0.12768314981795037
1	0xbfd40f54f8901c8e	-0.31343578599666777
2	0xbfc0555c79cb84a0	-0.12760501811047664
3	0x3fcf87fcbeca8745	0.2463375026318834
4	0x3fe060f5f548e28d	0.5118360319821292
5	0x3fad6dfee14c9e48	0.0574798250220821
6	0x3fbc6ac2ab65bb5d	0.1110040348482761
7	0xbfd5e824d1c0a53d	-0.34229393466610586
8	0xbfbc30bb99a8742d	-0.11011860371986933
9	0x3fdca6a8e3e5f3c3	0.4476721025055747
10	0xbfd07c0221341c74	-0.2575688671353824
11	0xbfcbb9cdcc579159	-0.21660778501167036
12	0x3fc4dd03f33d229f	0.16299485566039082
13	0x3fcfe9c1a4ed8c41	0.24932117989655647
14	0x3fd89a54b4719036	0.38441960927434893
15	0xbfd2d4dfe024fcc3	-0.29424282921895556
16	0xbfaea072ff53644b	-0.05981788031358145
17	0xbfc25da699fe8e3d	-0.14348299521690136
18	0xbf75fa9c52fd788d	-0.005365954057053324
19	0x3f5985b3dc0406db	0.0015577560844239255
20	0x3fd60250547d07d1	0.3438912224847828
21	0x3f5a751bbe52775a	0.0016148348743522862
22	0x3fb273b925d5b48b	0.07207829641056855
23	0x3fb66dddaeea4816	0.08761392135991772
24	0xbfd7a6fa0b8f69d9	-0.36956645134855887
25	0xbfbc56bec8f5dee8	-0.11069862753162918
26	0xbfb15965c1b753d8	-0.06777034739873444
27	0x3fade161ec37c436	0.05836015709417845
28	0x3fc69085b3550e06	0.17628546959359442
29	0xbfc290b597764992	-0.14504117866142657
30	0xbfe19bd64ff17b7e	-0.5502730904953379
31	0xbfcfe2cd6555f1a7	-0.24910895774872907
32	0x3fdd4c3b9d4b822f	0.45777788506350964
33	0xbf7eb81b00e4fb1c	-0.0074997954200728655
34	0x3fdd5a5baf5f7fbd	0.45864002348207206
35	0x3fb2ac518d004f9c	0.07294187252438039
36	0xbfd27f421cd5ad24	-0.28901722732435275
37	0x3fe19a0f3769df5d	0.5500560838981802
38	0x3fcd60cb42f88adf	0.22951641817151988
39	0xbfd5eebfe05fc023	-0.3426971141007035
40	0x3fe553d2748c783b	0.6664821888296112
41	0xbfce9f3774a759ea	-0.23923390575391973
42	0xbf9d5f86aa4fa41c	-0.028684715409244985
43	0x3fd0268c80f18b86	0.2523528346265994
44	0xbfd649d41afac553	-0.3482561362717053
45	0x3fb4225210c1a86e	0.07864869031041774
46	0xbfa99899f22ae80e	-0.0499923809160948
47	0xbfdb170d6b617e71	-0.4232820080414746
48	0x3fd03bf232417f8d	0.25365881831930254
49	0xbfe1c80774b357c6	-0.5556676177318358
50	0xbfa40afb31e0408b	-0.03914628013456064
51	0x3fbe50d8b35eb943	0.11842111949110738
52	0x3fd3b295a9ef7820	0.30777494044548526
53	0xbfc2076fa92ba2ed	-0.1408519340541469
54	0x3fbf4cc199115357	0.12226495730403762
55	0x3fca627aec6d4196	0.20613037628437486
56	0xbfd4aa842cccf625	-0.3229074895387803
57	0xbfc7b155fba85049	-0.1850993613048806
58	0xbfb8b1c9c43c1ca4	-0.09646283188713994
59	0xbfe29f7d6e09959d	-0.5819689892929777
60	0xbfd8ff61dbfc4943	-0.39058729632337846
61	0x3fd03ae7469be932	0.2535951795140533
62	0x3f8c09421b26a2ee	0.013689533666210587
63	0xbfd78f198d2d4534	-0.36810911928940304
64	0xbfc2d59cb7330689	-0.1471439260986254
65	0x3f82923854f83680	0.00906795510584435
66	0x3f9627763f4550ca	0.021634910213223425
67	0xbfeb2c72b7c96f74	-0.8491757955157326
68	0x3fe2c17985c5515c	0.5861175167761234
69	0xbfbd916343f4a454	-0.1154996910960489
70	0xbfd63280ff05dfd5	-0.34683251289925227
71	0x3fc3168f5e3b4d12	0.14912597752718476
72	0x3fb6f9f1194f6014	0.08975130908891088
73	0x3f8ba520e114ff8a	0.013498551243742236
74	0x3fcdf5312fd9c78f	0.23404517017803214
75	0x3fa3d699b10daa0b	0.03874664579673855
76	0xbf95004f7e1a89e6	-0.020508997031933783
77	0x3f53a42159696b31	0.0011987996746458225
78	0x3fb4c7b41bd93264	0.08117223434346382
79	0xbfc982234fcffe14	-0.19928399464696211
80	0x3fcdcaee18dd29be	0.23275543417032724
81	0xbfc7d8c5e555b247	-0.18630288789735713
82	0x3fcbc2702aab551b	0.21687128146610565
83	0xbfd368c8b3dd9742	-0.303270507478704
84	0xbfe276045a0baee2	-0.5769063719467022
85	0x3fb7bac04022cc12	0.09269334379023089
86	0x3fde9866d5916dc7	0.4780518613458437
87	0xbfba518ea0578b95	-0.10280696310614552
88	0x3fbc4fc32ac8f968	0.11059207720334074
89	0x3fc06be3050cdf71	0.12829244371982498
90	0xbfab2e5aa2d0f055	-0.05308802831174889
91	0x3fd1f58100294097	0.2806093694280291
92	0xbfc7b2debcd131a8	-0.1851461812933739
93	0x3fde7501c600c8ab	0.47589153610455054
94	0xbfe2ca78a2b725d4	-0.5872157266650739
95	0xbfd65f4eb2a3151f	-0.3495671028616289
96	0xbfd1b1d901192450	-0.2764799605107031
97	0x3fe16488a6d10904	0.5435221918235418
98	0x3fb9823124c2920a	0.09964282176458297
99	0xbfb4f49c8ecc011b	-0.0818574761033272
100	0xbfc97ea0ca1e4183	-0.19917688244869333
101	0xbfc286e712f79909	-0.14474190164691716
102	0xbfd591d348fc7eb4	-0.337025471950237
103	0x3fb44eeada7534c5	0.07932918389743111
104	0x3fd0989b34bc8c46	0.25931434774446804
105	0x3fc523aa4a8df20d	0.16515091553073127
106	0x3fc3c612c977106d	0.15448222005045711
107	0x3fc41240cbec086b	0.15680704075936389
108	0xbfd8055be4cf597a	-0.3753270849678284
109	0xbfd5e21b7e21120a	-0.3419255000810898
110	0x3fcb1e1ed5a24537	0.2118567031034588
111	0xbfd6abd4a2d80f13	-0.35423770811779426
112	0x3fc75142bb9d75e5	0.1821673790063151
113	0x3fd133592a008c7a	0.26875905133983446
114	0x3fae0836a5121cd7	0.05865641369842372
115	0x3fdcfe20073f66f6	0.4530105658319451
116	0xbfd6f23b683efa75	-0.35853467159532865
117	0x3fcfe19454f79997	0.24907163761890835
118	0xbfcb04c221c9e2cc	-0.2110827126487237
119	0xbfd2ebdbb0b67fa7	-0.29564563996427257
120	0xbfe793901f7eca2b	-0.7367630591527975
121	0x3fdd7580a7d16fd6	0.4602967871521718
122	0xbfbfad8615eea2c7	-0.12374151263669396
123	0x3fcd16667fc8c96e	0.2272461055704968
124	0x3fb56f7c739b2285	0.08373239347850799
125	0x3fd22106998e7933	0.28326573367839386
126	0x3fcc0bcc08705ea1	0.21911001598413285
127	0x3f86bc7159479fa2	0.01110161355695977
128	0xbfdb22202cafd918	-0.4239578663249559
129	0x3fdc7f7efeb308ed	0.4452817427919758
130	0x3fd096b4f870d9ef	0.25919842016028743
131	0xbfe243b0eb39c6fa	-0.5707630724193387
132	0xbfac0d1159159586	-0.054787199139165785
133	0x3f9e38e1a4c84ee1	0.0295138603997448
134	0xbfc8a3dfefab7c30	-0.19250106051092208
135	0xbfcf0a03350cf78c	-0.24249305811275368
136	0x3fbcd6f0697ebfcc	0.11265471053661641
137	0x3fe2c40c1c0b2925	0.5864315555311675
138	0xbfc72f307b8e0b86	-0.18112760575249015
139	0xbfd009a8290e8f80	-0.2505894089647356
140	0x3fe150b9b4d01d87	0.5411041766646328
141	0xbf9b4c3d4bcd4e2f	-0.026658017875275938
142	0xbfb0af7a62ddba69	-0.06517758287166377
143	0x3fce40390cb62e9d	0.23633492584882712
144	0xbfc00585d18e05a1	-0.1251685403076808
145	0x3fd8df6ddcc8252a	0.3886370330879624
146	0xbfdff7b04c17ca07	-0.49949271613073204
147	0xbfcb94c0b31c305d	-0.21547707315073952
148	0xbfbb5e5149b2784c	-0.10690792130705623
149	0xbfe5613fd45f3c45	-0.6681212566271674
150	0x3fb3ff2ac64cc678	0.07811229077631221
151	0xbf44fb115794cc00	-0.0006402811697284738
152	0x3fb9957098bf7381	0.09993652085490902
153	0xbfca558a8aaf3699	-0.20573550960255174
154	0x3fd7d6c3cfca4b33	0.3724832085801381
155	0x3fc49309c9336a2f	0.16073725055942265
156	0xbfd07fe46e34fcdf	-0.2578059269180368
157	0xbfdef052a645cb17	-0.48341814267694033
158	0xbfa0ad4818c96a15	-0.032572033906678545
159	0xbfd033f305975c3b	-0.25317073389073
160	0x3fd93871a87c05d7	0.3940700669628234
161	0xbf8d6ab8b458d558	-0.014363711360696627
162	0xbfc44c3c4af0e7ff	-0.1585765233920142
163	0xbfd01351ea1fcead	-0.25117919791885407
164	0xbfc226c1136a0324	-0.14180768440203295
165	0xbfcedb507a810d5f	-0.24106794339796075
166	0xbfcc7e2a1467ca18	-0.22260023113592875
167	0xbfe1b0ca1e659ada	-0.5528307527245844
168	0xbfa150d8b05c777b	-0.03381993439528138
169	0x3fd895768b66ffcb	0.38412250150213073
170	0xbfbe17d36819ff7a	-0.11755105296651705
171	0x3fc0a6f1e670da60	0.13009475471490628
172	0xbfc3a74a531ec536	-0.15354279574015955
173	0x3f8f512ed9d9cc94	0.015291563056257375
174	0x3fd59534d1ce3c29	0.33723183144405994
175	0xbfe770ad6114c5c3	-0.7325045486560885
176	0xbfd026043151a8f5	-0.25232033554369987
177	0xbfb5d8ad40656038	-0.08533747503440814
178	0x3fd3ebc48fd20b39	0.3112651257035171
179	0xbfc17cf71f97c2a1	-0.13662613909356927
180	0x3fd973510de55580	0.39766336781516287
181	0xbfb363f8391d3d46	-0.07574416536703152
182	0xbfd6247b11bb8398	-0.34597660762488536
183	0x3fc642e5d807e037	0.17391655968072126
184	0xbfde2a7d7a2d3318	-0.47134339267067693
185	0x3fae3191cacd81bc	0.058971935278126136
186	0x3fcc7c5180433fa5	0.2225438953669229
187	0x3fb6aee1d9098253	0.08860599087484759
188	0x3fad8888151ac62a	0.057682278228991926
189	0x3fc0271f599f5d68	0.12619392276858865
190	0xbfbb77347b5e71eb	-0.10728767406403221
191	0x3fa290ca611751a8	0.03626091418451277
192	0xbfd22c2076ed3f7e	-0.2839432870286983
193	0x3fee9958bbf1cba1	0.956219069556358
194	0x3fe4060d3783063d	0.6257387241568676
195	0x3facf585d2602f1a	0.05656068985999081
196	0x3f8d7ad1272093f9	0.014394411093300962
197	0x3fbfbf93955a1eef	0.12401697536744981
198	0x3fb894167d3e19ca	0.09600964124374581
199	0xbfb336765666b291	-0.0750497780742967
200	0xbfcae43d4ef47382	-0.21009031634539715
201	0x3face04ea0d3a3b2	0.056398827678840205
202	0xbfdfa7a459bdc680	-0.49460705531883065
203	0xbf82726c3f36ee8c	-0.009007306746631437
204	0xbfbdfca635997bcc	-0.11713637169439933
205	0xbfcabfbcac49eddf	-0.20897634899652837
206	0xbfd11c2caee468f8	-0.2673446376735593
207	0x3fbe1ef464ea2fa0	0.11765983070125552
208	0xbfc4619c42096549	-0.15922883247803046
209	0xbfb9ff75dd371c8e	-0.10155426646007212
210	0xbfb1c701515b06aa	-0.0694428275701521
211	0x3fe55ab7807a2654	0.6673238286322865
212	0x3fdeb20187c67138	0.4796146226815554
213	0xbfb4332642c1ca5b	-0.07890547876176283
214	0xbfb22c052143a391	-0.07098419248690237
215	0x3fc89640c3acec4d	0.19208535723177747
216	0xbfa292a3d225600e	-0.03627502384432556
217	0x3fb6471a8e541b91	0.08702245688264855
218	0x3fb80201ff6dac85	0.09378063665433174
219	0xbfdd391671184ea3	-0.45660935444287015
220	0x3fe1835d2f82d0c2	0.5472856452893426
221	0xbfc0a2d21dd3f19b	-0.12996889549675647
222	0xbfc5e3cb944ebfd1	-0.17101425878126844
223	0x3f8cc0be85d78c01	0.01403950544312771
224	0x3fc2597a8a5ed7ff	0.1433556724202276
225	0xbfc05204763b58dc	-0.12750297329939186
226	0x3fc8f987cfddd9f2	0.19511506700264608
227	0xbfb61f8fc96cfb16	-0.08641909282321722
228	0xbfcc50fd09c01355	-0.22122157074059126
229	0x3fc8804276b9633c	0.1914141730983604
230	0xbfd00820ac3d3eaa	-0.2504960710548213
231	0xbf865b37b5b818e6	-0.010916171296241516
232	0x3fac8762fd76826d	0.055720418396281036
233	0x3fa35f697f50410f	0.037837311545560685
234	0xbfa3976a3b13b83c	-0.0382645794978633
235	0x3fca6e69e6770a96	0.20649455788778387
236	0xbfc0aceab6a26ee6	-0.13027700345707344
237	0xbfbff1e35a7e0857	-0.1247846694878104
238	0xbfb9049c3113cdb0	-0.09772659490754765
239	0x3fc00be25331873c	0.1253626733987917
240	0xbf5178d7133241be	-0.0010664081899315193
241	0xbf827c40ef1f1c77	-0.009026057526979365
242	0xbfd47fc71858f00b	-0.32029893281628635
243	0xbf89b1265cdaf7c8	-0.012544917782516665
244	0x3fc1e6850142cdeb	0.13984739839143798
245	0x3fc8932fc4c7793f	0.1919917784534366
246	0x3fd16b171ea35fca	0.27216127388009836
247	0xbfe1df00e4b0d95a	-0.5584721056573401
248	0x3fb44ef6724e0afd	0.07932987490316275
249	0xbfa0cf6cf782e0da	-0.032832532132887685
250	0xbf959788bfac333a	-0.021085869501848743
251	0xbfcf80041049006b	-0.246094234420528
252	0x3fd6b64297f15c79	0.3548742755714965
253	0xbfd632a26ff5d0be	-0.34684048589339145
254	0xbfb50473afc926d9	-0.08209918061870826
255	0x3fb9e656d3648a21	0.1011709467025317

down_path.2.block.0.bias f8 [16]
0	0x3fb1910e9fe8e2af	0.06861964611096981
1	0xbfaa3955001dcd6f	-0.0512186586992368
2	0xbf87f78c003cfcfb	-0.011702626950521813
3	0x3f6c508bff1160cc	0.0034563764861951004
4	0xbf825c310055849a	-0.008964903662390267
5	0x3fb48ea29fea7f5e	0.08030144123267521
6	0xbfa32da80038e302	-0.03745770456993648
7	0x3fa88c643fcc6299	0.04794610289372265
8	0x3fb1d10c9ff65576	0.06959608941391146
9	0xbfb500a1601cc4f2	-0.08204086872571617
10	0x3fa4da7c002079a0	0.04072940351055654
11	0x3fb271bb1ff9d59d	0.07204789667760854
12	0xbfa12bc8ffbff56f	-0.03353717920252108
13	0xbfa5fc9200057c11	-0.042942583563437726
14	0x3fb37555a00a10e0	0.07600913197717629
15	0xbfa078aa00542074	-0.032170593776812334

down_path.2.block.1.weight f8 [16]
0	0x3fe7d2b3a934f5e7	0.7444704346486873
1	0x3fefe9652e275859	0.9972406293334287
2	0x3ff61c59f3504ef2	1.3819217209283434
3	0x3fe8e582092a0784	0.7780161074626766
4	0x3ff881ec5f78b4c4	1.5317195634227554
5	0x3fe8db5e3d909428	0.776778335803674
6	0x3ff233f09eaf3677	1.1376806448564858
7	0x3ff3008744438054	1.187629000334728
8	0x3fe5915da42b5cfa	0.6739948469575261
9	0x3fe3a34d8b6bdc8b	0.6136844370911531
10	0x3fe94b29b1b5258c	0.7904251547671932
11	0x3ff630ee5030e26a	1.3869460232218906
12	0x3ff010eae9bb8b9a	1.0041302805118222
13	0x3fe2456393573e0c	0.5709703328847708
14	0x3fe5e841aa92380e	0.6846016246288416
15	0x3ff8e808abcfd725	1.5566488944436483

down_path.2.block.1.bias f8 [16]
0	0xbfe05a9d02110960	-0.5110611954080859
1	0xbfe662d26520be9a	-0.6995632147936306
2	0x3fdca012a20f6f9b	0.4472700674648366
3	0x3fd21155a46c4a78	0.28230801636633585
4	0xbfd6aa8a1e03a1fa	-0.354158906279309
5	0xbfb245dd76e82dc6	-0.0713785567569892
6	0xbfa45fb0cae7ed50	-0.03979256131057218
7	0x3fe3ed2315a481f7	0.6226973936755361
8	0x3f5491dc45ce34b6	0.0012554789638870418
9	0x3fabb5dcb1a56568	0.05412187260180695
10	0x3fd4ba20ca8220b1	0.32386035705759314
11	0xbfcdb9f68719ba4e	-0.2322376403494268
12	0x3fb0d1cfed63493d	0.06570148034669372
13	0x3fd5193f8ee8ac6c	0.32966603237100034
14	0xbfaabe13c2735022	-0.05223142384207359
15	0xbfcac44ea8cc183a	-0.2091158222394272

down_path.2.block.1.running_mean f8 [16]
0	0x3fd23f89f6888765	0.28512810779112946
1	0x3ff78c9e7199a62a	1.4718307912356843
2	0xc01a7454b576d1ed	-6.613604388596724
3	0xbfe8a0b878efa75a	-0.7696192132982376
4	0xbfe247a867c70a5c	-0.5712472941307385
5	0x3fe39fb08ac71442	0.6132433615208657
6	0x4000092fb2b21798	2.0044855080222526
7	0x4004db7fdacabb56	2.6071774571532087
8	0xc000505caadfe5c4	-2.0392392491891957
9	0xbfd4f66ffae4d512	-0.327541346562911
10	0x40059897cb50f698	2.6995082744677568
11	0xbff6feb112e89794	-1.4371805895438898
12	0x3fe3e023714c42d2	0.6211106503343109
13	0xbfe0f6e341bfa28b	-0.5301376613761745
14	0xbfe9a3951fcf9d35	-0.8012185689266632
15	0xc0094c221abfb756	-3.1621744241482856
