results/run_1/saved_model_unet9.pt (torch, 364919 bytes, 87 tensors)

down_path.0.net.0.weight f8 [8, 4, 3, 3]
0.10232876698634327 0.07775177707835611 0.15570122152367175 -0.0939831529976385 0.10547200683561178 -0.2520512049816074 0.22490973110254006 -0.07283564919045601
0.28069930447655006 0.0795124261196001 -0.11993337447076463 0.07057282202519863 -0.06899070915227798 0.2173864946882369 -0.14500843876408573 -0.001522167846618918
0.0033637540277101034 -0.015391629154026766 -0.025015496928487223 0.018422563610050888 -0.08879519482413423 -0.009896128969956638 -0.07112167646097259 0.10412358450560578
0.03511000025733492 0.0188257296983787 -0.012947704229094132 0.06207745243905046 0.06612242075021738 -0.031422626488164344 0.04554223118412723 0.1136626113758967
0.009633470132750193 0.06549842140804712 0.0692726893507133 0.029285100596309892 -0.08676072274845793 0.02568622883867781 -0.10309584420435766 -0.047013601392125105
0.25552490591192556 0.011446453912598523 0.015595643264437645 -0.40400418168978647 0.11586274452721082 -0.010888145506887107 0.033119016552962316 -0.05437109288691546
0.09365270670019482 -0.05286481284930979 0.08280509533059412 0.13163499223204914 -0.044492127075236886 0.0496087609343148 0.007315131804444649 0.004120198686156606
-0.02159880119171395 -0.09129787107803937 -0.013634704711183564 0.02522330791255338 -0.0837376267301822 -0.16287802956941463 0.01627215532502352 0.00371244796819419
0.04441262825840666 0.02198728104402392 0.00042293640595904877 0.057941240977049446 -0.031237098578675782 0.04534575252910198 -0.01602934647007195 0.054506088631599225
0.07447152637795224 -0.2512595080816945 -0.0267002987859703 0.02465426681743893 -0.054700566823245214 0.08030508395630337 0.16846784961785932 0.055266492496039814
0.16600408897632352 -0.03194117679205615 -0.1745369507785085 0.3180193012705412 -0.10002839691540223 0.0179613017478043 -0.06763541829730817 0.010376502638493237
-0.09958563729935252 0.17355619491833119 -0.011370997378252755 0.024321481601941464 0.08365875969862921 -0.010449699227878799 -0.019245359198254316 -0.04768787253986517
0.08601039751587299 -0.011058852110624323 0.03310171839021568 -0.002801231913497957 0.1862445910028609 0.04635290736571745 0.24979105114539535 0.18530431309334366
0.018409093339327366 0.0967130624688953 0.13029688247505344 -0.024503682487802776 -0.00871842557640428 0.12027280096020682 0.06673304575926166 -0.05090062442657647
5.9688296463505656e-05 -0.01927382649833998 0.11580570273546702 0.02836189879500014 0.014785190736710162 -0.13776255765367126 0.08679094056718059 0.04892108485724851
0.15844927489288982 -0.09718409966823977 -0.3518374643774726 -0.3309117925233573 0.15584536559385512 -0.06434844255659872 -0.0023913046493895473 -0.16723036165516297
0.0003168863486772714 -0.07567908497287015 0.09572319387661284 -0.10299173656664705 -0.004902554150386098 -0.0731237067284422 -0.09656776751968284 -0.0943617315534171
0.020916902480948404 0.08825967438128357 0.0728577579247441 0.05192491488710164 0.11891772286598057 -0.012077855470449548 0.0543122220334691 0.07208385181158135
-0.10770059091836835 0.0771272414524399 -0.09511113167826832 0.09495543482531431 0.046625642624763 0.04036661374978467 -0.0250542137136053 -0.07156412245098608
-0.03344950728420093 0.07466719516706681 -0.03322818424870696 -0.026138228222864927 0.14856396268318803 -0.06133574889803821 -0.14960978462463848 0.07738118534893579
0.01721083021738001 0.2505457309614659 -0.025947961016746235 -0.022342998539402633 -0.09471719651543262 -0.06738657628496579 0.23160222988626603 -0.003086665723091794
-0.024783974267839685 -0.012368154678596702 -0.030599080296444522 0.005930857023571312 0.08732470626202922 -0.012873415793217345 0.10020083810443457 0.23515281978563538
0.1921702294596749 0.03324957841894048 0.0033333427435927655 0.029339861430209207 -0.00586312457145747 -0.1618020950856485 -0.0944548863698986 -0.021597108660639106
0.06919385629840882 0.008830119714186145 0.06371514320590733 0.18629402891849772 0.024968604377730932 -0.018019997379351966 -0.01100077127214299 0.09516385847842201
0.01362644391742259 -0.14048325730639324 0.16583392704602928 -0.00831737868271157 0.10556568877325691 0.14584752392846706 0.008162927144028392 0.1577978320031617
0.1359451833301832 0.006883158306168215 -0.3633595261427328 0.11920123100794122 0.00022017579863601675 0.0571092434494214 0.11870578034653806 0.05095340997548988
-0.03773338708693218 0.03391109435543253 -0.04114142746168253 -0.10463435928041293 0.09546390072246855 0.014463122822691465 0.020040627483572746 -0.03016444939327966
-0.007189706492981604 -0.0741397943932958 -0.013994187452034625 0.003380078783775571 0.3102639017354394 -0.12431869246841264 -0.00954282464759465 -0.07414938314318545
0.09414045083319016 -0.020073343741902217 -0.02902334047990907 -0.007679092466339309 -0.20181937769900274 0.20026451706252563 -0.022767859446297188 0.015170300029842435
-0.01850153439479336 -0.00039897264436526274 0.13003774055952758 -0.0017178528177075709 -0.007139436742118729 0.024985371971755554 0.32026965470781804 -0.0708066415443195
0.06467533325344135 -0.06969477413992796 0.08251134339556472 0.024901302273602627 -0.040965328879764666 -0.08456501924863463 0.019323982870603645 0.16006365149925356
0.0632170176875286 0.009473848834878791 0.12162208903825593 0.032483905507926236 0.1560707297137503 0.1718601039938262 -0.05863866993798334 -0.0215459047780554
00000000: 1e77 a5d3 3732 ba3f 67e6 c15b 8ae7 b33f
00000010: 191a 3283 04ee c33f 51f4 7fa8 470f b8bf
00000020: fa9f 00a4 3600 bb3f ae0e 9460 9b21 d0bf
00000030: af9b d191 d7c9 cc3f 1e85 416b 5ba5 b2bf
00000040: 9126 2f37 faf6 d13f 322e cf25 ed5a b43f
00000050: dc04 0d21 f4b3 bebf 0eac 957a 0f11 b23f
00000060: 1671 8907 60a9 b1bf 5097 a316 52d3 cb3f
00000070: cf60 11f3 a28f c2bf 3d31 b247 6ff0 58bf
00000080: 7442 4eb1 4d8e 6b3f e725 ca7e a585 8fbf
00000090: b6dd cd94 a99d 99bf 9cc6 da50 5ddd 923f
000000a0: 58c5 cf29 48bb b6bf 8b81 43f2 6b44 84bf
000000b0: 12c3 6fba 0735 b2bf 69a1 31de d7a7 ba3f
000000c0: f250 bc1d f0f9 a13f 00f1 8255 0d47 933f
000000d0: dd25 c771 5384 8abf 2be5 16a8 9dc8 af3f
000000e0: a28f a722 66ed b03f 67ff 3d62 a016 a0bf
000000f0: 0c9f 0bb3 4f51 a73f de2e a32e fe18 bd3f
00000100: 4955 5679 b6ba 833f cc1e e329 81c4 b03f
00000110: 896c 44df dabb b13f 2eee 48d5 e9fc 9d3f
00000120: e12d c862 f335 b6bf ab5d 47a3 7d4d 9a3f
00000130: fe12 363f 7d64 babf f588 e4b0 2a12 a8bf
00000140: f421 8d22 855a d03f 22a2 ad09 3d71 873f
00000150: 482a 3fce 9bf0 8f3f 1283 f35a 34db d9bf
00000160: 5ab5 914a 2ea9 bd3f 42ea ed26 864c 86bf
00000170: ccf9 f0c9 f9f4 a03f e31a 9823 87d6 abbf
00000180: 3c8f 75b0 9ff9 b73f 5309 98c4 1811 abbf
00000190: a116 63f8 b632 b53f b5ab 5259 6ad9 c03f
000001a0: b36b 6f0d acc7 a6bf 85ad 9dcb 5166 a93f
000001b0: fc36 dbbd 78f6 7d3f 4cd3 c269 57e0 703f
000001c0: 183f 0103 ff1d 96bf 9b7f 791a 4c5f b7bf
000001d0: 86e8 9916 83ec 8bbf ac4e 538a 23d4 993f
000001e0: a433 4040 d46f b5bf 4368 1ef1 2fd9 c4bf
000001f0: b05c d3db a5a9 903f 6b5f 9153 9169 6e3f
00000200: 136c cc83 40bd a63f 2055 0c74 d583 963f
00000210: 6c69 2908 b2b7 3b3f 0013 2c6e 79aa ad3f
00000220: edf4 4433 9efc 9fbf 4d00 40f8 8e37 a73f
00000230: 27fa 753b ff69 90bf b010 36d8 38e8 ab3f
00000240: 1cc9 46e2 9010 b33f 7646 81c2 a214 d0bf
00000250: 3012 51b8 5257 9bbf b043 c0d6 f73e 993f
00000260: 4231 2873 b601 acbf c47b 4bbd df8e b43f
00000270: a0a0 44c0 5a90 c53f e794 abc3 e34b ac3f
00000280: 2aea 933a 9f3f c53f e76d 6f0b 985a a0bf
00000290: ccc4 c40f 3a57 c6bf 2b0a 9da0 6d5a d43f
000002a0: 1947 6c05 769b b9bf 1fd1 668e 7264 923f
000002b0: 4b62 a305 8e50 b1bf 8e5f d59b 4640 853f
000002c0: 161f 5abf 717e b9bf aca1 98e2 1637 c63f
000002d0: ff64 e66e ad49 87bf 7d4c 4800 bbe7 983f
000002e0: 06f6 ed14 a96a b53f 5c84 7ee3 a666 85bf
000002f0: 5fd3 6c31 0eb5 93bf 90f6 f279 8b6a a8bf
00000300: 9d56 7204 c704 b63f 90e4 2b01 06a6 86bf
00000310: 4ed1 da5b b5f2 a03f 7b9f 9fee 9bf2 66bf
00000320: f603 b5dd dcd6 c73f 07a9 6b7a 91bb a73f
00000330: 3860 c035 27f9 cf3f 8296 453e 0db8 c73f
00000340: da9d 5d57 d5d9 923f 8660 66f0 2fc2 b83f
00000350: 6024 8078 91ad c03f 62ae aa4b 7e17 99bf
00000360: dc3f c945 f7da 81bf 94ef b8c2 32ca be3f
00000370: 5137 19b9 6a15 b13f eb28 848a a50f aabf
00000380: 3eb6 0740 3a4b 0f3f e2a5 ea99 84bc 93bf
00000390: bb6a f049 71a5 bd3f 96a2 1bcf e60a 9d3f
000003a0: cc30 6fb5 b247 8e3f c32f de17 34a2 c1bf
000003b0: 163b 535b ee37 b63f 1aec 1737 2f0c a93f
000003c0: 3fb4 deda 1048 c43f dc2b c4a1 0ee1 b8bf
000003d0: 5790 c048 8184 d6bf 5be8 afa7 a82d d5bf
000003e0: 05b9 3aae bdf2 c33f 9c41 54b8 2379 b0bf
000003f0: 33e0 71e8 ed96 63bf ca84 1af3 cd67 c5bf
00000400: 1bdc 0d81 78c4 343f 621e f35a b45f b3bf
00000410: 3531 2bb3 5081 b83f ffde 4f9c aa5d babf
00000420: 826a e25b b314 74bf 1c01 f638 3cb8 b2bf
00000430: c542 584b aab8 b8bf 400f 0427 1728 b8bf
00000440: 0f70 5b90 3d6b 953f e0f1 059f 2f98 b63f
00000450: f5f1 8b57 cea6 b23f 754b 9306 e795 aa3f
00000460: 20ca 9f52 6471 be3f a5db 0252 46bc 88bf
00000470: 634d d0c2 cfce ab3f 3db7 195a 1674 b23f
00000480: 9f17 c113 4492 bbbf aa3e ab63 9cbe b33f
00000490: b630 0b00 3459 b8bf 8ff5 26d7 ff4e b83f
000004a0: 12e9 74f4 50df a73f 5fa9 cfcb eeaa a43f
000004b0: 6693 1bd2 cfa7 99bf d771 7ebd 0652 b2bf
000004c0: c0b6 b437 4b20 a1bf 239c 53a9 631d b33f
000004d0: 5bac 4ed9 4803 a1bf de02 92cd fac3 9abf
000004e0: 8f52 8bd8 2404 c33f e67b 2f37 6667 afbf
000004f0: 30ed 0fd6 6926 c3bf a83e 66dc 40cf b33f
00000500: 5fc0 ae43 b79f 913f 3971 28f6 f008 d03f
00000510: a0f6 db2f 1a92 9abf 4fd2 1540 15e1 96bf
00000520: 0610 67dd 623f b8bf 9755 5525 3f40 b1bf
00000530: 5d66 8551 24a5 cd3f f91a b30a 3549 69bf
00000540: b1f6 c75b f860 99bf 62fe d99e 7954 89bf
00000550: dcc4 a484 5d55 9fbf 737f 414f f44a 783f
00000560: 8d39 8775 e95a b63f 8cb3 8e9e 605d 8abf
00000570: efb9 b01a c3a6 b93f 674f 45d3 7c19 ce3f
00000580: b5a5 65b9 0899 c83f ce8c d4b7 1606 a13f
00000590: 0d2d 3ec2 864e 6b3f 0b68 3fc5 440b 9e3f
000005a0: a9aa 9684 ee03 78bf 2198 6859 eeb5 c4bf
000005b0: def6 e707 322e b8bf 99db 8a6d 8d1d 96bf
000005c0: 1ac3 e245 b0b6 b13f cc36 239b 8615 823f
000005d0: e14e 54b8 a24f b03f 3690 d294 7bd8 c73f
000005e0: 979d eaac 5e91 993f b55c ac8d d573 92bf
000005f0: 9dcd c186 9287 86bf 000e ed9b a85c b83f
00000600: ab8c e357 2ee8 8b3f 111d e2f9 5afb c1bf
00000610: dc6e 9dce 0b3a c53f 910f 72ab b308 81bf
00000620: d960 dc5c 5a06 bb3f 0ed8 bcb4 21ab c23f
00000630: 6361 fc88 b9b7 803f f9a8 ea27 b832 c43f
00000640: 97d6 39da a666 c13f 4f47 17bd 8331 7c3f
00000650: 2e47 5e50 4841 d7bf c871 d2cc f883 be3f
00000660: 53a5 82b5 dfdb 2c3f 2542 d439 6c3d ad3f
00000670: 0c3e 6f84 8063 be3f 0bc7 edba 9016 aa3f
00000680: cee8 025f ca51 a3bf 76d0 7482 cb5c a13f
00000690: 77d8 ea3a 7d10 a5bf a4b4 253f 51c9 babf
000006a0: 3635 8d7b 5270 b83f 8003 2c7c d79e 8d3f
000006b0: 4976 88be 8785 943f 9d7c 95ee 6de3 9ebf
000006c0: 3047 1524 f472 7dbf c259 4058 d3fa b2bf
000006d0: 0150 860b fca8 8cbf 29ed b1fa 89b0 6b3f
000006e0: 0451 c51f 5ddb d33f a7ed 6e8e 59d3 bfbf
000006f0: a0dc 2e3e 308b 83bf a259 9e37 74fb b2bf
00000700: db2a 8fad 9619 b83f ad43 924b 1b8e 94bf
00000710: 613f ba68 4bb8 9dbf 4c1d 18b0 1c74 7fbf
00000720: f148 75a5 37d5 c9bf 9698 aa87 44a2 c93f
00000730: f617 e32e 7550 97bf 824c fd33 9b11 8f3f
00000740: 7317 9bf4 10f2 92bf b3e6 a475 a625 3abf
00000750: ad75 79a1 13a5 c03f b124 f86a 3225 5cbf
00000760: 23b1 1bf5 3d3e 7dbf e303 fded c395 993f
00000770: 3bc3 374b 4c7f d43f 19bf c551 6220 b2bf
00000780: 5272 2e09 908e b03f a712 a247 84d7 b1bf
00000790: 85d7 6ea1 761f b53f 385d 921b ba7f 993f
000007a0: 3ff0 9d57 68f9 a4bf 9cf9 0e98 0da6 b5bf
000007b0: 1bb1 d489 aac9 933f 7adb 3b3a f77c c43f
000007c0: 3ec2 848f fd2e b03f 44ee 4d77 0667 833f
000007d0: 6bf8 e30e a022 bf3f 6015 9bff baa1 a03f
000007e0: 7ae0 fd2b 20fa c33f 9300 120b 83ff c53f
000007f0: 6943 5443 e305 aebf 9fb4 8931 2110 96bf

down_path.0.net.0.bias f8 [8]
-0.1114786360510737 -0.015031413638640299 0.12684297500674216 -0.13030713721671502 0.020833798665516278 0.1532696813377968 0.07138031328282878 0.04018049123595452
00000000: abc3 0a28 dd89 bcbf 1fc4 ec2f cac8 8ebf
00000010: 89ce b0fe 633c c03f 8ffd 637e e7ad c0bf
00000020: c3ea ad8f 7455 953f 0337 6846 579e c33f
00000030: 8fc3 20ef fa45 b23f 085e 978f 8992 a43f

down_path.0.net.1.weight f8 [8]
1.081104871677326 0.913193749392277 1.061765584553187 0.9967352929741911 1.1094980106969814 0.8396396560621626 1.0071416863311744 0.7429849059084864
00000000: 0168 369f 344c f13f 7aa5 1119 e238 ed3f
00000010: c6c9 dae8 fdfc f03f eafa c269 41e5 ef3f
00000020: c0ba 6efc 80c0 f13f 0ec6 e6fb 53de ea3f
00000030: e2b0 d399 401d f03f 058e 0948 88c6 e73f

down_path.0.net.1.bias f8 [8]
0.03518822655620331 0.017280877789438966 -0.03484896853600933 0.015157576040332384 -0.1653445959357846 0.029077722082437786 0.03979851823964999 0.04121614508291707
00000000: 3ab9 86f4 3004 a23f 1aa8 ce13 14b2 913f
00000010: 38af 5258 b9d7 a1bf 71f4 096b ef0a 8f3f
00000020: e6a8 0e00 032a c5bf 6a84 8be5 8cc6 9d3f
00000030: 3380 89ac 7860 a43f 348a 6556 481a a53f

down_path.0.net.1.running_mean f8 [8]
0.1576604644466771 0.09777579232667505 0.6824035188286947 0.10339061394481305 0.44444806251291086 0.1522728106147837 0.26481771693440626 0.03241795119027026
00000000: d3d7 55d5 372e c43f cc30 6296 d507 b93f
00000010: 116d 81e7 3fd6 e53f ae38 9ba9 ce77 ba3f
00000020: 71dd 5049 d671 dc3f 308b d4ea ac7d c33f
00000030: 469e 6802 c6f2 d03f 02c1 54f0 1599 a03f

down_path.0.net.1.running_var f8 [8]
0.33144542671547095 0.0642581275316869 1.4140174410075206 0.25599415740101383 0.8181172086510101 0.013050337774607875 0.18027913468794024 0.01514368552082193
00000000: a8b5 09e1 6636 d53f ef33 407c 3873 b03f
00000010: 549d 91c0 d09f f63f 9848 8051 3562 d03f
00000020: bf6d ee23 042e ea3f 91af 8caf 22ba 8a3f
00000030: 9964 d1fd 6213 c73f cf36 6c10 a703 8f3f

down_path.0.net.3.weight f8 [8, 8, 3, 3]
0.1355375451602543 0.11075314405653341 0.05646639982858469 0.029965813759942693 0.06441304307018292 -0.03980985216753804 -0.08490782108554112 0.10594706804550261
-0.0701865325084262 0.029004729746456497 0.0920280789143718 0.07206172829704069 0.03550213988288645 0.03551072800718155 0.06806156218433729 0.01666318333004972
0.008282280449412446 -0.023617778816205953 0.0444952024438472 -0.15688788347705218 -0.017157242803259826 -0.02301667120588798 -0.24184311929546168 0.03987729158083793
0.048941471016881635 0.030874203081529147 0.10249751829049934 -0.0030902242064342255 0.059936351636519204 0.07585204072654815 -0.025191022272646798 0.14940456004350536
-0.039531140835746714 0.04679679245438253 -0.04107480877851572 0.030956211417908514 -0.0891771548057158 0.10009472555845134 -0.08219681879766985 -0.12772861436594554
0.12951486135003185 -0.08602389788665701 -0.049391535128024536 -0.10194135181554154 -0.040283064875267734 -0.008487868461379043 0.011740598887789932 0.011045093448644966
0.010648682206615388 0.03750721659018175 0.06641671235707756 0.02000105998961846 0.03791205349889978 0.011690316561602049 0.007563583387217684 4.6395813229505755e-05
0.019889421300688492 -0.019362867534276667 0.030403242214710524 -0.012235623232418195 0.07400857982050771 0.001822896756902995 -0.0009820487614718577 0.007228967801574597
0.04265880895431201 0.017252675030624578 0.01350517681788869 0.03845116037544135 0.03496989706029214 -0.0019960650999723876 -0.0027726310881464253 -0.00395599215230145
-0.03649792372071123 0.0006767320856732552 0.0371351137194283 0.038935412152401414 0.012141409525166479 -0.048567092396970754 0.028173798434398118 -0.008982982198903998
-0.05744949878277184 0.04415210608840256 -0.009330375604421896 -0.06404537203521796 0.03781341985651059 -0.012982428346474718 0.029902162279476664 0.031069166122115025
0.05696572803841436 0.0799013790716422 0.06240710903922287 0.004499878248695589 -0.15758231536766634 0.12235301605567964 -0.0856657731297392 -0.05716966002101963
0.0031378997252059842 -0.055482130312821946 -0.1355489582484644 -0.04306060744434996 -0.06828708220553159 -0.05956917514475266 -0.0675649953990374 -0.13309351970924727
0.09220177258855715 0.044857107604316715 -0.015424109336385022 0.0856333411184225 -0.033816186419100586 -0.03464790865513602 -0.1065551413339159 -0.08650683623154301
-0.14066601502443013 -0.055125547386151066 -0.0003143534204576175 -0.15776355594220692 0.028011998796008505 -0.02798337420946317 0.009478760885552499 0.00492225594010789
-0.0310468145237505 0.08913778756955204 0.028336951619973245 -0.023270478075526686 -0.03146786387571265 0.02796099016577074 -0.03357322837045786 -0.04547790391826781
-0.032434429943444226 0.0036835264687490174 0.016309286734993485 0.029562194836778695 -0.02340426934566645 0.21431458576920476 0.07759377430975742 -0.02650312377539332
0.02830577045990141 0.012749857848648561 -0.010882568072273521 0.0496539548211308 -0.06406294909466462 0.006532473163707346 0.02678009803124381 0.06221174575389761
-0.056087709713197875 0.07338628818764835 -0.1379116823793786 -0.0334304293731577 0.29218002221381134 -0.07213421344558832 -0.05079576114225113 0.015861818011621044
0.012799781187995714 0.026821346067964543 0.10007971561252306 0.02836475756724554 0.032032589572564864 0.06668016940685695 0.0488245112634321 -0.014692077462972913
0.005395805010696229 -0.021238444679445186 0.11909948899133194 -0.07735293466681271 -0.044198611964456944 0.06893736824845617 0.08692864040651327 0.0481852787214073
0.13433355566519056 -0.09051973875541337 0.14141726790067136 0.05147922849773866 0.0025719065118786086 -0.04755763527424505 -0.011073021829041815 0.24616400674361905
-0.08386769710659205 -0.022247665930985826 -0.18971627524238877 0.006593302398993677 0.04621290545457442 -0.106738375319332 0.14601852284889702 -0.1291221017075104
0.08739603260577694 -0.0004767699278757175 -0.18163448373983299 -0.08818958130842697 -0.06179680454314313 -0.0065333681278803195 0.002593241988548585 -0.0015295308642777985
0.027124941129251113 0.018322486136492948 0.008702463312581262 0.03939930271504195 -0.017018263350302237 -0.0009999439541111886 0.01299725930511872 -0.047041545771571734
-0.023208270473020282 -0.013044042807328996 0.01399717700022156 0.022766023253256957 0.09658656500419999 0.05345442233761003 0.02281824834367849 0.02115386687670915
0.03356071918301192 0.01920925371869165 0.0355246622912232 0.020287158167606272 0.01536678088928689 -0.006253691698362326 -0.013269324212221508 0.0462127792208986
-0.1665258676555284 0.04760068740431666 0.07187479880971344 0.03500233034782927 -0.012740291934628886 -0.03802975303748176 0.06241677361638692 0.061573679218738075
0.02175690293666919 0.004929919468121299 0.10764168928450031 0.05946566421726111 0.1140788447190993 0.12427670098404653 -0.011475447164764058 -0.013467789575575314
0.017162223450353686 -0.004084773291586594 0.027798430685047348 -0.02626127751330739 0.053673401197971225 -0.01593341649462481 -0.1691187124680006 -0.11833127463635734
0.033644043253630185 -0.1279040354019736 0.20761472484228397 0.051977210367897 -0.05960349469895527 -0.06851170220944826 0.004055779414009263 0.18738069711764352
-0.0053911678025920055 -0.09546139701032397 -0.1512225884263124 0.05391309749921974 0.21794930472439694 -0.1338291743516897 -0.02037708603637095 -0.05853875550528989
00000000: 08f5 eb55 4b59 c13f ace8 a66b 515a bc3f
00000010: ee5a 2cf9 29e9 ac3f e64e 63b8 5baf 9e3f
00000020: 381a 6c89 5f7d b03f db80 3cfa f461 a4bf
00000030: 3cad bcda 84bc b5bf 22ce 5cd8 581f bb3f
00000040: f74a be9d bef7 b1bf dbea c276 6ab3 9d3f
00000050: 373d 40f5 268f b73f 263b 542e a372 b23f
00000060: d553 7823 562d a23f bc5f e54e 762e a23f
00000070: 3447 b287 7b6c b13f 8b9c cc4d 2710 913f
00000080: eb0b 55dd 4cf6 803f fba3 7a4e 422f 98bf
00000090: a183 a63e 13c8 a63f b017 56f4 e614 c4bf
000000a0: 850a eb12 ab91 91bf 9548 5ea8 ae91 97bf
000000b0: 3d7d 1120 b7f4 cebf cab0 62de cb6a a43f
000000c0: 020c df42 db0e a93f ecd5 19b2 7c9d 9f3f
000000d0: 5796 fa00 473d ba3f ee18 ed7c ab50 69bf
000000e0: dda5 3d3c faaf ae3f df60 4112 0a6b b33f
000000f0: 7f5b 41e3 accb 99bf bd4b a149 b01f c33f
00000100: f04e 20fa 6c3d a4bf 736d 4cca bff5 a73f
00000110: b94e c9e0 c107 a5bf c587 972e fcb2 9f3f
00000120: 6bdd 7063 50d4 b6bf 9890 c6d4 ce9f b93f
00000130: 223c 92c8 d90a b5bf 7189 bb46 6959 c0bf
00000140: 0714 ec66 f193 c03f a2fe 1884 a905 b6bf
00000150: 82f0 25e8 d849 a9bf 5864 2814 d418 babf
00000160: a99f 715c fb9f a4bf 398e a26b 1662 81bf
00000170: 996e 1182 740b 883f e342 2559 cf9e 863f
00000180: f251 95ee f9ce 853f e0d5 3c59 2534 a33f
00000190: bf42 7b87 af00 b13f 29b9 296a 287b 943f
000001a0: ebcf cd6b 3569 a33f 10e9 7eba 17f1 873f
000001b0: 3c63 9ef4 fdfa 7e3f 04fa 0101 2453 083f
000001c0: e05e 1778 e45d 943f 2b18 440b dcd3 93bf
000001d0: 50a8 040c 0722 9f3f 2f0a 098d fd0e 89bf
000001e0: 22d6 f3ed 39f2 b23f dbcc 1c7d c8dd 5d3f
000001f0: 4301 12d4 0217 50bf ab64 aa44 1f9c 7d3f
00000200: 98ae b01a 60d7 a53f 47a6 196c afaa 913f
00000210: 1584 1326 9aa8 8b3f 1b8e 9cd8 deaf a33f
00000220: 89d7 6f08 93e7 a13f cbf5 664a 0d5a 60bf
00000230: 3068 1efb a0b6 66bf 6b89 ad8e 2834 70bf
00000240: fc34 8119 dbaf a2bf d81d 8b16 d72c 463f
00000250: 4997 eaa5 5f03 a33f f6a1 b3a3 57ef a33f
00000260: 2c16 b466 98dd 883f 3e7b 0333 c9dd a8bf
00000270: b5f3 849b 97d9 9c3f ec65 1e76 ab65 82bf
00000280: 211f e34c 056a adbf 0cff 65d7 1a9b a63f
00000290: 9ca2 a4d0 cd1b 83bf 46f6 590a 4765 b0bf
000002a0: 276b 44d3 475c a33f dabd 5d09 8896 8abf
000002b0: cdb7 4724 ac9e 9e3f 5147 a271 98d0 9f3f
000002c0: 7eec d5a5 9c2a ad3f c99b 04b2 6a74 b43f
000002d0: 4105 b918 d3f3 af3f 0e46 a0de 766e 723f
000002e0: 914e 7745 a82b c4bf f2ae 86fa 8652 bf3f
000002f0: af91 fa2d 31ee b5bf 3e39 3a78 5745 adbf
00000300: 4e17 5516 a7b4 693f 4776 695e 2768 acbf
00000310: 1a8e 5713 ab59 c1bf 3652 7039 0a0c a6bf
00000320: a8e0 cf20 437b b1bf 7d5c 31d6 d97f aebf
00000330: a2df 9785 f04b b1bf cef9 3a5d 3509 c1bf
00000340: 53ad e60d 899a b73f e0b0 4ec4 82f7 a63f
00000350: b08c 5be9 ac96 8fbf a203 8d0f 11ec b53f
00000360: 14af 7ded 5a50 a1bf b2e2 18e5 5ebd a1bf
00000370: a3f4 3f9f 3247 bbbf 1ab2 7ee0 4f25 b6bf
00000380: 2123 180f 5801 c2bf 122e 656e 6a39 acbf
00000390: 1339 06a9 f999 34bf 7cdf a2a0 9831 c4bf
000003a0: acd5 e56a 2daf 9c3f dfd8 3e74 aca7 9cbf
000003b0: 2296 14c0 9969 833f 1b9c 9004 5c29 743f
000003c0: ea12 1974 bcca 9fbf 10f3 72ea bbd1 b63f
000003d0: d28b e7a1 5c04 9d3f d2ca 2f59 37d4 97bf
000003e0: 9f3c 714c 8e1c a0bf cd94 4d49 cea1 9c3f
000003f0: 5398 be9b 8230 a1bf c407 0a3c e148 a7bf
00000400: bc34 bedf 3e9b a0bf de86 f336 ea2c 6e3f
00000410: cf6e 97b4 61b3 903f a278 1650 8d45 9e3f
00000420: 89a5 b4ed 49f7 97bf 669e 770c a96e cb3f
00000430: de9a 0883 2fdd b33f dfb9 6d87 a223 9bbf
00000440: b247 a719 30fc 9c3f 3aa4 e8f3 981c 8a3f
00000450: 8b3a bc8f 9949 86bf 84cb 2540 3e6c a93f
00000460: aa34 3fef 6d66 b0bf 2b18 9a69 cbc1 7a3f
00000470: be55 e9f4 3d6c 9b3f 2a4f e1ca 37da af3f
00000480: d0f8 d93d 87b7 acbf cfa3 bd9b 71c9 b23f
00000490: 7d23 c70a 17a7 c1bf 96a9 b211 cb1d a1bf
000004a0: e0fb fcd5 13b3 d23f 76e6 ab47 6377 b2bf
000004b0: 5d46 c3e9 e601 aabf cac6 7596 143e 903f
000004c0: b184 c98c c536 8a3f 0f53 c910 0e77 9b3f
000004d0: 017c 8c01 d39e b93f 5eef 70a8 a60b 9d3f
000004e0: 659f 3d59 9366 a03f a8e9 e49a f311 b13f
000004f0: 6c3f 3dbe 86ff a83f a3cb b541 e116 8ebf
00000500: 648f e760 e919 763f 8fb5 43e5 87bf 95bf
00000510: 3026 30da 4d7d be3f 01c2 a4e4 66cd b3bf
00000520: aef5 d451 33a1 a6bf 1e74 191e e1a5 b13f
00000530: 50b8 a193 f440 b63f 2da1 83a8 bdab a83f
00000540: 902f 2b8a d731 c13f a5d2 9835 4d2c b7bf
00000550: 098d 5c06 f619 c23f 0e67 a445 7c5b aa3f
00000560: 82a0 6bcb ad11 653f ff1f 5b70 7959 a8bf
00000570: 0b31 fdd4 73ad 86bf f844 355b 4d82 cf3f
00000580: 597e 4378 5a78 b5bf c3fa 5796 17c8 96bf
00000590: e4ad d776 9f48 c8bf ec30 d222 9401 7b3f
000005a0: 2a3c 29cb 37a9 a73f 3c86 39c7 3453 bbbf
000005b0: d784 1f26 bcb0 c23f 3924 03b2 1287 c0bf
000005c0: cc8a d71d 965f b63f a228 793f df3e 3fbf
000005d0: c284 be7b cc3f c7bf fc4f 91a7 9793 b6bf
000005e0: 592c 05ad d4a3 afbf 1554 12a7 bbc2 7abf
000005f0: dd79 0131 6c3e 653f aa34 9442 510f 59bf
00000600: 7d67 39fc a3c6 9b3f ae5a f33a 21c3 923f
00000610: 31d1 93da 98d2 813f 0ae9 4a39 252c a43f
00000620: 88d8 1852 3c6d 91bf 1eda 2aa5 1162 50bf
00000630: 3195 399d 4e9e 8a3f d3cc 4859 d415 a8bf
00000640: f59f b6aa e8c3 97bf d5ed 1eca d5b6 8abf
00000650: 5942 9e4b 8daa 8c3f 05b3 54f5 f94f 973f
00000660: 740f eda9 e5b9 b83f b580 88c7 605e ab3f
00000670: 796b 8db9 aa5d 973f 1a78 adf9 5ba9 953f
00000680: 4b7e a4de de2e a13f 4267 0232 97ab 933f
00000690: f007 7cdd 4930 a23f 7b41 6f23 28c6 943f
000006a0: 400e ea6a 9e78 8f3f 8902 2e95 789d 79bf
000006b0: 8b89 408c f22c 8bbf 3e72 d28e 33a9 a73f
000006c0: d25e c239 b850 c5bf 7f5a 5607 1e5f a83f
000006d0: 2d57 4b06 6366 b23f dd63 4150 d3eb a13f
000006e0: fe14 9b09 9517 8abf 5b52 24c3 a278 a3bf
000006f0: 98f5 ce62 17f5 af3f 68e7 13d5 9586 af3f
00000700: db0b 4d0a 7147 963f a32d 332e 6531 743f
00000710: 65c2 29df 678e bb3f 869a 1896 4872 ae3f
00000720: 05e7 3b6b 4534 bd3f a899 610e 99d0 bf3f
00000730: 9db2 3c72 7080 87bf 9e48 361e 0095 8bbf
00000740: 839d c851 f992 913f 57da 2efb 31bb 70bf
00000750: f389 b01a 3177 9c3f 1689 4880 3ce4 9abf
00000760: 4be9 9e7d 147b ab3f cd26 087b d950 90bf
00000770: 4c89 9895 aea5 c5bf ec3a a85a f54a bebf
00000780: b887 f5c2 ca39 a13f b8f8 89d0 285f c0bf
00000790: 91cd ae8a 1e93 ca3f 5ab9 55c5 c19c aa3f
000007a0: 492c eb68 5984 aebf d903 62a0 fb89 b1bf
000007b0: 0c5d 16ff ca9c 703f 99cf 0237 17fc c73f
000007c0: 2cdd 6396 0c15 76bf a097 307a 2870 b8bf
000007d0: b38e da03 435b c3bf 68a0 2b5d 7f9a ab3f
000007e0: a615 fd47 c3e5 cb3f 17ac 8b7b 5021 c1bf
000007f0: 30ba 7418 bbdd 94bf 8434 e3b0 caf8 adbf

down_path.0.net.3.bias f8 [8]
-0.10235018602331504 0.09140422145718818 0.0046461986182520995 0.06772820014283532 -0.08135179654078638 0.0029565722552864523 0.06510292796396897 0.05187393148848082
00000000: e9ab b52d 9f33 babf b0fd df5d 4466 b73f
00000010: 7899 db71 e407 733f 3863 a1a4 a256 b13f
00000020: df0f 9da9 78d3 b4bf 0784 a1a4 6138 683f
00000030: aea5 7ae2 95aa b03f 9c14 844e 388f aa3f

down_path.0.net.4.weight f8 [8]
0.9455184507928404 0.879569786455946 1.0442186550710062 0.9978058530823124 1.0063582318726685 0.9771481206180558 0.781348061873832 1.0511510005775133
00000000: 496f fde8 af41 ee3f 8218 6c89 6f25 ec3f
00000010: 0073 d69e 1eb5 f03f 84de 578a 06ee ef3f
00000020: 8541 df16 0b1a f03f 91e0 ac22 cc44 ef3f
00000030: a250 91a6 cd00 e93f a535 2ab6 83d1 f03f

down_path.0.net.4.bias f8 [8]
0.07642643014154579 0.5675635613166143 0.1355420796128117 0.1349387146870798 0.10885386208310649 0.2574704912419811 0.18988153077982756 0.09419556567502155
00000000: 2e0a 02ba ae90 b33f 6032 c80e 7b29 e23f
00000010: 079d 955f 7159 c13f d2cb 45fb ab45 c13f
00000020: 5cb3 b0c1 d8dd bb3f 7370 e482 657a d03f
00000030: d629 68ba 094e c83f c29f 005a 331d b83f

down_path.0.net.4.running_mean f8 [8]
0.10909140140977082 -0.16414287801476168 0.21870755628287475 0.3259632206714405 0.25610427562592364 -0.24782126769138668 -0.008136449124308723 0.46068867021900073
00000000: 116c 5401 6aed bb3f 8cec 7842 a202 c5bf
00000010: 54bf cff4 9bfe cb3f 09e4 1ed7 94dc d43f
00000020: 9276 0b30 0364 d03f 286f fe77 9bb8 cfbf
00000030: e2e1 27b7 d7a9 80bf 149d 0e55 ec7b dd3f

down_path.0.net.4.running_var f8 [8]
0.188674348548037 0.38779349726442086 0.19433438656130264 0.26880885573988744 0.49461563502769074 0.37542019786830266 0.04301976551366238 0.6952087365299514
00000000: 74d0 4d26 7b26 c83f ad89 16d1 9bd1 d83f
00000010: 246f 62fd f2df c83f baca 110f 2a34 d13f
00000020: 6530 2256 c8a7 df3f 978a 0670 e206 d83f
00000030: 00f0 eccb af06 a63f 9544 6964 263f e63f

down_path.1.weight f8 [16, 8, 3, 3]
0.0020500966992013834 -0.08048398785471668 0.07373448870010309 0.07762548474993353 0.11039308397746977 0.01047187880611933 0.07293558508861722 -0.0653939593746797
-0.0421620840505973 0.08409638229430641 -0.07292553828332683 -0.06335993275919173 0.04461102018277257 0.05760229091390405 -0.1130882630432256 0.07069839048145808
-0.021414486028125183 -0.021688570809379835 -0.015932009177703568 0.0327427643120016 0.03217978343260373 -0.04322152786187891 0.10787845027702492 0.07616750046301193
0.031133665593661677 0.07380172968618515 -0.024222341312561263 -0.040331986400161925 -0.03280293534628865 -0.052043293551715844 0.024547591119119725 -0.026790839318424416
-0.0544429723174514 0.11986175277720107 0.05396309901157776 0.0675316451894456 -0.04502233705976057 0.006252220997721685 -0.053270801486441643 -0.02008880472944326
0.027967701599663462 -0.033580082311339056 -0.03695864790743544 -0.02048724253859457 0.03681147906601096 0.04153843520014466 -0.0399550596306022 -0.07512472866165969
0.0025844235659817356 -0.1422629523347576 -0.04158910205997331 0.005526902621136546 -0.10523508300737192 -0.13965408963685158 -0.08372930535837803 0.02859077765523448
-0.06427875376973646 0.04789979739307475 0.06635778975395577 0.016206006441915156 -0.040912907105093245 -0.06380103007632182 0.05080383369019523 -0.0439597185537952
0.11288310760556768 0.03630637805832609 -0.08657961719327975 -0.002034811092765539 -0.018948599410932895 -0.0847707904288543 0.05932614490421736 0.07483839791749239
0.012177268324405752 -0.11137226365677443 0.042496520204083274 0.04658274789585812 0.006585294302621488 -0.025423643347679065 0.03770567977769488 0.08321103863577323
-0.0072984027095249985 0.11575406583923334 0.06050071478612436 -0.05894477329417035 -0.0012719629882359757 -0.031047696686902368 0.018343755482561345 -0.034180955073141554
-0.025737022233784643 0.1447460240119657 0.0762264970521675 -0.07046573661741898 -0.05785803128754741 0.13972749628636663 -0.006104183034123686 0.08854417683975319
0.0038841724663639648 -0.06909565970240242 0.03185102560402198 0.03745256610624611 -0.042152693944461465 -0.09184996689027781 -0.05291660883997838 -0.037246116909016726
0.05440505364194558 0.09432236869124196 0.015124107817831491 0.05842406539099409 0.03998565582152655 -0.0986351473817312 0.007073961982411052 -0.143459555196978
-0.11031306029202083 -0.05166583727082017 0.005670527487575121 -0.17190271280617322 -0.028766120947286904 -0.11985339440420281 -0.0018802702158570055 -0.0534902551211654
-0.1115844982838737 -0.10487515297315726 -0.030979276668451745 0.056894786989768 -0.007906703433441279 -0.016138827313010917 -0.04089334087014571 0.03666402226758561
-0.06892056911664271 -0.06457214477119232 0.06266465910173001 -0.03193976480242153 -0.008705850531606532 0.12698348688077857 0.027815872666133053 0.10382452287894511
0.017835092131921217 -0.03684477173839938 -0.09474678228151057 0.1042986720255638 -0.11023395733740285 -0.05064098370880399 0.06979737152043433 0.08520234409528894
0.04837623709365118 0.05712737357870452 -0.09887301612689722 -0.012594521797799659 0.032259024268576894 -0.013466573458163824 0.00029520061098138345 0.13468641576869228
0.1616777109645722 -0.017797405477569136 0.060780935574625626 0.058489946651912886 0.08777071504279393 0.06661682364316625 0.01975879773708642 -0.009703961946738018
0.035939302363423395 -0.09186452346461102 0.04940640472839607 0.05455031650001593 0.014098339069478369 0.057535393879911266 0.013076518412656678 -0.09275032245165316
0.04460439561140339 -0.07418706756366468 -0.03639978404366793 0.0174153561584716 0.01762997854404409 -0.07244458111139761 -0.06078824937372028 -0.05449306197362938
-0.008153036206384053 -0.027907921858247572 0.08921917569511292 -0.010887608516272716 -0.020064205377294732 0.055137419826857506 0.027716553606963287 0.04227877802020606
-0.15666568756249138 -0.07310006412876521 -0.07707752539412864 -0.15161178680825668 -0.1180737441959987 0.044059378696991565 0.036881862604371755 0.0012924917796013611
-0.02935494052505194 -0.08821969687246972 -0.02726867700144714 -0.045392805514196076 -0.13796439931907983 0.049769397775901315 0.014254942413924044 -0.02573228424147016
0.09083703934977003 -0.08092581671806853 -0.03230206604069125 0.07224045129898572 -0.010392372618824822 -0.054593881894110616 0.02735222840671489 0.09553117052232965
0.033747904795964956 0.0968411038548862 0.07566373820543791 0.026997183383798883 0.06163572184992107 0.04005291844139728 -0.028863084634797552 -0.01758441773984573
0.14975554770025598 -0.004983875174576402 0.07432047086676921 -0.004512051359490118 0.059371566658288424 -0.02867571684051411 0.14731588953675476 0.11756773560914341
-0.10694139568687187 -0.07516394086811114 0.06675177853166946 0.04324041235683575 -0.04100566036763607 0.04390211536465651 -0.020149971733412358 -0.07808534952292429
0.08732486132840053 -0.08967665161030224 0.0010893763133660909 0.05585285782618682 0.021608209994088606 -0.0018078550020248659 -0.0542783216187641 0.021563681201561706
-0.012759090340573258 0.012879914200603559 0.052045321335997 0.007710755408661292 0.03242501924992057 -0.010287550567802615 0.07878660669395424 -0.1000673878765332
-0.14888748672576507 -0.013872931339450147 0.0009060007728440753 -0.08810106823375331 0.00787573642689459 -0.03143417650253089 0.010486565093344585 -0.0203201693471865
00000000: abc9 da48 5dcb 603f 190b b03f 999a b4bf
00000010: a5e1 8d71 43e0 b23f ec4c 5686 43df b33f
00000020: cc47 639d b842 bc3f 01ea ffc7 4772 853f
00000030: 9a94 ab10 e8ab b23f 8ec5 de94 a8bd b0bf
00000040: 31cd 41c8 4496 a5bf 527c aa2b 5787 b53f
00000050: 7957 f881 3fab b2bf 39d6 1347 5b38 b0bf
00000060: 07d1 7371 41d7 a63f 26bf 4c27 0c7e ad3f
00000070: 7704 5537 5af3 bcbf 4769 ff2a 4a19 b23f
00000080: d114 9bd4 aded 95bf 6906 4b59 8735 96bf
00000090: 47e0 8209 7b50 90bf 4c26 cddb a8c3 a03f
000000a0: 2dec de5a de79 a03f acc2 4cd1 2121 a6bf
000000b0: 400b e20f ec9d bb3f 2ab7 819b b67f b33f
000000c0: 1715 1eee 80e1 9f3f 18f1 638f abe4 b23f
000000d0: f87a 14cf bdcd 98bf 2590 24e5 64a6 a4bf
000000e0: 81db 0cdd 8bcb a0bf 1abe 8f27 6ba5 aabf
000000f0: b973 35f4 0023 993f c2f1 d1ca 0e6f 9bbf
00000100: 0b73 3303 f3df abbf 1425 3884 42af be3f
00000110: 591d e422 0da1 ab3f 7ca3 88ff c049 b13f
00000120: d2b6 85f2 2a0d a7bf 5fb9 66cb ed9b 793f
00000130: 4894 6e7c 4f46 abbf d593 50dd 2892 94bf
00000140: 66ff dbae 90a3 9c3f 25fc a596 6831 a1bf
00000150: 7335 2270 3eec a2bf df01 c192 9bfa 94bf
00000160: 796c 6945 f4d8 a23f a05b 6c99 8644 a53f
00000170: 40a9 d854 fd74 a4bf 0303 b9cc 5f3b b3bf
00000180: bfa5 3cd6 ed2b 653f 88e7 da23 ac35 c2bf
00000190: 2a68 6fb2 2a4b a5bf 9167 18a0 60a3 763f
000001a0: f693 e8b7 aff0 babf 5518 df69 2fe0 c1bf
000001b0: dc24 3ba4 486f b5bf ad5a fc9b e646 9d3f
000001c0: 90c6 4489 9274 b0bf b699 937e 5286 a83f
000001d0: 4ffd d3f8 d2fc b03f 3dcb aaae 4e98 903f
000001e0: b556 005c 89f2 a4bf 8c00 a1a9 4355 b0bf
000001f0: 7cef 6bc8 f502 aa3f fe50 0f63 e381 a6bf
00000200: a3cf 6f47 e8e5 bc3f 371f cbe4 bf96 a23f
00000210: ee67 58f0 142a b6bf 7758 1ae3 4eab 60bf
00000220: 8c8f 19fb 4267 93bf aa49 8cdc 89b3 b5bf
00000230: 2b9f 5218 ff5f ae3f fa68 8af7 9b28 b33f
00000240: 25dc a949 65f0 883f 9f5b 1686 e482 bcbf
00000250: 86d0 f098 1ac2 a53f 0c82 8aa5 b1d9 a73f
00000260: 2ff3 a07a 2ef9 7a3f f5cf e4d2 a708 9abf
00000270: 3d8c 09ab 284e a33f c459 9b91 514d b53f
00000280: 9a08 350f eee4 7dbf f295 28f7 0ea2 bd3f
00000290: ca34 c81e f3f9 ae3f fe1e 2363 022e aebf
000002a0: 69a2 eadb ffd6 54bf 6ca5 8ba7 f7ca 9fbf
000002b0: b19f 8897 b4c8 923f ffd0 5e88 2a80 a1bf
000002c0: ac80 2953 ce5a 9abf 0dc0 ada7 0987 c23f
000002d0: bc7d ed67 9483 b33f 3aa7 42e2 0a0a b2bf
000002e0: a0c5 6160 919f adbf a971 7331 97e2 c13f
000002f0: bc78 0128 b300 79bf bc29 c7c7 d4aa b63f
00000300: fcbe e136 b3d1 6f3f 22a5 b7ce 40b0 b1bf
00000310: 316d a012 c74e a03f dbbb 2795 fb2c a33f
00000320: 6709 dcb3 0995 a5bf 79b3 eebb 7a83 b7bf
00000330: 9e0f c4c0 e217 abbf b5ef 0d4c ec11 a3bf
00000340: 3f31 42ac fada ab3f 3d65 cfc0 8225 b83f
00000350: 8e8c ab63 63f9 8e3f cfaf 4e54 c2e9 ad3f
00000360: fc08 20f8 ff78 a43f e99c 3d2c 2740 b9bf
00000370: 78b3 e135 96f9 7c3f 3a53 eff8 e15c c2bf
00000380: c1a1 460a 7a3d bcbf 4d19 ccd2 f173 aabf
00000390: 7865 c3a1 fa39 773f 1950 cc78 e800 c6bf
000003a0: fb35 ceb2 dd74 9dbf 0ed8 4749 b6ae bebf
000003b0: cf85 6cc5 6cce 5ebf 28da cc20 1363 abbf
000003c0: 96ab de3a cd90 bcbf edc5 2e18 19d9 babf
000003d0: b235 9410 08b9 9fbf 5d2d de42 5021 ad3f
000003e0: 958f 53c5 6331 80bf 304c 055e b286 90bf
000003f0: 5daa 52d3 f8ef a4bf 447f 2871 a0c5 a23f
00000400: 2ab0 6046 c7a4 b1bf 775c 06d2 cc87 b0bf
00000410: a7f8 7485 ca0a b03f dc62 89aa 685a a0bf
00000420: 3573 897a 5fd4 81bf 857a a4b1 fe40 c03f
00000430: 7f99 a49d c37b 9c3f 0cb2 4972 3e94 ba3f
00000440: b703 b6c5 5c43 923f ce3e 4a63 51dd a2bf
00000450: c8e1 4c3b 5341 b8bf ebb3 5d59 51b3 ba3f
00000460: ea3c ace9 4a38 bcbf a0b0 bb71 9ded a9bf
00000470: 42eb 0694 3dde b13f c18a 6e21 d2cf b53f
00000480: 4709 7128 c5c4 a83f 992d 7492 cc3f ad3f
00000490: b6ce b8f2 bd4f b9bf 11ac d719 28cb 89bf
000004a0: 5604 783c 4184 a03f 0168 bce4 5c94 8bbf
000004b0: d2f4 4cf8 a458 333f 3293 788b 673d c13f
000004c0: 91e0 8af0 dab1 c43f 7f53 eba9 7b39 92bf
000004d0: 43cf 06c5 ad1e af3f 628d 07f0 64f2 ad3f
000004e0: 0cc4 a73e 2478 b63f 192a e9d6 cc0d b13f
000004f0: da33 5b78 a63b 943f 6879 9fb9 abdf 83bf
00000500: a67b 95e0 a266 a23f e670 f1f3 6e84 b7bf
00000510: 0ef5 0ad9 cb4b a93f cc41 b5e2 04ee ab3f
00000520: d8c2 d909 97df 8c3f e344 2776 4775 ad3f
00000530: 0658 6c97 dcc7 8a3f e890 9f31 7cbe b7bf
00000540: 5051 d128 63d6 a63f 61da f874 ecfd b2bf
00000550: ad18 1914 fea2 a2bf 4b66 98c4 54d5 913f
00000560: b378 1ad5 970d 923f df57 a562 ba8b b2bf
00000570: ee1a 152e a31f afbf 543f 12be 83e6 abbf
00000580: b1c8 f4fe 89b2 80bf 2cd4 b8ee e493 9cbf
00000590: d65d c961 11d7 b63f d284 1214 3e4c 86bf
000005a0: 6aaf a907 b68b 94bf c264 e2cd f83a ac3f
000005b0: 8fee 326d ba61 9c3f fec0 d261 90a5 a53f
000005c0: 963d 3e0a 9f0d c4bf a6bf c490 afb6 b2bf
000005d0: 5b0b d34a 5abb b3bf 7fc9 03d9 0368 c3bf
000005e0: b08c d6b5 143a bebf 59db 2b6d f38e a63f
000005f0: 4f16 67f3 2de2 a23f 7a80 1e7b 1a2d 553f
00000600: bfde 1fb6 380f 9ebf 8c27 eee8 9095 b6bf
00000610: f0a2 b4ef 51ec 9bbf 5b77 50ce b93d a7bf
00000620: d23a 8b43 d1a8 c1bf 6506 94df 5f7b a93f
00000630: 1a18 cbfb b131 8d3f 2def 125d 9059 9abf
00000640: 76d1 45a1 1841 b73f 28c9 34e8 8db7 b4bf
00000650: 49db 797a e589 a0bf 4905 c7a7 597e b23f
00000660: 68a1 34a4 9848 85bf 2e02 98b2 baf3 abbf
00000670: 7812 ebf9 3802 9c3f 725a 2415 bb74 b83f
00000680: 587b d0c6 6747 a13f 501c f71d 94ca b83f
00000690: cfe0 15e1 b25e b33f 66c0 de4e 26a5 9b3f
000006a0: 02b6 38a3 b78e af3f 355c a1ed d081 a43f
000006b0: 56c5 45d2 488e 9dbf 1886 724c a601 92bf
000006c0: 8b32 e295 302b c33f 5a4b 1dce f869 74bf
000006d0: dacc cb97 aa06 b33f 3c1c 6e90 3a7b 72bf
000006e0: ca21 3832 f365 ae3f 4dd4 13c8 2a5d 9dbf
000006f0: cfe9 de3f 3fdb c23f 348c 814b eb18 be3f
00000700: 4f4f 10e5 8260 bbbf b5f4 ddab f13d b3bf
00000710: 874c be01 a516 b13f 0257 e079 9b23 a63f
00000720: ddb2 75a4 b1fe a4bf 73ce 6e8b 567a a63f
00000730: 7bfa 70b6 31a2 94bf 8c68 7fc6 66fd b3bf
00000740: ce80 880f ec5a b63f 6f8b e18d 0cf5 b6bf
00000750: 1677 e4e8 2cd9 513f 08d3 80eb be98 ac3f
00000760: 38b4 ff6c 7620 963f 4bcc 0387 b19e 5dbf
00000770: 3efe 7740 5eca abbf 5e16 2b26 ca14 963f
00000780: 1c70 ea1d 7021 8abf 1391 22d2 c860 8a3f
00000790: ba88 1832 afa5 aa3f 0828 ec24 5095 7f3f
000007a0: ee4b 801a 039a a03f 7f0f f5a9 a311 85bf
000007b0: 6204 1deb 5b2b b43f 5d6b 532e 049e b9bf
000007c0: 6aa9 22c3 be0e c3bf 1482 3853 6969 8cbf
000007d0: ac0f 42d8 15b0 4d3f a17f cea6 ca8d b6bf
000007e0: 5c5b 1573 2721 803f 1131 1cf0 2318 a0bf
000007f0: 907f fcf0 fa79 853f a06f 2e7b cfce 94bf
