results/run_1/saved_model_unet17.pt (torch, 351712 bytes, 75 tensors)

module.down_path.0.net.0.weight f8 [8, 4, 3, 3]
00000000: 4ddb e458 590b d63f 4b15 1e98 0944 debf
00000010: 1386 800f 4334 cdbf 795c 9cec b699 a7bf
00000020: d984 6e0d 9dc9 5ebf ba9a add7 0157 d83f
00000030: 5542 c33a f25d 91bf b4fc 3e1c cad2 cb3f
00000040: 2d61 ce16 aa37 d2bf bb60 3336 68dd d03f
00000050: 9e02 f935 1db8 d6bf c16e b33c 871a de3f
00000060: 6928 1889 4215 cc3f d2c0 1115 279a ebbf
00000070: 76d2 8a8e 50b1 e13f f96b 7065 0e3c adbf
00000080: 61bf d64d 1e61 c93f 76c0 133c 5514 d0bf
00000090: e868 b9a2 6e91 c63f b6f9 2519 1de4 d03f
000000a0: ec19 7c7a 05f1 c53f c55b 34af 6ee4 b7bf
000000b0: d0c8 9af0 f8c9 f0bf cff9 9a50 f590 c93f
000000c0: abce 4614 616a d13f 01e2 d7c1 b7de b83f
000000d0: ea81 6fa9 d7ff d13f 6bca a5b2 41b8 c5bf
000000e0: fa72 9fce 50f1 ad3f f0af d75b e1ef 7b3f
000000f0: cfa7 a6dd 3305 ad3f 64c3 377b 854b cf3f
00000100: 62f1 67e9 5a29 943f 0600 075b 2bc3 d43f
00000110: 1c03 6189 c189 dd3f 9d3e 1683 7d24 c53f
00000120: 8d6a 0054 4a6a ae3f a6ad 69f0 b842 acbf
00000130: 830e 0080 b431 d93f 6f96 7d5a e461 c03f
00000140: 50e7 e23d 1a75 e7bf e75c 933e bc34 c7bf
00000150: 4360 ff0f d0a2 babf 71fe da9c 92ff d33f
00000160: 1ac2 44af b5e7 c7bf fc83 c312 5b04 babf
00000170: 3bb0 9717 6010 d33f a55f ae48 f380 bebf
00000180: 96cc c0cc 2729 c9bf 268b f81d acc4 f33f
00000190: 1aa3 30e8 ca18 c13f 66a7 ca45 6102 a1bf
000001a0: d0ba 300a 326f c43f ac0a 6c5d 322f b8bf
000001b0: c9b6 cf34 86f2 b23f c16a 278a 83a5 d3bf
000001c0: 13c7 cc67 64a8 c13f b6be e7e1 ddc5 d5bf
000001d0: c50f d9a0 1b77 fe3f 1056 bce7 8543 80bf
000001e0: b415 2152 07a3 adbf 572d bece 78bf b8bf
000001f0: a2a5 2552 39d7 bcbf 00ef c8d5 8f63 93bf
00000200: 96fa 9913 823b b5bf 64cd 75b9 39ad c33f
00000210: 82ee 5e4b 7096 663f 4852 e2cb fc21 a33f
00000220: f4ef 7a23 4d37 aa3f 1f0c 6431 c3fc b7bf
00000230: ecea 681e ac1f b6bf 4e43 efae bc18 983f
00000240: d141 529c 0f6a c2bf 0485 1fcc a9ef c2bf
00000250: 96b7 d542 76dd c63f a03c 1291 3e52 ba3f
00000260: 8cb1 67f8 0f16 8ebf b08b 75c8 78df c4bf
00000270: 06fd e973 4be9 c3bf e4eb 1c1d dea9 d93f
00000280: 64d4 e263 c0c9 a3bf db4a 2a5d e08f c9bf
00000290: c6ea 43fa 4583 dc3f 5a80 40b1 29bc b0bf
000002a0: aace 2569 469a d13f 22e3 30ef 4067 e4bf
000002b0: 2526 99ae dcf5 b73f a151 4719 4c3a bfbf
000002c0: f827 0026 c832 ba3f b676 9b0d cba0 ca3f
000002d0: 8ae5 a810 e1db d63f 8bdc dc7a 4661 bbbf
000002e0: dad7 879c dcc5 bf3f 9af6 5cfd 3767 dbbf
000002f0: 9fe8 5f21 bcd3 e3bf f3fd 01da ad34 ce3f
00000300: 9da0 3de1 edc2 d53f 8efe eb2a f715 b6bf
00000310: 5372 0fa9 7812 c73f 8c01 d36c 48f4 e6bf
00000320: eefe 2da1 0585 dbbf 05cc cf82 7797 d8bf
00000330: d82a 4d80 a40b cdbf f5ef 90b3 9a16 cd3f
00000340: 32b1 ebab 2370 c23f d010 c79f 3c68 ddbf
00000350: c6dd 2283 d15d bfbf 1a33 5589 d00e a0bf
00000360: 3c7f f269 9444 acbf d75d 0ac5 f2b8 b73f
00000370: 6368 0ced 475d d8bf 873c 1c7e 7dfd b3bf
00000380: ec75 da0c 10b6 e03f 03a1 6ee4 e85e d03f
00000390: 66e1 5d4a 98cd b43f f61d b443 f76e c9bf
000003a0: 424d 9157 3877 b83f 1359 7b06 2d7b c33f
000003b0: d258 52b9 756e d6bf f440 2c53 97e2 c23f
000003c0: 77f7 40de 5aad b23f 61d3 f74e f75e efbf
000003d0: b83a fbb9 e163 c6bf 6d55 e654 ff59 b13f
000003e0: 3649 7b27 bffa c5bf 27b9 f12c b898 b43f
000003f0: fb1d 1871 a932 b4bf fc4b bf89 eb94 d13f
00000400: ead9 4b40 5fa0 c0bf fd7d 6acc cfe0 d43f
00000410: 5393 15db fbbe fabf 7407 2db3 db91 863f
00000420: 42f3 562d c38b a93f 99d4 8f10 b1fd b63f
00000430: 0f1a a674 c729 b73f 7913 8ac1 9118 b5bf
00000440: 2713 651e 3ddb 8a3f 8e6e d6f2 754d b63f
00000450: b03f db62 30a5 a03f 6ab0 ca5a 9acd b3bf
00000460: b068 a31f b065 a7bf c83d a587 ba2f b23f
00000470: 312c 1775 ae38 a63f 0153 c8f1 2f0c b3bf
00000480: cd4f dcd5 5650 c93f 1879 9270 6eed dbbf
00000490: 574b 1657 aaa5 d53f a78c 8c8e 6a95 9b3f
000004a0: f6f9 14f0 6400 f9bf f38b 43ea 0e81 d7bf
000004b0: 277f 87a9 3fa1 943f faf1 6967 7bd3 e03f
000004c0: efb9 ac47 e9a3 c93f 0a49 bcac 20fd a9bf
000004d0: 6d15 151c 486a d13f b0d9 3fd7 97a7 d6bf
000004e0: 6e26 0693 9fb4 d8bf 4749 79ad 2a2e e73f
000004f0: 1c32 2a62 5597 d93f 70bd 624a 0c8c 833f
00000500: 765a ff2a db47 ca3f 5215 286e 1ef1 713f
00000510: 0f56 8b6d 1714 be3f d4a4 877d 2dc0 9ebf
00000520: 179f 6361 5736 bf3f 2989 6c6a 15af 993f
00000530: c66a 69a7 e1e1 efbf 0439 8d76 c955 ddbf
00000540: 1a58 93c3 2f70 cc3f 1759 ca01 ecf0 97bf
00000550: 7ef0 3e35 9094 c23f 5eb1 7c8d 00c8 a5bf
00000560: 44c4 32ac 4230 9bbf f75d 8017 85ff ad3f
00000570: 6c83 ae8e bbca 4fbf b285 ba8f 98b4 993f
00000580: 9f01 6a92 3bcc 5fbf 703c 4f6d 682e b03f
00000590: 8c93 d54d 43d7 a63f 9be3 1abd ac12 c0bf
000005a0: 79e1 167f 3f1c c2bf 5f0a c1f9 8552 d33f
000005b0: d2f4 9943 0407 d0bf 199c ec4c 2f2a b1bf
000005c0: 1a14 384c 3d96 f63f 08e1 ade6 9d2e d53f
000005d0: b981 8ff9 e40a 8dbf ba8c 8a03 67da dcbf
000005e0: d64c 2819 8ab5 c9bf e98f 97cf 877f 893f
000005f0: b896 da8d 69b8 c6bf 40b5 8ef9 272d d43f
00000600: 5ffa 4652 6b3c d83f e360 74fd fc76 e7bf
00000610: 67f6 8c93 2f3e d6bf 13dd c7b0 1f20 993f
00000620: df2b 0847 9a60 c8bf 71aa a417 8c95 68bf
00000630: 8a41 641c 8adc b7bf 6058 7e19 9494 80bf
00000640: c959 300a 74a3 b7bf 4370 7d3c dcfe 92bf
00000650: 862a 9333 cc1e ed3f 400f 808a 94b7 d93f
00000660: f05c 836d 1a0c cebf 86a6 a864 e29f aa3f
00000670: 4cea a72c 3a99 c2bf 5aef 5b0b d279 9fbf
00000680: 101f 2f68 cc96 83bf 7d54 11c3 e465 a13f
00000690: 8362 9e07 5495 74bf 088f 0a7a 7659 73bf
000006a0: 66c3 6d9a d0cd c6bf 1982 4b35 fde9 b13f
000006b0: 0a12 19fc dc75 c33f f1ce a27b 2626 9ebf
000006c0: a693 1e5a e2e9 b13f 69fd cd75 ab89 ec3f
000006d0: 6ee4 e1f8 43cc ba3f 3d43 58a9 b7fd c93f
000006e0: f26b ddb9 7a5d e83f 66c2 b99a 70d0 e2bf
000006f0: 6cb1 6508 fa1a d1bf 8643 831c 65f1 c33f
00000700: e2f8 a5fb b836 be3f c0e1 622f 3204 e2bf
00000710: 13d5 8152 75ba de3f 1910 4878 56a4 d2bf
00000720: 1ac9 ad7b 683e be3f 5a3a 8621 98e9 f43f
00000730: 5e32 1824 f45c ae3f 19e9 2509 30e6 c9bf
00000740: 88fb 85d5 af99 d2bf 2f31 2098 5da4 ce3f
00000750: 8f32 32c6 59ac c43f cb33 a2f7 4c1f d8bf
00000760: fa5f 78ab 83d3 c13f 259a f07c 6ee4 bf3f
00000770: 6137 cb66 1852 e9bf a381 633c acea a33f
00000780: 0195 1895 2c8a b03f fd87 b2b0 4864 d4bf
00000790: c0d5 a069 f5b1 c83f d417 7d47 5407 78bf
000007a0: 759b 6335 7ade c8bf f761 a6d3 3a2f b83f
000007b0: 4195 e5e9 f415 be3f d753 180c 0aed b2bf
000007c0: bb2c cace 8604 a0bf 2853 414e c068 a13f
000007d0: d770 2301 b3b5 b23f 721e 27af aeb8 b0bf
000007e0: 59e1 d155 8e18 a6bf 9ac8 7112 8095 edbf
000007f0: adcc bdb4 f0cd b5bf 4668 1601 1fef d3bf
0.3444426887612522 -0.4729026780626852 -0.2281574083036025 -0.04609462393107661 -0.0018791230884079217 0.3803104978782518 -0.01695993884715315 0.2173702848358282
-0.2846474859920985 0.26351361554180713 -0.3549874331547843 0.4703691571028053 0.2193988007932746 -0.8625674640188896 0.5528948577908313 -0.057098817713459434
0.1982763176033542 -0.25124102465543474 0.17631323762436257 0.26392295318501213 0.17141788941098868 -0.09332935121015769 -1.0493096731775502 0.1997362750607423
0.2721178720487198 0.09714840395452741 0.2812403826374338 -0.16968556616810146 0.05848171732188763 0.0068205645634229345 0.056680317694670294 0.24449223057265634
0.019689007278416944 0.32441219224347184 0.46153295913613746 0.16517609501578515 0.059404680971245495 -0.05519655165411601 0.39365875720998406 0.127987426934101
-0.7330447396009081 -0.1812968545479869 -0.10404682531896108 0.3124739200393157 -0.18675871904407942 -0.10162896354769652 0.29787447265585215 -0.11915512585107864
-0.19656846521101973 1.2355157061326252 0.1335691102733783 -0.03322128273914764 0.1596434163816043 -0.09447016506968947 0.07401312627163316 -0.30697716228102584
0.13795142238955602 -0.340201826677894 1.9040790827866527 -0.007941290030014009 -0.05788443448595207 -0.09667162940438821 -0.11265905623954223 -0.01893448583926638
-0.08293927172233348 0.1537239223067487 0.002757281613382124 0.03736867894000234 0.051203165608484286 -0.09370059924917527 -0.08642078154018024 0.02353186433521453
-0.14386172421337887 -0.1479389425940455 0.17863348258418615 0.10281744996813069 -0.014690518158169373 -0.16306981838269285 -0.15555709037651172 0.4009928974443808
-0.03864861697494673 -0.19970325993616353 0.4455122894284326 -0.06537113740387338 0.27504120128944953 -0.6376042052935171 0.09359530699398329 -0.12198329560425815
0.10233736922978653 0.2080320183221624 0.35717035891465143 -0.10695305347040766 0.12411288091229214 -0.42817497007841043 -0.6195965434883596 0.23598263878737633
0.3400225352875255 -0.08627266691109467 0.1802512002458508 -0.7173196912263378 -0.42999401798441184 -0.3842448022325587 -0.2269178034278727 0.22725232856635072
0.14404722113193597 -0.45948711016923216 -0.12252530528609559 -0.03136302639413753 -0.05521072190572204 0.09266583738860078 -0.38069341801895556 -0.07808670357575141
0.5222244502107833 0.25579283054186436 0.08126212897866977 -0.19869890981520627 0.09556915414696213 0.15219652954574112 -0.35049193475550766 0.14754001198935607
0.07295768667333201 -0.9803425352425671 -0.17492314892884564 0.06777950117824157 -0.1717146818906003 0.08045531365653301 -0.07889803896988916 0.27471435977821534
-0.1298941673228023 0.3262214180230954 -1.671626907155958 0.011020389943613408 0.04989442757093922 0.08980852751104108 0.09048124883529617 -0.0824061486728861
0.01311347722060814 0.08711945704129162 0.0325102921175352 -0.07735600201221052 -0.04569769273958124 0.07104078113228873 0.0434011953289758 -0.0744047131814334
0.19776425783550025 -0.4363666629159453 0.33823641304586743 0.02693716521310976 -1.5625962618065592 -0.36725209119157326 0.020146364900823912 0.5258156795312623
0.20031467437497905 -0.050759335599780256 0.27211191885392944 -0.35397907276583407 -0.3860243736058696 0.7243855846557289 0.39986166559609315 0.009544464130469804
0.20531787490354575 0.004380339496952006 0.1174940721933455 -0.03002997473405318 0.12192293288864807 0.025081953640559682 -0.9963234205018459 -0.45836102082547847
0.22217366265857735 -0.02337998162200802 0.14515879249472968 -0.042541520377514117 -0.026551286468649474 0.05859008705027329 -0.0009702125365614717 0.025102981350419724
-0.0019407827145699675 0.0632081286305366 0.04461107564092179 -0.125569908462947 -0.14148706155334503 0.3019118250851189 -0.25042826272676877 -0.06704993846925368
1.4116795518214134 0.3309702637411793 -0.014180935731872834 -0.4508302244741561 -0.20085264423742072 0.012450276396471298 -0.17750281740625495 0.31525611277432475
0.3786876967896315 -0.7332749319348547 -0.34754552277795486 0.024536605038489045 -0.19044807880740586 -0.0030009971789202662 -0.09320891564516934 -0.008095891025544144
-0.09233784912826261 -0.01855033988191247 0.9100094802209504 0.40182984853185033 -0.2347443613750566 0.05200107077355391 -0.1453011243864516 -0.030738145774179194
-0.00956496899551909 0.03398051148602919 -0.005025223008396143 -0.004723990249349226 -0.17815597095934804 0.06997664023538909 0.15203440007657348 -0.029442406936779745
0.06997503948384906 0.8918053913948089 0.10467934442739743 0.20305534142291917 0.761411059396208 -0.587944318960649 -0.26727152652781316 0.15580428974365307
0.11802250045545606 -0.5630122113716922 0.48013051087703323 -0.2912803816436749 0.11813977260115785 1.3070298490089471 0.05930293026549259 -0.2023372692745589
-0.2906303010167268 0.23939104011550102 0.16150972535651362 -0.37691044028252624 0.13926740524834696 0.12457933950700147 -0.7912714011851955 0.03889978634993276
0.06460837020911826 -0.3186208463249612 0.1929308667910572 -0.005866364684896614 -0.19428947073830796 0.09447066943392445 0.11752253256198221 -0.07392943187035371
-0.03128453516281967 0.03400231318724983 0.07308501031679114 -0.06531802917663201 -0.0431560973892739 -0.9244995460742473 -0.0851736489546961 -0.31146979433254207

module.down_path.0.net.0.bias f8 [8]
00000000: a931 3c60 8ef2 b0bf 77e3 48c0 86b9 b0bf
00000010: 2354 1680 94aa c3bf 60d2 fc7f ec4f c0bf
00000020: 4920 4fc0 ea91 9c3f 2dfd f45e e76d a73f
00000030: b87a 2ec0 ac4e ae3f 6692 95c1 9acc 9e3f
-0.066201113219171 -0.06533090776873772 -0.15364319090136389 -0.1274390816630726 0.027900379169097076 0.045760374394826143 0.059193991145766345 0.030077379289098614

module.down_path.0.net.1.weight f8 [8]
00000000: b645 2b26 43b8 e73f aed3 d199 b4f6 f43f
00000010: 0ff5 b372 10e2 f63f 487a 3fed c685 f13f
00000020: cc15 46ca 8c29 f13f 2564 d946 b754 f13f
00000030: f975 f902 26ba ec3f 2607 5f22 8989 f03f
0.7412429566849628 1.3102308281497517 1.4301914673408793 1.0951604144571707 1.0726440335578102 1.0831825988336814 0.8977232034773684 1.033578047049056

module.down_path.0.net.1.bias f8 [8]
00000000: 685d 0cb0 4421 eebf 51dc 2ad4 2422 a13f
00000010: 4461 6741 fe00 ef3f 24dd 09b0 cc14 953f
00000020: 057d 9a51 8a13 8f3f f4af d4aa b176 88bf
00000030: 3583 75a7 860d 943f aaf5 95a6 2c9f 57bf
-0.9415610731547703 0.033463621997207434 0.9688712384623064 0.02058715652898714 0.015173988929119373 -0.011945140863268457 0.01958284756745173 -0.001441758732055968

module.down_path.0.net.1.running_mean f8 [8]
00000000: 6d16 c729 8c64 b33f c9e1 b075 c505 b1bf
00000010: 94ae 4f79 952c d9bf bf18 0493 0e8e c0bf
00000020: 0cb9 5912 bf7d 9b3f e639 91b3 7191 a73f
00000030: f821 9765 5d2b ac3f 7767 2a56 4511 a03f
0.07575298328364406 -0.06649431346239178 -0.3933461842231989 -0.12933523348346473 0.026846871848129658 0.04603152577384488 0.0550183474075005 0.03138176609827686

module.down_path.0.net.1.running_var f8 [8]
00000000: 5be1 ab33 246e c03f 83ed 4090 8075 c63f
00000010: 11d3 5748 dd1b d53f 7b25 9ed9 6876 c13f
00000020: 6c60 19d2 9ba8 c33f 6b57 8006 9f41 bf3f
00000030: 9958 ad54 4884 bf3f eb59 8c7a fc18 c03f
0.12836124918954792 0.17546088260301582 0.3298257070994604 0.13642607332102927 0.15358302839991056 0.12209504994129154 0.12311222140610524 0.12576251968194127

module.down_path.0.net.3.weight f8 [8, 8, 3, 3]
00000000: 7859 6330 3e38 d73f 8cac 600e 3e30 b03f
00000010: 9995 883a a018 d73f 8ace 28d7 3e75 d7bf
00000020: 36de a8cd e444 e1bf 845a 0ec4 3043 df3f
00000030: 8f85 d6cb 37fe d2bf 3ce6 35fa 0f99 d0bf
00000040: a115 f44c 38c9 c93f 4ccb 4567 42ab ac3f
00000050: fe5c a40d e236 c43f 2c6a efb3 80e6 933f
00000060: e29e a693 6359 bc3f a8ac 7a28 156c bfbf
00000070: e56c 7559 8473 c93f b3fe 148f 2415 c7bf
00000080: 9837 cdf2 e647 b1bf 16d2 b313 a156 bb3f
00000090: f19b 72f4 a654 c9bf 8d0a f7bf 8116 a4bf
000000a0: 7d70 5d43 6d43 e6bf 65ff fe2a 7f72 c2bf
000000b0: 355c 2921 1288 e13f 6804 e48b 5ab6 bd3f
000000c0: f80d 6a7c 07eb 893f 4393 6e62 9bd0 b63f
000000d0: ba37 92fa 90fe e4bf cf72 7147 9022 d33f
000000e0: 8663 51ce 1fa7 e43f 8115 7b7c c68d ca3f
000000f0: 822f abb3 ffdc d13f c96b 2f24 c5f1 f93f
00000100: fc1f 4e26 5f88 c5bf 62f2 a194 ffcc c0bf
00000110: 4700 2d81 0566 d23f 95a0 facf bdaa 95bf
00000120: 4aba 8ec8 bc05 89bf 6e94 5da8 6430 a5bf
00000130: 3a96 34fe 60e3 a13f 3b7a 9ef2 1f95 d53f
00000140: eb54 0af6 eb29 bcbf f50a 7d2a 1452 c43f
00000150: b9e3 f23f 908b bb3f 4a0e 7341 ce80 c0bf
00000160: 4e88 e8ab a9bc acbf 81fd cbfb d1dd a2bf
00000170: 4181 90e9 ce66 bf3f 505c 0203 0fdb bebf
00000180: ebe5 b9d1 eb3a cbbf 0e5a 5a45 46b6 97bf
00000190: 7611 9c4a a205 bebf 93bd fe98 c7b0 c1bf
000001a0: 17ea 109d 9a6c c33f b748 9222 25fa 7d3f
000001b0: f027 40a3 d425 cdbf 413a 996d 9b04 b9bf
000001c0: 32e8 839a 62de 783f ab4e cfd2 d6a1 e63f
000001d0: 5a79 ff0a 6cc1 e13f 6fb6 01d3 2347 be3f
000001e0: aa3c deac b8c9 b2bf dfed 948c 1b64 d1bf
000001f0: 3153 f64a 6c3d d33f f0ae 439e 801f d93f
00000200: 0f28 0ffd a33c bc3f 43f4 27fe 3ec4 af3f
00000210: 95db cfaa d07f dfbf 90b0 e41d b8bd 90bf
00000220: 44d7 5a6a 9d2b b03f 2ba2 5fe9 e68e adbf
00000230: 4aab 69fc 8a2b dc3f 9d8b 7397 166a c9bf
00000240: 6bf5 4294 3e48 c2bf a3e4 456b abe6 cfbf
00000250: b4bb 4066 b046 d9bf 15d9 16fb 5d15 b23f
00000260: a1d0 ec16 168c dc3f d008 9ace 0b7b a4bf
00000270: 680f 1fd3 d509 a4bf 3ca5 0237 62b8 b73f
00000280: 9ee1 a691 cff3 cbbf 15e7 0a9e 1b85 b63f
00000290: 80d2 51c8 755b cb3f 1db3 18c1 1304 e33f
000002a0: a8f2 b11b b1d0 d03f 376b b5a8 69b7 f93f
000002b0: 2c96 af81 8663 e13f 09c3 6a62 b029 c53f
000002c0: bb56 054d 49a1 e23f 8d33 4400 ab9e cb3f
000002d0: b1f4 e5df e525 dbbf ce35 940d 16d9 d0bf
000002e0: 5184 0a86 e36b d5bf 9bfd 6b91 a3df d33f
000002f0: c7bf 2b7f c4ea cbbf e90e a82f 425d dcbf
00000300: 8d1c 2ba1 2536 e5bf 18ce 495f e9a6 d2bf
00000310: 3f6f 4a78 3379 ba3f 9ff4 d185 46c4 c13f
00000320: dcdb 347e 1f00 d13f 2d9c d424 4050 c5bf
00000330: 0aca 9ed6 0a18 b3bf 5449 8139 d4eb d4bf
00000340: f85e de84 8627 a9bf 95df a1a5 942d b53f
00000350: 868b de57 c161 a0bf 2f37 828c cb93 b53f
00000360: 1535 0cdb 2d95 a6bf ac71 680a fbb9 bfbf
00000370: f064 a0fd 0659 96bf caf2 8ae6 5027 dd3f
00000380: ab87 8e75 a21b e23f 1e60 39d1 3ca4 c73f
00000390: a002 b069 0d5f c7bf f5fb 9fd2 d3ae 80bf
000003a0: 0bc9 9dfe 5bc6 bbbf 479b 427d 8ee0 b93f
000003b0: b5ee 2f02 d53c d03f dd0a 1506 00ce 98bf
000003c0: 6347 cff8 d2c7 d53f a3df fea5 ea0e a33f
000003d0: 21bd 78f0 a841 b4bf 55bf e930 86e0 e73f
000003e0: d30b 1e89 6f75 e53f 150f 9e33 d380 c03f
000003f0: b743 b01c 6b49 be3f 5a83 dde0 2f0c c03f
00000400: d4d4 b083 0e25 853f 333e 7121 868f a63f
00000410: 39f7 f5b5 201a c5bf be91 ebb6 fcd3 803f
00000420: 7dc6 987a b6ba 983f 053c d036 6618 b0bf
00000430: 6d53 cf28 91e8 b33f 7ccc 9189 d0a9 d63f
00000440: 9a4c 53e6 f038 91bf ac00 5ae5 bcdc ae3f
00000450: bc41 d952 29a8 d23f e4f1 e6c5 8398 f23f
00000460: 27ab 7fdf dd8a b93f 7e9a 1aaf 96a3 d43f
00000470: 66a1 2a0e f4be e43f b769 95ae 8a97 abbf
00000480: cef4 9e41 94dd d23f 8c06 1586 bbfb c33f
00000490: 44ff bb32 46bb c1bf 6993 6abf 5a3e d03f
000004a0: 771c 4b4e f889 d63f 2ed8 be41 ffc4 af3f
000004b0: eddd 3f5d 6b1f c63f 4f27 9ae6 a6e5 d83f
000004c0: 0a14 584b aea2 c43f 9cf9 651c 9f46 c13f
000004d0: 3511 76cc 0635 a8bf 7c3e 0deb c4f9 9dbf
000004e0: 79e8 5695 4ad0 9abf 3d6d 04f6 c4c2 b5bf
000004f0: ed46 319f 4dfa b03f 6c78 c8dd 837f 9bbf
00000500: 504d 4ed4 5644 b63f a3bc 0aee cf21 b63f
00000510: 0070 fc6b 8552 c83f 5743 72ee f7ef e2bf
00000520: 4700 e28c bb37 d1bf b731 65d8 fe79 063f
00000530: 86ae 844c 913f f1bf 8bca 3c34 0467 efbf
00000540: b33e 11f1 6689 d1bf a58b 4189 5eef ecbf
00000550: af8a 5947 bc30 d8bf 29f7 5d69 f376 bbbf
00000560: d30e 77a9 7056 cc3f 2e5d 46b5 ecbe 78bf
00000570: fa4e c248 3010 bc3f 46b7 c792 8388 ca3f
00000580: 1dc8 c0cf 7abb b9bf a58f 2332 a34b b63f
00000590: 1b16 cc92 b792 c03f 7a20 53c9 cee5 b7bf
000005a0: a842 e451 b894 b2bf eaaa 99a9 42ee a63f
000005b0: e123 5b51 e5e0 cdbf c703 8d34 bf6a 9a3f
000005c0: 74f5 3591 6785 e33f 4deb 9f38 8430 b93f
000005d0: ab26 4e06 383c c2bf 1036 2408 86f1 91bf
000005e0: 2f5c ed68 765d c4bf 2f57 4fc9 0200 b33f
000005f0: 8d82 d4e9 ed9c a93f 5997 8295 7bff d23f
00000600: a298 8778 6236 a2bf 42f0 9111 c328 e8bf
00000610: 7d6d 01c7 9243 b8bf 6ff1 129b 1c93 c23f
00000620: a871 0605 dc9e b13f 0092 8c17 72da cc3f
00000630: 1683 939a ddae d8bf bb7e 2cc4 ad90 ac3f
00000640: f5aa e016 1080 babf 651d 4714 a7cd b53f
00000650: 7f8f fe5d 402b eb3f 03f9 0ce3 757f cbbf
00000660: 7725 d132 80ae d4bf 6406 866e b30c 9e3f
00000670: 4fe5 eaaf 4db8 a33f 16d4 b3c3 b9aa d43f
00000680: 535e 505b 313b af3f 7b0c faea 2bad ba3f
00000690: ee05 87db 307c 8ebf ee77 9d63 a58c eebf
000006a0: a1b2 f7d6 c553 dd3f c975 3018 c8c3 d23f
000006b0: 47f4 1984 21d1 c23f 59ec 2942 7cc1 9d3f
000006c0: 4a50 eb49 7930 cc3f ca56 d4f6 ec69 e13f
000006d0: bd16 7a08 9944 943f ffe1 3c94 4e30 d33f
000006e0: 1df2 9089 aee9 c93f dfc6 f1d7 f031 a73f
000006f0: eabc 5520 a0cb b13f 7115 ac31 6aa9 cc3f
00000700: dbf5 4f9f b46d d83f e26c a275 4767 c6bf
00000710: 35fa dc73 28b5 a23f 2dc7 0c63 bb6d a3bf
00000720: 370e 706d 43c7 d13f 2969 8864 43be e73f
00000730: ac28 419e 8c7c c6bf 73be f8c3 7ba8 b4bf
00000740: 5114 ae77 3251 e23f cd92 fe41 45c3 c3bf
00000750: bef3 2ee3 febd c7bf 6efc 4207 414b b0bf
00000760: c14a d7a1 0fd2 91bf fee1 fc93 5498 ddbf
00000770: 3d75 3429 deea d03f 921c c7b2 fcf3 e13f
00000780: a67f 9395 8a18 e1bf 4a8d b740 babf d5bf
00000790: 224e abb4 c87a d9bf 2b05 df3a 48a4 cf3f
000007a0: e9da 45ef c4e3 c03f 5912 5805 800f c43f
000007b0: 5c61 58b8 bbad c6bf 98dd a834 6940 ddbf
000007c0: 7643 dd07 857f de3f 3a39 8c33 fb4c cc3f
000007d0: 3760 209a 12bc dcbf 6868 429d 24e0 d83f
000007e0: 1458 ddaa 0703 cd3f e9bc 1fba e8ad c33f
000007f0: 1eab 8187 13b0 be3f 97a3 c245 4681 db3f
0.3628077957668192 0.06323612071052959 0.3608780452362566 -0.3665310956159621 -0.5396598831930024 0.4884759821519895 -0.2967662325482587 -0.2593421882116649
0.20145324475758478 0.05599410544063818 0.15792489687076022 0.019433985693334474 0.11073896746404047 -0.12274296034108778 0.19883779876804578 -0.18033272730280245
-0.06750338962339553 0.106790606794512 -0.19789587913439236 -0.03923421352694332 -0.6957308116648303 -0.144119163507635 0.5478602073370725 0.1160637465982447
0.0126553139537071 0.08912058976291086 -0.6560749906509422 0.29898459412451656 0.6454009084364862 0.20745163992084417 0.27911369844218126 1.6215258992658497
-0.16822423334474468 -0.1312560535187855 0.2874768983347206 -0.02115913946059374 -0.012217974539308635 -0.041384835770068004 0.03493788817494843 0.33722685521380286
-0.11001467472881969 0.1587548453772666 0.10759831963777246 -0.12893083759091645 -0.056126882777122064 -0.03684860418979508 0.12266247942216514 -0.12053006957499801
-0.21273563137565019 -0.023156259520499538 -0.11727346726917695 -0.1382073876425066 0.15175182980768007 0.0073186350429230084 -0.2277169987794987 -0.09772654939408999
0.0060714580251844275 0.7072557561281959 0.5548610892108556 0.11827300931482808 -0.07339052410519523 -0.2717350838535974 0.3006239635517885 0.3925477548170724
0.11030030182078597 0.062044113659773824 -0.49217621498922287 -0.016348721336882976 0.06316551062158476 -0.05773088072584572 0.44015764856037676 -0.1985500564106503
-0.14282972564061977 -0.24922697771015576 -0.39493951783782255 0.07063853626354828 0.44605018843436467 -0.04000126740449306 -0.03913753702320727 0.09265722125077941
-0.21837801563175402 0.08796856506787905 0.21372864037734374 0.5942477008262333 0.2627375383815811 1.607278498666984 0.5433990986754842 0.16533474736709078
0.5821882728875701 0.21577966225632075 -0.4241881071573728 -0.2632498867613692 -0.33471000757169117 0.31052483750678456 -0.21810203752056465 -0.44319204954102404
-0.6628597400494002 -0.2914374762105765 0.10341188132082112 0.1388023522776267 0.26563250851489584 -0.16651155279507304 -0.07458560695412345 -0.3268938600132476
-0.04912968036586379 0.08272675555951843 -0.03199581334708683 0.08428642444979738 -0.04410689639017044 -0.12393158916569885 -0.021823987226615438 0.4555246592897616
0.5658733650236533 0.18469963279744744 -0.18258826885723511 -0.00814595686460782 -0.10849547353953796 0.10108271177396687 0.253712894569371 -0.02422332799074921
0.3403212957174359 0.03722317959130741 -0.07912689085855053 0.7461577372869025 0.6705854108880608 0.12893142719632836 0.11830777597812313 0.1253719184851672
0.010324586290247607 0.04406375082237126 -0.16485985646061765 0.008216833431512135 0.024149752838815253 -0.06287230337350998 0.07776744123777997 0.35411466059230867
-0.016818775232263584 0.06027784633352104 0.2915137585705698 1.1622350435783284 0.09977518755446778 0.3224846563338487 0.6483097340288111 -0.05389054661891939
0.2947741165952039 0.1561197666833788 -0.1385276553846727 0.25380581562995147 0.35217101713028093 0.06204984357411579 0.17283384373852986 0.38901684303038037
0.16121462515744184 0.13496769796979613 -0.04727956052650698 -0.02927310642854629 -0.026185193409880434 -0.08500319486886539 0.06631932388816227 -0.026853619014325522
0.0869802730870124 0.08645343362398931 0.19001834652669913 -0.5917930276064948 -0.2690266490753896 4.287060714833499e-05 -1.078019427203715 -0.9813252468359946
-0.2740113596127955 -0.9042198830396627 -0.3779745766425248 -0.1072837955707341 0.22138794207250231 -0.00604145492652401 0.10962201858847812 0.20729107539176023
-0.10051696369262726 0.08709163641066071 0.12947745006401665 -0.09335033812669905 -0.07258178710277241 0.044786532595784426 -0.23342577431165437 0.025797832090805686
0.6100347362659435 0.09839655287207201 -0.1424627333438385 -0.017522901770510357 -0.15910225032232136 0.07421891608040874 0.05002540091868921 0.29684342957113113
-0.035571171963782136 -0.7549758284726595 -0.09478108747992127 0.14511449405643925 0.06883025286373956 0.2254164328561643 -0.38567295165380366 0.05579131145191015
-0.10351658400092474 0.08516926045478142 0.8490297160937955 -0.21482728563746187 -0.3231506820926237 0.029345325108357648 0.038515498852073386 0.32292026626174797
0.060998480221482375 0.10420488821732647 -0.014885312747426629 -0.9546687074287072 0.4582380866329832 0.2931995617126089 0.14700716924918053 0.029058400667491522
0.22022930249534262 0.5441803761375124 0.01979292978514623 0.2998234222064013 0.202443902178758 0.04530289302864587 0.06951332845141037 0.223920130018239
0.3816958957466718 -0.17502682918425366 0.03653837599130264 -0.037946563569120385 0.27778707206036607 0.7419754947216336 -0.1756759426810438 -0.08069585356201418
0.572411760091777 -0.15439668390640407 -0.18548570721568852 -0.06364828517233587 -0.0174028818635843 -0.4624225087350452 0.26433519386212706 0.5610335819009313
-0.534245769635153 -0.3398271209718656 -0.39811914103958845 0.24720099329537368 0.13195096667524034 0.15672302494944537 -0.1771769189952107 -0.457056332993909
0.4765331818389805 0.22109928147296803 -0.44897904445088294 0.3886806045280822 0.2266549667644432 0.15374478424153118 0.11987421091332037 0.4297652894261374

module.down_path.0.net.3.bias f8 [8]
00000000: ec53 b7bf 9d1c 8cbf aa61 e87f 510d b23f
00000010: fe36 d09f 4c58 b2bf b9d3 a9a0 55da 853f
00000020: 3123 e83f bac1 a63f 75d6 0960 7e07 a83f
00000030: 2d25 f73f 4cca ae3f 4d33 3760 9613 a53f
-0.013726456082546044 0.0705157220148808 -0.07165984059994554 0.010670346227223836 0.044446773816224534 0.04693217203468417 0.06013716011836787 0.04116506504542503

module.down_path.0.net.4.weight f8 [8]
00000000: 8118 9c8b a175 e73f 7fb6 9340 ddfa f23f
00000010: bb76 2f6b 7e36 f13f 3611 0726 a2bd f23f
00000020: 207b bf39 a748 f13f 901c f638 3a54 ee3f
00000030: 07ca 42ec be25 f43f e04b 0c13 2b2b f33f
0.7331092573883923 1.1862461588420101 1.0758041560106182 1.171297215028131 1.0802376037388015 0.9477816689040015 1.259215281385538 1.1980391258300571

module.down_path.0.net.4.bias f8 [8]
00000000: 6dda 46ce 5c74 a3bf bffe 0786 6372 b73f
00000010: 43e9 5af7 c037 f9bf 5936 a2a6 2dc6 bfbf
00000020: c505 5c92 61b8 9bbf fd20 d79d 4c15 b63f
00000030: 4f28 447b 82ee d33f a5d1 ed78 408a d13f
-0.03799715059306128 0.09158918401953552 -1.5761117613133855 -0.12411771124080796 -0.0270705457287528 0.08626250127338504 0.31143247640341526 0.27406322297545166

module.down_path.0.net.4.running_mean f8 [8]
00000000: 89ce baae f500 e8bf 2e2f 14cd 61cd fabf
00000010: 7501 7cf8 97bd 14c0 f210 4701 79ea e7bf
00000020: 4ea1 5fe4 8d7c f3bf 83d5 2691 c209 e83f
00000030: ebf4 a020 aed6 fabf 1960 aa33 cadf fcbf
-0.7501171505632139 -1.6751420985119228 -5.185150034493167 -0.7473721528008623 -1.2179087563364024 0.7511914095872928 -1.6774121546325726 -1.8046361940560074

module.down_path.0.net.4.running_var f8 [8]
00000000: f6cf ec4f a8ad 2340 2479 8170 45e5 3840
00000010: 9cd8 6409 011e 2440 2f7e b835 bbba 2140
00000020: b4af 7f86 b6ce 2d40 6f3c fc7e f2a1 f33f
00000030: fb34 9a68 5849 2f40 12d2 34da 0cb5 3140
9.839174745233304 24.895590812310857 10.058601659355467 8.864709547778231 14.903736308180534 1.2270379028666658 15.64325262911233 17.707227361579562

module.down_path.1.weight f8 [16, 8, 3, 3]
00000000: be8c 7bc3 4c41 ba3f 4200 0298 1fca bebf
00000010: b64b 534a 663b 913f 5fcb 0fc4 435e d23f
00000020: decb 4efc d792 adbf faff ee1b 893c cb3f
00000030: 8597 9483 186d ca3f 0cf6 e08a 3ef8 bdbf
00000040: acf0 bf22 2947 ccbf 5ad3 6bff 16da d6bf
00000050: 8e37 45fc 0d93 c63f 65fa c6e3 4a85 9dbf
00000060: 3257 87da ce4a c73f 2132 b9c5 7a94 e93f
00000070: 74ac 3ba6 80d4 d03f 5871 52fd 32a4 c0bf
00000080: 2515 09d5 98b1 c93f 3f65 5996 f04b d03f
00000090: c6af c656 2747 c03f a77b 2fe2 55cd e9bf
000000a0: a0b8 c48d 3786 debf 912b 3ce4 63be b83f
000000b0: ad95 cfb3 7dd9 dfbf 4ff9 a484 3765 c7bf
000000c0: 52f7 ac0f a31e dabf 7574 21c1 5001 d7bf
000000d0: 57a7 9825 1419 b83f 736d c5bb 4c28 b0bf
000000e0: f3ba 3d2c 6a43 dcbf 122b 527d 9efa a9bf
000000f0: 9797 30b3 2e6a 98bf 2371 db27 d28b be3f
00000100: dc7d af8d 2d8c d23f aa89 bd1f e460 c4bf
00000110: 42b1 1196 b125 98bf f7b9 1c87 0bfe d83f
00000120: 2450 bb39 af13 953f 1a20 9698 e057 d3bf
00000130: f90a b8df c163 d2bf 1da9 2492 2481 d73f
00000140: f8d8 f19b 06c5 af3f 8eba 1cbd 7855 d23f
00000150: f893 e69d 49ca dbbf c25b 7dd5 a0e3 dbbf
00000160: e853 899f 18bb 97bf b67a 0d5e 4b85 ba3f
00000170: 3850 2c1e 4792 c2bf ffb5 8c10 16cd b83f
00000180: da6d ebca 34ce d03f a6b3 98fa c4ad c73f
00000190: e219 4b5f 9e72 dc3f b470 fc0e a714 9cbf
000001a0: d0ab 79fb 456d 80bf 6ff9 f39d 87a2 cc3f
000001b0: 7bf7 eeec 7354 d63f 51fa 285d b1fa c9bf
000001c0: 3c9c b687 dd91 ad3f 4a22 e067 f73a ddbf
000001d0: 6e80 2a70 f0ee f4bf 8e8b ba33 f9be d1bf
000001e0: 706d 0f89 a3f1 c93f 866d 0a26 806a a33f
000001f0: 2463 2400 d3e9 b93f 5ab1 bfc9 a7cf bc3f
00000200: 3db4 7de9 4b01 ba3f 75dc fcc3 fa6b d33f
00000210: b0bd f01c c14b c23f 996e 09c4 6c2f b7bf
00000220: 9fac ce27 db13 66bf ee87 fa6b 5ae3 dd3f
00000230: 4fe2 cc02 5a4b 983f fda2 c1e1 98a7 dc3f
00000240: bd43 d605 287c e2bf 4e88 54af c905 e33f
00000250: a301 5fe3 ab59 b63f f9e6 65be 77f5 e0bf
00000260: 0176 0c16 6475 e83f f449 2fb8 39de c5bf
00000270: 1c84 33d2 d900 d7bf c3ed 9d57 288b e13f
00000280: 4ed4 f757 dee0 d43f 48d9 d799 5fbd c3bf
00000290: ec84 2591 ff90 e3bf 5883 22b7 e350 b43f
000002a0: 2d83 70a7 07f2 b03f 3864 59b3 715a da3f
000002b0: 9cfd d27a cf9f f73f 5913 77e4 a3a2 cfbf
000002c0: 374b 1449 22d4 d4bf c299 4583 81b1 cbbf
000002d0: f96b ec9c cec4 d23f 77c0 55a6 135b bc3f
000002e0: 6a36 bbfe b993 84bf 811a c952 dda5 6ebf
000002f0: b38f 2db6 9bdf c1bf 8037 0499 9080 babf
00000300: 3ec4 e1ef b7fc e43f 08b5 e20b f4ef afbf
00000310: 9aa7 2106 236c e13f f199 edd7 fcbc e43f
00000320: e4db 5e7c 1d15 923f 6c6c 158b 10b8 e03f
00000330: e6b0 89e0 a0dc a6bf 3986 7352 db92 e7bf
00000340: bb61 b1e3 e7aa d3bf eaa1 675f 6719 e33f
00000350: b72d 9805 2780 b43f 9865 fe97 1449 d13f
00000360: c97d a2af a08c 8abf 2a9b 66eb ee67 d13f
00000370: e659 1d7e 1490 d2bf 52a4 4f59 718c b13f
00000380: 4e45 e644 4a94 b43f 3ea5 509c 91b8 cabf
00000390: 5652 9c7f a52b c2bf 5af3 ca54 b497 ddbf
000003a0: 7ee7 54d0 9ce2 e3bf 0997 c497 6e3a d6bf
000003b0: eb18 8602 15e8 c8bf fe3c ff8f 361c da3f
000003c0: a386 eeed 632d d23f c280 cdee 134e c3bf
000003d0: 7f7f bf88 aa27 d43f 10ca c20a 49d2 e1bf
000003e0: a57f 5a45 71b0 cebf 4f5e 0771 ca8d cebf
000003f0: 10b3 aa30 207c b2bf 88f8 e0bd 8055 af3f
00000400: b03c fcb1 48bb ddbf dd52 9f99 90fe a03f
00000410: 16f4 2644 214e b8bf 4470 0945 fea0 e4bf
00000420: bd3b 78af 9937 ab3f 95a7 d65d 175e d73f
00000430: 79d8 fa67 f01a d93f 9a79 d9e6 f466 d8bf
00000440: eac0 8d3e e226 e5bf 50f6 b81e 4dce d9bf
00000450: ae52 32dd d176 d53f 30ba 5416 9332 cc3f
00000460: 66e1 a791 6566 e23f 3f75 15b0 c855 893f
00000470: d262 dbb9 b7a5 b9bf 72e2 6ab5 5d20 babf
00000480: f0c8 9c86 cd1b c8bf 3cfa a45a 6f89 e1bf
00000490: ca29 e703 b067 e1bf c09a 9392 2493 e3bf
000004a0: a608 2f80 7d1a e0bf 5f12 33f0 091e d8bf
000004b0: 54ad 666c 1c0c c43f a3de b697 ff97 b43f
000004c0: 7780 e0c2 d944 bc3f a630 d536 952a d5bf
000004d0: 0340 6d38 d4b3 d6bf 23f3 be52 f703 a3bf
000004e0: 43e0 f8b1 46ca bf3f c8fa 7b93 0b13 cd3f
000004f0: 280e d6bc e0a2 cf3f c962 8f91 8712 b2bf
00000500: 6f8f 09db ef74 d7bf a7aa e191 cc07 cabf
00000510: bd3c c5c4 48cb fabf 6f6e 302c f16b e6bf
00000520: 4ac8 b6a2 cc49 b6bf 3463 b7b4 ffc3 edbf
00000530: c4c2 6d53 2203 e93f 7885 5add 11ec e63f
00000540: 7d19 132f 3983 b23f e8f3 2c18 d4e9 f03f
00000550: ac6c 9434 014d e13f fad3 661a 7381 db3f
00000560: 8894 aedd 010a c53f db3a 99af c050 e33f
00000570: 8f30 0c52 a3ae dd3f f680 bdfa e851 bc3f
00000580: e4f7 3d77 6d9b e43f 7adb d838 1474 923f
00000590: 4a6c 99d1 c456 bfbf c7ad a54a cd04 d33f
000005a0: 1141 c9d4 38fe e1bf b383 5c61 e448 ba3f
000005b0: c8e2 5821 1ee0 bcbf 4096 0ad9 417a e23f
000005c0: 7c3a ceff 5161 e73f 5b8a 2bbf ec27 cd3f
000005d0: 89bd b655 c1b0 c13f 9fd9 0dc5 b0d6 c33f
000005e0: 23b2 70d0 df67 d0bf bb33 7ad4 f40d b4bf
000005f0: 5b87 bbcc 6ce7 c73f 116e bb05 5169 dcbf
00000600: b332 dd7a 93be d3bf 306b 1902 9d85 ba3f
00000610: 2965 6df5 8b78 c0bf 1b47 847b 58c6 c3bf
00000620: 958a 8189 5722 bf3f 3a98 6c8c 0204 dbbf
00000630: 3775 d6b6 7908 a93f d959 6525 96a1 cb3f
00000640: 5efa 1e65 94cf dcbf e701 e4f1 9ab0 b33f
00000650: e1f6 79f2 a77a b3bf f781 2fea 019d dfbf
00000660: 3393 3ce2 8639 c23f 65f0 3d19 2af6 bc3f
00000670: 1971 fed1 8c7e adbf a522 e3c1 da9a b2bf
00000680: 712f 6bb9 fecf d53f 3a6e f9e0 c7df dc3f
00000690: 1bf9 78cc 3fad ecbf 3865 15b2 39bb e3bf
000006a0: 8176 7eaf 627a dfbf c999 17e6 3e86 d4bf
000006b0: 224b 5400 c452 df3f 56c9 01f8 1320 bb3f
000006c0: 5259 d653 ad92 d6bf 0cfe 47cf ff83 dc3f
000006d0: 8711 01df 8f4b d6bf 49ab 68d9 58a1 c8bf
000006e0: e246 6fc0 30fa d03f 29e0 732a 9312 d5bf
000006f0: a405 a506 cd9b d63f b627 fe8c 2bcb a5bf
00000700: d717 e673 5f3b cebf 4fda 8130 df71 ca3f
00000710: 38b8 eb63 1045 bf3f 6a74 ea02 8ebe d43f
00000720: d66a 427c b504 d83f b87e 99f0 4c07 c13f
00000730: 3786 b2d5 c555 c3bf dfa2 4583 9f8d be3f
00000740: 68f3 a3b7 2102 bcbf 6689 5548 10c6 dbbf
00000750: fc8e 7668 2dd8 c0bf 20d6 c667 8553 f1bf
00000760: 1a04 99fd 984b bc3f 15f8 c07f 5c9b d83f
00000770: cb85 847b 88bc e5bf c652 c6b3 2ebf e83f
00000780: eba5 9165 726b c1bf b30d 2cd6 6248 e3bf
00000790: c981 04e9 cbbd a03f 38d1 d346 5c80 da3f
000007a0: dce8 7ca7 b7bd b63f 9df2 e8ac eaf0 db3f
000007b0: a90e 515f 85c3 d83f e911 d04f c654 d53f
000007c0: 6d0e 1715 a7c0 9c3f 9f51 825d 5e60 d53f
000007d0: c6d5 4892 faf1 db3f 73fa 20f0 fdad e13f
000007e0: 43e7 a650 cee3 c2bf 6451 8be1 8da0 cd3f
000007f0: f488 eac6 d25b e1bf 77b7 c289 a2e3 b93f
0.10255889675640881 -0.12027165852669078 0.016828153883419815 0.2870034613289842 -0.05776095347336939 0.21278489936776152 0.2064543383104899 -0.11706915751070585
-0.2209216518093674 -0.357061147150764 0.17636275117768857 -0.02882878318063788 0.18197045965524122 0.7993749486718721 0.26297012551976384 -0.13001096123924571
0.20073233034251206 0.2546349972013395 0.12717143761744704 -0.8063153665242354 -0.47694195599150113 0.09665512392181898 -0.4976495986905672 -0.18277639366892592
-0.40811993151497916 -0.3594552885095433 0.09413267057302953 -0.06311492523439259 -0.44161466904090146 -0.050740196989030775 -0.023842553793791046 0.11932099793506672
0.28980578266597745 -0.15920688199828464 -0.023581290039531362 0.3905056781249238 0.020582902811682527 -0.3022386064626531 -0.28733870360899477 0.36725725433156403
0.062050062690944985 0.2864667746352233 -0.4342216531752565 -0.43576832626916595 -0.02317465280278333 0.10359641119201055 -0.14508904431625225 0.0968793669132637
0.26258582893725946 0.18499052272946165 0.44449576669685886 -0.027422533311537392 -0.008020922409931602 0.22371001446294822 0.34890459192308015 -0.2029630379565384
0.05775348931938892 -0.4567240251931578 -1.3083347684369317 -0.27728109408979484 0.20268673126598058 0.03792190994610238 0.10122412446470413 0.11254357028491793
0.1015822835012878 0.303465548891331 0.1429368392286796 -0.09056739603095777 -0.002695014989929925 0.467001538703811 0.023724943562429875 0.44772932096979884
-0.577655803108534 0.5944565224092544 0.08730577755978301 -0.5299643248283409 0.764329951347179 -0.17084428304094923 -0.35942693259682 0.548237010123039
0.32622488585122233 -0.15421671878693588 -0.6114499888318767 0.07935927601876125 0.06619308317068535 0.41177027239388364 1.4765162275142307 -0.2471508851578175
-0.32544762741706584 -0.21635455045470847 0.29326215099871394 0.1107647210208159 -0.010047391020090408 -0.003741199753025726 -0.13963648219498523 -0.10352424369577129
0.6558494267648098 -0.062377573443294365 0.5444502944712781 0.6480697839113515 0.017658673015571127 0.5224688259580836 -0.04465201130810374 -0.7366768465400987
-0.307306263309808 0.5968510497451096 0.08008045088370506 0.27008547633303115 -0.012963538513132715 0.27196858394966006 -0.29004394832500535 0.06854923658797077
0.08038772756687715 -0.20875759251183895 -0.14195698481548175 -0.4623843029074145 -0.6214126652696306 -0.3473164064511001 -0.19458258269532477 0.407971993085951
0.2840204070617835 -0.15082024727144555 0.3149210296087332 -0.5569195947812791 -0.23975959669496408 -0.23870211142524275 -0.07220650852350396 0.06119921033722259
-0.4645559061181741 0.03319217562935759 -0.09494216836806432 -0.6446524952293733 0.053158571881901186 0.3651178757087277 0.3922692313602805 -0.3812839750661624
-0.6609965535881461 -0.40321662903065647 0.3353771839258951 0.22029341307048034 0.5749996037330163 0.012370651124622099 -0.10018490111850589 -0.10205636672152155
-0.1883484751975355 -0.5480267305754931 -0.5439071727972131 -0.6117117750953511 -0.5032336715305703 -0.3768334241579278 0.15661959927579494 0.08044431165660142
0.11042557723749434 -0.330724051997786 -0.35472589025903306 -0.037139633990113795 0.12418023915313463 0.2271437139642869 0.2471581384707957 -0.0705952387210217
-0.36651226415982924 -0.2033630096733152 -1.6746299444528596 -0.7006765235013982 -0.08706358883390056 -0.9301756410232884 0.7816325787990412 0.716317112284897
0.0723148097923509 1.057087034641194 0.5406499888371363 0.4297759778813198 0.16436789821924358 0.6036075048121704 0.4637840558286905 0.11062484857166396
0.6439730957933958 0.018020931214973036 -0.12241773717089291 0.29716808595432237 -0.5622829586009478 0.10267474534022263 -0.11279476465359572 0.5774239768113105
0.730629920597337 0.22778090795971448 0.13820664105649552 0.1549893343141777 -0.25633998256197027 -0.07833795726237629 0.18675003048616187 -0.4439280086496363
-0.30850684164469583 0.1036012773633217 -0.12867879375225158 -0.15449052840318064 0.1216177664478358 -0.42211974824238363 0.04889278752237163 0.21586872888538158
-0.45016965746973436 0.07691353230985208 -0.0760903326972442 -0.4939579760521435 0.142380581347561 0.11313117138155489 -0.05760612548258077 -0.07267539247107864
0.340820008347456 0.45115849466467106 -0.8961485856632722 -0.6166046598620261 -0.4918448175247719 -0.3206937071794554 0.4894266131606618 0.10595822148187514
-0.35270245730625505 0.44555659525210056 -0.3483619382643827 -0.19242392173449677 0.26527041237305415 -0.32925871988072913 0.35325933121574793 -0.042565690003427845
-0.23618691596146732 0.20660009258763742 0.12214758338424836 0.32413053784131896 0.37528741011344147 0.13303529499079558 -0.15105507788125447 0.11934849696047987
-0.10940752728852277 -0.43396384300117175 -0.13159720993746038 -1.0828908971574336 0.11052852813101346 0.3844825027080117 -0.679264298673098 0.7733376990532512
-0.1360915180151062 -0.6025861914680973 0.03269803256467047 0.4140845004724443 0.08883235777912851 0.4365793884824514 0.3869336539102997 0.3332992343350996
0.02807866159652266 0.33400687343353214 0.43664421353909366 0.55248925113831 -0.1475770849045209 0.23146222603703415 -0.5424589047509287 0.10112968314453306

module.down_path.2.net.0.weight f8 [16, 16, 3, 3]
00000000: 2e35 3f55 fcf2 8abf f199 6a2b 697c a0bf
00000010: 92a2 1140 3815 cb3f 9b90 054d 8003 c4bf
00000020: 05b7 a0b6 8bde d3bf ee8b fc8b 92b3 b33f
00000030: 153a a767 e2e5 c23f 7936 9171 c079 bebf
00000040: 6dc1 ddfc 3161 c63f 7a9f 7e8a b895 9dbf
00000050: 3940 d786 3bab bf3f 49dc fc51 16a7 c13f
00000060: 2f80 7ba6 fc47 d73f 1ab9 2cc9 03fb d6bf
00000070: 7cd7 84c8 cf53 d4bf f764 a530 6fac da3f
00000080: fd4a 7545 c274 c53f 40a4 cc6f 7f39 e3bf
00000090: 88ab 0ba4 8e57 a0bf 4728 c717 d1fe ac3f
000000a0: fe3c 06bc 7ed0 cabf 9f07 eddd 12db e4bf
000000b0: f9e1 4988 d416 d8bf db4e d4a3 d603 d5bf
000000c0: e473 2211 e44f e7bf 0e56 e38a 1899 eabf
000000d0: 82b9 2957 0008 b53f a161 c30e 0964 96bf
000000e0: 8c99 3ec0 13bd c1bf 2154 61b3 7737 d63f
000000f0: 064e 7bde b61e d23f 4cf4 3c01 9dd4 bd3f
00000100: fcf5 9839 a8f7 e0bf 34e2 4e8f a90e 903f
00000110: 63a5 fab5 4b42 9a3f 06d2 2ea8 c79c dbbf
00000120: a707 fdda 3e68 9a3f c585 13ee f8ed d43f
00000130: 1021 5b91 cfd9 d33f 6e95 2d1c 80ed bd3f
00000140: 31af cf20 e8e2 d3bf e9c6 2c59 c504 d93f
00000150: cb0e a3c4 e332 c9bf a3df 8dd3 ba9c e5bf
00000160: 74aa 971c af12 bc3f 7f1a 60cc 1b0b ccbf
00000170: 1e5b ecb3 ac73 b3bf c669 4ee4 d152 c63f
00000180: 2376 6573 e72b e53f d77f a61a de72 e43f
00000190: 359c c25d 380a c63f 4f5f 7a35 0855 c1bf
000001a0: ee94 5e95 71e8 9bbf f69b 0ccc e15d abbf
000001b0: 2dda 38e5 53cb bb3f 3d51 3385 6174 cc3f
000001c0: 1692 c2a9 16a8 a73f 44a3 69f0 7862 dd3f
000001d0: d7fe e91a 65a4 b03f 96e3 cfab 3c36 dcbf
000001e0: 7fb7 8e6c 7be8 a53f a259 008c 7b8e cd3f
000001f0: bb96 2e5e fd78 e6bf 2c88 570d d735 70bf
00000200: cace 6d21 cfc7 d1bf 0b75 b9da 7f77 c2bf
00000210: 02cc 5ab5 8338 c6bf 4237 2280 5546 d1bf
00000220: 46c6 f5fd 5a15 d23f 5379 16f4 be3b d4bf
00000230: 68ac d1dd cb3a e6bf b073 7486 c243 d23f
00000240: 0d0c e89d 4f23 903f c84b a24a 46a7 c23f
00000250: 0be8 e145 70b7 a23f 9c95 8c4d c3bb b6bf
00000260: 343b 59d6 d46f e8bf fc9b f9cd 207b c7bf
00000270: 4101 3e16 f8a3 93bf c1d6 e31a a770 e1bf
00000280: 4b3c 8ea3 fdd5 cbbf b78e 1f57 5404 90bf
00000290: e6aa c550 7deb b73f cd60 8dc2 f5e0 da3f
000002a0: 0dd7 b130 e6d2 bf3f 256e f75a 8d19 f03f
000002b0: 0c94 07d9 b453 e23f 45ed 479d 7a9c d6bf
000002c0: 6116 0823 c43d da3f 166c dcc3 626a e03f
000002d0: d5c3 76ca 26ea 91bf c6de 030c 7130 90bf
000002e0: d059 562e aab8 943f e11e 9080 593e a03f
000002f0: 766f a729 4f1b e33f 466e 00b1 1229 a8bf
00000300: 24e2 720c 920d 9dbf 7c81 e772 2e12 c03f
00000310: fb44 bb99 9ef5 d1bf a5ce 8ec7 34f3 c43f
00000320: ba5e 4474 aa7f e33f af15 ee6b 8364 d6bf
00000330: 73bb 1fb4 2772 813f e3ca c5da 258e e9bf
00000340: 5b4d 3637 c889 c13f a733 e13a 945b c83f
00000350: 7106 109a fcad bf3f 50fa 15cb 5bbf d6bf
00000360: 24bd 4bb8 7356 d2bf 49d0 a710 0489 9ebf
00000370: de35 708d b609 bbbf 854c bb34 9109 c5bf
00000380: 6f6d 856c 0049 d03f 73ac 9626 e72c ce3f
00000390: acdb 3c6b fd69 a23f b2b7 f01d 52b0 adbf
000003a0: fe44 18fe 9939 bd3f b30d 97eb e0c2 b33f
000003b0: 2ee1 7a3a 46de b4bf 509f b82d 3f28 c33f
000003c0: 96bc 265e 0373 c3bf 8419 abc1 1c20 e6bf
000003d0: 8211 9702 1558 d03f 3a99 9157 fbae ca3f
000003e0: b24a d339 4413 a1bf cdfe 7975 8eb8 b83f
000003f0: 2101 9001 c653 b23f 9971 910a 1590 ae3f
00000400: cc58 4f66 228c b3bf cfd6 ac4d dd91 bbbf
00000410: 23ac 1aa0 4001 a63f 5c34 0c66 a526 c53f
00000420: 3120 0d2e 893f c8bf 2f2d 11b8 4de8 d3bf
00000430: 966d 074f 0564 d43f 333c 2dfb 81d4 d03f
00000440: def3 547a f3bd d13f ff1e 6301 1964 c73f
00000450: 3ac2 6912 af8d c0bf 5908 2705 fba4 d23f
00000460: fb88 c9f0 2de8 d33f 984e 43fc 9399 d03f
00000470: dbde cdeb 7aab c43f bfae 9fb0 0f87 cd3f
00000480: 79a9 4c45 e5af b9bf 2048 e161 f162 ddbf
00000490: 46e1 10f4 4e53 c6bf a7ca cb67 e6e4 79bf
000004a0: aaa7 24b8 2856 dcbf eca5 4143 12db d23f
000004b0: f14d 61c7 f582 ac3f 160f 4d6b 2840 d2bf
000004c0: c28e 7b57 ec5d d9bf 18b0 f5a7 d590 d13f
000004d0: a5e6 e9d6 b4f8 b6bf fe15 0abd 4437 d43f
000004e0: 8f93 2031 fc7a d63f 25e9 e752 cb93 913f
000004f0: 6edd ad0d d115 a1bf 3a96 e921 e212 e43f
00000500: 6fa1 5f32 b4ab b53f 38f0 120d a107 d1bf
00000510: 7c7a 157d 8e07 d03f 0bc0 9e4d 86b8 babf
00000520: 9b5d e917 7265 a2bf 81c2 a861 5ea0 823f
00000530: 865a f93a 33a5 bebf 3809 922b 1782 bebf
00000540: 03b7 26c6 1002 d6bf e776 c7d1 1cd5 d73f
00000550: 600a 8bda 12e7 f03f ce93 45ac 72b6 babf
00000560: bee6 2075 5fdc dbbf ee7c 8803 ece4 b6bf
00000570: b9db 9bb9 e958 d53f da41 2197 d452 b23f
00000580: 6dd2 6a94 f7f8 b4bf be87 3a64 99dd d03f
00000590: 2355 0c3a 8058 c73f 41ae 505a f72d e2bf
000005a0: 1c0d 4aa5 d158 bd3f fb7e f921 8585 bb3f
000005b0: b794 7142 1da5 d73f 4844 79a0 2932 9ebf
000005c0: 90e8 b72a d085 d43f 26df 9358 e1c0 d23f
000005d0: 0607 57c7 d46c cabf 644f 6d0f d68f e33f
000005e0: 9c88 8e07 9f5f cb3f 8348 b597 754c bbbf
000005f0: 9e75 5cf4 63fc ca3f e6e2 ae6f 0a97 bc3f
00000600: 1a08 44e4 e9e0 c7bf 8bf5 94fb b26c ebbf
00000610: 8536 766c d1b8 d3bf 2cea 2d35 3b21 d5bf
00000620: cfb0 71a3 a76a e43f 6f2a 96c3 b831 b53f
00000630: f5eb a389 8aad a73f fc36 5403 036c d1bf
00000640: 5d25 5359 bd15 bf3f 6cdb 865c 7d84 b0bf
00000650: a6c8 4672 86cb d83f a071 84ac be5a c1bf
00000660: 2256 fb29 d335 bf3f 8e7d 6b93 55d4 883f
00000670: afd8 068d 358a d73f 6953 d320 39b9 b43f
00000680: ec16 488e 0ea0 d1bf 82ec d0a8 22a1 e0bf
00000690: ddfa 7a39 2b35 d23f 49d8 eee4 4047 d5bf
000006a0: c3fa c545 a5b0 d13f 041a 9a76 9532 adbf
000006b0: 7a18 f96c b123 c53f 8f45 c9b7 86bc d03f
000006c0: 3f8c 0372 c4c0 aebf b42a e3ab cfeb b3bf
000006d0: c349 b3f6 5de8 be3f 02e5 f103 5a05 e4bf
000006e0: f62a 09c3 7409 c6bf c584 751b 4087 d3bf
000006f0: 09bd f614 28a0 e3bf bf0a d562 816c e53f
00000700: 1cbc 7df2 0325 dc3f b6ec 4c92 4fef be3f
00000710: cf25 d8e8 2961 ccbf 54cd 15cf 42a2 aabf
00000720: d66c 2f92 c7e2 d9bf a0a8 0503 5700 973f
00000730: 8b3f 7a13 174f b13f 9fec 19fd 66a2 e3bf
00000740: d856 aa76 fd4a abbf 3460 812c 6290 b03f
00000750: 3013 cd94 00b4 c3bf 46d6 8ad9 b1f6 a5bf
00000760: 68ac 1694 0866 d0bf dec7 7c5f 00bf c83f
00000770: d992 008f 26f8 c5bf b03e 95a4 2a52 9dbf
00000780: 7a6a 054f e967 e0bf ec70 4a23 e7f8 c13f
00000790: 8261 672c 7ea4 b13f 9d93 8017 c07e b3bf
000007a0: 67dd e07e 879e c2bf 33d0 7bf9 e0b3 a53f
000007b0: aa33 d0f4 785e da3f 5ebc 0341 29bd dabf
000007c0: 54df ebc0 c712 dd3f cdaf 65a1 c1e6 e23f
000007d0: aba3 f793 9482 cc3f 0d5d 4a25 6e44 bebf
000007e0: 8a7d 0057 50a6 d0bf f688 40fe 8ca3 bcbf
000007f0: 21b7 b510 2770 d1bf 68bf 7918 c09b b4bf
-0.013158770896462526 -0.03219917922006122 0.21158507469524018 -0.15635684738947905 -0.31045811495538117 0.07695880811347397 0.14764051495736 -0.11904528401029237
0.17484116408332842 -0.028891452267685726 0.12370655099880502 0.13791159632975994 0.36376873262452397 -0.3590707268330263 -0.31761545736241437 0.41677455664246515
0.16762569800865626 -0.600768774374167 -0.031918008351417504 0.0566315976644352 -0.20948776417615272 -0.6517423948755442 -0.3763934451049234 -0.3283592796226295
-0.7285023054752142 -0.8311884606034157 0.08215334060671434 -0.021865979696345076 -0.138582676762962 0.34713547246548343 0.2831246540710882 0.11652547149874798
-0.5302315831137885 0.015680932399592076 0.025643523199197726 -0.4314440863047654 0.025788290134421434 0.3270246815646625 0.31016911692542326 0.11690521896305991
-0.3107242889807252 0.3909161921356899 -0.19686553098119072 -0.6753820545118184 0.10966009567315799 -0.21908900717990673 -0.07598380463273854 0.17440246246117236
0.6616093877634664 0.6390219231143374 0.17218689516195843 -0.13540747271758355 -0.027253889791286783 -0.053450637968403145 0.10857128473512807 0.22230166438988333
0.046204288695012405 0.459135279443718 0.06500846774178669 -0.44081036356470216 0.04278932285465852 0.23091072402958185 -0.7022692527286475 -0.003957595870334212
-0.2778203798727473 -0.14427183322815326 -0.17359968524178276 -0.2699178458504897 0.28255343247210296 -0.31614660107324716 -0.6946772892382684 0.28538573389397026
0.01575970078739535 0.14572981495129356 0.03655577519471372 -0.08880253451623904 -0.7636512934203439 -0.18344507272124122 -0.01918017993693977 -0.5450015568919399
-0.21746798025239608 -0.015641515557844623 0.09343703481651353 0.41998046874279 0.12431181610903881 1.0062383225803242 0.5727180708751134 -0.3533007179209629
0.41001990719846587 0.5129865479860907 -0.017494779689233148 -0.01580978999933682 0.02023569019146426 0.03172568983432967 0.597083646159702 -0.04718836222329208
-0.02837207985860081 0.12555485354006268 -0.28061642659038427 0.1636720632937926 0.6093342085686893 -0.3498848489765249 0.008518514809080923 -0.7986020348456261
0.13701727577118103 0.1902947700022228 0.12374857674878982 -0.3554296000728856 -0.28652661321298667 -0.029819549099514373 -0.10561696007808716 -0.16435446810519153
0.2544556674744944 0.23574532875258888 0.03596488889745983 -0.0579858457134458 0.1141601796482696 0.07719236137113832 -0.08151663711294496 0.14966573460082566
-0.15194742295486624 -0.6914199621758574 0.2553761029523899 0.20846502090280145 -0.033350116785773834 0.0965661083991975 0.07159078157565492 0.059693009891563516
-0.07635703084756357 -0.10769446512571366 0.04297830538174476 0.1652418850211771 -0.18943896053883827 -0.3110536859064323 0.31860478131940206 0.26297044304823486
0.27721869417638156 0.18274223869070025 -0.1293238487155735 0.29131961348696717 0.31104610933665783 0.2593736613755282 0.16148315919757902 0.2306842434330658
-0.10034020368462916 -0.4591639953479234 -0.17441737096101856 -0.006321811696340752 -0.4427587316773677 0.29462105339061284 0.055686646068945474 -0.2851658866750183
-0.39635761779048206 0.27446500208202584 -0.08973245856204899 0.3158733221137878 0.351256416297752 0.017165352759527814 -0.03336957256299909 0.6273050939896117
0.08465124349425478 -0.26609064366107615 0.2504612180254424 -0.1043781222822419 -0.03593021909608326 0.009094941478083431 -0.11970825376315916 -0.11917252362949149
-0.34387606955247935 0.3723823593735304 1.0564144646492863 -0.10434643464903035 -0.43532549322445024 -0.08943057142504404 0.33355181814061613 0.07157639207549185
-0.0819239365908488 0.2635253409190418 0.18238833269484997 -0.5681111110656688 0.11463651929266344 0.10750610427339417 0.36945277680053884 -0.029488230151688805
0.3206673066303063 0.29302247667463843 -0.20644626363178292 0.6113081265743685 0.21385562771780975 -0.10663542703449207 0.21082734519670238 0.11167969919814488
-0.18655131955898768 -0.8570189393719131 -0.30815539924592655 -0.3301532763795503 0.6380193893687877 0.08278994345725164 0.046245888997837804 -0.2722175152310766
0.12142547064572314 -0.06452163227991797 0.387422191236633 -0.13558181213092002 0.12191505217500567 0.012123745499990315 0.36781061908858254 0.08095128108409501
-0.27539409537017323 -0.5196698472203851 0.2844951688129365 -0.33247396809327207 0.27640659154705477 -0.05702654907968355 0.1651517660231468 0.261506728628853
-0.060064448278148046 -0.07781694361180308 0.12073313973386406 -0.6256532742546883 -0.17216357730134008 -0.3051300304560523 -0.6133003625344894 0.6694952898327172
0.4397592418744709 0.12083909341611129 -0.2217152010855856 -0.052019202975226136 -0.40446652675536876 0.022462234076933485 0.06761306977773367 -0.6135744994529836
-0.05330650399734588 0.06470311724240291 -0.15393073335339968 -0.04289775639101072 -0.25622763120435943 0.19332890188667212 -0.17163545591861043 -0.028633753104542137
-0.5126844924337342 0.14040841315443886 0.06891621193006439 -0.07615280698571643 -0.14546292968018834 0.04238799138502749 0.4120161429171342 -0.4177954802425513
0.45427125778177424 0.5906685020722705 0.22273499703376606 -0.1182316628495423 -0.26015099045067613 -0.11187058646513379 -0.27247025138682274 -0.0805015620951487
