results/run_1/saved_model_unet10.pt (torch, 351712 bytes, 75 tensors)

module.down_path.0.net.0.weight f8 [8, 4, 3, 3]
0	0x3fc2b5cf82153038	0.14617341853807075
1	0xbf944ce7f2c61b53	-0.019824623291721476
2	0x3fb13ea4e23f58c0	0.0673621227609571
3	0xbfb65a45c24e25d7	-0.08731494897633439
4	0x3fb451ac848813ef	0.07937124477037093
5	0x3f9b64e2e83bf961	0.02675203840680618
6	0x3f8467c3a037aa4f	0.009963539435337369
7	0xbfbfa851b51e1826	-0.12366209670844394
8	0xbfa5b6bfafcca2c4	-0.04240988751400246
9	0xbfa7fcd5db05bf1d	-0.04685085581411228
10	0xbfac9a056248158f	-0.05586258721090608
11	0x3fb43e1f4b3671e3	0.07907291017767863
12	0xbf9cea00ef9d0295	-0.02823640310748717
13	0x3fc1b35b267e219c	0.1382860124542845
14	0xbfb2bc99947e8e04	-0.07319030642843677
15	0x3fc47dcfe837dfc0	0.16008948172361492
16	0x3facd5a246a286df	0.056317397234364235
17	0xbfb55bce3919bed1	-0.0834320916562732
18	0xbf9ffc55a072d2b1	-0.031236017148972454
19	0xbfc7b69484332831	-0.18525940375394748
20	0x3fc0fbbc69f77219	0.1326823728003468
21	0x3fb7a4d9ed0c3ccf	0.09235918080615878
22	0x3fb292dc32d7ac62	0.07255340806266156
23	0x3fb58a67f82425ec	0.08414315994391303
24	0x3fb8978ccc5f5077	0.09606246938284523
25	0x3fb5aac1ab5a4a4b	0.08463678773322518
26	0xbfbcd47adf496dbe	-0.11261718703592913
27	0xbf9a8b20f8a43cd0	-0.02592135922992328
28	0x3fbb0705d370a137	0.10557590877636334
29	0x3fbce09b3e0ee31a	0.11280222191897984
30	0x3fadf3f321905ec2	0.05850181374279152
31	0x3fb0ae6f704cd907	0.06516167155936979
32	0x3fb766a2bb241c17	0.09140984600900058
33	0xbf9382581d985db6	-0.019051911169382506
34	0x3fb890f19e80c970	0.09596166724876354
35	0xbfa53b66cc4bd6f5	-0.04146882289744084
36	0x3f97bd93108c81c4	0.023184106717168765
37	0x3fb52d1053438d03	0.08271886856850945
38	0x3fb3b8a26199da97	0.07703604586445532
39	0x3fc28f3937978d4f	0.14499583448842165
40	0x3fcb19be6f588549	0.21172314106756066
41	0x3fbdfb19b5c2fb6a	0.11711273849048856
42	0xbf4e80ecea2f16e5	-0.0009308964548544156
43	0x3f9da6a05689364a	0.028955941468942016
44	0x3f927bd8c4c27af0	0.01805056286741097
45	0x3fb8083802ebf6e4	0.0938754088528771
46	0xbfa949e6f387dbdd	-0.04939195368563507
47	0xbf8014df5d0db5ab	-0.007852311160344202
48	0xbf7129bc8d9f282d	-0.004190193687415839
49	0xbf9650edea36fcad	-0.021793095989548195
50	0x3fb82e6438048b9c	0.09445787780400255
51	0xbfc5079ec2dd977f	-0.16429504885598686
52	0xbfc7c856a52efa9c	-0.18580134454346797
53	0xbfbdc2f81a7af30f	-0.1162562431954479
54	0x3fafbcd9da95429e	0.06198769372224898
55	0x3fbc5288f8a2799c	0.11063438482458426
56	0xbfb99d78b8b0e3aa	-0.10005907544190387
57	0x3fc07f81afa8bcd1	0.12889119221788417
58	0x3fc0b2eb088255c2	0.1304601470516627
59	0x3f911c763adafca8	0.016710135786294572
60	0x3f878d56f62fbab0	0.011500052822126378
61	0xbf7779b18ba3df46	-0.005731290375699255
62	0xbf99bec9eeab4a8a	-0.025141864006239113
63	0xbf9d20d234df6a3f	-0.02844551513394777
64	0xbfc23e219e1d080c	-0.14252109737759644
65	0xbfbc6f0c961b2155	-0.11106947579094613
66	0x3fbff0677083c0b0	0.12476202485027232
67	0xbfc0f8a9df15d888	-0.13258860962713848
68	0x3fb901530f665d56	0.09767645956013857
69	0xbfb694aa2402ede8	-0.08820594195542919
70	0xbfb96f5c5e3a8076	-0.09935548115254442
71	0x3fbeb32fa17da2bd	0.11992166226049057
72	0x3fbbc4fec98ba64c	0.10847465916199289
73	0x3fba4a0fc8b676ca	0.10269259119237542
74	0xbfb38c5eef38f379	-0.07636063900367941
75	0xbfb1703360c6746a	-0.06811829674411887
76	0xbfb3bd1210f03b48	-0.0771037379601981
77	0xbfc773007c9696d7	-0.18319707950029482
78	0x3fc14f0095aa9079	0.13522345836566155
79	0x3fb3f7bc80ffa035	0.07799890660646798
80	0xbfaa4894bc6c1eaa	-0.05133499908521107
81	0x3f9a6618697b4a11	0.025780087888799545
82	0xbfc8165ba9ea4ad9	-0.18818231388703202
83	0x3fa083f2d2a2db40	0.03225668736688769
84	0x3f9b0fc241f08b35	0.026427302622447264
85	0xbfcf43d65a315786	-0.2442577305216071
86	0x3f0deb40c8a55fe7	5.706588224779746e-05
87	0x3f9fb8a06c3ef0a6	0.0309777322834043
88	0xbfbfc40dc28ac1cd	-0.12408529281197574
89	0xbf8481eaca223fe8	-0.010013422292359977
90	0x3f9a603cb3d6aca3	0.025757740475154233
91	0xbfc21f4b9a8e686b	-0.14158005758946798
92	0xbfb5eb7a49df7c09	-0.08562435439624506
93	0xbfa4205c6b449cf2	-0.039309394926300714
94	0x3fd0276872a99e41	0.2524052734138174
95	0x3f9c24312e9d58c7	0.027481811971789918
96	0x3fbec3891e75096c	0.12017113679488539
97	0x3fb81a008606921b	0.09414675972090729
98	0x3fa14380552f3978	0.03371811904763694
99	0xbfb74865f3a19cd6	-0.09094845960645456
100	0x3fbd1c18be8447b3	0.11370997096335493
101	0xbf74670b9caa42ae	-0.0049810842125600895
102	0xbfac2c444a5e4756	-0.05502522857490415
103	0x3fb5a0a9fe11e95a	0.08448278859024097
104	0x3f90468790014fb1	0.015894048847556245
105	0x3fa56b073b7c5beb	0.0418321857561564
106	0xbf847407c5b3a3fe	-0.0099869353493478
107	0xbfbaebb1c26b824f	-0.1051589107187365
108	0x3fb3f2e1cd4cd4a2	0.07792483579835843
109	0xbfc9a3121b50b446	-0.20028902372124174
110	0xbfab8d9f390eb10f	-0.05381486484052022
111	0x3f961184e16e7f44	0.021551204928641057
112	0x3fc781e7612cd240	0.18365185017468555
113	0xbfa7769024d173c0	-0.045826439375310724
114	0xbfa56ff40db5da77	-0.04186976115572787
115	0x3fc599ab5b0fe512	0.1687521166457278
116	0xbf4a22b0e3137bb0	-0.0007975925165303235
117	0xbfa7b5ab7a4bf238	-0.04630790584449013
118	0xbfb0812142757051	-0.06447036621597248
119	0x3fba1fe94e304233	0.1020494285478513
120	0xbfc5d86d658ac536	-0.17066733797177286
121	0xbfbd43cd55600718	-0.11431582769730786
122	0xbf8fb89eed7cfd30	-0.015488855001989238
123	0x3f970a5694a5a935	0.02250037462491968
124	0x3fa5a9c031a81162	0.04231072050245889
125	0x3fb159c6074ed494	0.06777608564773835
126	0x3fb4d345e9d02738	0.0813487716515312
127	0xbfb252b1e129b62b	-0.07157432315008154
128	0x3fa98e59678bde6a	0.04991416348451312
129	0xbfb8403f94e39b59	-0.09473035225856331
130	0xbfcb6b9d9f0e2684	-0.21422167078371868
131	0x3fb2501274581499	0.07153430309706933
132	0x3f9de13d7854e6a2	0.02917953535982199
133	0x3fa6f49b652a1bb3	0.04483495340269119
134	0xbf82ab2e85ac8084	-0.009115565733339055
135	0x3f94edfb793b459d	0.020439080500016627
136	0x3fba7ad3ab1c92be	0.10343668868569986
137	0x3fbd2b790937e2d8	0.11394459223800923
138	0xbfb36c528c86d299	-0.07587161951853218
139	0xbf93042304e440e2	-0.018570468114433754
140	0xbf721b7771f1166f	-0.004420725424159152
141	0x3fb6be0f5955460b	0.08883758479102981
142	0xbf9dcbef7ac4d598	-0.029098264568536786
143	0xbf9ddc4f7653f3ee	-0.02916072997776447
144	0x3fb0815211a0705d	0.06447327547397337
145	0xbfc3a44b09ae7ff8	-0.15345132801758132
146	0x3fa70eadf0bd4c33	0.045033870350970416
147	0x3fad05125a65def7	0.05667931893816374
148	0xbfc6030565110edd	-0.1719671958436412
149	0x3fb4386433c386da	0.07898546470417092
150	0xbfc10371d9ca4eb5	-0.1329176248005887
151	0x3fb53b66a45f7ff2	0.0829376364995367
152	0x3fa5ae7d5f4ab568	0.04234687603216508
153	0xbf882c09970a8797	-0.011802744790944604
154	0x3fc3a765636f4f7e	0.15354602198805972
155	0xbfb1a5d875187b12	-0.0689368520620344
156	0xbfbb3d44cc7fced7	-0.1064036368623492
157	0x3fbd0af57137b777	0.11344846738913171
158	0x3fb4ced29f80100d	0.08128086465882252
159	0x3fabfc1b1bc78dd1	0.054657790318539796
160	0xbf83dfa03426837d	-0.009703876105790371
161	0xbf7de221f2b0a3a0	-0.007295734986691921
162	0xbfacfcd9ece63746	-0.05661660210453916
163	0x3f97aa5d34f9c402	0.02311082492673578
164	0x3f9d9165c32e0535	0.028874959981753896
165	0x3f91f5e85a56363e	0.017539625657766893
166	0x3fd1c2dcb5c6b74d	0.277518441692213
167	0xbfc68bdb7bb10c58	-0.1761431077921738
168	0x3fc1f4cf9002bf33	0.14028353244565891
169	0x3fc81ce2407769c0	0.188381463506472
170	0x3f8510439536f500	0.010284927359743623
171	0xbfa216a99dd7bc59	-0.0353291516474818
172	0x3fc0d009eb671e39	0.13134883875157913
173	0xbfc47bc27b4d9dc2	-0.1600268461290693
174	0xbfac5d9eb805d7bb	-0.05540176388141967
175	0x3fc55a4e5090e84a	0.16681841787232293
176	0x3fa04eb5b6371112	0.03185050820641967
177	0xbfb290eddcbbd79e	-0.0725239433193949
178	0xbfbd004824a41195	-0.1132855500655466
179	0x3fb7c99367a32105	0.09291955261426572
180	0xbfa7153a8523d310	-0.04508383631938362
181	0x3fc1152be4e74b71	0.13345860173157179
182	0x3f991120b91b1ef9	0.024479399965257696
183	0xbfb70d15b1977de8	-0.09004340730415772
184	0xbfc147adc4624e75	-0.13499996270239803
185	0x3f7515781c7d4b79	0.005147427735056159
186	0xbf912d983e69ccca	-0.01677549248638569
187	0xbfa46121bdf42943	-0.03980355685969752
188	0xbfc9eae540f214bf	-0.20248094245122236
189	0xbf9e4b2f2437d506	-0.029583679757668534
190	0x3fbdc2496be0b1ce	0.11624583133443098
191	0xbfa11cf55e072834	-0.033424060562154884
192	0xbfb28f3a333b5997	-0.07249797583367577
193	0x3fc75128e9d70b91	0.18216430108995188
194	0xbfc5195e78ccd173	-0.16483670137825931
195	0x3f8d801377378c8e	0.01440444190570236
196	0x3fae31593a3326c0	0.05897024951407337
197	0xbf892272661123b1	-0.012272733440242907
198	0xbfb0bf43717bd74a	-0.06541844864463289
199	0x3fb1dc887922ba54	0.06977131802953213
200	0xbfb5a89176cf66bd	-0.08460339689863879
201	0x3fba176a8668ddbc	0.10191980153546515
202	0xbfb5ca4946ab5782	-0.08511789298367314
203	0x3fa3e0884f4a1d88	0.03882242172135891
204	0xbfb38c6efbc44de4	-0.07636159559870453
205	0xbfb3a7ac3900e925	-0.07677723304451385
206	0xbf96fcb1fc92e3a8	-0.022448330918198117
207	0xbfa2df371e219074	-0.03685924761592299
208	0x3fa502cfb7ed5f3e	0.041037074281744954
209	0xbfa7df979a3e11b0	-0.04662774808733461
210	0xbf981323d9edd86f	-0.02351051347383087
211	0x3fa139957856c9e9	0.03364245504362257
212	0x3fb7887cc06cf036	0.09192638109101456
213	0x3fb19f999926366d	0.06884155262943077
214	0xbf91a7e50ef6e587	-0.017242030180317804
215	0xbf887968f0e96551	-0.011950321056405729
216	0xbfb014e4e666277c	-0.06281881928421557
217	0xbfc068afe36d35a9	-0.12819479565443473
218	0x3fa2b48de7b69082	0.03653377011804172
219	0x3fc94cd9d15bdd6c	0.1976578018436429
220	0x3fc2add830a4442b	0.14593031287270838
221	0x3fafb2f91173b558	0.061912330036515584
222	0xbf9fcf9a08791097	-0.031065375105996464
223	0xbfbe37eb398e1a76	-0.11804075389054866
224	0xbfc19d9c47293c2b	-0.1376223895517524
225	0xbfa4032049cb1536	-0.03908635044858004
226	0xbfb4b431b29ce42e	-0.0808745442453904
227	0x3fb4caab58052fcf	0.08121748827869556
228	0x3fa07eed21586593	0.0322183707432472
229	0xbfbbc3fe65b15038	-0.10845937712412101
230	0xbfac3bcd26ee82ff	-0.05514374828567802
231	0xbf67e233f5f34664	-0.002915479169680423
232	0x3f7d68eaad51669e	0.007180134493944527
233	0xbfabbcea800031a0	-0.054175689816563066
234	0x3fc116d05a73393e	0.13350872437008293
235	0xbfb80cd8f62ed5a7	-0.09394603739095563
236	0x3fb007394965b778	0.06261022607733746
237	0xbfc283c1298b04fd	-0.14464582947224605
238	0xbfb8c85bcf68f0e0	-0.096807230126561
239	0x3fa921bd0582878f	0.04908552829989709
240	0xbfc62b804329822a	-0.1732025459232472
241	0xbfcb6e569361c46b	-0.2143047542226982
242	0x3fa656c7c6fa7543	0.04363083175597151
243	0x3f91a250ba6f7907	0.01722074640189766
244	0xbf99e558215f4cdc	-0.025288941418534758
245	0xbfa1a6850c1dde10	-0.03447356961163106
246	0xbf95775eb98b73e0	-0.020963172983886724
247	0xbf945139b2044677	-0.019841100206639397
248	0x3fa30d74e32def05	0.03721204064546949
249	0xbf71b366512e51c5	-0.004321479488585249
250	0xbf906508b73b56c8	-0.016010414298611747
251	0x3fb79008ef977417	0.09204154824642817
252	0xbf8ceeb73725870c	-0.014127189035835673
253	0x3f9b7b1014ebc76f	0.02683663490001414
254	0x3fba9d35e9cd1031	0.1039613433650295
255	0xbfb932d45c07ac17	-0.09843184706521445

module.down_path.0.net.0.bias f8 [8]
0	0xbfbc389ac00023c5	-0.11023871600640607
1	0x3fc18455e000957a	0.13685105741130227
2	0xbfaad91200010a9c	-0.05243736505555782
3	0x3f8ce25ffffc941a	0.014103651046363953
4	0x3fc3d00dbffdf553	0.1547867953740175
5	0xbfc2e8dcffff09a0	-0.14773142337624012
6	0xbfab9d26c0007e39	-0.05393334478162299
7	0x3fac16b55ff96d8b	0.054860752072921924

module.down_path.0.net.1.weight f8 [8]
0	0x3fee6e49b71a945a	0.9509628845450024
1	0x3fef690dca85e24a	0.9815739589240107
2	0x3ff14b0b02d23a41	1.0808210478022746
3	0x3fef2bc72c158ef9	0.9740939961452276
4	0x3fefb6db10d1013b	0.991071255535679
5	0x3ff007d254a076fd	1.0019095712409005
6	0x3ff028cb09713353	1.009959256061127
7	0x3ff078bcd97fbc2e	1.0294769760182692

module.down_path.0.net.1.bias f8 [8]
0	0x3f9441ba72adaaf3	0.019781983613408504
1	0x3fbd90b5569a7845	0.11548932422962917
2	0x3f7a1f4d3334a2b9	0.006377507746301241
3	0x3fce19c35e2748e2	0.23516122910820686
4	0x3fb86d71b18f35d2	0.095419984673945
5	0x3fbc5e5bb48cfa1a	0.11081479223228322
6	0x3faeb249de18aacb	0.05995398365151557
7	0x3fbcecbc2302c25b	0.11298728804354978

module.down_path.0.net.1.running_mean f8 [8]
0	0xbfab34946184dd18	-0.05313552561204399
1	0x3fba775dde954065	0.10338389095454799
2	0xbfab4365b1bbe3fc	-0.05324857515910961
3	0x3fa2249c59baaf5b	0.035435567811275624
4	0x3fc3ac8e23d73c4d	0.15370346784627245
5	0xbfc142ea8a3c6559	-0.13485461950112201
6	0xbfaa033549dad24a	-0.05080572630450726
7	0x3facdb4e18bf5065	0.05636066486445727

module.down_path.0.net.1.running_var f8 [8]
0	0x3f97fb6f69fe9023	0.02342008671224972
1	0x3f9a2ab1041fe39b	0.025553480030768943
2	0x3f8e1025a2ae7bd3	0.014679235484264119
3	0x3f839b78175b5902	0.009573877537530699
4	0x3f8ede1c19399cce	0.015072078246886635
5	0x3f7f54a7ced3e0e0	0.007649093150796399
6	0x3f90e774f59771ed	0.016507937898369397
7	0x3f8f0fcf46865783	0.015166873302216782

module.down_path.0.net.3.weight f8 [8, 8, 3, 3]
0	0xbfafd5cd310e81a6	-0.06217805122219326
1	0x3fa9db5a1da97d36	0.0505016480644777
2	0xbfc61a374d210b8f	-0.1726750494582032
3	0x3fa8a1822560d8eb	0.04810721117284963
4	0xbfabd00654199799	-0.054321477666959335
5	0xbfaf53f82a189d5c	-0.06118751062268288
6	0xbf9bbfe9b56d172b	-0.027099277208683475
7	0x3faf65a697bbfc3c	0.061322408697372016
8	0x3fb6b56c007182c7	0.08870577822518576
9	0x3f97b867b119065c	0.023164386924923938
10	0xbfb14f9660cfec87	-0.06762065757350132
11	0x3f996b97a57d1334	0.024824494815464962
12	0x3fb6e2e19ba5f453	0.08939943361288387
13	0x3fb78f5e4efcb916	0.09203137806318681
14	0xbf758dabfd157d2c	-0.0052620619111103765
15	0x3faae53754273fee	0.052530030272123315
16	0xbfb3e4de4005c110	-0.0777110010437847
17	0x3fb3a7620538b0f1	0.07677281024433903
18	0xbfa450af16b4ed30	-0.03967806961233078
19	0x3f9952051be146ea	0.024726943804416125
20	0xbfab4d97eaec79a5	-0.05332636587830856
21	0xbfa529cf0b3bfe9d	-0.04133460056436642
22	0xbf884c180ba351bf	-0.011863887648737468
23	0x3fa19d8363bc9642	0.03440485565651531
24	0xbfa3d6d45150860c	-0.03874839298829266
25	0x3fb56a16bc6162e1	0.08365003680354334
26	0xbfa0d9424a88b3e6	-0.03290755424345786
27	0xbfbb7e2ae2dece00	-0.10739391363932071
28	0xbfb02960fd6657a0	-0.06313139139669355
29	0xbf88c1b9b8b656f4	-0.012088252019377667
30	0x3fa12ac5fde56626	0.033529460185217894
31	0x3fb6910a7d7389b1	0.08815064966942178
32	0xbf3e304e8d662b7b	-0.0004606429842161569
33	0xbfb9abd6a779211f	-0.10027829731655345
34	0x3fc0778f2e27317c	0.12864866021699217
35	0xbfc6824d4a80be94	-0.17585149896466545
36	0xbfaa18945b11ee19	-0.050968776814411317
37	0xbfb17f367aac4162	-0.06834736342375927
38	0xbfba7fa0a00d2550	-0.10350994021896054
39	0xbf9990459d4ec7ae	-0.024964416242887637
40	0x3f9dc12a54f02aec	0.029057179865087088
41	0x3f8b2d4a336dda14	0.0132699772782248
42	0x3f9198f50226bb61	0.01718504739408944
43	0xbfb19c86d8fa5e99	-0.06879465863527869
44	0xbfb31fd53ce0879d	-0.07470448242432189
45	0x3f34d22ff35e4598	0.0003177039210352172
46	0xbf95272ddfcc55f9	-0.02065726927238207
47	0xbf8aa9f88a3cff41	-0.013019506186196518
48	0x3f86c513b09d1ad9	0.01111808188183032
49	0xbfbcc012ed9a3d5e	-0.11230581570474871
50	0xbfaed43049fe5f7a	-0.06021262076609353
51	0x3fb3727844e00cd5	0.07596542054675422
52	0xbfa6729ed932c3c3	-0.0438432350287097
53	0x3fa3a93f8f0f2fa6	0.03840063687638855
54	0x3f98b8027a8bab1a	0.02413944123228893
55	0xbf97264755bb21e7	-0.02260695896873868
56	0x3fb546c87721568b	0.08311131390049746
57	0xbfa1ffaf1703fc71	-0.03515383869125167
58	0x3f90496cc37cf5ff	0.015905093604706263
59	0xbfa9b3e1e030e2b5	-0.050200518242893656
60	0xbf8b85969ca73b37	-0.013438393264463151
61	0x3fb0207371011175	0.06299516209498342
62	0xbfa4b75e5a6b5255	-0.040461491143706375
63	0xbfac5e59e89e3acb	-0.05540734257293919
64	0x3fb8dbaaee3238d7	0.09710186305366918
65	0xbfb6e4d82087ce06	-0.08942938608361581
66	0xbfb5a055e4a49ca3	-0.08447777587990628
67	0xbfa84bf581af9470	-0.047454521256249715
68	0x3fa6bc48e735c469	0.04440524885547676
69	0x3f91844f21a8733b	0.017106281689950747
70	0x3fa0b8bacfb64d57	0.03265937600658713
71	0x3fa2213fb332cef9	0.03540991842728931
72	0x3fa6008bbefc920d	0.04297291475657881
73	0xbfa47e28852b2edb	-0.04002501130670818
74	0x3fc5dfd8e3608411	0.17089377500909156
75	0xbfb07d5cf8095e14	-0.06441289001065115
76	0x3faffdbdf60c96c8	0.0624827730992315
77	0xbfb6a501414e4657	-0.0884552750051396
78	0x3fc11111c3cd7e4e	0.13333341656378866
79	0xbfb3230b0bf03c70	-0.07475346604791056
80	0xbfaaf7777c79e36b	-0.0526692714165112
81	0xbf885dbcfe2f206d	-0.011897541529734402
82	0xbfab0248adec58d6	-0.05275179980360327
83	0x3fa9d6149eb82886	0.0504614299535016
84	0xbfa57fac3488c10f	-0.04198969022070475
85	0xbf876984199ab5c4	-0.011431724578268361
86	0x3f939b8e822b3d9f	0.01914808911788912
87	0x3fa25bd0bc23bd9a	0.03585674568773385
88	0xbf9005c3ec8f6d1c	-0.015646992982380245
89	0x3f9abfc6ab25a034	0.026122192569715888
90	0xbf51e1b9e4edea08	-0.0010914149640642874
91	0x3fb5fa949bec3c43	0.08585480505665637
92	0x3fbcaf1c83dfbcc3	0.11204698772029346
93	0x3f95ac3a14fd8169	0.02116480591883044
94	0x3fb0efb4872e22b2	0.06615761089609398
95	0xbf9d7d07ffdb6f20	-0.02879726885917855
96	0xbfa3267ad6738375	-0.03740295284092713
97	0xbf9a01b41a0220c0	-0.025397123420163537
98	0xbfaff4c392ef6478	-0.06241427582399067
99	0x3f79d9cf269ab1a6	0.006311234648518049
100	0xbf92ce3efa64788b	-0.018364891083472428
101	0xbfa162fa0efc54dc	-0.033958257989221
102	0xbfaa08b3c591ef69	-0.05084764277213944
103	0x3fb21e67d8116610	0.0707764532575299
104	0xbf9e20c982dadecd	-0.02942194806266123
105	0xbf55dfd4916a1da9	-0.001335103593790391
106	0x3fa5f7d54b1fcfe5	0.04290644208950293
107	0xbfa7d99bf0f3fd38	-0.046582101023881994
108	0xbf6c4d545f57c18d	-0.0034548423670843265
109	0x3fbb0b29eb47a145	0.10563909525047162
110	0x3fbcd420a2f168dc	0.11261180856800784
111	0xbf98d418fba967e1	-0.024246588096822456
112	0x3fba3b5ab2caa27f	0.10246817460086709
113	0x3fb9eacba6c6b324	0.10123894521411764
114	0xbf68603017fd3258	-0.00297555344869797
115	0x3fa5f3d0f38e7064	0.042875795107847364
116	0x3fa154dca91d21db	0.033850570338987494
117	0xbf5009b58491b869	-0.0009788773188819328
118	0x3fb28a3fad557238	0.07242200834066004
119	0x3fa563b9eb3cf842	0.04177647587356194
120	0xbfaa97724ed1b265	-0.05193669521472514
121	0xbfbbfc618e5fac5a	-0.10931977964325892
122	0x3faa60c31a529836	0.05151948639222363
123	0x3f82b84695489b09	0.009140540533804324
124	0x3fb2149a8cfc3ff1	0.07062688772225535
125	0xbf84c7cbb2df312e	-0.01014670505164669
126	0x3fa2e4e2c45b50d4	0.036902510136913286
127	0xbfbae37402a87715	-0.1050331598748609
128	0xbfc4e55acdfc86bd	-0.16324935014659117
129	0x3fab317d89981d2c	0.05311195664040222
130	0xbfbbb3176742c18b	-0.10820146819128788
131	0xbfa342ac052f4026	-0.03761804164207687
132	0x3f8d6b714694eba7	0.014365086523516825
133	0x3fa0e7830e6e9795	0.033016295921057516
134	0x3faa7a95041ebf0e	0.051716477158491356
135	0x3f927c6a6f9ad219	0.01805273348027656
136	0x3faa1b281b4f6394	0.050988438924554874
137	0xbf9f5bb825292520	-0.03062331892787029
138	0x3fa5f262456977f2	0.04286486718477524
139	0x3fc1538d446c431e	0.13536229935609695
140	0xbf9da2e0c87a96ae	-0.028941642986544273
141	0xbf93511279501300	-0.018863953260750854
142	0x3f986960b5cc1d0b	0.023839484306361885
143	0x3fa400000de29eaf	0.039062501616453964
144	0xbf9f62aae64794bd	-0.03064982443347185
145	0x3f8a622afacbb7b2	0.012882552889518315
146	0xbfb61466ff2d7ed3	-0.08624881486820905
147	0x3f9b1a99d6e3235c	0.026468662014653574
148	0x3fc081e2319985a3	0.12896373197422148
149	0xbfa00c67c5bebe9f	-0.03134464539413994
150	0x3f7580e58270ca3c	0.005249878427138695
151	0xbf982644cbd2e2a3	-0.023583483639159863
152	0xbfa8c34498919e42	-0.04836477625286452
153	0xbf8af14617ad1a51	-0.013155505750217207
154	0xbfa72ef5bbafe32b	-0.045280150567071985
155	0x3f90f5b58f6c9012	0.01656230628863404
156	0x3f139cdae42a2854	7.481657034183578e-05
157	0xbf8b37d280afaecd	-0.013290066291993164
158	0x3fab1bcc3f307944	0.0529464556823194
159	0x3fb0a2c24482c718	0.06498350308063683
160	0x3f54a5d11dfbfa40	0.001260236946052054
161	0xbf947b06317527a5	-0.020000550049452354
162	0xbf8edfbb5e6e9bcf	-0.01507517225202362
163	0x3f8ffc16aaaa1972	0.015617539485231122
164	0x3fa547d456a48fe0	0.04156364019061676
165	0xbfc06ae0676412e9	-0.12826161430725527
166	0x3f8bbee254e7ca15	0.01354767629252244
167	0x3f8460da781130d0	0.009950358189734138
168	0x3fb590074f58069b	0.08422895133119328
169	0x3fa1299b79fcb75f	0.03352056373692735
170	0xbf4ccf297eeb9559	-0.0008791878334163768
171	0x3fb508556ba1cedb	0.08215841176734832
172	0x3fa784d598eebdf5	0.0459353207764898
173	0x3f87968c4c47b78d	0.011517616346249837
174	0xbf60f76cb030a1b7	-0.002071106225703025
175	0x3f3c98c9bb32f9dc	0.0004363529689718462
176	0x3fbec161b281670c	0.1201382695011512
177	0xbf93afeb18540d7e	-0.019225762710460163
178	0xbfab06809ba64f21	-0.05278398418445663
179	0x3fabb18208ae928a	0.05408865314465057
180	0x3fb6ccbdb045189d	0.08906159928764841
181	0xbfa1be118e04fa15	-0.034653233133657015
182	0x3f8498958befa506	0.010056656201373314
183	0x3f9140e19071c6e3	0.01684906429404166
184	0xbf7b29fb1f68187e	-0.006631833026864096
185	0x3fa029831636c04d	0.03156671186604907
186	0xbf90f8cad4711b12	-0.01657406732217754
187	0xbfa5f229919748d2	-0.042863177320798265
188	0x3f7d98c8ec89c870	0.007225785121237491
189	0xbf36b38ed5dd4cbf	-0.00034639584724978004
190	0x3f9109185db93e6a	0.016636257858691307
191	0xbfa01cce8c328816	-0.031469778646411026
192	0xbfbe5a4aea73087d	-0.11856525634633104
193	0x3fbaf0611413f66d	0.10523039570031197
194	0xbf59d5e88166a0bf	-0.00157687860119364
195	0x3fb634e698d65266	0.08674470168473078
196	0xbf8059f7b109894f	-0.007984099474189902
197	0xbf9aa42565a73a1f	-0.02601679261152345
198	0xbf929890ae963121	-0.0181601149138696
199	0x3f86eb73149c0aef	0.011191271845296195
200	0x3fba0cc9fe7cb459	0.10175764525475141
201	0x3f829ece808b6451	0.00909196214472466
202	0x3fc656a489f8f104	0.17451912629065458
203	0x3fa2d472469d68d8	0.0367770873260313
204	0x3f9b5b1a7a6b8f77	0.026714719507153952
205	0xbf9b127be74ff7bf	-0.026437698357760327
206	0xbf76b3f27752eebb	-0.005542704709281028
207	0xbf942349ef27f1bb	-0.019665866109777257
208	0x3fade48062158157	0.05838395306887161
209	0x3f9531e382336c91	0.02069812280829503
210	0x3fbbc0e241eb69f6	0.10841192349781878
211	0x3fc50ac3b11ff754	0.1643910040729063
212	0x3faeb9bd76397b09	0.06001083439035965
213	0xbfa9c28f68fc9a01	-0.05031250149322731
214	0x3fa50719ecc48b3c	0.041069803383172204
215	0x3f9dac59e0ee7a53	0.028977779725773378
216	0xbfab94dd1475b0a6	-0.05387011408569835
217	0x3fab64f15e461e69	0.05350450778774702
218	0x3fc00ba1a6689c67	0.12535496354505257
219	0x3fb030c0361dee85	0.06324387856687437
220	0x3fc4a5f8292e73ff	0.1613149834710441
221	0x3fa5311d8442575a	0.04139034499637147
222	0x3fb757f481a19768	0.09118583836388228
223	0xbf905564f18ac9c7	-0.01595075344330057
224	0xbf90d02574bd99f4	-0.0164190151694132
225	0xbfb3a509608b60dd	-0.07673700911562116
226	0x3fb97acce7736b06	0.09953003550200998
227	0x3fb254baa17b5bc7	0.07160536234310576
228	0x3fc3277a077e33bd	0.1496422325693895
229	0x3f8c5100200b9951	0.013826371171899028
230	0x3fb9c6455f60ac0a	0.10068162516169835
231	0xbfb58aa6acc16a57	-0.0841468974844387
232	0xbfbe1c40d3078172	-0.11761860992510778
233	0xbfc78f5ed45823ad	-0.18406281822561024
234	0x3f94fae9aaff8f7a	0.020488406240374492
235	0x3fc14d856e3e2f59	0.13517825968699063
236	0x3fbd20b3b0c51831	0.11378024163886448
237	0x3f9866c97527c437	0.023829601073831887
238	0x3fc3759a196e063e	0.1520264267128812
239	0x3fbcb70c63782a38	0.11216809681369788
240	0x3f949ee3d067d5f6	0.020137366862362747
241	0xbf846558798a2781	-0.009958926400276404
242	0x3f57f995ced0bedb	0.0014633143393999934
243	0x3fa5b52829bcc554	0.04239774236192298
244	0xbf8e65f638d452ed	-0.014842914208693847
245	0xbfaa9206096a4406	-0.051895321511558776
246	0xbfb0187e6173df8d	-0.06287374381270024
247	0xbf820e0cbb6ec1ed	-0.008815860242834506
248	0xbfa699fffe9b3a18	-0.04414367659557089
249	0xbf8f573727c3a3df	-0.015303069020278613
250	0xbfb64c71ab0db39c	-0.08710394312011122
251	0x3f7efd7f5f1a7988	0.007565972847855547
252	0xbf84028c8c640fa5	-0.00977048686446109
253	0x3fc3154e18641ac8	0.1490876788231701
254	0xbfa9dc1c6f4b13a9	-0.05050743921814355
255	0xbf914f4a233adc4f	-0.016904028320564198

module.down_path.0.net.3.bias f8 [8]
0	0xbfbae46d8000318f	-0.10504803061502897
1	0xbf88ea3a7ff97e11	-0.012165505438303222
2	0xbfa004d6fffde554	-0.03128692507648148
3	0x3f9326c7c0013d4f	0.018702622503324048
4	0x3fb8a46c3fff0abf	0.09625889360817562
5	0x3fba5d022001bb67	0.10298169404425793
6	0x3faf221f7ffea844	0.06080721318660712
7	0x3f64b0efe02dc7e9	0.002525776393150093

module.down_path.0.net.4.weight f8 [8]
0	0x3ff0cd02f4854806	1.0500516463839644
1	0x3fed828973081dc0	0.9221846815789192
2	0x3ff01422b7b1db7f	1.0049159217430483
3	0x3feebf9bc33bb36d	0.9608897030972067
4	0x3ff05e0551744c4a	1.022954290562455
5	0x3ff0bed2673958a1	1.0465873748958432
6	0x3fed6c5b2e42a007	0.9194770720978348
7	0x3ff0cc2fc5de7a1c	1.0498502473125262

module.down_path.0.net.4.bias f8 [8]
0	0x3fafebec603afd97	0.062346827265623954
1	0xbf846f44a8fb6f86	-0.009977852255751218
2	0x3faa47802a137654	0.051326756607278284
3	0x3f9cf016a02b0bac	0.028259614492309446
4	0x3fb88584facb5dc8	0.09578734515104437
5	0x3f9a0de1cfa924fe	0.025443580913166557
6	0xbfa2a106c57b82ef	-0.036384784323450485
7	0x3fa3ca6a401f2c39	0.038653679206241916

module.down_path.0.net.4.running_mean f8 [8]
0	0xbfce011bb750c977	-0.2344088215919091
1	0x3fbe5b99404d3a4b	0.11858518428673752
2	0x3fc67564c2e565dd	0.17545756832514217
3	0x3fc701910fba87c7	0.17973531024932596
4	0x3fd9807c399c8221	0.3984671175585693
5	0x3fd0acd7f6776deb	0.2605495364093417
6	0xbfc725d3d35c4a45	-0.18084190197312658
7	0x3fcde468b972825a	0.23353299193424243

module.down_path.0.net.4.running_var f8 [8]
0	0x3fc6a0d07fb154e1	0.17678266749377428
1	0x3fcb1b5c454752a1	0.21177247412437786
2	0x3fd99849f96b5415	0.3999199805960541
3	0x3fd40e726e9be13c	0.3133817749180883
4	0x3fdb60c120cf0dc4	0.4277804203413462
5	0x3fda8596cb73ac36	0.4144036280474127
6	0x3fdc7f7a3c7ea614	0.4452806082505003
7	0x3fea56ea83283030	0.823109871068942

module.down_path.1.weight f8 [16, 8, 3, 3]
0	0xbf77ff4a659ccd6d	-0.005858698475822305
1	0xbfa6ff86998ba768	-0.044918256991720196
2	0xbfb36d8c222f532e	-0.0758903106173647
3	0xbf94dd4a1a627b63	-0.020375402317422863
4	0xbfabd2df8e507995	-0.05434321033702642
5	0xbfbdcfb87b587a4f	-0.1164508153092154
6	0xbfadd3ec8bcb1c66	-0.05825747686827114
7	0x3fa4b9a3972681fa	0.040478813363055324
8	0x3f8855094b0cb111	0.011880943873244594
9	0x3fb2052b6918c792	0.07039138141479231
10	0xbfc19b6ede574e7d	-0.13755594116684114
11	0x3f8ee88722817002	0.015091949215438664
12	0xbfb69bcd236acfc9	-0.08831483950308362
13	0xbfbbedbbc25dd199	-0.10909627433085801
14	0xbf89e1c71017dd06	-0.012637667826295839
15	0xbf86fc4ebb32a6b2	-0.011223425948929975
16	0xbfb370c2acd09f27	-0.07593933791269745
17	0x3faa39b0b19d64ec	0.051221391374108055
18	0x3fa36ede6a6394c3	0.037955236899315924
19	0xbfbbfa0012a2b3fd	-0.10928345160455417
20	0xbfb249e7909296e1	-0.07144019393544056
21	0xbfb44408e1e86760	-0.07916312709167306
22	0x3faed2609761a447	0.06019880149762762
23	0x3fb01475cdcd84cb	0.06281219744188886
24	0xbfac9f55386f9791	-0.05590311349787592
25	0xbfbe285804af2aeb	-0.11780309786187686
26	0x3fb62a8cb1ada401	0.08658675515984272
27	0xbfb285619c7da482	-0.07234773703170741
28	0x3f995928ddd3b9b8	0.024754179515122238
29	0x3fa3ada9510008aa	0.03843430627604623
30	0xbfb2201325a4774e	-0.07080192250256553
31	0x3f9bac4798c68f2d	0.027024382304843875
32	0xbfbb085c02df76c9	-0.10559630460871995
33	0x3fa81adecf891259	0.047080004533687166
34	0x3f94b9c8d343cc01	0.020239961523611075
35	0x3fa9a26fd8be6a8f	0.05006742020414833
36	0xbfb9c29b0f303c52	-0.10062569733439489
37	0xbf7095b012b7384b	-0.00404900339658638
38	0xbfa12b5187a42d6d	-0.03353361874368486
39	0xbf97d97c4607867b	-0.023290578626875984
40	0x3fb8dca568642699	0.09711679266561148
41	0x3fb680fec7c28636	0.08790581108998982
42	0x3f936cb0ccfd29a2	0.01896930934098296
43	0x3fa1d08c2c469b3e	0.03479421654201652
44	0xbf8d288b21d0c88a	-0.014237486810177797
45	0xbfb8e83eba2d745c	-0.09729377789831645
46	0xbfb08fc156874420	-0.06469353067883832
47	0x3f925814af577316	0.017914126588823263
48	0x3f9ea1ae287550fb	0.029913636416794436
49	0xbfbd425cfe7f8f03	-0.11429387296044173
50	0xbfc007a1a3b64db7	-0.12523289197689078
51	0x3fba45c53517a8b2	0.10262711092187507
52	0x3fa7d2778daef3aa	0.04652761082204589
53	0xbfb2f6677068a7a5	-0.074072327560002
54	0x3fc17c54634fb314	0.1366067395132623
55	0xbf92fc7e7496a3ba	-0.01854131304358806
56	0x3fbc81acc23d61dc	0.11135368101293558
57	0xbfa54eaeca78e5e8	-0.041615926948406046
58	0xbf80eea1c7a83ce1	-0.008267654328874165
59	0x3fb254fda84fb4ec	0.07160935744441915
60	0x3fb9510a19dbdc96	0.09889281398123936
61	0xbfb0960df7c9f43a	-0.06478965091260216
62	0xbf8e4699b1502b79	-0.014783097003620448
63	0x3fb4dc88b7b6db51	0.08149008259975445
64	0x3fc1941f04e9f7e0	0.137332799338707
65	0x3fbcb5d19a443997	0.11214933410903992
66	0x3fbb00db217e783e	0.10548181121564057
67	0x3fba68d9b74bbe24	0.10316239094731167
68	0x3fbbf8aa4ab8f50e	0.10926307987479708
69	0x3faabf699d34e921	0.05224161190058597
70	0xbfb56a97bfa56f68	-0.08365772656310144
71	0xbfb3e366e33ea202	-0.07768862770047494
72	0x3faa37150213721e	0.05120149278966245
73	0x3fae0cc5124948ae	0.05869117592068683
74	0x3fa448bef3707139	0.03961750718755969
75	0x3fb18ddb61ef9350	0.06857081547748334
76	0xbfa0d5ec7b0809ab	-0.03288210870597948
77	0x3f7a97e81bbd9e2c	0.0064925257428068255
78	0x3fb42b52dcf77f5b	0.07878606695839833
79	0x3fb75debef5e717b	0.09127688020675422
80	0x3faaaf14c6a7d736	0.052117013215975325
81	0x3fa09330198ca5f9	0.03237295448191086
82	0x3fb29af522e4a9a3	0.07267696477780432
83	0x3faad1f55669ec3e	0.052383105085902035
84	0x3fb15a2a5d1474ec	0.06778206608256071
85	0x3f951c8856e735de	0.020616655639789865
86	0xbf902f256b93f195	-0.015804848376306763
87	0xbfaa443f3d091e3e	-0.0513019334799165
88	0xbfb30a630b98b395	-0.07437724145047604
89	0xbfbe216f3aa4f223	-0.11769766980882727
90	0x3fb2ef5a151dd9e4	0.07396471992056025
91	0xbf819670477742d0	-0.008587720089879097
92	0xbfa1ad7f25a393b3	-0.03452679953060258
93	0xbfbbfc4112eb44ca	-0.10931784355058763
94	0xbfb042663d6ff6c9	-0.06351317405639202
95	0x3f94d27157c71373	0.02033402536632729
96	0xbfa12b5c4db60543	-0.03353393982525656
97	0x3fb528d08439fec5	0.08265403011500456
98	0x3fb8a99843fa533b	0.09633781108489085
99	0xbf88d1517b0d174a	-0.01211799294254558
100	0xbfa3ed4f90f9ad68	-0.03891991276472134
101	0x3fb135d39e25520b	0.06722757922154458
102	0x3fbe5904d9d374ea	0.11854582136171002
103	0x3fb16c0ba4f8bf26	0.06805489328030187
104	0x3fb8ff192223ba94	0.09764248927579394
105	0xbfb0f3089d592139	-0.06620839921481982
106	0x3fa97efb4ff2808b	0.04979691840094443
107	0xbfa4e44281c8bcf8	-0.04080398401526425
108	0xbfbdce3ede74e46f	-0.11642830782956691
109	0x3fae4ed92fd6ed53	0.05919531544665326
110	0x3fb6ec5352a6cfec	0.08954354064809394
111	0xbfb26be4913939ef	-0.07195881410118664
112	0x3f9d3307506cfe53	0.028514971050070347
113	0x3fb2f034a43b43cd	0.07397774705465494
114	0xbfb5ae52f4588e41	-0.08469122376896455
115	0x3fb2a088a961f9c0	0.07276205191917651
116	0x3fc1276d9e251d87	0.13401575300143184
117	0xbfb695147b122bf0	-0.08821228031790418
118	0xbf8a11ddc1885352	-0.012729389637607422
119	0xbf7f5f8e9323def0	-0.007659489567451536
120	0xbf72ae08a8b61252	-0.004560502838448404
121	0xbfbd43d65843f9a9	-0.11431636481208919
122	0xbfbbbc7a6bf28773	-0.1083446992438704
123	0xbfbd97191a85e463	-0.11558682343992781
124	0xbf7dd60b2b65fde6	-0.0072842060384341375
125	0x3fba5e17db2b39ff	0.10299824810793011
126	0x3fb65eb2c8af4f42	0.0873824825242169
127	0x3fbf420b253f9923	0.12210149440179356
128	0x3fb3106a9391cef1	0.07446924307606274
129	0x3fc12b9dd2460959	0.13414356963410048
130	0xbf756b42d046796a	-0.005229245176819533
131	0x3faf108dac89665f	0.060673167525874254
132	0x3fb6a998b192bb14	0.08852533660204315
133	0xbfab2cb420f08593	-0.05307543661207172
134	0x3fbfbcfefbe2f5f2	0.12397760057043408
135	0xbf9c5a4dbc0edf06	-0.027688231089739744
136	0xbfb8628c137b2001	-0.09525371051415733
137	0x3fa7944d1ef4fc34	0.046053323773314864
138	0x3fa010849876df9d	0.0313760219682415
139	0xbfb396d580d5085a	-0.07652029414478659
140	0x3fbbba20d80f7e68	0.10830884241976835
141	0xbf8bc819dc9a9f18	-0.013565256161498548
142	0x3f7f013f8c9136e7	0.007569549788127828
143	0xbfb2dd86564f20c5	-0.07369269950061426
144	0x3fb4eee4c00e128b	0.08177022637216617
145	0xbf849aa19192c3d6	-0.010060560469669893
146	0x3fbb1f2fd3c93b1a	0.10594462318952616
147	0xbf90d8345a2b897a	-0.016449754718345734
148	0x3f956e894233cd12	0.020929474511786124
149	0xbfafaf9a568d8727	-0.06188661867669359
150	0xbfa97dba3bcb0d9e	-0.04978734950921225
151	0x3fb76b43e8993675	0.09148048809694294
152	0x3fb02d5eb195f297	0.06319228969182188
153	0x3faa0b6aa60a2b65	0.05086835171558483
154	0x3f9d3e5048fda860	0.02855802007199093
155	0x3fafd4241fe48989	0.06216538323703264
156	0x3fba03a78956f862	0.10161826231976215
157	0x3faf5ae310f2c912	0.06124028760804569
158	0xbfb27e68bce2f9f3	-0.07224135028352645
159	0xbf61cb91380024c2	-0.00217226374661958
160	0xbfb58d14dd7838ba	-0.08418398291562115
161	0x3fa64da755cb21d1	0.04356120035442113
162	0xbfaf6f85e66f22dd	-0.06139772832790922
163	0xbfb1410cee69f9bf	-0.06739884205487721
164	0xbfa975c992f1f0cc	-0.049726771533615016
165	0xbf5a06dbe5944a92	-0.001588549368822943
166	0x3fa302a9479ee1a2	0.037129678719284756
167	0x3fb4973a2ac2adcb	0.08043254417378091
168	0x3fa647718510060a	0.04351382016467305
169	0x3fa7bf6ba0491066	0.04638229686364141
170	0x3f79405709edad74	0.006164875025983608
171	0xbfa18f425edd86dc	-0.03429610641502531
172	0xbfb80c8708505bbc	-0.09394115403152531
173	0x3fb2e65b9e8fe9e1	0.0738274824251799
174	0x3f8cd459f77056a8	0.014076903213246908
175	0xbfa083887112fd78	-0.032253516963005546
176	0xbfb143fa28abf728	-0.06744349949800876
177	0xbfa17e03b9c21f69	-0.03416453974301598
178	0x3fb58d7c0fd49f8e	0.08419013391960403
179	0x3f7fe7a88d47a3a4	0.007789286046752251
180	0x3fbc9787fb798058	0.11168718232647856
181	0xbfa280acb604713d	-0.0361379596890594
182	0x3fab3b87e61f4142	0.0531885593806032
183	0x3fb51e2110a0f3ed	0.08249098449682864
184	0xbf8b7c68f8b1a09c	-0.013420887078794679
185	0x3f8df6d08085ea64	0.014630917474950773
186	0x3fabc1e052265597	0.05421353342823492
187	0x3fb350a64575f06d	0.07544936366861217
188	0xbfa312f7cbb980b2	-0.03725408899185946
189	0xbf8a4c170790f293	-0.012840442579652922
190	0xbf994b8f6b4918e7	-0.02470230190581271
191	0x3fae6afbc4270bd3	0.05940996903839104
192	0x3f3428fc885ec258	0.000307618764391148
193	0xbfbd1abc610f04ee	-0.11368920678707514
194	0x3fa6924341e88956	0.04408464602990374
195	0x3fb3e99ad2bd997e	0.07778327603373289
196	0x3fac49d5b02c0733	0.05525081420456814
197	0xbfb6b845ca0e29f8	-0.08874927695266155
198	0xbf93fab0a472c6e5	-0.01951099399293001
199	0xbfa93c30fdd8fe80	-0.04928734873510354
200	0xbfb624b7da6616a2	-0.08649777490617308
201	0x3f9e73802fbe1dc5	0.02973747531316719
202	0x3fa7e8341c352612	0.04669344753581241
203	0xbfb0c81b89ff3f2f	-0.06555339926785274
204	0xbfb0a11c6af1a70f	-0.06495835886894617
205	0x3fafb3fb50305179	0.061920026339211405
206	0xbf976c76db01d9f9	-0.022874695889607086
207	0xbfaa44b3147d2f11	-0.05130538582906586
208	0x3fb9910330215fb3	0.09986896443422104
209	0x3fba61749dc51f79	0.10304955341154977
210	0xbfafdf5183018e01	-0.06225065921969631
211	0xbfae74e1aba5de32	-0.059485485270610275
212	0xbfbedb2f45238d89	-0.1205319923206415
213	0x3f857728d3c76370	0.01048118492410463
214	0xbfae5af665371582	-0.05928773866211669
215	0x3fa6fad2a47726fb	0.044882376266810874
216	0x3fa602c345c47f58	0.042989828363941995
217	0xbfa896bba34881f6	-0.04802500122264412
218	0x3fb3a15f8f4a7847	0.07668111084282812
219	0x3fb86aab1281e057	0.09537762834395501
220	0xbfb76246d01e59a8	-0.09134333210963652
221	0xbfb0e47d11dc0ee8	-0.06598645864510966
222	0x3fb9986d078b734a	0.09998208460042438
223	0x3f368583ef4b0a4a	0.00034365149558027565
224	0xbfa02e0a361196a9	-0.03160125646608709
225	0x3f6a680d947eff1f	0.0032234444842912514
226	0xbfb965d63a231f7a	-0.09921015662541591
227	0xbfb1cebecf10745b	-0.06956093364029085
228	0x3faa925eaa71c8b0	0.0518979628622146
229	0xbfb0c3fa78a6a224	-0.06549039311961075
230	0xbfb92e32dee1e824	-0.0983611864229777
231	0x3fb1b88490b237b0	0.06922176869031094
232	0xbfbfb5c20bf7f5e2	-0.12386715690805475
233	0x3f8cdc0be3f538b9	0.014091580290053295
234	0x3fad7e5dce9c287a	0.05760472437948834
235	0xbfb50bdf9f2755e4	-0.08221242557132019
236	0xbf814803d0c7e5f6	-0.00843813877962683
237	0x3fa99735e208524f	0.04998176941095222
238	0x3fb2a799ead1ad16	0.07286989195715807
239	0x3fbdeb56af5a686c	0.11687223225672633
240	0xbfb94df8180b0e2a	-0.09884596430770701
241	0x3fb42d47c34422ba	0.07881592290153608
242	0x3f9cebfdacf67dad	0.028243983918967142
243	0xbfb17ab1ae293bed	-0.06827841283778442
244	0xbf68769e80e82132	-0.002986249520521644
245	0xbfb7ecad4b12bb32	-0.09345515330163037
246	0xbfbb06949db7b027	-0.10556916094327616
247	0xbf9164dedd6eef58	-0.01698635317346428
248	0x3fa976665481f96d	0.049731443229563556
249	0xbf9c1b0b86126bdf	-0.027446918542960105
250	0x3f9f761c4c4c47ca	0.030723993450983568
251	0x3f8113cc0db22f8a	0.008338541191072375
252	0x3fbc9b14cecb8304	0.11174135254578849
253	0x3fb81987fe4d6354	0.09413957556297464
254	0x3f98b4e5fe974cb8	0.024127572692873328
255	0x3fb3bfbe1e5a3511	0.07714451066040719

module.down_path.2.net.0.weight f8 [16, 16, 3, 3]
0	0x3f80769e64b48d97	0.008038747261315744
1	0x3f6baab762c75216	0.0033773023371657203
2	0xbfa4707ad259950f	-0.03992065255878618
3	0x3fb2aeba16bba7fc	0.07297862105374969
4	0xbfa21de533097f4f	-0.03538433311473332
5	0xbfad8f049f89f359	-0.05773176620002713
6	0xbf9298d31230b3fa	-0.018161104188198586
7	0xbfab24e4ac906221	-0.05301584822172268
8	0x3f959ebc8f9a37a2	0.021113344445033662
9	0xbfa385157fdadfeb	-0.038124725205704944
10	0xbfa98035c363b99e	-0.049806289769424014
11	0xbfadc2c474111c1a	-0.058126582306208444
12	0x3f9686ef3a787c1c	0.021999109214558485
13	0xbfa39f821c0c9e94	-0.03832632629774682
14	0x3fa1a5f1d75f9e5c	0.03446918253012818
15	0xbf8d8c78e17d4b4d	-0.014428085690871529
16	0x3fb8d704d2346dbd	0.09703092700913536
17	0x3fa9ec61b612d241	0.05063157413079412
18	0xbf84af68b0545f44	-0.010100191002990429
19	0xbfa1b084013e7cd9	-0.03454983248888661
20	0xbf68ff85ba1d6718	-0.003051530061310436
21	0x3f8d10c3bc57c305	0.014192132172838887
22	0xbf6d0d60be159c21	-0.003546418142537103
23	0xbfa670f55f48a1de	-0.0438305548489699
24	0x3fb57217a346f21e	0.08377216087587455
25	0xbfae6df0f79d0556	-0.0594325353872686
26	0x3f9c352df1c792e9	0.027546613580755972
27	0x3f98a4df16df24b7	0.024066434641814207
28	0x3fac589672784774	0.05536337039315145
29	0xbf96b61c7c1b8a83	-0.022179074358869243
30	0x3fa664978edf7171	0.04373620623639141
31	0xbfbe7f6a4defb2aa	-0.11913170244924723
32	0xbfa8d1dc4c4cf61d	-0.048476108850518985
33	0x3fb46e207d42cbf7	0.07980540331008955
34	0x3f9188a3e15c1ea5	0.0171228033350689
35	0xbf809e99253af767	-0.008115002106361137
36	0xbf9a029b3fdd6746	-0.02540056779194024
37	0xbfa816b773a2f418	-0.04704831396654913
38	0x3f62503adfc04b3a	0.0022355222590787734
39	0x3fa5bbdb2458d3b4	0.04244885271729207
40	0x3fa50b89851425d8	0.04110364675041084
41	0xbf90295eef18b260	-0.015782817214289202
42	0x3f9b9aaf3f9b7590	0.026957262284545147
43	0xbfae374d648e7ebe	-0.05901567318437405
44	0xbfaa8ec5b92c8582	-0.051870516638028455
45	0xbfa68da9ed47e8b3	-0.04404955884452146
46	0xbfa7698f39c78a55	-0.045727229884296484
47	0x3fa9d91535cfbe56	0.050484335726534255
48	0xbfb2880d23f1f334	-0.07238847854200686
49	0x3f93b2bc593d8eb6	0.01923651022606406
50	0xbfa77e6755cf29aa	-0.0458862583396525
51	0x3fa96a8b644dbf92	0.049640995020012416
52	0x3f9451a0dad480b7	0.01984263740189426
53	0xbfb340aa485eccc4	-0.07520546213963814
54	0x3fa0239d673e9067	0.03152171979243761
55	0x3f8558c3b2811196	0.010423210988059133
56	0x3f7e446075b6f20b	0.007389427944357606
57	0xbfaef4355b7c872d	-0.060456912439134626
58	0x3fac08866c1133aa	0.05475254124812719
59	0x3faa88579da2356d	0.05182145880926723
60	0x3f92b2c11bd17ba9	0.018260018656629438
61	0xbfa2ad2fb10e553e	-0.03647755657508832
62	0xbf930c12c16b2b8c	-0.018600743346535206
63	0x3f8f27ba15c53e8b	0.015212491788275237
64	0x3fb226ade8012bd7	0.07090269960569572
65	0xbf940e404f9397d2	-0.019585614067999142
66	0x3fb85a7cbf3fc1a0	0.09513072652021615
67	0x3f9890046f4dc2bf	0.02398688248962588
68	0xbf90b6b10b7df902	-0.016321913076802204
69	0x3f99a593f6436e7d	0.025045692353940375
70	0x3fc0797c13d5a4e8	0.12870741814121023
71	0x3f81792647f4c375	0.008531855650831347
72	0x3fa2f9bfe3a426cb	0.03706168798278283
73	0xbfa5a466e863fcb9	-0.04226991259383212
74	0xbf8a068832b2834d	-0.012707771346244146
75	0x3f80d2ffe860e9b5	0.00821494987404923
76	0xbf82e54147c11ba3	-0.009226331712978658
77	0x3fba162b822ca4bf	0.10190078666768708
78	0x3fb0ea9cc1de703e	0.06607990010383077
79	0x3fac2253df35144e	0.054949398991575124
80	0x3f96263034a4317b	0.021630051815962652
81	0xbfa015a4b3df7949	-0.031415125805994544
82	0xbf9abf2b469d5ac0	-0.026119877037980244
83	0xbfa5bfd5c851ac4c	-0.04247921057034229
84	0xbfa7e25cedfc9afc	-0.04664888768302508
85	0xbfa5735427215d2d	-0.041895513321544044
86	0x3fa84c106c4710ea	0.04745532342670507
87	0x3f77e63d706c8f0a	0.0058348083464669995
88	0x3fb1dcb41d340ed1	0.0697739192292446
89	0xbfacf750b5d5b9a5	-0.05657436580337397
90	0xbfa6d3cc14e98a92	-0.04458463435436956
91	0xbfa7d32d66e5e8b9	-0.046533030329514564
92	0xbfa0f2757197a974	-0.033099813572181086
93	0xbfb0832f1a1fa59d	-0.06450170886787139
94	0xbfabb7f9b8a26191	-0.054137996471754886
95	0xbfa7ef3925473001	-0.04674700336508409
96	0x3f94ab2f8234751a	0.020184271165921343
97	0xbf9365374d7e3cac	-0.018940795998386648
98	0xbf7cb4dfb0cef344	-0.007008432189590522
99	0xbfa5265ea898bc3b	-0.04130836303772197
100	0x3f9dfe1e1cecadfc	0.029289694323933788
101	0x3f90625b583b1a74	0.016000201473412592
102	0xbf8a59111b98b0b6	-0.012865193991352757
103	0x3fa586817081f618	0.042041821464391116
104	0xbfabb3aabce60709	-0.05410512500658455
105	0xbfa0998ec16ea3b6	-0.03242155181153043
106	0x3fa8ad089236ba6f	0.04819514069400987
107	0xbfb1b58cd7b9d8cf	-0.06917648569819622
108	0xbfad05894596c3c0	-0.056682862992040395
109	0xbf8659809212fe39	-0.010912899453955226
110	0xbf83aec3ae5b01de	-0.009610680349738606
111	0x3f92009f4e5f2107	0.017580498846457206
112	0x3fa96871ca39a889	0.049624973235794796
113	0xbfb28fd7d6a38dd5	-0.07250737180907348
114	0xbfa74bc40810d1c1	-0.04549992178400287
115	0xbfaa0d88179219a3	-0.05088448798874203
116	0x3f836998bc800439	0.009478753330769961
117	0x3f8a9815b74e0378	0.012985391289250123
118	0xbf9be59c7684a3ee	-0.027243084653637277
119	0xbf952bab39fc55a9	-0.020674395956196943
120	0xbfb19d1b309057cd	-0.0688035005153715
121	0x3f6c8307c05a541a	0.003480448855791807
122	0xbfb160a9521858f8	-0.06788118604922377
123	0xbfada721811be0b8	-0.05791573239361142
124	0x3fa0a39395ea85a4	0.03249798970251597
125	0x3fb180c6c52b46b8	0.06837122262666184
126	0x3f8cd28447e6d76f	0.014073403782145026
127	0xbfb006e23366611c	-0.06260503535157053
128	0xbfb16c3f66d472f1	-0.06805797825331773
129	0x3fb5ea4da2adc204	0.08560643407486884
130	0xbf86541c0f032890	-0.010902613838329495
131	0xbf65504c04b55472	-0.0026017651304451267
132	0xbfa68499821f4917	-0.043980404981669156
133	0xbf9bebd6fe0e6368	-0.027266844993934752
134	0x3f98c1a67b8f804a	0.024176217357194475
135	0xbf418092a7b7bc61	-0.0005341259088121991
136	0x3fb603f08129ef19	0.08599761155522535
137	0xbfab527132adff87	-0.0533633589138836
138	0xbfa2c391483c4ecf	-0.03664831167966797
139	0x3fa1423dbf63afe2	0.03370850526138704
140	0xbfb1dff528cb2d2e	-0.06982357259692115
141	0x3f888f5f72c4450d	0.011992211999798852
142	0x3fa5275f539e8d49	0.04131601234191835
143	0x3f9ae9c411ae3761	0.02628237111962706
144	0xbfb000c9d7f203ed	-0.0625120308122999
145	0x3fa3c14cae7854da	0.03858413343201912
146	0xbfae3ad329f73651	-0.05904254805828358
147	0xbfbe4023cfb99324	-0.11816619702728964
148	0xbfb81493eaa202a0	-0.09406399229375006
149	0xbf86d053845e2b52	-0.011139538266225966
150	0xbfb2eeb5ed168181	-0.07395493543891087
151	0x3fa92a394ab8c11c	0.04915026700143896
152	0xbfb2feef08bcbd4c	-0.07420247996627899
153	0xbf96c9672a48bdd6	-0.022252666431254862
154	0x3f7a1e8375f50ab2	0.00637675620902438
155	0xbfa5441a315fdfe7	-0.04153520443645658
156	0xbf920bcd281d1ba6	-0.017623143742891444
157	0x3f96bee5081d011f	0.02221258031863826
158	0x3fc04c575e981171	0.12732975119446224
159	0xbfa967865f027cbb	-0.049617957208505335
160	0x3fa6aeb066093199	0.04430152173572139
161	0x3f5acb82f1405ac7	0.0016354349836597436
162	0xbfa35dfd1333280e	-0.03782645091412472
163	0x3fa1f12edf0f37fa	0.035043205956398496
164	0xbfa536ba478f94b5	-0.04143316386743249
165	0xbf98edbffc10fe1c	-0.024344444045935373
166	0xbfa66c2dd6bec686	-0.04379409071351596
167	0xbfa1081dc0650413	-0.033265046821277754
168	0xbf937a0b1bf05090	-0.019020246105427463
169	0x3fb655f2cf015557	0.08724896959150406
170	0xbfa70bc92e127fbe	-0.04501179397016085
171	0xbfb1d8999b135da1	-0.06971130405451344
172	0xbf91c3fc6e72daf0	-0.01734918998837548
173	0x3f868c4d12c2e6e6	0.011009790549326447
174	0x3fa455a70065db94	0.03971597556931453
175	0xbfab097f9baf7a47	-0.052806842569897365
176	0xbf8a3d8bd374b37f	-0.012812702551480147
177	0x3fac2e7175c25158	0.055041833519825445
178	0x3fb232ced074a9a3	0.07108776654482667
179	0xbf8fe43d8c1c11c3	-0.015572052801425046
180	0x3f818d485d44d8f5	0.008570256563512827
181	0x3f529895953dbe1a	0.0011350117465233124
182	0x3f6216ab50646918	0.002208075139731435
183	0xbf99979d76619f61	-0.0249924281601176
184	0xbfbaa2a0b2a0286e	-0.10404400216080642
185	0xbf96eda49b552839	-0.022390911083938845
186	0xbf9c729bf8836cff	-0.027780949633648962
187	0xbfb413299d9abe0b	-0.0784173974777717
188	0xbfa59f82cf1d4d98	-0.042232597143676276
189	0x3f7581c4122db9d8	0.005250707533248598
190	0x3f960c070b0beb5e	0.021530256318310285
191	0x3fa814302899c265	0.04702902312863414
192	0xbf8172c3fa5f8ec0	-0.008519679144178283
193	0xbf9437334a88f4ff	-0.01974182264733759
194	0xbfa3fa037c4446f0	-0.0390168275063284
195	0x3f77923ac12255a1	0.005754689702503952
196	0x3fa0ced674c85c98	0.03282804656571975
197	0x3fa0ab5a9cb3bd6a	0.03255732691638509
198	0x3f942eb3d12cb994	0.019709405557642848
199	0xbfac442c0e405058	-0.055207611789371114
200	0x3fa5b05b64e7d7df	0.042361122195799565
201	0x3fad7855e0533c5e	0.05755871165603631
202	0x3f998f86c721808f	0.024961572555526387
203	0xbfb415848234e498	-0.07845333269951238
204	0x3f8c7e003b24dcf5	0.013912202649051223
205	0x3f8e4d46bb1de346	0.01479583033118249
206	0xbfbc7f2d188b8244	-0.1113155541347704
207	0xbfb775889b6d9e3e	-0.09163717074044883
208	0xbfa690bfb1a5c8b4	-0.044073095736977846
209	0xbfb4ee2ed2f3a1f8	-0.08175938272655248
210	0x3f978e5088713edc	0.023003824546605198
211	0xbfa2e59c966687c8	-0.03690804801887243
212	0xbf822f1afd526f8e	-0.008878908973478674
213	0x3fb11a0382e495dd	0.06680318780544021
214	0xbf769a11c661531b	-0.005518025811473116
215	0xbfa29280e246cf89	-0.03627398264089183
216	0x3fb887aba797f830	0.09582016793862702
217	0xbf4b7ac037575796	-0.0008386076503323788
218	0x3f9e377a76713ca1	0.029508508185526087
219	0x3f963f9b2764f185	0.021727012900770077
220	0x3fa5bea0e58de7d6	0.04247000505615943
221	0x3fb026caa583c819	0.06309191265953053
222	0x3f7e6d7b87b08193	0.007428629435736761
223	0x3fa93c6a48c17cbd	0.049289056187939086
224	0x3f89cb626a1fb537	0.012594956267970232
225	0x3f80fc8125b4608a	0.008294114077713983
226	0x3f9e09ef4f000467	0.029334773251325077
227	0x3f85c2a4168c39d6	0.010625154436209632
228	0x3fa4d6c2eb388195	0.04070099946352738
229	0xbf817340ef16290b	-0.008520610138266457
230	0x3fa7a41809bf00b6	0.04617381209345821
231	0x3f979527fc15d319	0.023029923211157575
232	0xbf9a14a1d66017a2	-0.025469330510553008
233	0x3fb19e86589f6798	0.06882514632834924
234	0x3f9a9e5a9d257de0	0.025994697419603585
235	0xbf847d1a67a20223	-0.010004240310309836
236	0xbfaa041eba96acf9	-0.050812683369565854
237	0x3f889e601c9b710e	0.012020827172300599
238	0xbf8c23fa1ad7c72f	-0.013740495628528386
239	0x3f9fc20dd32f7e5c	0.031013694777242015
240	0xbf9b6df7a4d88ea9	-0.026786679684063817
241	0xbf6f83e838dc4f43	-0.0038470779026144332
242	0xbfaf862f5af25184	-0.061570625163912346
243	0x3fa207887914a33a	0.03521372297320231
244	0xbfbff7a07528a034	-0.12487223491973581
245	0xbf8bcf4c07c0b76f	-0.0135789813867537
246	0xbf95f36711ee38da	-0.021436319798845506
247	0xbfbb228088b6754a	-0.10599521005356852
248	0xbf749aba801c3eb1	-0.005030373112972762
249	0xbfa08355d462e0e7	-0.03225200860600968
250	0x3fa1407f83771d5b	0.03369520644951748
251	0xbfa7005acdc73666	-0.04492458116474722
252	0x3f8af7f5a1346703	0.0131682576962251
253	0x3fb1bcf547045d6b	0.06928952201666554
254	0x3f57b84f8a449f54	0.0014477516898043401
255	0x3f993a66bc0c2bd1	0.024636845805655675

module.down_path.2.net.0.bias f8 [16]
0	0x3f9e3a25ffffc793	0.0295186936854815
1	0x3f9b8841ffff6142	0.026886969804622803
2	0xbf85d1b6c001f17b	-0.010653903708082826
3	0xbfab165abfff9673	-0.05290492624025669
4	0xbfa494f460000bf4	-0.040198933333179726
5	0x3fa9d7f6c000a9db	0.05047579854756964
6	0xbf9cc7f6bffe9ea9	-0.028106551617070128
7	0x3f9e6fcebfffebc8	0.029723387211543245
8	0x3fa523ae60002975	0.04128785058863375
9	0xbfa7aa690000013f	-0.04622200131416542
10	0xbf97665f6000c83a	-0.02285145781952045
11	0xbf80833bffff94bd	-0.00806280970568662
12	0x3fa11bf15fffb4a8	0.03341631218777624
13	0xbf9c4c2b600140b0	-0.02763431333033911
14	0xbfab23ebffff7aaa	-0.053008437156440394
15	0x3fadba1600002bcb	0.05806034803398282

module.down_path.2.net.1.weight f8 [16]
0	0x3ff083e572a4fe66	1.032201240377526
1	0x3ff006a37b4b480d	1.0016207519697702
2	0x3ff005749421e16f	1.001331881181695
3	0x3fefca6f99c1d968	0.9934614184447073
4	0x3feeb25f93bb7338	0.959274090327745
5	0x3ff0a1918f6473b0	1.0394454575791592
6	0x3ff030d2c8910d55	1.0119197687752906
7	0x3feefd3647211281	0.9684096707574811
8	0x3fefe119f4aa2fd9	0.9962281969651442
9	0x3feee5741d43c84b	0.9655094691827427
10	0x3ff03b6d06a48c71	1.0145082721217273
11	0x3ff006e6091f760c	1.0016842228282057
12	0x3fef6b8a27347ceb	0.981877399990393
13	0x3ff03e0e4ca68cdb	1.015150355736117
14	0x3fef520bd064b10a	0.9787653989965588
15	0x3ff032ca72c67069	1.012400101032677

module.down_path.2.net.1.bias f8 [16]
0	0x3faea4d2ac0ca9d7	0.059851249220020435
1	0xbf808091632ec862	-0.008057723845784352
2	0x3f9edffb16313697	0.030151293973452366
3	0xbf5caca599cf39bb	-0.0017501465983858894
4	0x3f1db5dace1af903	0.00011333606701222427
5	0xbfa5684ebfaf255c	-0.04181142892736986
6	0x3f9ce574cd499d4e	0.02821905615783509
7	0x3f9a339d80811210	0.025587521522782153
8	0x3fa8e4157838d824	0.048615141797583555
9	0x3f968d7a93b2780d	0.02202407385322407
10	0xbf82abb1dacaa361	-0.009116544236648929
11	0x3fb6469c5c4680b7	0.0870149350435011
12	0x3fa8710baa52968e	0.04773746923573895
13	0x3faf20dda71d9884	0.06079762139306502
14	0x3f94a11c55575acc	0.020145838459792384
15	0x3f8d15f78ca95d72	0.01420205495848734
