results/run_1/saved_model_unet3_64_128_5.pt (torch, 351968 bytes, 75 tensors)

module.down_path.0.block.0.weight f8 [8, 4, 3, 3]
0.02479041528459387 0.4230962280210179 0.11627756323489473 -0.008688380105538417 -0.4001343564428111 0.13478233619928076 0.13918279733515473 0.23474099749103042
0.17370394135234826 -0.30759432159580835 0.2086955433562762 -0.22230872013887626 0.16256278816448563 1.4495382595360404 0.6446653508520717 -0.2115597622646743
-0.034772028449288124 -0.19269938401536327 -0.07757832758014042 0.03139344416646844 -0.06477488306084983 0.0683690783780941 0.13981582854587854 0.16146741575629692
-0.07462041015546668 -0.1288689962114802 -0.01574305114453866 0.00669542198322112 -0.001179818190565844 -0.015992999416626196 -0.10281401851907279 0.10275704002617278
-0.09077310224303295 0.04632778785329855 -0.06862060631917542 0.03321895654438681 0.24251056769785742 0.5020692786543915 0.20047717681332455 -0.11967256657287183
-0.5471597173629561 -0.15761501052926985 0.1649502332713341 0.3767382018628664 0.05900278581520354 0.27378496840413374 0.05005167606025483 0.27474273504787566
-0.5730563786379829 -0.8540139952283501 -0.5640621632328687 0.34800370274828407 -0.13226795943311015 0.32279073863396773 -0.1935151758521837 0.14044658901519322
-0.11731555219325752 0.11590034579319246 0.2560042129122973 -0.03427280928751082 -0.15072475321102713 -0.0632399458982258 0.07092121735972318 -0.0652868651823891
0.0629990722392696 -0.07068728673773814 -0.028415368597290824 -0.02677085027940478 -0.04605399075721286 -0.012148829357267398 -0.04011603438423125 0.032130178036747135
-0.1350729192877617 -0.09009115181637545 -0.07131237548328408 0.3933397404057545 0.7801229729866215 0.19623734607422233 0.12033767796713582 0.7582173618688395
-0.037056391408558036 0.13686008126316576 -0.019703954988135826 0.1285808889462347 1.87652356647389e-06 -0.3237819391212445 0.11715839691966794 0.16529849313323347
-0.35029086758948247 0.19140570193648068 -0.0838081981585029 0.15319734066847326 -0.10134543101440524 0.23962470162826185 0.5382581849625928 0.22826760826088702
0.2325844898856477 0.6528463495774536 0.11548348465342531 -0.004959937663571802 0.038349554174580816 -0.05834813878444348 0.01995494136130632 -0.09359559260401357
0.11660638030390524 -0.010240342530970148 0.06514249529160157 -0.06586679381120623 -0.09151416803952517 0.23779699461284207 -0.05617451465573795 0.3368697574406303
0.8352344267293317 0.631706399331873 -0.22857859228865493 0.5366122152363014 -0.006727971093675126 0.1637446095651493 0.03549093404384106 0.2396834763086633
-0.09724865072809462 -0.41943169958043064 -0.11140948662241154 0.12538320759673854 0.041267757971232506 0.21950009209245142 0.14209513133130314 -0.0810068908020392
0.07115301726836981 -0.10163848829870843 -1.0757720673856999 -0.4280915510342277 0.10048722387594734 -0.17242205843420533 0.0666618718120644 -0.013116932784416935
0.01859538674786818 -0.02592711865874159 0.00567644365507032 -0.060158830980345204 0.013741329156466649 -0.0324794958539347 0.07674244904420853 -0.03942193285031811
0.1608176701365823 -0.32241159189437407 -0.13662527427446558 -0.31516011411535755 0.6573600690377381 0.13598249659538045 -0.06615802734310304 -0.16904178784285515
-0.3074704373665245 -0.06445685989919406 0.11604419004261489 -0.09033089786715456 -0.07516727658370147 0.11669778317639533 0.0741512966779786 0.08588389105829836
-0.19501665433287493 0.0011378723621291067 -0.2489331365185983 0.1503014453611453 -0.267414262009737 -0.13390832697909494 0.4980589224658051 -0.06378001689550947
-0.003073294342765362 -0.3032216447929181 -0.10850355817828267 0.04419708921925005 -0.26220081313060695 -0.0320442806132994 -0.026948925464951107 -0.18568801234068646
-0.09557042131935685 0.04622908251973745 -0.05575083942005556 0.03553571257816279 0.12944440091428414 -0.4130381949617379 -0.026483433552509848 -0.4856204048031048
-0.6925863226932631 -0.6787297994847463 0.20725925873001938 -0.6817749910525569 -0.01897439003299797 -0.12003156187493146 -0.04433026349781422 -0.16400120679343783
0.06876498844532855 0.37929622549142455 0.12469752449021249 -0.09481300481840312 -0.05347619826420287 -0.25187609050042997 -0.15571071816142112 0.11691484870133832
-0.06231457470931601 0.25982215387119895 0.9281150760153857 0.4982782312128692 -0.10513340577639398 0.26862675425141885 -0.07606873260777203 -0.00821240807496141
0.011270508225691176 -0.0058446046463129465 0.013494023707727449 0.05036196024526803 0.016722747405356682 -0.00944471080872331 -0.048221710701122064 0.007695591397016934
-0.07400999033453966 -0.6161748582136065 0.02397970455388665 -0.406251010506785 -0.8291080708329092 -0.1834750304296825 0.18256602980292697 -0.21105842764529836
0.20898732740454834 -0.2631425439422235 0.18834306409080473 -0.2633062023105935 0.020187374368768992 0.5709295025688519 -0.13697433519981697 -0.14065673570857345
0.03264469637692949 -0.07822846294456705 -0.13464733354091968 -0.5350253540563943 -0.1054624194084958 -0.2925052343764223 -0.6866749204496582 -0.20286648794418682
0.050319793349103074 -0.05001564167487966 0.03864674091483179 -0.03853181403197354 0.11278419346403963 -0.06572581208007387 0.045673279872951056 -0.08114913564283077
0.01882192340432353 -0.05123594015768503 0.0760215402315505 -0.03904617202635569 -0.04706498727571826 -0.4484273029042466 -0.14339316970650431 0.009280743305402381
00000000: 333a 9b9b a862 993f 9a51 9a33 0214 db3f
00000010: d339 5acb 5dc4 bd3f 069e 44a3 36cb 81bf
00000020: 6562 bb21 cd9b d9bf 2ef6 062f 8c40 c13f
00000030: 5132 5ced bdd0 c13f f98f a035 fe0b ce3f
00000040: b1b6 a545 ee3b c63f 8c1d ec17 a0af d3bf
00000050: c5a0 c41a 89b6 ca3f f858 4eb5 9c74 ccbf
00000060: f344 5b81 dbce c43f fd20 b007 4f31 f73f
00000070: b8c4 d83a 19a1 e43f 8fc4 09ea 6314 cbbf
00000080: 49b3 02aa a3cd a1bf 1115 2798 5faa c8bf
00000090: abc7 d55b 2cdc b3bf f8ef 0130 cd12 a03f
000000a0: 2c3c 5934 1695 b0bf 0d0b b1cb a280 b13f
000000b0: 1eaa 882d 7ce5 c13f be7e 05db f6aa c43f
000000c0: 9559 3bbd 521a b3bf 012c 197e c77e c0bf
000000d0: be5e 3847 f21e 90bf ddb2 36a7 a86c 7b3f
000000e0: 1215 cc22 8454 53bf 9361 d605 7860 90bf
000000f0: f818 1cff 0452 babf ee9e 580e 494e ba3f
00000100: b283 7df1 e73c b7bf d8ae 739b 46b8 a73f
00000110: fff8 f8bb 1e91 b1bf 2447 ee37 1302 a13f
00000120: 312d 9916 960a cf3f 97b3 8497 f310 e03f
00000130: 4cfa 0073 3ca9 c93f 87ab a87f dca2 bebf
00000140: 6666 7818 5582 e1bf 047c ca89 ba2c c4bf
00000150: 0519 afd8 161d c53f 2fe9 098c 7a1c d83f
00000160: 7bfc e5f6 9c35 ae3f 4fa8 5b63 b185 d13f
00000170: 0edb 938f 5fa0 a93f af07 768d 6295 d13f
00000180: 6375 a054 7a56 e2bf 44a0 7a28 1554 ebbf
00000190: bfe0 ff17 cc0c e2bf d435 8c52 b145 d63f
000001a0: 5674 0910 28ee c0bf e19c 787c 9aa8 d43f
000001b0: f44b c8f3 1ac5 c8bf 4bd7 5361 27fa c13f
000001c0: e972 fb5b 6408 bebf d3df c622 a5ab bd3f
000001d0: ad2d 867e 5f62 d03f ba55 10a6 348c a1bf
000001e0: 9e98 dede f24a c3bf 4106 6f3b 7e30 b0bf
000001f0: 740b 2795 e427 b23f b614 d1d6 a3b6 b0bf
00000200: 582d f20a b520 b03f 4e14 c8e0 8f18 b2bf
00000210: 900c 511b eb18 9dbf ad9f be59 d169 9bbf
00000220: 8316 4e80 6394 a7bf 9974 3146 7ce1 88bf
00000230: bc72 73bf 168a a4bf 43d5 c3df 5d73 a03f
00000240: 8545 75c5 114a c1bf 74d6 b5b6 3610 b7bf
00000250: f132 8020 8741 b2bf 4ea1 5072 7a2c d93f
00000260: 20bf fa73 c4f6 e83f 5641 d22b 4e1e c93f
00000270: fa6d 5837 73ce be3f d48d 8f0e 5143 e83f
00000280: a741 6a2a 0ef9 a2bf 099c 9392 a184 c13f
00000290: 6285 1a09 462d 94bf 6e14 75ac 5675 c03f
000002a0: 8b94 2b7b 9b7b bf3e d5ea e3e1 d7b8 d4bf
000002b0: 53c5 38bb 17fe bd3f b6eb 0a43 8028 c53f
000002c0: 4498 1863 2a6b d6bf d5e4 0a67 fb7f c83f
000002d0: a63a 3a3e 7474 b5bf 79ac 0070 f89b c33f
000002e0: 1c4f ce2f c6f1 b9bf 7350 67b0 05ac ce3f
000002f0: 39ff a63a 6939 e13f 29bb 1b7c df37 cd3f
00000300: 3fcf ce1c 54c5 cd3f d1f0 1707 1ee4 e43f
00000310: 4a88 d05d 5390 bd3f db42 e220 df50 74bf
00000320: 5af4 fd81 8da2 a33f b52a b9a7 cedf adbf
00000330: cf60 2972 116f 943f c4b2 4879 e1f5 b7bf
00000340: a003 e96d ead9 bd3f b3af 2982 e3f8 84bf
00000350: 9275 dbb6 2dad b03f dbbe 4f6d a5dc b0bf
00000360: 68b4 d9f6 786d b7bf db80 79c5 2170 ce3f
00000370: 7d50 a1ee e7c2 acbf 7003 ce2b 468f d53f
00000380: 1877 698c 3dba ea3f eabc b956 f036 e43f
00000390: d705 3935 1042 cdbf 6f5e 6261 ed2b e13f
000003a0: c462 0dfd c98e 7bbf ee42 7d57 95f5 c43f
000003b0: 2eab 0b22 de2b a23f 0993 11ba f2ad ce3f
000003c0: 2711 759e 49e5 b8bf 25a2 260e f8d7 dabf
000003d0: 6ee5 8105 5585 bcbf aa3b 0c94 8e0c c03f
000003e0: 513b bb2d 0c21 a53f cec6 803a 9418 cc3f
000003f0: 1490 fe5a 2c30 c23f a3d2 be1a debc b4bf
00000400: 4ceb 2d8a 1537 b23f 3d01 42df fa04 babf
00000410: 42f3 75c5 5c36 f1bf f6b2 d81a da65 dbbf
00000420: c188 36dc 87b9 b93f a8bd 0a0f ed11 c6bf
00000430: 90ad 529f c010 b13f fac7 a9ea 0cdd 8abf
00000440: 5917 c147 ab0a 933f d10e e07a a38c 9abf
00000450: 4fa4 b2bd 2e40 773f ea99 4067 23cd aebf
00000460: 440f a5fa 6924 8c3f 3c68 f708 27a1 a0bf
00000470: 4d1d dca4 64a5 b33f aba8 ac90 1c2f a4bf
00000480: 3b82 ed64 ac95 c43f 9e68 c23a 64a2 d4bf
00000490: 186e 68de ef7c c1bf fd42 c853 952b d4bf
000004a0: 12d4 c6fb 1709 e53f c950 dadb df67 c13f
000004b0: df76 ce83 bbef b0bf a7a1 384b 29a3 c5bf
000004c0: 6d77 3e7c 98ad d3bf aa17 45a9 3e80 b0bf
000004d0: f7b3 1f71 12b5 bd3f fa61 28fc ec1f b7bf
000004e0: cf08 a8a2 293e b3bf 0f21 42ea e7df bd3f
000004f0: f81a 3052 94fb b23f 0c3f 5997 7cfc b53f
00000500: 037c 4444 4ef6 c8bf 537f 4525 95a4 523f
00000510: 8179 1e80 0add cfbf 280f 2fe8 133d c33f
00000520: ff35 74b5 501d d1bf d4c5 8476 e823 c1bf
00000530: 3a2f de87 32e0 df3f c65c b41e e353 b0bf
00000540: e05b 2e56 2a2d 69bf 5bcb f4c1 fb67 d3bf
00000550: 6c17 e0a1 e3c6 bbbf 63d6 8c39 00a1 a63f
00000560: 2a5b 58eb e5c7 d0bf 5914 84a2 1b68 a0bf
00000570: 4521 23c6 7f98 9bbf 5d99 21f2 9fc4 c7bf
00000580: 8d15 089a 4d77 b8bf 30bc 179b 56ab a73f
00000590: 533f 11c0 5f8b acbf e0fd b9a6 bc31 a23f
000005a0: 79e0 4956 a291 c03f a402 d7c0 376f dabf
000005b0: a9ab f923 791e 9bbf 5193 399b 6714 dfbf
000005c0: a4fb b3ca aa29 e6bf a671 738e 27b8 e5bf
000005d0: 04f2 04ad 7887 ca3f 45a5 39c9 19d1 e5bf
000005e0: 07f4 9cc2 056e 93bf ff99 bd70 63ba bebf
000005f0: 0171 e4cf 74b2 a6bf 3257 d7d5 fdfd c4bf
00000600: 6285 7b10 959a b13f 9dd7 feac 6346 d83f
00000610: 04df 934d 2dec bf3f 5537 ee42 aa45 b8bf
00000620: da7d 5175 3b61 abbf e7fe d5e4 bc1e d0bf
00000630: c4ea 112d 54ee c3bf 13cb 96ab 21ee bd3f
00000640: 519e e128 b2e7 afbf 0dcc 6919 eda0 d03f
00000650: ed23 4d63 1eb3 ed3f 4e8d d760 cae3 df3f
00000660: 71d6 86db 05ea babf 4fca 1545 2e31 d13f
00000670: c06d cc8e 3d79 b3bf 54b1 d3c0 aad1 80bf
00000680: 72bd e801 fe14 873f dbfe 051d 83f0 77bf
00000690: fd0c 2134 c1a2 8b3f 9b87 6ef8 0ac9 a93f
000006a0: d233 d294 c41f 913f 3362 59a0 bf57 83bf
000006b0: a644 d61c 84b0 a8bf 0f21 fa95 6985 7f3f
000006c0: 6d6a 1098 51f2 b2bf d5a2 1456 b4b7 e3bf
000006d0: a086 4ebb 228e 983f 72fd 053d 0400 dabf
000006e0: c176 22a6 0d88 eabf e4fe a91b 1c7c c7bf
000006f0: e69b aedb 525e c73f 0410 246a f603 cbbf
00000700: be90 3dc4 18c0 ca3f 08c2 1ad3 53d7 d0bf
00000710: 6d66 5922 a01b c83f 6582 f041 02da d0bf
00000720: 2fea d2c2 ffab 943f 405a bbf2 0d45 e23f
00000730: 098b 0901 6088 c1bf ce4b ea37 0a01 c2bf
00000740: 544d a73e ceb6 a03f 6d98 f6d1 c706 b4bf
00000750: 26a3 06b3 1f3c c1bf 427f c67d ed1e e1bf
00000760: ca07 51ca 95ff babf 1c8e e3df 67b8 d2bf
00000770: e311 caae 3df9 e5bf 485b 9671 87f7 c9bf
00000780: 9f3f 8d15 84c3 a93f 896a 9072 a69b a9bf
00000790: 1202 a770 81c9 a33f 29ea 3e22 71ba a3bf
000007a0: ad0c 6fc6 6cdf bc3f bf0f 6325 68d3 b0bf
000007b0: 58f4 b5f6 7c62 a73f a843 af93 30c6 b4bf
000007c0: dea6 e0e5 0d46 933f ebd1 b6de 983b aabf
000007d0: e007 16cd 2576 b33f 793d c61f dcfd a3bf
000007e0: 3d90 45ea e618 a8bf c6dc 266e 08b3 dcbf
000007f0: b9fa 2d17 b55a c2bf b28d d547 c801 833f

module.down_path.0.block.0.bias f8 [8]
0.08192380517436938 0.13844752311200179 -0.06528556347420145 0.12391086667570186 -0.08753435313312331 0.05896648019409194 -0.14533609151949345 -0.07328488678215987
00000000: f1df fc5f f5f8 b43f 5b37 fdff a5b8 c13f
00000010: e8ca 0500 8eb6 b0bf 62bc fd5f 9fb8 bf3f
00000020: 39b8 fbbf a668 b6bf c6da fcbf da30 ae3f
00000030: 9899 0080 5f9a c2bf 833b 0560 ccc2 b2bf

module.down_path.0.block.1.weight f8 [8]
0.8424759632790071 0.40051957816399797 0.915302331402442 0.9559080431285037 1.153408037966486 1.207417732584618 0.8576271447723809 0.82758610272775
00000000: c061 be26 90f5 ea3f 46d0 67de 1ca2 d93f
00000010: f06e 6a1d 284a ed3f 8b0c e776 cc96 ee3f
00000020: 4127 a0fc 5b74 f23f 87fb a041 9551 f33f
00000030: 0ab2 5e7b ae71 eb3f 80df bad9 957b ea3f

module.down_path.0.block.1.bias f8 [8]
-0.07505311978428615 1.2297615703124487 0.12380020838549653 -0.04510205212846618 1.2369393523971848 0.14861348783685852 -0.019945817877536444 0.13434940625181258
00000000: 05b0 ef66 ae36 b3bf c4e9 e577 1aad f33f
00000010: fff1 40d6 5eb1 bf3f 9f9d bfbd 9d17 a7bf
00000020: b8e6 1aeb 80ca f33f 8e7c 004b c405 c33f
00000030: 3a6a e72d ad6c 94bf b455 0b81 5c32 c13f

module.down_path.0.block.1.running_mean f8 [8]
-0.215508759295119 -0.45508993249895263 -0.05553873653908763 0.0022465891943993306 -1.742427689934908 0.12747304608572058 -0.16004923008097593 0.18923842176684946
00000000: ff47 9680 ca95 cbbf 2d99 3486 3120 ddbf
00000010: e66d 31c2 926f acbf d17e c263 7067 623f
00000020: e6a4 7edb fbe0 fbbf 4aa3 076a 0951 c03f
00000030: 9050 7940 7e7c c4bf a050 51f0 f638 c83f

module.down_path.0.block.1.running_var f8 [8]
0.164400021047267 0.10826933344334155 0.5073258985149337 0.4400057194646988 0.3199214485097549 0.5303146142957625 0.48730350902430175 0.15642504494167836
00000000: 6b0b ee54 0f0b c53f d082 4cfe 89b7 bb3f
00000010: 7322 d185 033c e03f 62d8 c9bf 0d29 dc3f
00000020: a6da a8cf 9779 d43f 89b7 9f5a 56f8 e03f
00000030: 1211 9f0e fb2f df3f 1e61 2662 bc05 c43f

module.down_path.0.block.3.weight f8 [8, 8, 3, 3]
0.08580654740866323 0.17312755044468842 0.06439323107382068 0.14576132100137804 -0.08981278954084532 0.3156549980694246 0.07006969415913693 -0.008726528838908962
-0.04845821616533923 0.07688961897395857 0.24453432455295177 0.20613491661318392 0.19322172701658805 0.1335070924428364 0.18801029960497553 0.11408838286010405
-0.24922810805196052 -0.0022617150648024053 0.0064861932120379075 -0.3744120331332958 -0.048252810152779706 0.13237753164928057 -0.27058531702630995 0.08608451418401089
0.08002596348944109 0.2516934009197739 0.08439935111151078 -0.021925010066797066 -0.18927227398384358 -0.004904405407639688 -0.1592304280842041 0.28140320510347944
-0.10594337775163533 -0.15485729919630575 0.019327684756458966 -0.17131681649789737 -0.18478782307361585 -0.07129887050670515 -0.07629007671086382 0.18819234728395082
0.1266226630384149 -0.1829621887655197 0.18527313084025296 0.34249803756393926 -0.12541097976184987 -0.10094824458134705 0.15561728543073855 0.009222102009067612
0.10923145622311843 -0.2042203423764704 0.10391531115730178 0.048576048037539614 -0.04533686632398486 0.13533618891486834 0.030125726111871188 -0.024131829914773886
0.011916469418135319 0.1356669696423261 0.7985671330976039 0.10749827414077723 -0.03612949511136289 0.503963537308825 0.03233380362126585 -0.051976180756652966
-0.18191403790981694 -0.014471378576935106 -0.0890012160029653 0.1813640218335201 -0.2965527062792916 -0.03180638193800912 0.0212135461745016 0.07373565358493889
0.10840746022349208 0.29514390128507884 -0.10662523290368697 0.5279809246869945 0.7633661148897528 0.02894301736425911 0.00011126174075737623 0.38712171106516213
-0.14078759876657915 -0.0765622144300164 -0.3680751687144269 -0.04440911630720557 -0.3257267010028427 -0.05952874268179006 -0.08775479960322287 -0.030314853445553628
-0.18870168604908663 -0.004585743266520596 -0.06320614547385824 -0.09375643875331183 -0.12518995829239102 -0.05155391898472241 0.015571160370829194 -0.13324814805940277
-0.01016320293131951 -0.15372779504201511 0.015434662112310113 -0.10840281412644995 -0.1346612790325845 -0.04409128677940651 0.16534935274003207 0.21807818938446913
-0.056183132619865746 -0.17978382056171702 -0.16008157887928712 -0.04308712143748382 0.09646880863991782 -0.15702342867216632 0.029044958023257177 0.08916784295056845
-0.056198386183809415 -0.006127027359105319 -0.06393640319755477 -0.15137678484428313 0.0820283481049635 0.10670677138011046 0.06770723337800075 -0.0003315600669959625
-0.169054574166027 -0.0923259174150978 0.017292018825233107 0.12322260821249745 0.11508401272697852 -0.007186830930184419 0.03704320889401896 0.005457809816660114
0.07529413724588946 -0.13414189786745112 0.07286585666854763 0.03153553126747268 -0.020203035904311408 -0.01134560664530879 0.12335383725045315 -0.1467407106897502
-0.34841680606246306 0.16352725276478233 -0.49134061994514205 -0.6127085456939415 -0.04957472700192273 -0.01127928181429654 -0.4450988832309251 0.16409756146293136
0.056317117832045176 -0.02154951933695629 -0.03164286250657809 0.09483186202637547 -0.2049988651800976 0.094569741908961 0.03912791290367305 0.03262278267548158
0.022965366413961377 0.23533748630589715 -0.14089951075617496 -0.06531868470744912 -0.02462963954807692 -0.07894182023099126 0.07488351311594359 0.03901324557193759
0.14028177594572147 0.04028473573460745 -0.02519154037183651 -0.0898180785058061 0.04821726567994252 -0.1724424415336916 -0.17717992956254036 -0.10546990821506924
0.24111479304067926 0.027801042259771192 -0.014745574192293621 0.05718645863432082 0.464966206980827 -0.1563764448108417 -0.08296661724975966 -0.010003844363863782
0.15888380314193776 0.05987842321859368 -0.054866914656660236 0.03032776330954218 -0.21390221816933597 -0.1639349028192359 0.019162235093778547 0.009570258505069394
0.2680520232290565 -0.12371715419532266 0.12283530177059597 0.3179780582821463 -0.20516026473001855 0.042382587365879784 -0.2106048399048083 0.15591175187927206
0.031796853616583215 0.04795628860891405 -0.14193276252562181 -0.03817517645212356 -0.0014038871794341953 0.057838056046892565 -0.0014658132857904866 0.09940706192188224
-0.016164479738052736 0.3845881266027944 0.46266049879973997 0.04982692660378611 0.3628992599833114 0.6344382947743327 0.059138619767856324 -0.07242775588594232
0.04619540196480342 -0.028424777006235302 -0.11390130758577388 0.28131026298412715 -0.05358262925927159 -0.09185994890068457 0.06469178487452901 -0.08925085200349409
-0.12281709943692548 -0.4012296139120162 0.14145684894684296 -0.43396163831092494 -0.6305027567292739 -0.003237272779258849 -0.038397531661227106 -0.4287849083480074
0.17283279931015938 0.04547124929225573 0.5624828456058856 -0.08603917970796345 0.3773484691328459 0.7250144313684628 0.12062371369105936 -0.047193631872955256
0.30869275245719907 -0.018261534595084828 0.06485601866805725 -0.06015697042167972 0.12000112343939501 0.011754210546795322 0.13877132568746553 0.08404506749830634
0.04234506849943738 0.04782404064455092 -0.028384439878230142 0.014947519597892998 -0.021999405807998237 0.02697482291966599 -0.05082033737194152 -0.059446187913107025
0.059367349122081095 0.047687639601725035 0.0649951540695431 0.07403508628793863 -0.05734358142167599 -0.041188927576125495 -0.0014659686771776848 0.012359293314468013
00000000: 4823 e7fa 6af7 b53f cc27 9927 0b29 c63f
00000010: 91bb 8b25 137c b03f ab80 5c95 4ea8 c23f
00000020: 7c28 d791 f8fd b6bf 5dbc 6105 b133 d43f
00000030: dbad da64 16f0 b13f 2506 c4df 36df 81bf
00000040: 9625 4eeb 83cf a8bf 3422 e5be 09af b33f
00000050: 0c29 5a97 e64c cf3f 7b6a b502 a162 ca3f
00000060: 6dd9 3453 7dbb c83f 63bb e9a9 c216 c13f
00000070: f9a8 0eb4 b810 c83f 31d8 3c71 e534 bd3f
00000080: 39df a9e6 b4e6 cfbf b3ec 8e07 2987 62bf
00000090: f632 8a3b 4491 7a3f f353 62e3 5df6 d7bf
000000a0: bfb2 17a3 97b4 a8bf b055 9438 bff1 c03f
000000b0: 84f8 d913 4551 d1bf 9ac4 1c7d a209 b63f
000000c0: 3d9e 04e0 947c b43f ca71 64a3 be1b d03f
000000d0: fada d324 329b b53f 6932 ce84 8273 96bf
000000e0: a36b 66e9 123a c8bf f26f 504d a416 74bf
000000f0: 912a 93a4 a961 c4bf 752d ba96 8202 d23f
00000100: c9c9 abee 1a1f bbbf a029 cc2d 5dd2 c3bf
00000110: c1dc bef7 a2ca 933f b280 0e9e b5ed c5bf
00000120: 6c6d 669c 20a7 c7bf e96a 118d a440 b2bf
00000130: 8e84 7b18 bf87 b3bf df94 78d4 af16 c83f
00000140: 8a59 57e2 2b35 c03f a784 9314 4e6b c7bf
00000150: 43a9 e4aa 07b7 c73f cc00 92e3 7ceb d53f
00000160: 9f77 518c 770d c0bf 44c4 1081 bed7 b9bf
00000170: 5204 cf67 44eb c33f cd0c 3c94 09e3 823f
00000180: 4d39 2cbc 97f6 bb3f 9aa9 d765 e423 cabf
00000190: 176a f99e 319a ba3f 575c 61b3 f5de a83f
000001a0: 874b 54cc 6436 a7bf c164 ad3c b252 c13f
000001b0: 2dca ac41 47d9 9e3f f739 1bb1 03b6 98bf
000001c0: 1137 7a73 a967 883f 826f e106 895d c13f
000001d0: ec11 0aa9 dc8d e93f fca2 cfc3 0185 bb3f
000001e0: 423d d9af 907f a2bf abc5 e323 7820 e03f
000001f0: 769d 376a 0e8e a03f 7ba7 0a39 9f9c aabf
00000200: 8fc3 c08d f548 c7bf 294f ba8d 2ba3 8dbf
00000210: b976 09a0 c8c8 b6bf 7d16 39af ef36 c73f
00000220: 67a1 c033 b8fa d2bf b2a6 7414 ed48 a0bf
00000230: 0ee9 34fc 00b9 953f ac4d b2fc 56e0 b23f
00000240: cd64 4d60 97c0 bb3f 6e87 e83e a3e3 d23f
00000250: 90ed 3f90 ca4b bbbf cd28 8e40 38e5 e03f
00000260: 246f 4ac6 7e6d e83f c8b3 1b04 3da3 9d3f
00000270: cae0 c126 a62a 1d3f f42b 2624 9ac6 d83f
00000280: 0642 31fa 5305 c2bf 1e15 16cf 9499 b3bf
00000290: 0648 0627 8b8e d7bf 010f 5eac cabc a6bf
000002a0: 7d6f 0fce b4d8 d4bf fb06 fb25 8d7a aebf
000002b0: 71e5 5c3a 1977 b6bf a1d8 8660 db0a 9fbf
000002c0: 17f4 2379 6027 c8bf eb8e b815 80c8 72bf
000002d0: 9568 b727 472e b0bf 7e22 3c06 6c00 b8bf
000002e0: 61a3 537c 3906 c0bf 933f 0a78 4665 aabf
000002f0: 4c88 6dc4 c5e3 8f3f 3877 157b 460e c1bf
00000300: a476 b301 72d0 84bf da87 1836 5aad c3bf
00000310: ab3a fa47 359c 8f3f 12ac 776d 49c0 bbbf
00000320: f0c1 bdae 943c c1bf 9b20 8315 2293 a6bf
00000330: 4973 37e7 2a2a c53f bd47 b071 fce9 cb3f
00000340: d1d8 601a 09c4 acbf 07cd d4fe 2703 c7bf
00000350: 3142 fd9c 8d7d c4bf eed1 e7e2 830f a6bf
00000360: 9949 310a 2eb2 b83f af26 6dfd 5719 c4bf
00000370: 2e59 4b23 f6bd 9d3f b0da 5329 b4d3 b63f
00000380: 6ab0 7eed 08c6 acbf 8d9b 1062 a718 79bf
00000390: d7e2 c1d8 225e b0bf 4ad1 2382 5060 c3bf
000003a0: 2faa 7450 cfff b43f e3dd 568d 2251 bb3f
000003b0: b6a7 0fe1 4255 b13f 41df f7a4 a7ba 35bf
000003c0: 2922 a48d 94a3 c5bf 9afc dedb aba2 b7bf
000003d0: db42 58bd ffb4 913f 0287 6650 848b bf3f
000003e0: 1e6f f456 2576 bd3f 4e91 e93c f06f 7dbf
000003f0: e737 7ad5 53f7 a23f 86b9 b9aa ed5a 763f
00000400: ac37 0d01 7a46 b33f 009a 2ecc 8f2b c1bf
00000410: 71ed 6237 56a7 b23f 135c e9d6 6c25 a03f
00000420: 67aa f4c9 1ab0 94bf 7284 f58b 5d3c 87bf
00000430: 5aa9 d3f8 1d94 bf3f 46bf b34c 66c8 c2bf
00000440: 3c90 da00 764c d6bf 5592 5005 76ee c43f
00000450: 8916 77ed 1f72 dfbf c386 b7f3 4e9b e3bf
00000460: a9de 5cce db61 a9bf 5b40 1e94 9719 87bf
00000470: e9a0 bd06 807c dcbf 0617 eb1d 2601 c53f
00000480: 5f54 96e6 98d5 ac3f 69de 2fc3 1311 96bf
00000490: 1e33 3c47 7e33 a0bf 2ea6 05a2 e646 b83f
000004a0: 7133 d51e 673d cabf 8cad b0fc b835 b83f
000004b0: e563 90e4 9208 a43f f133 64f1 eeb3 a03f
000004c0: d725 c1a6 3b84 973f 5d74 9aeb 891f ce3f
000004d0: 962e 5cc3 fe08 c2bf ecdf a2ae b9b8 b0bf
000004e0: 362b 7c21 8338 99bf 0fc7 2df8 8735 b4bf
000004f0: 53b2 d7df 902b b33f 7940 af4b 8bf9 a33f
00000500: b5b1 f4d3 c0f4 c13f 212b 046d 33a0 a43f
00000510: eeb0 21a8 cfcb 99bf a5a1 c54d 51fe b6bf
00000520: ab52 65f6 eeaf a83f 4030 6a0b 9812 c6bf
00000530: dc45 7df9 d4ad c6bf a4ef 7e6e 1300 bbbf
00000540: eb83 587b d9dc ce3f 3da4 335d e077 9c3f
00000550: c748 5577 ed32 8ebf b188 3723 8b47 ad3f
00000560: 9694 2e9f 01c2 dd3f 6de5 29b2 2404 c4bf
00000570: 035a bfdb 4c3d b5bf af3c 0443 e57c 84bf
00000580: b1ea 2df1 4d56 c43f eb78 eb7a 62a8 ae3f
00000590: fb61 2a28 8417 acbf b11e 4dbe 3d0e 9f3f
000005a0: c021 cadb 2561 cbbf 0a0a 24a3 d1fb c4bf
000005b0: ba25 2fd4 439f 933f ec2a 595a 9299 833f
000005c0: ba4e 59ac c327 d13f 151d 396b edab bfbf
000005d0: e724 e663 2272 bf3f b0b6 4aa4 c059 d43f
000005e0: ff20 ba09 b142 cabf b608 50a5 2bb3 a53f
000005f0: ad9e e271 19f5 cabf d717 b191 eaf4 c33f
00000600: cc3f cc5c ad47 a03f 29f7 6c06 ba8d a83f
00000610: 3ca5 a34e da2a c2bf 5305 c35c b28b a3bf
00000620: 3ce8 7761 5400 57bf 6709 5f1e f39c ad3f
00000630: 0803 f807 1104 58bf 8b28 f2bf bd72 b93f
00000640: 0fc1 53df 6b8d 90bf 1817 8c84 179d d83f
00000650: 53bd dfc7 3a9c dd3f 8668 7238 ea82 a93f
00000660: 38bd 57d1 bd39 d73f 3358 ec89 514d e43f
00000670: 66c3 aacb 6a47 ae3f b150 da1a a08a b2bf
00000680: df2c 5479 eca6 a73f b02e 8d7e 621b 9dbf
00000690: f872 0dd7 a228 bdbf 6df1 e2c2 fc00 d23f
000006a0: 5fc2 9ab0 2e6f abbf 3d36 5734 2284 b7bf
000006b0: d220 5b0c a48f b03f b4c1 7ed2 24d9 b6bf
000006c0: ec9e 7801 f170 bfbf 9115 7cf9 bead d9bf
000006d0: b4cd 020e 421b c23f 6ee5 1009 07c6 dbbf
000006e0: 1915 061e 142d e4bf 9b7d e296 0d85 6abf
000006f0: 27d5 765d d7a8 a3bf 0ae0 9741 3671 dbbf
00000700: 4c4c 5b9a 621f c63f 3bac 3cf1 0148 a73f
00000710: 8506 4e06 dcff e13f f536 05e7 a906 b6bf
00000720: 60c2 8731 7a26 d83f f260 fb76 5133 e73f
00000730: c5d7 6c19 32e1 be3f b596 f282 c329 a8bf
00000740: 9a37 143f 9fc1 d33f 5d51 71d7 26b3 92bf
00000750: 49c9 206f 679a b03f d8d3 2cf9 e4cc aebf
00000760: 44cc a7c4 64b8 be3f e23a 1c6f 9712 883f
00000770: 1ca1 b940 42c3 c13f 4a9b 4b40 fa83 b53f
00000780: 8a34 b4b8 40ae a53f dfd4 0f85 647c a83f
00000790: 6117 f883 cf10 9dbf 0c58 a21e ce9c 8e3f
000007a0: 4c3a e821 0387 96bf 387c 05b9 499f 9b3f
000007b0: d7e5 f78d 1f05 aabf 29d6 ea11 bb6f aebf
000007c0: 52ee dbad 6565 ae3f 6c93 06a9 836a a83f
000007d0: 258e 20bd 85a3 b03f effc 5ca2 f6f3 b23f
000007e0: b6e7 ae4d 235c adbf a425 cb11 b716 a5bf
000007f0: f6c8 a0e1 b704 58bf 67d0 b244 d44f 893f

module.down_path.0.block.3.bias f8 [8]
0.07328277826557565 -0.08272436261060119 -0.02659600973367695 -0.04215894639511583 0.06037469953469979 0.07062217593086412 -0.10059820860808225 -0.03828691318426498
00000000: 13bb 0200 a9c2 b23f d5b6 fe7f 6c2d b5bf
00000010: 667c 0a00 fc3b 9bbf 0c6e 0080 db95 a5bf
00000020: f4c4 03c0 6ee9 ae3f d4d3 fe7f 4b14 b23f
00000030: aa05 02e0 cdc0 b9bf c97f fb9f 579a a3bf

module.down_path.0.block.4.weight f8 [8]
0.532169142850291 0.8066255395147465 0.7038719712250449 0.7792901992409179 0.8207192373813955 0.8542921153684169 0.8026487470655408 0.7947341845971515
00000000: 6e6f 0f95 8707 e13f b3b1 0a5d e0cf e93f
00000010: a171 1f83 1e86 e63f 7ba8 faff f1ef e83f
00000020: 7509 78fd 5443 ea3f c69d 176b 5c56 eb3f
00000030: ca4c da6c 4caf e93f ad74 7b62 766e e93f

module.down_path.0.block.4.bias f8 [8]
1.0440612486699277 -0.6174388183562465 0.7761860467705665 0.6168312023208357 1.2742010084134208 1.5001663181166243 -0.08866776269575635 1.324727268866745
00000000: a5ee 6091 79b4 f03f eede 830d 0fc2 e3bf
00000010: 2bb7 cf1e 84d6 e83f e5d9 23ca 14bd e33f
00000020: 60a7 ba98 2063 f43f 36f2 ad65 ae00 f83f
00000030: fedd fc34 eeb2 b6bf e06e 7e38 1532 f53f

module.down_path.0.block.4.running_mean f8 [8]
1.6880045135557131 -2.0186619017234775 0.6559601851345799 2.670201809109661 2.440151046350064 1.9386648301576093 -0.5521425459615943 1.6259741615008088
00000000: 098e 5305 1102 fb3f 03ab 0c36 3826 00c0
00000010: 2f32 d436 a0fd e43f abc4 1ec4 925c 0540
00000020: 59fd 6ae9 6d85 0340 cfea b669 c504 ff3f
00000030: c253 34d8 26ab e1bf 8997 7c7b fd03 fa3f

module.down_path.0.block.4.running_var f8 [8]
1.18691145400592 2.3627466352893753 1.6377063332858628 2.849526240369805 2.4780905985345334 1.9479828010535656 2.4347095208270133 2.6579674791608587
00000000: 7340 63dd 96fd f23f 4e6a 3ab5 e7e6 0240
00000010: 41a3 5e8e 0b34 fa3f 70db db69 d4cb 0640
00000020: dbd8 e929 21d3 0340 ed20 7b03 f02a ff3f
00000030: e0b1 39fc 487a 0340 9e9e 2674 8443 0540

module.down_path.1.weight f8 [16, 8, 3, 3]
-0.4202689274976186 0.06775002983196975 -0.02917417476655415 0.026751143611422744 0.8609295131908652 0.3859417008794345 -0.2245461782136665 0.2817718557590365
-0.3202091353909003 0.020287222798889712 0.00611750731839191 0.0022003499943167586 -0.21251836754387385 0.04678503388302257 0.028792966496119836 0.03537355628646191
0.04493383949859026 -0.09742688570974946 0.022459719768142376 -0.05162158915272732 -0.0016429531522029043 0.05863023305422519 0.08358393479152393 0.1370933616704107
-0.14049597511936746 -0.17216891870010576 -0.07874261919555686 -0.07156051338813639 -0.037119036657850685 -0.052141597079257446 0.20573582208981128 -0.04378541887277377
-0.048951956732679415 -0.05186720681193008 -0.12733621248714286 -0.004323108633028771 0.1513894151836799 -0.20145080282240935 0.047934794112442454 -0.09709272528441078
-0.3590681617764416 -0.10132632694946482 0.20710229210219291 0.10561901284932214 0.033345237798341185 -0.32376870233938315 -0.2429875893573719 0.10301783342078334
0.28045344741549955 0.3060429653670026 0.2824639079304768 -0.00416293731703787 -0.10210422739726077 -0.5212114454233514 0.1570254201827759 0.18964241895890116
-0.1746799131389266 -0.09298233458316381 0.09493156473105886 -0.18787323213883483 -0.0970614278956415 0.3541052801091436 0.2860890917865075 0.34208215687682536
-0.00435080837830552 0.01754758888682229 0.12083987595281108 -0.2323056538793915 -0.1408178623876965 0.12667107293137803 -0.20633980905567437 0.03303597766523549
-0.11939849550292889 0.14575008681680401 0.04152086997125175 0.11252229713108937 0.3507746216109715 0.14222487693569372 -0.0317555524545202 0.022422690204370755
-0.32210059814216835 0.047866557871429405 -0.12155139456700156 0.14769439595830935 0.35717740965372025 -0.18429817727261716 -0.31791388392451764 0.23531691292163737
0.15153967616781985 -0.19394493669381357 -0.014629299168115 0.08821456041465645 -0.028218172910688875 -0.06528659487203486 -0.09463281635314592 -0.17127994759210244
-0.003692352431429255 -0.12146762860162416 -0.22617290394180306 -0.22836151110543737 0.14504671435219443 -0.13284262551695117 -0.22473115774975524 0.22197406850667317
0.41010579128173613 -0.1908253248143357 -0.28758399631695963 0.28542095808609963 -0.07168062768448595 -0.16794732308305435 -0.25907748034387185 0.02102626999555736
0.42044852206767697 0.1782973059710296 -0.0764458214308825 0.3790299216765856 0.19313836907881118 -0.10257002212778867 0.02189765071713764 0.14114784760383553
0.061798922124273147 0.1441369259036128 0.13811547722282072 0.030898860422375732 -0.25775675963008815 -0.16318923586320913 0.05301938447077695 0.015636690987801363
-0.06017644637206547 0.09365391614183607 0.015755556021192788 0.03388294686871131 -0.010886075989615537 0.11781321534365884 -0.006468226654077257 -0.02247453142445909
0.050534255384294895 0.11036027032569148 -0.03238472742038475 -0.20605366113836107 0.1025854651522885 0.022608023542909035 0.09231196939093031 0.3197728699679706
-0.02566073891869095 -0.09222430871712281 -0.22761293861911874 -0.08970105404572838 -0.2391052088141654 -0.2464623188300291 0.2127082434396741 -0.1661744016081845
-0.021615540482314007 0.11153795360884809 -0.014816017501873804 0.019281415071801433 -0.15329628111579052 -0.2999859184264887 0.03848495154956627 -0.08753215964093058
-0.1179761430143397 0.10825015906458724 0.024778621217348865 0.025669209108841948 -0.11570916732552201 -0.047432768235095346 -0.16036149809859457 -0.29984123414059166
-0.01753609084042222 -0.23934533072719472 -0.3581174409912921 -0.060870320198784106 0.007555282149693091 0.08494054220689494 0.1487691909086589 0.10637369546706359
-0.05910955904741043 -0.03225446478049278 -0.04082669343019802 -0.19511909335052408 0.04007685853916516 -0.0628484728328042 -0.14018108832080844 -0.09106292403067989
-0.11013294194669411 -0.14464357355353932 -0.030115496298700913 0.1523195829547941 0.06367395523880205 -0.09977287014020772 -0.08061865050699668 0.05559674451199979
-0.04486423149626148 -0.004754294210702591 -0.006477336781391474 -0.04489078776274984 -0.09948248253844293 -0.09793637552043392 0.10495166770001765 0.01579143394431195
-0.01506742274357763 -0.20555318270790737 -0.4350085890807666 -0.35495568817815965 -0.12532592610525542 -0.2578982132900151 -0.2613974812549296 0.014601285150705877
-0.13176469576029703 0.038432476023445565 -0.03958331830282409 -0.005431232403056076 -0.016137271566226893 -0.13590535327958045 -0.05691830899454147 0.09118053596555417
0.24282291653255683 -0.0202916101110664 -0.20999734631685385 0.06304518629200277 0.06389467045331507 0.1333112102509063 -0.10875943190145637 0.30041949270581964
0.7319497896629921 -0.11733502338331774 -0.1013021124253563 -0.1044642453869793 0.12737933128903556 0.22389840743562892 0.12404329676402193 -0.08662760973110953
-0.1316994579440852 -0.22488342761413035 0.1871288607990193 -0.03168022981439559 -0.23421030610543223 0.10518485582574882 -0.18440046795272452 -0.05639913328364516
-0.07078685849368829 -0.23546002411624534 -0.16298012462721628 0.11596684730842978 0.17729670905549813 0.14023818752339656 -0.18415865800773049 -0.2660139907012919
-0.19484726150114276 -0.08231779779093741 0.056837741881036685 0.1579427769469012 -0.0901066236165948 0.1843224391795394 0.2144462067707635 0.23728394683006038
00000000: 2525 c8a4 afe5 dabf ef6b 6ee2 1058 b13f
00000010: c061 0aba d5df 9dbf 8642 c4db a664 9b3f
00000020: 661c ea0c bc8c eb3f 7325 dcd1 44b3 d83f
00000030: 4b4b efdd edbd ccbf 48c5 5ad2 8c08 d23f
00000040: 3d99 1875 4e7e d4bf 7ca5 ca79 2cc6 943f
00000050: 173a d9dd ab0e 793f 41b3 7de8 7706 623f
00000060: 433b 3347 cd33 cbbf 0f8e f03c 35f4 a73f
00000070: 1e98 d245 e77b 9d3f e481 c996 7b1c a23f
00000080: 19a4 4276 9101 a73f 79df dfe7 f7f0 b8bf
00000090: f1a6 8647 aeff 963f f365 5b1a 256e aabf
000000a0: ba40 af83 0beb 5abf bdac 0c2b c804 ae3f
000000b0: 308d 66ba c165 b53f 32c2 6f78 468c c13f
000000c0: 6ebc 2da9 c5fb c1bf 8c31 9a91 a109 c6bf
000000d0: 6c0d 3fee 7928 b4bf 47e0 af30 ca51 b2bf
000000e0: 044d 0231 4401 a3bf cce8 6eac 4db2 aabf
000000f0: a6e6 be29 8d55 ca3f a150 33dc 0a6b a6bf
00000100: f5ef 7b1a 3b10 a9bf 98f5 fba9 568e aabf
00000110: d748 1d92 8d4c c0bf 8c76 22a3 1bb5 71bf
00000120: 1155 9675 ba60 c33f 5006 f0d0 23c9 c9bf
00000130: a95b 1bca e88a a83f a5ab c69f 11db b8bf
00000140: 7d56 f706 f9fa d6bf edc4 78ac 85f0 b9bf
00000150: 1db6 c0f1 5382 ca3f 6d0d 06fe d809 bb3f
00000160: be76 a483 a012 a13f 4c06 015d a0b8 d4bf
00000170: 5ad8 cfa2 371a cfbf 3b71 7271 605f ba3f
00000180: 3bcd 2c04 f3f2 d13f 4a04 db3b 3596 d33f
00000190: f626 b77f e313 d23f 7c92 1cfa 270d 71bf
000001a0: 805f 74ad 8023 babf 269d 0ca0 c3ad e0bf
000001b0: e9af 29b2 6819 c43f 9670 aee9 3346 c83f
000001c0: 6493 1951 e95b c6bf 75f2 23b6 b0cd b7bf
000001d0: edc4 e05d 6f4d b83f 1a41 eae5 3a0c c8bf
000001e0: b5cc 838a 04d9 b8bf 6138 5a31 a9a9 d63f
000001f0: fbc8 3d9f 484f d23f d930 158f ace4 d53f
00000200: 2cc1 223b 27d2 71bf e1f9 91c1 fef7 913f
00000210: 0f20 45b3 5cef be3f b83f 0b11 31bc cdbf
00000220: 9eea d2d8 5106 c2bf b874 cbf9 c136 c03f
00000230: 93e5 e0c5 5769 cabf d3bf 5377 17ea a03f
00000240: 466e 6059 e690 bebf 0038 2258 f0a7 c23f
00000250: 8688 4135 3942 a53f e5b2 3fe2 42ce bc3f
00000260: 587f 0566 1773 d63f 27e7 8ebd 6c34 c23f
00000270: 2d64 8486 4342 a0bf 0de6 7644 f9f5 963f
00000280: cdba c2d3 4b9d d4bf b87f 4229 f781 a83f
00000290: 86ce 7200 fe1d bfbf c4c1 3864 a6e7 c23f
000002a0: 564b 55a3 fedb d63f 2295 0c2a 1597 c7bf
000002b0: f39b 9979 b358 d4bf acd8 9856 dd1e ce3f
000002c0: b9f6 97f0 a665 c33f 6a90 290c 30d3 c8bf
000002d0: 1c73 ec4b f7f5 8dbf 2e10 03bc 3a95 b63f
000002e0: a995 3787 39e5 9cbf 0cb4 d74d 9fb6 b0bf
000002f0: 8979 5d33 db39 b8bf b530 af56 80ec c5bf
00000300: ad82 069e 6c3f 6ebf c6dc 5da4 8018 bfbf
00000310: 3af0 d5d4 3bf3 ccbf 9976 ee32 f33a cdbf
00000320: 8d78 4407 e490 c23f 1d17 0eb6 fc00 c1bf
00000330: 8fb5 7696 fdc3 ccbf b2ea 6572 a569 cc3f
00000340: f522 5d5c 2c3f da3f 41bf a9d8 f66c c8bf
00000350: 6632 c2b4 c667 d2bf 81a8 2444 5644 d23f
00000360: e35f a95f a959 b2bf dfd5 0b42 4c7f c5bf
00000370: b13f 4db6 b994 d0bf e47d f317 e987 953f
00000380: 47a9 fbea a0e8 da3f 2224 0e35 72d2 c63f
00000390: 9e24 f60e f491 b3bf ad9b 73b7 0642 d83f
000003a0: 3bec 6511 c2b8 c83f c9be 966a 0742 babf
000003b0: 96e1 c176 566c 963f 6afc adf6 2111 c23f
000003c0: db52 e7ba 1ba4 af3f 7b74 732b 1473 c23f
000003d0: 4d29 df98 c4ad c13f 14b8 fd6b f3a3 9f3f
000003e0: 4ec9 3b35 167f d0bf 45bd 8b87 62e3 c4bf
000003f0: 844a b654 5b25 ab3f 741c a491 1003 903f
00000400: 56a6 507a 72cf aebf 0ab5 f8fa b3f9 b73f
00000410: b482 5d77 3922 903f d2ed 6209 1b59 a13f
00000420: b87b db62 704b 86bf df07 f0c2 0129 be3f
00000430: 3ffa 135f 6d7e 7abf 1d0a d845 9003 97bf
00000440: 7f11 683c a0df a93f b699 d317 9240 bc3f
00000450: 7b23 5222 bb94 a0bf cbb8 e763 f75f cabf
00000460: 38c0 df81 0a43 ba3f 22d9 f9c6 8e26 973f
00000470: e63a 90d9 c1a1 b73f 8a45 aaa0 2877 d43f
00000480: 09b3 c909 cf46 9abf 7e14 d625 039c b7bf
00000490: 36fe c1b7 6b22 cdbf b10a 8bf5 a5f6 b6bf
000004a0: df7d 14de ff9a cebf 5b20 89c7 138c cfbf
000004b0: 68dd 9412 063a cb3f 7775 2bea 3345 c5bf
000004c0: 4fde d35d 6222 96bf bf44 0357 c08d bc3f
000004d0: ce24 0535 dc57 8ebf 33af 9ddc 81be 933f
000004e0: a8d0 fe68 369f c3bf 2abf 3923 f832 d3bf
000004f0: c849 96b0 4cb4 a33f 5c8c 01f3 8168 b6bf
00000500: 4a6e f43b af33 bebf 801d f84c 48b6 bb3f
00000510: c1ed 121f 915f 993f fcf0 8b76 0749 9a3f
00000520: b5b0 82b1 1d9f bdbf d02e a898 1b49 a8bf
00000530: e87d efbe b986 c4bf 5912 a849 9930 d3bf
00000540: 2b1f a322 fbf4 91bf b238 f627 dea2 cebf
00000550: ebd3 4b6a 65eb d6bf dc05 1a05 652a afbf
00000560: c474 eb9b 49f2 7e3f 3f14 e2d2 a9be b53f
00000570: f372 cd6c de0a c33f 238a 2f77 4e3b bb3f
00000580: fead faad 9b43 aebf c2af c33e a883 a0bf
00000590: 294c 2c82 3ce7 a4bf 8a01 6296 a9f9 c8bf
000005a0: 8917 8139 f484 a43f dca1 6b67 d616 b0bf
000005b0: fc82 ed32 74f1 c1bf dc03 9758 e64f b7bf
000005c0: c191 df27 ac31 bcbf 4598 fe3c ae83 c2bf
000005d0: bfaa d2be 98d6 9ebf c164 aa45 357f c33f
000005e0: 298d 5bb3 ef4c b03f 46be 47fe b68a b9bf
000005f0: 680d 6083 6ca3 b4bf dede e22e 2d77 ac3f
00000600: 5cbf 12ce 71f8 a6bf e591 6822 3d79 73bf
00000610: da93 42da fa87 7abf 0656 aae2 ecfb a6bf
00000620: 770a 0719 af77 b9bf 33f4 f2b9 5b12 b9bf
00000630: faa6 6ecc 1cde ba3f 461c 6431 a12b 903f
00000640: fa70 593f abdb 8ebf b9da a812 914f cabf
00000650: 072f e543 2ed7 dbbf 9747 1010 98b7 d6bf
00000660: 1543 fb10 ae0a c0bf b3c1 f181 6781 d0bf
00000670: ddc9 4f80 bcba d0bf ac64 9d51 47e7 8d3f
00000680: 2468 8761 aadd c0bf 5f00 40e7 6bad a33f
00000690: cad3 27c3 4344 a4bf e805 c558 0f3f 76bf
000006a0: fc94 7ef6 4986 90bf b1f3 d7bb 5865 c1bf
000006b0: f7b0 5987 6524 adbf 7ef9 008c 9b57 b73f
000006c0: 8003 9d42 d214 cf3f 82a8 3de7 52c7 94bf
000006d0: 00be 566b 31e1 cabf 735c 4bb5 ba23 b03f
000006e0: e655 fcaf 665b b03f 9ce1 1b7c 5710 c13f
000006f0: 9cf6 257b a8d7 bbbf 6b27 10ae 123a d33f
00000700: 0855 1df7 216c e73f a353 1b08 ab09 bebf
00000710: 6cf3 e16b efee b9bf 40d4 8935 2bbe babf
00000720: 1c50 0947 f74d c03f 4f00 c8f8 b3a8 cc3f
00000730: 10b6 e32e 4dc1 bf3f dacb b91e 3a2d b6bf
00000740: b3a8 6220 87db c0bf ebed 81eb fac8 ccbf
00000750: c67f a2a8 d6f3 c73f 7516 f71d 6438 a0bf
00000760: 13f3 8d72 9afa cdbf 5c5a ce0b 65ed ba3f
00000770: 9aad 9c3d 6f9a c7bf 69b6 f3e1 58e0 acbf
00000780: 6a8b 376a 161f b2bf 541d 8cd7 8d23 cebf
00000790: c200 9660 88dc c4bf 7924 9cd8 00b0 bd3f
000007a0: 2578 8a97 a8b1 c63f 541a 882e 53f3 c13f
000007b0: cd8f b5ca 8292 c7bf b3ca 958b 5f06 d1bf
000007c0: a168 ee4b c1f0 c8bf 990c 6479 c712 b5bf
000007d0: 2876 1d25 d619 ad3f ad2c d00a 7837 c43f
000007e0: de14 9649 3a11 b7bf 14f8 18b0 e097 c73f
000007f0: 9774 6a2a f972 cb3f e41d c003 525f ce3f
