results/run_1/saved_model_unet17_2.pt (torch, 351712 bytes, 75 tensors)

module.down_path.0.net.0.weight f8 [8, 4, 3, 3]
000000 28 5c 6f a9 96 96 b5 bf 24 62 d6 1e 15 09 ff 3f
       -0.0843290485057514 1.939717407664042
000010 bd ba 25 48 18 aa f0 3f 67 e1 b0 9e f9 09 ec 3f
       1.041527063203531 0.876217660849801
000020 dc 79 46 39 84 6a f4 bf ad b5 3f a9 95 cf f2 bf
       -1.2760050046268736 -1.1756798373493027
000030 c5 1a f8 82 4c 12 f0 bf d4 c9 01 02 7d b6 c4 bf
       -1.0044674983961823 -0.1618191013145195
000040 7a 24 b4 43 37 f8 b2 bf b3 b2 6f 5b f0 db d0 3f
       -0.07409997370645441 0.2634240048344438
000050 5e ad b2 83 80 d6 db 3f fc 65 b0 99 36 36 f0 bf
       0.4349671636689062 -1.0132356646994358
000060 c6 af 17 2e 90 6a b1 3f 3a 5c c6 aa cd 3b f2 3f
       0.06803227544122512 1.1396004362957357
000070 e3 c1 61 36 3f e0 fd bf 8d 93 45 a8 1d ac d7 3f
       -1.8672477840701667 0.36988011772910384
000080 1a 4f a1 ec d6 28 df 3f 80 c5 06 c0 dc b3 c3 bf
       0.48686764820489403 -0.1539264619473606
000090 0e bc 11 2c 1c d2 d2 3f 2f e0 fe cd e6 a6 f2 bf
       0.2940740995754262 -1.1657474562362145
0000a0 76 22 de b0 60 b6 db bf cc e8 f6 22 e2 80 ce 3f
       -0.4330064513419879 0.23830820758104776
0000b0 4d b4 df 78 f2 0f e6 bf fa 37 7f 83 02 d1 cb bf
       -0.6894466744248661 -0.21731597347974213
0000c0 77 68 8a 71 94 0f da bf 5e fd 75 48 63 1f f0 bf
       -0.4072009190364336 -1.007663043070202
0000d0 64 d5 a9 18 eb e7 c4 3f 2d 98 48 71 2c 9e d0 3f
       0.16332758621471577 0.2596541506085284
0000e0 ba 1b b3 b1 51 95 c4 3f 3a cf ae a4 13 8e e5 bf
       0.16080685784092258 -0.6735933510267167
0000f0 87 99 b8 d4 4e 4c 9c 3f 33 b3 eb ca 66 1b d6 bf
       0.02763484166475785 -0.34542245689845
000100 42 67 c5 31 53 ec e1 bf 02 64 2e 2b a5 7e c2 bf
       -0.5600982639400416 -0.14448990448434534
000110 9f 30 d1 17 3a bd d4 3f 20 72 46 e8 ee dd d5 bf
       0.3240494949902856 -0.3416707294761938
000120 fe 49 eb c7 a5 fe e2 3f e6 01 7d f1 5a 19 d2 3f
       0.5935849098844412 0.28279756148188395
000130 88 91 bb 2d 68 38 db 3f 1d 2f 94 94 69 61 82 bf
       0.4253178068741126 -0.008974861952558972
000140 e4 d3 6b 25 9d a6 e6 3f d5 30 60 83 bd 56 d3 bf
       0.7078386050112582 -0.3021692069021474
000150 a2 c6 26 65 47 6f dc bf 35 ed 0f c9 1a 55 f7 bf
       -0.4442919242675122 -1.458277497672339
000160 2f ea 2b e4 3a 66 b4 bf 7c b2 78 d9 d4 1a e3 3f
       -0.07968490667909899 0.5970253226747242
000170 6d f4 b6 da f2 95 cc bf 4f 8d 9b 17 ea d6 da bf
       -0.22332606963564974 -0.4193673353713238
000180 51 bd bd 7f e1 ac f0 3f 68 45 b0 0e 9a b7 ed bf
       1.0422072400941327 -0.9286623274694366
000190 24 6d 54 75 d0 e2 eb bf ec c4 7b f4 ca c4 e9 3f
       -0.8714372912976711 0.8052725577419131
0001a0 e6 94 98 59 51 de d2 bf 58 7c 7a 72 79 c0 a5 3f
       -0.2948192000352051 0.042484088158055655
0001b0 3a 6d 9a e1 d8 31 d9 bf ba 73 27 59 67 e6 db 3f
       -0.39366743117871617 0.43593772608238235
0001c0 03 d0 d8 90 8a 25 d4 bf 44 1b fe 50 9b 7f d9 bf
       -0.3147913374443762 -0.3984134951537508
0001d0 7e eb bb 40 b7 85 fd 3f 7e c2 cf 15 49 69 c4 bf
       1.8451454666780758 -0.159463058138062
0001e0 ce 78 19 3e bf d2 e2 bf 9c 9f de 81 e6 c2 dc bf
       -0.5882259571915485 -0.44939577753620497
0001f0 4f eb 0c a8 a9 cb b0 3f f9 64 9e aa 3a 9d cb 3f
       0.0656076464919526 0.21573575335495557
000200 43 fc c1 a1 7c 9b e5 3f 90 21 f5 6d 46 aa dd 3f
       0.6752303275424157 0.4635177682689795
000210 23 a0 6c 6d e8 22 b9 3f 92 ae ea d3 de f6 c1 3f
       0.0981889025830474 0.1403463873624458
000220 3c 00 ef 31 7f 7d c6 bf ce 1c 0e 30 33 27 86 3f
       -0.17570486009754116 0.0108169554748784
000230 51 5d 55 69 68 ef bb bf 34 c9 19 1b be e5 b7 bf
       -0.1091218239938503 -0.09334934388769939
000240 3d b5 18 a5 75 a0 dd 3f c0 b5 de a5 7c 64 c0 bf
       0.46291867373186674 -0.12806661700362376
000250 6b 4f 88 f9 73 10 dc 3f 8e 43 a4 c5 6c 82 e9 bf
       0.4385042130318115 -0.7971710071743574
000260 f9 70 e6 45 12 84 ef bf 72 b1 6b e9 bc 61 d8 bf
       -0.9848719945180441 -0.38096545023906636
000270 3b 86 4b af 95 61 d2 3f a0 45 24 26 f8 77 f2 3f
       0.28720609778074263 1.1542893876943268
000280 80 ab c7 1c be 80 d5 bf 64 a5 e1 aa 06 48 c2 bf
       -0.33598282633345633 -0.14282306045360393
000290 ea 3d e9 82 39 ff aa bf 02 e5 4c 09 a8 b7 c1 bf
       -0.0527284595779028 -0.1384172482883415
0002a0 b6 f4 d7 75 e4 02 e9 bf 89 9f 01 86 f1 75 d5 bf
       -0.7816030789978388 -0.3353236969619436
0002b0 d2 07 db 8a 09 79 d5 3f 6c 23 c4 18 78 68 a9 bf
       0.3355125289928057 -0.04962516119309765
0002c0 66 ee 25 3b 3c a7 f0 3f 0c 81 d9 85 2d dc de bf
       1.0408289251780842 -0.48218858786823726
0002d0 54 44 5d 21 63 dc 96 3f 9f 8a 14 44 c2 67 b0 3f
       0.02232508555545494 0.06408323442569007
0002e0 5d fb 48 85 05 c1 b0 bf 2d 77 23 7e 54 25 d9 3f
       -0.06544527534513862 0.3929034454175618
0002f0 18 dc 22 cb ba 09 d0 3f 90 17 3c e8 d1 0f c7 bf
       0.25059385144726454 -0.18017028655611655
000300 8a 9a c2 1c 87 19 cf 3f ac 67 dc c2 a8 60 ee bf
       0.2429665460997124 -0.9492992215993943
000310 4b 74 41 0f ae bb c6 3f 60 09 72 28 d8 cd f0 3f
       0.17760253662973677 1.050254972448407
000320 cc 25 5c 53 87 2f c5 bf a3 37 54 57 97 85 d7 3f
       -0.1655129582434668 0.3675287583181392
000330 c3 7b c3 23 88 6e c1 3f 7d b2 c4 ec b9 8c d7 bf
       0.13618566271085628 -0.3679642498198417
000340 f9 fe 97 f1 8d 0b d5 bf f5 95 69 40 58 d4 d0 3f
       -0.328830228740102 0.2629604939487245
000350 ec c4 15 ea 04 ac 03 c0 79 c0 81 4c 10 3e ea bf
       -2.458993748463959 -0.8200761312746315
000360 84 31 92 7c b2 c4 f0 bf 3a d1 ab b6 0a 23 f6 3f
       -1.0480217805917116 1.383555139121269
000370 b2 89 38 bd 5a e0 f9 bf 68 ed 59 e5 4e c2 cf 3f
       -1.6172740355910773 0.24811731528084668
000380 f6 92 db 89 61 d3 f7 bf e3 1f a8 b5 06 37 fc 3f
       -1.4891066918436855 1.7634341331449768
000390 11 4b b7 f1 4c 64 e5 3f 87 ca f2 3f 7c 17 c5 3f
       0.6684937211051382 0.16477921602707488
0003a0 e0 c7 e3 6a c5 ef d5 bf b5 06 80 e6 ab a0 f6 bf
       -0.3427594703526875 -1.4142264369879005
0003b0 86 2a 40 01 69 68 cd 3f b6 87 42 4d 0c 92 00 40
       0.2297488456827816 2.071312526314581
0003c0 9f 3b a9 bf 1a 13 05 40 9e 6e 73 19 73 06 07 c0
       2.6343283628006726 -2.8781492222168046
0003d0 fc 3a 50 67 af 98 92 3f ef 8f 52 04 3c 89 f6 bf
       0.01816057270121528 -1.4085045021865843
0003e0 ea dc 33 33 e3 16 f7 3f 79 26 4b fb 67 4a df bf
       1.4430877685643346 -0.48891639271150883
0003f0 8e df 82 16 5c 2c f7 3f 5b 19 2e 49 76 14 e9 bf
       1.4483300093979525 -0.7837478093431786
000400 62 7b b5 4e e4 16 f1 3f 1f 50 7e e8 e5 45 f1 bf
       1.068088824707694 -1.079564960648902
000410 ed ca 63 b7 83 8a f4 bf b3 1a 5e da 0c c5 b0 bf
       -1.2838170207657484 -0.06550674754371748
000420 c4 70 4f df 87 8e cb 3f 32 68 a4 36 20 24 c7 3f
       0.21528719333480784 0.18078997295452975
000430 00 7a c2 35 07 94 d7 3f ca b7 b9 49 41 9e 9d bf
       0.3684099221226518 -0.028924007534832964
000440 71 25 0f dd b8 f8 9c 3f 34 2e 8d 1b c7 e0 ae 3f
       0.02829254960287159 0.06030866824457029
000450 37 d2 d0 8b 1b 4a 98 bf f5 fe c0 31 66 5d cd 3f
       -0.023720198067353784 0.2294128172816198
000460 f8 94 aa 3f 51 f3 d2 3f 90 af 45 f3 4f 5d eb bf
       0.2961009141675528 -0.8551406623278002
000470 a6 62 ec 89 a2 4d b7 bf 30 1d b9 a8 9c 7a c6 bf
       -0.09102836482305551 -0.17561681974823662
000480 ea 99 f9 d9 0c c1 83 bf 7d 61 e1 d4 2c 68 e5 bf
       -0.009645557787007559 -0.6689666898555938
000490 06 21 f3 43 a0 37 90 bf 8a 18 55 ab 90 85 6f 3f
       -0.015837196490594806 0.0038478684970498266
0004a0 f8 07 24 dc 2a c3 f3 3f 10 b9 f9 ae d7 00 99 3f
       1.2351482962844766 0.02441727643457009
0004b0 e2 91 57 55 1a 82 c2 bf ef 64 c8 31 c3 4e ec bf
       -0.14459542433827638 -0.8846145603485221
0004c0 ca 12 79 11 a4 5d c1 bf 0e 2d 51 8c 36 8b c8 bf
       -0.13567019322558443 -0.19174844600124924
0004d0 3a a7 bf 75 67 ba df 3f e5 99 a6 49 a2 52 eb bf
       0.4957522058381191 -0.8538371504299077
0004e0 24 c9 5a 97 1d 1b e1 bf 4f bf ef 1f 6d b7 ea 3f
       -0.5345600086350584 0.834890901924135
0004f0 a8 8d e6 18 e9 47 c3 bf be e4 d8 24 42 9d d0 bf
       -0.15063203540658532 -0.25959828947413743
000500 64 c7 b1 12 df f9 f2 3f 0c f6 22 fc e9 d3 e8 bf
       1.186003754639807 -0.7758684086363146
000510 1b c1 67 53 82 d2 b1 3f 72 e4 f4 3f 88 3c cd 3f
       0.06961836372625323 0.22840979693299662
000520 4c 51 18 44 b7 39 d2 3f 84 0c 8b a2 3a 8b bf 3f
       0.28477269792462745 0.12321821659411297
000530 99 7d 8e f1 8f ca db bf a4 3f cd 9c 32 aa f7 bf
       -0.43423842038642985 -1.479052174097867
000540 06 9d 0c 33 ff 4a 9c bf 13 32 70 27 c2 c8 da bf
       -0.027629840365219337 -0.41850332118409134
000550 d2 ba 4a 2d 01 ba a0 bf 70 28 a7 1f 39 f1 c7 bf
       -0.03266910245780753 -0.18704904599718786
000560 9d 62 a0 cb c4 9c dd 3f 68 86 d7 51 7c d7 cb 3f
       0.46269340405846454 0.2175135993593813
000570 2f ee 58 15 75 5e bf 3f 2c b2 fa 5a 93 43 e3 3f
       0.12253505488563897 0.6019989754618726
000580 69 8f c0 88 23 a3 da 3f af e2 86 fd 31 58 b8 bf
       0.4162072024794186 -0.09509575309392447
000590 dc 04 9e 0a fb d0 d4 3f cd 2c 44 6d 08 fa d0 3f
       0.32525516545144995 0.26526079817331266
0005a0 2b b0 58 17 d2 eb d6 3f fb 59 3a 4e 74 cf d8 3f
       0.3581433513634262 0.38766200675436807
0005b0 23 5c 4e 39 95 d2 e3 3f 46 7b 90 31 8c a8 f4 bf
       0.6194559211024891 -1.2911493240460046
0005c0 4e 80 39 95 87 19 ee bf 52 41 cc df 34 05 ca bf
       -0.9406164087813609 -0.20328389098768668
0005d0 61 98 a7 23 a5 eb f6 3f 0d a9 ea b0 6b f9 ef 3f
       1.432530535961199 0.9991968589213528
0005e0 5a 88 26 2d 8e 27 f5 bf 17 01 44 40 55 cd bf bf
       -1.3221570743267166 -0.12422688311562911
0005f0 f3 c9 c5 ad 32 cc e6 3f 97 bb 75 c5 a5 f6 bd bf
       0.7124265092846244 -0.11704479285047707
000600 9b dc 73 4c de d1 f1 bf 5f 72 aa 95 fe ff e9 3f
       -1.113737391131315 0.8124993250999742
000610 49 c2 b7 60 93 4a f4 bf 23 b6 37 21 d5 16 e6 bf
       -1.2682069566764247 -0.6902871750623415
000620 6b 25 1c 5a a8 fb fc 3f fb bd 6f 47 29 6c e4 bf
       1.8114398498458637 -0.6382032771343228
000630 2f f1 75 66 4b fe a0 bf cf 86 c0 0a b3 47 9f 3f
       -0.03319011331311327 0.030546948939565163
000640 98 fb ba b6 f3 be b2 bf 6b ae cd 68 2d e2 cc bf
       -0.07322619639579242 -0.2256523858771858
000650 be 1b a1 af b3 f2 a7 bf b1 6d d1 60 20 e4 aa 3f
       -0.04677354353821482 0.05252171689854935
000660 47 9e ce bf e8 38 c8 3f 89 ce 9f 91 13 00 e1 3f
       0.1892367302473181 0.5312593311522998
000670 fc c1 23 19 7a 2c b2 bf 86 c0 18 9b bb f4 e1 3f
       -0.07099116433870017 0.5611246136886769
000680 ff 4c b8 2c 9a 09 dc 3f 07 4a 45 70 34 4a d2 3f
       0.4380860745161072 0.28577910388881417
000690 10 21 dd 87 9b f7 d4 bf 6b dc 24 d9 01 07 db bf
       -0.3276127650065215 -0.42230268674342736
0006a0 c3 ca 28 ae 62 4a d2 bf 0a 83 69 ee 70 12 75 bf
       -0.2857901287817805 -0.00514453996456222
0006b0 f2 47 10 c1 ac 97 e0 bf 26 c6 fe bf 0f f5 bf bf
       -0.5185149927876849 -0.12483309209235269
0006c0 9b ae 70 48 e9 e4 e6 bf 54 5c e4 c9 9e 32 d4 bf
       -0.7154432692381819 -0.3155896159746068
0006d0 66 20 32 83 03 86 e0 bf 22 85 83 86 10 74 c4 3f
       -0.5163590967577079 0.1597920090489789
0006e0 da 92 fe 8c fb 8e eb bf 0a d7 06 88 3d bb d5 3f
       -0.8612039331242969 0.3395532444368291
0006f0 64 dc 69 0c 5a 41 da 3f d9 c0 25 7f 21 ba fb 3f
       0.41023875438935975 1.7329421011636923
000700 f2 48 c8 ad 48 a7 93 3f 58 88 47 2e a6 c5 e4 bf
       0.019192824942430194 -0.6491270927329067
000710 8e 0a 32 76 7f 7a c8 3f 93 7d 50 ab a8 e1 dc 3f
       0.19123833915007932 0.45127312402652214
000720 db 82 fe cf ee 30 f3 bf 14 07 9f d5 86 2a f1 3f
       -1.1994464993260212 1.0728824944093889
000730 36 8f 13 16 b9 c1 f0 3f 08 4f f0 7b ae f0 ed bf
       1.0472956526145487 -0.9356300755193567
000740 37 17 97 7c 8a c6 d9 3f cf 7c 73 9d 60 68 b3 bf
       0.40274297873507997 -0.07581142276784479
000750 5f 72 8f 9e dc a7 db 3f 3f 0d 31 99 9a 80 e0 bf
       0.4321204708519754 -0.5156987182639695
000760 5b dc e1 4b 6f ce d6 3f 97 f7 0b 44 1c ab dd 3f
       0.35634977732065004 0.46356875081243615
000770 12 97 bf 31 f0 a7 00 c0 d7 5b d7 4c 1d d1 c9 3f
       -2.0820011030763306 0.2016941666795151
000780 3d b9 9c 2d 79 1e e6 3f 59 a9 22 7e 3b 88 e1 3f
       0.6912198916304885 0.5478799308378185
000790 12 03 c8 57 38 59 b6 bf 28 73 55 a2 bd 67 ce bf
       -0.08729889052484577 -0.23754091669516098
0007a0 d3 75 d7 99 ac 8b ea bf 57 5a 08 0c 1e 1e e1 bf
       -0.8295500759810984 -0.5349264369022632
0007b0 a7 4b 6b e9 1b 9f c6 bf cb b5 31 d0 8e 62 c0 bf
       -0.17673062226694222 -0.12800774732333617
0007c0 d7 20 21 49 70 95 cc 3f 74 ac be eb 89 51 91 3f
       0.22331050463458865 0.016912608159753664
0007d0 6c c2 0b 5e 87 2b b4 3f bb 09 b2 44 32 d0 af 3f
       0.07878919645350785 0.06213528717582358
0007e0 1f e6 73 cc 7e 3e a6 bf 61 9d bb 1e 6a 91 fd bf
       -0.043445551354988725 -1.8480015945914021
0007f0 6b 0d f3 ab 5d 4f f3 bf b6 20 c1 5d 4a 14 e9 bf
       -1.206876441647945 -0.7837268668308954

module.down_path.0.net.0.bias f8 [8]
000000 59 d1 de 59 22 c6 c0 bf 21 9a bc 9f a3 cf c2 3f
       -0.13104657543375245 0.14696164416928162
000010 65 e5 c3 d4 42 da c4 bf 87 95 5a 41 1a 34 c1 3f
       -0.16291079892088614 0.1344025439367835
000020 04 c3 8a e9 aa da b5 3f ab 88 83 c3 d2 cc bf 3f
       0.08536785318097989 0.12421910546575769
000030 3f 61 3c fe 0b 24 c1 bf ca c8 b5 e3 f6 ae c3 3f
       -0.13391256250248237 0.15377699011475549

module.down_path.0.net.1.weight f8 [8]
000000 73 26 12 57 01 ed ef 3f 1e ad 7c 39 0f fc ee 3f
       0.9976813030818462 0.9682689783852856
000010 c6 1d 3f 01 f3 5a f8 3f 73 ad ea 57 e9 f8 de 3f
       1.52220440375264 0.48394235215774656
000020 b4 47 b8 68 a8 6c f0 3f 05 2b e9 93 71 2f d0 3f
       1.0265277948969755 0.25289573139586735
000030 3f dc 1d 8b 15 d9 ed 3f 67 6d 8f 41 f8 9b ec 3f
       0.9327495305177606 0.8940392761682404

module.down_path.0.net.1.bias f8 [8]
000000 a0 99 31 0e 8e ef d4 bf 32 07 cc 07 51 b7 d3 3f
       -0.32712127100094257 0.3080637527601652
000010 5a 3b 38 8d 62 6b d9 3f de 9a 7b 59 26 97 ba bf
       0.3971792582605552 -0.1038688629592843
000020 c9 2d 3b 0d 53 c0 fc 3f 64 8e b5 95 fd b2 fe 3f
       1.7969542042582012 1.9186988685622959
000030 db d1 0c c7 71 53 c5 bf 0f 95 d1 93 60 40 db 3f
       -0.1666090223240094 0.42580427585046804

module.down_path.0.net.1.running_mean f8 [8]
000000 48 67 aa 74 97 18 ef bf 14 62 f3 ed 02 b4 ed 3f
       -0.9717519072175742 0.928224053142062
000010 27 35 cf 51 35 06 fa bf fc 6c 58 2a b8 10 cc bf
       -1.6265156932525515 -0.21926023547789686
000020 40 c0 95 13 17 08 f7 3f 5c df d3 03 c0 97 c0 bf
       1.4394751324689565 -0.12963104426284644
000030 9b 76 b6 c1 aa 8b f1 bf 79 bc c8 72 fd b8 ed 3f
       -1.0965983931450072 0.9288317911031206

module.down_path.0.net.1.running_var f8 [8]
000000 25 8a 3a f8 fb 3c 0f 40 4c eb ba 36 a1 fe 08 40
       3.9047774689545514 3.1243309284012977
000010 2a 05 21 0f f3 f0 23 40 d5 f5 fd 3e fd ce eb 3f
       9.970604393749984 0.8690172415078289
000020 8a 40 71 fc 4c 5d 20 40 3a 49 b6 21 f8 5c df 3f
       8.182227982353897 0.4900493935794149
000030 c2 4b dc 30 35 91 12 40 e2 d5 4c bd c2 92 0b 40
       4.641804469533726 3.446660498530705

module.down_path.0.net.3.weight f8 [8, 8, 3, 3]
000000 b2 5b fa 38 96 68 c3 bf 1d 21 70 b8 43 c3 c7 bf
       -0.1516292360508636 -0.18564650064241386
000010 05 d8 41 a8 ad fe b7 3f be 2b 0f 89 29 b6 e1 3f
       0.09372983320085389 0.5534866024912544
000020 b6 2e 6f e4 94 ca f1 3f f5 0d 64 8e 17 cd 94 3f
       1.111958401032934 0.020313613954398197
000030 e4 2a 96 4c 1d 4e da 3f 91 d6 99 09 93 d2 d4 bf
       0.41101772765311595 -0.32535243928519103
000040 e6 67 5c fd f2 5d c9 3f aa 33 bd 1e 91 53 d2 3f
       0.19817960139408725 0.28635051729070915
000050 48 7e 04 15 ec a0 d0 bf 80 4c 5c 3b b3 65 d2 3f
       -0.2598219113587885 0.28745728299072226
000060 5e 16 76 4b 1a 3c cf bf 45 99 8f 64 52 2d f0 bf
       -0.24402168926842455 -1.0110649040376114
000070 88 27 82 b6 2a ad d0 bf 04 06 31 c8 4c ee a5 bf
       -0.26056926558577986 -0.042833709180296636
000080 b7 1e 9d ac e8 4a e2 bf b4 fc be 99 96 b2 d8 3f
       -0.5716441508638671 0.38590016378652625
000090 11 69 a7 10 bd 3f f1 bf 80 55 93 1b b4 b7 d3 bf
       -1.0780611658615877 -0.3080873746196957
0000a0 6d 68 e4 c4 35 c6 e1 bf 91 e2 db 8b 62 26 da bf
       -0.5554455609847203 -0.4085928312120269
0000b0 7e 45 f6 26 55 7f d6 bf d5 4e 13 3d 4c e1 ed bf
       -0.3515217667091618 -0.9337521736983613
0000c0 01 d2 95 71 5f 5e a1 3f 97 4d 33 53 fa 0d c3 bf
       0.033923132529626095 -0.1488640695812193
0000d0 05 3a 6d a5 c2 47 a1 bf ad 6e ad 18 c3 a1 d0 3f
       -0.03375061292046059 0.2598731747618597
0000e0 b6 17 af 4c 07 0a e4 3f 9d eb 59 18 8c 94 d3 3f
       0.6262241838201053 0.3059416044049444
0000f0 08 f6 d4 12 fd d2 dc 3f 4d 70 23 2f 97 15 ee 3f
       0.45037772025156686 0.940135566775561
000100 2f d6 ed f3 c8 d6 f0 3f ea ce 90 01 8f f0 cf 3f
       1.0524377373198026 0.24952876640747174
000110 4d 48 dd 7a 32 8f e6 3f d2 20 96 08 c7 f3 e0 3f
       0.7049801253981599 0.5297579925254701
000120 8a 83 53 55 2b 13 d3 bf d9 52 61 6f 81 02 d1 3f
       -0.29804499943389173 0.26577793004007116
000130 bf 4e 8c dc 79 10 db bf 6b d3 dd 34 0a 44 a7 3f
       -0.4228806165494738 0.04544097800582033
000140 c2 60 f2 d1 b3 e0 c3 bf 3d 15 0e 8a c5 7a d3 bf
       -0.15529487372692158 -0.3043683860963318
000150 46 16 6d 3f 34 e4 d8 bf 70 da 16 94 c2 b4 ce bf
       -0.3889284724612917 -0.23989135962411323
000160 e2 92 fb 2d 13 d9 c2 3f c7 f6 2a f7 28 79 e0 3f
       0.1472496008419944 0.514790041684784
000170 b5 f2 0a 10 d7 ed c1 3f 8c fb 61 b3 98 b0 dc bf
       0.14007080348337345 -0.44827859418722293
000180 20 0b c1 56 a2 45 e0 3f 99 0c b1 55 e1 e2 dc bf
       0.5085002607741878 -0.45134766929931797
000190 7f fe 12 e0 fc da db 3f 1e 19 21 6e c8 53 c3 3f
       0.43524095422979053 0.15099435212523188
0001a0 47 28 4d 3a a9 a0 d4 bf 4c bc f0 eb 0f 48 f1 bf
       -0.32230597203727424 -1.0800933090611293
0001b0 6a 2e c5 e1 92 d1 ad bf ef f1 7b 04 48 ba e1 3f
       -0.05823954587921494 0.5539894187527902
0001c0 94 00 6e 3f 4a 5e 88 3f 07 69 ee 13 bd f6 ef 3f
       0.011898593960495675 0.9988694562228212
0001d0 83 7a 87 0c 4b 01 ff 3f da d7 02 09 e0 0b eb 3f
       1.9378157128736866 0.8451996017454306
0001e0 bd fc ce 21 f5 69 e9 3f 1c ab 40 2b 44 6a f3 3f
       0.7941842708895802 1.2134439172320475
0001f0 89 ac e8 fe 74 40 c7 3f df 42 7e f7 dc 63 ca 3f
       0.18165457197878634 0.20617258152608195
000200 18 99 bf 78 07 56 e4 3f 4d d0 a9 22 c0 d3 aa 3f
       0.6355016096465844 0.05239677832733545
000210 82 04 2a 37 bc 06 da bf 60 81 a0 22 fb 02 e9 bf
       -0.40666108500597187 -0.7816138912494743
000220 65 ac bf f1 ba ff cb 3f a0 28 5c 02 9e a1 d1 bf
       0.2187417679227536 -0.27548933248966456
000230 38 71 69 81 6f 65 e4 3f 07 92 9c 8e cd 31 be bf
       0.6373822715354782 -0.11794743282059282
000240 df 9b d0 c5 f3 51 d6 3f b2 40 fb 9a 8f 32 e6 3f
       0.34875196760043353 0.6936719920140801
000250 8f 33 6b e3 09 cc d5 3f d7 c9 0b 73 fb b3 e1 bf
       0.3405785294424328 -0.5532204863541733
000260 bd 21 9b 92 d8 d0 df bf f4 85 46 50 18 70 d1 3f
       -0.497121947450548 0.2724667343082665
000270 0d 08 29 99 9c 61 cd 3f 63 d9 de ce 4f 3e d0 bf
       0.22954137304810765 -0.25380320741841994
000280 33 e9 68 b3 0a 23 be bf 9d dc f9 96 fa af d8 3f
       -0.11772219543573641 0.3857408975959034
000290 27 d4 32 7d a1 97 dd 3f 82 73 5e e4 0d 37 da 3f
       0.462379810585221 0.4096102457204368
0002a0 6c 22 e9 f9 d1 5b f1 3f 15 41 b4 55 79 0f bf bf
       1.0849170457969661 -0.1213298639525003
0002b0 e1 48 04 87 32 28 d5 bf 49 d1 59 b9 86 e5 d2 3f
       -0.33057845292309024 0.29525917149228015
0002c0 d6 91 08 d0 0b 1d d8 3f d9 2b 96 d5 f7 67 89 3f
       0.3767728358818919 0.012405334668775513
0002d0 1a d7 5d 64 65 5c 63 bf 88 44 2e 76 0e 02 f3 bf
       -0.0023633938134776213 -1.1880020729479686
0002e0 82 c7 c1 58 50 86 f5 bf f8 69 25 8c 3b b6 c4 3f
       -1.345291468340719 0.16181129782746928
0002f0 ea ee d6 d9 b4 f2 eb bf cf e4 62 d9 67 96 e4 3f
       -0.8733772520713192 0.6433600660158393
000300 34 ce 77 c7 91 4b b0 3f d5 0a 70 cb 5c 43 c2 3f
       0.06365309829544047 0.14268073972205877
000310 cd 02 a7 56 60 c5 a1 bf aa 44 78 e6 cc 6a d2 3f
       -0.03470898683327093 0.2877685785943621
000320 7e 86 84 a0 5a 7b e3 3f a0 b3 a1 77 6d 0b b8 3f
       0.6088078627692111 0.09392437143988142
000330 43 8e 49 3c 80 d1 e7 3f 26 a3 95 6e eb b3 ec 3f
       0.7443238427626472 0.8969628486493988
000340 aa 67 e3 2d 4e a4 e6 3f bf b7 15 ed 6e 8a c3 3f
       0.7075568100219602 0.15266214920433005
000350 9b 49 33 8a 1d c8 e5 3f eb 9a 11 d1 c5 c8 de 3f
       0.6806781481957843 0.48100419442054826
000360 8d be e9 9a bc 86 d3 bf 71 7c d6 f4 7a 7d b4 3f
       -0.30509867790440454 0.08003967740522612
000370 2e af c2 0a 8e 1b 7e 3f de 39 b7 52 eb 39 e9 3f
       0.007350497104351024 0.7883202186147249
000380 46 d7 c9 1f f6 78 eb 3f 56 e0 a4 21 41 2c e0 bf
       0.8585157986515035 -0.5054021508322062
000390 20 af 77 20 b9 29 d3 bf 70 84 48 ff de 5c e3 3f
       -0.29942157908111433 0.6050868021012672
0003a0 99 5e 5e 6a 48 c6 d7 bf fe 78 49 63 46 f6 c7 3f
       -0.37147722613870254 0.18720321510313193
0003b0 dd 22 74 7d 50 85 d2 3f a9 24 2b 72 9c d1 e1 bf
       0.28938686610540093 -0.5568372945646348
0003c0 97 cd 7f 8c 45 cb d2 3f 05 c4 ad de 2d 04 f3 3f
       0.29365671845081337 1.1885203073873083
0003d0 de 2e ad e1 73 61 ec bf f8 5b 21 5f df f0 d7 bf
       -0.8868960769409246 -0.3740766934401445
0003e0 75 bd f5 cb 46 8f d4 bf e0 32 43 be fb 29 b5 bf
       -0.3212449065967669 -0.0826718654163403
0003f0 28 1b 3a 82 5a af b4 3f 98 41 b9 ca b8 a5 c0 3f
       0.08080068282479813 0.1300574293004615
000400 b8 ca 18 d6 cb d3 c2 3f 74 e5 44 9f 5d fa e0 bf
       0.14708850816676544 -0.5305622206425782
000410 28 3f 1c 6e a5 e8 d5 3f e3 3d f2 8b d5 33 e8 3f
       0.3423245978637959 0.7563274129224137
000420 0c 60 de 02 2f 9d e1 3f 5a 4d 55 3c db d5 cf 3f
       0.5504374557522183 0.24871387906987757
000430 51 4e c8 3d 4c 07 d5 3f 87 2e e9 42 27 08 c4 bf
       0.3285704234451475 -0.15649882094509257
000440 ca f6 bd e1 7e 72 d9 bf 7b 82 40 d3 da cc bd bf
       -0.39761325879213116 -0.11640708596724807
000450 bf 15 cc 61 b8 99 e8 3f b8 9b 5f db a0 f0 f1 3f
       0.7687646780111023 1.121247155120484
000460 b9 61 d4 cb 37 bd b9 bf 78 3e 87 e3 84 4a b4 3f
       -0.10054348684605587 0.07926207117929518
000470 52 94 db c1 34 59 db 3f ce 93 96 76 ec 3f db 3f
       0.4273197072164453 0.425776592072279
000480 d6 58 fb a3 78 50 c1 3f cc b6 4c d0 e7 02 b2 3f
       0.13526828772473348 0.07035683474961302
000490 bd 47 6f 64 d0 32 ac bf f3 07 78 f1 f8 7c ca 3f
       -0.05507518030175571 0.20693885603401405
0004a0 67 86 ef b6 5e d1 f5 3f fe 01 59 8d 27 ca c1 3f
       1.3636157174991241 0.1389817657636882
0004b0 c3 0b c2 41 1d e9 d3 3f 9e f3 fc 43 96 6e ed 3f
       0.31110316678694633 0.9197493865864208
0004c0 44 cd db 7b bf 66 d9 3f 71 67 b9 1f 78 b0 df 3f
       0.39689623923841943 0.49514582727498807
0004d0 3b aa 40 f8 f7 fe b3 bf d5 d2 bd 74 28 6d 51 3f
       -0.07810926256994659 0.0010636229589781516
0004e0 2e 2c 20 4d 81 6f ce bf a8 4b 18 17 65 33 c1 bf
       -0.23777786508466775 -0.13438094737702255
0004f0 3c 67 f3 0b 82 33 e5 bf bd ab a7 1e 16 1c ca 3f
       -0.6625375970281548 0.20398212906670024
000500 26 f6 f1 b1 95 22 e9 3f 24 ba 72 2b 7c 02 e4 3f
       0.7854717708102654 0.6253033493611082
000510 92 cd 57 22 ea 87 de bf c9 9d ad 82 f3 6e dc bf
       -0.4770455680256528 -0.444271924605769
000520 b0 cc e0 ac f8 ba df bf df a2 13 c7 eb 10 89 bf
       -0.49578682787541606 -0.012239305508459917
000530 cb 25 ec 0f a1 59 b8 3f 23 40 57 be 0f a5 a0 bf
       0.09511763228160601 -0.03250931929108016
000540 3e 0f 81 8a 59 55 89 3f 90 1d 63 6a 90 22 de bf
       0.012369823016463163 -0.47085962666866354
000550 b5 6e 27 0a 33 f2 ba bf 59 c4 e8 0d 36 67 aa 3f
       -0.10525816915417859 0.05156868858137704
000560 48 a9 d1 aa 76 2a d3 3f 4b 42 15 fe e7 33 c0 bf
       0.29946676904241487 -0.12658405214689802
000570 19 1d 41 fc 95 d4 e9 3f 83 71 c6 6b c2 2c e1 3f
       0.8072004248469141 0.5367138009055882
000580 17 e5 68 f2 51 39 e9 3f d5 a8 af 91 b1 49 d9 3f
       0.7882470831456513 0.39512290217556983
000590 01 d4 d3 1b 95 dc e3 3f 3f be c0 92 d1 c4 c5 3f
       0.6206765693192439 0.1700689283911618
0005a0 45 0b fb ab cc 97 e0 3f a8 cf a6 da 61 a0 e6 3f
       0.5185302123066796 0.7070779104746991
0005b0 fb d4 f7 68 b5 1b b6 bf 24 33 3a c4 8e 25 f5 3f
       -0.08636030018518064 1.3216693558817463
0005c0 70 3f 35 dc 32 81 d6 3f 87 fc 3e 24 3a 87 dc 3f
       0.35163566116988587 0.4457536081280939
0005d0 82 41 77 13 a8 74 d0 3f 4c 05 a2 fe 8c b8 d7 3f
       0.2571201505752684 0.370639084496436
0005e0 e4 8e e5 dd 10 fe e4 3f 79 68 56 38 4d 55 c4 bf
       0.6560139020843647 -0.1588531994901279
0005f0 77 bd bc a0 08 b9 e3 3f 73 03 d1 e5 a8 10 ee bf
       0.6163371219062544 -0.9395336617090905
000600 fc d3 eb 71 18 d7 ea 3f 8b 13 27 50 d1 f8 ba bf
       0.8387567734740737 -0.10535915572024927
000610 df 15 d8 72 76 cb d1 3f 3d b2 dc 27 d4 65 b4 3f
       0.2780433770679717 0.07967878316112205
000620 32 a6 06 5d 9b 30 e5 bf fe 57 7f 59 80 dc c6 bf
       -0.6621834580338997 -0.17860416765205395
000630 05 fd ed d3 f8 38 c1 bf a2 12 8f 7c 91 d7 db 3f
       -0.13455114696623852 0.43503224529221474
000640 29 b9 3e 3a 82 1d d1 3f b7 cb bc 6a cf 87 e3 3f
       0.2674260681914285 0.6103283962933038
000650 fc 84 5b e9 e8 35 de 3f 9d bc 73 8b fd 67 ec 3f
       0.47204039372270734 0.887694141738297
000660 7c 2a 66 8f 8f 24 eb 3f 84 5a 92 4e fb fa d3 bf
       0.8482129860652345 -0.3121937053014465
000670 b5 1a ba ff 5e a1 d4 bf 4f 47 1b 4f 70 50 b9 bf
       -0.32234930966698566 -0.09888364726364539
000680 b2 7b 1d 55 9a 6d c6 3f e4 95 fb 4c 70 04 bc 3f
       0.17521981388105484 0.10944272880040945
000690 c1 14 6c e4 d1 21 96 3f c0 81 05 df ae ff ed bf
       0.021613387648376618 -0.9374613147629631
0006a0 61 14 20 8c 3b 44 b0 bf 4a 8f 76 3d 3b 0b bb bf
       -0.06354114695575809 -0.10564012766422795
0006b0 1a 5a 7b cb e6 3b e2 bf a8 09 79 ab 69 a7 d3 bf
       -0.5698121999983556 -0.3070930647410486
0006c0 fd 52 b6 4f e9 74 d5 bf 17 70 6f bc ee db ce 3f
       -0.33526070389170554 0.24108680916731437
0006d0 a3 f4 ee 8c c9 c8 a1 3f 2c 69 df cf c5 f3 a4 3f
       0.034735010579859414 0.040922338128171226
0006e0 d6 c3 43 f2 df 48 f5 3f 54 06 4c 5d c8 79 e2 bf
       1.3302916968789211 -0.5773660490232921
0006f0 81 e7 38 20 b7 90 c0 bf 9e 8b f9 1e 13 5d 9a bf
       -0.12941636155465733 -0.025745676770735686
000700 4f c2 e8 8a 0c 8c bd bf 65 b3 d3 f4 53 06 da bf
       -0.11541822806680922 -0.4066362276924365
000710 3f f7 7c 50 9b 9b c4 bf fb 0d bd c2 c6 1f 90 bf
       -0.16099873952946983 -0.015746217380423016
000720 a9 b4 17 c0 1e c5 ee bf 24 08 43 dc 80 a3 d3 3f
       -0.9615625144775964 0.3068544531817017
000730 bb a9 89 f8 23 9e ca 3f 73 b4 cf c4 10 1d d9 3f
       0.20795106540329109 0.3923990175233662
000740 12 d8 49 2e 8f eb c4 3f 9d 35 3e 2c 6f a9 9d 3f
       0.16343869934252148 0.02896665294206501
000750 7b 23 3f 95 81 bc dc 3f 84 f7 b8 c9 46 33 f1 3f
       0.4490055043684646 1.0750186805521205
000760 bb dd b4 e1 cc 33 e4 3f 98 57 ac c9 8a c6 f3 3f
       0.6313232811289063 1.2359722020969226
000770 6a 69 f2 22 2b 36 ec 3f 15 f9 ef 11 b7 b8 d6 3f
       0.8816123659665156 0.35502411605547596
000780 14 b0 90 0c 10 ba cb 3f 10 3a fc 3e 30 be a4 3f
       0.21661568273100384 0.040513522804861535
000790 81 d9 5d 51 97 1c d2 bf 23 b7 77 9b 81 0f b6 3f
       -0.2829950613589958 0.0861741070327438
0007a0 15 2c ab 71 57 7d cb 3f 20 fb ac bf 0a 63 b2 3f
       0.2147626214049018 0.07182376079161346
0007b0 19 e7 49 6b 67 86 b1 3f 24 a0 2a e5 c8 f7 ca 3f
       0.06845709199287987 0.21068679036875537
0007c0 6f 23 b5 45 bc 19 d2 bf 88 20 2b 1c 6b 28 b5 bf
       -0.28282076651935645 -0.08264798581797284
0007d0 46 f4 6b 26 8e ff a3 3f 4b 58 53 f7 86 63 a8 3f
       0.039059107008121915 0.04763433236227906
0007e0 42 8f 73 72 9b 6c fe bf 0e 37 4d 48 b6 88 d0 bf
       -1.9015154333837505 -0.2583442407675286
0007f0 e4 63 1c 80 df 45 dd bf 08 16 cc 49 91 70 b8 bf
       -0.45738971243696214 -0.09546764423074461

module.down_path.0.net.3.bias f8 [8]
000000 7d d1 a4 42 7e 95 b3 3f cb c3 6a 4e a4 92 ac bf
       0.07649983527227806 -0.0558062883113802
000010 a5 56 17 69 19 a2 b8 3f 1f e9 bd fb 24 ce a0 bf
       0.09622343841268817 -0.03282275746365059
000020 ac ed e6 d8 fa dd b1 3f b9 14 68 9d bb 6a a5 3f
       0.06979339404545354 0.04182993217913506
000030 1e 22 88 24 63 c3 af bf 71 73 9f 4a e8 77 82 bf
       -0.06203756161636796 -0.009017767693814101

module.down_path.0.net.4.weight f8 [8]
000000 b0 a9 9f 5c e1 23 e1 3f 4c e5 99 fa 8a 9d f1 3f
       0.5356299218231495 1.1009626187427157
000010 3d 38 3a 41 fd dc e8 3f ad 72 60 ac 2d e6 f5 3f
       0.776976230046564 1.368695901247672
000020 73 1f f0 b0 ca 09 f1 3f 2b 41 db dc fc 6a f9 3f
       1.064890566982254 1.5886200549321738
000030 a6 6b af 82 a2 35 e8 3f 44 f2 85 92 10 96 e8 3f
       0.7565472176023504 0.768318449190311

module.down_path.0.net.4.bias f8 [8]
000000 03 aa c8 47 ed e2 f0 3f 86 95 54 29 08 84 c2 bf
       1.0554020694786466 -0.14465429323278672
000010 db 48 01 00 56 ed fa 3f 77 ed 7e ce 7e 56 d8 3f
       1.6829433441349042 0.3802792564926771
000020 91 a1 68 54 85 d7 da 3f 33 05 d5 62 07 78 df bf
       0.41940434687651257 -0.4917009797246294
000030 9e 20 8f 0c 7e 24 e3 3f 29 0c 2e 4b 44 03 f0 3f
       0.5982046361250644 1.0007975517953673

module.down_path.0.net.4.running_mean f8 [8]
000000 5f 43 14 89 f6 39 15 c0 e4 06 9f 7d c8 09 fc 3f
       -5.306604520665899 1.7523884684637148
000010 1f 8c b8 fd 7d 50 1b 40 b8 89 30 c3 a1 63 01 c0
       6.828605617894055 -2.17364838115574
000020 58 92 db d7 f4 ac 08 c0 3b 8e 16 89 c6 4c 15 c0
       -3.084451376331611 -5.324976102830585
000030 15 88 99 4e 91 6e f9 bf 95 8f 2d 84 4a 9b 26 c0
       -1.5894940443327006 -11.30330288940585

module.down_path.0.net.4.running_var f8 [8]
000000 b1 ec e1 5b d5 f1 0e 40 55 e1 dd a7 3a 8c 3e 40
       3.868082731086894 30.547770015401813
000010 b8 77 c0 12 bf 08 36 40 2c 35 ad a5 9b 41 3f 40
       22.03416554640691 31.256281237399136
000020 3a 0f 2a 74 67 20 34 40 e8 e8 85 7c ea 15 34 40
       20.126578579204967 20.08560922879488
000030 9a 7c 73 67 5c 6c 18 40 17 28 84 7c 07 c1 09 40
       6.105821243690253 3.219252560408687

module.down_path.1.weight f8 [16, 8, 3, 3]
000000 b5 e9 0b b3 9e d5 e0 bf 45 d3 8e 54 40 9b 9f 3f
       -0.5260766503336557 0.030865674172406505
000010 43 26 77 d7 75 89 c6 bf 10 94 b5 f1 7b 70 d4 3f
       -0.17606995602391082 0.31936548809454823
000020 b3 9b 66 a3 5d 61 c8 3f eb 06 e8 18 87 9f dc bf
       0.19047136763148628 -0.4472367995477799
000030 7d e7 ad c1 9c b1 cc bf 47 b1 61 21 ed 2b c3 3f
       -0.22417029816625336 0.14977802400552262
000040 5f 4d 86 d9 2b fa e1 bf 0a e3 ac 4b 71 64 c4 3f
       -0.5617884872939775 0.15931526370129517
000050 ad cd cf 24 40 c5 db bf 57 ad 0e 4a 92 bb db bf
       -0.43391421885390963 -0.43332345230256436
000060 cd 3a e0 76 f4 5b c1 3f ba ee c7 03 9b 16 f5 bf
       0.13561874203192872 -1.318018927354315
000070 66 b9 65 eb 32 e9 e9 bf f0 2a ae 76 bf 71 96 bf
       -0.8097166631321613 -0.021918288820908793
000080 6d 28 5f 63 e6 98 b4 3f 95 60 9c d2 97 a1 cc bf
       0.08045806814257768 -0.2236814287541661
000090 96 09 7f aa 1e 2b e5 bf e4 98 03 cc 9a 28 ba bf
       -0.6615136461262405 -0.10218207817851838
0000a0 61 21 74 1d 78 88 b9 bf de 42 30 f4 93 74 d8 bf
       -0.09973860472758168 -0.38211535307440936
0000b0 69 52 08 72 fb 35 e1 3f d7 20 c8 d4 ae 9f eb bf
       0.5378396250913059 -0.8632425456899239
0000c0 3c 4a 33 e9 1a 75 82 bf 99 31 2b 0e c6 61 b0 bf
       -0.009012422792158074 -0.06399190755764152
0000d0 25 82 d6 49 db 90 de bf 6f 46 94 be e6 cb b0 bf
       -0.4775913449357481 -0.06561128762066358
0000e0 8e f3 88 06 f1 4e be 3f 25 b3 07 9f 9b c5 e6 3f
       0.11839205178780629 0.7116220575386235
0000f0 cf 16 f6 a0 2b eb e2 3f 59 ff 35 cf 54 46 f6 3f
       0.5912073272490604 1.3921707243134362
000100 f1 1e aa 36 49 2c cb bf 2e 97 db 8b 2b fd c1 bf
       -0.21228900117079477 -0.1405386383914275
000110 4d 66 04 d7 0e 9c ec 3f 15 78 91 d5 46 24 d6 3f
       0.8940500449709333 0.3459641538264589
000120 f7 b4 52 2b 13 7d ab 3f 70 9a 41 bb 90 c6 bd 3f
       0.053688620604001196 0.11631111690221885
000130 a0 32 82 5a 85 86 dd 3f 45 0a 47 c8 84 78 d4 3f
       0.4613355049012089 0.31985587652539876
000140 31 f7 cf 59 64 08 a2 bf 81 31 d6 d8 f7 0e eb 3f
       -0.035220275844024214 0.8455771670428903
000150 e3 56 00 53 ef c1 d7 3f e3 9a 42 a1 8b 14 c2 3f
       0.3712118444976637 0.14125199674636865
000160 05 3e 91 f4 ac f6 f4 3f 3a c3 f9 3d 72 ea db bf
       1.3102235368168078 -0.4361844639998257
000170 28 00 1e e4 63 da e8 bf 82 d8 a3 7a de 41 d0 3f
       -0.7766589599050393 0.25402032829823196
000180 54 5d e4 b5 6f 4a f4 bf 14 1f 02 4c cb b4 f9 bf
       -1.2681729416998069 -1.6066391915391636
000190 59 19 8e 39 ff 36 a3 3f e8 7d 86 7a 0e f7 e9 bf
       0.03752896859718886 -0.8114082711289798
0001a0 20 9c bb bd c4 13 e8 3f e2 7e b0 4c 9d 8f ec 3f
       0.7524131494254824 0.892531060966544
0001b0 01 72 f0 dc ee 9d da 3f 2b 7d aa 9a 61 c2 c0 3f
       0.4158894689187776 0.13093204547929224
0001c0 19 71 74 2f 1c 48 c7 3f 6e fc 69 17 66 46 e0 bf
       0.1818881255829943 -0.5085936028771252
0001d0 21 6b 7a 7e 06 1c ac bf 45 d4 2e 61 7a bf ba bf
       -0.05490131658480935 -0.10448422310476342
0001e0 d8 47 ee 5b fa 4a e3 bf 5e 1d 1a cd c1 24 b4 bf
       -0.6029025836489792 -0.0786858678567248
0001f0 1f 7d dd fd cd be d2 3f 65 f6 4b 6b a6 2d e1 bf
       0.2928957919265986 -0.5368225188864925
000200 38 d7 b6 99 08 1c cf 3f b5 11 a6 6b d3 8b d4 3f
       0.24304301744057866 0.321034293294612
000210 e3 48 ce 26 e9 38 e3 bf de f1 f4 12 c7 f8 dd bf
       -0.6006971128392958 -0.4683091817021515
000220 54 46 bd af 73 3f b8 3f 7f 07 a6 d5 eb 22 c8 3f
       0.09471819916259366 0.18856571132715413
000230 00 c1 ad 09 80 b2 c1 bf f0 72 c3 53 d8 5b ec 3f
       -0.1382598922023206 0.8862115512852977
000240 59 e5 d2 b5 47 f6 ea bf 3c 8d 8e ea f6 5a 8c bf
       -0.842563490986474 -0.013845376046282547
000250 40 08 62 9d 5b 3d af bf 9d 92 27 67 98 7f cb bf
       -0.06101499839952895 -0.21483140026898165
000260 05 bc d7 69 c6 a3 c2 bf 5f c9 c6 5a fd c4 ed 3f
       -0.1456230179605599 0.9302965901354517
000270 26 51 4b 07 ee 25 d7 bf 0f 73 5a 93 ca 57 cd bf
       -0.3616900511963358 -0.22924167819010008
000280 00 42 66 f8 d7 b4 b0 3f fd 8f 23 5d 71 cb e2 3f
       0.06525945486487927 0.5873343295211267
000290 67 e2 aa e0 4c 6d e9 bf 77 2a b3 24 5b ef e1 bf
       -0.7945923221623844 -0.5604682652277252
0002a0 3b 0f 2c 4b 4e 8e cf 3f 62 ab f5 04 28 fe da bf
       0.24653032942307526 -0.42176247104969466
0002b0 1f 77 c3 d3 e4 98 c0 bf 98 99 bc d2 1f 8c e0 3f
       -0.12966595020309854 0.5171050182296311
0002c0 64 92 5c 35 ed 1c d0 bf 47 a1 db 90 4e c1 d2 bf
       -0.2517655392751179 -0.2930485167148799
0002d0 30 02 de 80 65 9a e9 3f 48 2e ad 1c 5f cd d7 3f
       0.8000972287118824 0.37190988350332477
0002e0 f4 e4 ec 85 94 37 e0 3f 94 a9 2a f4 7e 6b e6 3f
       0.5067846885423521 0.7006220597152599
0002f0 fb f1 14 b1 16 d6 e2 bf 2c a6 0e 14 ba b9 c7 bf
       -0.5886338671330685 -0.18535543422085377
000300 c8 5a ae 35 98 71 e1 3f e5 91 d2 16 4b 0b e7 bf
       0.5451165245493366 -0.7201285787346562
000310 92 2b c8 4f 2d 34 bb bf 39 ce a8 f5 0e d8 e8 bf
       -0.10626490781593947 -0.7763743207964985
000320 cb d3 5f 39 01 c8 e6 bf 0f cc 37 b0 1c 0d e5 bf
       -0.7119146462051672 -0.6578505937344533
000330 a0 03 1e c2 61 66 ee bf 82 70 56 b4 43 36 cc 3f
       -0.9499977866508864 0.22040602021741412
000340 43 9d 0d 93 13 60 ea 3f ea 7e 48 70 03 51 d3 bf
       0.8242280838138999 -0.3018196674838537
000350 b3 0d 7b 7d 07 ea c9 3f ab 99 ec 24 f3 e7 d7 bf
       0.2024545061777708 -0.3735320911968311
000360 d9 0c 29 2f 8a 60 e6 3f 87 70 50 50 6c 00 d3 3f
       0.6992846413708335 0.29690082400498635
000370 07 ee cb b5 9b bf ce bf 75 50 cc 2b df a2 ca 3f
       -0.2402224195173945 0.2080954517229007
000380 90 a3 99 6f 8b ee da bf 2e fa b5 08 b2 7a f7 bf
       -0.420809611305736 -1.4674549427287604
000390 c3 6b a9 84 61 48 ce bf 4c b3 8c 66 40 a8 d1 3f
       -0.23658389070155125 0.2758942605458301
0003a0 19 09 40 68 8a 21 e6 3f 46 28 05 98 78 33 fd 3f
       0.6915943180213474 1.825066179112143
0003b0 83 95 3b b0 3c ff e6 3f 1e fa c3 4b d3 59 f2 3f
       0.7186568681760693 1.146930023154375
0003c0 45 27 d6 a8 7d 8e ef 3f 76 dd 0b 68 82 cc 8d 3f
       0.9861439035023315 0.014550226974718621
0003d0 5d 31 28 e7 48 af f0 3f 30 e6 f5 9c e4 5a ce bf
       1.0427941350527228 -0.23714883483971638
0003e0 2d 5b b9 97 1d fa d3 3f 06 de fd 2a d4 d8 ea 3f
       0.3121408445053245 0.8389683570557629
0003f0 a6 09 a0 92 4e 76 e9 3f fa 0b af ac 63 bc d5 3f
       0.7956917632839591 0.3396233736386304
000400 88 1e 2e e8 36 d0 d0 3f 0b b2 14 ca d0 fe e6 3f
       0.2627084033378897 0.7186054179088058
000410 7f 12 f0 c3 07 3d ba bf 32 60 e9 c6 f3 0a bc bf
       -0.10249374898564588 -0.10954211813202688
000420 2a 3c 76 e0 ba bf e4 3f 9f 86 9d be b8 53 e3 3f
       0.6484045394917122 0.6039699290233392
000430 a4 df 12 9f 9b c4 e6 3f 2c be 5b a4 42 ae f3 bf
       0.7114999873074237 -1.230044023537526
000440 bb 38 5c eb 25 07 e2 3f 85 3a 1a bf 88 96 97 3f
       0.5633725735549641 0.02303517977139304
000450 99 90 4f 32 6e 1a d5 bf dd ee 29 84 b8 cc d7 3f
       -0.3297381869617851 0.3718701639806861
000460 c0 27 4b fb 62 18 d4 bf b8 9b 5d 85 83 5d bf bf
       -0.3139884428061315 -0.12252065664288991
000470 3f ac 19 f5 cc e8 ee 3f af 0e 03 2c ec cf d5 3f
       0.9659180438151295 0.34081558511773385
000480 c5 31 e8 09 9d b8 e8 bf fd 7f b3 df 5b b4 d6 bf
       -0.7725358193870809 -0.3547582325536494
000490 c6 e5 46 8c c9 ed d6 bf 0a bd 2e 78 fd 36 e1 3f
       -0.35826338480873365 0.5379626605335102
0004a0 05 b3 15 8b bd e3 ed 3f f9 ee 18 8e 16 56 e6 3f
       0.9340503422259593 0.6980088019695067
0004b0 0d 54 95 d9 11 3f ae bf 7e 55 f3 ca 1b ad e6 bf
       -0.05907493382498084 -0.7086314166905792
0004c0 44 7a da f1 2e f7 95 3f ed 60 4e 9b ad 65 c1 3f
       0.021450742255746627 0.1359154709177867
0004d0 e5 83 8e 54 73 20 ed 3f 70 a6 1f e3 1a 8f f3 3f
       0.9102112437723205 1.2224377510086946
0004e0 45 22 45 ef e3 82 d8 bf 68 a0 5f f2 2b 98 ac 3f
       -0.3829889141675589 0.05584847768460649
0004f0 63 5e b4 dc 69 8d c4 bf 92 e5 c9 92 1b 82 d0 bf
       -0.1605655982645998 -0.25794114432172777
000500 86 78 5d e3 3e 2c ef bf ac d8 2b 48 b4 c3 e8 bf
       -0.974151081154347 -0.7738896760554517
000510 1a b5 8a fb d3 88 ce bf e6 e9 8a 73 28 64 b2 bf
       -0.23855066091838567 -0.07184078999390628
000520 5f e8 d5 92 d1 1b c5 bf 58 e6 6b 24 f4 71 cb 3f
       -0.1649114577265349 0.2144150903548503
000530 c6 16 0b 67 96 80 c0 3f 2c 7d bc d5 32 24 d8 bf
       0.1289241793767159 -0.3772093856113823
000540 da ef 4f 87 1d 29 e1 bf fc ca 59 96 6e 05 c6 3f
       -0.5362689631288007 0.17204077092500103
000550 c7 cf 62 73 f9 f3 da bf 79 5b 01 7d 1a 39 cd bf
       -0.421141016656517 -0.22830515960478318
000560 af e6 c0 2a a3 21 e3 3f f8 12 6f bd e1 01 bc bf
       0.5978561244039237 -0.10940371394014992
000570 63 62 83 2c ac b8 bd 3f 43 fc 8e c1 e8 ea d9 bf
       0.11609912955044303 -0.4049627199382863
000580 d6 4d 26 12 65 1f f0 bf df f3 b9 6a 91 8d d8 3f
       -1.0076647480935796 0.38364062712190433
000590 c9 e1 b6 71 f6 57 e1 3f e1 50 42 0d 6d f7 ea 3f
       0.5419876309379613 0.842703367134643
0005a0 f4 77 70 3f 7f 58 e9 bf c0 54 d7 5d 1a fc e2 bf
       -0.7920528639840527 -0.5932742913088518
0005b0 68 37 e5 ab bd 44 ba 3f 5b e8 f0 f5 85 1b 9f bf
       0.10261140295662374 -0.030378430496263636
0005c0 13 e6 51 fa e3 85 c9 bf 54 a3 ef de 22 04 df 3f
       -0.19939851496364777 0.484627454482099
0005d0 8e 4c 34 fb 18 74 c7 3f bb e8 7b 3c f6 6b f5 3f
       0.18323051706156374 1.3388578760773686
0005e0 ca 3a bd 4b d8 4a f5 3f 11 a7 40 50 46 b9 c7 bf
       1.3307726820527699 -0.18534163397389894
0005f0 e6 15 f7 b6 b1 03 c9 bf 6e c5 75 34 c5 ee ef 3f
       -0.19542523797842576 0.9978967690096121
000600 d5 04 68 3c 32 7d db 3f ea 5b ac 74 6e a9 df bf
       0.429516371717978 -0.49471627611040836
000610 a7 74 b7 4d 3b 8b dd 3f 95 5d 00 d2 fb 75 dd bf
       0.4616230257941631 -0.46032615192367504
000620 4e 9c 62 31 af 6c e1 bf 94 35 16 bc 66 fa e4 3f
       -0.5445171322397842 0.6555665658540186
000630 83 fd 96 09 0f 3f e3 3f e0 c3 cf 2e fe de bf bf
       0.6014476001072783 -0.12449635165081885
000640 c5 61 10 24 33 76 ac 3f 2f e2 dc 36 e3 34 cd 3f
       0.05558929267153049 0.22817650011872234
000650 50 d3 61 d8 b3 7f d9 3f 9d 52 bb 15 24 cc e1 3f
       0.39841934329097217 0.5561695503661955
000660 7a db 16 af e3 3e d7 bf ab 19 06 12 35 dc d2 bf
       -0.3632134637695611 -0.29469038734569136
000670 87 f5 21 a3 f6 bd d9 bf 6c 7b 74 aa 0e 35 df bf
       -0.4022194474308311 -0.4876133598899546
000680 32 3e e3 9c 98 b2 cc bf 89 71 25 27 8b a7 ce bf
       -0.22420032177477506 -0.2394880238670221
000690 69 a2 c7 c5 0c ff 8d 3f 3b 79 f2 29 cf a1 e8 bf
       0.014646625314484756 -0.7697521037369265
0006a0 6e b8 d4 85 80 2d c5 bf d8 fe a6 a1 54 35 e3 3f
       -0.16545111212457492 0.6002600819847101
0006b0 7e d1 a9 9e 41 47 e0 3f 27 d8 42 5b 46 44 c2 3f
       0.5086982821363077 0.14270858245953486
0006c0 50 b2 b1 fc 21 6b e4 bf fd 69 02 de 77 1d 86 3f
       -0.6380777297432108 0.0107983936907674
0006d0 8c 04 7b b7 2c d3 da bf bf 7e 3b 73 46 60 b6 3f
       -0.41913907926579763 0.08740654290476878
0006e0 86 87 4a f8 be a5 ba 3f 84 b0 a7 bd 88 2c b9 3f
       0.10409158288760353 0.09833578710794383
0006f0 df a9 e3 85 7a 19 c5 bf a5 da 61 09 bc 84 e1 3f
       -0.164840045333519 0.5474529441115307
000700 9c a9 b6 ba 5a 0c bc 3f b6 ac 7b fd ce ce bd bf
       0.10956351335941011 -0.11643689812233302
000710 a3 14 8e 1c 71 78 d2 bf a6 76 8d 28 42 a7 90 3f
       -0.2886011866433568 0.016263040280469675
000720 9b cd fa ba 4f af d1 3f 6d 58 cf 3c 64 cf f8 3f
       0.27632516154991443 1.5506327033413314
000730 ee 9a 78 98 ae 0b ef 3f a2 57 09 8c 69 0a af bf
       0.9701760271026083 -0.06062631449155666
000740 a6 9e 57 ee db 27 e0 3f a5 02 df bc 00 de d1 bf
       0.5048656134722094 -0.2791749805874509
000750 3c f2 77 e3 43 ec dc 3f b1 d1 3a 46 47 14 a0 3f
       0.4519204827663861 0.03140471203133489
000760 03 7d c2 2a af 2f a9 bf 12 7b da 67 90 80 e8 3f
       -0.049191926927273165 0.7656938579928882
000770 e4 a9 d1 77 d3 f7 ba bf 72 95 56 ba 71 6c e6 bf
       -0.10534402537601967 -0.7007378234308546
000780 d0 05 da 31 0a 43 e3 3f b8 7c 1b 26 a1 a7 ee 3f
       0.6019335721650183 0.957962583950482
000790 cc ff 57 dc 38 1e c5 3f bf 68 6b 17 e4 25 e3 3f
       0.16498480566951768 0.5983753640569133
0007a0 84 19 72 20 71 f4 d2 3f 89 63 e0 95 c2 95 e3 3f
       0.29616954964185305 0.6120312621379621
0007b0 e9 2c cc 8d e1 78 c5 bf 25 95 c8 0b b6 0f c5 3f
       -0.16775149749478338 0.16454196524970502
0007c0 13 1c 49 a7 bf ca e5 bf d2 f5 81 0e 8c 2b e3 bf
       -0.6809995906158995 -0.5990658076622657
0007d0 cf ea bc 74 fe 0a ec 3f 2e 1f 5f 96 78 bb c3 bf
       0.8763420372045746 -0.15415866224633973
0007e0 57 79 7b 69 30 5a c4 bf 61 6e 84 24 07 0d e4 bf
       -0.15900235319618147 -0.6265903199413964
0007f0 49 6d a1 31 c0 49 c3 3f bc 42 c3 7b 0b 08 82 3f
       0.15068819449775564 0.008804406847418782
