results/run_1/saved_model_unet1.pt (torch, 350624 bytes, 75 tensors)

down_path.0.net.0.weight f8 [8, 4, 3, 3]
00000000: b662 2337 c968 c43f 064e 3d5d fb24 8d3f
00000010: 29b3 1011 5e2f 823f e35e f978 81bc d2bf
00000020: 2365 2f08 3ab7 b9bf 53e2 f0ef 4472 b73f
00000030: fb84 5ef2 ee46 d43f 2a0f 5910 b8f7 c03f
00000040: 789f f28c baf2 a3bf 5a14 e86d a729 9fbf
00000050: 5235 3760 a127 9a3f 4c41 8bfd 818d 913f
00000060: 914d 96f0 4e79 783f e094 344a ad04 d83f
00000070: 7f75 908f 06fd b5bf c8a5 95f7 b042 c6bf
00000080: 8fd2 128d e786 e13f e467 cebf 5c05 c7bf
00000090: 75f2 99a6 26b5 93bf d7c5 d968 c44b b0bf
000000a0: 99b7 83d4 2b6f b03f eac6 0ab9 d738 993f
000000b0: 0922 234f c779 b9bf c9cd 3c84 6e53 b73f
000000c0: 1b92 7c55 fb79 ab3f b983 a3da 372a d93f
000000d0: 4a42 8065 37db 8dbf 1cd8 9feb c1ea b73f
000000e0: c659 d745 f262 c1bf 9817 5be8 3dfe a1bf
000000f0: 8169 01ad f127 8bbf 1f75 7715 36dc b03f
00000100: 0afa 66f0 720e 8f3f c670 7f8e 0b13 a63f
00000110: cd19 692c 1f22 873f fb35 c3c1 0091 a3bf
00000120: d56a 26e6 150c 8abf 482a 600b b918 c93f
00000130: e091 b913 5388 c63f e90c 51a9 9561 ccbf
00000140: b037 bf06 7411 ad3f d0ae b98e e9ef 83bf
00000150: c960 0893 fff4 b7bf 6bd3 6241 f08b c8bf
00000160: b63c 24e1 1fa6 b6bf 959c de86 9d80 aebf
00000170: d002 32f5 f3c0 ab3f 251f 17ff e880 b4bf
00000180: 7b25 4e8a db20 c73f bed8 1125 9b91 c73f
00000190: 5c20 320f 5617 8f3f 654d b77f 89d8 a03f
000001a0: 6d81 4ff1 8921 933f a09f df33 3465 afbf
000001b0: 9695 e6a3 d5a6 ca3f 4bc2 6fae 2912 d3bf
000001c0: 098a 07c0 fd75 a1bf f6e4 f34e d42c c8bf
000001d0: 5043 ccc7 7ee3 d3bf a2b9 1ca6 3611 b6bf
000001e0: fada f211 7bc3 b43f 9ad7 7ae8 6890 c1bf
000001f0: cf5d 0ac2 124a a73f cffe 1047 ac86 a13f
00000200: b22e 5c23 bf02 a13f 79d1 e227 333d c8bf
00000210: 35ba 6156 5688 b03f caa4 8f31 7dac cabf
00000220: fd2b 62d3 7cbe d0bf 2c20 bb7d a051 d0bf
00000230: fe4a 4fe6 5efe b2bf 010e 48d8 0671 adbf
00000240: 83bf 83fd ef26 953f d52f 3e86 8896 ab3f
00000250: e6aa 7bcb 8559 bebf 8253 e2a9 3909 ad3f
00000260: 7ff9 b99b f6fa aebf 4ba6 3140 b920 c03f
00000270: 9e0e 828e 9c4c c8bf c357 5d2e 2731 d0bf
00000280: 3034 c6b3 6adb ba3f 56a9 7126 390a 92bf
00000290: 9d28 55dc e650 cebf aad8 a0cd abf8 ca3f
000002a0: 07f1 69f8 5b11 c63f e3f2 e3a3 955e d9bf
000002b0: 5672 5675 8e03 acbf 8566 6652 5e52 8bbf
000002c0: 3373 557e 8225 d5bf ed4e 94e3 fe4b c33f
000002d0: 012c 7b03 dcda 543f 02e1 d8d5 bb92 993f
000002e0: e963 d3c5 4231 7a3f f3b7 4380 9c15 b33f
000002f0: 9d99 1b04 016a cabf 164a 0f28 629e b7bf
00000300: 3d27 4d1c 36a9 bcbf b68a 4871 7fb4 c9bf
00000310: e9ad f7ea 4023 96bf 05c0 0adf 2cda c2bf
00000320: 4cdf 6c6d 26cb 973f 2533 ed1c 56a2 acbf
00000330: 3753 00ef d48c b93f 8fe5 ff60 2ad2 b03f
00000340: 7f3d bf0b d198 bb3f c006 cb1f f9a9 a43f
00000350: e184 8e09 d9d7 c3bf 861a a5e9 d11c a9bf
00000360: 6261 ee5a 1cc3 c43f 8f56 c9e7 5090 d53f
00000370: 53cd e190 2267 923f 37a4 6894 714a b93f
00000380: c999 a18c 07b1 db3f aa62 4d2a 65f6 a13f
00000390: 2460 9f88 5e00 7e3f f66a 19c2 dddf 8abf
000003a0: e5e2 457a 65d2 a5bf 0e31 2aab 7b1a bdbf
000003b0: 920f 6015 a5ff 93bf ce7c c62b 5a31 873f
000003c0: 5dce ccfb 60f4 b23f 777f 7132 153b c53f
000003d0: a6ed 54f8 94c0 b13f b2ed b115 5e52 b43f
000003e0: c2e2 76f9 6522 b7bf 5ce0 564b df6a babf
000003f0: 75d3 8035 8d18 a0bf 0053 0e8b 206d d4bf
00000400: b624 8a18 9a7e 763f 631b 1ac5 2e5f a03f
00000410: af71 f3a0 1273 d8bf b540 5471 4006 d0bf
00000420: 2a54 7a5c 5052 a2bf 365e f681 99df babf
00000430: c0ea bcf8 b980 983f 8dee b191 1901 bfbf
00000440: 7c00 27db 920f b63f 62ae 282c ee97 a93f
00000450: cab2 456b 291d b33f 932a 6ce6 8235 bb3f
00000460: 67aa ac91 54a9 c3bf 5529 52bd a901 883f
00000470: 2fb7 6b8a 1eee 933f 23ba c0a5 1198 b6bf
00000480: be58 c1c3 efff b5bf 7d2a 8845 03f6 cebf
00000490: 5bd5 9844 3411 b6bf 161c c855 06bd d33f
000004a0: aafe 740c 2c3a e03f 9a27 99f3 760c d33f
000004b0: a84f 415b b61e b6bf d73a 1060 7971 c23f
000004c0: a0f2 ef76 9f67 c8bf 7ae3 ac9e e704 cbbf
000004d0: 3922 2ece b0e0 afbf 73dc dcc5 7c22 b4bf
000004e0: 9a4f 14f4 c513 c1bf fd25 2fb1 8e29 b93f
000004f0: 6471 e3e9 af34 c73f 34c3 1989 129f ad3f
00000500: e333 a47b cbdb 97bf b6c6 b8fb 49a4 c9bf
00000510: e225 6d7f e397 b53f 18f2 0e89 4fb0 c83f
00000520: 5276 afd6 e95d c4bf f628 3698 bf8c abbf
00000530: aee9 f288 40d4 d63f a83a a30f c5a4 9e3f
00000540: d5c3 b736 5e51 9f3f b4cc 2821 c49d c63f
00000550: 4ae1 7151 9434 40bf cc3d 177d 6f6a bdbf
00000560: eded 9f39 06e1 bf3f 26e6 0209 7bc0 92bf
00000570: f949 d58b f9f6 b43f 0b8d 34f5 8e33 b13f
00000580: a712 2940 297e b5bf 194c f1e9 5cb3 b4bf
00000590: f025 762a 17e4 9dbf bdb4 8f26 30d2 b13f
000005a0: e6a6 3be9 4326 84bf 6014 ff03 8689 9abf
000005b0: 2a01 d05f 3270 b43f 188f ec15 eceb 9fbf
000005c0: d2ca 5d51 73b7 ccbf 0b23 f2a4 022c aabf
000005d0: 8f5c 6c85 0445 c3bf 3a61 1035 0728 cbbf
000005e0: f97f c5e4 ef1c b43f 555d 64e4 c421 a63f
000005f0: 2102 62c4 2104 a4bf c964 1a07 d9a6 ab3f
00000600: 7ffa ee6e ab5a cc3f 2296 287d 61d9 b63f
00000610: ccb7 a9ba 3867 ac3f f173 fdc8 0677 ce3f
00000620: 3a7b cc76 9773 6a3f f1a3 d569 c6c1 8b3f
00000630: 0d8f 6e3f 8c74 c63f a6cc 8463 bf84 b13f
00000640: 469e cdfa 0a1e ad3f 784a f207 87a0 d4bf
00000650: 20f2 845d a007 ddbf 55c3 2340 7ace a33f
00000660: 8919 b944 00fc b7bf f5d0 f6f6 e4b4 d4bf
00000670: 938d f2a3 1efe be3f 5245 d185 5a57 a13f
00000680: 316a 6873 d127 a3bf 8785 f82d a005 a2bf
00000690: 3742 e545 3d43 603f 89bb 6798 ca55 a7bf
000006a0: cdc5 ae45 a6b8 c23f de6c d453 c5a6 b1bf
000006b0: e5be a1d5 064b c73f 24db b9df 1fd4 bcbf
000006c0: f1a1 125e 0e9d c1bf 76fb a614 a492 c63f
000006d0: 994f ed19 7b84 cdbf ea66 53d3 e7b7 c83f
000006e0: d81c d5b6 f7b1 da3f 71ab 020d 3bf2 b73f
000006f0: 7b9c c612 9465 9cbf a27d e342 663d d7bf
00000700: 9a1b 80ec a8b2 ad3f b716 3ae2 8a75 a3bf
00000710: 7cf2 894b ce01 c2bf 46b6 c7f9 3f48 c13f
00000720: 328a e157 9159 d43f 2c8c d968 b7f4 d8bf
00000730: ba74 3196 4f56 dcbf 6117 3ba0 73b0 c73f
00000740: 758f 1c90 c9b8 cbbf 4c8f a7c2 a71e c9bf
00000750: 5d47 3ff2 a9c7 bebf 7835 e393 8be1 b7bf
00000760: 96e9 357b 2f26 d3bf 3e7f e3e5 bffc 97bf
00000770: 3113 1f77 9423 b7bf 9c5a cee5 6943 cf3f
00000780: 296f 94fb b1dd c4bf c242 7625 fb80 d43f
00000790: d9a6 53b3 aece d33f 6e88 73dd 0a24 a7bf
000007a0: d649 adaf c5c8 c33f 3947 01c5 91b8 b0bf
000007b0: 8b3c 8bc3 1997 a0bf ba4f 8e79 bc75 c33f
000007c0: 07df 0db1 e74e 963f 1430 d8b2 e1cc b4bf
000007d0: 48d1 adcd f5ec b23f 5b1b 12a3 73fd 52bf
000007e0: 1673 ab0e f1aa b63f d814 ab43 ce5f a7bf
000007f0: 0147 671e ccef bcbf eda9 5820 67b1 d4bf
0.15944781486793652 0.014230693610136857 0.008879408736981969 -0.2927554780376182 -0.10045206737358518 0.09158736093457635 0.316829430283249 0.13255978391873074
-0.0389612481170038 -0.030432334979213806 0.025541802880799942 0.01714137182244828 0.005975063665931827 0.37528545614834563 -0.08589211468684786 -0.17391025628175627
0.5477178340284626 -0.17985114446201955 -0.01924572364667872 -0.06365611610251364 0.06419633806555537 0.024630900067399354 -0.09951444322644688 0.09111681679205853
0.053665022073151124 0.3932017932075343 -0.014578278336586998 0.09342586519764534 -0.1358321038266707 -0.03514283620238173 -0.013259780971726755 0.06586015724265736
0.015164277993673831 0.043114052910568954 0.011295550864031246 -0.038215659763959985 -0.012718363844034833 0.19606698089076446 0.17603529418114672 -0.2217280461064555
0.05677378256187582 -0.009734940212374893 -0.09358212794939215 -0.19177058403661404 -0.08847235914821536 -0.05957500716550005 0.05420648925883642 -0.08009201267043105
0.18069023373781676 0.18413104352993587 0.015181228960742192 0.03290204700501923 0.018682628014972936 -0.061318999607294034 0.20821638586964458 -0.29798357043094786
-0.03410332650289056 -0.18886808257210647 -0.3107602072860134 -0.08620015674089257 0.0811077994174915 -0.13721953727298059 0.045487009226402024 0.03423059813985462
0.03322408014909452 -0.1893676705127623 0.06458034142426856 -0.2083889476773833 -0.26162644045751887 -0.2549821117249873 -0.07419388888164843 -0.057502950574441776
0.02065634713011334 0.053882852923464654 -0.11855350702141329 0.05671100806026798 -0.06050844813306621 0.12599864611120135 -0.1898379989471452 -0.2530000641612526
0.10491053475398426 -0.01761712357657904 -0.23684392698698256 0.21071383991665488 0.17240476255017986 -0.3963979816906386 -0.05471463377327683 -0.013340699090622419
-0.3304144128540429 0.15075670349380435 0.0012728832788748703 0.024973807265468835 0.006394635039407051 0.07454851275880951 -0.2063599844033889 -0.09226048925419436
-0.11195696059180889 -0.20082085639395125 -0.021618856755521696 -0.14728318110201158 0.023235893658436965 -0.055926028281282826 0.09980517230026185 0.06570687168268406
0.1078005460433271 0.040359292155256465 -0.15502465216289976 -0.04904800393210444 0.1622043079376097 0.3369333518543067 0.01797155389108458 0.09879217026959074
0.43268002255936416 0.03508297101388298 0.007324570915407978 -0.013122303472461887 -0.04262082212057353 -0.11368534973934549 -0.01952989523853394 0.011324600659291664
0.07404142520391006 0.16586556399397143 0.06934481680666824 0.07938182859100243 -0.09036862698020356 -0.10319324101772182 -0.031437313824802006 -0.3191605909317303
0.005491830765671659 0.031976186332989064 -0.38202348440043016 -0.2503815752725232 -0.035784255303191806 -0.10497435973081157 0.02392855244327552 -0.12111053282745328
0.08617513513945768 0.04998726166772084 0.07466372364951748 0.10628526807355802 -0.15360505211841088 0.011721922006718325 0.019463040541203454 -0.08825788780880166
-0.08593653229886208 -0.24188271422493193 -0.08620001482707577 0.30841215493313834 0.5071010821629518 0.29763578213589315 -0.08640613296421285 0.14408795538516614
-0.1906623202084079 -0.21108718154735212 -0.0622611285862757 -0.07865123587258598 -0.133415931872716 0.09829036546502574 0.1812953846009676 0.05785425113288625
-0.023299388333771886 -0.2003262023077263 0.08434888707156277 0.1928805751066569 -0.15911601050076968 -0.053808200197709086 0.3567048394576443 0.029925421790546608
0.030583831872664852 0.1766896402274135 -0.0004945491990744702 -0.11490532688116345 0.12452734858373278 -0.01831238024235495 0.08189353622336872 0.06719296919304811
-0.08395631615082753 -0.08086186133850538 -0.029190408674855506 0.06961346570433853 -0.009838610224921007 -0.025915235513611967 0.07983698691532895 -0.031173409307611782
-0.22434846375434475 -0.05111702216624366 -0.15054375185784294 -0.21215906229986975 0.07856654486886318 0.04322638786305314 -0.039094023916735894 0.054007322423055344
0.22151701847720415 0.08925446801784934 0.05547501829720111 0.2380074006458979 0.0032289465219856013 0.013553190331281302 0.17543175790080348 0.06843181781441618
0.05686983405649619 -0.32229781890888587 -0.4535904801630597 0.03868467362361253 -0.09368898084458101 -0.32354091756430076 0.12106505873321387 0.03386958011163678
-0.03741316350734215 -0.0351991706959423 0.0019851872195107106 -0.04557641134657959 0.14626005556560387 -0.06895097061753883 0.18197713309518018 -0.11261176311550664
-0.1376054725017322 0.17635012634670105 -0.230605495128313 0.19311235254900022 0.41711228232129605 0.09353989665639319 -0.02773124088858168 -0.3631225255212148
0.058003691548996275 -0.03800615321692418 -0.1406801098672935 0.13501739212317626 0.3179667814457928 -0.3899363063739567 -0.44276799838355496 0.1850723774315908
-0.2165767625493761 -0.19624802593818413 -0.120234128610972 -0.09328529701743615 -0.2992056563595268 -0.023425100714006712 -0.09038665683972337 0.24424480172156826
-0.16301560196085887 0.32037237795251994 0.3094898940313278 -0.045196857006673294 0.15456458166097659 -0.06531630572979176 -0.032402806396583626 0.1520305245909393
0.021785373860864456 -0.0812512456543007 0.07392822524508802 -0.0011590604083566356 0.08854586227557734 -0.045652814636506 -0.1130340170123212 -0.3233278098947768

down_path.0.net.0.bias f8 [8]
00000000: 5d07 3dc5 38dc a5bf 7b76 2568 f168 9dbf
00000010: d931 e714 5604 a8bf 2fea 0080 8c97 c03f
00000020: b663 0403 f1f5 b13f 5397 d4de 9f16 9e3f
00000030: 3c12 5efe 6c67 c23f aee1 a17f de17 c1bf
-0.04269578368849978 -0.02872063825758751 -0.046908083011291964 0.12962490320372086 0.07015901874218752 0.029383180594911917 0.14378130359922803 -0.1335409281925996

down_path.0.net.1.weight f8 [8]
00000000: 94f9 258c d460 f03f f30e 407d 01f5 ef3f
00000010: f4c2 1b51 26d7 ed3f 64ed bfa8 7433 ef3f
00000020: 9797 e1f9 6a2c f13f cf69 a941 c8f4 f13f
00000030: 1eaa f2a5 7ac0 ef3f 17e7 c400 25a2 f23f
1.0236402010483276 0.998657936696388 0.9325133880757606 0.9750312133686916 1.0733442078576212 1.1222612919724388 0.9922459832353672 1.1645860700650184

down_path.0.net.1.bias f8 [8]
00000000: d7dd 47f3 dff7 d83f ec97 f916 84e8 d93f
00000010: be48 c4d9 48c5 b73f 4cc9 a2e8 0f74 6d3f
00000020: e3d0 b2cf 8687 84bf 4941 f7d6 0446 d03f
00000030: 702e eeed 4d49 ac3f d2ef 82c4 b557 863f
0.3901290775097243 0.4048166488995537 0.0928540736825054 0.003595381805177633 -0.010024121488051601 0.2542736148143559 0.055246768278348735 0.01090948110537929

down_path.0.net.1.running_mean f8 [8]
00000000: 92c0 a1ca 547a a5bf 253b e6b4 3e93 c1bf
00000010: 6da5 b103 d9f4 abbf 1838 6cfa 1970 c03f
00000020: 588e 0532 727a b23f 8d9e 3153 482e a33f
00000030: 4f66 9c17 012a c53f e81e 1275 7ab6 c0bf
-0.04194893811734447 -0.13730605919814667 -0.05460241479961323 0.12842106559441002 0.07218087884171476 0.03746248260068539 0.16534436848523845 -0.13056879726740722

down_path.0.net.1.running_var f8 [8]
00000000: c705 3858 0680 963f f04b dfdf 40e0 b93f
00000010: 7dcb dc8d a8ad 9c3f 02f6 1a04 7a64 b33f
00000020: 41ed 8cdb f31c a53f c58a bca0 dd95 ac3f
00000030: 8652 7c32 6c8b ad3f e5f2 4a83 4f64 b13f
0.02197275079197938 0.10107808557158626 0.028006204279516823 0.07575190162875603 0.04123651557025677 0.05583088481059443 0.057704335367962975 0.06793686824216712

down_path.0.net.3.weight f8 [8, 8, 3, 3]
00000000: ddeb 2c76 abd2 b63f 9209 2113 b065 ce3f
00000010: eaf5 3814 ac3b c03f b480 6860 75a1 c53f
00000020: b41f 2f5d edb2 c13f 1867 8be6 19db cbbf
00000030: f491 f0cd d3d2 913f 87af a06c 1495 b23f
00000040: 9818 3e42 2bef bb3f 623f 887b bdf2 d0bf
00000050: 18c1 ed88 6232 b0bf 5640 5471 74f9 a0bf
00000060: 5080 0ba6 2730 aa3f 257c 0235 d7cc c53f
00000070: 0a11 4b66 54a0 9b3f d6c1 7383 31b0 a33f
00000080: c9a1 0a8b 39c5 bf3f e4a5 415e c7a7 99bf
00000090: 39d0 60ce 6d43 9a3f fdd7 81a6 d96a c4bf
000000a0: aa1e 10d9 2d71 b2bf 9891 8903 92af c2bf
000000b0: 11ac 4374 6f71 adbf 489f bb2a d7e1 9f3f
000000c0: 4de3 e85e 7b0f 843f d047 ad23 2925 7d3f
000000d0: 5acd 66a0 acd6 be3f b3b1 b6c5 abe9 c2bf
000000e0: 3bd2 28c0 a1be a93f b30b 239a db3a 703f
000000f0: 8cdd 475b 247c c53f ef2a cf56 b05c cc3f
00000100: 2bf9 2677 de34 c03f f10b 1ea7 ae69 b63f
00000110: c440 f59b 8e4b b53f baac 9840 91ef 8abf
00000120: f8de e8c5 b658 983f fe3b 80c9 2ddb c83f
00000130: 7c9d edc5 8679 bebf af9f 650f b945 c33f
00000140: f919 b6e1 195e d73f 2233 ac06 3d2a b83f
00000150: aa83 2820 b39b d0bf 9204 97c2 db85 a23f
00000160: bd2a 2c3c 7c71 c9bf 6d3f f63f e1ec 9ebf
00000170: 81c2 4602 542a d13f 7a06 f958 1ccd b63f
00000180: 32df b8ae 735c b63f 411c 484e 8468 b2bf
00000190: bffc 22bc ea58 8ebf 2521 4735 5be0 a43f
000001a0: 7855 e56f a08d b73f b7a0 f42e 06b3 b73f
000001b0: 1c4b 4820 8607 c43f d956 3741 df82 a33f
000001c0: a597 f5cb bc4f 7abf 7aed ff3f f473 d23f
000001d0: 698e 8059 8ca1 cc3f c792 e221 e32c a33f
000001e0: 3cd6 bf03 59e2 96bf 154f 70f1 ea11 86bf
000001f0: 8943 9216 1bfa 96bf 5074 02e6 9def ad3f
00000200: ff3f ee57 93fe 4b3f ef5c 0fcd 06ec 93bf
00000210: f1fc 050b 412e ce3f 82c7 0365 7346 ca3f
00000220: 80fe 3a06 bb78 b3bf e70c 8881 6c85 b93f
00000230: 7a84 9ba5 5f07 bf3f f388 67bb bbab a4bf
00000240: 4731 8b19 beb9 ba3f 2f9d ba1e 227c b93f
00000250: e7c2 a9e2 0983 c2bf c665 a8c9 7ed0 c63f
00000260: 7685 0631 d737 a13f 9a65 e4f2 d9fe c1bf
00000270: e509 f77f 4ee3 c3bf a9b0 df22 60ed a23f
00000280: 1bf6 0142 45b0 9c3f 55d9 89cb ce82 cebf
00000290: 1b84 788c da41 c5bf 525a 9421 8bf1 98bf
000002a0: 1407 f104 b5e2 6dbf 2439 8d52 9fc5 88bf
000002b0: 04a5 3982 3d5d a23f b874 5dcd 5730 c2bf
000002c0: 7040 ba4b 4db2 c1bf 9be1 3e54 fce5 a5bf
000002d0: 854a 4b69 1002 993f f259 cb09 14fb b9bf
000002e0: 0cf1 3634 0e9a bcbf fdb6 d438 34ee babf
000002f0: c3da 8fe8 b0e1 c0bf 8622 b2bf b7a3 b1bf
00000300: a308 b36a cc9b b7bf 44bd 77bc 36b1 b1bf
00000310: 7e4c 9d87 79ee bcbf 9a31 35b1 e3bb b7bf
00000320: 0164 7339 a424 a2bf c999 bb13 59c1 81bf
00000330: b6a6 d65e a523 a6bf 0364 d708 5cc5 bcbf
00000340: 402b 0af6 edc2 aebf 032c b82a 7360 a03f
00000350: 55a3 b49e 6b01 c9bf fdbb b967 36a2 a3bf
00000360: 002c f4b5 ae29 b0bf 744d 701b fdce 95bf
00000370: ca55 552a a270 aebf 7010 8d65 b1c9 b8bf
00000380: 186f 3203 76c0 c0bf d5f1 a654 719b a9bf
00000390: 7187 ef1c aa80 c03f c926 cea3 bd2d a1bf
000003a0: 8168 6cea f522 b2bf 1034 aa0a 6108 ba3f
000003b0: 17db 048e a466 733f 645a 7d66 2305 ccbf
000003c0: d824 3654 9117 ae3f ad5e 322e e0c3 a4bf
000003d0: ca10 5707 b215 bebf 7c10 6a83 9c34 af3f
000003e0: e629 07af 2024 ac3f bdc7 6d7a c0b2 b23f
000003f0: a2b9 f8fc d872 b73f 1eee 8e0d 75ba be3f
00000400: b40c 1da0 cb19 a33f ccc3 37c1 6d49 9a3f
00000410: 2396 ebc1 f07c c93f 1fde 18e5 6754 ae3f
00000420: b883 aea3 271f b6bf a86f 2ea0 63b4 bcbf
00000430: 497e a2a1 5623 b6bf 1d67 a3dc 7683 c8bf
00000440: c2dc 3c23 1159 aabf ea7d 57c7 41ca adbf
00000450: df4e 8ee8 8643 b9bf e7ed 5bcc 7af2 bbbf
00000460: dcfe abc3 4a8a 9bbf 68e3 87b4 eb63 babf
00000470: 6fca 7e04 b97c 7b3f 0061 31dc 36d7 8fbf
00000480: 003b 52f7 bbf1 abbf e5d7 337a 6f83 ca3f
00000490: d16a 7b9b dc2f c0bf c4f8 939d 322d 79bf
000004a0: 2096 6181 8535 a7bf 0b2f 109e 6716 b33f
000004b0: a0f1 436e 2569 b2bf 83a9 eac1 f27c cdbf
000004c0: fa48 f0c2 5499 b93f 501d b9ff 0260 a03f
000004d0: 7dc8 f6c1 0492 b73f 340a e233 70b9 a1bf
000004e0: c8e0 f9f8 d62c ca3f cbf2 29ac 05d5 b2bf
000004f0: a4e0 866f 2a5c 77bf e05f 0d77 bad2 b43f
00000500: 2b07 20c9 317c a3bf 4195 4d15 d69f 90bf
00000510: 9624 4bce 4029 bfbf 6710 7a91 965c 8f3f
00000520: d43b f187 5634 be3f e167 1ef4 6dee a33f
00000530: eced ad50 28ec ab3f f690 2bcc 8dc4 bd3f
00000540: 7720 1d6f 483f a8bf be01 c43c 47a4 b53f
00000550: 2bcf 6e37 76f5 b43f abe9 6e5e 1909 ab3f
00000560: 69ea 795d de91 b8bf fe54 246a deeb bf3f
00000570: 867a eee3 3ad2 a9bf 92a7 56e3 18a4 bfbf
00000580: f05f 0d2b ac6c b7bf 23c0 f823 99b7 a9bf
00000590: 55bc 11b2 c166 b83f 0f42 76ef 27d5 933f
000005a0: ed8c 4714 a8a8 9e3f 9f71 aa58 30da c43f
000005b0: e9fc d942 a264 a6bf ae92 69bd d86d 893f
000005c0: f517 f478 ff8f a1bf c981 04ac 8b77 ad3f
000005d0: 725b 253c 117e a6bf d471 911d c4bf c73f
000005e0: 6d8e 18a6 e81e bb3f e243 2240 7b41 b7bf
000005f0: 6473 1eb5 eeef bcbf 2d23 9c0f fbe7 c03f
00000600: e5f8 1e1f 4406 a53f ea16 4e11 9bd1 1cbf
00000610: 7afb 9faf 0072 5b3f da98 0425 d6b9 893f
00000620: 3f0a dac6 b840 a03f 173f ba3e 6eba a63f
00000630: 83ce 6037 f213 c03f 10df be45 2cc2 d33f
00000640: 841f 0cd2 cc15 93bf 1737 1914 31cf c63f
00000650: 6d40 02aa 2720 cf3f a2ff d879 60cd 8b3f
00000660: 37c3 6e8d f45c be3f ce5b 8497 7d7d a43f
00000670: 8891 4d9d e502 aa3f 4c0a 5112 b5a4 c1bf
00000680: e0ab a963 adcd c8bf 9b47 9df4 d650 b3bf
00000690: 1ab2 3c37 07d7 e43f 01c9 75c6 e49a e63f
000006a0: 3184 5dc4 22a5 c43f 9185 c3c0 8e2a cd3f
000006b0: 8da7 4b94 2bcb d03f 8fc5 515c 72fb b3bf
000006c0: ed66 23bd a502 bbbf 6e42 a69b 05a9 93bf
000006d0: aa89 9cea 47f1 bcbf e6fd af20 30da ae3f
000006e0: ec85 eca1 0608 973f d63f c18c 6601 883f
000006f0: 9a52 a668 59d1 bdbf fe7e 0965 46b3 a93f
00000700: cba9 be0e 5c8c be3f 02d9 6c95 2a42 ccbf
00000710: 3d5e 48dc 4b51 8d3f e261 a640 5703 b13f
00000720: f2f4 65b1 0614 85bf 7afd 5344 49a9 c63f
00000730: ef1a de98 5569 843f 7ba2 5bf7 6303 983f
00000740: 6f75 07e4 5f37 c23f 44ae 69bf 2529 bebf
00000750: 3695 b68f 850b b13f 2a31 52ce 00b2 b93f
00000760: 91be 5cb9 e58a a53f f068 2cb8 8ecd c13f
00000770: f32c db10 f46b a9bf e1e6 d1e8 4b67 bbbf
00000780: 336c e171 006f a7bf 16c5 1161 0ec1 ac3f
00000790: cd2b ce4f e035 b5bf 06be d92c c4a9 acbf
000007a0: 7191 78c2 b5b8 953f cd60 e736 170b c4bf
000007b0: cfdb 6fcf f866 bc3f 47ea 5b62 0547 c73f
000007c0: cd11 d72e 375f b93f bd45 aa18 8873 ae3f
000007d0: 61aa 7fd1 43c1 d83f 747e fac5 b27f bf3f
000007e0: 2c75 37c5 4aab b23f 5d39 b20a c790 a7bf
000007f0: 7318 96be c435 a73f 25ae 9ec7 2066 c03f
0.08915206561225326 0.23747826513324505 0.1268210505240142 0.1689898224585754 0.13827292490009102 -0.2176239371972819 0.017405805058062954 0.07258727695506027
0.10911817900896137 -0.2648156839722927 -0.06326881258951678 -0.03315318950092265 0.05114864255824669 0.17031374061932172 0.026978796714289856 0.038453624054344424
0.12410316128319389 -0.025054087760883706 0.025647845956157964 -0.15951080923304053 -0.07203947591198792 -0.14598298237536933 -0.05750606817476734 0.031134950621804408
0.00979515441314196 0.007115517330776158 0.12046317020467737 -0.14775607255923048 0.05028253050514705 0.003962381191913988 0.1678510137278234 0.22157863844616751
0.1266134340093655 0.08755008296979817 0.08318415935105167 -0.013152251037430996 0.02377591689057021 0.19418880785858045 -0.11904184658270894 0.15056527377896375
0.36511847536203806 0.09439450657755491 -0.2595031560941218 0.03617750883450656 -0.19877579630004574 -0.03020050003902901 0.26820850584321226 0.08906724140345004
0.08734820380857114 -0.07190730010198455 -0.0148180330910449 0.040774202588695276 0.09200480205375594 0.09257544180275344 0.15647961212433692 0.03810784979911625
-0.006423699843571305 0.2883272767064323 0.2236800610563592 0.03745183743129626 -0.022347823003619136 -0.010776362889408678 -0.022438452961583564 0.058468756034223746
0.0008543223810750787 -0.019455057397718297 0.23578656233073716 0.20527498657571291 -0.07606095220671172 0.09969213640583839 0.1212062625231897 -0.04037272131587768
0.10439670680643075 0.09955037355631612 -0.14462398116622596 0.1782377705247155 0.03362915490584843 -0.14058994636506555 -0.15537434814730414 0.03696728158669888
0.028016168741023955 -0.23836693704988457 -0.1660721956150447 -0.024358915257005904 -0.0036481414349801653 -0.01209568472554829 0.03586761679327746 -0.14210031058875017
-0.13825384328493184 -0.042770276340380074 0.02442193644203396 -0.10148740042800578 -0.11172570013781441 -0.10519720447038235 -0.13188754420817447 -0.06890438489984704
-0.09222104649510014 -0.06911031819594365 -0.11301383553409214 -0.09271071506845488 -0.035435802472143514 -0.00866956321210645 -0.04324070723244004 -0.11238646713117366
-0.060080944332261854 0.031985854115269795 -0.19535584687516896 -0.03834695831471178 -0.06313602392417295 -0.021297411727642282 -0.05945307509197624 -0.0968275902678799
-0.1308734431848897 -0.05001405866957823 0.12892652905344051 -0.03355209946228183 -0.07084595654706229 0.10169035444614871 0.004736559669530369 -0.21890680794122652
0.058773557214473804 -0.04055691303181894 -0.11751854590608271 0.06094826797655714 0.054963132253380384 0.07304003705010494 0.09159618545593287 0.1200326116658563
0.03730617837438768 0.025670733373718765 0.19912538021814993 0.059237715450248134 -0.08641288515219869 -0.11212752018621919 -0.08647672125015861 -0.19151197217325314
-0.05146077685497509 -0.05818372305270343 -0.09868663003572518 -0.10916869630084812 -0.026894729798185732 -0.10308716924181527 0.006710741734354471 -0.015547207445863354
-0.05457866090829633 0.20713609187049467 -0.12646062461757038 -0.006146619526815115 -0.0453302116809875 0.07456061943974761 -0.07191690389658456 -0.2303756186350477
0.0999958969044065 0.03198251124973217 0.0920718167824663 -0.03461790688836111 0.20449340016398865 -0.07356296017855894 -0.005703130497231399 0.08134045988606387
-0.03805690364971633 -0.016234726953731075 -0.1217232230802828 0.015313316645240783 0.11798611468223835 0.03892844777074323 0.05453611359459018 0.11628042444823791
-0.04735781055802673 0.08453793748413482 0.08187044957486182 0.05280379560231848 -0.09597577840933415 0.12469282237391963 -0.050432052920986556 -0.12359767484909259
-0.09150196124153331 -0.05022886814219898 0.09531794164080172 0.01936781310138441 0.029940248716127483 0.16290859536537725 -0.04373652521189248 0.012416547089011711
-0.03430174209101714 0.05755268549751553 -0.04393056735232549 0.18553973621136655 0.10594038062168361 -0.09084291759269505 -0.11303607866143534 0.13207948934748384
0.041063431548069386 -0.00010993489224916565 0.001675129575687355 0.012561486248682408 0.03174378802670618 0.04439110294072018 0.12560870841990743 0.308726375685624
-0.018637848205826937 0.1781979892861549 0.24316879082880707 0.013575319021697233 0.11860588505693391 0.040019917245608036 0.05080335183336887 -0.13783896822322317
-0.19377677313181518 -0.07545226547270405 0.65124855793471 0.7064079166578098 0.16128954494618733 0.22786125576298535 0.26240052682862186 -0.07805552247898205
-0.10550914638170257 -0.019199454903687067 -0.11305665471858242 0.06025839232460921 0.022491553910304704 0.011721421404359871 -0.11647566609310403 0.0501958845459267
0.11932921752910557 -0.22076923652793573 0.014315216693872585 0.06645722702376802 -0.01029210308910897 0.17704120479900692 0.00996653435482872 0.023450433704882628
0.14231489786372317 -0.11781536029018819 0.06658205755828281 0.10037236249099082 0.04207532775614909 0.13908561699719924 -0.04965174394382101 -0.10704492982940962
-0.04576875105041047 0.056160401677411695 -0.08285333584187456 -0.05598271415226112 0.021212425226751323 -0.15658846073961855 0.11094622673395736 0.1818548898953216
0.09910912412221436 0.05947518635833713 0.38679595431191244 0.12304227193316725 0.07292620959147617 -0.046026439719855296 0.04533209635251092 0.1281167006212495

down_path.0.net.3.bias f8 [8]
00000000: 66a3 02e0 c37f b9bf 7385 72a1 cdca 8abf
00000010: 53bd f23f b802 b03f 279f 07a0 2f2f b9bf
00000020: 96e8 f95f 1a0b bcbf 6247 d47f beed aabf
00000030: 2c78 0340 5c8f aa3f 8236 6c42 0630 ab3f
-0.09960579127313238 -0.01308212899158676 0.06254149972186455 -0.09837625176407681 -0.1095444187466533 -0.052595093826439024 0.051875002683786725 0.053100772484055106

down_path.0.net.4.weight f8 [8]
00000000: 3e74 8546 6d3a f53f 7e4c 9607 27e8 e63f
00000010: d1d6 bc05 fc2d f23f a460 5b39 a2a1 f03f
00000020: 20a2 419f d375 f33f bda8 58cb d04f eb3f
00000030: 89e4 efd2 c2f9 ed3f 739a 1f16 bb17 f33f
1.3267643694628215 0.7158389232812536 1.1362266754271568 1.0394613495355225 1.2162662716820094 0.8534931155784516 0.936738407122122 1.1932936538884433

down_path.0.net.4.bias f8 [8]
00000000: 61b7 ed02 9302 c03f 5587 552c 9424 c03f
00000010: 61b8 0020 7740 c93f 198d cbdb 2d10 d73f
00000020: 0fb4 05a9 c1e9 e43f 9ddf 9c42 853a cdbf
00000030: 02d5 8add dc6c 71bf 9bfb 73fd 484b ce3f
0.12507856028554 0.12611629643202585 0.19727982580792783 0.3603624960362182 0.6535347272125608 -0.22834840538575643 -0.004254210238902491 0.2366725194514999

down_path.0.net.4.running_mean f8 [8]
00000000: 446a 6bf6 7703 e43f ec2b 3dcc 8b67 e6bf
00000010: 99c1 8d29 51e1 e13f 5607 13df 2b87 d03f
00000020: f8f8 325d 0376 b63f 10e3 a251 ef0a c0bf
00000030: cdbd 8060 f399 c33f 09cf 25e9 2ef9 d43f
0.6254234135515806 -0.7001399029771824 0.558754521522178 0.25825020584681135 0.08773823762291844 -0.12533370481630657 0.15313570224814868 0.3277089382965959

down_path.0.net.4.running_var f8 [8]
00000000: ced5 5a6c d138 ff3f b113 4001 dcbf f33f
00000010: 0381 b0b1 0a18 0340 8ce9 2548 c9a3 fb3f
00000020: d698 8a75 7cc4 0440 9aec 18ca 6d60 f63f
00000030: 31c3 276b 92d4 f03f 5ddd f62d 91d2 fa3f
1.951371596585307 1.2343406723823416 2.386739147376035 1.7274868791851956 2.5959405119821026 1.3985422033718238 1.0518974481348773 1.6764079852562965

down_path.1.weight f8 [16, 8, 3, 3]
00000000: 4334 f53c 863a b5bf 73c2 5679 4763 99bf
00000010: 7438 1b26 171f a83f 6ed8 d323 b76f 7f3f
00000020: 5042 936e 40fe 953f 33db b194 3cc6 b03f
00000030: 0cba 37e3 6d6e 613f b644 1e61 306e c5bf
00000040: a4d5 bacd 9199 b2bf 2fe3 869a c557 c5bf
00000050: 100e 2727 cefc c3bf aa25 c8ad ac1b c4bf
00000060: 0377 c97a ca31 9e3f 167b 78a0 94f7 9c3f
00000070: fc05 4870 286a a13f 8953 d2e2 b9f3 66bf
00000080: b977 dae9 aefb 89bf 208c 0ba0 3031 5d3f
00000090: 5f08 a8d5 a9ec b0bf a856 be8b a73a a4bf
000000a0: 8aae eb4a b6e7 b6bf 4995 6a66 707a 683f
000000b0: 5e62 5d3c 79da cabf 506e 41e5 dece c4bf
000000c0: 5a13 6bbc 4c02 bfbf c576 67a6 86b9 cabf
000000d0: ecf0 cc26 9117 a83f 0478 9e3d 1622 b5bf
000000e0: d3a6 881f 6fd4 c2bf 1fc5 02b0 92b8 c1bf
000000f0: 7d42 8a20 c6da 8f3f a785 1591 72e6 c1bf
00000100: 0102 df51 3633 bfbf e619 4a81 4a1d 6f3f
00000110: 1b53 3e11 5ddb 953f e38f fc13 8e77 b0bf
00000120: fb70 c8f3 7131 b9bf 6cd4 2784 c6a3 ac3f
00000130: fe50 91cd d301 b93f da0f f6af 75bf acbf
00000140: 98d5 77f4 f100 9dbf 37e8 35f7 3a8f a33f
00000150: 22d8 870a eb4a 9ebf fa52 65d9 95a0 ba3f
00000160: 76f5 e844 9a6f a3bf 3c33 dae2 e03f b23f
00000170: 34dc a907 f9d8 823f 3b12 4c80 76ea b33f
00000180: 64cf fca9 7694 70bf 4835 15dc 0c3d abbf
00000190: 7a7f 667d 6a36 953f 5b76 4201 b088 ac3f
000001a0: 0221 f619 dcf9 b83f 0e3a 839a 378b a2bf
000001b0: d872 ef8f 0c64 c0bf 148a 1fb3 249a b0bf
000001c0: 63ce 1476 6d05 bbbf 2448 49f3 e7cb babf
000001d0: a120 f289 730f b5bf 092a bf42 8290 c5bf
000001e0: 69f4 9b05 9e7d 1ebf d448 9fdb 2c7d bbbf
000001f0: abdd bcaa c790 bebf 1989 67a0 fb47 a13f
00000200: 15dc 8a14 ea16 c7bf e5e3 a67b 37f5 a9bf
00000210: 2346 f783 b00c c5bf 831d 414c 1241 c3bf
00000220: 5870 2438 86d9 893f 60da 160b 395d cbbf
00000230: e673 f1fa 43e5 b53f 16f9 1502 d6b5 cc3f
00000240: 1cd0 46ac 50df c23f b2ea aece fefe a73f
00000250: a598 e2c8 51c0 a83f 9ec7 3334 9de5 c43f
00000260: 72f7 f62f 7cbb a53f d397 e240 9b0d 8bbf
00000270: 9f27 71ff 4fe6 78bf 7e84 b1f2 1f37 b33f
00000280: 94ad 563f 2f11 c13f 74ac 9004 86af b8bf
00000290: 24c7 76a1 3de4 93bf 285b f79a c91e 9fbf
000002a0: 929c 01bd 91e6 b6bf 0cfa f872 fab3 b4bf
000002b0: 0621 6955 d873 a4bf 5ee1 de29 ba12 a7bf
000002c0: a96b 49ca 4a99 a4bf b24d 329a e2c3 aabf
000002d0: 1605 195f f2c8 9a3f 01d4 7d3f a741 b63f
000002e0: 6a14 0430 3707 80bf 7095 771d a73e b5bf
000002f0: 5360 0c47 f7c8 b13f 8794 af8e 0b31 c43f
00000300: 955e 4dbb 932c aabf d3e3 4282 8275 b5bf
00000310: 9a9a 54a0 5b15 b5bf a282 5a2a 1fd0 b93f
00000320: e5e2 df85 4565 c93f dc85 b398 8ce9 c03f
00000330: c284 cb03 5d60 b53f 65b3 c361 aad3 a13f
00000340: 321c d87d 3ec7 c33f 69cb 1d9b f76f 9fbf
00000350: 6cdc 2bca 3926 d33f 865b 308d 4e5c 983f
00000360: e9d9 ea3a 321e 7ebf bf4c 6226 e08b c2bf
00000370: 17fc ba89 65f3 b13f e8d7 bb8b 05c1 a6bf
00000380: ecfd 45f5 7be0 803f 5e95 4ccb 45ec b5bf
00000390: 85b9 304d 700a a13f e9f2 170c f37e bdbf
000003a0: ce23 9190 01a2 b4bf 9bf8 1cc2 a502 743f
000003b0: a3ed bf6f 0d8f c13f 7633 c0ab d5cf a43f
000003c0: 4102 9b31 42f2 a43f 65df 5192 2011 ad3f
000003d0: 3b35 37b0 4c46 ad3f e0cc 07b3 96d8 983f
000003e0: c248 bbe5 d807 9fbf 607e 4edf 73e2 b7bf
000003f0: a674 8478 81cf be3f e524 f6e5 37d1 aa3f
00000400: 628d 8196 b081 bdbf a6c4 f381 9220 b83f
00000410: 6811 e247 bf3a 98bf 9bc1 2fa0 2eda b0bf
00000420: a442 0817 eee3 8c3f 61d2 0079 6e59 bebf
00000430: bfd7 025f 4b4d b9bf 83a1 1f15 a2d6 b53f
00000440: 85ea 5b96 bdd1 b2bf 8aa1 636c 7099 b0bf
00000450: 9818 bc87 9431 c43f 03ca 7875 981a b93f
00000460: e6a1 376a 4e93 a1bf f907 5918 6c61 993f
00000470: 20c6 7982 6f8b b63f 23f2 1ac7 c606 c53f
00000480: 5f59 f4b0 38c7 c23f 012d 8ad7 aaf7 9dbf
00000490: c876 a089 4ff2 983f 7e22 e723 3e69 afbf
000004a0: 2199 701a eff0 a23f b3c6 9616 e7f9 c43f
000004b0: 4855 cfa0 8186 b23f b745 fd7f 4320 753f
000004c0: e049 bacc 0dcd ba3f 3062 1cb7 0e63 a9bf
000004d0: c05d e1f2 c7ea b6bf 4f6f 96a8 f38e 9e3f
000004e0: 0860 99c6 c6d5 b5bf 0611 7b9b f5fa a5bf
000004f0: bf0b 2104 562b 7cbf 924f df22 7aad 903f
00000500: 67ce e090 5043 c1bf 333e 60d6 8178 c0bf
00000510: ddc8 9c9e 6743 c7bf 8863 2fb8 d3f7 cbbf
00000520: 4b58 4d83 a2a2 c1bf 66fc c6b7 ea2d b6bf
00000530: ace5 073f 3ccb bbbf aaab 116f 5f6a c1bf
00000540: 1144 b719 8296 8dbf 9dbf 7283 3366 b8bf
00000550: 17d7 b65e a1fd b3bf 8e95 870a eaef b03f
00000560: 60da f9f7 1516 a83f 6797 a17f 1e07 bfbf
00000570: 68d3 0b15 d3e1 b1bf 1637 25e5 cda8 b4bf
00000580: 0f1e e1a3 5462 b8bf 47de cb88 0fe1 943f
00000590: f889 9c0f b7ba 87bf f22c 199e 1089 aabf
000005a0: f7af 3a25 02c6 c13f 9940 5a38 77b3 5d3f
000005b0: ac50 8956 9ac3 9a3f 9286 3a10 a413 8cbf
000005c0: 97d6 36a6 f163 7bbf 1683 634c 6a7a ad3f
000005d0: d82e e06f ddf3 b73f 3c04 aec8 e93f c33f
000005e0: 2232 d62e ae4f a03f d747 3840 c2c7 a7bf
000005f0: 3821 5292 78c2 c4bf 48e9 e054 f91e ae3f
00000600: 6c5d 39ab 861d 623f e677 b317 3519 a63f
00000610: b293 512a d5dd 8b3f 17d8 c722 fe1c c5bf
00000620: 4d4f 7acb 6978 b8bf b8da 6e9c 2774 bfbf
00000630: 7afa f675 7883 c73f e4da 74ba 7681 c43f
00000640: 01d9 4ae1 7cf5 b83f 67ca 9a0c 9bbb bd3f
00000650: f3bb 6622 199b bf3f 5c7d 79c3 575c a13f
00000660: 4d01 3bdb 905a acbf 600e 5e88 2702 b03f
00000670: 67f4 6ece d2c4 b13f ad29 ac1f 7e9e ac3f
00000680: e31b e3ab 6cf7 853f 71f3 f4a8 1f42 c53f
00000690: 9562 193f d8e5 b63f 89b9 a2e7 a324 ca3f
000006a0: 8a44 e584 e20d b03f cae7 1b5b a1b3 c33f
000006b0: c750 f2b2 71a0 c63f 3bf0 fa50 a9f2 c13f
000006c0: bd64 909e 96be b93f 586f c095 3e05 b63f
000006d0: 6709 f441 3f15 b53f 2d0f e880 30fb be3f
000006e0: 2f3a 871b c378 c83f f695 923d 85d7 acbf
000006f0: 0906 24b6 5f4f b6bf 8378 f5b8 ecea a33f
00000700: 4d60 e032 af3c 86bf ec70 5a39 70d7 90bf
00000710: e1d2 331f dedb 63bf 5244 d012 dc3d b73f
00000720: ef00 499d 154b b83f 8ea6 8ce0 2c2c c0bf
00000730: d6a6 2d83 7807 963f 59eb de9c 714a 9cbf
00000740: c190 f191 e7da a53f ad8a a010 dbef b23f
00000750: 866d 8800 c91a 723f be54 292a ecfe b6bf
00000760: 5897 f2b4 1fea c4bf 0913 19b4 927e 97bf
00000770: e894 3d2c 58fb cabf 4db1 8dc8 1757 d2bf
00000780: 1319 3995 b3ab 6a3f 7051 8e35 44e3 b7bf
00000790: d77b 8f92 4460 9dbf f71a 47ae 77ed a8bf
000007a0: b7e6 3f3c 03c0 aebf 0bd8 d66c 6d37 a63f
000007b0: 940e 51ea ad6b 623f 446a d3e9 a201 aebf
000007c0: b0f0 e86c aa00 ac3f 943b bd90 1dbb a3bf
000007d0: 0cd9 5444 9b10 c3bf 1108 ef9b 4861 873f
000007e0: 06b9 29af ed09 aabf 9a25 8881 ed50 b6bf
000007f0: 88ef e261 ee21 adbf 99ae 01f1 e36c b33f
-0.0829242609808754 -0.02479278257459545 0.047112201120044356 0.007674899473604764 0.021477705716110684 0.0655248511337561 0.0021278520814498377 -0.1674252008638512
-0.0726557853002619 -0.16674108548411357 -0.15615250503297817 -0.15709455953064594 0.029486812347719226 0.028288194937085974 0.03401304598447649 -0.002801764544140221
-0.012687078963889197 0.0017817473273502651 -0.06611119714946899 -0.03950999813893691 -0.0894731457626056 0.002988070994734447 -0.20979228446482784 -0.1625631923114832
-0.12112884140067362 -0.20878680348589831 0.04705480192794362 -0.08255137447710587 -0.14710797347770796 -0.1384452208926996 0.0155539969139522 -0.13984520038779388
-0.12187518595511194 0.0037981467415335477 0.02134461801286412 -0.06432426441148169 -0.09841072274906885 0.05593700755336148 0.09768413323155653 -0.056148221711765436
-0.028323917909764157 0.038202135731765834 -0.029582664983500824 0.10401283795847496 -0.03796083537279575 0.07128720796954452 0.009202905222293813 0.07779636986021725
-0.004047835856727609 -0.053200151315290045 0.02071539297469325 0.05573034301162912 0.09756255754303214 -0.03621839295520966 -0.12805325534909318 -0.06485204098820702
-0.1055515683445321 -0.10467385949712643 -0.08226701848809849 -0.16847255953901222 -0.00011631276120378929 -0.10737877237196197 -0.11939666670229225 0.033752311068172065
-0.18038679125831494 -0.05069898018286504 -0.1644497532238783 -0.15042332385403875 0.012621925915077423 -0.21378243485897297 0.08552956463377334 0.22429919339988008
0.14744003688758844 0.04686733506192321 0.04834228112422182 0.16325726555765824 0.04244602284914735 -0.013209546010624884 -0.006079018107877503 0.07505988764889257
0.13333693115906142 -0.09642827617123989 -0.019425356845835698 -0.030390882571590755 -0.08945570816432483 -0.08087125117251776 -0.03994632761583898 -0.04506475220790905
-0.04023202628442075 -0.05227573520928831 0.026157176069550557 0.08693929004751057 -0.007826262619810193 -0.08298725575840193 0.06947274670199137 0.15774673907359135
-0.05112134610561473 -0.08382430725295302 -0.08235714592283686 0.1008319357301937 0.19840306317180204 0.132127356110728 0.08350163786555512 0.03481800502218028
0.1545179476235901 -0.030700558512261198 0.29920811408323433 0.023789622657286034 -0.00735301610136794 -0.14489366411416957 0.07012018787916961 -0.044441388423294204
0.00824066965355904 -0.08563648427351242 0.033282765791557124 -0.11521834416630451 -0.0805970170923864 0.00488533734625043 0.13717811543015754 0.040648152557060266
0.0409107862046807 0.05677129541521601 0.05717696810789127 0.024263720204498962 -0.030303372403815095 -0.09329914285489727 0.12035378639525848 0.05237745935580466
-0.11526015924896663 0.09424701378499609 -0.02366160274734011 -0.06582919512562173 0.014106617048157695 -0.11855211691074309 -0.09883566922766727 0.08530629173004027
-0.0735128872001188 -0.06484129568310074 0.15776306750939706 0.09806206577267322 -0.0343269829425628 0.02478569887740176 0.08806511817399398 0.16426930162369144
0.14670475616794484 -0.029265088468076964 0.024361841940950396 -0.06134981334941346 0.03699443052055274 0.1638764248178198 0.0723649041750224 0.005157722160065096
0.10469137428507436 -0.049583873608018414 -0.08951997451492044 0.0298421928069808 -0.08529322002993933 -0.04293029330213653 -0.006877265930657238 0.016286762598454248
-0.13486678194168464 -0.12867758719993247 -0.1817445301508717 -0.2185005807248468 -0.1377757207034754 -0.08663813578367438 -0.108569875133887 -0.13605873988430278
-0.014447227868830155 -0.095309466926436 -0.07808884203299403 0.06616080052443449 0.047043501396662135 -0.12120237937923904 -0.06985205901930913 -0.08070074886674336
-0.09525040627442415 0.020389788364779695 -0.011586599506306236 -0.051826972293008824 0.13885523622354842 0.001812807489304935 0.02613679078270141 -0.013709336991556218
-0.006687110846021269 0.0575745790718029 0.09356483441677754 0.15038797663513204 0.031857913224574 -0.046445913638436025 -0.1621847834069372 0.05883006249537687
0.002211344742857049 0.04316106714553296 0.01360670600315381 -0.16494728754304397 -0.09558736055106216 -0.12286613053479811 0.18369966278074285 0.1602009210998495
0.09749584675123303 0.11614388520937667 0.12346036043048496 0.0339076448551576 -0.05537846256402421 0.06253287390978235 0.06940953769567813 0.0558967031157239
0.01072583102758346 0.1660804343208855 0.08944465199000214 0.20424317179044874 0.06271186584969449 0.1539193816059295 0.17677136647819777 0.14021793798554136
0.10056439753715814 0.08601752430007303 0.0823554550188753 0.12102034709101579 0.19118536800529415 -0.05633179070109044 -0.08714864918513156 0.038901708200442385
-0.010857933750273352 -0.016446832180563684 -0.002424177009397219 0.09078765353503229 0.09489569749803527 -0.12634812321021055 0.021512873655786212 -0.027627730559952244
0.04268573433435697 0.07397240787444544 0.004420075573331577 -0.08982730893451937 -0.1633948930295286 -0.022943775408083265 -0.2107954231279685 -0.28656572900105887
0.0032557017782749525 -0.09331156070249391 -0.028687545247404102 -0.048686733268871345 -0.06005869017094539 0.04339162782291347 0.00224861114341641 -0.0586062345916685
0.0546925790735896 -0.03853695289455242 -0.14894429050918523 0.011416022547454248 -0.05085699809284176 -0.08717235958478967 -0.05689949936774413 0.07588028558682892
