results/run_1/saved_model_unet17.pt (torch, 350624 bytes, 75 tensors)

down_path.0.net.0.weight f8 [8, 4, 3, 3]
0.01724762770637711 0.28998232677432273 -0.11813902336081693 0.34310718537279994 0.36835268200888316 -0.09104472963108529 -0.2151877274202629 0.7549635211340083
-0.06534259721289322 0.3454640578774611 -0.09691060265948476 -0.08154261242733275 -0.3964317450616504 -0.6838974259420705 0.1861479052716875 -0.018670535112968827
-0.08590335894371658 0.013603866303988603 0.2662077335940628 -0.034791729791151596 0.022730802089933604 0.39081558975635117 0.16973759488012863 -0.1120536034911997
0.5569406335988305 0.18039671051862666 0.2781261824480792 -0.12333537393840854 0.23302438905453876 -0.22128507193150734 0.3590631856787648 0.4605731385983136
-0.15775779486228722 0.3687685096010161 0.4164946921869391 0.06146073973927697 -0.06747779715886915 -0.1512095897080994 0.05263997412648262 -0.3701522840624257
0.17697335767076136 0.5935737978666161 0.04537749267266534 0.14632236096309445 -0.15589655117958584 0.25327144435272125 -0.4023922766647652 0.4929101425554971
-0.2499449977457005 -1.372647351297088 0.3264468376798452 0.1929590887407726 -0.5699268289060673 0.06658412760967412 0.1687694061542045 -0.34306567587737746
-0.06548057834263574 -0.1938697538855237 -0.2838929123932025 0.44771333345073266 0.1556896554654231 0.00047187341968794 -0.18363964144972286 -0.2014450993157498
-0.21497762824287917 -0.2011356269260485 0.011786710394243468 -0.01860717037211932 0.2859914274653013 -0.058344734989076844 -0.3228619776379304 -0.2185714422270703
-0.05109199324507888 0.11824991811762314 -0.06304488694996493 -0.16193021076700817 -0.07069206604442994 0.14778879897388916 -0.15202636576983472 0.17465224177066574
0.011967203149660988 0.2970814508028607 0.2210989517902725 0.04593725328138314 -0.03695571688722849 0.24426040009480682 -0.041619121099930816 0.012032268610596517
0.025101261648536842 -0.07030546097122478 -0.1981958922473381 0.19252766749756609 -0.5413867800027796 -0.27186355931536643 2.055188587649923 0.25453967718781273
-0.408842094975047 0.30449916407941036 -0.4012360899247717 -0.06481431776281024 -0.13514071358518107 -0.17522115823915538 -0.12476019490432086 -0.011103062174017872
-0.10342921087875562 -0.11517474025914885 -0.12430997842329006 -0.2386437846217307 -0.2504013451951953 0.6032451944514143 -0.3090214917135914 0.34960408481536387
1.5292380525377933 0.13250384087532238 -0.2756240666949628 -0.4314207310881764 0.052073637211955424 -0.01920399135004071 -0.27735600773605507 0.27160413645448567
0.9840442182453236 0.4632287426775685 -0.4072509893376507 -0.04192216733917163 -0.0578498186369676 0.05660731895702621 -0.20299774790101277 -0.08006716279642048
-0.15164470644962524 0.05850549188758747 -0.000423043746112621 0.018774414167794226 -0.12001782575574109 0.11424075958435938 -0.3145136452618234 -0.29640885894917673
0.16095407066843398 -0.23128126658035894 -0.36613950702718545 -0.243174565674078 -0.18419960052615303 0.0670911578211557 0.1302352167433424 0.07546535849398468
0.25405470117334067 -0.6160847925006582 0.2257552844512129 -0.39235936464416676 -1.3377477290806037 -0.11702048110953468 0.11775115416767211 0.4655643092871998
-0.02643891868597616 -0.07736331667157978 0.24988084180782968 -0.3015687867061648 -0.8965014586067994 -0.11914741302947779 0.35003594807079996 0.05477445073117041
-0.17453302493178052 -0.022845368196190888 0.1594820144492136 0.21707663080067793 0.15932180838699658 0.06947838236239566 -0.3139936657010134 0.04360831967292029
0.10983145406184346 -0.07143243811889086 0.3200078795860507 0.09614404684856558 0.2778267774194456 -0.025053875053363237 0.14003392567415704 0.33433558678249564
0.06593786324387588 -0.11850147728697785 0.1350712622026096 -0.0679439698564678 -0.024115658669130378 0.13972412658194597 0.027223333893115688 0.14786351056523114
0.0056439089852518875 -0.1977317316476766 0.2515435945782219 -0.29632015687435953 0.03940133429197689 -0.2955072034577775 -0.2807394255487386 -0.024152315081948494
0.042747621247430076 0.03673830747333488 -0.13145118348400267 -0.06632230309104696 -0.04614345339981275 0.15339875355292706 0.17886509013787788 -0.2354101482309497
0.45133605133963145 0.2557926919221154 -1.755226858317993 -0.250442697308882 0.3667469591282171 -0.350016076700879 0.3902595391913575 -0.01956871153130361
0.09199384059266785 -0.005925518729201452 0.017092046232984357 0.082460647242721 0.3469227308418015 0.026414734458711127 0.18683284161348007 0.18247277737974785
-0.058064487631366735 -0.10454651000911606 0.13464940560590705 -0.24098508467233265 -0.49014398104415974 0.03124758086020065 0.16573991196628635 -0.450702464683669
-0.022873900111867292 -0.1613266469839474 0.08370848160684227 0.008478922111612166 0.24101558685657898 0.34608547713255566 -0.11010589900355951 0.06740883046817756
0.2868187773749136 -0.0350862194200409 -0.03899983141452692 -0.029521674095793732 0.1035674015872844 -0.3691549852236654 -0.5237353879528692 0.15099330723759488
-0.27753243201482747 -0.15511439612790906 -0.15744944036363542 -0.12876987958281025 0.044893306106824085 -0.16127408813218588 -0.07373479044323986 -0.18476188098400254
-0.11334187679858057 -0.27977980509602696 -0.20393219011278066 -0.11825424170018187 0.1778303819570353 -0.3142830144049193 -0.03307157585413759 0.3684413990744219
00000000: 40da bab3 5ca9 913f 157a 7a08 128f d23f
00000010: 9751 b7e9 5b3e bebf e6b8 0cd7 77f5 d53f
00000020: 84cf a720 1793 d73f b419 3d18 b54e b7bf
00000030: bfa2 e27d 458b cbbf bb31 1e42 a928 e83f
00000040: e5a8 10de 4aba b0bf c5bc a147 151c d63f
00000050: 1ce2 0e1d 22cf b8bf 8915 9b05 fadf b4bf
00000060: 31b4 0841 235f d9bf 3cac c7da 7ce2 e5bf
00000070: d22e aece b1d3 c73f 8b09 d666 5e1e 93bf
00000080: bfa1 4735 c3fd b5bf 8f90 ff06 58dc 8b3f
00000090: 56a4 6e29 8c09 d13f aa9f 3fbb 38d0 a1bf
000000a0: 5e3a 5a4e be46 973f 8f4f 3164 1f03 d93f
000000b0: 7cb7 7425 f6b9 c53f 84c6 6482 8baf bcbf
000000c0: 1adb e329 75d2 e13f b2e2 fd49 3d17 c73f
000000d0: 30a7 71c2 d1cc d13f 9861 8135 e892 bfbf
000000e0: 926e 1441 bed3 cd3f 6ff8 84b9 1153 ccbf
000000f0: 1106 ec27 e4fa d63f 8488 ecc1 077a dd3f
00000100: 5fb1 cf4c 6831 c4bf 55fc 213c e799 d73f
00000110: a1a1 795a d9a7 da3f 5a19 5636 c877 af3f
00000120: 10e3 0094 3946 b1bf 90a5 51f9 d55a c3bf
00000130: 76ca ab6e a0f3 aa3f d99e a534 93b0 d7bf
00000140: 13c8 ba1f 10a7 c63f 2d30 337a 8efe e23f
00000150: e1d4 01fe b73b a73f 9b47 81ed b0ba c23f
00000160: c210 700e 6bf4 c3bf 1b5c a06e 9935 d03f
00000170: a80a 1c89 cbc0 d9bf ab1f 89fb d68b df3f
00000180: 02ec 8e9b 32fe cfbf 3831 ac11 5df6 f5bf
00000190: 6fec ed46 81e4 d43f 30c5 cd27 e2b2 c83f
000001a0: 2a77 6830 d73c e2bf 5f28 844a a80b b13f
000001b0: fab2 ff63 3c9a c53f 9280 91bc c9f4 d5bf
000001c0: ae39 81ce 55c3 b0bf 329a 4f5e b9d0 c8bf
000001d0: 3fe1 922d 4d2b d2bf c9db 49d3 55a7 dc3f
000001e0: 0356 467d a3ed c33f 5f0a c9e7 b8ec 3e3f
000001f0: fb4a 23f7 8081 c7bf 3b14 c0f8 f3c8 c9bf
00000200: 3d60 560d 6384 cbbf 599a daed cfbe c9bf
00000210: 6b97 5d7d a123 883f fa9d e010 c20d 93bf
00000220: bd96 f9fc ae4d d23f 9aff 5771 5cdf adbf
00000230: 33ea c448 c5a9 d4bf 8e37 1a26 26fa cbbf
00000240: 256f 26d0 ba28 aabf f4e2 116b a045 be3f
00000250: 524f a1af b523 b0bf 9f45 bd0f 21ba c4bf
00000260: 135c bf0f e018 b2bf a36b 274d beea c23f
00000270: f33a 8e96 9975 c3bf 00ff 4931 015b c63f
00000280: 2014 38d1 4282 883f c793 dcea 6103 d33f
00000290: b43e 8f6f f84c cc3f a7f1 0571 1685 a73f
000002a0: 799c dc16 dceb a2bf a2ba 0ebf ec43 cf3f
000002b0: ff61 06f8 194f a5bf 1800 6fc1 5fa4 883f
000002c0: f6a7 7927 25b4 993f 6e03 9ae7 89ff b1bf
000002d0: 97b1 b3a5 7b5e c9bf 2b15 bd21 bfa4 c83f
000002e0: 6e28 535e 0a53 e1bf 34f4 0e6a 3666 d1bf
000002f0: 018d d8b6 0671 0040 5f96 43c9 604a d03f
00000300: 4a57 c908 782a dabf 9058 d80f ea7c d33f
00000310: 73ea 0c23 daad d9bf 1294 1acf ab97 b0bf
00000320: 236d 9a78 4a4c c1bf 372a 1a9c a56d c6bf
00000330: 9ee6 f4bc 48f0 bfbf 2b05 62c7 33bd 86bf
00000340: 44e3 2c36 567a babf c703 bd7e 177c bdbf
00000350: b8fd e45b c7d2 bfbf 3a08 2c29 e18b cebf
00000360: a237 1f5d 9306 d0bf 606a b4dd c84d e33f
00000370: d4f1 2a14 02c7 d3bf b01e b5cf e95f d63f
00000380: 452d f751 c277 f83f ebb2 93c7 e2f5 c03f
00000390: 3d81 1c20 d3a3 d1bf a9c4 b5b2 659c dbbf
000003a0: 9b44 9e51 65a9 aa3f 6451 340b 36aa 93bf
000003b0: a8d4 a469 33c0 d1bf 0cf1 e150 f661 d13f
000003c0: 45cf e54c 4a7d ef3f c382 172b 8aa5 dd3f
000003d0: b601 1e74 6610 dabf 1efb 6583 d276 a5bf
000003e0: 4228 40ce 7d9e adbf 42f3 446f a2fb ac3f
000003f0: 98c0 3288 d4fb c9bf c2b2 b115 487f b4bf
00000400: 4405 68ff 1769 c3bf 5050 968c 6ef4 ad3f
00000410: 80a3 e80d 7fb9 3bbf 5cb0 689b 9939 933f
00000420: cbd4 8efc 7cb9 bebf 35f7 48e6 e13e bd3f
00000430: d1e5 22d7 fd20 d4bf e99b dbdc 5cf8 d2bf
00000440: 5ee9 d69a 249a c43f c7ee 11e2 9f9a cdbf
00000450: 0624 1d66 d46e d7bf 7f03 651b 5820 cfbf
00000460: 8819 193e da93 c7bf bf50 b1d8 e22c b13f
00000470: c59d 592e 8cab c03f a56b b69e b251 b33f
00000480: afcf 3ba6 6e42 d03f 034e 6b74 f7b6 e3bf
00000490: 56fe ce95 8ce5 cc3f 2844 db73 6a1c d9bf
000004a0: fe30 ab29 6a67 f5bf 09e0 53e3 0df5 bdbf
000004b0: 5f66 378c f024 be3f cdb1 a43e cecb dd3f
000004c0: 4538 64cc cd12 9bbf 06b8 0313 15ce b3bf
000004d0: fd14 bb6d 18fc cf3f a26e 192b e74c d3bf
000004e0: 400a b1d3 23b0 ecbf 2c57 5de2 7180 bebf
000004f0: 34dc 582d fd66 d63f 55ee 1795 650b ac3f
00000500: a2b4 1321 1957 c6bf c424 12b5 c664 97bf
00000510: 7306 2e1a e869 c43f 3fe4 01c3 2ac9 cb3f
00000520: bbe6 4732 a864 c43f 5f85 06d4 55c9 b13f
00000530: 9091 55e3 7818 d4bf 294c a865 d453 a63f
00000540: df8a 4407 ea1d bc3f 2e1c 9871 6549 b2bf
00000550: 8233 5254 027b d43f 3770 eb70 e59c b83f
00000560: c40d bef6 e9c7 d13f 6914 f817 b9a7 99bf
00000570: 8bed 8cb5 a1ec c13f 9eaa c716 c165 d53f
00000580: 6258 33c6 4de1 b03f 6caa 79e1 1c56 bebf
00000590: 3913 e5de 034a c13f ca72 7ea8 c664 b1bf
000005a0: 69be 3875 c6b1 98bf ffd8 10ed 7ae2 c13f
000005b0: 9a3c 0903 6fe0 9b3f 2320 1307 31ed c23f
000005c0: 654d 3648 111e 773f ba73 67fc 454f c9bf
000005d0: edd4 0e4e 4a19 d03f 12f1 bad1 e8f6 d2bf
000005e0: efd5 6764 692c a43f 4059 a50b 97e9 d2bf
000005f0: 897f db7e a2f7 d1bf 833f 996d 62bb 98bf
00000600: a6a0 7a26 04e3 a53f b67b 370a 5dcf a23f
00000610: e9c9 0a73 64d3 c0bf 837d c59a 7ffa b0bf
00000620: 12ab 8d5e 1da0 a7bf e7e4 e002 92a2 c33f
00000630: 48e6 4420 0de5 c63f 5233 e673 eb21 cebf
00000640: 8d9b 009b b0e2 dc3f 5c1f 974f e85e d03f
00000650: f095 18c2 6815 fcbf dcac 9dce 4007 d0bf
00000660: b43d d73c c878 d73f c649 a0d4 a966 d6bf
00000670: acd9 7125 03fa d83f eb0c 3500 d209 94bf
00000680: fc68 c788 e88c b73f 8ec8 7552 5b45 78bf
00000690: e99a 5ece 9380 913f 834e 1d17 241c b53f
000006a0: 5017 cd65 fb33 d63f 82df 87d2 760c 9b3f
000006b0: fe39 4678 23ea c73f 9fce a099 445b c73f
000006c0: 4016 dfe6 a0ba adbf 4f6c 6661 8fc3 babf
000006d0: 2e69 c014 313c c13f 26e8 be68 99d8 cebf
000006e0: 459e 3adc 845e dfbf 46a5 7ea7 5dff 9f3f
000006f0: 50c0 c426 f736 c53f bfbf 8226 4fd8 dcbf
00000700: df56 a673 416c 97bf 697b 6200 5aa6 c4bf
00000710: 4e32 e646 eb6d b53f 01cc 65a9 655d 813f
00000720: 5408 b047 99d9 ce3f 98e9 79b3 4326 d63f
00000730: c124 5173 e62f bcbf d68a 5282 b441 b13f
00000740: a90d 2d25 3d5b d23f f511 e629 d2f6 a1bf
00000750: f326 f330 c9f7 a3bf 78f4 0e03 ee3a 9ebf
00000760: 09c4 bfaa 6483 ba3f 7239 2c3b 3ca0 d7bf
00000770: 887e 60b7 70c2 e0bf 790b 40aa bf53 c33f
00000780: 5250 c563 17c3 d1bf 560b 41dd c9da c3bf
00000790: 0d52 91a2 4d27 c4bf bf4e c20a 887b c0bf
000007a0: 5285 1363 41fc a63f a727 1c1b a1a4 c4bf
000007b0: 0af8 8781 48e0 b2bf 8ed6 2ffe 46a6 c7bf
000007c0: 82fe 1d26 f903 bdbf 04ff 3d8e e9e7 d1bf
000007d0: 016a 9133 731a cabf fa2e b7f4 e845 bebf
000007e0: c9cd 5e5d 25c3 c63f dbac 2381 361d d4bf
000007f0: 2500 71f1 c1ee a0bf 9b18 e13b 8b94 d73f

down_path.0.net.0.bias f8 [8]
-0.15212874371922128 -0.14279824496612134 0.15153052172649573 0.0723244424514876 0.05283394306343218 0.1446309583152231 0.08969982721919655 -0.019848363699986615
00000000: 951e 8765 f478 c3bf c720 0780 3647 c2bf
00000010: 789f 9425 5a65 c33f a7d3 07cb da83 b23f
00000020: 65ff 26f3 0c0d ab3f a4fc f969 4483 c23f
00000030: 3701 5d60 91f6 b63f 73d9 e123 2153 94bf

down_path.0.net.1.weight f8 [8]
0.9164198384809511 0.8661473123688229 1.592209603112184 1.0498973375896863 1.1252521907816437 1.1845314381916343 0.9554790083018507 0.8184257556899184
00000000: 1bcd 75b2 4f53 ed3f 778e 8491 7ab7 eb3f
00000010: 4de7 dbc6 b079 f93f cbae 9126 61cc f03f
00000020: 5d8d f270 0801 f23f e2de c13c d7f3 f23f
00000030: 8478 95b6 4893 ee3f 9a8d dc35 8b30 ea3f

down_path.0.net.1.bias f8 [8]
0.20854977194801144 -0.14835201543198442 -0.07822490755063621 0.00044596828720300447 0.05571470420476059 0.17243973506467603 -0.14026708642096195 0.15960801564157318
00000000: 926f 0d49 c2b1 ca3f 59bc 49e7 32fd c2bf
00000010: 8ca0 a92b 8c06 b4bf 2628 6635 1b3a 3d3f
00000020: 2678 ee40 a386 ac3f b01c 5157 8112 c63f
00000030: eb0d 719a 45f4 c1bf ea14 ae13 096e c43f

down_path.0.net.1.running_mean f8 [8]
0.0014254021667476616 -0.24437099563978928 0.032910287640593734 -0.02456971916883539 0.14530352313984957 0.2439579408843705 -0.04289607013365315 0.08348108030574078
00000000: 7727 26ec 915a 573f c192 2e7d 8c47 cfbf
00000010: 3992 3c02 9ed9 a03f 334d 35f1 cd28 99bf
00000020: b68a f04b 4e99 c23f e453 d988 033a cf3f
00000030: 60b1 b344 79f6 a5bf ca76 bf1d 045f b53f

down_path.0.net.1.running_var f8 [8]
0.2930919606898795 0.1318371157429879 0.22384055147541151 0.162949461428016 0.1494380043880952 0.17415524563388735 0.218232897459529 0.1295219505324232
00000000: 168c 78c8 04c2 d23f caee 41e2 09e0 c03f
00000010: ed80 0da4 cea6 cc3f 5ff8 dd27 87db c43f
00000020: 012d d0d6 c820 c33f 8252 3616 b84a c63f
00000030: f4ff bf3a 0eef cb3f 4850 d3de 2c94 c03f

down_path.0.net.3.weight f8 [8, 8, 3, 3]
0.23292142595195908 0.09702115425903506 0.1239806936562911 -0.09123984552552851 -0.5688391181005664 -0.17906239409327535 0.215280616720613 0.09269238087664719
0.221335191761743 0.05395453927778344 -0.2579839571744926 -0.06795912464592506 -0.06307408919785616 -0.12554131272128496 0.09066158674093402 0.1355690026821264
0.0269405208914542 -0.03020640991955419 0.09310980497697058 0.1742180889965315 0.10515488673608647 0.0428836742128638 0.4236584824134493 0.41337641240512596
-0.01973204541076535 0.23671108573536312 0.1617504054107572 0.1954476598998983 0.07922989582000117 0.19863402111074757 -0.25298854423622213 0.013824306405946604
0.14459250088666922 -0.14594350791643831 -0.042980364704086206 -0.014583809344150815 0.12038580972102489 -0.2984868521618379 0.02297899081660381 0.3631212486946453
0.2276860322117098 -0.0056071251260047875 0.21549693878825513 0.3085229258299812 -0.1745014332544462 -0.10975319921927106 0.026740874817196062 0.000587360782989012
0.3099232404733497 0.8614991508490752 -0.1371393060863919 -0.20299169214186133 0.2713292489869742 0.13662651135246334 -0.11769415600676417 0.6034361944868001
0.02531809209674766 0.12358704324176338 0.9321306274596489 0.7410221671636749 -0.1540145233107967 -0.16139128584268891 -0.3158550591058743 0.03632515618560911
0.1951183744971942 0.15827388409620188 0.4295753237907251 0.4558644049759943 0.3281470459657356 0.09464348377579054 0.033968853586437905 0.08260209311600851
-0.14956387169382673 0.4678334286248791 0.07304458514272541 -0.21991657391255523 0.5678878882666296 0.4907805660358749 -0.16480893469600838 0.2573476344295394
0.17455253834676696 -0.002574656702442667 0.11060817588519709 -0.09332244455803355 -0.02224699840548038 0.7162298778536413 0.6119651051862307 0.17626793215142286
0.5599348649141414 -0.20960254505343354 0.05710587101634092 0.269886195379857 0.28156770865195063 0.04914764005990827 -0.03238923692667184 0.17801848230847203
-0.24506757658199724 0.410612188979134 0.13451119781303023 0.3561001539417542 -0.40911536857570674 0.10387597735892172 0.26031836336153175 0.19912887221370407
-0.18897421972446382 0.09729151523504369 0.11735501365385745 0.05432084736041483 0.07228280163319549 -0.06778320651550798 0.2678196822719932 0.0152492203904326
0.039212594796424236 0.28469678046206726 0.24062306385219123 -0.20350029018867574 -0.11480670694563792 -0.18289920004254165 0.02959170090501944 -0.01889095205053603
0.3032624470308065 1.391930699473958 0.42808536072386977 -0.03433377170153108 0.2265897171081392 0.23925037020260412 0.23272612174011287 0.06916570666048373
0.3005031048770552 0.3236014188066703 0.12492270359165202 -0.38533191405530426 0.14346162102134588 -0.06531606465661666 -0.18083743490466858 0.10348192201643264
0.21886718920003767 0.1814531547220785 0.18723377206076608 -0.4039198253922516 -0.09778288248121786 -0.004643311623797201 -0.3693358388687826 -0.14261375393743383
-0.06747816840567743 0.6524287226279983 0.20794584851384787 0.1821908499072438 1.1801620766677097 0.4691640473662197 -0.07904015978702851 0.04424128679233818
0.06695773733046703 0.19176131044970257 0.17545716053744648 -0.09533277800403044 0.17281451582950286 0.09753909700995841 -0.22884421948870967 0.2561434977735246
0.06309114086413846 -0.2796238073157698 -0.15280794025605257 -0.25237200455706915 0.25323328596594613 0.09464890314739832 2.167431515590176 0.18467277776797944
-0.4274746992321136 0.42657251701906684 0.2324536063614312 0.1500616633436669 -0.10679154674706237 0.17393226664629 0.2809678113033961 -0.14372499375158856
0.1603885357177389 0.20591282572012612 0.2703994872210025 -0.033088764292041065 0.04442159018281782 0.00256862988070889 -0.06860542842547068 -0.13190571445436244
0.6302418171670027 0.05463583168724431 -0.1350008612666434 -0.18854459507035648 -0.06201199121668729 0.1608326274668949 0.11943246895153668 -0.029776883195501314
0.10198306655524421 -0.24220173902386866 0.03900604430400609 -0.0027047952878657827 0.13035842602020367 0.14945078554594624 0.02875066483404447 -0.12324682672459422
-0.04909048595788602 0.08196087938351297 -0.38120593187076873 -0.14155043134584946 0.1593477717079992 -0.19193201011174923 0.00877182929283424 0.04786627367649169
-0.04952099017158242 0.0754110846979678 0.0930073133845814 -0.032459506604086634 0.7716641576234149 -0.18673504137909452 -0.03719017640445635 0.5118610067472854
-0.2314964617718785 0.5956026334817208 0.14685209358694096 -0.3911370094068053 0.41525931466501637 0.07544146869860152 -0.1668029958900614 0.35940829623234816
0.03866050017174071 0.2502966613566476 0.3360430216634258 -0.07319595833366584 -0.24962457918815392 0.16332584266642403 0.33737645954101037 -0.021136315056148488
0.15944328531378693 0.011003086560412144 0.01413099635159686 -0.07599113586564703 -0.11717002569469752 0.3498120571380526 0.6518442844929592 0.3011802062016039
0.01655231840682739 0.4391585931051834 -0.04633340730894739 0.02969391380789568 0.13517266786002008 -0.09458015934871165 0.13787786748960137 -0.4089412861287964
-0.29395104626514523 0.14934005166920622 0.004874330538016763 0.10711590794885231 0.08514162202931214 -0.09695134890526451 -0.17064802118034741 -0.23343705067557688
00000000: 3c2c 8089 5ed0 cd3f db0e 90dc 60d6 b83f
00000010: 83d3 96e0 32bd bf3f fdcd 9f98 7e5b b7bf
00000020: 61ad 1d18 ee33 e2bf 7e7b 493b 84eb c6bf
00000030: 1a8d 23b4 508e cb3f 861d 7418 b0ba b73f
00000040: 9808 0929 b654 cc3f 8970 56eb ed9f ab3f
00000050: 4b41 bd24 cf82 d0bf 53ac d1e9 c465 b1bf
00000060: 676c 549e 9f25 b0bf 6fa8 37dc bc11 c0bf
00000070: 8647 0e06 9935 b73f 327f 6f38 535a c13f
00000080: 0dfc a9c0 4b96 9b3f 2dac efda 6dee 9ebf
00000090: 8422 504f 0bd6 b73f d94c 4e41 c74c c63f
000000a0: 9ccb 8b3f 6eeb ba3f 659a 8d54 d9f4 a53f
000000b0: 60e1 a877 381d db3f d7f0 0d57 c274 da3f
000000c0: 22c3 e326 a334 94bf b7c1 ea81 8c4c ce3f
000000d0: 064e adbe 3cb4 c43f 0bc6 accd 6d04 c93f
000000e0: 8892 6913 6948 b43f d095 45f0 d66c c93f
000000f0: 5976 f0dc f630 d0bf 5836 3aff ea4f 8c3f
00000100: 5d0d 47cf 0182 c23f 7545 c8e0 46ae c2bf
00000110: 5564 8cb9 8501 a6bf fc4b 79c1 1dde 8dbf
00000120: f27e a7bb 9ad1 be3f 968c 1499 681a d3bf
00000130: bea7 35f8 cd87 973f 6713 e8e7 603d d73f
00000140: 587a 0ddf d024 cd3f e8fe a630 7ff7 76bf
00000150: e3e8 3d58 6795 cb3f 5a62 20f1 d6be d33f
00000160: ab6b 771e 1056 c6bf 4f34 4721 c918 bcbf
00000170: 51a3 39bb f561 9b3f dc4a 4cad 233f 433f
00000180: c99d 8649 c8d5 d33f acb6 cdaa 6691 eb3f
00000190: 588f 51e1 c78d c1bf 89f3 8dbb a1fb c9bf
000001a0: 163a b65a 755d d13f 6640 033f fa7c c13f
000001b0: 42b8 fa46 3421 bebf 5e64 116c 594f e33f
000001c0: 2ae9 3566 fcec 993f 2fc6 ee84 66a3 bf3f
000001d0: bb40 119c 03d4 ed3f 6787 b21e 74b6 e73f
000001e0: a54c 5d76 bfb6 c3bf d8e0 463b 78a8 c4bf
000001f0: 36b2 4823 f836 d4bf 88b6 adfb 3599 a23f
00000200: 6635 a88e a3f9 c83f bf85 0092 5142 c43f
00000210: b762 b67f 297e db3f c312 b2e5 e12c dd3f
00000220: ffea ac77 5c00 d53f feb5 982b 8e3a b83f
00000230: 9604 7996 5d64 a13f efaf 8328 6925 b53f
00000240: b647 cbb0 e824 c3bf 8cd7 fa9e fbf0 dd3f
00000250: 2a80 56c8 0cb3 b23f dfc1 66ee 3926 ccbf
00000260: 26ca 7c38 232c e23f 9dbb 28e4 f268 df3f
00000270: 7ed1 4d8c 7518 c5bf 41fb 6436 6278 d03f
00000280: 0f0b d1d1 bc57 c63f 7dbf bb4a 7217 65bf
00000290: fedd 1842 d150 bc3f fb09 5ccf fae3 b7bf
000002a0: 5dc2 57ca eac7 96bf 3695 b9eb 5aeb e63f
000002b0: 8e2d 22d8 3795 e33f 9f42 f695 f28f c63f
000002c0: 0849 9685 fcea e13f b7d8 1496 41d4 cabf
000002d0: 927c d910 fb3c ad3f 3318 b3bf d045 d13f
000002e0: 2544 1191 3405 d23f c53c 7725 e129 a93f
000002f0: c055 af72 5295 a0bf bf99 cc43 4fc9 c63f
00000300: 4a65 5dd5 5f5e cfbf 4e47 c058 7847 da3f
00000310: 90c0 c6b5 a937 c13f 12f2 d14c 58ca d63f
00000320: a0b6 143a f22e dabf 1fbb 98b5 9d97 ba3f
00000330: cfe7 4b5a 0ea9 d03f c671 ec0c 0e7d c93f
00000340: ec78 c0a6 4e30 c8bf 5be0 1cc4 18e8 b83f
00000350: 3e3a aa69 fa0a be3f bad7 ce2d f1cf ab3f
00000360: abec 132d 2081 b23f 32be 337f 3d5a b1bf
00000370: 2555 252a f523 d13f 6a65 eeb6 fb3a 8f3f
00000380: cedf 7b58 ac13 a43f c81b 57d8 7838 d23f
00000390: 1c49 f48e bccc ce3f 9f1e 8b29 4c0c cabf
000003a0: 8b66 b1eb f863 bdbf 03da 52b1 3d69 c7bf
000003b0: 2ef4 7a6e 494d 9e3f fe4a fd54 2658 93bf
000003c0: 348b 06e5 a668 d33f f79f 0820 5945 f63f
000003d0: 0125 0d24 c065 db3f e27a 3635 3294 a1bf
000003e0: ce6f 4b50 e400 cd3f e9bc c991 c19f ce3f
000003f0: c83b e634 f8c9 cd3f b98b 1c00 d8b4 b13f
00000400: 3cc7 f25f 713b d33f b1af adb9 e2b5 d43f
00000410: 6f3c 742e effa bf3f 513f 3e30 47a9 d8bf
00000420: 2548 424d f35c c23f e084 9ab9 8db8 b0bf
00000430: 2e6f 675a ae25 c7bf 4cad c98e ca7d ba3f
00000440: ac0b e40d d703 cc3f 0ec8 a462 db39 c73f
00000450: 3496 dab7 46f7 c73f 1002 118a d2d9 d9bf
00000460: 9c8d 5d8a 4c08 b9bf 2b0a 1c79 dd04 73bf
00000470: 4ba8 4bc9 32a3 d7bf 357f 8fe0 2a41 c2bf
00000480: c711 7fce 3f46 b1bf dc10 5533 b2e0 e43f
00000490: 775c 5a35 f89d ca3f 09b4 fd9e 0752 c73f
000004a0: b046 34a1 f1e1 f23f f366 f9a3 c806 de3f
000004b0: 611c 5bd5 f93b b4bf afe5 cf3f cba6 a63f
000004c0: 6e6b 0c6c 2424 b13f 7481 8276 a28b c83f
000004d0: cabd 2d57 6175 c63f 9b9e c39b ba67 b8bf
000004e0: 4e82 e13a c91e c63f 7638 bd7f 52f8 b83f
000004f0: 6794 4a73 c44a cdbf 334d 81b2 a764 d03f
00000500: 17c6 adb2 bd26 b03f d1ab e640 5be5 d1bf
00000510: db03 fce8 358f c3bf a7e8 7fe8 dc26 d0bf
00000520: e5de 5e62 f934 d03f 14cf 9e17 e93a b83f
00000530: 753c 9e55 e656 0140 15cb 7c8a 5ba3 c73f
00000540: 7770 44d7 be5b dbbf f008 7ed0 f64c db3f
00000550: ec6d 942e 0ac1 cd3f 79e2 3878 3835 c33f
00000560: 5094 c4d8 b056 bbbf 0b84 7b9a 6943 c63f
00000570: dab6 316a 60fb d13f c9f3 e3a1 9465 c2bf
00000580: 63cf c78d 9c87 c43f efbe 25fa 595b ca3f
00000590: 400a 9ea6 394e d13f 4aad ffb0 02f1 a0bf
000005a0: e79d 243a 6dbe a63f 8f5a a9aa ce0a 653f
000005b0: f05b 6a17 2090 b1bf 0e56 de54 49e2 c0bf
000005c0: 73b9 29e3 f02a e43f d4ac 924c 3af9 ab3f
000005d0: 7a39 094e b547 c1bf 5416 d5b2 3a22 c8bf
000005e0: eb94 7824 09c0 afbf edce 8cdd 2996 c43f
000005f0: ef35 3a54 2093 be3f a086 01ce d47d 9ebf
00000600: a5be 99ef 8f1b ba3f e827 1272 7700 cfbf
00000610: dc99 43a9 99f8 a33f a063 b8e9 5d28 66bf
00000620: 4de5 41bc 95af c03f 3b03 240e 3421 c33f
00000630: 2d4a cd74 d070 9d3f 6a2f 1ea2 1a8d bfbf
00000640: 81bd 775f 6322 a9bf 33eb 8060 63fb b43f
00000650: 2346 9b90 ad65 d8bf 25bc ae14 531e c2bf
00000660: 0092 16fe 8165 c43f 0125 3e65 3a91 c8bf
00000670: f1b2 82ff f6f6 813f c538 0ba0 ed81 a83f
00000680: 9345 81b2 d05a a9bf cb9d 880e 244e b33f
00000690: bc8d 46c9 53cf b73f 5721 9e4e 889e a0bf
000006a0: 569d 0f08 79b1 e83f 02c6 de0f efe6 c7bf
000006b0: 147b c73e 970a a3bf a378 8255 2a61 e03f
000006c0: 6297 3912 ada1 cdbf 18e5 0641 2d0f e33f
000006d0: a40b a7a5 0ccc c23f 0a14 ea85 6308 d9bf
000006e0: 9d1e f6cd 9b93 da3f 8c9c d2d0 2150 b33f
000006f0: 577f 1cf2 cc59 c5bf 30a8 8ea7 8b00 d73f
00000700: 0fee c41f 4fcb a33f 55c9 b449 dc04 d03f
00000710: d0fa 0597 ba81 d53f bd12 3e67 f8bc b2bf
00000720: 7708 f2bd b2f3 cfbf fc05 6c78 dce7 c43f
00000730: 5ecf 0a6f 9397 d53f ef49 b217 c2a4 95bf
00000740: 54a8 fe37 a368 c43f b9ca 7447 c988 863f
00000750: bb20 8539 b6f0 8c3f 4b2f 54b3 2774 b3bf
00000760: f321 6ed4 dafe bdbf 01e2 491c 5263 d63f
00000770: bd6a 7f8b e8db e43f c2a8 f557 8946 d33f
00000780: 69d4 eb48 17f3 903f 7d39 c9a4 2c1b dc3f
00000790: 9c56 352a 03b9 a7bf a7d6 c7d2 1468 9e3f
000007a0: 32cc e285 564d c13f bfd0 40c3 6736 b8bf
000007b0: 3be3 da61 fba5 c13f 2b12 7a12 182c dabf
000007c0: ae5c 950c 18d0 d2bf fe7a f326 931d c33f
000007d0: ecc4 0224 1bf7 733f fa8b 85b9 f26b bb3f
000007e0: 1cf0 2462 d7cb b53f 03e8 d9b8 cdd1 b8bf
000007f0: e960 0c5b cbd7 c5bf 1dc4 29e9 43e1 cdbf

down_path.0.net.3.bias f8 [8]
-0.05099669100555125 -0.04450645329113932 -0.028947901624871875 -0.10539683202127723 0.03224571040087212 -0.05633662648546787 -0.06225943525755335 -0.03340037951336935
00000000: 1e68 2500 3d1c aabf ae5a b1c2 8cc9 a6bf
00000010: b00c 11cb 84a4 9dbf ee25 a26a 49fb babf
00000020: 1350 377f 8282 a03f fde3 a480 27d8 acbf
00000030: d9e4 98fc 77e0 afbf 6b29 5ec3 da19 a1bf

down_path.0.net.4.weight f8 [8]
1.057231020594267 1.2520637090411428 1.228579768496064 1.249214149345148 0.6496911772127836 1.2240987675016228 1.2193065072798268 0.8921849459220478
00000000: 264e 1c13 6bea f03f 5471 adf4 7308 f43f
00000010: 4c7c 6342 43a8 f33f b834 d2f9 c7fc f33f
00000020: de1d d426 45ca e43f e0e4 d796 e895 f33f
00000030: c911 498a 4782 f33f c9ff 9671 c78c ec3f

down_path.0.net.4.bias f8 [8]
0.38456984500661684 0.39013258521220273 0.44403756638284025 0.07769748059393368 -0.16945052856049908 0.5273968629750819 0.14049973457361792 -0.23022776175101406
00000000: 8432 d5d6 ca9c d83f 32c8 a5a9 eef7 d83f
00000010: 95d2 738a 1c6b dc3f 21ee 216a fbe3 b33f
00000020: 6a87 3a0f 8eb0 c5bf 07b6 cf62 6fe0 e03f
00000030: 3a91 8b32 e5fb c13f 920a ad71 1a78 cdbf

down_path.0.net.4.running_mean f8 [8]
1.656219147275504 1.8255332621957077 2.0575939783456536 1.4480375446971558 -1.1132279124772793 0.5622357676458224 1.7334229797369511 -0.0003597414254414878
00000000: b0ea 08a6 df7f fa3f 8b40 ae5d 6235 fd3f
00000010: 6787 ebd4 f375 0040 b7ab 9d6a 292b f73f
00000020: 2659 5112 c8cf f1bf b5c4 55dd d5fd e13f
00000030: 64ae 01bc 19bc fb3f 4000 44a8 7593 37bf

down_path.0.net.4.running_var f8 [8]
9.452122118247905 12.798197747063478 10.990251418024682 9.521379323331567 2.382872414318933 3.0580732700230593 9.171683543868776 1.5913419490559257
00000000: 9358 df8c 7ce7 2240 cdc1 0660 ad98 2940
00000010: 9f77 de3b 02fb 2540 150a 0d3b f20a 2340
00000020: b252 9069 1f10 0340 a22a 5c1e ef76 0840
00000030: 055b cce7 e657 2240 6a2b bff9 2276 f93f

down_path.1.weight f8 [16, 8, 3, 3]
-0.3221866883679116 -0.32507195231992897 -0.1780794401168568 -0.1728357948747066 -0.41380216460297514 -0.22004428443020724 -0.14583786112247435 0.14391739440198803
-0.14832597557943186 -0.06373746486742218 -0.16204773400655298 0.16592027040829863 -0.09083261456233777 -0.001360248678638829 0.1899400766971868 -0.1537913151809945
-0.13723775225935578 0.08438386974789708 -0.23448421978481299 0.02314412981941412 -0.1674587293014281 -0.07030289321005813 -0.029537643314393337 0.03470895834959102
-0.032920890344861065 0.15406504702234505 0.09240337139817914 0.19245043200263426 -0.2194643811835498 -0.29089303226870084 0.05037769246468123 -0.10284186606964862
-0.180308867643188 0.3000426303471604 -0.18939373090816305 -0.2233748865159426 -0.38492755579144416 -0.05075096392552691 0.07811488632621602 -0.20743997439419898
0.06015937636314365 0.060007468082222015 -0.15533028409174424 0.06801048677032019 0.1032482992298526 -0.12367920981519835 -0.1276886372277866 0.002891749158048092
-0.012230794866906947 -0.09851625266018532 0.06039563101458078 -0.02180601520317415 0.19080196487486878 0.19440506251928424 -0.018322503492562606 0.07470785168040205
0.26581752624903543 0.0683302273539551 0.15154990076696462 0.26570837040347905 0.17181962355561164 0.2648230151647489 0.2938550810686712 0.29047081933537355
0.34218081962457825 0.31921722584304946 0.0037253482600733833 0.20873736769328147 0.4469125843198551 -0.06374924811511515 0.11513023605957312 0.3759035035755307
0.26572698035510517 -0.2151382327062851 -0.17135567819952552 -0.029346280501458006 -0.3212410541808229 -0.03663260460940272 0.14792555672629812 -0.5392539045171536
-0.15162790487721778 -0.34301738929803965 -0.10918229964962395 0.15575503439367244 -0.25389924724144297 -0.3114668162787674 0.015021127554972718 -0.05125541732116627
-0.10602043696501356 0.2019505055169243 -0.23434825638506812 -0.20747108061105154 -0.5287929770957733 0.1666984379578584 0.6105963037749467 0.2302452577956092
0.09939020188240848 0.8061367841821289 0.3562446670947524 -0.00883408559793086 0.34957426447540735 -0.10000467614104 -0.04077704680298685 0.2904987941915418
0.1822945444540885 -0.15204894784553072 0.1930553002955354 0.13395351642132106 -0.05534921182827087 0.10381615360827359 0.23531257325716426 -0.17342609649145518
-0.07216034642551816 -0.09356720407149141 0.03787529732300133 -0.13147603610060496 -0.08310475985714431 0.18898621311976524 -0.10483558955839734 -0.02452372196949539
-0.2806376507680647 -0.8143548215028031 -0.44129587340186044 0.07601214529578537 -0.07710211862133073 -0.04874649396288853 0.06117261488919913 -0.08483788136741363
0.039959140946459755 0.37246135403355224 -0.37475870082695734 0.10548683162132501 0.2892195929338532 0.017212486168944174 0.21042849619950085 0.1637043572936017
0.23086948704618473 0.2139701934748981 0.01491500786559463 0.04008941735812241 0.0717362143809124 0.13473400941487287 0.19599627982883452 0.09297684097181168
0.30628460459210544 -0.17348756959032458 -0.3750594816471195 0.3344117197155901 -0.10281660738322224 0.07618382461678332 0.2881074267937516 -0.41476840711488633
-0.2520859483832466 -0.13867760850911753 -0.11568886557910046 -0.03138582844893606 0.10883051156597037 -0.24188886978906082 -0.19478063960648417 -0.12470987527254318
-0.39313449269442585 -0.0601301179923074 -0.12938754538944336 -0.2156014390169752 -0.0932533611226555 -0.233272292536766 0.015437488019204672 0.16611520681482478
-0.0033493975759054133 0.7394838779973723 0.38483088955788497 -0.1514905451827595 -0.22198289298165746 -0.38333474222817676 -0.10384110961617914 -0.17865204332713921
0.19261549757010377 -0.2971713883859507 -0.04577311830082979 0.14689780393889104 0.4438850892284793 -0.10380048006480123 -0.09725051280800057 -0.014501821379234144
-0.39238762007432265 -0.24483902199556457 0.2462022601985627 -0.07798131935479717 0.10696242862025983 0.4139689040147958 0.3575927159920984 0.11409311463562939
0.283267019995915 -0.09891412028766364 -0.34378906602805964 0.3719036175472749 0.02258371903832005 -0.0860783810368772 0.3585182412808494 0.30184676354705686
0.19882955652727907 0.28835220560332814 0.10538543788298704 -0.23564053640774904 0.3601064712906716 -0.12920729135918418 -0.13390201953912106 0.40188974101784736
-0.157514302118916 0.15419076852074243 0.1803243903829593 -0.2334561589681854 0.16842805297915583 -0.049852909272379065 -0.20267647608661724 -0.11298854238909155
-0.19894421591171516 -0.19884425950874546 0.06882854827162911 0.0006044176599534969 0.159412400705101 0.1801418505828415 -0.3064038245925658 -0.15366810726610144
-0.15473928340300008 0.039619580808366923 0.008237713606336699 -0.026980778581099853 0.08146909840128297 -1.9621148967615896e-05 -0.126506761355598 0.022086390767533007
-0.18129231215360642 -0.23108655450557916 -0.010270115111151994 0.1820460921201055 0.18385290031306567 -0.7091084996332943 -0.24488965777848448 -0.08903650798962891
-0.2593273354341722 0.050036773851320424 0.07769434816971775 -0.07617524361729448 -0.1634426382804792 0.00355473891986592 0.14464875713222414 -0.04624537632875976
0.07049381363105099 0.03864650198726953 0.11885645537859517 -0.00742609730781537 -0.04319222461355791 -0.14713650939793757 -0.06822603310571859 0.18234530288627468
00000000: 53ca 6fea b49e d4bf dfe6 0397 facd d4bf
00000010: 7729 b29d 4ecb c6bf e152 48bb 7b1f c6bf
00000020: 5ef6 fe12 bc7b dabf c654 a63e 692a ccbf
00000030: 2d12 05a6 d0aa c2bf f01a 249b e26b c23f
00000040: f566 2177 58fc c2bf eab1 2237 1951 b0bf
00000050: 8a7a f9ea fabd c4bf cdd4 921b e03c c53f
00000060: 0496 f464 ce40 b7bf 2924 b5e5 4b49 56bf
00000070: 6f9c ced8 f44f c83f cb3b 8e0e 6faf c3bf
00000080: 7980 ddb4 0191 c1bf 5c8c e068 2e9a b53f
00000090: 4ab1 b333 9403 cebf f4cf ac42 18b3 973f
000000a0: c3c1 e3a2 496f c5bf d9c0 26d3 5eff b1bf
000000b0: 1d1a 25b0 1d3f 9ebf 86bc fa61 5fc5 a13f
000000c0: a8d3 c5c6 01db a0bf 5976 3549 67b8 c33f
000000d0: 9200 3252 bfa7 b73f 95b4 c63b 37a2 c83f
000000e0: 1bfd e8a9 6817 ccbf 2b9d 0ecf fd9d d2bf
000000f0: 7be1 2adb 1acb a93f c0c2 6d33 d853 babf
00000100: 8c67 da68 5c14 c7bf bccc 2f01 e633 d33f
00000110: b9b3 28c4 0d3e c8bf 2fb6 2a5c 8c97 ccbf
00000120: 9f05 dd2f a7a2 d8bf 0fea 99c4 07fc a9bf
00000130: 3213 1a52 56ff b33f 1efd f3a0 648d cabf
00000140: e50e 0eb4 35cd ae3f c099 db81 4cb9 ae3f
00000150: a54f 20dd dce1 c3bf 41ac 76a0 2269 b13f
00000160: 9a51 8f04 7b6e ba3f 4bf5 59d1 70a9 bfbf
00000170: 5169 7bec 1958 c0bf aa54 fc01 70b0 673f
00000180: 8ddb a87f 750c 89bf c4ca 4c73 5c38 b9bf
00000190: ffcc 0e18 2dec ae3f 9e66 9de8 5054 96bf
000001a0: 8c36 93e3 326c c83f 943c d9dc 43e2 c83f
000001b0: e427 2065 22c3 92bf 4fc4 b8c3 0d20 b33f
000001c0: dc5d 7c83 2703 d13f 5740 d0fb 167e b13f
000001d0: ccc9 c0b5 fc65 c33f 6802 4aae 5d01 d13f
000001e0: bcbe fd77 2ffe c53f d915 573b dcf2 d03f
000001f0: 0a04 bd8a 85ce d23f 5c37 5feb 1297 d23f
00000200: 56c9 6661 4ae6 d53f 2435 5416 0e6e d43f
00000210: a1e7 2e1e 9f84 6e3f 050f d9f3 e7b7 ca3f
00000220: 93c6 743d 379a dc3f de8b cce7 de51 b0bf
00000230: ac18 a8d6 2c79 bd3f 20c2 9391 cd0e d83f
00000240: 8b8f 92bc ab01 d13f a5de cb4c a689 cbbf
00000250: 0ee9 ec9c fbee c5bf 1551 0d8c f30c 9ebf
00000260: 6db5 75a3 368f d4bf 9a84 873d 82c1 a2bf
00000270: cbe6 3082 39ef c23f 0487 8467 9141 e1bf
00000280: 38e8 4d0e 8b68 c3bf efa3 3f35 fff3 d5bf
00000290: c415 4c06 5ff3 bbbf 303f 74ed c7ef c33f
000002a0: 9062 d8a0 e23f d0bf 0e38 6d83 12ef d3bf
000002b0: e9fd c79c 65c3 8e3f 7644 466a 263e aabf
000002c0: c4ec 78c5 2724 bbbf bd8c 4da0 83d9 c93f
000002d0: f234 86a8 1fff cdbf 2f8d 0b91 698e cabf
000002e0: e862 df3f dfeb e0bf 7761 a9d9 5f56 c53f
000002f0: 38b3 7842 018a e33f 0b47 2536 ad78 cd3f
00000300: 53b6 a0e2 a271 b93f 7b46 855e dfcb e93f
00000310: b5f7 a26e b6cc d63f 3e8c dde5 9a17 82bf
00000320: ff7c 5cbc 6c5f d63f ee0b 790d e899 b9bf
00000330: 1b80 e4a4 bae0 a4bf 7820 2541 8897 d23f
00000340: 1ab3 5579 6d55 c73f 41a2 3105 5776 c3bf
00000350: 435d 8b3c 09b6 c83f e95c 1b8a 6325 c13f
00000360: 6bd7 525d bb56 acbf b246 8b08 b293 ba3f
00000370: 6c12 3def b81e ce3f 2a14 5a8a d332 c6bf
00000380: 9833 f7b7 1979 b2bf 3e18 7731 05f4 b7bf
00000390: f139 a816 6464 a33f 9341 a1ed 34d4 c0bf
000003a0: 5b76 ba81 5a46 b5bf 7f44 5f42 b330 c83f
000003b0: c835 9c54 81d6 babf 4539 571f bf1c 99bf
000003c0: 8ece 049f f7f5 d1bf fe38 b6d7 310f eabf
000003d0: 51ba 070c 313e dcbf 30ea 242e 8875 b33f
000003e0: 4e51 eee5 f6bc b3bf 5d04 bbea 4cf5 a8bf
000003f0: 8246 b858 0452 af3f 265a ef75 efb7 b5bf
00000400: 2925 1547 8675 a43f 6145 a625 68d6 d73f
00000410: e15d fcea 0bfc d7bf 59e5 f85b 2f01 bb3f
00000420: 6fda 40e5 9282 d23f 33c0 b664 26a0 913f
00000430: 6f62 a92a 52ef ca3f b9f4 64ae 43f4 c43f
00000440: f9fa 40a0 218d cd3f c090 a513 6063 cb3f
00000450: ffbb 0478 c28b 8e3f 8c0a f0a0 9986 a43f
00000460: f271 b4f6 4d5d b23f 5344 0cca f63e c13f
00000470: 3552 00f6 6716 c93f 0f63 428b 54cd b73f
00000480: d772 ffbd 2a9a d33f 7694 d336 d734 c6bf
00000490: 6ba9 ee7b f900 d8bf 09f7 e469 0067 d53f
000004a0: 2455 326e 3052 babf c999 367b c880 b33f
000004b0: 9116 f421 5a70 d23f a13c fec9 908b dabf
000004c0: 7e94 051a 2d22 d0bf aaf8 9d18 30c0 c1bf
000004d0: 846f 2c16 c99d bdbf d8f9 7da5 cd11 a0bf
000004e0: 4a98 fbff 50dc bb3f 6655 81e8 36f6 cebf
000004f0: e87c 806e 92ee c8bf e8a7 c883 fcec bfbf
00000500: c555 4393 1d29 d9bf 722b 90f4 5fc9 aebf
00000510: 428b fa65 c58f c0bf 8233 c6f4 d398 cbbf
00000520: da8d 43c8 73df b7bf c611 c1d1 dddb cdbf
00000530: 5425 6691 b09d 8f3f 4ea8 515a 4343 c53f
00000540: 8616 9821 3270 6bbf fe5f fd17 daa9 e73f
00000550: ad11 49bd 11a1 d83f e848 9bcc 0a64 c3bf
00000560: 0a58 d078 ef69 ccbf 5899 5271 8e88 d8bf
00000570: b326 c8b9 5495 babf cf10 baf5 11de c6bf
00000580: 3018 62e7 9fa7 c83f 322c 9b24 db04 d3bf
00000590: 56a8 46fc 926f a7bf efc8 e217 8ccd c23f
000005a0: 6bc6 5a01 9d68 dc3f d7fa 2f13 ab92 babf
000005b0: 5093 07dc 68e5 b8bf 3130 7384 21b3 8dbf
000005c0: 6dc4 e4f6 e01c d9bf aab6 2094 e256 cfbf
000005d0: a786 e03f 8e83 cf3f c3e9 5370 95f6 b3bf
000005e0: d722 d3c4 e361 bb3f 1c7d 136e 777e da3f
000005f0: 0854 1e8f cce2 d63f fd0d 0fd4 3435 bd3f
00000600: c7bd bafe 0b21 d23f 2685 bf8f 6f52 b9bf
00000610: 9106 d4da a300 d6bf fb4b a8d4 44cd d73f
00000620: 8a3c c4ba 2f20 973f fc2d 7297 3b09 b6bf
00000630: 1c86 547e f6f1 d63f aea2 7516 7551 d33f
00000640: f8a4 6135 3f73 c93f c5ed 32cf 5c74 d23f
00000650: 109c 2e41 8afa ba3f d3d8 bd16 7829 cebf
00000660: 935e 5103 fc0b d73f a86e 6551 dd89 c0bf
00000670: f4f9 648d b323 c1bf 8a40 91bf 8fb8 d93f
00000680: 8f62 20bc 6d29 c4bf 1023 12ea 85bc c33f
00000690: 5bd7 ae9f de14 c73f 98b8 e833 e4e1 cdbf
000006a0: 8320 a3e9 0c8f c53f b0e2 de0d 5286 a9bf
000006b0: 35f3 3a82 4df1 c9bf 8344 622e d1ec bcbf
000006c0: dfda 880a 0177 c9bf e22f cb8b ba73 c9bf
000006d0: 1199 db6b bf9e b13f ba75 930a 39ce 433f
000006e0: 0879 cd23 a067 c43f e475 725e e30e c73f
000006f0: 19a4 7fc9 1e9c d3bf 3fb4 9283 65ab c3bf
00000700: 86a9 cf30 7fce c3bf 11d2 b487 0449 a43f
00000710: 69a5 4334 efde 803f ca79 8166 d9a0 9bbf
00000720: 44a3 44a9 28db b43f cd22 0b17 0393 f4be
00000730: bb61 5fa1 5f31 c0bf 3407 2298 d09d 963f
00000740: aca4 db23 9634 c7bf d1c9 1285 3e94 cdbf
00000750: 1c7a 3a84 7f08 85bf 519e 024e 494d c73f
00000760: 5c47 0fe9 7d88 c73f 37b3 e74e 04b1 e6bf
00000770: b8c3 a457 8b58 cfbf ef2a f7b9 18cb b6bf
00000780: 8682 29ae d198 d0bf 8ed9 9386 6b9e a93f
00000790: e714 79dc c6e3 b33f 83e2 1984 3880 b3bf
000007a0: 07e3 1739 b0eb c4bf 1d37 03ed d31e 6d3f
000007b0: 101d a5b8 d983 c23f 5ab2 d855 79ad a7bf
000007c0: 679d 1df0 e10b b23f 06be 476c 79c9 a33f
000007d0: 3301 c56c 606d be3f 5806 2fd1 d36a 7ebf
000007e0: 453d 5090 4a1d a6bf d9b3 f47f 5ed5 c2bf
000007f0: 96c4 ece4 4277 b1bf d7e5 3c44 1757 c73f

down_path.2.net.0.weight f8 [16, 16, 3, 3]
0.0058187806661401465 -0.12472777776488342 0.10420292651980036 0.1834404962470977 -0.11507918052527874 -0.0017618569443068677 0.33295219022386174 0.13035711347167192
0.07282557090191288 -0.08566821357070975 0.08238170772618533 -0.013333182835566537 -0.011129221614424641 0.08271130290081762 -0.01816026473746153 0.053723935986038224
-0.07403080607442786 0.0031416418180617548 -0.02369028085394685 0.34468182552566745 -0.10714468926611408 -0.12182153065765544 -0.4078426929747085 -0.06825364094075569
0.057725789600645255 0.22473068971740143 -0.09761833413198046 0.09386817812009497 0.12985548061338056 0.03606172458454965 0.07345387626232026 -0.0074686379228252895
0.022052107870964288 0.20755908735979414 0.009325150541354814 -0.013157906299477256 -0.21651620912392314 -0.1836889883109826 -0.09031629678286685 0.20556666248276534
0.4583786821425077 0.3613411375916506 -0.0034027297512394007 0.02418536567524333 -0.030228946792720892 -0.3615691458007714 -0.1083563632732896 -0.2982097351153805
-0.12415267611742879 -0.46130955605600943 -0.18671017345354501 -0.2365153893658271 0.0991181516943443 0.07507955265314742 0.008512569851839036 0.045135159997531725
0.01849280941799989 0.04982097614671075 -0.005608671934245817 -0.030153792429320522 -0.14344983217661766 -0.18155149271816104 -0.16168731496194466 0.3554282076431251
0.16731103368684208 0.30190056645703933 0.022105483038378393 -0.5095192966096611 -0.1851361990682871 0.15207565336546391 0.12999844853747988 0.07925694659261555
0.0066728037549139575 -0.03026571986712317 -0.07284047558483184 -0.12692502292029242 -0.10062958115075327 -0.24325754137433594 0.06751895239654788 -0.012689423956066136
-0.10874897929893436 0.09429389604103423 -0.06564170285730443 0.012559934740437921 0.0694620073443277 -0.12239125513366714 -0.25783305639474396 0.1298873879085072
0.02766829822306005 -0.19687179372881466 -0.2738101481518811 -0.32598617162928595 -0.2675622706106928 0.14072202498731923 -0.04934403897949651 -0.39849910739551314
0.19188740392740075 -0.11779160579543003 -0.0667555890943595 -0.05293042349621939 -0.08400383546472098 -0.07501287403730728 -0.034110125740342216 -0.13960041715126026
-0.217067317509757 -0.006392922672482379 -0.09458441691124123 0.08618060219744356 -0.10451537206642872 0.17989237969331626 0.09448639286201609 -0.10691253014708252
-0.02644684037165337 0.009981582958400827 0.03783386387835378 0.13842318869148276 0.08254631799046089 -0.13862782883786248 -0.01672109603558507 0.09406730805616664
-0.4166112207557924 -0.019558036606026303 0.06260500099389664 0.02321168021238425 0.14523485109332293 0.015688066704887146 -0.025709024399853456 0.04691491567610527
0.11899830215765138 -0.1158665899170176 0.07160590881500753 -0.02370993121553285 -0.11663871221974627 -0.058252855522863856 -0.03222914701305768 -0.046058274671890206
0.07125632858971805 0.11165230841043462 0.05832220535951136 -0.1360656963213054 -0.0035461186539363777 0.11605575887760065 0.08420192521730631 0.04337238468432353
-0.024007028995445934 -0.03288498529229367 -0.17002106934514702 0.13373456175850337 0.0027947254974246497 -0.5492444896708043 0.6134915319274982 0.4894214213307416
0.12448554035371605 -0.09577090028571145 0.12856636750183129 0.050969718163834894 0.4082823243331153 -0.5849398614105754 -0.3461875948702761 0.08516087398547567
0.1969776930500167 0.0900186493666105 0.1831787448629637 0.08308759442702376 0.22130344853057612 0.2612274649912246 -0.25315680762644066 0.06987869758037775
-0.054770311358670186 0.07795058243967172 0.25529597811465965 0.2841910379430128 -0.10004119002607008 -0.16956374774901697 -0.08342747646876321 0.07251998856250251
0.12881766595152327 0.010852985700998529 0.08520905362411157 -0.1458403830531098 -0.06390911141298626 0.004627895754877836 -0.3619891945421231 0.05259735808972281
0.056598749815904174 -0.25434983696247376 0.019489756210307643 0.1386469608979148 -0.26353939333954013 -0.11577800739671804 -0.1691507358106292 -0.445212644667379
0.14558105723537562 0.03684246211712849 -0.2925429174664185 -0.8009842773054215 0.20033897390746636 -0.1287587966549681 -0.10261931978488592 -0.07802952589674736
-0.37464170752424264 -0.1409498778763266 0.4365392054326063 -0.08172256635710111 0.050557031099846515 -0.10149164399173474 0.034597662010646256 0.048426900923957655
0.1451246577196853 0.5049392269600301 0.04656394101311976 -0.21952830968355072 0.2812792497703184 -0.00016265164894048602 -0.19187166270824216 0.31638212921598774
-0.06028358227754967 -0.31556907069602663 0.3050935658978919 -0.03583638226573199 -0.09641050577596322 0.14148306884482725 -0.22590938143138647 -0.3559645799879842
0.09273447024299042 -0.17849905634402322 -0.023091517584822217 -0.19900901594254988 -0.5478706008916302 0.780663984903479 -0.06765005433673976 -0.34733012382001727
0.21764495143730214 -0.07753872009027277 0.052225203444584124 0.10267201609918644 -0.21483103739504106 -0.14806502575165845 0.28101488956467974 -0.29925235880697465
0.13862471969577853 0.2292005934917076 -0.005329673787427117 -0.14154158300535472 -0.04932543409330042 -0.03203597421389491 0.5006073882224872 0.27370159059220284
-0.6283360070408657 -0.10193090939857395 0.7599282003911288 -0.2133715864654042 -0.015104745986384803 -0.2084931574566699 0.26940433570596356 -0.06269250338073246
00000000: 6963 9e0a 6fd5 773f 7026 67de 28ee bfbf
00000010: 01cf 8c01 0bad ba3f 8157 126a fa7a c73f
00000020: 367a ce44 d475 bdbf 1f92 2f7d c3dd 5cbf
00000030: d927 09b4 164f d53f 99b5 94b9 8aaf c03f
00000040: 2814 5655 b2a4 b23f 08cb 971f 5aee b5bf
00000050: 16fc 78b4 f716 b53f 13c0 d781 6d4e 8bbf
00000060: 3e3f e9d6 eaca 86bf a7f3 f764 912c b53f
00000070: 5451 89bc 9a98 92bf c415 2528 b481 ab3f
00000080: ac76 fcd2 aef3 b2bf f984 a81b 80bc 693f
00000090: 5bc6 00d6 4342 98bf e921 0a5c 440f d63f
000000a0: ef89 5698 d56d bbbf 0890 1f22 b22f bfbf
000000b0: d34a 0f3d 181a dabf af68 ac13 1279 b1bf
000000c0: b4eb f014 3c8e ad3f 9d33 5fa9 f9c3 cc3f
000000d0: 3c3c 96e0 83fd b8bf 7131 29b3 be07 b83f
000000e0: 2b6d 38b9 1a9f c03f 68bc 74af ae76 a23f
000000f0: 01a4 4f8c dfcd b23f 21b9 fc39 6f97 7ebf
00000100: 3062 74e8 d394 963f 8955 19d2 4b91 ca3f
00000110: a9d9 d784 1019 833f d6b2 eb49 88f2 8abf
00000120: e5dd 9e9a cdb6 cbbf e52a b7ea 1e83 c7bf
00000130: 246e fa04 f81e b7bf d473 4126 0250 ca3f
00000140: e314 3f8a 1356 dd3f f3f4 2994 3620 d73f
00000150: 8858 f59f 0ae0 6bbf 43c7 776a 0cc4 983f
00000160: 1713 7847 56f4 9ebf fa3e 1dea f223 d7bf
00000170: 9280 921c 3ebd bbbf 28d7 ea48 de15 d3bf
00000180: e39e a243 78c8 bfbf 14f1 2584 1886 ddbf
00000190: 901f 6874 1ee6 c7bf f6d8 29e3 2246 cebf
000001a0: d598 f7a3 ce5f b93f 245b 3edf 6938 b33f
000001b0: cdd1 f2c8 096f 813f f3a1 2da8 f41b a73f
000001c0: 7a58 a56e c7ef 923f 1deb 688e 2282 a93f
000001d0: d258 8168 1ef9 76bf cc53 56c1 a2e0 9ebf
000001e0: 7c5a e868 905c c2bf 9bda e14d 143d c7bf
000001f0: f044 f880 2bb2 c4bf b6cc f9f3 55bf d63f
00000200: d4f3 f8ac 726a c53f 40eb e4c0 5652 d33f
00000210: 7035 d9da d1a2 963f 46d2 7369 fb4d e0bf
00000220: beea 2600 8bb2 c7bf e07a dc0a 3777 c33f
00000230: 48e6 7f06 caa3 c03f 2b9a 98e9 2e4a b43f
00000240: f252 661e f154 7b3f eea6 1314 fafd 9ebf
00000250: a641 7664 aca5 b2bf 654c 3e43 143f c0bf
00000260: 587b 0d38 dcc2 b9bf 53a4 5a28 1023 cfbf
00000270: 3542 670c ec48 b13f d9ca 2ba7 e9fc 89bf
00000280: 29f3 8f1d f9d6 bbbf 216b b50f a523 b83f
00000290: 919f 0607 e5cd b0bf fcc0 99e7 05b9 893f
000002a0: 0ec0 db19 43c8 b13f ea90 1d86 0855 bfbf
000002b0: f4c2 4238 5680 d0bf 816d 9d61 26a0 c03f
000002c0: 401d 0410 1455 9c3f 97f9 c84d 1833 c9bf
000002d0: 0004 e8ff 1a86 d1bf 4b25 861a f5dc d4bf
000002e0: c0a6 7a80 bd1f d1bf 04df 92e7 2d03 c23f
000002f0: f7c6 5633 9f43 a9bf 51ee 6f66 0281 d9bf
00000300: aff6 3036 c48f c83f 717b a236 9727 bebf
00000310: f648 fcef e416 b1bf 0667 c24b b219 abbf
00000320: 1e3e 0f7e 4681 b5bf 70ea c430 0b34 b3bf
00000330: bfd0 08e5 e176 a1bf 6c18 162d 6dde c1bf
00000340: b60f dea2 dcc8 cbbf 0ae0 dd1c 772f 7abf
00000350: 9a52 5831 af36 b8bf bcd3 fc93 ee0f b63f
00000360: 925f f4f8 84c1 babf 578c caa7 b606 c73f
00000370: df65 429f 4230 b83f 5cab 839c 9e5e bbbf
00000380: 4746 ea69 e114 9bbf d4fa f262 3971 843f
00000390: 85e3 13d0 f55e a33f ed0e 38de d9b7 c13f
000003a0: 629b 2c68 c121 b53f 1349 9683 8ebe c1bf
000003b0: cd23 81c2 551f 91bf 9c57 b98b cb14 b83f
000003c0: a8bc 121c c2a9 dabf a52d 639e 0507 94bf
000003d0: a7b7 d59f e106 b03f 35f0 967d cdc4 973f
000003e0: 55b6 d73b 0e97 c23f 4f65 bd55 8810 903f
000003f0: c1a9 096c 7753 9abf 3e04 0c59 3b05 a83f
00000400: 87f0 0b38 ac76 be3f a983 64ce 6ea9 bdbf
00000410: 9a91 8fcc c354 b23f 75fd a48c 6a47 98bf
00000420: fd6d 6ede 08dc bdbf a016 bd7a 51d3 adbf
00000430: 7051 ccb8 5680 a0bf 9616 da3e f394 a7bf
00000440: bd05 edd0 da3d b23f 114e 25e5 3e95 bc3f
00000450: 1da5 4c79 68dc ad3f 515b e7c9 996a c1bf
00000460: df3e aff4 bf0c 6dbf 274a e488 d4b5 bd3f
00000470: b18d 11e3 418e b53f 2893 89bb e734 a63f
00000480: c064 a371 4c95 98bf 403d b800 4dd6 a0bf
00000490: 0bf3 3b1a 40c3 c5bf 4380 8cd0 361e c13f
000004a0: f488 9bd3 f6e4 663f 399e 142e 6993 e1bf
000004b0: a70c 40fe b8a1 e33f aaf3 a439 ae52 df3f
000004c0: a7e3 a4cc 48de bf3f 30b7 a214 7184 b8bf
000004d0: cd97 e4db dc74 c03f 4134 33f1 b318 aa3f
000004e0: 08eb a22f 4c21 da3f 8253 dccc d3b7 e2bf
000004f0: 3feb 8f03 f027 d6bf e098 aa60 1acd b53f
00000500: 197e d8a6 9036 c93f 6647 0f53 760b b73f
00000510: f41e 41af 6672 c73f f272 c484 3a45 b53f
00000520: e325 f7e0 ab53 cc3f 2a13 bd66 f3b7 d03f
00000530: 1afb 609c b833 d0bf cd77 cb00 92e3 b13f
00000540: 238a 27b0 da0a acbf ab54 48c2 91f4 b33f
00000550: fe60 33f1 c456 d03f ac04 729b 2f30 d23f
00000560: 6336 6aa7 4c9c b9bf 0da9 95cf 43b4 c5bf
00000570: ed69 05cb 805b b5bf 6fa7 2e83 ab90 b23f
00000580: 0a55 34e7 187d c03f 26ad 3215 173a 863f
00000590: d87f a3b2 42d0 b53f 9e19 d3cd e5aa c2bf
000005a0: 0769 6ff7 585c b0bf 53f9 a94e b3f4 723f
000005b0: 4e15 04ba d42a d7bf 86e5 b379 0aee aa3f
000005c0: bf57 e8e6 82fa ac3f ddca df89 4447 d0bf
000005d0: d402 1f66 1ff5 933f e787 5f01 2fbf c13f
000005e0: de76 e654 d4dd d0bf 5e6d 5da3 a0a3 bdbf
000005f0: 9753 3337 bba6 c5bf 042c 272d 5d7e dcbf
00000600: 041c df6b 66a2 c23f ef5b cbe3 03dd a23f
00000610: e075 cced 05b9 d2bf 2562 74c7 a9a1 e9bf
00000620: 68fc 851e b5a4 c93f 9e4a 5a12 2b7b c0bf
00000630: 20f2 697e 4245 babf 7e52 d935 bef9 b3bf
00000640: a630 6236 21fa d7bf 6b50 ed45 a50a c2bf
00000650: c94f b022 42f0 db3f 1354 d925 c5eb b4bf
00000660: 6b3a 5076 9ce2 a93f ba03 c33b 5bfb b9bf
00000670: 9b23 b5e5 c8b6 a13f 7418 6e27 69cb a83f
00000680: 2ce7 5fdd 7193 c23f e458 484f 7628 e03f
00000690: 7d00 a697 3ad7 a73f 8f89 51ef 8019 ccbf
000006a0: caa4 b3ae 7a00 d23f 3af2 9206 af51 25bf
000006b0: a736 2e2a 408f c8bf 7a60 81d4 9a3f d43f
000006c0: 6b50 bc5c 7ddd aebf dd2f 919d 4832 d4bf
000006d0: 0718 f029 a786 d33f 2832 ad73 2559 a2bf
000006e0: d06f 4ce1 5bae b8bf f228 d000 1e1c c23f
000006f0: 1bbf 8d3e 99ea ccbf 134c 65a9 1fc8 d6bf
00000700: c0d0 e73c 72bd b73f 01a6 ae9c 0ed9 c6bf
00000710: 2606 5e83 4da5 97bf e68b 8a9f 2079 c9bf
00000720: 179f 28ed 2788 e1bf 556a 8a09 33fb e83f
00000730: 70ec f292 8351 b1bf 283f ae20 a83a d6bf
00000740: 3d07 482e cadb cb3f 9a1f f6da 93d9 b3bf
00000750: 2d93 a409 43bd aa3f 9a42 5c97 b648 ba3f
00000760: a083 e35b 957f cbbf 5f73 a475 cbf3 c2bf
00000770: 73a3 17e0 25fc d13f 84ea 945d f326 d3bf
00000780: 3d59 c16e 74be c13f 77a5 a2ee 7156 cd3f
00000790: 1077 d869 91d4 75bf cd1a 04db 081e c2bf
000007a0: 775d 95ec 2e41 a9bf 7e9e 16eb 0467 a0bf
000007b0: 5da6 11c9 f904 e03f 733a 1dad 5384 d13f
000007c0: c878 241d 541b e4bf 9783 51e2 2418 babf
000007d0: f79d fff1 5451 e83f afdc e198 c24f cbbf
000007e0: 4c10 35b0 3cef 8ebf a6ab 5b5e e7af cabf
000007f0: 767e d0ae eb3d d13f 6480 b9ab 9d0c b0bf
