results/run_1/saved_model_unet3_64_128_1.pt (torch, 351968 bytes, 75 tensors)

module.down_path.0.block.0.weight f8 [8, 4, 3, 3]
0	0x3fa468b01ae1c72d	0.03986120536946056
1	0x3fdc87c9632ecffe	0.4457877605993871
2	0x3fc92df9330f1bfb	0.19671549790493245
3	0x3fafb24005479336	0.06190681518982048
4	0x3fa7438ce91ad389	0.045437243895697206
5	0x3fbf0ed6bd2bd791	0.1213201724857227
6	0x3fb17cbbd500c9a7	0.06830953550596651
7	0x3fc9e37ac0a91b17	0.20225462348226905
8	0x3fc76fc1489424ff	0.1830979923618443
9	0x3f90b71112756e35	0.01632334399378817
10	0x3fd63900637876da	0.3472290965454313
11	0x3fbd756ad9c83691	0.11507289711900116
12	0x3fc9ae9235346f05	0.20063998792544893
13	0x3fe53344e4ab3127	0.6625084367929376
14	0x3fc5328a4eb66687	0.165604866441573
15	0xbfb1c9391123f430	-0.06947666805713548
16	0xbfb7ef65dc6e41b2	-0.09349667197807923
17	0xbfbebd837ee43052	-0.12007924888547564
18	0x3f828795b1a9097a	0.009047669872533904
19	0x3fbc05b4a28a862e	0.10946206062592331
20	0x3fbfcc0b10d8aee5	0.12420720254220503
21	0x3fae79949e1d2247	0.05952133588886404
22	0x3fa4aa9e3cc1dc68	0.040364212910326824
23	0x3fbd62a8d6d17aa6	0.11478667492472514
24	0x3f96a1f39bc684e4	0.02210217130926119
25	0xbf816aba08e700a4	-0.00850434627216174
26	0x3fb1d2226c97a64c	0.06961264754468138
27	0xbf8807d6f73a5fba	-0.0117337030599599
28	0xbf86cdaf71122ede	-0.011134501112131042
29	0x3f7ad0462a456e62	0.006546281893260538
30	0x3f5a05edff68e322	0.0015883278080208248
31	0x3fa2b3deda559a44	0.03652855315413153
32	0xbfa6cb10613d0ca7	-0.044518005247050234
33	0x3f7ce22e59dafba7	0.00705164056642974
34	0xbfa047e7eb24cc2d	-0.03179859872252453
35	0x3f987c9d22223e56	0.023912863930091476
36	0xbf9714a16dedf35f	-0.022539636931003467
37	0x3fba79e06a4d693b	0.10342218966744536
38	0x3f9b80e2d403e554	0.02685884875333973
39	0xbfa1895029acffb1	-0.034250741088271204
40	0xbfbfaeea69023fdc	-0.12376275123301589
41	0xbfb152c2031547fb	-0.06766903472205847
42	0xbf91ec8c09f595ed	-0.017503917796963298
43	0x3f9d30b1c6f49a16	0.028506067055014205
44	0x3f75ccf44a8e8abc	0.005322412741323997
45	0x3fc7fb2d720e9009	0.18735282963928082
46	0xbf68fe0b2e9fa786	-0.003050824966511936
47	0x3fce946cde8ab922	0.23890457979491325
48	0xbfd4f909f7b03195	-0.3277001303511267
49	0xbfe30708e77d951f	-0.5946087380695281
50	0xbfd694dbb718809e	-0.35283558731499365
51	0xbfac0bf18d519007	-0.05477862215118994
52	0xbfd9980c30573eea	-0.399905249793831
53	0xbfa21f0b408b3947	-0.03539309656990724
54	0xbfae1a3417a2c846	-0.05879366673015389
55	0x3f8e47a01fa59cdb	0.014785052266871926
56	0x3fa7a34bb8e863d8	0.04616772300887079
57	0x3fb313053997dbaa	0.07450897842487217
58	0x3f9f062c3585717b	0.030296984450033797
59	0xbf9c5a7be9ade456	-0.027688919198656535
60	0x3f7821dc1aedeb09	0.005891666208180942
61	0x3f99d50000afd86d	0.025226593057560743
62	0xbf9afd5e9751bbcb	-0.026357152925296206
63	0xbf9b6e35840f0993	-0.026787601647592373
64	0x3f523b421b7a7b18	0.001112761075922902
65	0x3f678322516192b0	0.0028701467772854414
66	0x3f8c7b08a02e67ec	0.013906543148369331
67	0x3fa1b4030ead56fd	0.03457650713123248
68	0xbf92f18c029b41d6	-0.01849955335529948
69	0xbf81fa007705ca9c	-0.00877762187221736
70	0xbf8f7a53cb2b09e4	-0.015370039594363179
71	0x3f7e596546438cc2	0.0074094730409541305
72	0xbf910d6508b887a7	-0.01665265908935223
73	0x3f75abc88d0baf9b	0.005290778543649478
74	0x3fa851493c043169	0.04749516351339162
75	0x3fd24b4d576e3ff4	0.2858460763754913
76	0x3fd8651ffcaec7fa	0.3811721770863411
77	0x3fa78038982f5adc	0.04590012414671715
78	0x3fc37dae635f0b86	0.15227298595536015
79	0x3fc7bb439bcf32e2	0.18540234668616679
80	0x3fba5fedf490c0e3	0.10302626820407883
81	0x3fc31365e5ebc3ce	0.1490294811879082
82	0xbf9a5ea052cfd578	-0.02575159554904391
83	0x3fbcad3e3ce7d7dd	0.11201848017648737
84	0xbfb3b761b0901572	-0.07701693115821742
85	0xbfd91810a999c0de	-0.3920938164001323
86	0x3fb58321ea912014	0.0840321729348264
87	0x3f9582c33f21caf3	0.021006632545730274
88	0xbfb2ba5e719626b1	-0.07315626404865828
89	0x3fa7b574249c655e	0.04630625674162546
90	0xbf95be2fe343d49b	-0.021233318563606756
91	0x3fc118dbc866b4b6	0.13357112202849003
92	0xbfb76861f3b506dd	-0.09143650245553255
93	0x3fc889304b1093cd	0.191686665203774
94	0x3fd64619e0b3e6d4	0.3480286306727127
95	0x3fc73e2f4ad4df24	0.1815852275265054
96	0x3fba3c92ec8c02e1	0.1024867846972586
97	0x3fd48a676bef7bb4	0.3209475091988978
98	0xbf8d33665c8ae8e8	-0.01425819368283894
99	0xbfa2013e1e5c6251	-0.03516573067299034
100	0x3fb4bfb1530af099	0.08104999806795589
101	0xbfb345a253057c96	-0.07528128172769963
102	0xbfa1e5028b8933b7	-0.03495033219642301
103	0xbfb6a7570c9f214a	-0.0884909063162286
104	0x3fb981aa08c5c507	0.0996347686211899
105	0x3fa56ef54857d7ae	0.0418621683892718
106	0x3fa4cb8c0910e839	0.04061544047040439
107	0xbfabb903a4984e63	-0.05414592155662203
108	0xbfa33b33c9c5bc0d	-0.03756105268518448
109	0x3fc713d3c12e0101	0.1802925771007793
110	0x3fb5f77430ac89cc	0.08580709637002498
111	0x3fb6c0ac7185e27a	0.0888774659305315
112	0x3fe05bd8499f7de2	0.5112115323972228
113	0x3fcc71bdd84d17e1	0.22222111760692
114	0xbf9b1990916b2ce9	-0.026464709163332243
115	0x3fbb68beca09987f	0.10706703598552457
116	0x3fb36dd0fce3c7f2	0.07589441465441363
117	0x3fb01acd2f59d183	0.06290895849253357
118	0xbfa7aaa09d1b5c36	-0.046223658731542036
119	0xbf90d5e52bd42101	-0.016440945434653468
120	0xbfaf35182a1e4408	-0.06095195306910034
121	0xbfcd96e3ed9d0efc	-0.23116730787489093
122	0xbfa42e24feb502e9	-0.03941455468384964
123	0x3fb840e23faafb59	0.09474004797355685
124	0xbfbd0d570842f8d4	-0.11348480178546377
125	0x3fb392c5261ae065	0.07645828419015428
126	0x3fb409ac39ef7cf0	0.07827259458962366
127	0xbfac82c13a474afa	-0.05568507992179224
128	0xbfb6dd5438bb2e6a	-0.08931471238173008
129	0xbfc14fe9fcb0f462	-0.1352512821048633
130	0xbfe4b7319e5a06ac	-0.6473625271612113
131	0xbfd54757a1f92f27	-0.33247938935959315
132	0x3fb698547dd844a6	0.08826187202818633
133	0xbfc206343b358621	-0.14081433192318207
134	0x3f75f9c16ea4db56	0.005365138620894458
135	0xbf6cfd111e8f480e	-0.00353864043834396
136	0xbf7c7bec48e49ea3	-0.006954119670161826
137	0xbfabc329bbf145d3	-0.05422335070819497
138	0x3f78c85a911b477b	0.006050447250986464
139	0xbf9fa4ffd9fb996d	-0.03090286033593641
140	0x3fb412dbf2a6f88c	0.07841276811720571
141	0xbf9579f0cf5ef387	-0.02097297921840238
142	0x3fad87c2e8cf573d	0.057676402014904295
143	0xbfafe0071054f4c2	-0.06225606989253542
144	0x3fa4bdf0c595097c	0.0405116311253719
145	0xbfaeb0f7a22b43bb	-0.059943903490086346
146	0xbfb50f0174ee2178	-0.08226021866551558
147	0xbf932b4bf7444e5d	-0.01871985146233467
148	0x3fcaea4b6ab5a0a1	0.21027510366844118
149	0x3fbe4dc2f7ec18fd	0.11837404778279743
150	0x3f879b7d7a36d83e	0.011527042667562989
151	0xbfd4191f33e2c9bf	-0.31403331820470365
152	0xbfd0d15261d790b6	-0.262775989102248
153	0x3fbd5a4aa59994d0	0.11465899031607596
154	0x3fb9c18ac149227c	0.10060946673287136
155	0x3fba7f680f5fa974	0.10350656867345781
156	0xbfc04670cc0b92ba	-0.12714967692513374
157	0xbfc11dbb769e0ac7	-0.1337198571382798
158	0x3fbdfab4fde98098	0.11710673522020654
159	0x3fb4a374cb4381e8	0.08061914408199977
160	0xbfa9a08894a6312d	-0.05005289854588777
161	0xbfaefd3665380827	-0.06052560792524302
162	0xbfbd3bec70525bcb	-0.11419561140279126
163	0x3fbecbb1b99cc31e	0.12029562741805619
164	0xbfbdb64404dd0d76	-0.11606240385758845
165	0xbfc3e0ad45765e7d	-0.15529409305303324
166	0x3fd07e06564749c7	0.25769194055206096
167	0xbf973ce4907e2eaf	-0.022693225211283415
168	0xbfa9945b8c1c2641	-0.049960003712908214
169	0xbfc26b0c8ad5c0df	-0.14389187602092243
170	0xbfbd1185d80d9314	-0.11354862713558261
171	0xbfc22188dd072ac7	-0.14164839546568528
172	0xbfba882f8e84882e	-0.10364052991329295
173	0xbfaf9de41aeac71c	-0.06175148800447358
174	0x3fa48be7d57bd0ca	0.040129895029083665
175	0xbfc1d9c1a376812c	-0.1394578979643567
176	0xbfc0f3672c80e920	-0.13242807076478247
177	0xbf7dd0cc5e6299fa	-0.007279203715518262
178	0x3f9841fedfa14c8b	0.02368925323419239
179	0x3fb01e200e493242	0.06295967434670849
180	0x3fada46621264cf3	0.057894889399131254
181	0xbfd33c9695310558	-0.30057301110726575
182	0xbfb4fc3260087e79	-0.08197321743545584
183	0xbfa8bc935d84e81c	-0.04831371800032988
184	0xbfdc9fa8be9b0ba9	-0.44724482168038066
185	0xbfd1ca4cb29d7982	-0.2779723877228194
186	0x3fb188a7a970b4a5	0.06849143873906145
187	0xbfd23adbd2ad9fec	-0.28484244894070687
188	0xbfab0939393dc9d8	-0.05280474494692883
189	0xbfa237b34dc3d13d	-0.03558121036795334
190	0x3fad12f41f7fb2b6	0.05678522953517044
191	0xbf811ef5f0b4d483	-0.008359834106707936
192	0x3fb65d76fe22b92c	0.08736365990146017
193	0x3fbaf605e2b6be74	0.105316512918529
194	0x3fc4eac67655c1a4	0.16341477182460296
195	0xbf61f55552416d6b	-0.0021921793395855336
196	0x3fad0f2a1faa9a36	0.05675632130196499
197	0xbfbb2c43957896b7	-0.10614416503139067
198	0xbfaa6e777709dd4c	-0.05162404373271076
199	0x3fc2e6b53f34a412	0.14766564928257303
200	0x3fc01d58fc87929e	0.12589561777635522
201	0x3fc45b5778aa4b75	0.15903752700668475
202	0x3fd9fa49a6fed4e1	0.4059013491453936
203	0x3fd38ca0b5e72c76	0.3054582382580472
204	0xbfa9de1a340e88e3	-0.05052263150652594
205	0x3fce20d0e9583b08	0.23537646669179701
206	0x3f9a58954463a5af	0.025728542613170976
207	0xbf9b129253762d67	-0.026438032478421827
208	0x3fb448d9838d3c0f	0.0792365976496827
209	0xbfa63b2865298778	-0.043420088147072045
210	0x3fa309be7d65df33	0.037183716590276104
211	0xbf9bb8559dbff451	-0.02707036757782461
212	0x3f99de26e0dfc231	0.025261504626486967
213	0xbf9a8ee4c5365a13	-0.025935720955738328
214	0xbf87c828ae13ebdc	-0.011612241566117669
215	0x3f6133e8d37bebd5	0.0020999476799920904
216	0xbfa91e72eb969b76	-0.04906043172677858
217	0xbfcfec685a21d579	-0.2494020881746726
218	0xbfbbb5707e276732	-0.10823729591302536
219	0xbfb95a48dcfa723a	-0.09903388400056992
220	0xbfd0d4d535c018d2	-0.26299028634128974
221	0xbfc590d1348759c4	-0.16848197045210445
222	0x3fa5416ea5e0cb28	0.04151483321074628
223	0xbfc71477d0d87227	-0.18031213471921712
224	0x3fabf592b73cba40	0.054607949130844435
225	0x3f7095b9923e2329	0.004049038779961469
226	0x3fc84d1b2f5a815e	0.18985309421715163
227	0xbfa9dc97b722ce8a	-0.05051111326738773
228	0x3fbacf90f63763fe	0.10472970973150095
229	0x3fe21323c5ad8537	0.5648363934416584
230	0xbfc09278276558f7	-0.12946988986613636
231	0xbfbce0afea486270	-0.11280345411103965
232	0xbfb88c22f1a270e3	-0.09588831328659668
233	0xbfac4a20166ed0b1	-0.055253031481158905
234	0xbf84ba976f0d7b86	-0.010121520115431226
235	0xbfd49667fde974ad	-0.32168006702506596
236	0xbfbabbe6de5eed05	-0.1044296543977233
237	0xbfc4a82795d2d0d3	-0.16138167205429585
238	0xbfd0be3ce35d400a	-0.2616111965517126
239	0xbfc8b92b138b7a83	-0.19315088705385017
240	0x3f8137e33574849a	0.008407378262349764
241	0xbfc5e096e03db8f8	-0.1709164233138336
242	0x3f96177810aefccb	0.021573902147562756
243	0xbfb3114712a86cce	-0.0744823856879748
244	0x3faafb9f375a2bce	0.05270097304045117
245	0xbfa210b22f864825	-0.035283630658469435
246	0x3fbc537972a5b953	0.11064871834762373
247	0xbfb962dda98332fe	-0.0991648234223241
248	0x3f987fe1e8204394	0.0239253328255163
249	0xbfad1d50b12c0d3a	-0.05686428225274161
250	0x3fb0b10082a37428	0.06520083608070648
251	0xbf9b813a54056be6	-0.026860152605291086
252	0xbfc1747331fe4883	-0.13636627141073995
253	0xbfd4c60ff2d99600	-0.3245887633878226
254	0xbfd12876bc0abd85	-0.26809471477005103
255	0x3fb1dfa14655f9ab	0.06981857268508544

module.down_path.0.block.0.bias f8 [8]
0	0x3fb4f8f55fffcbcb	0.08192380517702628
1	0x3fc1b8a5fffdfa1b	0.13844752311338557
2	0xbfb0b68e000031f4	-0.06528556346911057
3	0x3fbfb89f5ffc62f0	0.1239108666744746
4	0xbfb668a6bffd8a5e	-0.08753435313477939
5	0x3fae30dac00112ab	0.05896648019601022
6	0xbfc29a5f7ffed22b	-0.14533609151625745
7	0xbfb2c2cc6002200c	-0.07328488677933381

module.down_path.0.block.1.weight f8 [8]
0	0x3ff031a1af812ac2	1.0121170859953712
1	0x3feb89e9345b5b0b	0.8605848333926088
2	0x3fef38aad3991df0	0.9756673939490934
3	0x3fee3bc0b420b3f8	0.9447940366859475
4	0x3ff039a3efece251	1.0140723583300721
5	0x3ff04967757fc291	1.0179209317977078
6	0x3fed895d4e133604	0.9230181240943129
7	0x3ff07d368be87eba	1.0305695977366853

module.down_path.0.block.1.bias f8 [8]
0	0x3fcdbe3c0a0adfd4	0.2323679970775162
1	0x3fe2c9764782778b	0.5870925327942457
2	0x3fcf89eca8eaf37d	0.24639662025392886
3	0x3fb72d4c7d843344	0.09053495468488132
4	0x3fe0e8c1a86b3367	0.5284126557759067
5	0x3fc413c19291e62d	0.1568529096291952
6	0x3fc609481c985e33	0.17215825458764442
7	0xbf87cffe92790ad6	-0.011627186627383972

module.down_path.0.block.1.running_mean f8 [8]
0	0xbf8860df2276177c	-0.011903517951178826
1	0x3fba5c07a79dea66	0.10296676485260434
2	0xbfc1fb1893bad39f	-0.14047534192436914
3	0x3f98474ba5b4b981	0.023709470738304986
4	0xbff87d09687e43d2	-1.5305265504614352
5	0x3fb0c0458989404b	0.06543383224311687
6	0xbfd0ee828ddb20ab	-0.2645574937164478
7	0xbfb441dbe8f36394	-0.07912992894433862

module.down_path.0.block.1.running_var f8 [8]
0	0x3fc14684915889f2	0.1349645337769086
1	0x3fb430c225436377	0.07886899385210976
2	0x3fc61e1f8b011823	0.1727942875606355
3	0x3fca9227dae5ed9e	0.20758531750094006
4	0x3fd026fcd5fc3e69	0.25237961670879955
5	0x3fca6439c409b4fb	0.20618364402927356
6	0x3fc4dd5f8c4f8c20	0.16300577498540836
7	0x3fbee093ec8e2625	0.12061428571009765

module.down_path.0.block.3.weight f8 [8, 8, 3, 3]
0	0x3fbaaae8332ec20d	0.10417033433510188
1	0x3fa207257f015a8f	0.03521077323300858
2	0x3fa29be8b25abc78	0.03634574105432703
3	0xbfc692c4509b59f9	-0.1763539689624876
4	0xbfbf30f559ec4134	-0.12184079594976965
5	0x3fbc3721c0fb42e3	0.11021624528371947
6	0x3f9d4e85549261df	0.028619845663884532
7	0x3fa879f89dc75d05	0.047805566082098884
8	0x3f3a5c378fec7b67	0.00040222507952763223
9	0x3f3ce558cfdeede4	0.0004409162355576131
10	0xbf9d79d9bc70ca52	-0.02878513538980549
11	0x3f9fa6a031ed1975	0.030909064337970322
12	0xbfb07af0bf429673	-0.06437592191158518
13	0xbf90bcd3ce863a5f	-0.016345319252247466
14	0xbf9457cdf6629621	-0.01986619774165466
15	0xbfa4f8348b50d31a	-0.040956155782998674
16	0xbfa30c79e377c0e0	-0.037204560296119515
17	0x3f9222e7c4d2f337	0.017711278331933058
18	0x3f94c7b02e126ad3	0.0202930000419695
19	0xbfa02ab9ed59abf4	-0.03157597563116346
20	0x3f8103c11dcdb71e	0.00830794212535185
21	0x3fb158638ab178f3	0.06775495658937185
22	0xbfc458125fb9432c	-0.15893773721702453
23	0xbf9d56155ee3a62d	-0.028648694912510365
24	0x3f9d752c0ca0cd05	0.028767288466224467
25	0x3fc30e067de4d399	0.1488655199733813
26	0x3fb6d4a1c6d94582	0.08918200592713357
27	0xbfb2197e34bfccfe	-0.07070149219343944
28	0xbfad70f0d53fb555	-0.05750229457030779
29	0xbf98968b092188e9	-0.024011776382743575
30	0xbf58e16a16e3725e	-0.0015185867337585072
31	0x3fc0d364c2afbc6d	0.1314512205712818
32	0xbf75950dd9eabb89	-0.005269102198027017
33	0xbf84d96455ab2653	-0.010180267204663062
34	0xbf8764a81c458228	-0.011422456133630979
35	0xbfa9263a51a25183	-0.04911978003034092
36	0xbf900ba431ee317f	-0.015669408366691947
37	0xbf97366803783248	-0.022668481075060393
38	0xbfa8573a0af4eb28	-0.04754048713444653
39	0x3fc249fc9e109bda	0.14288289754878641
40	0xbfa15c1a19ba6a76	-0.033905807152412246
41	0xbfbb0b3ec8674aee	-0.10564033882773646
42	0x3f99015ff32df95e	0.02441930696249394
43	0x3fb6c2ac34444bad	0.08890796924633433
44	0xbfa22e352b1dc36c	-0.0355087866909177
45	0xbf95a6e6f7531a9f	-0.02114449390935624
46	0x3f96795048118683	0.02194714965697254
47	0x3f8188b804e74489	0.008561551713599751
48	0xbfaa7ffa09cd8cae	-0.051757634827276675
49	0xbfb43c1629271877	-0.07904184822754866
50	0x3f74facd3ebde135	0.0051219956766249035
51	0x3f98436218052dbb	0.02369454642875522
52	0xbfa7be612fa748ca	-0.04637435633380134
53	0x3f985c6231473fa7	0.023789915330609947
54	0x3f94cc52bef695fa	0.0203106812529281
55	0xbfab6de72779dc73	-0.053572867935991385
56	0x3fa10d8910b7e309	0.033306391993340574
57	0x3fbe1bd4026cc4b4	0.11761212405396543
58	0x3fda6b0220122abc	0.4127812684243215
59	0x3fb12a7fd17108e0	0.06705473769492043
60	0x3fa9d18ec3daeba0	0.050426923187351536
61	0x3fd43c7408bff6d5	0.316189774079118
62	0x3fbdf33982e7b7ed	0.11699256368567008
63	0xbf80c41faded88ab	-0.008186576361996897
64	0xbfa6ca11a11b694c	-0.04451041309012513
65	0xbf5e959e4ee5e76f	-0.0018667264917824019
66	0x3fb649fb366e05f5	0.08706636504032146
67	0x3fd31a62e184cc1a	0.2984854891139449
68	0xbfc2f962c5a22385	-0.14823565149370324
69	0x3fa183224c5297af	0.03420359784767812
70	0xbf88e8b8d6653b07	-0.012162632029370636
71	0x3fa383e784684760	0.0381157254343083
72	0xbfb2d9a95ad5f3ef	-0.07363375156087647
73	0x3f9d862e22b29a25	0.02883216940667856
74	0xbfb468f608f85483	-0.07972657889361483
75	0x3fccedc5c75cbac5	0.22600624308093678
76	0x3fdb0fa57a256987	0.4228299801667607
77	0x3fc008e1aed1e5d6	0.12527104412201479
78	0x3f353bf929a4c36e	0.0003240092570591578
79	0x3fc3cd8152f4b7ea	0.1547090201433428
80	0x3f83585efb1faa95	0.009445898092925101
81	0xbf9b97026c9915d3	-0.026943242910666697
82	0x3fba0bf7ccdcd840	0.10174511672525544
83	0xbf720fd5cdacfd7f	-0.0044096328445556434
84	0xbfa8325c3a9ad007	-0.04725921836271146
85	0x3fa3963cb2d1d5b9	0.03825559313637989
86	0xbfb29f466096a5df	-0.07274284227482707
87	0x3fa98698317167d0	0.04985499957611206
88	0xbfad1ded575fee4f	-0.05686895076356945
89	0x3f8f8b68009b6b56	0.015402615088012144
90	0xbfb2a79e7874decf	-0.07287016335328221
91	0xbfc2c1b6a5e95aed	-0.14653666592740625
92	0xbfc47b0fb030c7c8	-0.16000553229383585
93	0xbfb5347a7b15561d	-0.08283200745548709
94	0xbfb3f0dae1cd6f05	-0.07789390576129669
95	0xbfbd6cff76c9cd69	-0.11494442606072187
96	0xbfa171590871955e	-0.03406789997169811
97	0xbfb35578ef586e80	-0.07552295535463749
98	0xbfb9c0b944a06dc6	-0.10059698033767636
99	0xbf9d91206892a3b2	-0.02887392652761251
100	0xbfb15b8365a0c93f	-0.06780263167528221
101	0x3fa5cbab2e58e627	0.04256949368250345
102	0x3fb0935994777064	0.06474838137313693
103	0xbfa8e9ad24908597	-0.04865780898422683
104	0xbfa056dc0571b37a	-0.03191268507439467
105	0xbfb2719be278414e	-0.07204603461309952
106	0xbfc088fa2346a8a2	-0.12918020937406022
107	0x3f921492c4cb5f8e	0.017656605969790067
108	0x3fa1191093f573f7	0.03339435392511086
109	0xbfba0e46c84dfeae	-0.1017803420090739
110	0xbfa86a6f27ea9980	-0.047687028524978636
111	0xbfa4bde1b4f31b6e	-0.04051118215425374
112	0xbfb399f76f1bd55a	-0.0765680929433378
113	0x3fbad5b071e66202	0.10482313900718768
114	0x3fa3527ed34fffec	0.037738765044195904
115	0xbfb1f95ab3dfa908	-0.07021109477469534
116	0x3f887bbb921e26ba	0.011954751392994612
117	0x3f9d66fa19f8841e	0.02871313842308975
118	0x3fa72462449ef1d4	0.04519946181924053
119	0xbfa437a226bf26ff	-0.0394869491861538
120	0xbfac3d689791b5b8	-0.05515601015290933
121	0x3fb2c5999c0dfb75	0.07332763729026033
122	0xbf8ea5c2687ba72c	-0.014964598477905953
123	0x3f9b8e3f155cc1a8	0.02690981452832522
124	0x3fb115d78d0499fd	0.06673953240224502
125	0x3f692170c3127f10	0.0030677034743148493
126	0xbf9d664a3ffba9a5	-0.0287105180313262
127	0x3fb31e1ab9804b9d	0.07467810658299219
128	0xbf9241b74f7290f6	-0.01782881185921866
129	0x3fa10a6bb52022b4	0.033282628879594794
130	0x3fc70d356c8238f8	0.18009059713626363
131	0x3fb854fb9e202d78	0.09504673586359569
132	0x3f985b8e6b1a4d16	0.0237867596502613
133	0x3fb81e71acea7aed	0.09421453925686381
134	0x3fb9a52ab2d943e3	0.10017649523184917
135	0x3f544d492e871885	0.0012391295114056189
136	0xbfaa18a0241fe6a0	-0.05096912804579046
137	0x3fc01db59275872c	0.12590665484736385
138	0xbfa1f6f6b1c0a153	-0.0350873081191049
139	0xbfd3240442488781	-0.29907328103046643
140	0xbfc64db74c511932	-0.1742467043533878
141	0xbfa0ff600e39541b	-0.033198358284302475
142	0xbfb5a6628147e05b	-0.08457008034008721
143	0x3fa067bf8750b63a	0.032041535633066734
144	0x3f9ff5a5a7e9254e	0.031210506795365682
145	0x3fbae9513996b4ed	0.10512263923620298
146	0x3f914b4cb1b7251b	0.016888807627570928
147	0xbfb42da5ad509c59	-0.07882152062721683
148	0xbfccfc20b198d2f5	-0.2264443270847988
149	0xbfa1979e3ca6e374	-0.034359879401967414
150	0xbfa8213957b00d5a	-0.0471284789600996
151	0xbf856e6d202c6e23	-0.010464527649268146
152	0x3fb2387d4b28650e	0.071174460267134
153	0x3f538e7262f2e6d9	0.0011936299377296926
154	0xbf93fa08cb888929	-0.01950849287289561
155	0xbfaedeb5fe6d13b8	-0.060292899425383906
156	0xbfbf6241c59c5964	-0.12259303163987095
157	0xbfa7348774088c34	-0.0453226403372117
158	0x3fa0a8ca58803440	0.03253776865322111
159	0x3f70768a50eb75bc	0.004019298836934689
160	0x3f983078bb9ab025	0.023622404528097846
161	0xbf9d80d231ebe0e8	-0.028811725899658663
162	0xbf8ff5f21f9d4003	-0.015605823125639523
163	0xbfaf8c407057f49d	-0.0616169106615214
164	0xbf922284b8e14080	-0.01770980242173481
165	0xbfb8e80fc5146f47	-0.09729097901839366
166	0xbfc7a7501d91d598	-0.18479348605948753
167	0xbfb216e444b7c942	-0.0706617992180201
168	0x3fadcceae111e00a	0.05820402142938981
169	0x3f88b14cc6bc5591	0.012056922736102734
170	0xbf8b22d533de5ba4	-0.013250032086757298
171	0x3fbb20c7e091ab21	0.10596894486085918
172	0x3fbad8c60ba7c5ee	0.10487020287089141
173	0xbf795987ad8025af	-0.006188898078116108
174	0x3fb93d55277dd04c	0.09859211172244037
175	0x3fb5176c9c4394a0	0.08238867583311782
176	0x3fb4cec421018672	0.08128000074204936
177	0x3f80701d18f4d118	0.008026339840036686
178	0xbfa6cf56d73b3900	-0.04455062272391963
179	0x3fb338f455b201bd	0.07508780567332614
180	0xbfb6246e65aedf4c	-0.08649339659211569
181	0xbfb0a77c8a0716bd	-0.06505564088646572
182	0xbfa86275de61b356	-0.047626193424412364
183	0xbfb53ea7ab629d74	-0.08298728880128242
184	0x3fb30bd9707da59f	0.07439955707891109
185	0x3fae1cd5dc79f596	0.05881374660837506
186	0xbf82fa8a32e0eba8	-0.009266929319087527
187	0x3fc631a690aaca58	0.17339021743608174
188	0xbf8ca3db6142e091	-0.013984407334973777
189	0xbfae4f537cca7b81	-0.05919896028830519
190	0x3f5e269bd8a63625	0.0018402597366703546
191	0x3fa20890fb59e922	0.03522160595180625
192	0xbfa97027ddec248a	-0.049683805313244525
193	0x3fb52e4c8c9349b3	0.0827377169801256
194	0xbfaaf66d92e2c92c	-0.052661346607595
195	0xbfb9279c712ca95d	-0.09826066744850466
196	0xbfa388829c39baa6	-0.03815086514520276
197	0xbf90a748d636419c	-0.01626313979574122
198	0xbfb80fd4e0700a1b	-0.09399157027659337
199	0x3f9a5f690704e271	0.02575458627072397
200	0xbfa848b66e9b8043	-0.04742975330532364
201	0x3fc8f51547569ce1	0.19497934325520475
202	0x3fc3cdb66f5b156b	0.15471535146040635
203	0xbf852a2289609173	-0.010334272210521722
204	0x3fba26a683cbc477	0.10215225904154744
205	0x3fc0150f4659c5ce	0.12564269003955392
206	0xbfaab04ad5052d66	-0.05212625360817462
207	0xbfb698745b7fd156	-0.08826377138013206
208	0xbf91acce17c2b0e8	-0.01726076145193725
209	0xbfaf6a8793f19a23	-0.06135963135675506
210	0x3fc587c984097a3c	0.16820639559860406
211	0x3fcaa6558b03431d	0.2082011154912146
212	0x3fb38edcccd56ef6	0.07639865876029348
213	0x3fad1192e52dc52b	0.05677470252602242
214	0x3fbba404e2af1b69	0.10797148260381352
215	0xbfac40ad59408422	-0.05518094744207526
216	0x3fb0e7da5a60a506	0.06603779512865424
217	0xbfb32a333c6e1251	-0.07486267304745665
218	0x3fa96452e5e5066a	0.049593535006818026
219	0xbfa0275049d66558	-0.031549939168324215
220	0xbfc7100893668477	-0.18017680356300378
221	0xbf9d8eb6adaff0b0	-0.028864721632985535
222	0xbf8eae5f3460ba95	-0.014981025491662062
223	0xbfc61d1fd63bd14a	-0.17276380501392402
224	0x3fad0fa55fe356a9	0.05675999446399988
225	0x3fa213bdcc6487ac	0.035306864929466414
226	0x3fd6762686630ebc	0.35096133350110015
227	0xbf9f0c277f24bd5d	-0.030319802413200637
228	0x3fc3ffea654e3be5	0.15624742456972665
229	0x3fe085eecf3797b5	0.5163492247781877
230	0x3fce0fd3ec1905b6	0.23485802677354933
231	0xbfbdc1e8135e4f34	-0.11624002907620651
232	0xbf62822fdb9afa2b	-0.002259343597727855
233	0xbfc2048163eb76a9	-0.14076249483962514
234	0x3f9d755fd2e20d2e	0.02876805996539849
235	0x3fbf5d5f61bc6dba	0.12251850258001343
236	0x3fb1d6dba4e6de4a	0.06968472267077988
237	0x3fafacd677f28382	0.06186552252007173
238	0x3fcb96e127828903	0.21554197720713128
239	0x3fc38c2748009590	0.15271464362846787
240	0x3f83359027a0d9e1	0.009379507264481059
241	0x3fa5f25c85c20c3c	0.04286469586170269
242	0x3fb4635c734b5cab	0.07964113058857218
243	0xbfa018c6bafa7340	-0.031439028095724186
244	0xbfac1c1b505e01b6	-0.054901937065554504
245	0x3f9ab5b43fd27e6d	0.026083771129036416
246	0x3fa663050c4fea54	0.04372421050353084
247	0x3fbb4e211b51ae50	0.10666090886086832
248	0xbf8f864767d3b103	-0.015392835479780325
249	0xbf73ae34a432119e	-0.004804807310510388
250	0xbfb1cc27abdb1dcd	-0.06952140756322152
251	0xbf7fcc7a6c66b0ad	-0.007763364998407391
252	0xbfb2529d973760c8	-0.07157311384014797
253	0xbfa3e5daa819e720	-0.03886302282349008
254	0xbfaf67d9307514b3	-0.06133917538185454
255	0x3fb13ee395cde0e7	0.06736586005525035

module.down_path.0.block.3.bias f8 [8]
0	0x3fb2c2a900013b4f	0.07328277826421224
1	0xbfb52d6c7ffeaaf3	-0.08272436261055897
2	0xbf9b3bfc0003134e	-0.02659600973199199
3	0xbfa595db800063c9	-0.0421589463950976
4	0x3faee96ebffea96e	0.06037469953237716
5	0x3fb2144b80008030	0.07062217593238596
6	0xbfb9c0cde0013b8b	-0.10059820860736417
7	0xbfa39a579ffcab61	-0.03828691318479716

module.down_path.0.block.4.weight f8 [8]
0	0x3fec110ccca45462	0.8770812985336642
1	0x3ff10d86b54e4f43	1.0658022959004974
2	0x3fefaeb1f5522096	0.9900750914976182
3	0x3fed7577cd28def0	0.9205893523239563
4	0x3fef920ba721b411	0.9865778221407046
5	0x3ff253e14901b12c	1.1454785205670062
6	0x3fed7c468b1a69a7	0.9214203564509277
7	0x3feacfb38a0463ba	0.8378541656157872

module.down_path.0.block.4.bias f8 [8]
0	0x3fe0a984499b8f87	0.5206929624223314
1	0xbfd69fec20c2edfa	-0.3535108871398901
2	0x3fd016ef5e03f9ff	0.2513998430366939
3	0x3fe8cede3a642251	0.7752524509861108
4	0x3fe49d8d5c023b8e	0.6442324444814049
5	0x3fe5ac51d1c0b6a1	0.6772851082548251
6	0xbf9c88905ca23d86	-0.027864699987330897
7	0x3fd7210dca6e3510	0.3613924481258701

module.down_path.0.block.4.running_mean f8 [8]
0	0x3fd8f2bf46a277e1	0.38981611154474477
1	0xbfc68c5ac785a83f	-0.1761582826832768
2	0xbfb909f27327720f	-0.09780803023699768
3	0x3fec92e42b9e7c14	0.8929310657439395
4	0x3feecc6c4f40b6b6	0.962453989782907
5	0x3fe000c3944888c5	0.5000932594450879
6	0xbfcf61c560a69ae5	-0.24517123431470292
7	0x3fd3cb22c0e76ef0	0.3092734226063234

module.down_path.0.block.4.running_var f8 [8]
0	0x3fe3b43c59252132	0.6157514325250644
1	0x3fd8d12297639ce9	0.38776459488003795
2	0x3fe31f5dc95d7775	0.5975789006149471
3	0x3ff07de4056abfc3	1.0307350360489955
4	0x3fe170f374c38361	0.5450379639188264
5	0x3fdde16621f9a238	0.4668822604931253
6	0x3fea1c69b426e090	0.815968372210607
7	0x3fe72da6c9d1b9b0	0.7243226949483894

module.down_path.1.weight f8 [16, 8, 3, 3]
0	0xbfa47fbef05846c3	-0.040037123526543116
1	0x3fc970134fd786fd	0.19873277090578503
2	0xbfa9073d6fbc60b8	-0.04888336171114943
3	0x3fb14adbb1fff3a9	0.06754849525164154
4	0x3fd3ec4456ebe805	0.31129559029034254
5	0x3f98a49eb862fcc3	0.024065475467747854
6	0xbfc008868c555648	-0.1252601800176072
7	0x3fb084ef0ca797ed	0.0645284086127444
8	0xbfba59d8740fce6d	-0.10293343385256444
9	0x3f9b8a85e0e61deb	0.026895610667933594
10	0xbfa284ce8cf8d36f	-0.036169485767834846
11	0x3fb05ac7ddedfbf8	0.06388520401195297
12	0xbfaeb26efec58ab1	-0.059955090141348484
13	0x3faa4d85fa00d225	0.05137270619198756
14	0x3fa3cc80b31008fe	0.03866960702727516
15	0xbfb747dc7ffe71bf	-0.09094026684619559
16	0x3fa5ef1ca2122881	0.04283990362553514
17	0x3f9103e045614171	0.01661634849034627
18	0xbfb6ff98b2bf89a3	-0.0898375927350004
19	0x3fb15a44f6be8ab4	0.06778365158110483
20	0x3fb073eaba33316f	0.06426875158212451
21	0x3f9c8309e85b5b9e	0.02784362297719733
22	0x3fc064ee901745e0	0.1280801967209717
23	0x3f6634da47905acd	0.0027107489845648925
24	0xbfb9de6b528141a7	-0.1010500980785368
25	0xbfa68523deee23c7	-0.04398452850643469
26	0x3fbe49c3e1db4c71	0.11831306709363944
27	0xbfbefd3865cab8cf	-0.12105133519318943
28	0x3f4d20f0decb3a58	0.0008889366268592476
29	0xbf5fcc5e0cf1c236	-0.0019408148253000751
30	0x3fc65e3c58dda064	0.17475084628245263
31	0xbf4f41469ac16197	-0.0009538264034843366
32	0xbfc5fb8453a690cd	-0.17173818668846366
33	0xbfa7fcc50eb71d5e	-0.04685035519247081
34	0xbfb9c9ccbd8b7963	-0.10073547008093935
35	0x3faaa7b77d1508f4	0.052060827273196525
36	0x3f90d9b1ec5b150c	0.01645544056988961
37	0xbf7ca3e2fdf3e48b	-0.0069922320246799214
38	0xbfa3207fdecbadd0	-0.03735732645676715
39	0x3f963b947dc2ca58	0.02171165483077639
40	0xbfc83ff05afccfb8	-0.1894512600207443
41	0xbfc19a6e3d131557	-0.13752534849315154
42	0x3fc037dbf59fee8f	0.1267046880092164
43	0x3fa6926cd84989f3	0.04408588543153149
44	0x3f693bbe661c5555	0.0030802458503652965
45	0xbf7542c5998d06b6	-0.005190631746531052
46	0xbfc52c573451710f	-0.16541566900821933
47	0x3fac821aaa6fd61c	0.05568011599090658
48	0x3fc030a91b18c843	0.12648500273786753
49	0xbf4cd9333ac9e597	-0.0008803844589941209
50	0x3f934330efd4ab8b	0.018811001432520718
51	0x3fb0a3bb93980a02	0.06499836305014386
52	0xbfae4f57837a837a	-0.059199080276136365
53	0xbfcff8775e34bf42	-0.24977008914856397
54	0x3fb3b04a5e22c363	0.07690872953641086
55	0x3fc11f57dbd5a43a	0.13376901849849948
56	0xbfa2bb00c2eac522	-0.03658296946867724
57	0x3fa4e557c81c2624	0.04081224744556902
58	0x3fc0a5a979cbb212	0.13005560347609496
59	0xbfc2bd0a73f25ada	-0.14639406835040952
60	0xbfb2ef2c1a2711ad	-0.07396197927943744
61	0xbf77ed1234ee770b	-0.005841323013468412
62	0x3f93b648726ac360	0.01925004194589819
63	0x3fcf1d398b324bd8	0.2430793695135367
64	0x3f7a606393232b97	0.006439579929245285
65	0x3fb5574a55fb3563	0.08336319541122843
66	0x3f81cdad6f80a8bb	0.008693079915321858
67	0xbfa13c19dc581c44	-0.03366165938137347
68	0xbfafa46c3820d2ad	-0.061801320888127044
69	0x3fa1483e693aa688	0.033754301400517994
70	0xbfc75a56ba799927	-0.18244442086433674
71	0x3fa683333d891a6c	0.043969727765717476
72	0xbfa9c0f17dddc868	-0.05030016576246582
73	0x3fc04602ad498837	0.1271365495804859
74	0x3fa217a2616e74e6	0.035336565392961636
75	0x3faa579107ea516d	0.05144932958242774
76	0xbf603cc3603f20d2	-0.00198209914558243
77	0xbfcce4d741c7ad91	-0.22573366844094925
78	0x3fa8556140fdf1eb	0.047526396926489266
79	0x3fb551069c32077e	0.08326760590901292
80	0xbfb65816ed40bc3f	-0.08728163997942405
81	0xbfa83a0528906901	-0.047317658616707454
82	0x3fa812abbad7d2e6	0.04701744705008597
83	0x3fb29eb96d93b2d2	0.07273444104402962
84	0x3fc00cb7d89ae28e	0.12538812710206
85	0xbfbea7f4a5065f70	-0.11975029972961493
86	0xbfbaed9205372631	-0.10518753650026082
87	0x3fb6cb19395c917c	0.08903653765134395
88	0xbf8cb851bbf78ec4	-0.014023436116026196
89	0xbfb26cb6185b1cde	-0.07197130293490114
90	0xbfb460829544097e	-0.07959762710746607
91	0xbf74c15013035dd4	-0.005067169942968037
92	0xbf99a396422144e1	-0.02503809717774608
93	0xbfa9261d57bd9870	-0.049118916473887775
94	0xbfb7ed5bfd7f9b26	-0.09346556605269693
95	0xbfabf4201b7b2542	-0.0545969041391552
96	0x3f909f9aa8810041	0.01623384145227669
97	0xbfc103ef5751788e	-0.13293258441530437
98	0xbfbf0e2f96b2f2c7	-0.12131020955252857
99	0xbfbcc8319f330e48	-0.1124297155066013
100	0x3f9cfe24962197ce	0.028313228286059026
101	0xbfa5749208b26221	-0.04190498691713552
102	0xbfb2113fc881179a	-0.07057570119022075
103	0x3fb6601c15d0e73d	0.08740401775949365
104	0x3fcff6a82dba20cf	0.2497148726727176
105	0xbfb8e71abc50345d	-0.09727637383930827
106	0xbfc0c810abcace33	-0.13110550297061394
107	0x3fc2354ac40c294e	0.14225134441978543
108	0x3f97b3f85466a07a	0.023147468711301113
109	0x3fa7381603a78b07	0.045349777170278265
110	0xbfabd38eeef6b682	-0.054348436994911445
111	0xbfa763fd28c0a74b	-0.04568472979037937
112	0x3fc7d29017b9a4b3	0.18611336859183822
113	0x3fa95997b176b12d	0.04951166192344867
114	0x3fa9a2543095491c	0.05006659596496574
115	0x3fcbf9c532226c77	0.2185598845288472
116	0x3fc7c720b9fdbdb5	0.18576439935303105
117	0xbf86e69f2efe1795	-0.011182063695524916
118	0x3fb7f508729f665d	0.0935826568451374
119	0x3f9b1765a95335ba	0.026456440410404382
120	0x3fba7d6205730e7a	0.10347569115679703
121	0x3f96d61b7b80114e	0.022301129734857476
122	0xbfaa065da4dfe85e	-0.05082981717710376
123	0x3fbbb1d9a1bc6084	0.10818252752904028
124	0x3fa90dc0c7c91e34	0.0489330524329116
125	0xbfb5645fdb2f8bba	-0.08356284238065728
126	0x3f9eb8c2a4b89537	0.030001679710172282
127	0x3fa73af94bc78549	0.04537180948296766
128	0x3fa618f727067927	0.043159221185521006
129	0x3fb31f075c185532	0.07469221113600069
130	0x3fa3343588fb624f	0.03750769898551153
131	0xbfb9fe3072b1081d	-0.10153487014852698
132	0x3fc4c691cd036d82	0.16230986128253383
133	0x3fc8297cc4b91dc1	0.18876609426136606
134	0xbfb835b3d4c13f07	-0.09456943458758015
135	0xbfb17f31fa0b5282	-0.06834709505648998
136	0xbfae01aec47403fb	-0.05860658786878755
137	0xbf9265e7237cdda1	-0.017966853657723218
138	0x3fa5a6ddd7fc5fea	0.042288715949496083
139	0xbfbdeac322caa081	-0.11686343764688624
140	0x3fa4eb08d9d6c4e3	0.04085567149321336
141	0x3fac22ef37f6c231	0.05495402868416866
142	0x3fa1a516e9486035	0.03446265790643147
143	0x3fc1c3e400e2d9e9	0.13879060786503253
144	0xbfa4ad331d4c752b	-0.040383908583161286
145	0x3fac53cd210558ad	0.055326853066320104
146	0xbfb8d8be07f57743	-0.09705722517307173
147	0xbfa1dab8063d8f8e	-0.03487181736161836
148	0xbfbfdb0a7c9d2041	-0.12443604986504032
149	0xbfc3f72430356d8b	-0.1559796557802254
150	0x3fc1cd7349395ac4	0.13908234668152464
151	0xbfbc2fa4ecf0a0d2	-0.11010199341456264
152	0x3fb3a7843e2d6a8f	0.07677485006335359
153	0x3fad2c2244ea7b57	0.05697733966120804
154	0x3f81afa5b7e7436e	0.008635801958833258
155	0x3fa2a25bdd777ff9	0.036394949707528164
156	0xbfbcc6a48544ceda	-0.1124060464251743
157	0xbfc557d470cc613a	-0.16674285419208862
158	0x3f985a9a5824e757	0.023783122663395186
159	0xbfb3c54752c48840	-0.07722898264594935
160	0xbfb6b0774c546b1b	-0.08863015759963526
161	0x3fb3440b242ea556	0.07525701173166985
162	0xbfb2568f0d926825	-0.07163328248353247
163	0x3fa7ab5b3b12ebbc	0.04622922035328922
164	0xbf71f36ec2121d50	-0.004382546089920794
165	0xbfb1b3d50f70cbce	-0.06915027262657178
166	0xbfb48c09ebe7f830	-0.08026182183672925
167	0xbfc2216c5fb5d8f5	-0.14164499924999743
168	0x3f8b6cb34565261e	0.013390923075934199
169	0xbfbec488b3527ff7	-0.12018637063965786
170	0xbfbcf0f2b9191378	-0.11305157679551125
171	0xbfaef4fa39c82b1f	-0.06046277957292134
172	0x3f94523df34771ca	0.019844978307320273
173	0x3fb688b6510cde94	0.08802356222883595
174	0x3fc230049e501628	0.14209039430731818
175	0x3fc3d5943329411c	0.15495541093924536
176	0xbfa46b7bf9cbc3ef	-0.03988253998057433
177	0xbfacdb924576e0c2	-0.056362696628129
178	0x3f912874fc686052	0.01675589361738645
179	0xbfbde991f6509a01	-0.11684524787469998
180	0x3fa46085dfd34f6d	0.03979891164058711
181	0xbf8b73c35010f5f3	-0.013404394036224487
182	0xbfb063d32605c2b4	-0.06402320555003876
183	0xbfc1f509ebff0215	-0.14029048941849057
184	0xbfb932ff95c6ab38	-0.09843442350999687
185	0xbfb2fa4d61cfd253	-0.07413180959685776
186	0xbfc361d2f9db7c1e	-0.1514228553778318
187	0x3fa5c657db757a6a	0.0425288634676136
188	0x3f75a1b843052465	0.005281181118626942
189	0xbf97b35ab6b6a816	-0.023145120050379907
190	0xbfbf1512601525ba	-0.12141527982489367
191	0x3f82a1a6451fe6dc	0.009097384438053017
192	0x3f8f915c883d21c0	0.015413973720243557
193	0xbf9a7dfc99aa40c8	-0.025871226195307157
194	0xbfa0712dd65b7ec5	-0.032113487641024764
195	0x3fa2ede64537f05f	0.036971279096150715
196	0xbfb10925950c8413	-0.06654581917656825
197	0xbfb5e2de1b4cfd93	-0.08549297491571499
198	0xbf86130af667cc9d	-0.01077850880117231
199	0x3f9cf59302f9014a	0.028280541473806133
200	0xbf9c773d3f3ff9d9	-0.027798611627071288
201	0xbfc8cc1d1b26f027	-0.1937290556505797
202	0xbfd16000a0b27a88	-0.27148452466091344
203	0xbfc54563d918826b	-0.1661801157033723
204	0x3f6093c7ff66d287	0.0020235925869321355
205	0xbfb3f95129e8daf7	-0.07802302621062639
206	0xbfbdb78556276aa1	-0.1160815558754771
207	0xbf630d5d734d34b6	-0.0023257088854849685
208	0xbfb8497654bd5282	-0.09487094467960769
209	0x3fb84ee940ceaeb1	0.0949540885182454
210	0x3f8fbf11df23449c	0.015501155492901035
211	0x3fa22562c934c7c0	0.03544148164873162
212	0x3fb4afe69eb9757f	0.08080903411015149
213	0xbfb00c02ea956401	-0.06268327929628016
214	0xbf9903af7bb6bf24	-0.024428121496099867
215	0x3fb92ac95aba9b99	0.09830912079870159
216	0x3f77dfc04c85c049	0.005828620116844326
217	0x3f7bc581a6bf35b0	0.006780153704267475
218	0xbf9b25c2d5d22b2c	-0.026511234570118322
219	0x3fa8429790e7738c	0.047383057058801276
220	0x3fbb7dbfd196abdc	0.1073875319186039
221	0x3fca4051fa975428	0.2050878976430408
222	0xbf9f2cc59b612ef8	-0.030444228752727093
223	0x3fb52291b611bc4a	0.08255873389292492
224	0x3fc73c42518925d6	0.181526460468645
225	0xbfa3618b81b043af	-0.03785358389007542
226	0xbfb16a22105734df	-0.06802571200315154
227	0x3fa3fadd5afa3848	0.03902332053722596
228	0x3fc197b492f6890f	0.13744218040398734
229	0x3f9be6a8117d964b	0.02724707228425975
230	0xbf9c79123d97c026	-0.027805600175213517
231	0xbfa053966831b0e9	-0.03188772222424225
232	0xbfb610d67a28dee2	-0.08619442446149209
233	0xbfc53584a4dc0590	-0.16569574403551401
234	0x3fbf4b843aa6f2aa	0.12224604064881342
235	0xbfbbd23dea6065a7	-0.10867678615649955
236	0xbfc6f6b3b4867f1e	-0.1794037467452591
237	0xbf93b6c70a63a107	-0.01925192833815095
238	0xbfc5e1705a561659	-0.17094234858466242
239	0xbf93b99d7d65234c	-0.019262753275401764
240	0xbfc11364f924e82a	-0.13340437093012386
241	0xbfaee809083ab889	-0.06036403871017721
242	0x3fa6195c7810045a	0.043162240654063225
243	0xbf9951db71c26bd6	-0.02472632295448903
244	0x3fb2cdbf29349624	0.07345194583884812
245	0x3f952acf8859ae51	0.020671122262156342
246	0xbfba66426da37d96	-0.10312285591816414
247	0xbfcb2faf9578598d	-0.21239275739999322
248	0x3f601fed735336a1	0.001968349237904857
249	0x3fb18015dd66304d	0.06836067824605259
250	0xbfa215cd15906e57	-0.03532257927164711
251	0x3fc01c581b13c884	0.12586499521382077
252	0xbfa619bb0660c95e	-0.043165058640073126
253	0x3fb59a80ba37a3b2	0.08438877626725974
254	0x3fc1bd04e1568b1e	0.13858090403399442
255	0x3fc6a5b99b74c98a	0.17693252649912622

module.down_path.2.block.0.weight f8 [16, 16, 3, 3]
0	0xbfa609040bab4169	-0.04303753511851733
1	0xbfb1ca38cd13f120	-0.06949191099915142
2	0xbfbc5a4a3bbbbef3	-0.11075271566710025
3	0x3f9126ec68440757	0.016750043739200162
4	0xbfc3036b1356b9af	-0.14854181713367384
5	0x3fc30d550150eace	0.14884436191808564
6	0xbfa4c150a7e57996	-0.040537376876034134
7	0x3fb155da427b6340	0.06771625636191647
8	0x3f81d14882d60a98	0.008699957363892438
9	0x3f886d912c305187	0.01192773262122483
10	0x3fa2a9fd96cbf993	0.036453175218400656
11	0x3fa2d401fb5a7e7f	0.03677374070434513
12	0xbfb5810382b9d08d	-0.08399984303997794
13	0x3fd67ec4236e4132	0.35148719272639817
14	0x3fa7fccc7fa005b8	0.0468505769531577
15	0xbf80efbe413f042e	-0.00826977383246871
16	0x3fa1001b23ea0cbe	0.033203933843674246
17	0x3fac763513e54998	0.055589350393933035
18	0xbfb46a55c807df9b	-0.07974754460872051
19	0xbfb2d3e6d9fbc4b0	-0.07354586431371746
20	0xbfaccd3e41ff603b	-0.05625338130602172
21	0xbfb6a7f95fdce10f	-0.08850058164978612
22	0xbfc86a4d9cd0a329	-0.19074411541921535
23	0x3f9b058e03aad859	0.026388377164686314
24	0x3fa437130d82cceb	0.03948268451622446
25	0xbf8cc8ab52a8e3a8	-0.01405462118155916
26	0xbfa7b83461173d3d	-0.04632724461736835
27	0xbf551738bf1da2ab	-0.0012872747579086112
28	0x3fa583a178bf80d6	0.04201988791442239
29	0xbfa7a81497f682d7	-0.046204227018511616
30	0xbfb10573de0ecd52	-0.06648945018132693
31	0xbfd01265c8804506	-0.25112289982014635
32	0x3fbbdef73a1f471c	0.10887093705175882
33	0x3f97d3405adfd9e4	0.02326679758695062
34	0x3fa57dcce932e068	0.04197540613807932
35	0x3fc25df6a53c48cc	0.14349253719462352
36	0x3fc23af588594a8e	0.14242428929954482
37	0xbf54508cd7cf2a85	-0.001239907781598022
38	0xbf7670c56b16f1f0	-0.0054786407139855026
39	0xbf9d72007611e671	-0.028755194860855263
40	0x3fba01d0acf1c398	0.1015901968219296
41	0xbfbb43f64acdfe69	-0.10650576902662014
42	0x3f99a68d56ff5054	0.025049408373732554
43	0x3f835c23b6bb509b	0.00945308591273202
44	0x3fb6438b41b9db57	0.08696813921583889
45	0xbfaf23ce3c61ec7c	-0.0608200501164555
46	0xbfaaaafa887db3fd	-0.052085713540556335
47	0xbf63a0dc310b2f43	-0.00239604002158514
48	0x3fbd3cfb0c9715b9	0.11421174104096722
49	0xbfb0dfd321a63d53	-0.06591529437559034
50	0xbfc4d1decc27bb33	-0.1626547333575786
51	0xbfb31c4e5a20ba82	-0.07465066624056685
52	0xbf93e9040430d296	-0.01944357181146702
53	0xbfb262c6ffa0fa07	-0.07181972256601209
54	0xbf830db780f4a658	-0.009303506491579558
55	0x3fa7164bf91069df	0.045091985848745735
56	0x3f7fff5759995948	0.007811871729776883
57	0xbfa6b1faf677e5ab	-0.04432663210532025
58	0x3fa5619ec5fb0b9f	0.041760408084449134
59	0xbfa6450048d139c7	-0.04349518669970425
60	0xbfb570d253a51703	-0.08375277082549464
61	0x3fc8dcc72b08495f	0.1942376098746292
62	0xbf967cbc98af7411	-0.021960207766699883
63	0x3f64d63773769214	0.0025435526874437817
64	0x3fbe7ffcf80b65d0	0.11914044433378668
65	0xbf9f3c1b8021670f	-0.030502729125465197
66	0x3fb1221d7fcb2936	0.06692680711708907
67	0xbfab5318c26e0d1f	-0.053368352636449005
68	0x3fc9b5c009f049d4	0.20085907445225237
69	0x3f8ae8c42b9f1da6	0.01313927896616358
70	0xbfa4385a274c034b	-0.03949243287752909
71	0x3fa12ce8f4136601	0.033545760912328866
72	0x3fabe7912c4bd9bb	0.054501091630231945
73	0xbf8057d2a617e804	-0.00798000878693373
74	0x3fa1af866388e268	0.03454227414153338
75	0x3f994cba1e14f797	0.02470675285916676
76	0x3fbf485da7a3315c	0.1221979650756046
77	0xbf8b284333815f68	-0.013260388383215818
78	0x3fb201d2a1706dac	0.070340313352452
79	0xbfaa08e91a7038ad	-0.05084923217519708
80	0xbfa49de1bc0e2c1f	-0.04026704235646882
81	0x3fb261cc52a4e304	0.07180478112867311
82	0x3facb74fdb0e7acb	0.056086059084227445
83	0x3fb572408aa4465b	0.08377459893042653
84	0x3fae835e8c8b0b45	0.05959601846327315
85	0x3fce533cc97247ba	0.23691520534754124
86	0xbfb60ab0204c0eff	-0.08610058582786094
87	0xbfb1dc6c2891d50c	-0.06976963034124511
88	0xbfa287914bdcf6cc	-0.03619054843009692
89	0xbfa8dbe175cb4f9f	-0.04855255663792878
90	0x3fb45e19a9b7f5d6	0.07956085580368408
91	0xbf9d73a5436c4208	-0.028761465301672146
92	0x3fb4b0f5691810b3	0.08082517448207475
93	0xbf98be6fcc1124e1	-0.0241639583876222
94	0x3fa87726b73f2e48	0.04778405177020467
95	0x3f91024773527f85	0.01661025658961492
96	0x3fb6ea02d872080f	0.0895082262450446
97	0xbf8dfe4fa94c8d14	-0.01464521632585173
98	0xbf95a636377eb2a4	-0.021141860139027316
99	0xbfb9cef5e9a4ad5e	-0.100814218084158
100	0x3fbb363d3aeb17c6	0.10629637421069935
101	0xbfaf77d413f08252	-0.061461093362826916
102	0x3fca81c6c5d1bcdb	0.20708546313424034
103	0xbfc5e43e49b959b3	-0.1710279331188765
104	0x3fc31f593606da6b	0.14939417970682042
105	0x3fbaac238f129857	0.1041891311930113
106	0x3fb90ecc93c85faa	0.0978820668027526
107	0x3fb204d3df169768	0.07038616367807793
108	0xbfa8465e870bb40d	-0.047411874756882445
109	0xbfbd2a4ee95e6666	-0.11392682263831375
110	0x3f77b3444d781e30	0.0057861965247024
111	0xbfc6a2398b06c094	-0.17682570732495562
112	0x3fd2563c3d4b6e83	0.286513385637342
113	0xbfc10f5289b166ca	-0.133280102951906
114	0x3f78a8d55df57c22	0.006020387139272139
115	0xbf9d9e953e9582d5	-0.02892525858385649
116	0xbf922509fde37c6d	-0.017719417687541417
117	0xbfb7e9fdd5cc3949	-0.09341417760535821
118	0xbfa51a721e1915c0	-0.04121739022643167
119	0x3fa01b468d43d7b9	0.03145809626032254
120	0xbfb1a3a9502af523	-0.06890352446767571
121	0x3fc77732bb75532b	0.18332513955342597
122	0xbfb2b8f89d47ff52	-0.07313493575929655
123	0x3faa0a89538b753d	0.050861636589369465
124	0xbfb21404b32e8e30	-0.07061795591885622
125	0x3f8e311015f2b7c3	0.014742017431071624
126	0xbf4aaa72e2191acc	-0.0008137761071303705
127	0xbf93e534abaf1e95	-0.019429038027537777
128	0x3f8bae12ba1f001f	0.01351561193939693
129	0xbfb1e8f153535873	-0.06996067318263659
130	0x3fbcfcd2fca1b660	0.1132327906395516
131	0xbfc501ac5da51460	-0.16411356518270548
132	0x3fa44cc31a62bbfb	0.03964814850893813
133	0x3fb89e6770326a4c	0.09616705407317133
134	0xbfaccd64fc9af831	-0.05625453551827809
135	0x3fbd58234d84435a	0.11462612764831928
136	0xbf9ce69ccdbc235a	-0.028223466927588127
137	0x3f924f7878ffdf28	0.017881281266425436
138	0xbfb568850db53b2d	-0.08362609467188227
139	0x3fbe9e6b8abe3e8a	0.11960479867252097
140	0xbfb74375b34a3c43	-0.09087310435482814
141	0xbf80e1dbc101a9e7	-0.008243290736761956
142	0xbfc3606436ebc37a	-0.15137913400351605
143	0x3fc8afac2150ae51	0.19286109568325796
144	0x3f9ae920b03c3246	0.02627993655828422
145	0xbfba16f8126e12c8	-0.10191297960234202
146	0xbf874b1a57d23478	-0.011373716168487244
147	0xbfc3865831e51d71	-0.15253736912039131
148	0x3fd469a0ee86d23f	0.31894706052415595
149	0xbf9313afd376bc63	-0.018629786760069666
150	0x3fb5be2438bac2d6	0.08493257889746117
151	0xbf95d568f86218a2	-0.02132190719614669
152	0xbfb4f62beef951b3	-0.08188128074954797
153	0x3fabb314e1c4ac40	0.05410065895042537
154	0x3fb5c1260036444d	0.08497846131491933
155	0xbf7eb313511d2c0a	-0.007494998413515761
156	0xbf9d6f6d03c43315	-0.028745368342288097
157	0xbfc82a494923d870	-0.1887904746178637
158	0xbf97ed4d9f68ca8c	-0.023366177420209897
159	0x3f817e45e35d2821	0.008541627884955773
160	0x3fc272c0aaeb7166	0.14412697168053085
161	0x3fa0a97c5675d443	0.032543073229057494
162	0x3f96343bbc108bc4	0.021683629373125304
163	0xbfa0b2ff6c99514d	-0.032615644461346883
164	0x3faa4b883aa697cb	0.05135751453353484
165	0x3fb4bae8bfa22516	0.08097700766133573
166	0xbfc5796663f202c4	-0.1677673328413417
167	0x3fbedda99f94e6f6	0.12056980272327764
168	0x3fc1746c59031d59	0.13636545511529155
169	0x3f954b8ecbe9580b	0.02079604262902283
170	0x3f9dbc862ed857d3	0.029039475068280595
171	0xbf7a37dc586d883e	-0.00640092918806273
172	0xbfa122e7ff412507	-0.033469438466065475
173	0xbfa5b80fc382401f	-0.04241990338880463
174	0x3f9e46af77219c97	0.029566518446156733
175	0x3fd5539fb0cbcec1	0.33322899117704813
176	0xbfb3830ac539f7e3	-0.07621829333399392
177	0x3f7d950147e49380	0.007222180369613862
178	0xbfa4050cc9f4706d	-0.03910102811116265
179	0x3fbdba3a3c9c2088	0.11612285594685734
180	0xbf82c1cf8fc6848b	-0.009158727240732986
181	0xbfb884d8129ec985	-0.09577703909488917
182	0x3f76a8360707a2a3	0.00553151230312979
183	0x3f7f8828174466f1	0.007698208432225449
184	0xbfb1caaccb797012	-0.06949882476459404
185	0x3fb3693d63618b76	0.07582458187384397
186	0x3fb27c3211d9593d	0.0722075742317871
187	0x3fb530e7610bc38b	0.0827774631432147
188	0x3fb7016136d3a992	0.08986480320496629
189	0xbf9f745ad13b88c2	-0.03071729566625759
190	0xbf9b3f382dfdc26c	-0.026608350569804193
191	0xbfa704ea9bb0a1cd	-0.044959384446261554
192	0x3f9b8181810953a0	0.026861213207968526
193	0x3fb0a39918d462bf	0.06499630790893728
194	0x3fb4cb84eda17bf1	0.08123045732052937
195	0x3f98ef06df150e2b	0.024349315038547353
196	0xbfa2ba803998b4c0	-0.03657913878519414
197	0x3f880c27316aed8f	0.011741930194481024
198	0xbfbdee1be96a64cf	-0.11691450546858849
199	0x3f62b1194900b076	0.002281712899295181
200	0x3fa7ee21c2c0fd6f	0.04673867704741041
201	0x3fa0bb112f6ded66	0.03267720893833363
202	0x3fc58050eebffd53	0.1679783979197774
203	0xbfb84458a986bdd5	-0.09479288233591572
204	0x3f8420c5ccf84c7c	0.009828133886037309
205	0xbf9b78ecbbbcc36e	-0.026828478773669166
206	0xbfc31332ffd716be	-0.14902341358372512
207	0x3fabbd34c2a58213	0.054177902947007216
208	0x3fb12e9999988371	0.06711730956932428
209	0x3f92dc505161fd3e	0.018418555228433713
210	0x3f939b17855ac8b3	0.019146316065140122
211	0x3f9c8dc2afe1bf65	0.02788452337739446
212	0xbfb62b9023a7cc99	-0.08660221930022018
213	0x3f979a332d593889	0.023049163477758348
214	0x3fc2859dc49c8249	0.14470264530338486
215	0x3fb9f036973b5a45	0.10132161323722595
216	0x3f9b6aefadd45bbc	0.026775116905891613
217	0xbfaa461dbd3de91e	-0.051316193915186256
218	0xbfc5d72951ea1e6e	-0.1706287050221706
219	0x3fb44d3a1f46a550	0.07930339110921136
220	0x3fc32c7cb29b67b3	0.14979513855979362
221	0x3fbb2eac7970a8d5	0.10618093457074747
222	0xbfa3675cd6b8fa5e	-0.03789796944737554
223	0xbfbf8a54d3440f1d	-0.12320451886995128
224	0xbf93efcab57f51e8	-0.01946942074558136
225	0xbf91876ca476be30	-0.017118165529323714
226	0x3fab44dc6288bddf	0.05325974180993475
227	0xbfa4fa652b4ca85d	-0.04097286370809237
228	0x3fa4f88596774f87	0.04095857106918204
229	0x3fd2aa30f12ada53	0.29163764525893504
230	0x3fbcca1aa69fb627	0.1124588639065328
231	0xbfa26bb95a64a399	-0.03597811916762978
232	0xbfb0f47b5d541134	-0.0662304976322659
233	0xbf87bd1317457c56	-0.011591099879920613
234	0x3fbcdb47e46c8158	0.11272095991853825
235	0xbf6157e7f92a3bb5	-0.0021171122292069308
236	0x3faba9e43c481187	0.0540305446229779
237	0x3fbc43462f9ed6ac	0.11040152227982486
238	0xbf95d5e7f2525109	-0.02132379929078446
239	0x3fae1b51e669cbe5	0.058802184464091835
240	0x3f97eba5ecbbb3d1	0.023359863828705422
241	0xbfc251a8bc226565	-0.14311703859565764
242	0x3fa08a43777cf8e9	0.0323048671111666
243	0xbf97be6c726343be	-0.02318734596412119
244	0x3fa1479639312ffc	0.033749289018118106
245	0xbfa75732d7ea10d3	-0.045587147576073093
246	0x3f96b1486125ad67	0.02216065495433153
247	0x3fa3fbca7043cc66	0.039030386165813266
248	0x3fc3cad32ef1ebe0	0.15462722580181687
249	0xbfaf6d41e86a394c	-0.06138044321152111
250	0x3fb4e7227557be5c	0.0816518341523475
251	0x3fb3a85687dd6210	0.0767873841954343
252	0x3f472acf60628a1c	0.0007070076542457534
253	0xbf9e0f1b34810524	-0.029354500846470746
254	0x3f8b3ce955b1ff63	0.013299773147309407
255	0x3fb46d0d81b31e45	0.0797890130662547

module.down_path.2.block.0.bias f8 [16]
0	0xbfb5217cbfff794f	-0.08254222571801971
1	0x3fb0c65bdfff230f	0.0655267164103288
2	0x3fb1cffac000350a	0.06957976520080336
3	0x3fa0c96760028bc3	0.03278658911701584
4	0xbfb001f140006e76	-0.062529638410007
5	0x3fb361df3fffb748	0.07571215927575026
6	0xbfa553b5bffff5aa	-0.04165428131816935
7	0x3fa83a3c00001678	0.047319293022195674
8	0xbfb17ccb80003171	-0.06831046938913744
9	0xbfb17d68bfffc3b5	-0.06831984221913852
10	0x3f7b87000004c3cc	0.006720542907985693
11	0x3fb31f0cbfff7396	0.07469253241965954
12	0x3fa09be05ffe8946	0.03243924304776384
13	0xbf95659cbffaec20	-0.02089543267969074
14	0x3fa4291460025d81	0.03937591239917549
15	0xbf6dac05600e3219	-0.0036220650658320805

module.down_path.2.block.1.weight f8 [16]
0	0x3fefbfb1c065e3b0	0.9921501882337136
1	0x3fef3ff55bc599c8	0.9765574257297027
2	0x3ff1dc17724255e7	1.1162332976576808
3	0x3ff228accb474fea	1.134930414254081
4	0x3fe98e425635046c	0.7986156162006757
5	0x3ff3154bb122342d	1.1926991385728443
6	0x3feaba4522a6aff1	0.8352380444316606
7	0x3fed094450d1a611	0.9073812082762648
8	0x3ff091eb500ca07d	1.035624802296325
9	0x3fedd9054435e782	0.9327417690503668
10	0x3fea0db21305ed70	0.8141718265100462
11	0x3ff01add593ce2af	1.0065587507107627
12	0x3feb0391ecd6afa7	0.8441857934717419
13	0x3fefa42b0ed6f364	0.9887900628888073
14	0x3ff086f6458e004f	1.032949706743256
15	0x3feea5655b9b746b	0.9576899327472693

module.down_path.2.block.1.bias f8 [16]
0	0x3feb6617b9875cb3	0.8562124847038802
1	0xbf9db0b116074d0b	-0.028994338006509895
2	0x3fd059b27dfbeb77	0.25547468474513074
3	0xbfb39e4a7f7df97b	-0.0766340790996533
4	0x3fd5dc612bcbd25c	0.34157590176554264
5	0x3fdf852faef8a69c	0.49250404440918216
6	0x3fdac2a74596a7da	0.41813070102454974
7	0xbfc2a52cb77c3383	-0.1456657310413015
8	0x3fc094f3b5a7d421	0.12954565400983234
9	0x3fd93774dac6e5cb	0.3940097939008324
10	0x3fda2292ba5028a9	0.4083601779426638
11	0xbfc53919cc9907cc	-0.16580507745862716
12	0x3f7dd49de733aa52	0.007282845315084234
13	0x3f79205c15363dd7	0.006134376238505954
14	0x3fe302bce911f2e8	0.594084220137657
15	0x3fce89627951f027	0.23856764720756127
