results/run_1/saved_model_unet3_64_128_9.pt (torch, 351968 bytes, 75 tensors)

module.down_path.0.block.0.weight f8 [8, 4, 3, 3]
00000000: 00c1 5539 d721 ba3f 6590 97a7 4196 e13f
00000010: de25 02d6 53aa b23f 9fbd 6f94 10b5 ae3f
00000020: e9bb f987 bea9 ddbf c667 0c72 2feb d33f
00000030: 28b7 c084 4f57 c03f f36b 82bb 6dfa c23f
00000040: 48d5 e7b9 47cf 91bf ea40 212a 5842 d7bf
00000050: ac52 1589 6ab0 c63f 507b 8338 cacf d7bf
00000060: 8d3f 803c 551d ba3f c5f6 ad7f 59e9 fc3f
00000070: 0b7c 95a3 ec0f ef3f f77e 9ef6 2f24 c9bf
00000080: 4e78 9743 6044 bcbf 2d7d 21cc 7447 d4bf
00000090: 7060 5f13 1ffb c2bf 959e a6b5 ecd0 a1bf
000000a0: 67a7 2988 a9f9 b9bf 7df4 9825 3c04 ac3f
000000b0: 1656 bb66 ae83 d23f d9b5 4bfe dabc c43f
000000c0: dd09 6572 ba38 b6bf 24c1 fd28 33c8 c4bf
000000d0: 6825 cc01 e480 a4bf 3a80 3d2a 8036 91bf
000000e0: 3063 4d1f 6b97 a4bf b7f2 af7b 2b59 b5bf
000000f0: 3f4b 7fe0 fced bbbf f8bf e854 440b b33f
00000100: bae9 09aa 0e9f bbbf 3dd2 0b95 552c a53f
00000110: d0e9 5ccf 3e7b b4bf f6af 0614 a268 a03f
00000120: 3ac6 ed38 d6cf d53f faba d155 a13a e23f
00000130: ef65 2fe2 4b7a c93f f037 36af e7ad b53f
00000140: 567c 83fb 410f edbf 6dcf 6005 c642 b73f
00000150: 68ed bb7b 7790 cc3f 7d19 1e7d ef1e d83f
00000160: ae7f 5cbe 70ea 723f 9be5 aa62 fd4c d03f
00000170: dadf 987f 941a ca3f 61ba 1d0a 5001 cc3f
00000180: ffa1 2a2d 5357 e6bf 1513 78f2 92eb edbf
00000190: 55a0 b5d6 1e78 edbf 3fc3 e5c5 3aae cb3f
000001a0: c696 d4dc 5d7c a0bf 0309 1eaf 6db5 d03f
000001b0: 24b7 18ec 5b7a d2bf 374f 06c1 ebcb ba3f
000001c0: 77a9 94f4 3f3f cdbf cd4c f6f9 bb74 c03f
000001d0: ddde bd38 de5e d93f 3790 085f 6700 b2bf
000001e0: e74e 2aba 28e2 d0bf 25eb 12ed a630 cabf
000001f0: 0bc0 b435 8ddb b33f 8095 7d68 faf9 b7bf
00000200: f760 f1c7 e5e1 873f 98da 8cd8 19ff b6bf
00000210: f468 95ff 9c13 78bf d406 ddc7 63a7 b2bf
00000220: bed8 e47a 68ff 943f 47f0 33fc e360 93bf
00000230: 7bc4 32c7 4a76 b9bf dff1 9c37 bc64 a63f
00000240: d0d0 3275 644e c5bf ae5f fc58 5e6d c1bf
00000250: 688c 60eb 1363 bcbf 547f ad03 cada db3f
00000260: 0344 2942 7daa eb3f 4253 b8b9 ded6 dc3f
00000270: d649 53b0 3ad2 ce3f 0f58 e2dc fc47 f23f
00000280: 8939 418f 9143 c1bf d430 cede 5e58 bb3f
00000290: 458d f201 2e51 99bf 723b 4fff 56e0 a83f
000002a0: 52fb 3830 040c b83f 66e1 f58f bb2f d8bf
000002b0: aed3 f03f 24db be3f 109d 459b 5ffe bf3f
000002c0: eaf6 9c6b 58c7 ddbf 6bec a1a9 9f4a cf3f
000002d0: 9d48 62c6 b55c b8bf 45b1 e94f 1ae9 be3f
000002e0: 39b9 bdc0 3ec7 babf 82dc 39a3 7b97 d53f
000002f0: ccbd 9814 6714 e53f 888a 73b6 55dc d03f
00000300: ac23 655b 5e49 d33f d1be f929 27b7 e93f
00000310: 452f 28b0 5ee4 c53f d3c3 e730 dc9d a4bf
00000320: b573 1505 b5f3 b23f a02c 22a9 3c4b b4bf
00000330: 884c fc78 9174 af3f ee0e d774 72fb b4bf
00000340: 8fca 6889 2f84 c53f d164 7863 2c53 a7bf
00000350: 2024 9234 6f56 b43f 8501 b225 d3b6 bcbf
00000360: a0b1 dfc7 daef c2bf e94e 1935 874f d53f
00000370: ef64 f8e9 f85e bd3f 155d ca34 7efd d83f
00000380: 3fe5 03bc 4836 eb3f 2008 b880 d5f3 e63f
00000390: 5b0e 22b5 72b0 d1bf 2a35 a0aa e1e3 e43f
000003a0: 5b54 4739 7dc7 abbf 584b 7522 a3ec b43f
000003b0: 555c ce83 4c8a b93f efed 6254 a2d3 d23f
000003c0: c1ff 0bb7 8593 b7bf 2fee 7241 6dc4 e0bf
000003d0: 96b2 e687 9f6f c7bf 19ff 6352 9e50 c03f
000003e0: bbb8 c991 9df4 b23f 8e50 95b6 db90 c73f
000003f0: b988 3066 6a53 be3f 02b4 cbb0 dbca ccbf
00000400: e386 cbeb ffec 9abf 8c77 ffb0 75c2 b2bf
00000410: 43c6 9315 d1fb f6bf 738b 5ed7 5279 e0bf
00000420: 98c9 ca5b 185d ad3f c114 065b 9f85 d5bf
00000430: 8aa1 0f36 c87d b13f ef11 188c 354e b6bf
00000440: 1a8d 9314 cf3d b1bf 314c fc9b 0d5d b5bf
00000450: 1c9a 4f6e 241d ae3f 7306 0a19 58bd a8bf
00000460: 7e5f 5a0b d6d5 b33f 7c57 6032 e777 99bf
00000470: e931 0d67 56d9 8a3f 4ac0 fda1 4e22 83bf
00000480: 02bb b766 8fec c43f bda4 f137 4924 dcbf
00000490: 0f2c ec06 8448 c6bf 5f12 c062 02a9 ddbf
000004a0: 3174 94eb c6f3 ec3f 080b 812f 7f4b 9ebf
000004b0: 6c34 b80b b142 c4bf 2dc4 99b5 3bf6 c0bf
000004c0: 403b cdb9 f765 d4bf b873 1677 ffd0 b0bf
000004d0: 429d 844f fda8 c93f 0692 db90 3805 bebf
000004e0: d9c2 6109 c640 c8bf 0584 0db5 53c1 c63f
000004f0: 8652 852e 8f42 bc3f 99fc 26cf 4bfa c13f
00000500: c20f aa95 2e45 d2bf baeb 2f79 1698 b23f
00000510: 4127 2c5a 4f21 d2bf 977a d2cf 80e4 c13f
00000520: 76f0 7ebb b57c d2bf 7518 26c0 6b86 cbbf
00000530: ad4a 68ad 2bb2 e43f 5079 20b1 4efe b7bf
00000540: 30c6 3ede 9a9c af3f 2934 6cd1 cbd8 d6bf
00000550: 740d 4c62 e82a b2bf a571 9d1f 7dd9 a33f
00000560: 3cb5 94a8 38b6 d4bf af26 e8fa f53f b7bf
00000570: 2a39 908f 818f acbf 1cb5 338f 30b2 c1bf
00000580: 9497 5d62 5781 babf 338e fc92 794d ac3f
00000590: 702d b72d 263f c2bf 351a c206 affd 943f
000005a0: 272a 6fc4 5715 d13f bac7 4a16 1349 e1bf
000005b0: 1c4e 3d6a b872 c1bf e315 6e51 b207 e4bf
000005c0: 8d42 8ef1 17b3 eabf 0d2d d787 8bfb ecbf
000005d0: 69d0 3f37 d997 d43f 22f1 ed4c a271 ebbf
000005e0: ec53 28cb 31f0 ae3f 9e86 ec0e 9db4 95bf
000005f0: 01c1 b66a a67b b2bf d375 21d6 aa24 c9bf
00000600: fe6b fc15 8ead ad3f 7b7a 11a7 2994 df3f
00000610: 2a47 e0c5 5d56 a43f c476 7b4c 8132 c2bf
00000620: feeb 2815 65f2 65bf c610 fbd3 0de9 c6bf
00000630: d4c2 e6dc ca6a c5bf 943b 1f0c 20f8 d23f
00000640: c1e3 f6be 39aa 873f 65e2 1315 d64b d33f
00000650: a3dc a100 c751 f73f 07f5 7b32 fa88 e53f
00000660: c448 298e 1e79 b7bf 78c3 ef72 d008 dc3f
00000670: f57f 0289 1082 adbf 32d2 024a 3139 a33f
00000680: 99d5 f8e8 553b a33f 3786 2660 8ead 513f
00000690: 33e9 a53a b4c8 a5bf 5085 e433 8756 c13f
000006a0: b141 e025 005b 71bf 5785 2685 c7d6 9d3f
000006b0: a55e 0139 ae8e b0bf 41b7 8590 1c14 81bf
000006c0: 4fad 2c6c f9ae bdbf 6bc7 0784 6fb2 e8bf
000006d0: 31ee 7f97 d8e7 c9bf 72ec 89a1 055b e5bf
000006e0: b6a8 611c 1e59 f3bf f953 d4ec 5766 c6bf
000006f0: 424c 915d c371 d13f 7274 0564 eaab c5bf
00000700: 55a6 49ee 19b4 cd3f f64e c743 0f91 d1bf
00000710: c629 dd1f 5954 d63f d8fb c080 acfe cbbf
00000720: 932f 185c 6815 793f 660b 7367 45e4 e13f
00000730: 738d 96f6 16d5 c6bf f477 362d 056a bfbf
00000740: 8d89 b3bd 8b52 b53f d0d4 b151 6cbf c2bf
00000750: 4edc 3497 669b cfbf 863d c864 4070 e7bf
00000760: 5675 d9a0 2f26 c5bf 6337 c908 90d9 d9bf
00000770: f4f7 e849 7016 ebbf afaf 19c4 143f cfbf
00000780: 4c35 a2ac 84b6 af3f 378d 3eaf bdd1 74bf
00000790: ba54 2b6d 574f 953f 53cc a601 0041 bdbf
000007a0: d456 49f2 3b64 b03f 1f40 b18a 6b55 bfbf
000007b0: 9fe6 a601 8404 b83f 9769 eb74 ef61 81bf
000007c0: 95b4 696e d460 b93f 776f a3cb 6a73 a2bf
000007d0: 7639 0715 e217 ac3f e24b 67a6 9fe9 a2bf
000007e0: 2db3 68b7 e993 c1bf a6be 2868 4bf1 e1bf
000007f0: 676a d38b 3f53 c0bf 8dc2 5ae6 7219 b4bf
0.10207886838702862 0.5495918534547967 0.07291149115385262 0.059975164527595874 -0.46348536757335396 0.31122957360787173 0.1276645086485868 0.1482674756597074
-0.017392273637559158 -0.36342434038398486 0.17725879376907494 -0.3720574905291203 0.10201008536409813 1.8069701182825366 0.9706938929556385 -0.19641685049008803
-0.11041833543956267 -0.31686134276056316 -0.14828861661840476 -0.034797093557526505 -0.1014657933643811 0.054719810094391065 0.2892871859779417 0.16201341072830536
-0.0868031052860156 -0.16235961438679525 -0.04004585763875462 -0.016809465959682003 -0.04021773106678095 -0.08339187402448088 -0.10910015564813323 0.07439066956499107
-0.10789577151618959 0.041353868908036585 -0.08000557482311099 0.0320482873388243 0.34081035193875986 0.5696570087582977 0.19904469055363402 0.0846848299754297
-0.9081125175834 0.09086263304999216 0.22315877477363277 0.3768881532527287 0.004618111042674329 0.2546990836668443 0.20393615942316395 0.21879005903197693
-0.698159778800857 -0.935006593296381 -0.9209131425423133 0.21625456488575343 -0.03219884224590212 0.26107351399709006 -0.2887182050352399 0.10467408621326234
-0.22849273149888535 0.12856244759732363 0.3964152864568698 -0.07031866140511132 -0.2638036554355793 -0.20460974288820313 0.07756884156401626 -0.09365811396636126
0.011661334194443358 -0.08983003174658177 -0.005878079676529636 -0.07286666516759094 0.02050555467686687 -0.01892429568123102 -0.09946124423255924 0.04373729876394682
-0.16645484659750887 -0.13615016312610123 -0.1108868074084498 0.435228828040626 0.8645616810046025 0.4506146253273081 0.24079068765293127 1.1425751331603384
-0.13487452978956707 0.10681717815004116 -0.024723738545288105 0.048586577096663044 0.09393335511502457 -0.3779133706916781 0.12053133545926073 0.12497518101519156
-0.46529207715126 0.24446483404958327 -0.09516464322431024 0.12074436617848956 -0.1046027393874497 0.33737078609505755 0.6587405588415378 0.2634481698752684
0.3013530628709826 0.8036075420222578 0.17103179551519979 -0.04026687714566148 0.07403117536655553 -0.07927302483783416 0.061436220186942114 -0.08196177818814096
0.1680964871353194 -0.04555643762814444 0.0794438842150531 -0.11216468496605188 -0.14794478187048998 0.332979013304096 0.11473041259923254 0.39047198443718517
0.8503764793560221 0.7172648920097835 -0.27639453591129887 0.6528175671134353 -0.05425635647012746 0.08173579779876883 0.09976652353212619 0.2941671203695639
-0.09209476202886348 -0.5239778784084076 -0.18309396873282385 0.1274602796838671 0.0740450364043878 0.1841082231063677 0.11846032137740083 -0.22494073994258207
-0.026294707075868905 -0.07327972003210287 -1.4364786951886266 -0.5148100096160831 0.05735088463315491 -0.33628066910780424 0.06832553214883866 -0.08713087721122979
-0.0673493790850909 -0.0834511285614077 0.0588160881668964 -0.04831958108571834 0.0774816301076253 -0.024871456575133774 0.013109850902446278 -0.009342779463367052
0.1634692431975609 -0.43971472228311 -0.17408800447478298 -0.4634405102117735 0.9047579384965784 -0.02958487250749456 -0.15828526565784118 -0.1325144421312258
-0.31872361321159204 -0.06568905503668432 0.20046965010372203 -0.11726716553273073 -0.1894767328081091 0.17777487125843563 0.11039061437379347 0.1404509316907692
-0.2854725324216326 0.07263317545577666 -0.28328307920365964 0.1397858633763078 -0.2888616877569413 -0.21503970033899447 0.6467493426192356 -0.09372417282472623
0.06174167597727054 -0.35698218776161866 -0.07096722030478536 0.038768682584051896 -0.3236219068811186 -0.09081971526770859 -0.055782364630532946 -0.13825041763576784
-0.10353609229568256 0.05527858657140108 -0.14255215866283377 0.020498976504791783 0.26692766364127113 -0.5401702342407966 -0.13631348788713715 -0.6259395208768946
-0.8343620031246971 -0.9057061818251967 0.321768096880311 -0.8576213362244156 0.0604262886519463 -0.02119679835880694 -0.07219925027198217 -0.19643149810410296
0.057964744743195226 0.4934181338811993 0.039721422581477775 -0.14216629251943946 -0.0026790594359034072 -0.1789872441351063 -0.16732154642297437 0.29639435943402614
0.011555148258468042 0.30150367792479066 1.457465174169365 0.6729708658237151 -0.09169188471540496 0.43803797935748134 -0.057632939076256585 0.03754571941809494
0.03756206959625814 0.001078976668033594 -0.04254687515181601 0.13545312913724183 -0.0042371755389613444 0.029139630796298856 -0.06467713252765835 -0.00833914104506628
-0.11595114603976707 -0.7717816904753197 -0.20238788030097646 -0.6673610835126864 -1.2092572315837464 -0.17499827445922714 0.27256855142076486 -0.16930894740918095
0.23205875525609324 -0.2744787370586289 0.3488982020541268 -0.21870952879723293 0.006123931555986578 0.5591151257034255 -0.17837798157152526 -0.12271149019076671
0.08329079991702866 -0.146466770067184 -0.24692995436791637 -0.73245258029958 -0.16522784570671928 -0.40390396936424205 -0.8464890903048841 -0.24411258292400137
0.061939378808441775 -0.0050828370621361285 0.0208104763394956 -0.11427307167359517 0.0640294519920091 -0.12239715705914066 0.09381890335398645 -0.008487578158953108
0.09913375564220168 -0.036036813123898996 0.05486971384708543 -0.03693865686695809 -0.13732644515530393 -0.5607049021109176 -0.12754053428109843 -0.07851331828966064

module.down_path.0.block.0.bias f8 [8]
00000000: 65b1 fe5f f5f8 b43f 7e8b fdff a5b8 c13f
00000010: 0a7d 0400 8eb6 b0bf 30a3 fc5f 9fb8 bf3f
00000020: 3f56 f2bf a668 b6bf 845a f9bf da30 ae3f
00000030: 102b 0380 5f9a c2bf 36b0 fd5f ccc2 b2bf
0.081923805176023 0.1384475231125996 -0.06528556347301531 0.12391086667470286 -0.08753435312458978 0.058966480192499865 -0.14533609152416505 -0.07328488677529851

module.down_path.0.block.1.weight f8 [8]
00000000: 6df7 8dcc 6ec5 e83f ecd4 3552 4aaf d93f
00000010: 8249 6ada 003a ea3f 18ba 7a4e 3e0d ef3f
00000020: f662 7567 0a17 f03f 24f5 fae7 b86b f23f
00000030: 8249 f8de 676b e93f abf9 2f54 f187 e73f
0.7741006846624551 0.4013238718828933 0.8195804849549833 0.9703666241455862 1.0056251565312642 1.1512993871431911 0.7943610529785448 0.7353445667538855

module.down_path.0.block.1.bias f8 [8]
00000000: 3cd6 0718 06d8 d7bf a09a 5731 ad2b fe3f
00000010: 36b1 029c 4757 c03f 61ea 708e 3fce d1bf
00000020: b70a 15a9 787b f83f b317 c560 7ed4 d23f
00000030: 7fe6 9488 5795 6bbf 1b47 7f57 c649 d93f
-0.3725600466417267 1.885663216345769 0.12766356580449106 -0.27821339521657334 1.5301443676732285 0.29421958398995257 -0.0033671102179624874 0.3951278547730099

module.down_path.0.block.1.running_mean f8 [8]
00000000: 6775 9990 e144 e9bf b49a 14e7 94cb e9bf
00000010: 41a8 b5c1 abe5 86bf c701 86b8 8086 d8bf
00000020: a93b 7df3 6cde 02c0 90a6 55d7 bf9d db3f
00000030: 9f9e a6e5 787a c4bf 4018 6898 99af e83f
-0.7896583389480555 -0.8061012757578596 -0.011180250023887452 -0.38320940036649315 -2.35860624528819 0.43150325802580713 -0.1599875565855102 0.7714355446521566

module.down_path.0.block.1.running_var f8 [8]
00000000: 3b1f 4366 0f97 d33f e501 eb52 85c2 cd3f
00000010: 3c91 58fb 8e3d ec3f 0d61 7fdc 2259 eb3f
00000020: 33b8 a4e2 d9e6 e23f a1d4 71d1 7cf6 f23f
00000030: 5954 17d3 c02c ef3f b59f 11e0 50d5 d23f
0.3060949801115275 0.23249880360346178 0.8825144681073094 0.8546308809846167 0.5906800676946261 1.1851776296073597 0.9742130396722458 0.29426977044795005

module.down_path.0.block.3.weight f8 [8, 8, 3, 3]
00000000: 19c7 8f4d 6df9 b03f 4ef7 f64f 2103 c83f
00000010: 285a af66 8799 b73f 5cf0 a3a5 a2f6 d23f
00000020: 2e29 cd8d 0f62 a5bf c9ed af1d 36a5 d93f
00000030: 27c8 7815 ddc4 b03f 5206 14a8 d48f 523f
00000040: ddac 09ac dd80 9bbf fcef cfdb 985f aa3f
00000050: 0087 cabf c8a4 de3f 700b 5ba5 079e d13f
00000060: da67 d348 6589 c03f cf4b d9c5 11ec bd3f
00000070: be33 f260 1a73 d53f 537f ccbd 2e38 c13f
00000080: d6b1 d2b6 af83 d6bf ae3c 3c4e 4073 b8bf
00000090: b710 fed6 db89 ab3f f558 4abc f6ff debf
000000a0: 2207 0b89 16f9 6d3f f0f0 4844 6093 d03f
000000b0: 9fcc 95da 416d d0bf d6e9 98ac 8c4e c73f
000000c0: 2dd4 82e7 b9da c03f d631 2477 1db8 ca3f
000000d0: 743b 7cb7 24d5 b43f e69a d189 554c a8bf
000000e0: efe2 101e 9393 c4bf 2c00 6e67 4087 c7bf
000000f0: 74e7 3fb9 de48 c6bf 5b8f c176 aa1b df3f
00000100: 7668 b9cc 3c6b 80bf 0394 a0cc 836b cabf
00000110: 4bf8 9b70 7e75 9f3f 5eff 7981 514e d3bf
00000120: a3b5 5566 42e0 cbbf 8803 201f 2b3c ccbf
00000130: 8175 df96 bed2 afbf 6468 8299 d99b c03f
00000140: 8612 5fd1 bcac c43f 63e8 9b93 f234 d0bf
00000150: 5e48 9281 dc32 bf3f d220 2916 d01c db3f
00000160: d96e 2283 7ba7 cbbf 4543 1f9f 5f4a a5bf
00000170: 9a94 adbc d7ae c23f 8afb 769d b480 c03f
00000180: 166b 094d d0c2 c23f ed7b a0e3 c142 d9bf
00000190: ef75 b0e0 75f3 a73f 375f 94f6 51fa bb3f
000001a0: 0806 5994 e9de a2bf f2cc 45c9 b131 cc3f
000001b0: bace 927c 8a47 a23f 2c77 1f9c c9e8 643f
000001c0: cfb3 dc91 7285 ad3f 35b2 e315 0198 a43f
000001d0: 7594 d8c6 69c2 ec3f 5ca6 e5a7 4901 b93f
000001e0: 0ebe beac b9ed b8bf 602e bf53 e1b3 e13f
000001f0: 9aee 88e0 654d 9dbf bf5c 6ef8 b4ee 303f
00000200: a527 7985 1f33 cbbf e926 30b5 7e7f b4bf
00000210: e5bd 23e8 53f0 c2bf b7b1 d124 75be bb3f
00000220: 3132 3b49 318a d3bf cbc6 1550 e430 87bf
00000230: e56d 5488 5f9e 98bf 1871 4b94 a9b3 ab3f
00000240: d416 df08 84b4 b83f b8a4 f732 d412 df3f
00000250: 36e5 88ef 4fb3 cbbf 9d2a d87c 46a4 e13f
00000260: c70e 08e6 7b8b e93f 4cf1 31ec e786 97bf
00000270: 37f3 e9c6 497a 9abf 9829 84fe defc e53f
00000280: dad8 75f5 e9be d2bf 35e8 2b91 fc5f b3bf
00000290: 8edb c3b0 7da5 e7bf 4af8 c4b6 ee62 c43f
000002a0: 3236 9c17 bf36 debf e51f 44e8 56eb e7bf
000002b0: a275 e305 4823 b4bf 997f 5ac5 d052 c0bf
000002c0: 41e2 628a d780 e1bf 021d 15ad 6e7b c53f
000002d0: ecf6 6e3d 53bf acbf 5014 8890 cf06 b3bf
000002e0: 9e6e 2824 3256 c3bf 1a28 066a 1789 babf
000002f0: 9bbf 8213 548f bd3f 0134 6ec5 5c1d c4bf
00000300: bb39 b304 f853 b3bf fbe8 b6e2 13ff babf
00000310: f671 c36c a08c 75bf be34 fe23 beec 92bf
00000320: 9745 a0d4 b65c cdbf 0581 b562 30eb c43f
00000330: 51c9 d185 9cea b53f b860 7037 1ecf 963f
00000340: b817 b97c 9926 c0bf 4cfe 0073 ea8e 953f
00000350: 2c01 50a8 c394 8cbf 9dfc 2258 54e8 a83f
00000360: 1456 ec57 8489 ca3f daa8 8b00 e017 b0bf
00000370: fe89 307b 5591 a0bf 5c9d a02c 1bd6 a7bf
00000380: b363 bcd3 3d54 cabf a46e e70f 59bd bebf
00000390: a5a2 e9df 3221 aabf 0680 20d4 e2ec cdbf
000003a0: b022 877f ee0e cb3f 31c7 9651 3f8f a73f
000003b0: 1ee0 b0f2 2c5f be3f 8b79 9b2c 35cf bcbf
000003c0: b57a 6994 1d1d c2bf 578a b273 3662 b43f
000003d0: 866e f34f 4b4e a63f a369 562c 4f85 72bf
000003e0: cd4b 88ed 20d0 96bf dc3a 9f14 2b0c 9cbf
000003f0: 9fa0 72b1 a53a 803f 08b5 878b 79f0 77bf
00000400: b44e 1c9d 547e ae3f 046d f001 4ead b8bf
00000410: 4372 5b97 b53f a33f 0298 2c5d fdf0 b83f
00000420: bc58 f89e 4bbf a5bf 8afb 3f53 7c3c b5bf
00000430: c007 bda9 a6cc ba3f 18b4 4439 ee53 c4bf
00000440: c1d2 28a6 a493 e1bf 70e7 91a2 9035 cd3f
00000450: 811b c55d a2da e2bf 0832 b507 0ee3 e6bf
00000460: 34af e523 8b44 773f b11e b4d1 4c5f 98bf
00000470: 14d9 9906 b304 e9bf 01b6 20bc 196e cf3f
00000480: 25a5 fe0a 87e2 b0bf 6a70 c638 9c17 c1bf
00000490: 9bed b6c9 2045 b4bf 59f8 6c59 b6ec d23f
000004a0: 7055 7f92 b6a0 d6bf 5702 4d3e 7652 c53f
000004b0: 1555 5b94 381a c33f 19e6 9222 d8cb c23f
000004c0: 1645 527a 46ec ae3f dcdf 86d2 57db ca3f
000004d0: 4c85 384b 4ccf dcbf 0a72 0e51 ae31 b7bf
000004e0: 5aea 453d 9dae a93f a3b8 a410 9348 753f
000004f0: 0f51 8f5b 2b6b b0bf 28e6 2667 ab49 c43f
00000500: cdf3 601b fe23 db3f 9761 c25c 6714 bebf
00000510: 71ac bb36 e9fd bd3f cfd5 5a6a af7b b33f
00000520: 0a12 8060 f5b5 c23f d0cd 3db4 a7cd c6bf
00000530: e910 4695 14b8 cfbf 7b6c e504 cceb b4bf
00000540: a9b9 43f1 6776 d73f 1890 cd89 ee7c ca3f
00000550: 046e 978f 7ced 82bf e7bf 336b 6835 b83f
00000560: 48d7 a38d 6fd7 db3f b43f 77e6 dc4c c6bf
00000570: d72a 454f fcd6 8d3f b945 9010 6685 b23f
00000580: f06b aff0 4b07 cb3f 5d49 03da f370 c13f
00000590: 1807 5640 3ccd c63f 061d f72d 66ee b7bf
000005a0: 598e 1ec1 f0e8 d5bf beea de27 4dc0 c1bf
000005b0: 2ec3 61cb e79e 9c3f 67ee c271 c0c3 a13f
000005c0: 7a1c 194e ae7d d13f 09ac 5770 3862 c4bf
000005d0: 3416 9d33 3662 d03f eef4 47c2 f6c8 d63f
000005e0: 5a11 ed98 dddd d3bf 8cd7 8c02 6ea4 8f3f
000005f0: 2ced 3be9 804c cabf ec0e 1512 04ee b43f
00000600: b9f9 7f8b eb76 9a3f b43e 2e95 58fe a03f
00000610: 4ebd bc38 0b2d c4bf 6402 35b0 af8f a0bf
00000620: a436 e598 5a17 a6bf b4ec 8dea d022 ae3f
00000630: a551 19a2 b021 b63f 78b9 7410 cc8e c93f
00000640: 69ea 83c3 ae8a 763f 2d77 393e 580a d33f
00000650: 1794 794a 8614 d33f 08cd edbe a42f 77bf
00000660: 8cfc 7b17 c7dc e03f b759 ba58 93b5 e73f
00000670: a58e 27d0 826d ce3f a04a 4f91 747e a7bf
00000680: 192b f2c0 f197 cb3f 4ce0 8df0 1413 9c3f
00000690: f3d7 9992 80ff d0bf 9bdf dfc4 e73f da3f
000006a0: 5632 7fa2 8b85 b2bf d89c 82aa c054 d4bf
000006b0: a841 1fbb 8ce3 87bf e9c6 0890 75ef c1bf
000006c0: a51d 6139 d6be bbbf 2b38 99db 48b2 debf
000006d0: 0bd4 0a49 73ba cb3f 486d c4a6 65d6 d6bf
000006e0: 4bc6 5352 a0d8 e4bf 53f0 c720 1db8 c13f
000006f0: ad77 b55d 4ca1 923f 67df 3ff9 cb8e e2bf
00000700: 5c30 4ff8 9ace d13f 2555 8186 79e3 a83f
00000710: a0c3 8fa3 5bab ea3f faa9 0291 d8e7 cabf
00000720: d3fb b303 c461 df3f 2c01 bf00 ec40 f13f
00000730: 17c7 7938 b1dc c23f d1d8 a9b8 ef78 88bf
00000740: d4af 0f8a 65bf e63f 5ba2 7b73 2d9e cdbf
00000750: 9abb f0f9 94b0 b03f eef2 e300 429f b7bf
00000760: 5086 b805 3103 c13f 6df7 75d9 d514 6abf
00000770: 62aa f3cc e926 c33f 4aba 8a9f da47 9f3f
00000780: 4cc5 b7d5 952f b33f 084e 23d1 b35a 893f
00000790: 8877 0a8c d725 8cbf 6966 f665 6122 b3bf
000007a0: 8b98 4f2d 9aed a63f bec4 e301 eb22 c4bf
000007b0: 9f14 d1c9 01ea 803f dba5 98fe 19a3 b73f
000007c0: f69f 71f7 66d0 b73f f2da 6575 e66a c4bf
000007d0: e3d7 621f b2ac 8cbf afc2 5db9 911e a7bf
000007e0: afb4 76cd 3fc1 babf 8789 7ad2 c63f b3bf
000007f0: 073f 8ea0 3e12 a33f 5382 f762 f5d7 b53f
0.06630595344156766 0.18759552387740047 0.0921864152618147 0.2963034265119455 -0.04176376920675505 0.40070870303290157 0.06550390028203933 0.0011329247211623495
-0.026858771920541414 0.05151059802298616 0.47880762796022225 0.27527037761699713 0.129192982253527 0.11688338356297766 0.3351503321399 0.13452705638428117
-0.3517874989873041 -0.09550859365502859 0.053786153787798545 -0.4843727911733276 0.003658813490205485 0.2589951197476372 -0.25666853281217955 0.18208464076617642
0.13167499355555048 0.2087437469239279 0.08137731055852077 -0.047457383225994396 -0.16075362175049387 -0.1838150506046089 -0.17409881635085933 0.4860635909774282
-0.008017039296806621 -0.20640609256329875 0.03072164118111002 -0.3016551746768438 -0.21778135296646636 -0.22058619518068334 -0.062154727856731824 0.12975616450859484
0.1615215322800802 -0.2532316628927502 0.12186983264317194 0.4236335960781733 -0.21604865935375164 -0.041583049940192164 0.14596077645106648 0.1289277809973693
0.14657024156152748 -0.39469954709232874 0.046779330900090225 0.10928833265313363 -0.03685693679700469 0.22026655509726073 0.03570206423446849 0.002552407998321812
0.057658748917993934 0.040222200319338354 0.8987320789061771 0.09767589901971391 -0.09737740008744586 0.553208030288669 -0.02861556227638449 0.0002583686659191723
-0.2124976541256817 -0.08007041858231968 -0.14795922121946528 0.10837490223793265 -0.30530960227477794 -0.01132372254753324 -0.024041645713721044 0.05410509047735185
0.09650445190990392 0.4855242250183198 -0.21640967556030838 0.5513031423918907 0.798276852874971 -0.02297556285019313 -0.025857117429484346 0.6871180506725976
-0.2929024598191866 -0.07568338913179747 -0.7389515354578735 0.1592691795758035 -0.47209145837482247 -0.7474779640624517 -0.07866335052263776 -0.12752732883836584
-0.5469777777535186 0.16782935572903318 -0.05614719510002239 -0.07432267454721964 -0.15106798902057944 -0.10365434969404 0.11546826816879589 -0.15714606895599562
-0.07550001253841902 -0.10545467648526945 -0.005261065158461245 -0.01848122687038222 -0.22939191228992392 0.16342739887023341 0.08561113612248518 0.022274467595793296
-0.12617796506873247 0.021052993077544976 -0.013955620359411634 0.04864753318678903 0.20732168477177082 -0.06286430371588683 -0.032358809745591785 -0.04655537528770523
-0.20569584692637263 -0.12007671964914352 -0.05103453620251245 -0.2337916885162487 0.2113931772894566 0.04601476546248618 0.11863976407119067 -0.1125367387680624
-0.14151353594475827 0.07962360691684843 0.04356608725512694 -0.00452166487721187 -0.022278322694613984 -0.027390168317476746 0.007924360730911238 -0.005844569001493889
0.059557575396096324 -0.09639442012160165 0.0375954386961195 0.09742721104393584 -0.04247509303620364 -0.08295418770283738 0.10468522686008352 -0.15881135746295238
-0.5492728467275684 0.22819717348084678 -0.5891887504047731 -0.7152166510146012 0.00568060256624019 -0.02380104093484076 -0.7818236473965805 0.24554750142981166
-0.06595653551507448 -0.13353302738403566 -0.07917981075927687 0.29569777234053657 -0.3535591536177298 0.16657903711349561 0.14923770183546795 0.14684583366560913
0.060396387512023406 0.20981881885177145 -0.4501524672105759 -0.09060182074467363 0.05016032574618086 0.005196165535649086 -0.06413527474734713 0.15849821602550773
0.4240718142862619 -0.11749883665686976 0.11715562425858807 0.07610603663018554 0.14617793285300734 -0.17815109539843244 -0.24780518807177224 -0.08172297591720394
0.3666019302462709 0.20693761566792612 -0.009242032177033906 0.09456493966331402 0.43502415496856317 -0.17422066930020963 0.014570208710798322 0.07234800247558483
0.21116017582139035 0.13625953812749972 0.17813828603180393 -0.09348143217276936 -0.3423425565654035 -0.1386810726815692 0.027949926174588295 0.03469659222306803
0.27329595209852864 -0.15924745069000348 0.255994367984701 0.3560158631588156 -0.31041660246071034 0.015450343563866452 -0.20545970333464803 0.08175683442555809
0.025844269170187426 0.03319050618222033 -0.15762462873815725 -0.032346239337589094 -0.043146926082596765 0.058859375602844294 0.08645156819813467 0.19967032245171956
0.005503351851298002 0.29750639034851895 0.29812772057477005 -0.005660670793861351 0.5269504030874415 0.740914986893407 0.2377170101527685 -0.04588665269661374
0.21557447358312556 0.027416541273368275 -0.2655946189546505 0.410150472889194 -0.07235024182518521 -0.3176728882921913 -0.011664485416901751 -0.14012021572994307
-0.10838068867552993 -0.4796316284672481 0.21662751261251886 -0.35683575902813347 -0.651443634791755 0.13843120670924466 0.01819342920258975 -0.5799312465814922
0.2782351899047677 0.04861049429806944 0.8334177202760777 -0.21020037727915036 0.4903421436464985 1.0783500699181543 0.1473599935302949 -0.01194941789911433
0.7108638473996458 -0.23138969553771713 0.06519442655620225 -0.09227383157481103 0.13290989665351782 -0.0031837631938164608 0.149625039171343 0.030547538745560744
0.0749448439380746 0.012380032367594232 -0.013744052849968616 -0.07474335421866275 0.04478151133643945 -0.15731561271926425 0.00825883290429835 0.0923324820111228
0.09302371541127727 -0.15951233608549092 -0.01400126608164593 -0.045155099752155585 -0.10451124921992759 -0.07519190443648514 0.03724857053668811 0.08532651582891874

module.down_path.0.block.3.bias f8 [8]
00000000: f453 0400 a9c2 b23f 3c11 ff7f 6c2d b5bf
00000010: e1ae 0600 fc3b 9bbf 3e51 0280 db95 a5bf
00000020: 066e 01c0 6ee9 ae3f 579c fe7f 4b14 b23f
00000030: 33ca 02e0 cdc0 b9bf 3fde fd9f 579a a3bf
0.07328277826702828 -0.08272436261092236 -0.02659600973281229 -0.04215894639597416 0.060374699533635875 0.07062217593066698 -0.10059820860878048 -0.03828691318534227

module.down_path.0.block.4.weight f8 [8]
00000000: bd66 1795 ba9b d83f 7f4e 1306 4950 e23f
00000010: afe3 7240 17d4 e13f a4f3 38bc 835a e23f
00000020: bc80 2068 d313 e63f b2a9 5495 f271 e53f
00000030: f6ff 2be4 2f06 dd3f cadb 7f5f 1f87 e23f
0.38450493392666 0.5723004454288939 0.5571399935498585 0.573549144384391 0.6899201425294659 0.6701596180549159 0.4535026291123353 0.5789944520209869

module.down_path.0.block.4.bias f8 [8]
00000000: 05a4 5626 7d59 f13f 4966 d2b7 d1ae debf
00000010: aa7f a026 1ac4 ec3f 91d2 759b 57fe de3f
00000020: 4aff c6e5 7574 f33f 14ed ee29 e923 f93f
00000030: 9cd9 027c 3a70 a5bf 35ed db6d e226 fa3f
1.0843478677363703 -0.4794201178679925 0.8989382509644106 0.48427381688751675 1.2159327483822886 1.571267284204457 -0.04187186015899444 1.6344932834025034

module.down_path.0.block.4.running_mean f8 [8]
00000000: 9f29 d4be cd8d 0040 9cee e97f d124 19c0
00000010: 5cce 16ea 0746 e63f ebc5 d117 f9f0 1840
00000020: 47c0 00ed 67ae 0c40 1a86 253b cc32 0640
00000030: c77a 3ebf f284 f4bf 9c12 b9e3 4f6c 0540
2.069240084504784 -6.285955427792626 0.6960486957600085 6.2353252145562506 3.5851591602186406 2.7748036022974363 -1.2824580641242151 2.677886752210112

module.down_path.0.block.4.running_var f8 [8]
00000000: fef2 08df 7457 f03f 403e 3417 fb94 0b40
00000010: 49da efa7 a402 0240 853a d5d0 8025 0640
00000020: fe6f 548e 8b78 0840 62ad cd68 2e61 fc3f
00000030: a614 06d1 cf39 0a40 b90d 3a36 1e98 0a40
1.0213516914656675 3.447744542390666 2.2512906189033726 2.768312102801533 3.0588599318998595 1.773725900066744 3.2782284097653074 3.324276374479919

module.down_path.1.weight f8 [16, 8, 3, 3]
00000000: c95c 73bb 6bea e4bf cc5d 7724 c20d 9cbf
00000010: c0b8 e07c 1693 acbf 8bd1 c53f 673a d2bf
00000020: d538 6e6b 4201 f13f 0fc5 7825 c3d1 da3f
00000030: 38de c6b6 935d d4bf 0992 4080 996f e13f
00000040: d397 e214 51a1 d8bf 8da3 4f89 df99 b73f
00000050: cf0e 2b05 63f5 ab3f 91b4 3172 7614 a1bf
00000060: 2fdb 5d74 d4ae ccbf fd09 4ba0 5463 bd3f
00000070: b624 27df 0ec4 96bf 22b2 fe6a b838 b2bf
00000080: c569 427b 8d35 a93f 73a6 e684 fa67 c0bf
00000090: 8c10 2d96 2fd4 c63f 90f2 7ada 4cab b73f
000000a0: 03c5 d05a 8b9b 81bf 44b2 e691 2078 be3f
000000b0: e043 eeeb bbd8 c4bf 080c 05f7 c02c 90bf
000000c0: 7130 b359 6309 b73f a3e1 db5e cd25 cabf
000000d0: a0f0 8924 f5f2 a6bf e6c5 9b2d 5f62 bfbf
000000e0: 9a3c cdb5 4a23 a6bf bcb4 ff39 4620 953f
000000f0: cf27 48b6 debd cf3f 4cc4 50d4 86e9 c2bf
00000100: bcc1 f8fd 3414 a0bf 383e e2a1 8d35 afbf
00000110: 2096 dcd6 955b c5bf eeb2 a00d 4ec4 a33f
00000120: aceb 5c63 8ec5 d63f 098c 3295 a33e c9bf
00000130: 45b6 d9bf ab6e ad3f a4ab 2cab 95ac d2bf
00000140: b70b 2d83 7d35 d9bf 6bc0 2422 5fe1 c2bf
00000150: c24e 1720 6e10 c33f 01f9 5b52 66ee ad3f
00000160: e301 123e 1d39 b73f f273 b683 9bff d3bf
00000170: 8361 09bf 11b7 c7bf bd77 004e b655 aa3f
00000180: db91 11b2 74c7 ce3f b3d9 8b4e 7a66 e13f
00000190: 71d8 14e7 b492 d53f d24c f00e da5e b93f
000001a0: 0394 85ab dc48 c1bf ce89 7693 c8fc e3bf
000001b0: 28e1 bd9d a6a0 a73f 409d ecfe 8534 cd3f
000001c0: 5bb5 0461 1a55 ccbf dd8e 1edc f80e b9bf
000001d0: 769d 62ca 9cd6 9b3f c7ac f4c5 a8a3 d4bf
000001e0: 24bf 9428 a539 d0bf 60f4 a629 d7fd d33f
000001f0: f8e7 ce69 e825 dd3f 9334 6927 9821 d33f
00000200: e17e 3d11 2134 9b3f e49e ab4f 6a26 9b3f
00000210: 2ee0 b3a0 89f3 bf3f f4ca 692d 4936 d5bf
00000220: b5db 4076 feab c9bf 832d 79c0 ac3e c73f
00000230: 1013 5eee eb85 c1bf 5c3e bc44 878d 90bf
00000240: 9f84 3f11 84e5 98bf 73c1 238c 39f4 6bbf
00000250: 1344 26fe d913 b1bf e890 a9f8 0ad9 c83f
00000260: 8b30 cad8 140e d73f 533f f110 a169 d53f
00000270: 24f5 9168 e87d a93f 9b3b c466 940d b3bf
00000280: f6b7 7f14 f385 dfbf 333c 3b7a 41a9 be3f
00000290: c005 75e6 9bbb c5bf 371b 9ad9 6470 c13f
000002a0: d238 f1da 0de9 d93f 01f6 948f c875 d7bf
000002b0: a142 b4ac 4b8e dabf aeb8 45ab 29ab d43f
000002c0: bb54 472f 95c8 c03f dbc6 37af afe6 d1bf
000002d0: 52c9 5db7 1a39 c43f a9f7 012d 078e b63f
000002e0: 921c 0db6 2fea ba3f 3616 d89b c8a8 b7bf
000002f0: 8b52 2f68 1ce2 c2bf a5f2 a7c6 3f36 c3bf
00000300: d468 f91b 4dc8 bdbf 9154 2dd7 8250 b1bf
00000310: e03d 8338 2205 d0bf 8ebd e4ed 4cef c9bf
00000320: 766b 4597 8cd4 c33f d026 9b91 ba63 b6bf
00000330: 75f7 efa9 c2d3 d0bf a478 aeb6 fc63 d13f
00000340: c54d 8089 819a dc3f 3aee 5828 29ea d6bf
00000350: f0af 05c4 bbc1 d3bf 0193 075e 1410 d93f
00000360: cb97 fd9e e840 c1bf d3ea d11b 6fda c9bf
00000370: a3ae 9dd2 dca0 d5bf f7cb 2948 2dec a63f
00000380: e615 36ba 81c9 dc3f 7561 9952 4232 c83f
00000390: e269 c47f 3517 9bbf 078c e39f 4929 de3f
000003a0: 7484 aed9 c17c c83f 1eb9 2876 a7f5 b8bf
000003b0: 12e3 6d17 d001 ac3f 2e92 6b8c 1cf7 bf3f
000003c0: 2a37 85ea 4ef5 a83f 1686 27ef 4d15 c43f
000003d0: e7a5 ea1e 9382 ca3f deed cea8 10fd af3f
000003e0: 407f b9b5 e6e9 d7bf 98fe c7ee c351 c6bf
000003f0: f3af 2edd f505 b83f ddc2 3994 a1ad b1bf
00000400: 3dbb 9f4b 2bd4 c1bf e12d 2443 7ec7 c43f
00000410: 6b50 9473 8d01 a4bf 2fb9 e322 91e3 893f
00000420: abaa a97d 8c21 a63f 69d3 d4c7 39bd c13f
00000430: 933b 1bc0 c5db c13f b8ce 8e4b 9f8f b03f
00000440: 6c80 4664 2dd6 ae3f cc9c 2978 4aa3 c63f
00000450: ea5f 5402 5547 bebf 10e1 2622 9da0 cabf
00000460: 711c c30b a2ec c33f a9db 91ef 7a60 c2bf
00000470: 9dfe d0d4 1e3c bb3f 8c99 34a4 08d3 dc3f
00000480: a5ff 2309 1856 a73f 5eba 4045 7935 c4bf
00000490: f261 0150 e0cb d2bf f0ac 642b e452 bcbf
000004a0: 572a b85d 3eb9 d9bf 58b9 0515 55bb d9bf
000004b0: 06bd 6e5d b182 cf3f 76f7 88ae 7b21 ccbf
000004c0: b5a3 f60c e6aa b7bf 09d6 91a9 6ab0 c03f
000004d0: be25 9554 8ed8 a93f a280 912c 13c5 a63f
000004e0: 3c58 c887 3ce8 cbbf 888d da3e 1c6f d4bf
000004f0: 7063 ef00 43c6 ac3f bb92 de65 fdfe c6bf
00000500: bc39 9e32 54ce c8bf f719 94e4 54e7 c03f
00000510: d9b9 c003 1d03 c03f 2f80 75a4 8416 ad3f
00000520: 1347 58dd cfe5 aabf 445b 7a4e 8dac 82bf
00000530: 9ceb 085d 7449 d2bf 1b81 6799 295b dabf
00000540: 09f6 65b2 2300 af3f 8bb8 0f3a 9acd cbbf
00000550: 0649 c827 e5cf d3bf 9fd5 10c0 6531 a3bf
00000560: e47c 971b 7cda 92bf 1483 f0d6 e483 bb3f
00000570: 2382 c679 6138 be3f 9ea1 8887 87ba b13f
00000580: ef57 3e2c 6d55 c5bf afcb ad54 3f78 a33f
00000590: 62ac 896d 58ff afbf 70f4 10a9 4fbb cbbf
000005a0: 128c 71cd 6187 c13f cf6d 2ef8 5f15 85bf
000005b0: 5e00 3c77 e08a bbbf 019f fec1 589d b6bf
000005c0: afad e464 9d6a c1bf 66c2 07aa 42e2 c4bf
000005d0: a91b 3ac7 65ba ac3f 1c8d 333e c4c6 c93f
000005e0: 379e 1e4e 9429 b43f b81d a02c 916c c4bf
000005f0: da57 4dd6 6fb2 bdbf 97f0 5587 b540 5d3f
00000600: c1c1 97fc 5371 babf 5719 8dcf 63d6 aebf
00000610: 9c50 674b 4b0c a9bf 6776 3d8a f928 b4bf
00000620: 9486 dbac 0f35 bbbf 51ef 39c2 5ae4 c1bf
00000630: 96db 34f5 9519 c33f 487e 6727 c874 bb3f
00000640: efb1 f7e2 8d75 9abf ed86 fbae 5392 dabf
00000650: 742f 0c02 f111 e5bf ab74 15f8 1b59 e4bf
00000660: 357c cddb e788 c7bf 0836 957b a55a dabf
00000670: e01a f3db 15c0 dcbf 954a 63cb ea14 b63f
00000680: 3d8d 1bc1 f0a3 c2bf 311f d6e6 41f3 a83f
00000690: 1017 8a4f 866f a6bf 1401 c035 7643 b4bf
000006a0: b66b 34f9 c247 b6bf b46a 9da9 bf55 b3bf
000006b0: 00fd 3f03 256e a7bf 95d7 eb84 3967 c03f
000006c0: 0306 aebd 82e7 ca3f 050d 2760 7cf9 633f
000006d0: d6e9 50e6 2b3f c6bf 62ab 0359 57d9 c8bf
000006e0: ab6c b19f 1bb0 693f 8806 8e98 55ae 9fbf
000006f0: 69d5 f9f6 cac8 d0bf 97c9 15f7 812e df3f
00000700: 3ad8 4e25 6c86 ea3f 2f7e 13e5 d956 abbf
00000710: 0836 fab4 e125 d4bf 1ada 796d 3d0f c3bf
00000720: 5520 e04e a5de c53f 8bc6 0e5a 809e d03f
00000730: 2193 e7f7 0806 d23f e4eb 6240 3ecb b1bf
00000740: 6706 60c3 a19e bcbf 21d0 397c 0212 cebf
00000750: a8b0 2135 3591 c63f faaf d916 c60a 95bf
00000760: 31c0 1d4a a0d0 c6bf 8946 c1e5 40cb cd3f
00000770: dfe1 d6ba 3992 adbf 6147 63bb fd34 ba3f
00000780: dd34 095b a679 aebf a967 c2b1 d4cf d1bf
00000790: 4d4b 5358 b069 d2bf a0ff 9cbf 5b6d b53f
000007a0: 961c fffa df86 d23f 54fb 634c 94dc c63f
000007b0: e332 bea3 cb16 ccbf 7f8b 552b 1153 d5bf
000007c0: e2b7 ade2 1589 cdbf e685 6eac 6a8d bebf
000007d0: c13f c436 2d57 a93f f397 8e06 1861 c73f
000007e0: 9c66 6350 2bf9 c4bf b7d1 84e1 628d d13f
000007f0: 3406 24dc e8af c53f 7a33 8fbf 97a3 c23f
-0.6536158238549429 -0.0273962340123413 -0.055809691184877774 -0.28481465556912927 1.062807483339886 0.4190528741774679 -0.31821148728656423 0.544872999661096
-0.3848459915119495 0.09219166853257672 0.05460652769172968 -0.03335924285861681 -0.2240853851505675 0.1147969142284992 -0.022232277269527777 -0.07117798435383141
0.04923669938689871 -0.12817317475610288 0.17835039933027408 0.09245758375159085 -0.008597458561868004 0.11902049600639325 -0.16286419887595027 -0.01579572208107652
0.0899870008462942 -0.20427863246710584 -0.044822369299226894 -0.12259478438843238 -0.04323800534495455 0.020630929269761053 0.24798187160950966 -0.14775166861503164
-0.03140416717758707 -0.06095545388336315 -0.16685746184627792 0.03860706249574784 0.35580787375846046 -0.19722409043342307 0.057484976929896216 -0.2917837306619566
-0.3938897877707705 -0.14750279585996692 0.14893890921540814 0.05845947032320176 0.0907152439631385 -0.31247604239052784 -0.185274332313167 0.05143518163843861
0.24046190924413122 0.5437594923121679 0.3370792633680884 0.0991035734626167 -0.13503607153975858 -0.6246073608529572 0.04614754367406909 0.22816538760637606
-0.22134713875986275 -0.0978847062493133 0.02718586907635997 -0.3224889691507084 -0.2535183807658419 0.31236819331735965 0.455438712433192 0.29892543648458875
0.026566044499644618 0.026513730156607532 0.12480983899502071 -0.3314383452881622 -0.20056134008492923 0.181600183468941 -0.13689946307217626 -0.016164887972136874
-0.02431303363107828 -0.0034123538945253717 -0.0667091603738899 0.1941236223384586 0.3602344624603197 0.33457209257629933 0.04978872562876749 -0.07442595967243763
-0.4925506305870607 0.11977013811268548 -0.16978787186421407 0.13624249100777217 0.40484949475365994 -0.36656393071811527 -0.4149350344241985 0.3229469463902984
0.13112129982497386 -0.27970497237320807 0.15799268678126538 0.08810467575855675 0.10513590044603152 -0.09241918377673461 -0.1475253590312103 -0.1500930519104219
-0.11633760388341169 -0.06763475182863689 -0.25031333464445815 -0.2026153718556824 0.15492398630416532 -0.08745924048266862 -0.2629248294396043 0.2717277320861149
0.4469302981171633 -0.3580420393006737 -0.30869955199045673 0.39160641844345895 -0.13479335559094205 -0.2019785772170822 -0.3379432732387874 0.044770636614792574
0.44979899582571503 0.18903378518258376 -0.026455722735684868 0.4712699948706249 0.19130728844632794 -0.0974983848070434 0.05470133100511111 0.12486437252261659
0.048746553543067186 0.1569001596208614 0.2071098233184749 0.06247760830543901 -0.3736511969236638 -0.17437028083076167 0.09384094858131657 -0.06905565136709009
-0.13928738777709695 0.16233804968247426 -0.039074344977195384 0.012641080739254377 0.043224706973736225 0.13858721024885348 0.13951942329591968 0.06469150156663772
0.06022779320778757 0.1768582426768489 -0.118275940960643 -0.208026544261664 0.1556589658195864 -0.1435693425916871 0.10638611503326918 0.450380478245642
0.045578719249532974 -0.157881888213029 -0.2936936169913046 -0.11063982066541533 -0.4019313731411435 -0.4020588593765715 0.24617592870843213 -0.2197718240949446
-0.09245145622720836 0.1303838088967242 0.050480315995240485 0.04447231215522264 -0.21802479391107166 -0.31928163660105513 0.05620011698164873 -0.1796566722306546
-0.19379665824494718 0.1320596805673657 0.12509501155132233 0.056812424731788595 -0.05253457619632065 -0.009118179280717016 -0.28573330960687726 -0.4118141172493936
0.06054793884957738 -0.21721198878316658 -0.30956391224857815 -0.03748624772598962 -0.018411578353945482 0.10748129127069844 0.11804780219109338 0.06925246294907203
-0.16666950855568483 0.038026789747980565 -0.06249500596171555 -0.21665378337084773 0.13694403201506639 -0.010294675599474083 -0.10758784209247227 -0.08833842025944351
-0.13606612612180188 -0.1631549196458934 0.05610960061044718 0.20137837445427287 0.0787594500276264 -0.15956320456483097 -0.11600398046479601 0.0017854473820469224
-0.10329174916092311 -0.06022941502173989 -0.04892192168668538 -0.07875022530557772 -0.1062784001365123 -0.13978132709223215 0.14921831582043116 0.10725069963472678
-0.02583905885505716 -0.4151810845197435 -0.6584401168815774 -0.6358775945078795 -0.18386553032448352 -0.4117826182235551 -0.44922396163421574 0.08625667062305305
-0.1456280653866119 0.04873090689494431 -0.04381961556377523 -0.07915438472992192 -0.08703249534703059 -0.07552717104901313 -0.04576221146271031 0.12815016737266363
0.21019014608104677 0.002438300057492906 -0.17380284067060242 -0.1941327271118452 0.003135732605682747 -0.03093847030277755 -0.26225542181722133 0.48721360330014235
0.8289089897796267 -0.053396996701618675 -0.3148121135098738 -0.14890258641726534 0.17085710860578965 0.2596741561384099 0.2816183491652727 -0.0695074946587933
-0.11179553050899359 -0.23492461267198997 0.1763063916618013 -0.020548911232637558 -0.17824176424937968 0.23276530474190718 -0.05775623708490562 0.1023710806360021
-0.059521864521778524 -0.2783099876338562 -0.28770073533558077 0.08369992664392933 0.28948211203937413 0.1786065457344771 -0.2194456624532882 -0.333195011442676
-0.23074601715364823 -0.11934534749754952 0.049493229804397305 0.1826505691544181 -0.1638540403862877 0.27425453208277467 0.16943083523806168 0.1456174550388843

module.down_path.2.block.0.weight f8 [16, 16, 3, 3]
00000000: e46e 817a 8234 b7bf 7268 51bb 9ce5 d5bf
00000010: 1884 733e bb6e a9bf 6ad0 09b5 c4a9 d33f
00000020: be90 142f e430 c73f 6422 e09e 1bfb df3f
00000030: 7802 a89a 88cd c5bf c922 68f7 4a14 c4bf
00000040: 070d 096a 8b06 d5bf 6318 835d 9060 b2bf
00000050: b7c4 6de0 7291 bbbf 0ce1 3d4d a7cd a6bf
00000060: bc75 d868 0e03 d2bf 519e 49fa 2153 f13f
00000070: aa19 64dd a996 c5bf 11e3 6b05 fe92 d63f
00000080: ce20 3943 3ab7 c1bf 97fa 9978 2288 c73f
00000090: f424 e50c 33f6 b0bf 0070 86a6 dee1 91bf
000000a0: 3b1b 12bc 84e8 a5bf df5d 12a2 18c7 bf3f
000000b0: ba2c 45f8 d8b9 cebf 8976 0b96 08d1 b73f
000000c0: bbbe 0f6f bf5a b33f e944 24e6 5488 c3bf
000000d0: 15fa 60ea aa7c bdbf 34a9 1c25 3687 933f
000000e0: 7529 124d 4452 c9bf 5dfa e2fb 8752 adbf
000000f0: 8830 4e1a dccf d33f a84d 9150 2f4e ddbf
00000100: ace6 05b3 545c a3bf e5a2 76ff 4abf a9bf
00000110: 9100 a17d ebe1 903f f4c1 e9c5 123f da3f
00000120: 02e5 b6e2 4843 d33f 892c 32f8 18a4 c13f
00000130: bfa5 6e3d 4fe0 9f3f fc71 27e8 e581 dabf
00000140: b88a 2826 9c5e e03f 658e 2ad5 db11 dabf
00000150: 8e0a e486 f52f d3bf df67 0f40 a402 d1bf
00000160: 5359 b6ca 8f53 e13f 2a20 fca4 12f2 c3bf
00000170: 6e4d 38db 4baa a4bf da6c db31 7e27 c73f
00000180: 0d9b cffc 12c2 c53f 4f9e 374f 6020 aa3f
00000190: 5e3e 616b 4b2c aa3f 132a b819 3c37 cb3f
000001a0: 4f26 ee0a f8f7 c3bf 26d0 e697 3115 97bf
000001b0: 8c9e 2aac b051 c1bf e42d cbe5 0f0e 963f
000001c0: 83be d604 26ac a13f 7518 7f51 2679 d8bf
000001d0: 136f c1cb 6ecc c63f 84dc a052 4dc2 bb3f
000001e0: a22c dc24 a796 d13f 77ae 3187 4b2f dfbf
000001f0: 9efb e476 a26b e2bf 7112 7a4b fc93 d0bf
00000200: 7cd1 84e2 72e3 b63f 596b 97c7 6fd6 7fbf
00000210: fd3c 7607 2bcd c3bf 920e 5afc e719 d8bf
00000220: e5f5 4229 15ab d63f 6cce 5518 30e8 da3f
00000230: 82e5 d973 7b00 cfbf 3f5d 404e da34 923f
00000240: bc2c 8078 62aa be3f 6d1f 5cdc c7fa babf
00000250: a277 d52a 7b21 a63f 83d6 ac33 cb37 de3f
00000260: 6464 f99d 173b b5bf 2a97 7bb5 dd49 b5bf
00000270: ecce 21ff 4866 b7bf 9dd7 9678 c8c1 bebf
00000280: 058f 82b4 968a a1bf 6633 42a0 3996 d63f
00000290: 5e12 e44e 7731 b53f ea78 dbe2 f185 a8bf
000002a0: e3ab 4fb9 e3ca c23f f2ea 5218 9409 e63f
000002b0: ece4 c7eb bd31 e4bf a37b 9cab c2ec d4bf
000002c0: ce80 84aa 48b4 d3bf 9f94 fd04 3f85 c9bf
000002d0: 5651 9edb 67fa ab3f 68e3 2024 acf3 be3f
000002e0: 1927 5e3b 3312 7dbf 381f 190c eec0 c33f
000002f0: a22e c7c9 538d c23f 5882 539f 738b 873f
00000300: 7ca9 e650 15b2 82bf 361b 9b07 e52f c83f
00000310: 8204 6c91 62b2 d13f 15c0 1075 0f69 ccbf
00000320: b461 31fe a9d5 923f f807 4911 1915 abbf
00000330: abd3 120d ef90 d83f 06d5 f231 4838 e9bf
00000340: ecda 2981 1f4b e33f 8809 ff0a 3fe4 b8bf
00000350: 9d87 b1b9 2905 b43f 4e5a e9d2 117e c1bf
00000360: 215e 0cbb bbb9 8dbf 7289 f846 d073 533f
00000370: 81ca ee4a 2049 c0bf baa6 9e13 e780 b5bf
00000380: 7aea 06a7 55fb ca3f 7f73 e2f6 ec36 c5bf
00000390: 62c3 1147 240d ae3f 4184 b22a 02c6 a8bf
000003a0: 4560 0eb9 b6d3 be3f cf32 61a6 510f af3f
000003b0: 64c1 2c7f e389 b6bf 2072 eb66 45c6 903f
000003c0: 7a41 fd37 b850 c2bf 1dfd 1af4 2bd4 e13f
000003d0: ea3e 334b 56e3 953f ebb0 9012 57f0 d23f
000003e0: ceff a652 91d0 60bf ed65 48f2 dee3 a43f
000003f0: d17d f206 aba8 ca3f 395a e8e4 0c24 b4bf
00000400: 6438 bcbf dadc b2bf 18ac e516 36ba d6bf
00000410: 4207 8ad2 e5b9 ce3f a10a ade1 46c9 cfbf
00000420: c157 bc13 2742 80bf 74f4 f115 79d0 c83f
00000430: b8ae 4d74 2f49 c03f 3ba1 e4ad 5b75 803f
00000440: 182e c974 3089 a7bf 2c54 4c1c b8b5 b0bf
00000450: 9bae 39bc 5192 d5bf 9c8d 2389 9e46 e03f
00000460: 2782 7a74 0b8a d13f 2d8d b296 2987 b93f
00000470: d448 1e53 429c 94bf 6384 975c ba8e 49bf
00000480: e8dd cd6e 03db bd3f 953d 18ea dc7a cdbf
00000490: 1d4e d6a3 0892 933f e734 08af 11dd d5bf
000004a0: 3632 cd8d 7ab8 e23f 5024 de94 2434 d2bf
000004b0: 092e 22f7 c444 b53f 1817 df2c 1353 d63f
000004c0: 8ff3 38d5 cd59 d7bf 7229 aa61 09bf b63f
000004d0: 86ce baeb 2fab cf3f a042 425f 61f3 c53f
000004e0: 80b9 1187 d2d3 c1bf ae4b 0aba 91f5 f2bf
000004f0: 607b ea97 374b c93f 34bd bcaf 938f 8f3f
00000500: 1399 f9e1 4491 c43f bbbe c34c ff09 3e3f
00000510: 1806 1d68 0004 a83f 8000 863e fc19 ae3f
00000520: 6e81 bb02 deee c43f d379 0cdb d4aa aebf
00000530: c2fe 5abe 0bfe d6bf 300e 5ab8 d0c6 b3bf
00000540: 25ac 750e 5153 b13f edaf 3421 a8b0 97bf
00000550: 0a24 39a1 497b a63f 7ff7 7fcb 0f42 7abf
00000560: 0051 f935 a158 d5bf b4d5 c925 a8cf a63f
00000570: aef6 9af5 c6c2 cebf cc85 c039 204c ef3f
00000580: dc16 7cbe f715 d3bf 0b2a 09be 25ca aabf
00000590: 44ef 9ade 9af2 e6bf 58af b851 6093 d13f
000005a0: 6c49 57cb fa8a c53f 9369 93d7 bc6b c2bf
000005b0: 10f7 3cba f81f babf 1a61 9d62 2492 a93f
000005c0: f4e0 c5a0 8e3d b7bf b1b2 813d 1d62 d23f
000005d0: 398d ae67 1fb6 a3bf 3e91 3f2f 62a1 d1bf
000005e0: 09c9 48d0 7666 c0bf e927 36f1 8b1a ca3f
000005f0: 9a03 2dd3 da7c cbbf ecdb e341 379b b1bf
00000600: 6088 e585 7992 c5bf d9bd 70a2 8773 a9bf
00000610: bad1 acf5 b698 d1bf 1778 60e6 27cc c13f
00000620: 6b50 7cfd 1fb7 803f ade3 cd9c ea16 d23f
00000630: f5e4 995d df15 b1bf b39a db20 e5bb b5bf
00000640: 88dc 9feb ec9a a1bf 4e5c aad3 4aa0 b6bf
00000650: 9cfb 51c0 9a73 ee3f 8055 3ce6 1a55 bbbf
00000660: 0fcd 15f0 d76b 6e3f c0a7 27cc e314 cfbf
00000670: a23d 4f9e 660f d7bf 791f 2d68 1830 bc3f
00000680: 35c2 9cb9 94cc d03f 3d0e ae03 7ccb a33f
00000690: 2629 7c56 4738 ba3f b581 ca8c 636a b23f
000006a0: a7e2 891b b6e0 aabf 6eef 2bec 16fc 9cbf
000006b0: 030d 7ff0 6cbe cb3f dd93 d301 d4cd 893f
000006c0: 25cf 6e06 7d09 c5bf 0dac 5c3b 1e74 813f
000006d0: b978 16e2 445b bcbf 7123 bc02 93d0 923f
000006e0: d511 7a10 73f6 cf3f edbb 262c e0de 8fbf
000006f0: 1357 54e5 6a58 a4bf a67d 6949 c8d1 c7bf
00000700: 9772 a429 0953 9c3f e297 0579 3405 bebf
00000710: d1d8 9fe2 f9d4 963f 5581 3361 8965 a6bf
00000720: 518e 2bd9 4cde d03f f4f8 5da0 2b1d f03f
00000730: 675d 93ab 2d6a c43f 479f 0722 05b1 d2bf
00000740: 8926 2663 c706 d5bf e6be 80fe 7052 d6bf
00000750: 096e faaf 197f 8a3f f64c 1251 6032 c0bf
00000760: 590c f2b9 97bb c0bf ef02 c8d4 23b4 c63f
00000770: 6017 bbe9 3194 cf3f bc5e f415 bf9b c53f
00000780: 08d5 8cd9 e897 aabf d7e9 511b 2207 ddbf
00000790: 0d4a b881 73b2 bebf d12b a582 863f b0bf
000007a0: e84a d479 4f97 b2bf e203 ccc3 9736 babf
000007b0: 3707 fe2f 7b86 adbf 900d 71ad ae3d a8bf
000007c0: dbbc b40d 0e2a bb3f 01c9 6b17 52e0 c9bf
000007d0: 7251 862b d190 85bf 3087 d74c 534f 94bf
000007e0: e638 5672 a507 b6bf 7c02 cbbf 505f b0bf
000007f0: 2845 7439 8278 a83f 89bb 149e 090d c03f
-0.0906449841581281 -0.34213941853307184 -0.04967293870300454 0.30723684005284346 0.18117954539150632 0.4997014094847485 -0.1703348879964499 -0.15686928825768678
-0.32852444987311497 -0.07178594859132796 -0.10768812159746487 -0.04453776185886413 -0.2814365409738817 1.082796075521305 -0.16866038618190987 0.3527216961806952
-0.13840416223889068 0.18384199990028513 -0.06625670494863184 -0.01746318713558992 -0.0427896003321195 0.12413171727018078 -0.2400466167694953 0.09303334868624281
0.07560345136129858 -0.1525980113733916 -0.11518352720393239 0.019070478453764042 -0.19782308352689496 -0.05727028798854825 0.3095617539299913 -0.45789702289513423
-0.037813803532981666 -0.05028757446718205 0.016486815970211458 0.41009969069912633 0.3009817327507137 0.13782035941071438 0.031129110455059946 -0.41417834922120256
0.5115490670471763 -0.4073400098516003 -0.29980219052246404 -0.2657862306201632 0.5414504012322062 -0.1558249765005269 -0.04036175776505045 0.1808927291338936
0.16998517364773882 0.05102826087005196 0.05111919103421479 0.21262313133077324 -0.15600491079048814 -0.02254178514131424 -0.13530548483435145 0.021538017654888622
0.03451651391094137 -0.38239438971175527 0.1781137938404461 0.10843356387418807 0.27482012366881226 -0.48726165964647045 -0.5756389925153262 -0.2590323197439722
0.0894080927872149 -0.007772862090372389 -0.1546987329897788 -0.3765811886189364 0.35419205693673766 0.4204216230057003 -0.24220221669001424 0.017779742265785044
0.11978736345206448 -0.10538910989646207 0.04322419069170215 0.4721553806915397 -0.08293292624274923 -0.08315835648280925 -0.09140449742136142 -0.12014439529488503
-0.03426047280779979 0.35291901254895774 0.08278604198501102 -0.047896918242018874 0.14681669758223767 0.6886692500187037 -0.6310720067114324 -0.32695070990478764
-0.3078786530695766 -0.19937885039977218 0.054644818838968476 0.12090564615290378 -0.007097435116415495 0.1543252524445451 0.1449379668468867 0.011496451663732518
-0.009128729373362836 0.18896162864094784 0.27651275826799104 -0.22195618835530753 0.018393188609793845 -0.052895339355487125 0.38384605671609034 -0.7881203628118392
0.6029202959751649 -0.0972327615591323 0.07820378097087972 -0.13665983961500888 -0.014514414449464276 0.001187280078632638 -0.12723163279368424 -0.08399814824101784
0.2107951226770018 -0.16573869757567292 0.05869401328607783 -0.04838568469245575 0.12041799562428064 0.060663749275226324 -0.08804151396612309 0.016381344229431716
-0.1430883668313177 0.557149864929588 0.02137503465638605 0.2959191972065713 -0.0020525778138278166 0.040801016879594566 0.20827234114857032 -0.07867508495869736
-0.07368247204814932 -0.35511543499041087 0.24004814892037457 -0.2483299829419439 -0.00793867615679378 0.19386209079303607 0.12723344019774685 0.008036342853828251
-0.04596854615791929 -0.06527281466362983 -0.33705562001589734 0.5086205175870648 0.27405058264597176 0.09971866540086145 -0.020127331088198044 -0.0007799539536642693
0.11662312941722741 -0.23031197958378571 0.019111762046646875 -0.3416179856584009 0.5850193757592652 -0.284432549837736 0.08308058770688133 0.34882048971154367
-0.3648562032938622 0.08885248789207426 0.24741171846618587 0.17148987914381042 -0.13927680583169533 -1.1849534289546955 0.19760794561167483 0.015410569954467414
0.16068326028762012 0.00045835955530913367 0.04690552969851697 0.058792002327209936 0.16353964932842352 -0.05989709066328754 -0.3592557295741977 -0.07725243092323164
0.06767756083506578 -0.02313482954666306 0.04390935986572948 -0.00641065759555015 -0.3335345294083396 0.04455304585728062 -0.24031912796447358 0.9780427101106226
-0.2982158050730115 -0.0523235125043194 -0.7171148631818842 0.2746201322613522 0.1683038227916528 -0.1439128925911289 -0.10205034777478894 0.04994310096543782
-0.09078303742524324 0.2872384167338096 -0.03849886074683657 -0.27547506918041964 -0.12812695665486043 0.2039351394453768 -0.2147477656490338 -0.0687746559013786
-0.16853255308075443 -0.049709547595167165 -0.27494596473414 0.13904284237736483 0.008161783145205178 0.28264870942035253 -0.06673999819931338 -0.0848983006686506
-0.034385112536193196 -0.08838336627592122 0.9516118770842357 -0.10676735039699814 0.0037135331664842684 -0.24282500713826316 -0.36031499347606133 0.11010887664190062
0.2624866306896679 0.03866183800621712 0.10242124425363794 0.07193586528092662 -0.05249566160359125 -0.028305395283481465 0.21674882643683455 0.012599617295970528
-0.16435206235984726 0.00852225893648575 -0.11076765556069547 0.018373772661138547 0.24970854095967235 -0.015561820361510182 -0.039737072462385246 -0.1860895498711958
0.027660506407402776 -0.11726692156443577 0.02229681440072612 -0.043743413081531436 0.26356812675496594 1.0071216835345327 0.15949030759541502 -0.29205444644184236
-0.3285387485744669 -0.34878182271766744 0.012937737162523015 -0.1265373607498998 -0.1307248742997185 0.1773724354716459 0.24671005165708504 0.16881550380707278
-0.05194022803918058 -0.4535603777691483 -0.11991044919003731 -0.06346932115154337 -0.07262131428096164 -0.10239552049826231 -0.057666635139879956 -0.04734559886176293
0.10611045679683022 -0.20215822356801286 -0.010530122891204672 -0.019833852353151105 -0.0860541729109375 -0.06395439798780872 0.04779440833420728 0.12539787501142666
