results/run_1/saved_model_unet7.pt (torch, 364919 bytes, 87 tensors)

down_path.0.net.0.weight f8 [8, 4, 3, 3]
000000 11 ab 4a 8f e1 cc b9 3f 02 e3 69 d6 24 10 b6 3f
       0.10078248737651686 0.0861838363142731
000010 f6 73 5a 42 13 d3 c3 3f 8c 6c b6 81 c4 95 b7 bf
       0.15487900485905443 -0.09212902228175518
000020 d1 9a dd a4 e1 63 ba 3f 89 3d 4c 3b 21 93 d0 bf
       0.10308656954803587 -0.2589800910072531
000030 ff ee f1 43 f7 9b ce 3f 4f b4 12 e4 dd 5f b1 bf
       0.2391347009432749 -0.0678690606898311
000040 f4 c8 2b 87 27 47 d1 3f 06 51 d2 81 c9 ff b3 3f
       0.26996792030617134 0.07812175197097213
000050 67 26 5f 24 4d fe be bf ad 0c e1 80 f1 cf b0 3f
       -0.1210678304479643 0.0656729640623321
000060 21 5e 3b bd cb 1a b3 bf c5 77 b6 96 6e d9 ca 3f
       -0.07462762231750066 0.20976049765607577
000070 6c 1c 31 d2 2b 1d c1 bf a9 d1 7f e4 89 5f 70 3f
       -0.13370273364327845 0.003997362749931823
000080 a6 b3 23 bb b6 0f 75 3f c6 d1 a9 3f ff 1d a1 bf
       0.005141938965817971 -0.03343198444500532
000090 77 7b 68 ec bd dd a1 bf fa 2e 3e 73 86 91 9c 3f
       -0.03489488135186652 0.027898884567135497
0000a0 e7 f2 41 63 08 18 b9 bf 51 6b 62 0e 87 90 85 bf
       -0.09802296088487204 -0.01052957070014818
0000b0 78 bd 08 49 54 3d b4 bf b7 51 a6 8f 78 f3 ba 3f
       -0.0790608099275597 0.10527757174560902
0000c0 83 9a 30 27 c5 f4 97 3f d5 b0 69 59 fa 72 8f 3f
       0.023394661442717634 0.015356021741546414
0000d0 a7 05 cd 72 f3 87 7c bf cf 08 f9 88 47 59 b0 3f
       -0.006965590448829862 0.06386229604780456
0000e0 14 2e 81 3a 2e 07 ae 3f db 93 5f 9a 15 ad a0 bf
       0.05864853347938151 -0.032570529074099595
0000f0 10 c7 e4 86 d6 a8 a0 3f cd 84 d0 22 61 6d ba 3f
       0.032538131681930094 0.1032314977642443
000100 36 52 d6 a6 45 4a 74 3f a2 85 19 a2 03 51 b0 3f
       0.00495364387224533 0.06373617846977322
000110 60 7e 70 f9 83 04 b1 3f 75 57 8d 22 59 d6 9c 3f
       0.06647515144185823 0.02816142342938784
000120 d2 96 a6 fe ac 7d b7 bf 80 e0 e9 8b 3c 0c 9a 3f
       -0.0917614099222093 0.02543730358090146
000130 92 01 cb d1 3a 4b b9 bf bc 1e 1d 30 b5 7d a8 bf
       -0.098804165095322 -0.04783407413793614
000140 4e 34 9c 65 9f 50 cf 3f 9a 1b 60 fb 25 c7 94 3f
       0.2446479078429626 0.020290940730798825
000150 1b 4b 93 46 fe 57 9a 3f 60 46 87 68 79 5a d9 bf
       0.025726292665079514 -0.3961471100602463
000160 63 e3 2c a2 28 65 bc 3f d3 3d c9 b0 22 e7 87 bf
       0.1109185596404934 -0.011671324749072653
000170 3f 80 61 06 73 e9 a3 3f 40 96 5a eb d4 38 ab bf
       0.03889045193568607 -0.05316796658489098
000180 70 3b f8 da 46 ef b9 3f 05 04 2e 76 11 b6 b0 bf
       0.10130732389391794 -0.06527814040420317
000190 55 70 c6 be e9 a0 b1 3f 9b 0d 78 bd 01 04 c1 3f
       0.068861588550534 0.13293477775014825
0001a0 37 b3 3e ca 47 0a a8 bf 0d 58 5a ea 91 9b ae 3f
       -0.04695343345460972 0.059780654771358945
0001b0 5a ca 9b 45 4a d9 79 3f 22 bf 2e 3f cf fb 7c 3f
       0.006310739636080054 0.007076081807937647
0001c0 87 03 0b 2b bc 04 90 bf 60 ad 38 65 01 09 b8 bf
       -0.015643062712800606 -0.09388741227364994
0001d0 fa b8 8f 8a 7c 80 99 bf fe 54 c2 c9 69 15 a0 3f
       -0.02490419955932397 0.03141337001685861
0001e0 99 18 f5 c2 98 81 b5 bf f2 d1 af ac 1e 92 c5 bf
       -0.08400873908712682 -0.16852172309849284
0001f0 c8 3d bd ac 80 f4 92 3f c0 b9 e2 a4 6d bc 71 3f
       0.018510828536191487 0.004330089852528862
000200 72 1c a6 ce 60 e9 a5 3f 9c 6c ff 65 76 cc 94 3f
       0.042796159005825354 0.020311212516258878
000210 89 06 7f ef 41 3d 88 bf ff a9 62 45 aa d9 a9 3f
       -0.011835589524596972 0.05048877808561158
000220 e1 49 e8 b8 05 cb a1 bf 84 2e 07 40 63 6b a7 3f
       -0.034752062627507525 0.04574117809860659
000230 e5 a5 db de 60 0a 94 bf db a1 57 3f f2 da ad 3f
       -0.01957084045617376 0.05831105254384613
000240 d9 f4 b0 fa b6 ee b3 3f ac 87 41 b7 98 20 d0 bf
       0.07786124821082598 -0.25198953529445123
000250 2e 8b 9c cf db 54 a1 bf 8f 8d c0 7f ba 6b a2 3f
       -0.03385054501838734 0.03597815331911668
000260 7c 5d a6 11 a9 13 b0 bf 01 00 9a 99 85 78 b6 3f
       -0.06279999428658373 0.0877765178684058
000270 84 0b 51 4d 9c d4 c5 3f ca 98 05 25 59 63 a5 3f
       0.170550859215009 0.04177359177519831
000280 9d 3e e5 0e b2 ac c3 3f 21 50 aa cb 67 de a4 bf
       0.15370774962729153 -0.04075931893490315
000290 f8 c7 20 20 73 0a c9 bf 8d 23 05 57 e2 38 d4 3f
       -0.19563139981033806 0.31597193239263605
0002a0 f5 75 86 34 e2 b4 bb bf b9 3c c4 d7 4e 10 96 3f
       -0.10822881491045407 0.02154658500608939
0002b0 85 96 ae be db b4 b1 bf 32 1a cb 84 c6 03 72 3f
       -0.06916592984506494 0.004398131812826155
0002c0 10 7c b9 46 a5 cc b9 bf 94 fe c7 dd e9 59 c7 3f
       -0.10077889420198027 0.1824314434925226
0002d0 21 04 26 bc 86 b0 8d bf 48 d9 94 52 11 3a 9c 3f
       -0.014496853463017047 0.02756526056801903
0002e0 d1 7e fe ed d5 a9 b2 3f 71 a7 6b 39 5f 94 8d bf
       0.0729039865532244 -0.014443153323970144
0002f0 52 75 ce 8d b5 67 97 bf 24 d5 48 19 10 80 ab bf
       -0.02285655668275883 -0.05371141728066167
000300 0c ec ef e9 50 b8 b2 3f 0a 54 3b 79 29 1e 89 bf
       0.07312494002682984 -0.012264560711097178
000310 47 26 7e 51 e0 fd 9d 3f 1a 97 63 b1 44 ee 92 bf
       0.02928877351181416 -0.018487046553580112
000320 ab 29 e3 0e 37 a2 c8 3f 45 56 94 c0 44 4c a1 3f
       0.19245041109963998 0.03378500796149501
000330 9a 5d fe e5 a2 06 d0 3f 96 26 aa f2 46 02 c5 3f
       0.2504050489455608 0.16413199280605245
000340 57 da 3a 3a 86 e3 99 3f 2c c9 39 02 d4 69 b6 3f
       0.02528199892432278 0.08755230955447207
000350 69 ac 86 b5 5f a2 c0 3f 16 7a bf f5 9b 1f 9a bf
       0.12995525706841995 -0.02551120459963315
000360 aa 4a 77 09 6b b8 5f bf b4 5d b0 59 6a 0f bc 3f
       -0.001936058548257217 0.10961022081061494
000370 5e 1c 65 38 b1 27 b2 3f 0d 98 01 7c dc d6 a6 bf
       0.07091815592603853 -0.04460801137683754
000380 7f 2f 53 33 9f c5 91 3f 53 84 62 2e 83 33 9f bf
       0.017355430133462853 -0.03046994181261582
000390 81 a7 04 d9 bd 03 c0 3f fb 54 07 be ab b2 90 3f
       0.1251141843470656 0.016306575272968065
0003a0 47 47 b3 56 7b ad 92 3f ee 90 db 5f 84 c8 c0 bf
       0.018239905516402 -0.13111929588843146
0003b0 1e e3 be a4 8f 13 af 3f 56 e0 5f 41 6e 53 b0 3f
       0.06069611440711341 0.06377305122430363
0003c0 11 55 8a 6c 60 f6 c3 3f 57 17 5f b6 dc 66 b3 bf
       0.15595631885359088 -0.07578830196788765
0003d0 94 4d 38 03 b0 7f d7 bf 1f c6 1a 91 e8 d5 d4 bf
       -0.36716842951246886 -0.3255559365307778
0003e0 1d 21 6d 9b 8b 4c c2 3f c1 ca ea ce 9c 19 b2 bf
       0.14296097840475222 -0.07070331622780214
0003f0 39 2b f6 ca 1b 42 50 bf 47 40 32 35 82 08 c6 bf
       -0.0009923240103002064 -0.17213466260409602
000400 a0 0d b9 a7 4c 28 74 bf b6 12 7a 19 91 41 b5 bf
       -0.004921245035407834 -0.08303171989434585
000410 61 ce 8e 6e 2d 28 b6 3f ba c3 3f aa de f1 bb bf
       0.08655055951276715 -0.10915939003440558
000420 86 4c 50 a5 15 1b 66 3f 98 ee 5a e1 05 96 b3 bf
       0.002698461796634857 -0.07650791885219588
000430 cd 96 de 3c 3f 97 b7 bf c1 d2 b5 70 e8 cf ba bf
       -0.09215159641334054 -0.10473492385592477
000440 e2 94 3c fb d6 60 a0 3f 9d e0 ca 90 8c b0 b5 3f
       0.031988828819786055 0.08472517523739716
000450 7f 51 93 31 cd 0c b6 3f 07 e1 d3 50 19 be a6 3f
       0.08613283596361575 0.04441908942857436
000460 cd 94 70 b3 be 80 bc 3f e5 03 55 98 da c5 8f bf
       0.11133949166158459 -0.015514095090681532
000470 8a cd b9 52 68 f5 a5 3f 50 20 61 63 ff a5 b1 3f
       0.04288793573223433 0.06893917251829973
000480 05 e9 62 75 e6 5c c0 bf 35 7f 93 83 88 ca b5 3f
       -0.12783508998638396 0.08512166225727642
000490 91 65 19 9e 65 3a b5 bf ec 17 c2 80 1a 6a b4 3f
       -0.08292231664508722 0.07974401134023851
0004a0 ba 6e ab 60 74 8c b3 3f 36 8a 97 9b 11 35 97 3f
       0.07636191711520271 0.022663378831462043
0004b0 c1 cd 51 d2 43 fa a5 bf 34 aa b2 b3 5c 9f b4 bf
       -0.04292499487283009 -0.08055667292743679
0004c0 d8 79 81 09 1c 65 92 bf 7f f2 f9 15 00 c4 b5 3f
       -0.017963827209649924 0.08502197777301922
0004d0 2f 4b 10 06 d5 5d a3 bf 0f 68 1e dc 17 a2 9e bf
       -0.03782525729197627 -0.029915211496337742
0004e0 3c 30 d5 e1 0c ac c3 3f b6 71 72 02 d3 fa b0 bf
       0.15368805911055172 -0.06632727441542027
0004f0 ac bf a2 90 e3 93 c2 bf 28 09 7b f6 1d 6a b2 3f
       -0.1451382118443666 0.0719317175635622
000500 e8 dd a9 81 ab 52 9c 3f c0 a1 c8 52 f5 25 d0 3f
       0.0276591108217569 0.25231679043147537
000510 1a cb 6d c9 53 e3 9b bf b0 71 62 63 a7 11 9e bf
       -0.02723437230037993 -0.029364219132377023
000520 6a 6c 85 2d 37 60 b8 bf fe 94 8c 26 18 c5 b0 bf
       -0.09521813260418957 -0.06550742093221015
000530 8e 8e 33 45 46 80 cd 3f b3 f5 87 9f 86 f3 7e bf
       0.23047712687467875 -0.007556463119269652
000540 46 10 21 25 0e c4 99 bf 55 7f 8d 53 57 2a 67 bf
       -0.025161953941520453 -0.002827807006198594
000550 3e de a6 a2 d6 1f a5 bf 18 29 eb ef 5a ea 63 bf
       -0.041258532862624694 -0.002431085216220496
000560 ad 20 65 2f 0a 46 b5 3f a4 1a 75 66 8d fe 91 bf
       0.08309997231583806 -0.017572602633004877
000570 4e cb 06 26 bd 5f b8 3f 19 ce 3f 89 8d d4 cb 3f
       0.09521085909254376 0.21742409898398377
000580 d1 78 d4 49 e8 b1 c8 3f 5e 26 03 20 d0 38 96 3f
       0.19292930226305896 0.021701099351764667
000590 9e a1 53 50 c4 f7 77 bf c9 44 b3 3c 8e d7 a0 3f
       -0.0058515232569579505 0.032894558820439075
0005a0 eb d9 bc 1b 29 ce 67 3f ea a6 d0 a9 2f 56 c6 bf
       0.002905922212359293 -0.17450519363165223
0005b0 80 10 a8 be 03 f4 b5 bf ee bd 73 db c7 67 9d bf
       -0.08575461773586035 -0.028716204423231355
0005c0 4b d0 75 45 2b 5d ac 3f b4 09 c7 90 db 14 72 3f
       0.05539832327750157 0.004414422681693276
0005d0 46 66 09 1a 85 d5 b0 3f 9a 24 d5 65 23 13 ca 3f
       0.06575805555021316 0.2037090537290041
0005e0 27 e8 4f 81 7b 9c a2 3f ec c7 52 51 85 bd 99 bf
       0.03635011628644263 -0.02513702687128465
0005f0 f7 fa 4c 2f 14 5d 75 3f bf 1b 3d 59 49 74 bf 3f
       0.0052157200305475914 0.12286814144782364
000600 aa 4f 8e d8 f4 06 95 3f 26 19 5d 28 8d 0e c3 bf
       0.020534349172137624 -0.14888157339937286
000610 f1 77 06 af 55 95 c3 3f c8 fa 85 11 94 15 80 bf
       0.15299483343272827 -0.007853657517214244
000620 3c 88 58 a5 7d 12 be 3f b8 1e ee d0 e6 11 c1 3f
       0.11746964728129766 0.1333588142554072
000630 05 55 63 e2 b5 5e 82 3f ea cb 2e df 69 8f c3 3f
       0.008969708415330855 0.1528141345748673
000640 42 6b 8f fa 32 38 c1 3f 89 b4 87 d6 cd 1f 89 3f
       0.13452756151567696 0.012267692670287171
000650 19 03 05 80 94 fc d5 bf e2 fa 20 35 c0 6c bc 3f
       -0.3435412645522305 0.11103440568056613
000660 4f 76 13 ae d8 68 33 3f 2b c2 80 e5 8c 47 ac 3f
       0.0002961663249843914 0.0552333860545143
000670 3d 8f c1 d6 aa 3e c0 3f 79 38 4e 28 7b 4e a9 3f
       0.12691245542657184 0.04942688815127467
000680 c9 c1 02 2f 56 4a a5 bf f4 0e 25 4c bc 4f a1 3f
       -0.041582768667811694 0.03381145886899431
000690 78 c1 2b 1f 55 e2 a4 bf 9c f8 cc 4c 1a f9 ba bf
       -0.040789279990238236 -0.10536350607887573
0006a0 4a f9 17 d2 14 20 b8 3f 4d 92 10 1b 1d 51 96 3f
       0.0942395222591347 0.02179379918756501
0006b0 ba 5f 88 9f 98 50 95 3f 3d 0b 54 f2 c2 30 a1 bf
       0.020815262543777392 -0.033575145798769836
0006c0 31 a0 ef f3 5a 58 87 bf c5 da 88 d4 1b 8b b1 bf
       -0.011398993081414318 -0.0685288804896614
0006d0 71 0b 3b b9 b8 0e 92 bf 51 06 e5 26 8c f7 87 3f
       -0.017634283357220896 0.011702628075570905
0006e0 d3 6a 7a 6f 1e 7c d2 3f 15 39 be 68 24 bc bb bf
       0.2888256157545303 -0.10833957249835564
0006f0 11 e1 09 2d 2e 56 67 bf 62 2a ce 0a 83 f3 b4 bf
       -0.002848711192481209 -0.081840696466466
000700 42 a4 5d f1 b0 29 b6 3f 96 d4 1a 55 ce 75 a4 bf
       0.08657365696639466 -0.03996128834607153
000710 79 aa b7 2f fd 2c a5 bf 55 3e b6 99 04 16 80 3f
       -0.0413588639019808 0.007854495945849008
000720 94 54 7d 07 78 37 ca bf 4c 97 98 08 a4 26 c9 3f
       -0.20481777539922474 0.19649172229508804
000730 35 e7 a2 2c 4b c4 9b bf 3a 83 72 57 25 c5 a2 3f
       -0.027115988349329007 0.0366603535887919
000740 51 08 1a f3 4b 62 95 bf 55 5f 2f 34 86 04 7a bf
       -0.020882784569501493 -0.006351970895558019
000750 81 27 ec 27 77 84 bf 3f 35 72 96 66 66 c6 6e 3f
       0.12311501240415447 0.003756713868553053
000760 c3 a7 ba f8 ce 4e 91 bf be a7 17 ab 0c 3c a1 3f
       -0.016902193003865095 0.033661266217520844
000770 0d 86 a5 7a 50 16 d5 3f e5 20 18 b0 a8 3d b4 bf
       0.3294869611473537 -0.07906584071327279
000780 ff c1 2d af eb 20 af 3f 5d 42 4d 45 c5 fc b1 bf
       0.060798039564250665 -0.07026322309435203
000790 dd ac ca d2 32 13 b5 3f f0 8c d9 89 f0 6c 90 3f
       0.0823241963031935 0.016040571607288834
0007a0 8f 65 86 a4 fb 37 a9 bf ac 51 5e 00 da 21 b6 bf
       -0.04925524123536739 -0.0864540339374062
0007b0 91 d6 bc 55 28 99 93 3f eb b6 54 5c db 21 c4 3f
       0.01913893721867638 0.15728322990746987
0007c0 46 f2 13 29 18 b3 af 3f bb 54 21 66 67 9a 66 3f
       0.06191325665892981 0.002759172392908652
0007d0 2a d3 fb d0 b5 58 be 3f f5 c7 a1 7b 1a 87 9f 3f
       0.1185411105360116 0.030788816257377467
0007e0 4a d2 b6 df bd 19 c5 3f 99 a0 73 24 67 07 c6 3f
       0.16484807418386743 0.17210091857782997
0007f0 f9 74 b2 3c 8b 05 b0 bf a7 4c 52 90 b1 da 94 bf
       -0.06258459312308053 -0.020365499910053455

down_path.0.net.0.bias f8 [8]
000000 80 78 1c f1 dc 89 bc bf e3 7e 69 d1 cb c8 8e bf
       -0.11147862326149216 -0.015031425789117708
000010 d0 91 b0 fe 63 3c c0 3f da ad 5a 79 e7 ad c0 bf
       0.1268429750063107 -0.13030713487147133
000020 6a 35 af 8f 74 55 95 3f 6b 27 1f 56 57 9e c3 3f
       0.020833798665809956 0.15326968865548038
000030 d6 3c 77 fd fa 45 b2 3f f7 63 17 8a 89 92 a4 3f
       0.0713803166211052 0.04018049059568079

down_path.0.net.1.weight f8 [8]
000000 b1 bb 77 72 46 46 f1 3f e2 24 00 23 4f 2d ed 3f
       1.0796570273775894 0.9117808993916265
000010 7b 70 ec 43 ca d8 f0 3f 61 33 1c 6d 3f da ef 3f
       1.0529272702470098 0.9953915720994752
000020 8b ce a4 d9 e3 b8 f1 3f fe 75 a4 f4 1c b9 eb 3f
       1.1076391698560737 0.8663468149349567
000030 49 d6 f5 2b eb 0f f0 3f 5b df 0a 51 d4 30 e8 3f
       1.0038863866042382 0.7559606154309039

down_path.0.net.1.bias f8 [8]
000000 cf 85 7d d4 63 7a 97 3f f6 a1 f0 1a 14 f5 8f 3f
       0.02292781814992911 0.015604168960707359
000010 3d 40 9b b3 0a 2b a3 bf 7b 59 f6 90 b8 93 81 3f
       -0.037437757897010183 0.008582536624811557
000020 84 ba ec a9 7a 87 c5 bf 11 0b 7a bb 42 a9 9f 3f
       -0.16819699570756452 0.030919115727111427
000030 ee fa 2f 26 40 45 94 3f 7c 09 54 e7 29 8d 90 3f
       0.01979542000844508 0.016163496727139556

down_path.0.net.1.running_mean f8 [8]
000000 0e ff 88 9a dc ea c5 3f 88 5d 71 15 f7 dd b8 3f
       0.17122991128598425 0.09713691972262073
000010 15 c0 5d 2a 3b a2 e7 3f 38 4d 52 d4 d5 f8 bf 3f
       0.7385536029305536 0.12489067491178651
000020 b1 d5 be 53 d1 35 de 3f 3e 30 d9 01 51 3a c3 3f
       0.47203477075830863 0.15021717634442838
000030 91 95 73 ab 7c 56 d1 3f b5 47 81 fe 89 37 a1 3f
       0.2709037470179619 0.033626854245667394

down_path.0.net.1.running_var f8 [8]
000000 33 d3 98 77 3e 58 d2 3f 6b 76 1d 24 3b b9 aa 3f
       0.2866359870852648 0.052194450529651736
000010 4b ab df 8f 48 76 f5 3f 70 c2 6f d3 0b c5 ce 3f
       1.341377794272108 0.24038837265063107
000020 64 43 85 a3 ab 3e e7 3f 09 56 15 af 81 ca 8e 3f
       0.7264002031098298 0.015034688144321089
000030 34 30 c9 a9 57 a8 c3 3f 5a c1 0e f0 f0 e0 92 3f
       0.15357490339590785 0.018436207439380105

down_path.0.net.3.weight f8 [8, 8, 3, 3]
000000 f2 5a 8b 8e 11 ee c0 3f 84 e7 8b 2b 6c a6 bc 3f
       0.1322652765290609 0.11191440642497069
000010 1f ed 80 df 54 4d a8 3f ee 9f 82 e0 e1 42 96 3f
       0.047464992793232456 0.021739510849016534
000020 ca b6 60 b5 e5 1d b1 3f 9f 1c 7b bc 92 f4 a3 bf
       0.06686244657677345 -0.03897532034675887
000030 b0 a7 ef c3 e3 8b b8 bf 47 9e 50 5a 78 4d bc 3f
       -0.095884547553992 0.11055710034326537
000040 79 ff 3a b1 da f1 b2 bf 1c 1e bb 13 68 25 a0 3f
       -0.07400290324130578 0.031535389336166925
000050 48 fe ca 0e 24 6b b6 3f cc 64 de da 11 c1 b2 3f
       0.08757233964114974 0.07325851052736992
000060 b3 b8 31 6f d7 08 a0 3f d1 37 52 19 0c 17 a2 3f
       0.03131745560027479 0.03533208664985888
000070 a9 de f3 9b ba 9a b2 3f bc 23 b1 cf 96 1b 8e 3f
       0.07267347629010125 0.01470105954480682
000080 ff 55 ff f5 24 1c 89 3f 1c 26 9b 64 45 6d 99 bf
       0.012260712392087035 -0.02483089853811836
000090 f4 de f9 93 9a d2 a9 3f df e7 02 7b 50 f3 c2 bf
       0.05043490463589065 -0.14805036550916292
0000a0 38 de 68 40 1e 7a 80 bf db f3 67 48 59 7f 96 bf
       -0.008045421925188298 -0.02197017197066829
0000b0 33 1a fd f0 7e cd cd bf 53 82 a8 a3 e9 bd a1 3f
       -0.23283373610520783 0.0346520435598491
0000c0 96 f4 91 69 32 7f ab 3f eb 22 55 7f 8b f4 a1 3f
       0.053704810511569764 0.03506885461189831
0000d0 38 78 1b 18 ff 55 b9 3f 97 7e b9 2c 90 38 3a bf
       0.09896845186764913 -0.00040009994402188373
0000e0 c3 8a 70 d4 a3 aa ad 3f f1 3f 2a d5 7d 38 b4 3f
       0.057942504580088115 0.07898699239944997
0000f0 f9 38 52 48 05 8c 9d bf 38 cf 15 9f a0 c8 c3 3f
       -0.0288544488326403 0.15456016319114396
000100 74 47 53 b6 1e a6 a3 bf 4f 7c ba 21 09 e3 a5 3f
       -0.03837676978731866 0.04274776970600468
000110 4d cc 92 17 17 14 a0 bf 8f aa d1 44 52 33 a1 3f
       -0.03140327608834834 0.033594675923116595
000120 00 36 60 e8 1a dd b7 bf c9 e8 58 a4 51 c0 b9 3f
       -0.09321754620778933 0.10059080374131492
000130 be ea 0c 89 bf 9d b4 bf fd 8c 35 62 c0 5d bf bf
       -0.08053204627951069 -0.12252428434071656
000140 4b 4b 4e 78 f4 2a c0 3f a0 20 f0 de f9 22 b4 bf
       0.12631088136967103 -0.0786586922914716
000150 13 47 23 3a 34 cc aa bf bb fd f4 6f b3 a4 ba bf
       -0.05233920297327024 -0.10407563670468438
000160 58 45 d2 d2 7e 3d a4 bf 37 39 f1 5c 7e 0f 83 bf
       -0.039531672701864806 -0.009306895457623738
000170 c6 ef 91 89 2c eb 86 3f 6d 09 00 85 b5 9b 87 3f
       0.011190746258073047 0.011527460213987617
000180 e5 4c db 7a 5e 9b 7e 3f 82 e4 60 22 ee 86 a3 3f
       0.007472390234130465 0.03813881082209837
000190 81 cc 96 8e 7a d3 b2 3f 76 96 ca 17 bd 3d 96 3f
       0.07353940945795225 0.021719889237508082
0001a0 25 c2 5b b5 53 c8 a5 3f 33 dc 49 12 53 90 87 3f
       0.04254399861190831 0.01150574588358042
0001b0 4d 8e aa 27 ad 03 87 3f b3 3f 1c a1 48 e7 69 3f
       0.01123748090078105 0.0031620424787277223
0001c0 20 cb 80 d4 16 5d 94 3f 36 9f 75 52 9b 01 95 bf
       0.019886357040557745 -0.020513941677022994
0001d0 91 da d7 37 34 58 9e 3f b0 a8 48 fc 39 f8 85 bf
       0.029633346470257897 -0.010727360736457164
0001e0 ca a6 a1 fb ae c6 b3 3f df 8e ef 81 79 16 6e 3f
       0.07725042003007868 0.0036728261179507084
0001f0 39 2e 2c 0d 6b af 6f bf 31 c1 66 5e 82 52 80 3f
       -0.0038678255890596505 0.00796987391081014
000200 6d 5d 87 fa 98 da a7 3f 4c 17 dc 85 37 ea 98 3f
       0.046589642126202736 0.024330966515683713
000210 2d 2a 42 20 c9 dc 84 3f 89 cb 56 40 86 76 a8 3f
       0.010186740204763367 0.04777926955593787
000220 43 dc da 47 d6 36 a3 3f 98 d2 bd 4f 6b 92 77 bf
       0.0375277483666925 -0.005754870591648718
000230 22 ca 54 5d fa 43 79 bf 70 88 6f ce 84 9d 7f bf
       -0.00616834448492168 -0.00771858098502963
000240 05 7d 14 14 13 4e 9e bf 25 77 d8 59 0c da 74 bf
       -0.029594705677593165 -0.005090759511885233
000250 4e ba 62 6d f6 8c 9f 3f 51 6b 6e 12 cc 3a aa 3f
       0.030811167169924318 0.051229836702268224
000260 86 4f 8d 00 2f 88 90 3f 55 dd c4 ff 27 7b a7 bf
       0.01614449921483143 -0.04586148259334758
000270 fd 12 ce d6 63 9b 98 3f 5d 53 77 32 3b fe 81 bf
       0.024030265794425344 -0.00878568885574687
000280 80 57 a8 09 fe 84 a9 bf f0 2b 82 1b 99 bd a2 3f
       -0.04984277599230236 0.03660276852414046
000290 1f 1d 26 87 ab 97 82 bf 03 0a 9e 36 18 30 a4 bf
       -0.009078350126186905 -0.03942943255153255
0002a0 3a 09 f9 e5 5a e4 a6 3f 7c 76 95 85 0f 40 95 bf
       0.04471096093449707 -0.020752184418020722
0002b0 94 99 1d 87 91 a2 a2 3f 79 66 6a 55 7e d7 9f 3f
       0.036396548980337645 0.0310954799302636
0002c0 f6 55 17 35 f8 5d ab 3f ae e0 9e e9 d3 3d b4 3f
       0.05345130584798234 0.07906841710689846
0002d0 39 82 c2 b5 d2 16 ae 3f c2 ab 32 d0 be 21 66 bf
       0.058767876327014475 -0.002701637918638395
0002e0 8d ef 49 91 24 b5 c4 bf 22 c3 bd 3f 2a dc bc 3f
       -0.16177804083042382 0.11273445182974887
0002f0 86 f6 25 ea 24 49 ba bf 67 5b bc f1 14 c8 a7 bf
       -0.10267859188567216 -0.04644837809444518
000300 4b 1f 23 06 eb bc 69 3f 64 ae 28 b9 5f 52 b1 bf
       0.0031418409645062365 -0.06766317625504709
000310 2b 08 b3 81 40 f2 be bf 5b d4 9a d6 24 3e ad bf
       -0.12088397184837223 -0.05711474532783064
000320 b9 cf 5b 4f 88 7c b0 bf 31 df 1f 80 5a 65 b0 bf
       -0.0644002145525623 -0.06404653194465194
000330 5a b7 7e 16 b2 26 b3 bf be e8 6f 71 40 f6 c1 bf
       -0.07480919884866691 -0.14032750643656827
000340 73 6e 11 03 22 3d b6 3f f3 ed 31 bc e7 bd a5 3f
       0.0868703134050806 0.042464486811663614
000350 b3 1a d7 dc bd d9 80 bf 40 e1 41 77 a0 ef b3 3f
       -0.008227809240350359 0.07787516509586556
000360 56 b6 26 01 0b 2b aa bf b7 3a af 3b 87 e3 a2 bf
       -0.05110964192440963 -0.03689215282030516
000370 fd bf e6 ba c3 5a bb bf d5 5a 08 6d 8c ae b6 bf
       -0.10685370743772178 -0.08860089933328237
000380 45 03 b9 4b 97 c0 c0 bf 70 1a a4 33 5f b3 a3 bf
       -0.130877410863855 -0.03847787385352752
000390 db 5b e0 fb 07 58 81 3f 50 0f 5e 38 70 03 c4 bf
       0.008468687414319767 -0.15635493042293058
0003a0 94 63 df 17 33 fb 88 3f cc 49 59 cd 8a ca a2 bf
       0.012197875181230868 -0.03670152432154658
0003b0 45 01 cb c6 4f 12 8f 3f 43 0e a8 09 af a3 7f 3f
       0.015171645406895204 0.007724460354896548
0003c0 d2 00 44 cd aa 69 9e bf a8 f4 45 5c ae e5 b7 3f
       -0.029699963358326205 0.09334840538754696
0003d0 74 ac cf 97 db d5 9b 3f 18 db a5 82 85 20 9b bf
       0.027182990208455896 -0.02649124727164595
0003e0 22 e7 ca 98 60 6e 9f bf 58 09 11 1f bc 16 a0 3f
       -0.030694493604392588 0.031423453132918666
0003f0 44 03 09 85 c2 f2 9a bf 01 ed c1 17 10 c9 a9 bf
       -0.02631668030722102 -0.0503621129036791
000400 84 31 fd 76 74 7e 9d bf 15 20 fc 0d d3 60 90 3f
       -0.028802699816240743 0.015994355896538155
000410 11 0b 2f cf 20 17 62 bf 08 b9 24 ef e3 4e 91 3f
       -0.0022082939917437224 0.016902505370290505
000420 89 d0 00 76 e5 ea 87 bf 16 94 dd 8a fb 23 cb 3f
       -0.011678497947379423 0.21203560143035877
000430 89 f2 a0 a1 b2 38 b4 3f 3a b2 9a bc b5 61 a2 bf
       0.07899013944638446 -0.03590171744631161
000440 22 63 00 8a 15 18 a2 3f ed 47 51 5e 3c 8d 8f 3f
       0.03533999738301065 0.015406104687063016
000450 0e d0 35 51 fd d1 7b bf e1 49 4c 11 cf b2 aa 3f
       -0.006792058487338449 0.05214545332104926
000460 10 db 1f 1c 3d b9 ae bf e5 2f d5 34 6f 6e 81 3f
       -0.06000700920406221 0.008511418151691383
000470 cd 7c 23 f1 5e 3d a2 3f e3 74 5c 17 57 6d b0 3f
       0.0356244725569411 0.06416839905110154
000480 44 7b a3 2c 33 83 ae bf 49 e1 52 1e 1a ce b5 3f
       -0.059594725798652465 0.08517611732793741
000490 ec 25 56 d0 d7 cc c0 bf 79 2e 0e 48 41 2e 96 bf
       -0.13125131294900372 -0.021660823843872443
0004a0 65 88 ae c7 87 30 d3 3f 6e 41 ef b9 0c b5 b2 bf
       0.29983705997631765 -0.07307509936732057
0004b0 e7 3f 15 f0 df ac ad bf 43 db 1c ce ba dc 81 3f
       -0.0579595547266079 0.008721789755879455
0004c0 f3 34 57 46 7c 3a 90 3f 44 b8 9f 01 d9 df 9c 3f
       0.01584810427975909 0.028197661136737176
0004d0 1d 8b dd 42 33 28 b8 3f c6 1e b1 34 39 07 9f 3f
       0.09436340696769858 0.030300992814118265
0004e0 01 a9 22 12 2d 90 99 3f f9 b2 ee 30 2d 95 b0 3f
       0.02496405051412243 0.06477625317229387
0004f0 41 c1 02 5e 98 ca a9 3f 5e b2 69 14 20 29 85 bf
       0.050373803592608464 -0.010332346556617352
000500 ef 50 39 6b cc 66 70 3f 4b 70 f5 19 44 08 9a bf
       0.004004286299807299 -0.02542215736808399
000510 9a 79 29 c0 38 3b c0 3f 72 22 e7 1a a8 65 b3 bf
       0.1268073023119996 -0.07576990753944715
000520 68 97 4e 1d 07 11 a7 bf 82 bb 9f 7c 17 fe b0 3f
       -0.04505178673507154 0.06637713234498047
000530 27 be 0e 00 97 38 b5 3f e3 19 75 77 b9 ce ab 3f
       0.08289474250226957 0.054311557609753945
000540 f4 56 19 d7 c9 5e bf 3f 39 84 34 09 e6 51 b8 bf
       0.12254010678710953 -0.0949996731256001
000550 60 56 db bc d9 a0 c1 3f 10 5b 44 f6 f7 fa a7 3f
       0.13772126885912694 0.04683661347569601
000560 a6 92 cc 2a be ed 77 bf 38 be be e3 06 91 ab bf
       -0.0058419636159540485 -0.053840842533983524
000570 42 ee bd 15 4b e4 6f bf 38 b4 d1 cf d4 c0 cf 3f
       -0.0038930384161497697 0.24807224414272055
000580 4c 62 1d bd 8e 8c b5 bf f0 b7 d1 fb 63 8c 97 bf
       -0.08417598836002432 -0.022996484989953048
000590 1f f0 30 8b e9 7e c5 bf f3 e0 49 fb 67 8a 66 3f
       -0.16793555542415192 0.0027515440836475224
0005a0 f2 33 de e5 1d 8b aa 3f 34 2a d2 c1 40 3b bb bf
       0.05184262686734788 -0.10637287837941117
0005b0 bb e5 66 d8 1b 96 c2 3f 51 aa a9 47 6d a9 c0 bf
       0.14520595613957518 -0.13017049788625681
0005c0 5f 1c 1b ed 4d b9 b6 3f 56 e0 5e 66 3b b8 69 bf
       0.0887650207397299 -0.0031396064905174033
0005d0 ae 98 ee 4b c2 04 c7 bf 65 6c c8 3f 9b 5a b5 bf
       -0.17983273227327373 -0.08341379458617977
0005e0 b0 56 23 ea 15 47 b0 bf ce 8e 22 6a 22 bf 87 bf
       -0.06358468023548869 -0.011595028747542282
0005f0 0a f8 fc 12 36 06 70 bf 4e 9e af 6e df 95 6b bf
       -0.003912173487888646 -0.003367363349287256
000600 ea f3 14 f1 94 d7 a0 3f 8b 25 63 d8 14 c9 93 3f
       0.032894758633552915 0.019321752269012598
000610 fa c0 9a 95 a8 bd 79 3f 83 fc 94 5b 2f f1 a5 3f
       0.006284388096603028 0.04285572045272892
000620 75 6d a9 bd ee a8 94 bf 79 51 1a 9a 84 a1 6d bf
       -0.020175676656760417 -0.003617056835375884
000630 aa 3a 9a 5f ca e6 8d 3f ba a5 79 c0 ee d9 a7 bf
       0.014600354235225172 -0.04658456897307013
000640 f2 a3 4a 88 9e b6 8d bf f6 8e 6c 68 87 a3 7b bf
       -0.014508474859512763 -0.006747750222334528
000650 e0 07 55 d7 50 8c 92 3f 35 0a bc af 42 e6 95 3f
       0.01811338724406386 0.02138618657682852
000660 3d 80 63 03 27 ad b8 3f 93 e3 ec 32 4d fc ab 3f
       0.09639209587794624 0.05465928312918957
000670 1c cf 15 f3 f1 ce 8d 3f 14 8a 71 28 1e a2 9d 3f
       0.014554872732993433 0.028938742845989365
000680 8e 34 b6 3c aa a1 a4 3f 48 8c 01 68 83 5d 99 3f
       0.04029590598211384 0.024770787451768222
000690 6b b8 53 07 bb 14 a7 3f 5b 9c 95 96 ff 48 96 3f
       0.045080036777890374 0.021762841764396117
0006a0 80 dd 08 4e 47 b5 88 3f fa db 80 5c f7 cc 7b bf
       0.01206451136486808 -0.006787267928351598
0006b0 9d 07 55 04 68 bf 93 bf c9 0e b4 93 fe 87 a7 3f
       -0.019284844650662703 0.04595943024653832
0006c0 61 3d fc de fa 95 c4 bf 85 97 be fe 6c 0e a5 3f
       -0.16082702529863993 0.041125684830418265
0006d0 e0 63 a9 5a 64 be b4 3f 81 ea d8 7d 07 94 a2 3f
       0.0810301514951699 0.03628562365743893
0006e0 e5 69 b7 ff ce 28 88 bf a1 df 9f 44 a5 50 a0 bf
       -0.01179658620724395 -0.03186527693463793
0006f0 a0 22 e0 e6 c0 b8 b0 3f 62 16 38 d2 51 84 a9 3f
       0.06531911503419474 0.0498376435389616
000700 c2 04 85 4c d2 0a a2 3f ee 72 28 6a 92 c1 86 3f
       0.035238811341068224 0.011111396660504504
000710 0e 65 d2 b3 50 6f bc 3f 5f 29 9e 5a b7 4f ae 3f
       0.11107353582555765 0.059201936542268234
000720 b1 28 b6 45 ab 73 be 3f 14 fb 1e 0c 5e 9c bb 3f
       0.1189524693674311 0.10785472675250346
000730 5c b5 37 4e 69 6c 94 bf 6c 96 df 78 96 74 92 bf
       -0.019944806479477037 -0.018022872092748818
000740 16 93 bb e4 16 d5 92 3f 02 92 e2 96 82 9e 82 bf
       0.018390996657120594 -0.00909139655079461
000750 97 70 f9 35 90 f1 9a 3f 51 68 42 09 bd 5f 9b bf
       0.026312115949949613 -0.026732400598668275
000760 f1 4a 57 0d b9 ba aa 3f f5 46 93 3f e2 c3 83 bf
       0.05220583236554955 -0.009650962414898137
000770 4e f3 82 87 ee 45 c4 bf 38 a4 b8 4f 89 d9 bd bf
       -0.15838414780400928 -0.11660059162444802
000780 e1 b5 6c 9d ec c3 a8 3f 59 34 f4 9f 33 c0 bf bf
       0.04836978360831857 -0.12402651457905857
000790 4a e9 26 75 1e 34 ca 3f 52 0e f0 03 9a fd a7 3f
       0.20471554489433635 0.04685670183246472
0007a0 4c 2e 0e 50 25 7e a9 bf ac a9 ed 29 a3 d8 b3 bf
       -0.049790540716540294 -0.07752437375680782
0007b0 b4 b4 9a 86 81 7b 6a 3f 5b 61 1c 86 fc eb c8 3f
       0.003232720356058561 0.19470173405057775
0007c0 9c 38 63 8c 90 22 8e bf 9a a7 e7 fc 73 41 b6 bf
       -0.014714364322937983 -0.08693623470722259
0007d0 00 ef 73 60 57 f5 c2 bf 30 44 03 5f e4 41 ae 3f
       -0.14811222276318148 0.059096466634976585
0007e0 8e 5b 47 7e b3 ac ca 3f 0a cd 37 b2 54 19 c1 bf
       0.20839542070345057 -0.1335855360226577
0007f0 5b 61 19 87 65 9b a0 bf 92 6b 4e b0 45 9b ad bf
       -0.032435581914514976 -0.05782525803734652

down_path.0.net.3.bias f8 [8]
000000 06 54 41 2d 9f 33 ba bf 2a f8 c4 5d 44 66 b7 3f
       -0.10235018591750142 0.0914042214326122
000010 f8 13 8e 78 e4 07 73 3f 80 9d 47 a4 a2 56 b1 3f
       0.00464619871570892 0.06772820006118785
000020 d6 f7 5d a9 78 d3 b4 bf 28 0e 7d b0 61 38 68 3f
       -0.08135179648340282 0.002956572341561676
000030 d9 95 b6 e2 95 aa b0 3f 89 55 87 4e 38 8f aa 3f
       0.0651029280184824 0.0518739314899604

down_path.0.net.4.weight f8 [8]
000000 22 68 8d 7c 16 6b ee 3f c5 fe 65 fd 0a 75 ed 3f
       0.9505722458518486 0.9205374669254175
000010 f4 36 99 f5 64 a7 f0 3f 54 ce d8 fb 72 d6 ef 3f
       1.0408677667323305 0.9949278754124387
000020 c9 38 38 97 9f 18 f0 3f 76 33 0e 13 6f 29 f0 3f
       1.0060115725532788 1.0101156944612888
000030 15 22 45 bf b3 6c e9 3f de 21 d5 c2 22 cd f0 3f
       0.7945193038695516 1.0500819788595588

down_path.0.net.4.bias f8 [8]
000000 30 72 bf 83 80 b5 b2 3f d2 27 83 1e 11 0c e0 3f
       0.07308200088977723 0.5014730068153261
000010 8a be eb 19 b8 3e be 3f 1a a0 2f a9 2a 16 bd 3f
       0.11814451821168795 0.11361948614614939
000020 05 a3 4c 85 d2 5a b6 3f 3f 9b d1 7c dc 52 c6 3f
       0.0873233390272042 0.17440372557322267
000030 66 e7 5f 33 bc b0 c5 3f 03 92 6b f7 0c 7e ae 3f
       0.16945602901960938 0.05955544014230798

down_path.0.net.4.running_mean f8 [8]
000000 98 8c 50 71 68 85 c0 3f ba f8 ca c0 76 dc c6 bf
       0.12907128842298188 -0.17860302365983732
000010 71 76 13 95 97 b3 cd 3f be d2 73 61 c7 60 d5 3f
       0.23204321650603135 0.33403191105689334
000020 18 c9 af ce 64 5b d1 3f 30 b5 41 d9 1f 5c d2 bf
       0.27120323356861453 -0.2868728276869943
000030 06 f8 82 54 8a 49 88 bf fa 3d 45 34 64 e0 de 3f
       -0.01185901708992888 0.4824457655385853

down_path.0.net.4.running_var f8 [8]
000000 1f e9 64 ae 08 1a ca 3f 39 b3 20 54 49 ed d8 3f
       0.20391949191418576 0.3894828149375829
000010 ac 0c a5 9a 65 f6 c9 3f 3a c0 be a5 90 79 d1 3f
       0.20283193636905616 0.2730447405438131
000020 f3 17 09 8e 44 a7 de 3f 74 d7 92 16 da d8 dc 3f
       0.47895921583801665 0.45073559002354746
000030 e8 47 7d 22 44 94 a8 3f 97 e1 5c 7b 39 7b e6 3f
       0.048006180963639455 0.7025420579366707

down_path.1.weight f8 [16, 8, 3, 3]
000000 c2 79 5f 9c 91 41 86 3f a0 cf 7a 0a f3 f6 b3 bf
       0.010867250046371239 -0.07798689847805784
000010 a9 b5 20 02 28 5d b4 3f 5c 74 2d 8e 23 8c b5 3f
       0.07954645206401402 0.08416959973460919
000020 03 82 05 2c d6 37 b9 3f b7 10 db 21 46 26 7a 3f
       0.09850824904197712 0.0063841571370099525
000030 01 68 4d f3 c4 0a b4 3f 7d 61 f3 97 8f e3 ae bf
       0.07828932704924797 -0.06032990198008557
000040 4d 1a c1 70 2e ab a1 bf fa 87 ab 23 5e 53 b7 3f
       -0.03450913549800259 0.0911158406338756
000050 dd ad 1a 25 63 26 b1 bf c5 32 59 71 0f 15 ac bf
       -0.06699199348320613 -0.05484817751548613
000060 f3 83 d1 53 1c 5e a2 3f da f9 b4 0f c6 76 b0 3f
       0.03587425730871265 0.06431234248609688
000070 04 f6 50 20 00 76 b9 bf ab e7 b2 0b ea b9 b2 3f
       -0.0994567946335892 0.07314932618729013
000080 50 25 20 65 ba cf 91 bf 08 d0 5f 17 8e c1 94 bf
       -0.01739398233624928 -0.02026960389771662
000090 8c d8 0c 04 21 da 8a bf ab 99 39 f7 9a 7d a4 3f
       -0.013111360488988553 0.040020792654832014
0000a0 09 f1 b6 08 25 42 a1 3f 7b f0 ce bf 64 be a4 bf
       0.0337077687395056 -0.04051508752260787
0000b0 9b 11 65 cb 26 75 bb 3f af 3d 20 1f 9c 57 b3 3f
       0.10725634065335614 0.07555557022009539
0000c0 bc f7 10 a8 5e 50 9e 3f 4e b5 78 62 12 a6 b1 3f
       0.029603461273147266 0.06894030479516752
0000d0 8d 63 b3 0d 03 41 9f bf c4 f5 b8 fb 1c b8 a4 bf
       -0.030521438323237105 -0.040467172363132714
0000e0 77 ff f4 cb d1 14 a3 bf 41 10 5f b0 96 1d b1 bf
       -0.03726821531972651 -0.06685773664418183
0000f0 ad 50 a4 aa 51 e9 96 3f ae 40 5c a6 2e 0a 95 bf
       0.02237441638961062 -0.020546654609518704
000100 e7 cb 15 e1 10 60 ad bf cb 15 2e 60 54 a9 bd 3f
       -0.05737354991551751 0.1158650145353796
000110 3a ee 9a d6 53 b5 ad 3f ca ad 1a dd ed bd b0 3f
       0.05802404398624757 0.0653980889134608
000120 a5 aa 5e d9 4e b8 a3 bf 59 62 71 47 80 0e 85 3f
       -0.03851553348007045 0.010281564884438031
000130 eb 13 76 06 83 86 ab bf d1 31 0b ac a1 64 95 bf
       -0.05376061872360779 -0.020891691327777743
000140 a6 07 ab 50 9a 49 98 3f b6 06 70 f6 45 d0 a0 bf
       0.023718272374715042 -0.032838999111857545
000150 9a cc c4 2b ae 26 a1 bf fe a9 f2 da 2a 95 99 bf
       -0.033498232691635724 -0.02498309098579376
000160 9c b3 6c 6e 55 7a a6 3f f1 46 a7 86 13 a8 a6 3f
       0.04390208218533262 0.044251070201097316
000170 70 01 54 4b c4 08 a2 bf c3 3a 2d e1 27 d9 b4 bf
       -0.035223135180788456 -0.08143853423573959
000180 cc e1 c2 c0 d0 86 58 bf 0b 61 bf 33 99 c5 c2 bf
       -0.0014969862559565004 -0.14665522600876843
000190 89 22 9a 6f 0f e5 a7 bf 3c b7 a8 66 a4 e6 7c 3f
       -0.04666946637468523 0.007055895034268119
0001a0 11 a6 38 fb e6 a2 ba bf 42 83 0d 92 76 da c2 bf
       -0.10404819138843659 -0.14729196673854444
0001b0 0e e9 0f ea 7e 75 b7 bf 2b 1b d2 dc e3 af 9b 3f
       -0.09163659300239521 0.02703815493853338
0001c0 53 7e a8 bf ef 57 ae bf 4a ae 21 ae 09 c9 aa 3f
       -0.05926465239121783 0.052315046793265
0001d0 68 cb b2 9a 1b f2 b0 3f 79 d6 7c e8 49 22 82 3f
       0.06619427229706576 0.00885446301218028
0001e0 8d 33 a2 93 ca ba a4 bf 13 66 11 bd 9d f7 b1 bf
       -0.040487604638747766 -0.07018457284848294
0001f0 b1 8a e1 f5 0d 29 a9 3f 32 20 3e 21 b0 c9 a7 bf
       0.04914134623029066 -0.04646063237947863
000200 11 e3 17 cc 08 12 bb 3f 29 25 a2 63 48 53 9d 3f
       0.10574393255945959 0.028638011056078803
000210 f6 02 b1 bd ab c5 b4 bf d8 06 2d 8d 69 b5 5e bf
       -0.08114121800555182 -0.0018743067527825976
000220 e0 26 3b a8 6e 1e 93 bf 75 cb 99 a4 96 94 b5 bf
       -0.01867077733803668 -0.08429852980206738
000230 ae 10 f3 49 a5 02 b0 3f b1 46 47 eb f6 d9 b2 3f
       0.0625403695622164 0.07363837474920377
000240 fb 20 fc 4b 55 23 8d 3f 7a 68 76 2f e4 2f bc bf
       0.01422754896295019 -0.11010576399567809
000250 11 97 3c 23 42 41 a7 3f 9c 0c 39 aa 9e ee a0 3f
       0.04541975669989829 0.033070524481922464
000260 66 5f 9a 2d f1 40 6e 3f 67 67 9f f7 34 7f 95 bf
       0.003693076182411592 -0.020993068326652955
000270 49 97 67 6c 7a ed 99 3f ff 6a 2e 7b b8 e9 b5 3f
       0.02531997000360001 0.08559754378658722
000280 46 64 e3 c7 fc ac 6b bf 57 71 d8 ff 88 86 bb 3f
       -0.0033783852696669696 0.1075215935347321
000290 c4 35 6b 77 6d 0c b0 3f c0 96 20 06 0e 55 af bf
       0.06268963017938406 -0.06119579148098131
0002a0 04 0d b5 d9 e5 92 63 bf 32 8d b7 6f 6a da 9f bf
       -0.002389382292365407 -0.03110662752977795
0002b0 39 7f b9 01 c2 f5 6e 3f bc ba e5 71 de 13 a1 bf
       0.003779295844466815 -0.033354712871064035
0002c0 4c 7d 06 0a f4 67 94 bf 7d 8a 83 e4 de fa c1 3f
       -0.01992780028524281 0.1404684654035754
0002d0 81 ce 0f 38 aa 22 b3 3f d8 5d d6 2e a2 65 b4 bf
       0.07474769467062893 -0.07967580455294099
0002e0 2a 4f 50 77 fb 6d b1 bf 38 78 8f 20 2d 13 c0 3f
       -0.06808444655353854 0.12558521356453567
0002f0 f4 19 cb 7f 90 e7 3b bf 98 6f 21 16 0d 39 b5 3f
       -0.00042578962147068957 0.08290178098962853
000300 d6 75 19 17 11 00 64 3f 0b 99 57 51 5e 24 b0 bf
       0.002441438083038187 -0.06305493818181078
000310 a0 07 49 12 86 14 9c 3f e0 f5 55 68 94 45 a7 3f
       0.027422041765255423 0.045452726112653385
000320 a7 11 0d 4e db 00 a4 bf 13 ee 6d b8 7c a2 b7 bf
       -0.03906903579494108 -0.09232310774489631
000330 ab d5 a2 9e 5c b4 a8 bf 89 54 a5 b4 af 14 a4 bf
       -0.04825105129695414 -0.03922032432698425
000340 21 cb d6 e6 a5 11 ad 3f 9f f0 ea 4c 4e 44 b9 3f
       0.056775268963426 0.09869851472734802
000350 8e c6 4e ba 1b 53 95 3f d7 96 65 9e e3 47 ae 3f
       0.020824845548935537 0.05914222057871903
000360 81 9f 84 13 83 6f a7 3f bd 4b 21 8c 14 0e b8 bf
       0.04577264416940264 -0.09396484776634302
000370 e1 41 a4 c8 5c c5 6a 3f 33 a2 6f 0b d4 56 c2 bf
       0.003267937868379742 -0.14327478941346924
000380 83 f2 0b 9b 56 b6 b8 bf bf 9b fd 5e 4a 76 ad bf
       -0.09653226170844147 -0.05754310998491218
000390 67 66 ed ae 19 2d 4a 3f 08 25 de ae 88 e0 c5 bf
       0.0007988334090029526 -0.17091473139252167
0003a0 67 90 5d a2 85 1c a0 bf 63 2f 4f 4f 81 d5 c0 bf
       -0.03146760565758271 -0.1315156590702556
0003b0 11 c5 72 c8 2f b2 7c bf af 71 ae 6e 9e 8a ab bf
       -0.007005869533871293 -0.05379195309726314
0003c0 47 2d 23 ac 21 46 bc bf 8b 55 e3 d0 a7 0f b9 bf
       -0.11044512226651647 -0.09789513444714808
0003d0 64 96 20 43 df 5e 99 bf 21 b2 5d 34 33 d9 ae 3f
       -0.02477597090923779 0.06025085462792768
0003e0 f9 22 d6 de 0b 9f 81 bf 93 8e 40 f4 5e 21 91 bf
       -0.00860413812439863 -0.016728862436265656
0003f0 52 47 24 b9 46 4f a4 bf 98 08 c0 42 a0 d5 9f 3f
       -0.03966732988386802 0.03108835608873814
000400 49 6e 17 f9 2c 26 b2 bf 51 ae 6c 63 93 76 aa bf
       -0.07089501458488558 -0.051685911070617714
000410 26 8b 82 83 cb 96 b3 3f d6 c7 47 af 63 61 9d bf
       0.07651969872180739 -0.028691823552385497
000420 29 40 b5 88 06 9d 85 bf 75 d7 8e 42 82 79 be 3f
       -0.010553408667561897 0.11904157757711949
000430 7a fd 11 c7 33 89 8a 3f f5 8e a9 ec 8c 6e bb 3f
       0.012957005036013259 0.10715561654938795
000440 f2 8d 3a 37 df 0b 7f 3f 17 b2 55 0e c5 de a2 bf
       0.0075796813359008 -0.03685584831223226
000450 96 b3 6a 51 16 83 b8 bf 17 90 2c ce 17 79 b8 3f
       -0.09575023162569915 0.0955977323870346
000460 18 3c 5d 12 af 8e bb bf 94 18 d9 2b ae ea a9 bf
       -0.10764593313545878 -0.05061859402899063
000470 57 9a 03 cb 26 6a b1 3f 40 22 3a f9 2e 21 b7 3f
       0.06802599388502394 0.09035008988042481
000480 70 c2 e8 41 4e 7b ab 3f f6 c7 cb 61 00 cf ad 3f
       0.053675122781332685 0.05821992105292388
000490 94 d8 3a 7b 20 67 b8 bf 70 27 37 2d 70 31 79 bf
       -0.09532359131375961 -0.006150663556988664
0004a0 b7 8d d3 e9 18 ea a1 3f 89 a4 c7 21 b7 72 8f bf
       0.03498914579702322 -0.015355520933513016
0004b0 fb b6 d4 65 17 a7 7c 3f ef 77 a5 b9 f8 f9 c1 3f
       0.006995288274351581 0.14044102730525718
0004c0 77 4e bb 4c c4 e2 c4 3f fd f8 60 a1 88 a7 8d bf
       0.16317037340796833 -0.014479701447382082
0004d0 03 c1 f6 2f 9c 51 ad 3f 48 fd c1 22 91 32 b0 3f
       0.05726326070305456 0.06327159021929163
0004e0 6f 48 a1 8a e6 e5 b4 3f dc aa fe 36 b1 85 b0 3f
       0.08163300404092565 0.06453998177191117
0004f0 89 cd b5 87 38 97 9b 3f 92 04 d6 fb 7f 12 2a 3f
       0.02694404915150764 0.00019891559888310769
000500 59 70 bd 0a 3f 1d ab 3f e2 d3 24 65 7b da b5 bf
       0.05295750623801671 -0.08536502093632195
000510 02 6d 32 da ae f3 a7 3f 64 68 8f a0 c0 fd a7 3f
       0.04678102887666037 0.046857852553970486
000520 22 08 83 4f 7d ae 92 3f c3 91 b2 9f 26 f1 a9 3f
       0.018243749597566368 0.050667960161522106
000530 93 ab bf 63 48 8d 80 3f aa 06 34 5f c9 34 b7 bf
       0.008081975502099136 -0.0906492097310784
000540 dc 88 9f 08 ca ac aa 3f 0f 91 1f 3b 8c 0e b2 bf
       0.05209952693236783 -0.07053448146286122
000550 73 75 90 e9 2d 1d a1 bf 88 51 3c f3 f7 86 96 3f
       -0.03342574573637593 0.021999239178585067
000560 8d 19 ed c5 66 49 93 3f 46 2d e5 2b b6 5f b2 bf
       0.018834691839651852 -0.07177294322643943
000570 d1 e3 0a 1f 68 d8 ab bf 1a fd 2a 07 37 93 a5 bf
       -0.054385427274105454 -0.04213878595828131
000580 35 23 4a 68 d5 ac 81 bf ee b8 96 0c a5 dc 9b bf
       -0.008630435223737723 -0.027208880322796718
000590 fb e4 e3 44 7a 16 b7 3f ee 05 32 c3 78 a1 88 bf
       0.09018673116579017 -0.012026732880488358
0005a0 ac 75 be e3 cb 00 87 bf 8d 07 ad ff 64 d2 a9 3f
       -0.011231987846083445 0.05043330784839304
0005b0 28 a1 72 0f cc c0 9e 3f 9a 00 f7 a6 a7 2f a7 3f
       0.030032337611062193 0.04528545296807458
0005c0 8e f7 3d 42 30 39 c4 bf 29 9b c5 af ca 3f b4 bf
       -0.15799525484538574 -0.07909838477426646
0005d0 c2 0d 5c 21 2d 27 b3 bf 48 c6 d5 85 a1 98 c2 bf
       -0.07481653274958602 -0.1452829268924225
0005e0 17 a7 e6 1c 96 31 be bf 37 d7 74 b6 b8 23 a5 3f
       -0.11794412808981423 0.04128815867663465
0005f0 32 74 25 75 f7 7a a6 3f d7 fb c7 7d 3b 9a 6f 3f
       0.04390691094406697 0.0038577234211056677
000600 c0 72 6b bb 92 96 a2 bf 4e cb 4c 59 7d d8 b8 bf
       -0.03630503213728309 -0.09705336980986809
000610 15 1c 70 98 f8 54 a4 bf 7e 5c ca 74 4f bc ab bf
       -0.03971077786268765 -0.054171069151544224
000620 d9 f6 51 89 5e f4 c1 bf f3 e2 54 a1 ef c6 ac 3f
       -0.14027005868040623 0.056205261653706894
000630 02 14 16 3c e0 2b 98 3f 4e 74 e9 81 f8 41 9b bf
       0.023604873340008943 -0.026618845872111323
000640 6d 9a 3f 49 1a 04 b7 3f 54 a3 1a 6a 8a 19 b4 bf
       0.08990635193149794 -0.07851471987181685
000650 30 06 1d ad 15 c7 a3 bf 4e c1 de 1d e5 1f b3 3f
       -0.03862827051353823 0.07470542887927431
000660 2a d9 c1 b8 2a df 7a bf cc a2 ba 5c 12 1b a9 bf
       -0.006560484773322531 -0.04903466588922853
000670 22 8b 94 05 a6 15 9f 3f 5d 2b ef 96 ed fd bb 3f
       0.030356020060149487 0.1093433850757441
000680 24 8b f3 2a ac ce a3 3f 4c 6b db 45 24 b7 b7 3f
       0.03868616127308247 0.09263827043052436
000690 e1 d0 4f 41 e3 80 b3 3f fe b4 bd 2b c2 4e 92 3f
       0.07618542046094802 0.017878564758054154
0006a0 9c cc 5c 11 d9 bc ac 3f 79 37 d9 9e 35 fd a4 3f
       0.056128295297093816 0.04099433483189236
0006b0 11 4e 69 57 b1 7b 9c bf c9 af bb 45 03 77 91 bf
       -0.02781560035721326 -0.017055560237096565
0006c0 e3 f2 ec fa 58 a6 c3 3f b5 16 d1 c7 23 04 56 3f
       0.1535140252325596 0.0013437604350356295
0006d0 f4 cd 86 15 c0 92 b3 3f e4 75 bb 04 c2 50 91 bf
       0.07645798230696937 -0.016909629381975835
0006e0 ae e4 a3 d0 29 ba a9 3f e2 19 81 a9 6a 95 98 bf
       0.05024843856694737 -0.02400747928211356
0006f0 de f4 6e 93 72 bc c0 3f 39 c0 e4 ce 3b c8 ba 3f
       0.13075096320054674 0.10461782265770204
000700 d3 c5 b8 41 69 b5 bb bf 41 06 59 c6 4a b3 b2 bf
       -0.10823686461005559 -0.07304828016733557
000710 ca 9e 8b ea 4f db b0 3f a3 72 c4 e6 a6 58 a7 3f
       0.06584643818097927 0.045598235769124494
000720 3d 42 2e ed 45 ec aa bf 3c 04 57 c1 4c 11 ad 3f
       -0.052583871081087065 0.05677261219126037
000730 19 87 fd cf 93 0e 8e bf 3b aa 4d d7 ed e0 b3 bf
       -0.014676241669522793 -0.07765089518003603
000740 2b 66 37 4b 9a 01 b8 3f c7 3f 6d 56 8b bc b3 bf
       0.09377445541704137 -0.07709570751217064
000750 fe 44 e7 01 a7 9d 60 3f 8d d2 2d 7e 77 c3 ad 3f
       0.0020282995094268444 0.05813191809912608
000760 f9 56 24 13 9e 5b 89 3f 42 e8 78 d6 ed d6 73 3f
       0.01238177772442438 0.004843644193494314
000770 58 53 52 df d4 c4 aa bf e8 78 30 2d 5a e5 8e 3f
       -0.05228295541852529 0.015085892204350818
000780 1d 9e 9c d2 c2 cd 91 bf 29 93 90 88 d5 c4 99 3f
       -0.01738647852394425 0.025164925060511188
000790 46 d1 38 95 3f 3e aa 3f 02 cf 20 05 a5 8d 8f 3f
       0.05125616737896847 0.015406884402274116
0007a0 50 8b 13 1a f3 08 a2 3f 66 a7 11 7b b1 68 8a bf
       0.035224530156276246 -0.012894999092356318
0007b0 0e d2 f3 2c 63 0e b4 3f 66 b3 a3 64 81 d6 b9 bf
       0.07834453437300956 -0.10092934329050038
0007c0 71 cd 44 26 bb a9 c2 bf 93 52 1b 69 2f d8 91 bf
       -0.14580478066055094 -0.017426243581967937
0007d0 be e9 3e 5c 3c 02 72 3f f7 5c 48 20 e6 2c b7 bf
       0.004396663458403114 -0.09052885330344283
0007e0 21 8e 64 13 22 6f 75 3f b0 b9 99 8b b7 d6 9e bf
       0.005232937916193532 -0.030115955253160187
0007f0 95 17 d7 41 5b 37 4c 3f 81 ed 26 af 07 13 96 bf
       0.0008610911933650706 -0.021556968751367037
