results/run_1/saved_model_unet5.pt (torch, 364919 bytes, 87 tensors)

down_path.0.net.0.weight f8 [8, 4, 3, 3]
0	0x3fbaf3668c2fbab1	0.10527649805565421
1	0x3fbb2ac590452d3e	0.1061213948461743
2	0x3fc54ccdf62d5a28	0.1664063884770297
3	0xbfb6785e26add487	-0.08777416652977098
4	0x3fb88d361393957f	0.09590471246663944
5	0xbfd07f102679ea0f	-0.25775531537479507
6	0x3fd0f2b14efdd911	0.26481278146765513
7	0xbfaee33266e596ac	-0.06032712465348075
8	0x3fcfd3824322baca	0.2486422374544957
9	0x3fb5f5db5c082ba6	0.08578272816536855
10	0xbfbd661a7bc4ad56	-0.1148392250221851
11	0x3fb123e813cd0cb2	0.06695414050504914
12	0xbfb471f8b2533f76	-0.07986406663553489
13	0x3fca5b908f1ee6c0	0.20591933239284366
14	0xbfb9800567c661a2	-0.09960969718520699
15	0x3f9766feb9f39faa	0.02285383233984787
16	0x3f92983dd025e0d2	0.0181588800710138
17	0xbfb0946e9ab63f8f	-0.06476489331384826
18	0xbfa9ad4a2986c2ef	-0.05015022046007355
19	0x3fa21631a48b9c9e	0.035325576149085366
20	0xbfbc4ddf5cb060d8	-0.11056324017443175
21	0xbf87000d73c5cca7	-0.011230568976975453
22	0xbfb6e22eea000753	-0.0893887826241813
23	0x3fb93ac1c1bcd21c	0.09855280857011234
24	0x3f68229172b9ffa7	0.002946170881671112
25	0x3f84c8a6ff8c2767	0.010148338960352011
26	0x3f854be5f2356794	0.010398670629616004
27	0x3fac9155599ee88b	0.05579630583766101
28	0x3faa783846de17e1	0.05169845452387257
29	0xbf987655b89873ca	-0.023888911620918475
30	0x3f74cd645e05e3c7	0.005078689632107953
31	0x3fb7734edcbc5f8b	0.09160321129854603
32	0x3f2c0744853d1d50	0.00021383963996355693
33	0x3fb22f9d2b3525cf	0.07103903107522246
34	0x3fae22d856ecae59	0.058859596835046
35	0x3f9a449125367533	0.025652187248501334
36	0xbfba5f55a9f1252b	-0.10301719092344246
37	0x3f8c1d79ff677f1c	0.013728097063846749
38	0xbfb6f4447c0d6cae	-0.08966472653030408
39	0xbfa742c5b067b55b	-0.04543130663283065
40	0x3fcdd625a047de38	0.23309774709899655
41	0x3fa10f44416a1125	0.033319600091120706
42	0x3f98dacffdeb902f	0.024272203324372462
43	0xbfd79dd4b8e6f5e3	-0.36900823647360265
44	0x3fb70c585fbbfb05	0.09003212296736869
45	0xbf93896a876cb11c	-0.019078888431225058
46	0x3fb056c27f7e1d22	0.063823848844653
47	0xbfa633536198e9bf	-0.04336033407567496
48	0x3fbd4b5dcbe3a78e	0.11443124988332284
49	0xbfb6dd31113b5d3e	-0.08931261702251889
50	0x3fa3e1684d830dc6	0.03882909723463572
51	0x3fbe2f96ac26b0f0	0.11791364386471392
52	0xbfa4bb44b7622de1	-0.040491244683916745
53	0x3fb06b849812198a	0.06414059364951732
54	0x3f64a6814ffd146c	0.002520802081479581
55	0x3f7bbff37aabdee1	0.0067748557000794915
56	0xbf8391e7f1f8e5eb	-0.009555637428195282
57	0xbfb9485490a6d4a4	-0.09875992328200539
58	0xbfac2afa7ccc4357	-0.05501539967929741
59	0x3fa7e15d58d649b3	0.046641270727508476
60	0xbfb5b757f0c78b0d	-0.08482885006337089
61	0xbfc81d8d22da8801	-0.18840183450544148
62	0x3f9affa36026bdb5	0.026365807288753113
63	0x3f787d33ed922fba	0.0059787777364696485
64	0x3fa32ca4e7d59be4	0.03744998292932403
65	0x3f931c40c6b4d477	0.018662464263986735
66	0xbf9f466a2be04430	-0.030542048385601983
67	0x3fa5aff44a0771b4	0.04235804942775037
68	0xbfa29586c3024838	-0.03629704599838174
69	0x3fa6149e8271b0a5	0.04312606184325433
70	0xbf983ca08689f295	-0.023668773852920728
71	0x3fb09c2bca9f7113	0.06488298127027674
72	0x3fb40c24b6765822	0.07831029371877254
73	0xbfd07fe3d7dce427	-0.2578057868991572
74	0xbfa4b9f39a11fbff	-0.04048119788875936
75	0x3fa6952b49636f71	0.04410681982855536
76	0xbfb28c7bc302e7e2	-0.07245610724467569
77	0x3fb9c0291c6c40d9	0.10058838790814963
78	0x3fc7382b11c9fb59	0.18140161865809537
79	0x3f98c3410e7e848a	0.02418233538594853
80	0x3fc04f591df1e038	0.12742151224279197
81	0xbfa9b8d2aba5eb93	-0.050238212063923225
82	0xbfcbc4f17491d77f	-0.21694772903327572
83	0x3fd446631195e0cb	0.31679608075456817
84	0xbfc02f069cb8dc61	-0.12643511440703306
85	0x3fa244646b9f9b2f	0.035678041589383695
86	0xbfab514d4c67ab8a	-0.05335465963056325
87	0xbf81a053791eb004	-0.008606578954491802
88	0xbfb8519994e41621	-0.0949951160910918
89	0x3fc8e47deb7bdd97	0.19447301862940655
90	0xbf988a668ccb68a8	-0.02396545633642036
91	0x3fa44712ac4954f7	0.03960474351030457
92	0x3fadd588f54aa665	0.058269767706701704
93	0xbf9879a66f6b509c	-0.023901558447349744
94	0xbf9a9773a2301416	-0.025968367361219512
95	0xbfaf96f28f359e0c	-0.0616985130134787
96	0x3fadd0f0a41aae0f	0.05823471072411845
97	0xbf90557d186b3bd7	-0.01595111333409335
98	0x3f89210ee27f8154	0.012270084654972514
99	0xbfa84bb1b462b05d	-0.047452500600542825
100	0x3fca47443778f4a0	0.20529988010995215
101	0x3f8bec5e22d533d5	0.01363442939568841
102	0x3fcd873d03365c34	0.23068964630940203
103	0x3fc12f65cc4adee0	0.13425896144121108
104	0x3fa712f59ffcee58	0.04506652429560337
105	0x3fb0be3c634e6e42	0.06540276932212755
106	0x3fc0c92abfe602ff	0.13113912935298086
107	0xbf8255b3bf6d053e	-0.008952526358941722
108	0x3f99d11ba571ee7b	0.025211746190036948
109	0x3fb6ee439df9f234	0.08957312208981066
110	0x3fb50aa415d26305	0.08219361813315736
111	0xbf9e3479ec364187	-0.02949705604766131
112	0x3faad0e3fc093fee	0.052374958530549395
113	0xbfa051eb343b5b82	-0.03187499058338174
114	0x3fc23920f02d8786	0.14236842849191705
115	0xbf7975d5efd53edc	-0.006215892496882449
116	0x3f93c78275184827	0.019315756222631954
117	0xbfbda457d1e0a4bf	-0.11578892587626209
118	0x3f934a88ecfd1b12	0.018839015450136172
119	0x3fb5fa38b32d44b7	0.08584932684358902
120	0x3fc2721978e41fcd	0.1441070404327988
121	0xbfa3c4789ffce7c4	-0.038608331231855725
122	0xbfd7d1a33ab9b051	-0.37217026457688457
123	0xbfd4a2ef9f135a7f	-0.32244482550360226
124	0x3fc06773364ce25c	0.12815704490073443
125	0xbfb9f20699bce07c	-0.10134927037586466
126	0xbf81f88ef391f7de	-0.00877486878220773
127	0xbfc57bbae177665c	-0.16783844002820814
128	0xbf9c3da8e3ca944e	-0.027578963187483922
129	0xbfbaa0fdc0a851c7	-0.1040190310816974
130	0x3fb270cd2302b4f4	0.07203371147871335
131	0xbfc05b94029993c0	-0.1277947437949063
132	0x3f756cc74bcc8f82	0.005230692386962834
133	0xbfb217d2157e1015	-0.07067597412793732
134	0xbfb5bcac5577a906	-0.08491017424208644
135	0xbfbe6ff4913e6e06	-0.11889580293648558
136	0x3fab11280049f970	0.052865266833566404
137	0x3fb5e9aa26edbf4e	0.08559668970496867
138	0x3fba4523dd8abbd7	0.1026174941896295
139	0x3f9b6408e9369ae0	0.02674879001065278
140	0x3fb6bed822a6745a	0.08884955259277785
141	0xbf917e7281078dda	-0.01708392059835071
142	0x3f9f96c34853f39c	0.03084855202631652
143	0x3fad6a6216802e75	0.05745226406733376
144	0xbfc3889733d06ac5	-0.15260591535555626
145	0x3fba0afaa450c3ce	0.10173002730949962
146	0xbfaef3d31ad51de2	-0.06045398428483019
147	0x3faed745b16d9ef7	0.060236146839825304
148	0x3fbed15c57ab1f23	0.12038209095328205
149	0xbf8b3fba29f0e07c	-0.013305143742499796
150	0xbfb7d7306b4540c7	-0.09312727564725086
151	0xbfbaf40a903b47fc	-0.10528627415922637
152	0x3f8e7e5a793ba2ba	0.014889437508331372
153	0x3fb7f61baf0e82f8	0.0935990621933448
154	0xbfa758fb949d4a12	-0.04560075940266385
155	0xbf9f77393c7f3132	-0.03072823936217723
156	0x3fc42c3217aaf2de	0.15759874492314102
157	0xbfb2cecacabd8eaf	-0.07346789788931106
158	0xbfc376a5ddf21043	-0.15205834710298136
159	0x3fb16fcf077da779	0.06811231549150233
160	0x3f9a5edcff4a554d	0.025752499658286344
161	0x3fcf0f53675adc20	0.24265520617129344
162	0xbfa5ddfa6962b744	-0.04270918404050275
163	0xbfac869ce1bbda05	-0.05571451430835243
164	0xbfb834a72a3f2c53	-0.09455342084327016
165	0xbfad9097baa721d7	-0.05774377969243332
166	0x3fcbf818dcf0adb4	0.21850882328122412
167	0xbf87481f9d33dce9	-0.011368033394758519
168	0xbf9e6a62f642eee0	-0.029702707558256658
169	0x3f96f23476e06401	0.022408313518187842
170	0xbfb405dfb947d58b	-0.07821462892009927
171	0xbf919e789c0f2c85	-0.01720608189115726
172	0x3fb1d66225f5f4bd	0.06967748095299249
173	0xbf9d9d407e864ce0	-0.028920181009721158
174	0x3fb60e5e31cb1847	0.0861567374768991
175	0x3fc824413eaf6ed4	0.18860641060643124
176	0x3fc76fd934c7c8b1	0.18310084416549935
177	0xbf524b9b53e5032c	-0.0011166588661383854
178	0x3f720d9294b0b396	0.004407475072224628
179	0x3fa8a72afe8cfc0a	0.04815039021786312
180	0x3f9563b4910ed191	0.020888158181791964
181	0xbfc97b607b9f7c55	-0.19907766376761296
182	0xbfb227695f1abcad	-0.07091387340436724
183	0xbfa2cb72417c8463	-0.036708422178215704
184	0x3fa0c7f6a4f558e7	0.032775600086709926
185	0x3f547168f29249df	0.0012477421644559933
186	0x3faf32fab49828d8	0.0609358163311115
187	0x3fcc20c58d3c032a	0.21975011249744486
188	0x3faa3f1fc37159bd	0.05126284847999638
189	0xbf9eba8e5b618a18	-0.030008529975370818
190	0x3fa0163c6dc2dfab	0.03141964759691914
191	0x3fc61b85b18a3980	0.1727149121183622
192	0x3f983b6ec811cb70	0.023664217911981422
193	0xbfc3ee4de5dcc95a	-0.15570996974708856
194	0x3fc1f18647a01ad1	0.14018324372610505
195	0xbf7088613515852f	-0.004036311832664992
196	0x3fc21fe6dccb04c4	0.1415985658732436
197	0x3fbc60555ded9645	0.11084493201413988
198	0x3f92a0f38f9bd207	0.018192105903795077
199	0x3fc292fdc601b619	0.1451108185605541
200	0x3fbfaebe2c6571f1	0.12376011451619441
201	0x3f8e4a3d91ffe992	0.014790040033393823
202	0xbfd360279aa90e8a	-0.3027438173632865
203	0x3fb973b0f1c5841e	0.09942155745149292
204	0x3f59819c1192ebb6	0.0015567802532092507
205	0x3fa9ffbfd5c66ac8	0.050779337735738006
206	0x3fc1e31f65b98ce5	0.13974373309165525
207	0x3fa6dbd087d058f2	0.044645802096214285
208	0xbfa7ddde63b6f0ab	-0.04661459891528471
209	0x3fa24f7b16cc83f5	0.03576264050776238
210	0xbfa56d54b2cb123b	-0.0418497532132602
211	0xbfbb4ceb09072148	-0.10664242716223271
212	0x3fb7d8e6faf513e7	0.09315341593635616
213	0x3fa12acd76f1de72	0.03352968289339921
214	0x3f97c5989d1e09a1	0.023214706983262116
215	0xbfa39794613ad1d8	-0.03826583563696645
216	0xbf94fb6f40c4773b	-0.02049039681252583
217	0xbfae85b981948b0b	-0.05961398798742409
218	0xbf8e33988501e631	-0.014746848639549533
219	0x3fa1d27dcd05c823	0.03480904700963119
220	0x3fd0043016f7a6e5	0.250255606106846
221	0xbfb5d979ec2bf225	-0.08534967437658077
222	0x3f8d037e3f66a0ef	0.014166818914262495
223	0xbfb94e355ea8cfff	-0.09884961663266266
224	0x3fb1392c99686e89	0.06727865929900124
225	0xbfb33c51cd569e57	-0.07513915312903784
226	0xbfa778dff4802725	-0.04584407672525818
227	0x3f8a04a037c393a3	0.01270413561037193
228	0xbfcb185a8ed86b4a	-0.2116807172286264
229	0x3fc79b5d6aa543bf	0.1844288607340143
230	0xbfa2abf615be07e0	-0.03646821036728887
231	0x3fb2b5e37c1e8fde	0.07308789997347229
232	0xbf9344236789af62	-0.018814614481399324
233	0xbf902868d4731419	-0.015779149977579097
234	0x3fbb2334672b5d51	0.10600593107971192
235	0x3f9a2e0a1c0298ad	0.025566251716235545
236	0xbfa641b0e92ebd2b	-0.04346993299929588
237	0x3fac034e819abb3e	0.05471272785268021
238	0x3fd5e4588437b9de	0.34206211959727095
239	0xbfb8fe6401e265f5	-0.09763169332509121
240	0x3fa906c29696ee6c	0.04887970054866461
241	0xbfb19e77d90ec246	-0.06882428216227607
242	0x3fb465d50b04d67e	0.07967883605018675
243	0xbf0118d6937f98a1	-3.2609985680485657e-05
244	0xbfae368042674b8c	-0.05900955973233754
245	0xbfb62d2c1422c101	-0.086626772800404
246	0x3f8f9fb7faeaaf9f	0.01544135794150475
247	0x3fc37e0ed00a0e44	0.15228448064964273
248	0x3faf21e9f1fdc4fb	0.06080561713214113
249	0xbf8133f1c13f6da8	-0.008399857244447542
250	0x3fbcb8e4c0457937	0.11219625181317815
251	0x3f9cfe7b4e6ce238	0.028314520513250424
252	0x3fc3e72a9f41427a	0.15549214149588747
253	0x3fc52a3a25cceba2	0.16535117002225969
254	0xbfaf1fdc5275d797	-0.06078995234103884
255	0xbee5e7ebe60c8482	-1.0445567740160212e-05

down_path.0.net.0.bias f8 [8]
0	0xbfbc89dd55d1b2a8	-0.11147864670938168
1	0xbf8ec8c76e5a69b6	-0.015031393103801399
2	0x3fc03c63feaff78a	0.12684297500521452
3	0xbfc0ade744682756	-0.13030711021593316
4	0x3f9555748fac5d12	0.020833798665163057
5	0x3fc39e57832c40e4	0.15326970963406616
6	0x3fb245fa92a7e85e	0.07138029175249147
7	0x3fa492899a92867f	0.0401804925143212

down_path.0.net.1.weight f8 [8]
0	0x3ff1494b3f7a76d3	1.0803940276741073
1	0x3fed1ec1655d6bdd	0.910004327753423
2	0x3ff0ab6b38c5bb7c	1.0418503015204967
3	0x3fef884c23bc7f29	0.9853878686880978
4	0x3ff1a4d15b64bcc4	1.1027387208994677
5	0x3fecf6f1754534e7	0.9051444330631541
6	0x3ff00cc50d66b2a5	1.003117611263556
7	0x3fe905dff3f0ace6	0.7819671406226945

down_path.0.net.1.bias f8 [8]
0	0x3f8aff95df1e8522	0.013182803031500049
1	0x3f8b68acbc2a73eb	0.013383244984021622
2	0xbf952acbebee5b38	-0.02067106845387487
3	0x3f63975b2a8f0353	0.002391508158752145
4	0xbfc1d1d4c21b9477	-0.13921603658596712
5	0x3f9600da6e874ec6	0.02148762988674837
6	0x3f83aeff66b9fe77	0.009611125299897367
7	0x3f3321c17447a86e	0.0002919289875352786

down_path.0.net.1.running_mean f8 [8]
0	0x3fbbddf14cbc1830	0.10885532496840322
1	0x3fb067a5ac7cc511	0.06408153020017361
2	0x3fe44ba7dc3a35c1	0.6342353154483861
3	0x3fb2aa415186a8b6	0.07291038742428921
4	0x3fd7e20cddb875ec	0.3731720128288021
5	0x3fc31c28cc62f4ef	0.14929685573398596
6	0x3fcb8c65c5e8b2e6	0.21522209323429492
7	0x3fa215ff301ea339	0.03532407247923292

down_path.0.net.1.running_var f8 [8]
0	0x3fca781ca4146d48	0.20679052364071482
1	0x3fa1e3565d960f32	0.03493757145318312
2	0x3ff16c955cfe6091	1.0890096314015276
3	0x3fc76809271bf5c5	0.18286241922025517
4	0x3fe0c2345f4c4c4f	0.5237066136636573
5	0x3f8d925ea8f10f05	0.01443933442181545
6	0x3fb9a8388127815d	0.10022309449369034
7	0x3f9327ed96c85966	0.01870700104526559

down_path.0.net.3.weight f8 [8, 8, 3, 3]
0	0x3fc04fff944cca80	0.12744135609826301
1	0x3fbd3ad70e3d34dc	0.11417907807954769
2	0x3f9ccc8922a9f0c1	0.028123991718971512
3	0x3f8a60c3d9c68750	0.012879877170067694
4	0x3fb16d8319473f64	0.0680772721018435
5	0xbfa6d0f51d3defaa	-0.044562969035694636
6	0xbfbccffd7089a815	-0.11254867551329568
7	0x3fbc8a66eafa6897	0.11148684727450796
8	0xbfb2cd281fcfca21	-0.07344294335033698
9	0x3fa0891b867bf461	0.03229604736950687
10	0x3fb3ef8af231f0dd	0.07787388241735323
11	0x3fb2af983ef5a221	0.07299186265084547
12	0x3f95c14caa23ffca	0.021245191464003978
13	0x3fa5086e5cae13f8	0.041079949201083765
14	0x3fb4425bde27238d	0.07913755582479905
15	0x3f854ef7e880bbc2	0.010404526503490778
16	0x3f952156ad850339	0.020634989109797195
17	0xbf96f219cd7ff9a4	-0.022407916228979766
18	0x3fae88fb4b1eaf82	0.059638836784272634
19	0xbfc1683fa8622a61	-0.13599391671990005
20	0x3f68853dc4cad343	0.002993221895247451
21	0xbf95fc5f658d7786	-0.021470537732390514
22	0xbfccf2e6b172c2b1	-0.2261627546736427
23	0x3f982bdee0b94b1e	0.0236048531208538
24	0x3fafd149448dd794	0.062143602007309756
25	0x3fa488d72d2246ba	0.04010651040983988
26	0x3fb7e0105f550717	0.09326269462055979
27	0xbf69f2edfce88113	-0.0031675956918350095
28	0x3fae05610e4fa157	0.058634789463954
29	0x3fb52dd6a03fd4e5	0.08273068821275194
30	0xbfa0dee65a071454	-0.032950590600684976
31	0x3fc3c928c2a14c44	0.15457639220639596
32	0xbfa20f877654e237	-0.03527472800709968
33	0x3fa18ee9ff797a0a	0.03429347270570211
34	0xbf83b2aee4db0715	-0.009618154868238396
35	0x3fa80f1111c1b365	0.04698994962459472
36	0xbfb763606e546504	-0.09136011785121317
37	0x3fb9a6a90597eceb	0.10019928347167066
38	0xbfb3d11781c16e7e	-0.07740923803197039
39	0xbfbceb752878c67f	-0.11296779859619653
40	0x3fbe4ce5157a98f9	0.1183608224333489
41	0xbfb0ee7709b9cae2	-0.06613868701405637
42	0xbfad3bd85b09e24d	-0.057097207177268496
43	0xbfbafe4cf5aa3770	-0.10544281957319668
44	0xbfa0e4b3a3cb0b21	-0.032994855636863336
45	0xbf8764757feedbb7	-0.011422079054552598
46	0x3f873cba729409ed	0.01134629881062651
47	0x3f88013b93587c2f	0.011721101221210698
48	0x3f150e6060383d64	8.032286864811039e-05
49	0x3fa37606ddda6cdb	0.03800984819573624
50	0x3fb3fb2358ff0811	0.07805081293830109
51	0x3f99882de30ebc56	0.024933545096868258
52	0x3fa9daa5e86d20fa	0.05049627744898717
53	0x3f86c882d00ab891	0.011124631856855667
54	0x3f8b9958735efea8	0.013476077099652997
55	0x3f6149b581cf0de4	0.002110342508304207
56	0x3f90a7e22b409d9a	0.016265424623410497
57	0xbf96ccdc7e2e7738	-0.022265858842380498
58	0x3f9ed2af0a2b2093	0.030100569720872782
59	0xbf617095d1754a3e	-0.0021288801323547093
60	0x3fb4498c1fabb3cb	0.07924724362574335
61	0x3f7324b42d96a6ba	0.004673675366044067
62	0xbf7f22ac85e3cd48	-0.007601427000042911
63	0x3f8859d2e9dff5bc	0.011890075456899456
64	0x3fab25312b088aa9	0.053018127921196374
65	0x3fa04886a3d6c924	0.03180332899082064
66	0x3f4dd279f31fcd79	0.0009101005036868246
67	0x3fb14e99744e985e	0.0676055821373622
68	0x3fa4cfbdbb13d01e	0.040647439085575096
69	0xbf86ee9a7d0f2d6f	-0.011197287503725587
70	0xbf92a0551985d198	-0.018189744646819855
71	0xbf8d765eddfa009d	-0.014385930203616499
72	0xbf9dcbf3db87661a	-0.02909832980535585
73	0xbf7cc15741c0a0b2	-0.00702032170014648
74	0x3f85642da74d87d8	0.010444981258562011
75	0x3fae4c066284c76e	0.059173774267391774
76	0x3fa094337cde7bac	0.032380684845740276
77	0xbfa72286eaec3e13	-0.0451852952738784
78	0x3f836e1384818adf	0.00948729751707361
79	0xbf6b316ac2a89905	-0.0033194623149653845
80	0xbfa964a74052210f	-0.04959604892889235
81	0x3f87a2c4adf89078	0.011540924605533784
82	0xbf6dc041342995f0	-0.0036317132483414324
83	0x3f803a61dbba90e8	0.00792385532197
84	0x3fab4433cdcb552c	0.053254717704172755
85	0xbfa4f1feaaf08e39	-0.04090877377191444
86	0x3fa329fa4d053658	0.037429639722728225
87	0x3f9e186df09f92ed	0.02939006596706666
88	0x3fa49d0e5ae691c1	0.040260742756149444
89	0x3fb538979cceb251	0.08289477899843091
90	0x3fa50ea9b195307d	0.04112749378927647
91	0xbf9193dc6665c388	-0.017165607213829343
92	0xbfc48567cada6307	-0.1603212109082721
93	0x3fb54d4aa15a3142	0.08321062506928903
94	0xbfc012df2627da0c	-0.12557591784543864
95	0xbf9d70c8062d4eae	-0.028750539185536432
96	0xbf7ddc5bcd233e37	-0.007290228461172491
97	0xbfb542c420cef1f1	-0.08305002022729703
98	0xbfb950b7519acd14	-0.0988878797750668
99	0xbfafa7dba44ec3f6	-0.061827529723252825
100	0xbfac3c6364c32618	-0.055148225832066966
101	0xbfb1db727bb09a39	-0.06975474853298004
102	0xbfb3d1fbaf48b3b1	-0.07742283849138577
103	0xbfc27cf95aeab898	-0.14443890513706914
104	0x3fabf8fb34a344a2	0.05463395135451178
105	0x3fa6785e71cc2c92	0.04388709200983344
106	0x3f7dee0cdea8f1f4	0.0073071005559168685
107	0x3faa1fc32bfaa49f	0.05102357780317245
108	0xbfb2acaa31a0157a	-0.07294715606265881
109	0xbfa8090302c45b82	-0.04694375427987209
110	0xbfb2e99b333ac8ed	-0.07387704849933004
111	0xbfb511ee601201ec	-0.08230485768763857
112	0xbfbd0ca015630069	-0.11347389719139901
113	0xbf86130076e55d2b	-0.010778430584351092
114	0x3fa07986868c19c9	0.03217716591284476
115	0xbfc2606efdbeae84	-0.14356791868100427
116	0xbf8d695ea4d7d44c	-0.014361133008586567
117	0xbfab01f96f23e13e	-0.05274943811122278
118	0x3f9cc51693dda9dd	0.028095581793800995
119	0x3f94e8c16546e97a	0.02041914158483269
120	0xbf9da357ffef4477	-0.02894341945267739
121	0x3fba7acfe27cec7f	0.10343646316043652
122	0x3f9af60427fbf4c9	0.026329102459375506
123	0xbf95182e325bcc53	-0.020600053619045443
124	0xbfa1362623260f39	-0.03361624888478194
125	0x3fa16c9d82a370f1	0.03403179378230615
126	0xbf7eaab7e115f7bb	-0.007487028387343326
127	0xbfad0aaa36f59b0b	-0.0567219917382343
128	0xbf9a9ce47f145447	-0.02598912263518496
129	0x3fa0751b0a0b505f	0.032143444992158925
130	0xbfa234c7af94fcae	-0.03555892961821293
131	0xbf916fae4f575da5	-0.017027591316802
132	0x3f7c5ae484f4ef8d	0.006922619489440407
133	0x3fcb19fc0889697e	0.2117304841693332
134	0x3fb2850c3bcd36e6	0.07234264812469923
135	0xbfaa409e644b6dd9	-0.05127425169277062
136	0x3faac99a00d78590	0.05231934795643689
137	0x3f8a86d7f37298e5	0.012952506176884213
138	0xbf67d64f1173ad0d	-0.0029098076153012465
139	0x3faece8c3ff294a1	0.06016958504304993
140	0xbfa840a6935ec921	-0.047368245591672194
141	0x3f8ec9614c8c3be0	0.015032539509347076
142	0x3faa87f00b6043dc	0.051818372143436625
143	0x3fb39993f1cca772	0.07656216290766141
144	0xbfb10ffa3a72dc23	-0.06665004660577316
145	0x3fbad39bc4940f23	0.10479138898159283
146	0xbfbcc428de65e12c	-0.11236815862310284
147	0xbf74a5c1eac4aa2d	-0.0050408911595618945
148	0x3fd4230a08bd18af	0.3146386227930504
149	0xbfb0c0ae0dfceb7e	-0.06544006196501859
150	0xbfb122d63953c766	-0.06693781756965009
151	0xbf7f8a428c6035ab	-0.007700214342560778
152	0x3f991bbabfdf7f64	0.02451984211063464
153	0x3f9ed40dbff6f234	0.030105795709220298
154	0x3fb6fd4e761dfcd8	0.08980265029639456
155	0x3f985f693d83ed31	0.023801464442823664
156	0x3f8322a0b3191353	0.009343390908847537
157	0x3fb21844af6da5cb	0.0706828048984313
158	0x3fa8e312fb6e7215	0.048607438270867366
159	0x3f56bd4c21b43066	0.0013879054520798072
160	0xbf634842486bdf1d	-0.002353791674405316
161	0xbf9ff3ae27f07f0d	-0.031203004062375906
162	0x3fc0d1453785f0a1	0.13138642512411017
163	0xbfb2b1d25b25aaea	-0.07302584386131242
164	0xbfa4a5dd3ba4a0b1	-0.04032794335427193
165	0x3fad857b9cf8ee24	0.05765901843230051
166	0x3fb4afe602599471	0.08080899770136953
167	0x3fb110652c4634a2	0.06665642100252225
168	0x3fb9e993143e77ef	0.10122031444777212
169	0xbfb9ceedb2d1c90e	-0.10081372848234002
170	0x3fc0b03988635089	0.13037795219009166
171	0x3fa14821a21f5afd	0.033753443756429725
172	0xbf8656e381e248e8	-0.010907914544337108
173	0xbfafa0f0ac570997	-0.061774750745388456
174	0x3f6b8b1271156bfd	0.003362213152894976
175	0x3fd02b4f03f2de43	0.25264335046401615
176	0xbfb4b34ee3bc8e95	-0.08086102542852765
177	0xbf98a59502ccc63b	-0.024069145484821624
178	0xbfc02006e47a5c29	-0.12597738414908236
179	0xbf6c486a77d158d6	-0.0034524993375653996
180	0x3fb03da018367ea3	0.06344032851347463
181	0xbfbaa5260b5c1c05	-0.1040824678167241
182	0x3fc1c840ac78b653	0.1389237253328469
183	0xbfc0dfc9d7882533	-0.13182948135389835
184	0x3fb6e462ab24c1af	0.08942238500890796
185	0xbf761700a66c5eab	-0.005393030681055381
186	0xbfc6c214884615e9	-0.17779785779946103
187	0xbfb32fdd060a6845	-0.07494908711888211
188	0xbfafcf2467f39628	-0.06212724465312319
189	0xbf90624d4b868a75	-0.015999992117608792
190	0xbf9023fadd637a5a	-0.015762252581107063
191	0xbf8166c5d6413293	-0.00849680481055629
192	0x3fa728460c0c3772	0.04522913834635646
193	0x3f9813edeb724146	0.023513524528028705
194	0x3f6fb51908ec1dc8	0.003870533844181987
195	0x3fa8a5ff241d8fb5	0.048141453894259646
196	0xbf9d9e5079c6a7c7	-0.028924233849160232
197	0xbf6a9581f9e39fb6	-0.003245118960979422
198	0x3f936a5275ed2694	0.018960274169592298
199	0xbfa871d9ac692a03	-0.047743608757247834
200	0xbf7a593f44175548	-0.00643276894830553
201	0x3f63ef84c1aef5d5	0.002433547296702735
202	0x3f95cc5e69419142	0.02128741757805242
203	0x3f9505359193e1df	0.020527684221606775
204	0x3fb866a66bb7f4aa	0.09531631593559334
205	0x3faea419ddd9a85b	0.05984574158795005
206	0xbf601570af38e683	-0.0019633484714887696
207	0x3fa639eeae494174	0.043410738730588344
208	0x3fa6692fed198be3	0.04377126473698192
209	0x3f9fe73897f67d5f	0.031155475878788304
210	0x3faecc09927ac4b1	0.06015043175774205
211	0x3f98b7b2c585e0e9	0.02413825350365154
212	0x3f7abdd77637a04c	0.006528703353502929
213	0xbf874249363953b6	-0.01135689923027337
214	0xbf9881224da7ede0	-0.023930107106918785
215	0x3fa53a3e441a4d84	0.04145998555500355
216	0xbfc3e9868ee04516	-0.15556413627977211
217	0x3f909e8d34c4e813	0.016229826303266814
218	0x3fb730ec0e404c39	0.09059024188927446
219	0x3fa04e9b057c0485	0.0318497127718809
220	0xbf813ff150ef3551	-0.008422742159292314
221	0xbf99758992ff0eef	-0.024862432095473726
222	0x3fb0aa520ab33011	0.06509888421277334
223	0x3fa351ab62c30adc	0.03773246365155611
224	0x3fa529c8a0cc2cf2	0.04133440935955858
225	0x3f9007a64c5a5042	0.015654180917934697
226	0x3fbe54f6b028308c	0.11848394203861029
227	0x3fb01417ad511ae7	0.06280658704154583
228	0x3fbfa818ed238e0d	0.12365871228717414
229	0x3fb4457164d222f6	0.07918461524435458
230	0xbf9bd10936c7d499	-0.027164596527616245
231	0xbf9e02e3d0a1283a	-0.029307899101958614
232	0x3f96892a3e239c82	0.02200761799113283
233	0xbf91e8973707c4ca	-0.01748882554415302
234	0x3f9a22df4dcf7320	0.02552365219513597
235	0xbfa1a2e6249aeafd	-0.03444594570961177
236	0x3fa92d5e591e3795	0.04917425954691549
237	0xbf6f22768d2c44c0	-0.003800612970174727
238	0xbfc282aa62880b32	-0.1446125966177419
239	0xbfbc711b3549abfa	-0.11110086489649965
240	0x3fb0659f1c399958	0.0640506214054758
241	0xbfc01e9b066c77a0	-0.12593400777489894
242	0x3fc81197fcb1d820	0.18803691710098835
243	0x3fa5b8ab8c87ebef	0.042424546150833346
244	0xbf9c94f0d6c76b10	-0.02791191397578091
245	0xbfb9054413278960	-0.0977366015208978
246	0x3f90d5e2715947a7	0.016440904777773515
247	0x3fca6be4adf21ec7	0.2064176415772094
248	0xbf91b9e067d2c83b	-0.017310625397563433
249	0xbfb44e1731ebdd7b	-0.07931656807692448
250	0xbfc100f334631504	-0.13284149225197706
251	0x3fb1090ef95a19e5	0.06654447162336614
252	0x3fc88499a621a104	0.1915466366947457
253	0xbfbfacb1de0d31f6	-0.12372886344127906
254	0xbfa6ef096cc0ce71	-0.0447924561744032
255	0xbfa87544cdda5030	-0.04776968968249695

down_path.0.net.3.bias f8 [8]
0	0xbfba339f2acb38af	-0.10235018534442263
1	0x3fb766445ec05b98	0.09140422166124862
2	0x3f7307e4765ac1cb	0.004646198683687828
3	0x3fb156a2a4c97731	0.06772820017928606
4	0xbfb4d378a92eaa42	-0.08135179644038096
5	0x3f683861aed8ad4f	0.0029565723296138056
6	0x3fb0aa95e2ac530c	0.06510292800915013
7	0x3faa8f384b6f6515	0.05187393112982811

down_path.0.net.4.weight f8 [8]
0	0x3feeb2787ddf0ef7	0.9592859705375919
1	0x3fefdc7ac3bde9ff	0.9956640074809114
2	0x3ff0a363458f16c5	1.039889594759573
3	0x3fefa1da1ecb2d36	0.9885073281706471
4	0x3ff0183f9418db28	1.0059200081866013
5	0x3ff06be49917d1d3	1.0263410549351775
6	0x3fe9b69c59a41951	0.8035413504410746
7	0x3ff0b1429baf5ee0	1.0432764131018573

down_path.0.net.4.bias f8 [8]
0	0x3fb0818b3751681b	0.06447668171441061
1	0x3fd6fa90dd1d7000	0.3590433272672726
2	0x3fb83e28dc291446	0.09469848036776893
3	0x3fb50d094d292cf8	0.08223016866502408
4	0x3faf6980494c7375	0.06135178465613126
5	0x3fb83468ae283374	0.09454969646340122
6	0x3fc04fd4f1545237	0.1274362734190093
7	0x3f9a5a8153c60c0c	0.0257358748799668

down_path.0.net.4.running_mean f8 [8]
0	0x3fc00e02135ce33c	0.12542749352885518
1	0xbfcaf55f1eb4eef9	-0.21061314582208704
2	0x3fcf8646c005f0b2	0.2462852895367909
3	0x3fd4b97a645eb1db	0.32382068444965534
4	0x3fd0b1c0c577ab4a	0.26084918292933834
5	0xbfd72eeed8a527dc	-0.36223956257583523
6	0xbf91b267d0848a7b	-0.017282125570214007
7	0x3fdee181e745929b	0.48251388154157276

down_path.0.net.4.running_var f8 [8]
0	0x3fccc646237b648f	0.22480084164161382
1	0x3fdfc6ac942bc10a	0.49650110692802285
2	0x3fd0523cd77de6dc	0.2550193886196277
3	0x3fd30040c8e678de	0.2968904458920302
4	0x3fe042b0701775e9	0.5081407727517987
5	0x3fe75c0546552440	0.7299829839404381
6	0x3faee4dc764ddf6d	0.0603398222364707
7	0x3fe8e84cb81aa179	0.7783568950444951

down_path.1.weight f8 [16, 8, 3, 3]
0	0x3f9ba4c842544f1b	0.02699578194467654
1	0xbfb2b3ddb5d9f1ef	-0.07305703820924923
2	0x3fb4e397433b2ee3	0.08159776107202847
3	0x3fb716f7f2217364	0.09019422208207356
4	0x3fb4bf55f375d2d0	0.08104455179074965
5	0xbf6393c57d01dd53	-0.0023897988503979533
6	0x3fb5bdd7e5ef4d52	0.08492802966730054
7	0xbfaddf73a2d2eb61	-0.05834542620274053
8	0xbf970ce41ef39c88	-0.022510113133560355
9	0x3fb8af01d1f31efe	0.09642039657330412
10	0xbfb0c802b6cb74a1	-0.06555191958200847
11	0xbfa53faade3cb0a4	-0.04150136912207472
12	0x3f917bda13f88d37	0.017074019879271787
13	0x3faded1d2e15951a	0.05844966113617485
14	0xbfb89005221131e3	-0.0959475715801044
15	0x3faf626173562d77	0.06129745991628515
16	0xbf9f6fa912985364	-0.030699388275098896
17	0xbfa0803e5595963e	-0.03222842020731463
18	0xbf7ccbacc4f4e167	-0.0070301770022570325
19	0x3fab5bf486adf644	0.05343593734776822
20	0x3f9f800b4abd5cee	0.030761887013196203
21	0xbf9c12bce3868cb6	-0.02741522921281777
22	0x3fbb7aa521911c40	0.10734016484740128
23	0x3fb2e724a8051926	0.07383946516083437
24	0x3f956bc1421f5beb	0.02091886488036813
25	0x3fb00278e857d38e	0.062537724232085
26	0xbfa3b30f75c56166	-0.03847549736628046
27	0xbfa4ae6c2dc7a01c	-0.04039323862872399
28	0xbfa86920f9735be1	-0.047677069139971946
29	0xbfb5e177a9953f1a	-0.08547160997590844
30	0x3f8dabd8138b3a71	0.014487922760421075
31	0xbf876ee7c847baca	-0.011442004012648072
32	0xbfab11ece9cace61	-0.0528711352721103
33	0x3fbbaa98c1624d5c	0.1080718490723504
34	0x3fb02872a43d44b4	0.06311718473195321
35	0x3faef6e7e1e26933	0.06047749168756624
36	0xbf9c9f1d7ff114df	-0.027950726446097526
37	0x3f8396b59674ffde	0.009564798978885788
38	0xbfaad7193d7a70c0	-0.052422322039292535
39	0xbf9da5212a8ca4ac	-0.028950231763847853
40	0x3f92c7bd4feaf06b	0.0183400707271492
41	0xbfa05fd8bff77856	-0.031981252129967316
42	0xbfa2b89a47e154d8	-0.03656465651935442
43	0xbfa1081b0e108d4a	-0.03326496645629591
44	0x3fab0876c048cea6	0.05279894921514243
45	0x3fab6de3dcff1418	0.05357276985845533
46	0xbf97e495ffca1499	-0.023332923638481693
47	0xbfb6a9a14791b8a9	-0.08852584836287981
48	0xbf83d0539c9a086f	-0.009674695221523614
49	0xbfc232e16799c724	-0.14217774923923188
50	0xbfaae0fc3bc5e1b9	-0.05249775151873188
51	0x3f5bf351c13f090f	0.00170596107362592
52	0xbfba3ee80e284e7c	-0.10252237649575052
53	0xbfc2e0d18df5cc2e	-0.1474859183468608
54	0xbfb61676a7b336a6	-0.08628026575316969
55	0x3f8c0de72e0db852	0.013698392956680436
56	0xbfa3027985d6f3ed	-0.037128255451058446
57	0x3fad9a5aeed1bb1a	0.05781826176904854
58	0x3fb05fb9354bee2d	0.06396062422930333
59	0xbf7001e34435234a	-0.00390805030776493
60	0xbfa34114128dd870	-0.037605883850958643
61	0xbfb3c34d7d8c98f2	-0.07719883265653829
62	0x3fa5e1fcdcf7e8d3	0.042739774678879926
63	0xbfa889a6c2dc0444	-0.047925196920922036
64	0x3fba1f8bd440cf74	0.10204385692560242
65	0x3f9ad59fc90bc2c6	0.026205536504621894
66	0xbfb4068369b5da1e	-0.07822438555545161
67	0xbf6f77534c8f8e3f	-0.0038410784659264337
68	0xbf9504e5ac408f37	-0.020526493681372684
69	0xbfb4e36371b07ad2	-0.08159467244739041
70	0x3fb1e521cd05561e	0.06990252738372546
71	0x3fb2872248e44b6a	0.07237448005279892
72	0x3f91056ed5422861	0.01662228752733375
73	0xbfba7cc8bae22d3d	-0.10346655428491132
74	0x3fab5d9df4c66daf	0.05344861615159446
75	0x3f92f688e056eb02	0.018518580143545023
76	0xbf2542f964deae56	-0.0001622132717192688
77	0xbf9999c319581c31	-0.02500061838329887
78	0x3f73b0955d262752	0.004807074978438868
79	0x3fb4672b6a0d1d94	0.07969924296513958
80	0xbf75d8495dcdf54d	-0.0053332200885710225
81	0x3fba2d981e77a0da	0.102258212507539
82	0x3fb1bd81843ce597	0.06929788092101884
83	0xbfafdd6f0c2e57d8	-0.062236280667249566
84	0xbf7846e239f49f13	-0.005926974961120174
85	0xbf9de4870cd3823c	-0.029192075879907117
86	0xbf89183c78847f80	-0.012253258159546254
87	0xbf9c534bfedd50f7	-0.02766150229520378
88	0xbf4899b0331d5a87	-0.0007507429456648653
89	0x3fc11f547d233246	0.13376861677388002
90	0x3fb426b5639112fb	0.07871564560725723
91	0xbfb69e3fc34ffff7	-0.08835218923923081
92	0xbfb447e959a7a08f	-0.07922228278005349
93	0x3fbbdcce374987a6	0.10883797502313416
94	0x3f82ad7abc58b0e5	0.009119948265912512
95	0x3fb33903b6de73fe	0.07508872236799388
96	0xbf7c07d73072ec67	-0.006843414862653586
97	0xbfafa56494a91f88	-0.06180872263627096
98	0x3f94de9bce7a9402	0.02038043449160299
99	0x3fad255672df3d33	0.05692548897024565
100	0xbf9c956d131633db	-0.02791376523014209
101	0xbfb8188bcbff82f5	-0.09412454348013084
102	0xbfa4d71a61d141b9	-0.04070360607204599
103	0xbfa6ef1e055aac53	-0.04479306998595036
104	0x3facaa4553f87dd1	0.0559865632060298
105	0x3fba38ba3a74ba61	0.10242809226176909
106	0x3f9b82840348124e	0.026865065288818983
107	0x3facc62794b35e69	0.05619929971879573
108	0x3fab538886da6ac8	0.053371683560916205
109	0xbfb731c5d057f61c	-0.09060322128785753
110	0x3f51c614a4caa64c	0.00108482376087195
111	0xbfc27fac18b048b8	-0.14452124791620746
112	0xbfb3a7f817e39e95	-0.0767817552874653
113	0xbfb0c07c887b32ec	-0.06543711025296844
114	0xbf62e91fa400e75c	-0.002308427618143689
115	0xbfc5a64708068d2f	-0.1691368855655155
116	0xbfa1be1fecd34786	-0.03465366140302621
117	0xbfc1996d512da60e	-0.13749472106728472
118	0xbf86333be49e036b	-0.010839908518166038
119	0xbfab226bdf2da1aa	-0.052996989243925555
120	0xbfbbcdb0f76dd28f	-0.10860734978434493
121	0xbfb5b7740d63a0d4	-0.08483052565464116
122	0xbf87f4587f779013	-0.011696521177277963
123	0x3fb118316afa28c8	0.06677540647266078
124	0xbf8494acf9a9aaff	-0.010049201363661718
125	0xbf9740b3e9c5de1d	-0.022707759040228582
126	0xbfa4f6781be5c0cb	-0.040942910581067325
127	0x3f8d9d23ac8021ac	0.014459875776098162
128	0xbfb3a77789d6ec59	-0.0767740928194355
129	0xbf9c0ba4ad7bf019	-0.027388165558463216
130	0x3fb6864e45b17a1f	0.08798684312339632
131	0xbf997f74c1b10600	-0.024900268861761887
132	0xbf94b9cd9e34e039	-0.02024003294101837
133	0x3fb89e1e2482aed7	0.0961626853119769
134	0xbf6db89eb938be6c	-0.003628072745207869
135	0x3fba8781d4292143	0.10363017492011743
136	0xbf82e07d27708db1	-0.009217241064169853
137	0xbfa291c8839b12f4	-0.036268487992435455
138	0xbfb8528e6616b480	-0.0950097083320589
139	0x3fb6292fc5204be6	0.08656595766687722
140	0xbfbb08005e3a0a9b	-0.10559084225136887
141	0xbfa9bb5f481c55e7	-0.05025766139275927
142	0x3fb07dca09f1312a	0.06441939108589581
143	0x3fb8cb9160336146	0.09685619925165154
144	0x3facb0721a585548	0.05603367396921982
145	0x3fad57a59ff53527	0.05730931832895641
146	0xbfb6a485c45603cd	-0.08844791453704133
147	0xbf608189d8a36289	-0.0020148937520441707
148	0x3fa44065a669002f	0.03955381065725338
149	0xbf9067d2aa79f8b7	-0.016021052985245556
150	0x3f66cfdbda0d79a8	0.002784661672577477
151	0x3fc1b3714f644368	0.13828865410371383
152	0x3fc3f5d38d7f05bf	0.1559395256900142
153	0xbf906188eb674d69	-0.015997065894976546
154	0x3fa736d10f7c5b54	0.04534009279284726
155	0x3faf518561f5aa70	0.06116883106991089
156	0x3fb2df36a9d7a242	0.07371846815625197
157	0x3fb19094cbb9e79f	0.06861238454612682
158	0x3fa38b2c99a56e69	0.03817119002880249
159	0x3f7d0d55af371b99	0.007092795090506331
160	0x3fb3d1c16c3b41d2	0.0774193658101077
161	0xbfb529ff57395b1f	-0.08267207984441115
162	0x3fa470600a84befb	0.03991985443496834
163	0x3fa305a46aae96f1	0.03715242197294611
164	0x3f95968682c0a7da	0.021082021456244472
165	0x3fa5fd1221f7b84b	0.042946402212564815
166	0xbf5d398343ea16e5	-0.0017837316405872547
167	0xbfb64b90b4fd6f2b	-0.08709053438854812
168	0x3facbb74b4275581	0.056117674819385684
169	0xbfb1b4775e3d54f6	-0.0691599469258398
170	0xbfa415d3390960b8	-0.03922901221511793
171	0x3f9a63ebc2956872	0.02577179312843509
172	0x3f969a6e6db9d22a	0.022073483893523406
173	0xbfb3f352a3d1f5d6	-0.07793156146541177
174	0xbfa90f42ea2e47ea	-0.04894456013347777
175	0xbf9de010c3c1935f	-0.02917505450058699
176	0xbf82a389f340eb4d	-0.00910098813630147
177	0xbf97d9c5196d536a	-0.023291663815445153
178	0x3fb77a2c665b6e1e	0.091707968701876
179	0xbf938386eac37671	-0.019056423262432568
180	0xbf594a34cb92b077	-0.001543571050471674
181	0x3fa3ce3c892b5e67	0.03868283438140168
182	0x3fa0fb586254f927	0.03316761207905677
183	0x3faa6dadc189961e	0.05161803233640348
184	0xbfc3d16c7fe86457	-0.15482860799309847
185	0xbfb52c9304fec4ea	-0.08271139976456579
186	0xbfb3dbc4844ad8b4	-0.07757213811678093
187	0xbfc1c6a6e969821c	-0.13887487790181374
188	0xbfbea7c1ae511240	-0.11974726205614505
189	0x3fa55ac8bcb0b826	0.04170825293873319
190	0x3fa8e565fc848db3	0.048625170779156866
191	0x3f7dd9fe7ca7edc3	0.0072879734893790986
192	0xbfa819f14df9b457	-0.047072926300508904
193	0xbfba237160e92d5f	-0.10210331550586237
194	0xbfad5848913ba37c	-0.05731417439330408
195	0xbfb1b3e74566edd8	-0.06915135807405848
196	0xbfc3210417e9d373	-0.14944506805081978
197	0x3fa7c3580fe5db19	0.046412231388720034
198	0x3fa1744ff44b2c0e	0.03409051758861646
199	0xbfa13526210d11ac	-0.03360861924605571
200	0x3fb4ce1bd8d03550	0.08126997035306727
201	0xbfb3b41b23153521	-0.0769669495250196
202	0xbfa1db41ccd2d0cb	-0.03487592339789244
203	0x3fb4645547d10295	0.07965596202212517
204	0xbf5794fa0a2f2736	-0.00143932741115056
205	0xbfa6a6c0a0a0838a	-0.044240970237530666
206	0x3f9ad5f2e106caed	0.026206774696855218
207	0x3fc028ed04870a3a	0.12624895783490492
208	0x3fa85a47da67d846	0.04756378689846534
209	0x3fb795e82b42df78	0.09213114792043864
210	0x3fb350ab0d430810	0.07544964860701975
211	0x3f77c2f2cf6b02f2	0.005801151730964392
212	0x3fa6e05a78153ab7	0.044680430563507505
213	0x3fa290a35efe131f	0.03625975164962924
214	0xbfa0e3b915c24a16	-0.03298738852130982
215	0xbf95124b9497cd03	-0.020577603287120116
216	0x3fc43cbafcc7b6db	0.158103345325279
217	0x3f66f0397857a717	0.0028000948393484093
218	0x3fb5cf6ed40eedf7	0.0851964252205376
219	0xbf9f40250f3fafa1	-0.030518130355559617
220	0x3fa1a3e49decf78f	0.0344535296230638
221	0xbf9400db8e51b32a	-0.0195345216383657
222	0x3fba38c32ae31b85	0.1024286250786713
223	0x3fb50090cf61101a	0.08203988135306908
224	0xbfbc2c5b66dab48f	-0.11005183468906153
225	0xbfb38366082dd0ee	-0.07622373294526927
226	0x3fb334b79f53e89d	0.0750231517776307
227	0x3fa5fe3c50605a12	0.04295528870732225
228	0xbfb0d89aa2c1bad0	-0.06580511544755585
229	0x3fb3ef5a924ca81e	0.07787099906696013
230	0xbf9810805d2c6bfe	-0.023500447928295636
231	0xbfb22f92e7102c8b	-0.07103841916266355
232	0x3fba4b2354b9dc23	0.10270901506906731
233	0xbfb3b4c31d74b745	-0.07697696179522236
234	0xbf5da0586a723450	-0.001808248847541511
235	0x3fac42a84eb9843f	0.05519605599398191
236	0x3f949fec0c058450	0.02014130423902244
237	0x3f83c9be89e10b35	0.009662140448318016
238	0xbfac00c61454a715	-0.054693403226634775
239	0x3f84ba4c59b66b56	0.010120960700808073
240	0xbf973f7fea6e36d7	-0.02270316952085846
241	0x3faaeaee12b98bde	0.05257362345289328
242	0x3fad5d56a33d8912	0.057352740694812124
243	0x3f9cdfa9bfe7e96b	0.028196956956870006
244	0x3fa0468603db755a	0.031788051577431545
245	0xbf8c194ae0e7fbff	-0.013720116604416075
246	0x3fb47fbed9a1b937	0.08007424176478116
247	0xbfbbe9fe3ee22111	-0.10903920207249863
248	0xbfc1f38fb11631d7	-0.14024540087520052
249	0xbfa1762bec48c1a2	-0.03410470256165189
250	0x3f8ff308753c3b7c	0.015600267484414003
251	0xbfb79f284b27666a	-0.09227229914486093
252	0xbf7757bfc0539cbe	-0.005698918369694881
253	0xbfa0fca0d92871fe	-0.03317740107397425
254	0xbf720e3d0553e209	-0.0044081100106656635
255	0xbf9646d5c20d83ec	-0.021754589051287285

down_path.2.net.0.weight f8 [16, 16, 3, 3]
0	0xbf9d5e245558f47f	-0.028679435452648946
1	0xbfb3983431bebe2d	-0.07654119696120949
2	0x3f8310c38ac2cf3c	0.00930931822981728
3	0xbf9316b68343219d	-0.0186413304916485
4	0x3fa2af23b606a1ee	0.03649245831485702
5	0xbf718b4965445427	-0.004283224774799733
6	0x3f90589fd8cced57	0.01596307526345461
7	0x3f9fb51c0c6fb310	0.030964315661481
8	0x3fa8db7d28dbe5a2	0.048549567449252665
9	0x3fb7c45d8ea03b2a	0.09284004909589486
10	0x3fa176fd3d8b8806	0.034110940707037726
11	0x3fabf673b4e183d5	0.05461465437907235
12	0x3fbb282fdbe5d090	0.10608195417973065
13	0xbfb206c54db5accd	-0.07041581294258777
14	0xbfa425714c73af09	-0.03934816416025739
15	0x3f8d4678cdbf799c	0.014294570712021941
16	0x3f93f9bb02f7e4f3	0.019507333809063842
17	0x3faf183b813e78f4	0.06073175385175658
18	0x3fad27496f071272	0.05694035988156977
19	0xbf8899ab9a139ffb	-0.012011852874323372
20	0x3faacf3353f684b4	0.05236206436098581
21	0xbf9eacd3f105d7d5	-0.029956161104074248
22	0x3fbb4cc277c376bb	0.1066400091544563
23	0x3f949206158a6222	0.02008828646157402
24	0xbfb0b0e248a29326	-0.0651990344363865
25	0xbfa65749e2938d62	-0.04363470927071479
26	0x3fae2d37c3cb8958	0.05893873467518301
27	0x3f9e5068923ea45d	0.029603609014575805
28	0x3f8455a049ddd81a	0.009928943876484953
29	0xbfa1817c5b2a9bf8	-0.034191022995678055
30	0x3fb6d1e5fcc72737	0.08914029523216703
31	0xbfb036419c09fb01	-0.06332788524194301
32	0xbf97b47ad735fc86	-0.023149413476400336
33	0xbf86d4e1c63f36b0	-0.011148227560535545
34	0x3fa8ecd03ae9ac88	0.048681742850782916
35	0xbfa74769432ace05	-0.04546669907486137
36	0x3f80f3d336a33c19	0.008277559380443876
37	0x3f8c9320b57e6f68	0.013952498949769868
38	0x3f7bf71786198892	0.006827442064237259
39	0x3f9977db30c81542	0.024871277668372167
40	0xbf6a63a3a3a3ae71	-0.0032213398054546307
41	0x3f8615e6ca3ef739	0.01078396134095848
42	0x3fb1a602569870a3	0.06893934835574327
43	0xbfa5cce86e51264d	-0.04257894846575692
44	0xbf85cae888341221	-0.01064092317256732
45	0xbfad12094f26c701	-0.056778231536908315
46	0xbfaac3a14208c1e3	-0.0522737877948918
47	0xbfa5ea81a3b712b9	-0.042804766878849994
48	0xbfb6d2f3251607ab	-0.08915633826657536
49	0xbf9bce28c2773af2	-0.027153622502562542
50	0xbf7eb6c16573e513	-0.007498507932944837
51	0xbf93ae20936d3107	-0.019218930242730383
52	0xbfb496931d1dbb1e	-0.08042258702128577
53	0x3fa332a81b093261	0.03749585466411954
54	0xbf99b1f9c7258b44	-0.025092985897013934
55	0x3f8f6c482c683403	0.015343250136561798
56	0xbfa698461275ee4d	-0.04413050628042168
57	0x3fbf05177977ac1d	0.12117144313349155
58	0x3fbb88cc46937872	0.10755612109230286
59	0x3fa96f050b733366	0.049675138137536476
60	0xbf9066df52d25f63	-0.016017426900901365
61	0xbfae607765bc1aa4	-0.059329730194851465
62	0xbfa0c5751ab4e265	-0.03275648070343066
63	0xbf7faf977f509da2	-0.0077358167518818705
64	0xbf672db94c812bc4	-0.0028294200056157865
65	0x3fa8514220396aa2	0.04749495166170915
66	0x3f9cce368e8c3c2e	0.028130390596796832
67	0xbfbd6a3328166fae	-0.11490173081113994
68	0xbf888f1a7fb3ca9a	-0.011991698286214093
69	0x3f9bb2e7e2e9ea72	0.02704965898963469
70	0xbfa6c823046eb5b2	-0.04449567250353982
71	0xbfab75def8766a91	-0.05363365920057562
72	0x3f85950cab6bf8c0	0.010538195592286193
73	0xbfaa6a2d345afa59	-0.05159131301978865
74	0xbfb0e451eff93c31	-0.06598388775567866
75	0x3fbb00934b28ef74	0.10547752938231075
76	0x3fa52fb484df8cbb	0.04137958642947966
77	0x3fa0550b9b6e91d7	0.03189884445535867
78	0x3f9f6f8d75008006	0.030698976770622742
79	0xbfabd4a936b5b715	-0.05435684960217039
80	0xbfa92d7ab9435b28	-0.049175105204702085
81	0x3fa055dda9dca231	0.031905104622925846
82	0xbf8d2d70abf8ac29	-0.014246826408529216
83	0xbf77b8d7510d2be6	-0.005791512566086765
84	0xbfa3dd2974de9689	-0.038796706692022793
85	0x3fad32de2aecfd5e	0.05702871583934653
86	0x3fb740792834f730	0.09082753402341548
87	0xbfa6f152f268bd00	-0.04480990609260438
88	0xbf9edc21ec0bb2ef	-0.030136613876424908
89	0x3f76e622b0e7ce1c	0.005590568076957261
90	0xbf93c2af8e0f5a10	-0.01929735474171862
91	0x3fb4fe857997f027	0.0820086881503249
92	0x3f87cbb975c1e05c	0.011619042307060727
93	0xbf9de957af243e2d	-0.029210443558495825
94	0x3fa36672c0c6374d	0.0378909931488197
95	0xbf565d46e1b1a270	-0.0013650123790062384
96	0xbf920b2b151d0d11	-0.01762072864881953
97	0x3fb07a4f44fb7bfe	0.0643662970937697
98	0xbfaba2cee6c208fa	-0.05397650305623532
99	0x3f96a970d536c005	0.022130740178624837
100	0x3f92f221043471e1	0.018501773721355867
101	0xbf766bcf93e4c8da	-0.0054739101890836864
102	0x3f727a48bb68e5ee	0.00451115046467397
103	0x3fa7ba96c31b3d38	0.046345435444545335
104	0xbf99962ceae17095	-0.024986936412788003
105	0x3f8c02177e248136	0.0136758647318521
106	0x3fb6fead2719e770	0.08982355312937584
107	0x3fb7d6a522eb3cd3	0.09311897375595217
108	0x3fb5c9133bf61459	0.0850994130506292
109	0xbf897921b35435d3	-0.01243807152288926
110	0x3f9a8fb7cd50f438	0.02593886557246014
111	0xbf995d1c80f78a35	-0.0247692540850812
112	0x3fa1c4bd9c39e866	0.0347041371541799
113	0xbfb0b5c810ce8f3a	-0.06527376566242263
114	0xbfa65a05db4b271f	-0.04365557004855546
115	0xbfb232a0d22a1796	-0.0710850251290068
116	0x3fa806d04ab44711	0.04692698394695872
117	0xbfb2223a32b06846	-0.07083476769949568
118	0x3f945ed0a94cf7e6	0.019892940839092342
119	0xbfab0b53c7bf3cbe	-0.052820795186215616
120	0xbfb33420463ea9c4	-0.07501413073501967
121	0xbfa11ab9b272092d	-0.033407023461239006
122	0x3f624cf6fdc229e5	0.0022339653060658876
123	0xbf728f7520a41f1a	-0.004531343011201528
124	0x3f9da555c6a5b266	0.02895101571032157
125	0x3fa9ca390162b9aa	0.050370961588998966
126	0xbfaf177daeec053f	-0.060726096728112904
127	0xbf3a8da7c0b3248f	-0.0004051718285152461
128	0x3f88a9e7eed8a96f	0.012042819954406451
129	0x3fb17bbbd6596d07	0.06829427703035061
130	0xbfa90764bdc02e25	-0.048884533083846805
131	0x3fae9b29dbc2f084	0.05977755363116535
132	0x3f9ded2c3c988564	0.029225054930184582
133	0x3f99a6597b9835cb	0.02504863564359087
134	0x3fa6f9185ff079d7	0.044869195662829923
135	0xbfbb2e047e354b42	-0.10617092210058579
136	0xbf9b1fdd33f2a5df	-0.026488739295620675
137	0x3f92f02e373d75b8	0.018494341012560617
138	0xbf92451cf7f35fea	-0.01784177077647079
139	0x3fb1bb7edd99f548	0.06926720533552555
140	0x3fb3bbde3c15c4e5	0.07708538977546515
141	0xbf98c1fe19858ab7	-0.024177522952764288
142	0x3f528f2c1bd3d1c6	0.0011327677487403694
143	0xbf89f68c34814cc9	-0.01267728362305433
144	0x3face5db78cdc844	0.056441172119676725
145	0xbf6e30f33eab9b6e	-0.0036854506373517537
146	0x3fa27dadc0e1db5f	0.03611510257262895
147	0xbfa47a312ba8d319	-0.039994751529240875
148	0xbfa7435ed85cd11a	-0.0454358710398159
149	0xbfa4de868834d823	-0.04076023495365202
150	0x3f9a57957972a5d7	0.025724731004322123
151	0x3fb38b1965c56576	0.07634123549123281
152	0x3fb2285d1bc73231	0.07092840126205925
153	0x3f9bce05e4ab3631	0.027153102952800438
154	0x3f7019e7948bbc2c	0.0039309545615955725
155	0x3f93c48dce0d85b2	0.019304481221643584
156	0x3faaa54599a16eac	0.05204217434285616
157	0x3fa1800d3bbea2f0	0.03418008188538646
158	0x3f841779a0375a55	0.00981040020171268
159	0x3f8fe96bae9775b1	0.01558193327485466
160	0x3fa1595b01ae7639	0.0338848533203699
161	0xbfb01c468498d97e	-0.06293144929154512
162	0xbfb636b524dba57b	-0.08677227163174976
163	0xbfb1922dfdeb51f6	-0.06863677453231518
164	0xbf9bf3889af580b0	-0.027296194513269867
165	0x3fa17fabcc61d38e	0.03417717809580899
166	0x3fc1baf66bd2ea87	0.13851814522589143
167	0x3fb1bbd13e156c92	0.06927211538043057
168	0x3f97a509caf82b5e	0.023090508473653563
169	0xbfb70ca97f134165	-0.09003695824072151
170	0xbfa81b818233d1de	-0.047084853309488514
171	0xbf7024dd8554da75	-0.003941407504774665
172	0x3f5a3156ac6bd677	0.001598677293882215
173	0xbfa9a971e1ec6917	-0.05012088663916552
174	0x3fb1c6129914c2a0	0.06942859875995078
175	0xbf935dfec3d05178	-0.018913250638506324
176	0x3f9920bf964c858a	0.024538987682836168
177	0xbfb3467a787927ef	-0.07529416505090557
178	0xbfa8e642daf8f86f	-0.048631753187223896
179	0x3fad16f30e4366bd	0.05681571530449279
180	0x3fa8249f32bee0d3	0.0471544026799521
181	0x3fad5c310376826f	0.05734399001380985
182	0xbfaf5f022d4a4e89	-0.06127173235759382
183	0xbf9d48c5244adbd3	-0.028597908344376876
184	0xbfbe42a35b6927a4	-0.11820431691844974
185	0xbf9299e5902a90b7	-0.018165194439135415
186	0xbfa50be6db46d385	-0.04110642840115645
187	0xbf94588a1fdcff21	-0.019869001574306048
188	0xbf6430d1e7572d05	-0.002464685409653835
189	0xbfab77853f534635	-0.05364624403013033
190	0x3fa85360ed7ef918	0.04751112841721489
191	0xbfa084ce9b99621d	-0.03226323747066238
192	0xbf4685d9a05f6087	-0.000687342894475599
193	0xbf8470661434eeed	-0.009980008594190315
194	0x3fbbfff07976fecd	0.10937407460641708
195	0x3fb178d963c812da	0.0682502621276159
196	0x3f936ac353cc3336	0.01896195601425462
197	0xbfa28a7fe3a57fd6	-0.03621291784179419
198	0xbf974fbd919c5866	-0.02276512337910965
199	0x3fae45bae6bbfee1	0.05912574831563489
200	0x3fb062d67f746545	0.06400814639745984
201	0x3fb0285924ca9342	0.06311566494202928
202	0xbfb3b2113c149c2b	-0.07693584172066951
203	0x3faa67a7176ec1eb	0.05157205735247657
204	0x3f71ff5e1855f409	0.004393928107103492
205	0xbf8bcfe9c2e96656	-0.013580156574948859
206	0x3fa387db1f1e17ed	0.03814587359288155
207	0xbfa35d5e5f2c171d	-0.03782172118921621
208	0x3f966623779849e2	0.021874002623073603
209	0x3fab0518d7b0fd08	0.052773262338172755
210	0xbfb3ab08eac030a9	-0.07682853442401218
211	0x3f8fa71095b8bcde	0.015455369538442228
212	0xbfa0f55eab2f04c5	-0.033122023006862324
213	0xbfa0fa720e102bee	-0.033160747734733195
214	0x3fa0285bdf8f7761	0.03155791381844498
215	0x3f8415c1a53cf8e0	0.009807122092408027
216	0xbf9cba3387316904	-0.028054051519895942
217	0xbf9961e63c4637ae	-0.024787518910265476
218	0x3fa7b248213b1cf8	0.04628205686236159
219	0xbfa691fac7f09d34	-0.04408248606369583
220	0xbf678eb6c8f90a3e	-0.0028756685276516694
221	0xbfa838a521d047a2	-0.047307167413364284
222	0xbf9e0bb4eddf52d3	-0.029341532724930296
223	0x3fae1e868a5abf81	0.058826641453719304
224	0xbf6a70939555a35f	-0.0032275087821073546
225	0x3fa9e0576f181c3c	0.05053971511011254
226	0x3fa29c44a408f164	0.03634848120097692
227	0x3fa67b1daec8ae7e	0.04390805014221842
228	0x3fa1ae90018a2b68	0.03453493136210889
229	0xbfb388fdda1f0e4d	-0.07630907607295363
230	0xbfafe5424dd12776	-0.06229598236002591
231	0xbf9b152a9ed28ef7	-0.02644793123603414
232	0x3fae1735ae18884f	0.058770825864727365
233	0xbf8becf1f98cec9d	-0.013635530880142627
234	0x3f972c70f3c88e79	0.02263046729980409
235	0x3f99e74efb81475e	0.025296434498449975
236	0xbfa5d75ffd093292	-0.04265880550210456
237	0x3f90562fc77265e6	0.015953775928755486
238	0xbfbc7602456c083f	-0.11117567248223369
239	0xbfaecb6ebbd1f5b9	-0.060145817210450266
240	0x3fa95c97965b7679	0.049534546951446275
241	0xbfb0b84ca7b8ebf7	-0.06531218619140576
242	0x3f9dea5a8d2e4b8d	0.029214300982470177
243	0xbfab50145aafeff9	-0.05334533316633378
244	0x3f9d0e53a2fa0a11	0.028374964544591267
245	0x3fa63c5e49140f5d	0.043429323597620174
246	0xbfa7f239bfe81577	-0.04676990954980458
247	0xbfb320023bcd05e4	-0.07470716438276487
248	0x3f8cdea186e955b5	0.014096509866400856
249	0xbf98f3ab2b6db965	-0.024367022061988836
250	0x3f9e01be15789132	0.029303522167667136
251	0x3fb22104687aa911	0.07081630278358754
252	0x3fa382df083dee8d	0.03810784316644087
253	0x3fadad4a5b8be4c2	0.05796272628317346
254	0x3fa5cd2c1d226996	0.04258096557278461
255	0xbf277fc757c5da3d	-0.00017928417572550702

down_path.2.net.0.bias f8 [16]
0	0xbfa08304c00bc47c	-0.03224959224997634
1	0xbfaa8c495ffcbc19	-0.051851551978295336
2	0xbfb3a8d33fdb3fa5	-0.07679481801028361
3	0x3fa852a900008386	0.04750564694427965
4	0x3f9d9310bfcdb37f	0.02888132258106024
5	0x3facf4575ffd1442	0.05655167624221537
6	0x3f9286fb5ffcd408	0.01809304021226768
7	0x3fa935a15fdc87e4	0.04923729224380205
8	0xbfae9849bfdd6323	-0.05975561587428604
9	0xbfa026a9fff478c5	-0.03154498338175097
10	0xbf9e4a340001474e	-0.029579937458329035
11	0x3f80b33160055032	0.008154283278294459
12	0x3f86762ebfdedae9	0.010967602949546644
13	0x3fac66e4fffd990a	0.05547252297292189
14	0x3faae0cb5ff5f126	0.05249629541774174
15	0x3f81b803fff12491	0.008651763199070824

down_path.2.net.1.weight f8 [16]
0	0x3ff038852b115be7	1.0137988741241715
1	0x3febab34fcb94491	0.8646492897043051
2	0x3ff03f4b4851675c	1.0154526543542124
3	0x3ff030ee781fc96e	1.0119461719846998
4	0x3fef45675429e42b	0.9772221225567866
5	0x3fed3aed7d1ce873	0.9134433215724712
6	0x3ff01dca01f71546	1.0072727276577367
7	0x3ff078572d491fe5	1.0293800133676936
8	0x3ff0a8d1eb1193b5	1.0412158186311278
9	0x3ff04ae850250cfd	1.0182879572537893
10	0x3ff07bfec89071ad	1.0302722773113644
11	0x3fefeb7a810b39f9	0.9974949379337082
12	0x3ff052f2d103622f	1.0202510990694795
13	0x3fefaaa45416d52a	0.9895803110472674
14	0x3fee75de7615a738	0.9518883043612965
15	0x3ff0089473c6e17b	1.0020947001013087

down_path.2.net.1.bias f8 [16]
0	0xbf70ba842ea89905	-0.0040841258401427315
1	0x3fad6f4d3f62e4b3	0.05748978995092937
2	0xbf8d4221c191c87d	-0.014286292762538228
3	0x3f8113dd0f6e6520	0.008338667901443275
4	0x3f9065d8e6802215	0.016013516491542108
5	0xbf7d13e628d992d5	-0.007099055348224599
6	0x3f9a48aa2df93f67	0.025667819076545053
7	0x3f987426ea46a001	0.02388058476358879
8	0x3f53b4af18d46632	0.0012027463847687045
9	0xbfa281cf12000c89	-0.03614661307076356
10	0x3faa25b51c6ee361	0.05106893512806355
11	0x3fbfb7c7fffc6e69	0.12389802932414685
12	0xbf72451b7d6aebfe	-0.0044604371857372965
13	0x3f955f0c5cee1c8e	0.0208703929634138
14	0x3fbc7304cb9b0bd8	0.11113004656640102
15	0x3f86f036a1e9a72e	0.011200358215507213
