results/run_1/saved_model_unet9.pt (torch, 351712 bytes, 75 tensors)

module.down_path.0.net.0.weight f8 [8, 4, 3, 3]
00000000: bfaf 3ac5 7b00 c33f d23d 1cf4 c41c c2bf
00000010: 0655 6422 9aa9 c6bf a5e2 126a ed56 ccbf
00000020: 28bd 3144 7be4 e73f 639c 2acf 7ba6 b73f
00000030: 7ba5 b974 c22c 80bf b969 7733 c188 cd3f
00000040: 7f9b eee9 0cca b2bf eba0 a822 ee08 c53f
00000050: 1e9c d61a 56eb c1bf 1746 0f45 beb9 c0bf
00000060: f635 8137 beab c5bf 1f99 5d65 3ba4 c33f
00000070: 765b f706 4dd2 c93f 0e81 dc61 563f aabf
00000080: 3f90 8afb ae23 9cbf b52d 818a d9c0 a0bf
00000090: 8da8 9f4e 15ee b9bf 99da 83a5 4d6b cb3f
000000a0: 0253 ebc0 4be5 b33f 9779 b33e a43e be3f
000000b0: 0cdd 1abe 5af7 e8bf 1ec3 67b5 2057 abbf
000000c0: b80c 826c 06d8 c83f 5a05 880a b5a5 c9bf
000000d0: fab1 0858 84dd bf3f 8b22 8e10 468c a9bf
000000e0: 38ab 5103 3385 a83f 0360 17ac b6a7 a63f
000000f0: 221c c998 607c afbf 571e 5fd5 7651 c93f
00000100: 230e cfc4 c989 c83f e05c 8809 5fb4 c33f
00000110: e66e d99a 3dfc 98bf 206c 96a5 6a33 bc3f
00000120: b2f2 7cce 9269 c3bf 2b39 8d44 2a57 c23f
00000130: 1918 1c93 0339 c93f dd4e e4bb 6e99 ce3f
00000140: a08a 8d2b 5830 ecbf ae48 f193 6074 a3bf
00000150: bcb9 67c1 c177 a13f 2d50 ff87 1e0d d1bf
00000160: 0c36 ea25 44c8 b23f d42e 0b96 a434 cabf
00000170: a4f5 2ec8 8944 c83f 0b45 3032 22d9 c63f
00000180: ab30 d4b8 63a3 c93f c041 69d6 8b83 c8bf
00000190: abb8 b4c7 d398 d0bf a7ac d384 e255 ab3f
000001a0: 2f93 bf6b 5457 9e3f 7256 6fd0 d1db a03f
000001b0: e2d7 d26e a0d1 bd3f 59b0 e964 d620 cebf
000001c0: aedd 604b 8564 b4bf d810 eaa3 2bf6 c0bf
000001d0: 295c 89d4 984f eb3f ba51 eff8 b475 aa3f
000001e0: 4ace f342 98f3 cbbf 1256 7314 7550 cc3f
000001f0: 80d4 19dc 2e8f c1bf c001 a69d 4f91 a03f
00000200: 2fa3 bf95 2693 bc3f b9cd ab0b 305d a7bf
00000210: fdd3 f38a ad47 b3bf f1a2 79ab 96af cabf
00000220: 47df c77b 505e c1bf 620a ca57 64dc a0bf
00000230: c992 90de aba9 c9bf 2cad a7f6 06db bfbf
00000240: 3429 5c82 3c2f c33f 1893 b4a2 5849 d0bf
00000250: c2a1 5922 3ef3 cf3f 2afd c105 1455 b03f
00000260: 1fda ff44 59ac e23f ccd3 ae88 d4ee ddbf
00000270: e7c8 6f14 40d4 bebf b579 0102 43cd de3f
00000280: 0365 a6d9 092b c4bf 6957 c413 7aff d13f
00000290: 6491 c092 50ac d2bf 5d32 a6c7 93b8 c83f
000002a0: a4e9 bf8c 1399 d4bf 64cd fe83 01e6 dabf
000002b0: 2ba3 b4a4 c7df d7bf f3d3 ab4a ab1e c43f
000002c0: 4af3 76e1 1b3d c03f 09b9 25c1 9cab 7a3f
000002d0: 9847 359b 4924 93bf fb77 c2a9 d95e ad3f
000002e0: c1f3 33f2 2229 9ebf 39dd c9ab efb9 c83f
000002f0: 3fe4 e749 a63c d23f 88fd 0fc4 ab8a 9abf
00000300: 46c3 941d ee84 c6bf 78f3 1807 69e8 cd3f
00000310: c4d2 621d ce2e a23f 81a5 7a83 c7a7 9f3f
00000320: d3c7 c2a8 1f5d ac3f bba2 8350 9f5b a43f
00000330: 58b8 3396 6248 c93f 7f6b a438 849f c63f
00000340: 262a c6e7 5ad5 c6bf 3f40 66bd 7302 d03f
00000350: 286b c902 41f6 c33f 9290 3aee 1c17 c4bf
00000360: 9d74 a7c5 4389 c8bf 25b8 e594 3be2 8cbf
00000370: 20de 7e46 7747 a7bf 125b 5ea2 36f9 cc3f
00000380: ade5 8063 9d55 c4bf 9d7b 0d76 28f3 7d3f
00000390: 3fab be7f 1759 a3bf 04a8 cee2 939c c6bf
000003a0: bdd6 13c5 00a0 babf aedc 378d c034 a83f
000003b0: 46ae e66c a429 d63f 9211 dd23 a3de d2bf
000003c0: b390 d837 3c82 e5bf eb37 dee9 1db1 abbf
000003d0: 11b7 6ad1 4e6e bf3f 0071 2bbd 9ffc ce3f
000003e0: 5295 4c2b 5252 cc3f 673e 6f1a 465b d8bf
000003f0: fdd3 c405 158a 963f 7fe4 32c5 8c75 b3bf
00000400: 51cd 21c8 38ac ad3f 3ba8 5cbb 929b b73f
00000410: 34b0 0b61 9dc8 a1bf 5dcc 329f 40d5 a7bf
00000420: e63b ad7b 714f b7bf 835b 4ef4 6419 b13f
00000430: 61f6 2311 4323 c1bf 944e 4bec 789b c1bf
00000440: 89be 3cf7 eb1d c73f c901 7f50 cffc bb3f
00000450: 6725 bf15 f495 963f 2fc5 2b54 2647 e73f
00000460: 0214 dc53 5839 cf3f ad61 2f72 ce3e d93f
00000470: bb5c 98ec d1d7 d83f 5616 a905 1413 c1bf
00000480: 666c dcf9 1118 c0bf bfdf 0ac6 66f2 c93f
00000490: daea f6a2 dd35 c9bf 09d0 5ba2 cc3b 97bf
000004a0: c986 e019 891c e1bf 5dcc 6345 f291 d83f
000004b0: e505 a89f 6fc8 bf3f 7397 79b4 6baf ddbf
000004c0: d7c4 f606 69b8 c33f a4d4 7bc7 2b9a d1bf
000004d0: 4df4 e33c 3928 cc3f 715c d2ed b3eb c1bf
000004e0: 454a 4c2d 5ae2 d73f 805c 7c4f e63a d33f
000004f0: bf2e 579b ee3c d63f 2578 604c 79b2 c4bf
00000500: f6d0 e6de a35e 91bf 723d ccaf b253 a6bf
00000510: c47e 3553 0111 823f 086f efc9 55b5 aebf
00000520: 5862 5839 1b28 943f 5216 4546 a7d6 c3bf
00000530: 0ce7 d148 c273 d0bf aaf2 8e77 1e34 a73f
00000540: b7de 39b4 e423 c13f e8a8 510b a6a3 cbbf
00000550: 8949 bebe f28c abbf 92e7 17e5 bbd9 b93f
00000560: add4 3d29 eab6 bbbf 16fb 52aa 3117 cfbf
00000570: fdf2 5ef1 54b8 b4bf 53d1 50a4 13a9 c0bf
00000580: 4a83 d348 3e22 ad3f e984 f447 cec2 c8bf
00000590: 334f c166 bccb cdbf b4c8 9612 2035 c53f
000005a0: d703 b399 0b68 abbf 5793 4b21 e9a6 da3f
000005b0: c082 323f d072 bc3f 6cb8 90ec a329 b0bf
000005c0: be51 3f10 a832 e0bf 3812 758b 7e6d e4bf
000005d0: 9d34 959b 28c2 97bf 7a5e 281e 2dc3 d63f
000005e0: 9bc1 17ac b8be ca3f ec5a 2d28 ea80 b4bf
000005f0: e172 e460 1ae8 bcbf 0337 f6c0 d177 c8bf
00000600: 1a00 80e1 29f9 d93f 1f00 a9d7 4e81 ddbf
00000610: fe31 0744 8361 d9bf b3fe 4a2a b852 a1bf
00000620: 9b0c 81db 432a cdbf 2c25 c768 1f61 d03f
00000630: c349 4574 48ce a4bf f9cf d407 e17c c13f
00000640: c988 afce 8d9f 9e3f 5a1d 74a8 1dbb b6bf
00000650: cf5c 3fb5 ae2b dabf c45a 8ec8 7dc5 ddbf
00000660: 4797 41aa f7b3 aa3f 3df6 3852 ccb4 a2bf
00000670: fb85 3a8b fe56 d13f 2e49 4044 69c2 a33f
00000680: 3d00 9808 ff3d c9bf 9e5c 7394 171c d3bf
00000690: 1dad 16ec 027c b5bf 3127 e1a2 e8a0 cdbf
000006a0: 9c85 08e7 898a 9dbf 0431 0074 7d00 cfbf
000006b0: 2fd5 7a35 4d4d a8bf 9578 f47a 5f75 ae3f
000006c0: 6d3b 1aee d85b b23f bcca 0358 d44a dbbf
000006d0: 741e 5046 0493 b7bf 44f3 014c cee5 a13f
000006e0: 400a 900e 4fd7 df3f 25ad 6a56 6d50 e33f
000006f0: 9318 8dbb 83dd ab3f bdb8 cada 5458 d7bf
00000700: f7a7 9c31 0267 c8bf d556 5e0f a6b7 b33f
00000710: 5cfa a53d dc54 c03f 0c3f e235 9975 cb3f
00000720: bbc4 5f73 89d0 d7bf 7736 ed27 f903 d73f
00000730: bc12 0338 8a14 d73f 1f71 e37f 7dd7 a73f
00000740: dfde d41d 88fc cd3f 47ba 97dc 3885 cdbf
00000750: 655c aa8f 35b3 9f3f e30a 8e3d dbd5 bdbf
00000760: d274 526b 9286 9bbf c81b 4297 f489 b63f
00000770: c54f 7cd6 1721 d83f 7593 7207 99da db3f
00000780: abb8 ac9f 017c abbf c406 89ef 367d a13f
00000790: 20ce ecd1 b690 cfbf 06e9 d135 9656 8bbf
000007a0: b7ba 6cab 37a0 c53f b028 a064 e848 ba3f
000007b0: 6339 5fd1 ba52 b33f 2836 08e9 732c aa3f
000007c0: 0192 316f 71c7 c43f 635b 8686 683d d03f
000007d0: 6e2a a654 4fae c53f b52b 5b7b ea1f 97bf
000007e0: a334 b822 f1ce c93f 1682 56b6 bfd1 d03f
000007f0: d946 f433 7f0d d8bf 3da9 57bb 6899 dabf
0.14845225458463848 -0.14150297088097702 -0.17705084494870266 -0.2214028137148222 0.7466408092422272 0.09238408859037998 -0.00789787214962944 0.2307359219838199
-0.07339554511291445 0.16433502857513047 -0.13999439535584285 -0.13066843387655133 -0.1693036814707935 0.15344946336262752 0.20173037376545339 -0.05126447624775397
-0.027479871847973177 -0.03272132697801614 -0.10128911180041396 0.21421213704862366 0.0777175279611804 0.1181433346823496 -0.7801946366297741 -0.05339910711689398
0.19409256265871533 -0.20036948217606715 0.12447383069292775 -0.04989832832422277 0.04789122977748267 0.044248302943458405 -0.06149579873140733 0.19779858988316576
0.19170496091656827 0.15394199338400139 -0.02439972169518869 0.11015955488839824 -0.15165934641290374 0.14328506800888738 0.19705242808430581 0.23905738996892625
-0.8809014177935133 -0.037997263011349744 0.034116797312765595 -0.2664257362459946 0.07336831975609232 -0.20473153425552104 0.1895916202028448 0.17850139093983616
0.20029875302168895 -0.1915144726685991 -0.25932783606084325 0.053389624323096734 0.029630011631428473 0.03292709035274023 0.11647989946035822 -0.23537712027917015
-0.07965882387440246 -0.13251252654675372 0.853466429815744 0.05167928255801564 -0.21837142247351188 0.22120536325989854 -0.13718209979166218 0.032358634943196574
0.1116203418347481 -0.04563284056157663 -0.07531246797937281 -0.20848353741464323 -0.13569074672681777 -0.03293145724912418 -0.2004904591314214 -0.12443583986139534
0.1498790394328552 -0.25447669877239454 0.24961067845585033 0.06379819050379312 0.5835386607785188 -0.4677020392221578 -0.12042618273679616 0.4812781829440625
-0.15756343009415028 0.2812180703198153 -0.2917672570349821 0.19313285110947023 -0.32184303994258756 -0.42028844728630177 -0.3730334385350484 0.15718594690375162
0.12686489590660194 0.0065113185140559604 -0.018693113420631485 0.05736427495251913 -0.02945379832543771 0.19317432296859652 0.2849517556892955 -0.025919612733557723
-0.17593170589818835 0.23365509840541754 0.035513344847833334 0.030913464927527116 0.05539797720975028 0.03976152284469011 0.19752151807864737 0.17674305692420586
-0.17838608090490132 0.2501496648410501 0.15595257412027164 -0.15695535309089742 -0.19168898726539832 -0.014103379708753814 -0.04546711669484815 0.22635538986352138
-0.1588627563340145 0.007311971713391066 -0.03778909143814823 -0.17665337156842054 -0.1040039521356801 0.047277467001486925 0.3462916434752724 -0.29483870031642667
-0.6721478548756948 -0.05408566932520372 0.12277691471782883 0.24208447205354133 0.2212622367307327 -0.3805709131383765 0.02201111648283315 -0.07601241888450437
0.057954573087864454 0.09221760820642626 -0.034733694168466306 -0.04654886191692562 -0.09105595845652167 0.06679373707298279 -0.13388861023843204 -0.13755713975716743
0.1806006390775006 0.10932632174718217 0.022056402041731895 0.7274352687801747 0.24393753142081215 0.3944584002579415 0.3881726084232004 -0.13339472080604037
-0.1257345647835308 0.20271000547449877 -0.19695635277988438 -0.022689053926072265 -0.5347333436404479 0.3839078595767143 0.12415216110095846 -0.46383183121212496
0.15406525459324058 -0.2750348518450869 0.2199775264088281 -0.1400055800665743 0.3731904451716768 0.30046994936260063 0.3474689976689937 -0.16169658879602014
-0.01696258590682561 -0.04360731502503769 0.008821497299038035 -0.05997722711592074 0.019684243559910136 -0.15498820239206396 -0.257065363991942 0.04531951150372511
0.13390787887668917 -0.21593165924725288 -0.05380972460183659 0.10097860663509398 -0.10825980669854358 -0.24289532486542303 -0.08093768017620202 -0.13015981219508407
0.056901880636138616 -0.19344500077662666 -0.23278002755488955 0.1656837549940683 -0.0535281777497471 0.41643741847501786 0.11112691443350808 -0.06313538098831523
-0.5061836545306091 -0.6383660053039142 -0.023201593872091853 0.35566261239134855 0.20894535448998117 -0.08009208184135347 -0.11291661134277887 -0.19115659639322055
0.4058327390812352 -0.4610173326545936 -0.39657670634622366 -0.03383422390242909 -0.22785232751821102 0.25592789871423594 -0.04063631457633534 0.13662350542438143
0.02990552495965274 -0.08879266131053978 -0.40891616535141123 -0.46517891488603547 0.05215429261515552 -0.03653563026135174 0.2709347114233364 0.038592614728388916
-0.19720447463623883 -0.2985896062577441 -0.08392351402169536 -0.2314730449018554 -0.028848795629647137 -0.24220245517825145 -0.047464764383600026 0.059489234694624894
0.07171397984551016 -0.42644222827145106 -0.09208704678177942 0.03495640447451945 0.4975164072240297 0.6035677612138995 0.05442439712946725 -0.3647663246764628
-0.190643572067813 0.07702100634773086 0.12758973131345186 0.21452632075351408 -0.3721030832958367 0.35961750887950167 0.36062865705416036 0.046565935002691676
0.23426915604226559 -0.23062811633231403 0.030957066434521247 -0.1165444398193745 -0.026880538750096168 0.08804253285244024 0.37701984353884327 0.43521714904118564
-0.05368046831277814 0.03415843652738951 -0.2466038250946534 -0.01334874488587846 0.16895194883678297 0.10267498451881596 0.07548110591526362 0.05112039775495375
0.16233652047516503 0.2537480653494894 0.16938201554542637 -0.022582687167225852 0.20162786670008356 0.2628020554202818 -0.37582378457692084 -0.4156133489147072

module.down_path.0.net.0.bias f8 [8]
00000000: 149f fa5f 4f7b b6bf fa75 fddf 273f c5bf
00000010: c502 bebf c6b8 92bf a5ba 0a60 4192 bbbf
00000020: a74e c8fd c7bc 82bf 6de9 d1ff 45db a8bf
00000030: ffe7 ee5f baee b23f 4fff 0560 9201 bf3f
-0.08781906216847474 -0.16598986088767714 -0.018282990887658074 -0.10770042986653523 -0.00914913409454894 -0.04854792354395241 0.07395520059699832 0.12111773342439601

module.down_path.0.net.1.weight f8 [8]
00000000: 7eab dce0 98fd ec3f 73bd 05f7 85be ed3f
00000010: b98c 2c88 e0cc e83f 093b a1ce 189d f43f
00000020: 1e84 a0c2 4e51 ed3f ebb2 c8d0 803f f03f
00000030: 24aa 7adf 768f f13f 181b 9468 a2af e43f
0.9059566871486451 0.9295072388321571 0.7750094089173195 1.2883537360646093 0.916175251131907 1.0155037074684354 1.0975254754690775 0.6464397470998362

module.down_path.0.net.1.bias f8 [8]
00000000: 073c 970c 164e 72bf 0c22 40fc faa0 963f
00000010: 66aa 0a79 39a4 d33f 7f68 20e3 6c66 be3f
00000020: 309a 2125 072c 93bf 170e 330d 1219 e63f
00000030: 5d12 3a91 1361 e7bf d80d bb46 7ec1 cb3f
-0.004468999986285921 0.022098466535711167 0.3068984682128416 0.11875038666804193 -0.018722640649139588 0.6905603654672089 -0.73060015072458 0.2168424458851479

module.down_path.0.net.1.running_mean f8 [8]
00000000: b087 da28 ed38 77bf ce26 cee2 577f d0bf
00000010: 71c3 eefb 682e ae3f bea4 adc8 156d c13f
00000020: c5a2 01be bd58 b9bf a603 cbd3 eefb c7bf
00000030: ebab d2c4 63d1 c93f 56e3 1674 17f1 c73f
-0.005669523625018089 -0.2577724184890088 0.05894783091878864 0.13614151285881876 -0.09901033295467261 -0.18737588254410048 0.20170256720061217 0.18704503220012708

module.down_path.0.net.1.running_var f8 [8]
00000000: 8ee7 1883 205a b03f e588 f762 20d2 b33f
00000010: 5e9b c6fa 716b ac3f 7ce7 cff0 fc00 d13f
00000020: 03fd 59dc 34af ae3f 2956 7180 6a66 c23f
00000030: 5b00 4679 189d bf3f 927d 5879 20a2 993f
0.06387522888772265 0.07742502609429243 0.05550724207141998 0.2656853057557027 0.059930469416025665 0.14375048896424517 0.12349083863046088 0.025032527357436836

module.down_path.0.net.3.weight f8 [8, 8, 3, 3]
00000000: a57d 377e 2d7c 7a3f 0df9 7e6d fd49 c5bf
00000010: 99d9 d31b 0d69 cabf fa36 f530 d65d b53f
00000020: 15d8 2b80 becd d93f dc83 4f46 3127 c4bf
00000030: 1a23 6e16 6834 843f 2bdd 0227 5147 c13f
00000040: 4dfc d003 9ba1 b1bf ae75 18a7 499c af3f
00000050: 9842 5382 a466 dd3f 7f5c 84fc a48b d03f
00000060: 3bd0 f755 ae25 d03f b49a f35f dbc5 96bf
00000070: 7845 13f6 6b1d cb3f 59e9 330c 15ed bd3f
00000080: 815c 7d6f 2916 aabf 5ea7 63f8 6582 bd3f
00000090: b38a 7ea4 6ec6 b0bf 602e 9b7f 2a76 c03f
000000a0: dc06 6e65 2dd8 9abf 0661 176d 4591 dc3f
000000b0: ae42 505e dbb6 d1bf 055e 3563 fd07 c2bf
000000c0: aa5e e2b4 d6bd c13f 997f 3d59 ce26 d73f
000000d0: dfc3 4e22 93e3 3f3f 2d13 771e 0dfe c93f
000000e0: 65d0 664f cad0 acbf 5742 45b2 b7c4 ce3f
000000f0: a404 26c4 3421 d83f 1366 5c0a 5edf b93f
00000100: 5741 375e 9122 cf3f eed6 6af4 c42a c2bf
00000110: 180d c58f bf1d c23f 3364 f71c 8faf c4bf
00000120: a74b 4087 c5e5 b83f 161a 09bb 269a d63f
00000130: 1c2a f59e fa50 be3f 754b c2ad 1227 babf
00000140: 5000 e938 89bf e23f 3090 ce7f 4c38 ca3f
00000150: fa7b ee1b 4cc3 b4bf 5c0e b8dd 2cb0 bbbf
00000160: 9193 fdc3 e05d b8bf c7f1 6346 530f cd3f
00000170: c3ff ce4a 6a7d c13f c583 891a 06a8 b4bf
00000180: c568 1ae1 2388 d53f 18a2 e866 f50a d33f
00000190: 11f2 fa5d ec5e a53f 6516 a5e9 cc64 863f
000001a0: 7a84 76d2 3a09 dbbf 0f10 600a e5e0 bcbf
000001b0: ede9 d0ba 86b8 b4bf 6dc8 7d66 6f69 823f
000001c0: 6709 6edd 68db ae3f 7f6a 9b2e 0b93 7bbf
000001d0: 53ab e79d b7c8 75bf 7ea5 b499 ac27 b03f
000001e0: 7d77 274e 7e7f ae3f 64ee bea5 2314 de3f
000001f0: e52a 1817 aac4 a53f a4ac 140d b3a8 c93f
00000200: 3983 4e38 8e16 cb3f dd4c 62b7 3f05 8e3f
00000210: 097e 417d 34b8 cb3f a3c5 73b3 bb41 a33f
00000220: abc3 2f10 2063 d03f 4996 1cd7 b5f6 c03f
00000230: 5478 7ffc 95ef b23f 6371 553b 89b4 c5bf
00000240: 920b 938a 491a c93f aea7 bce4 14a1 a33f
00000250: df79 991d 03c6 ca3f 7219 5519 049b d23f
00000260: 3779 b423 a85d b53f 4696 c330 992e b8bf
00000270: 3ab8 7d34 6b4f b43f 657a 7542 e552 98bf
00000280: c28a f0b1 cbc6 b63f a949 f6f7 c5a0 b0bf
00000290: a6cf 8f64 4489 cc3f dd06 2a92 282a c8bf
000002a0: 7e51 5cc4 5b38 b3bf 8ad8 ead0 1f5c cb3f
000002b0: e733 c6e1 ab82 c63f 1e5e 053d b063 86bf
000002c0: f87a 48c6 0085 b03f 9583 139f 3bcc aabf
000002d0: b68f 3e1d 2f50 b9bf 3a30 5152 dffe c83f
000002e0: ac83 57a7 4fa8 c73f 3fb9 f53b 31f4 c2bf
000002f0: 9002 b8b6 11ac 9dbf cb3d aafb cd28 c8bf
00000300: 6d55 880e 5130 c23f bd6d cc21 7f03 c63f
00000310: bd49 740a a320 c33f 2656 9dc4 249f 9abf
00000320: 004b 6f83 f547 c4bf 709c 1032 ce6f cbbf
00000330: 56aa 61d4 df08 bfbf 29f1 99c4 794d d83f
00000340: 30b6 6587 0279 b13f a95f 7f5b b383 c7bf
00000350: d284 4f82 be49 b2bf c0a3 6179 e3b1 723f
00000360: 3421 95dc ecfd c43f 9e11 3c8a d8a3 9ebf
00000370: e631 f317 e4a9 babf 12cd 90ba cb61 d13f
00000380: e2ac c0c2 8a4c db3f ade0 a81b 2a7a d33f
00000390: 2a38 a050 30b6 c7bf 82e8 d280 c82c b8bf
000003a0: c693 dc28 427f c2bf 4528 2940 ac68 d1bf
000003b0: 87ae 1109 13b8 c43f 86ae ca31 03ed a93f
000003c0: 418f 20ee 0149 92bf 4d4c fb7b ed04 dfbf
000003d0: 48b5 7554 2772 d13f bc07 eef9 ea0c babf
000003e0: a546 f832 3d63 bf3f 3229 8341 354f d0bf
000003f0: 764a 1821 6ade d73f f59c deb8 619b ae3f
00000400: 3cde c8ff 8c69 afbf 985b 07a3 0b4a c83f
00000410: 41d3 ba27 5541 e73f 4420 eb8e a76b c6bf
00000420: aa92 246e a64b c03f e618 fe57 2925 b4bf
00000430: 8bf7 fdb0 667b cc3f 1f24 9714 0fed b5bf
00000440: 2dd6 fa31 6dc3 d03f 0439 aac2 a346 a1bf
00000450: f4b2 24a5 d2d4 c53f 42d7 1df7 e9e5 c03f
00000460: 96f6 b9c7 0c8b d43f 4f20 1f0f 1ddb a03f
00000470: 06e1 3f14 d529 cd3f d80a 0c57 f14c c5bf
00000480: cf8a 0a43 9b72 cc3f 4bf5 8bf3 ac1a cdbf
00000490: 6b35 3ca6 8e44 c53f 0c7f cbe4 615b b53f
000004a0: 4df3 7543 f2d0 c6bf 5272 4db7 0c1d 7abf
000004b0: 9323 016f e0e6 c13f e045 7091 94fe 9ebf
000004c0: a309 da1e 363d 943f 3e84 a117 a161 afbf
000004d0: 6110 b0af 89cf d53f 0bab b8d5 81a8 b0bf
000004e0: f2fa 1a3f b64e 8dbf 320f 8615 65f5 df3f
000004f0: c903 21a7 8037 cb3f c1d6 74f9 4155 80bf
00000500: e0f2 b1c3 db8e ba3f fe51 58d5 84b5 a93f
00000510: be16 93a9 9fb8 be3f 68c0 5e8f 00f4 b13f
00000520: 934a 3461 ac5d b9bf b989 7475 62d8 b43f
00000530: bc2f faa5 6c60 cdbf 6ca3 6538 99b4 b13f
00000540: 4844 233f a40b bc3f 6884 976f ae64 bdbf
00000550: 5325 0edb 174d b33f 3c61 72e7 5c30 7fbf
00000560: 2cd3 277f 6a4b c1bf 957c fb0a 131e 923f
00000570: d0ed 7416 9c98 c03f 3542 6aee e9b1 c2bf
00000580: db95 abab 8686 7e3f 70f2 9b94 0a3c c6bf
00000590: b6c5 d076 2ec6 c2bf 2cec 5fa1 fd22 79bf
000005a0: 0346 d9ae 4812 c5bf 8514 2084 3134 92bf
000005b0: d35a b7b2 828a a63f 3abc f12d f13b 803f
000005c0: 7ac2 2c22 a228 b93f 614a 2011 c5e8 d2bf
000005d0: aacd 7b8f 3fe6 c7bf df35 b540 712f c23f
000005e0: 5b57 f18c fabc 703f 204f bf7f 764e bcbf
000005f0: 534c 0eb0 7610 bc3f 4e14 91a1 633b 8ebf
00000600: b410 27a2 fe15 d1bf 185c d042 98f8 d43f
00000610: 32e9 8528 7d84 bebf 43f9 24fe 4a80 b2bf
00000620: 8254 624d c919 d1bf 36e3 a9ed c657 9b3f
00000630: ff40 b96a 5908 a9bf 059e eed2 3208 b5bf
00000640: fbc2 06b1 f97a 9cbf 2e45 2733 ca0f c63f
00000650: 0d9e e121 5b43 d7bf 8d30 bacd 593a c23f
00000660: 9766 0d53 817c b6bf 3b2a 540b 85e2 c43f
00000670: 0e1e 14c0 2949 c9bf 6ed3 6b50 03d0 ca3f
00000680: dce6 c2b8 5a36 c2bf 1871 2847 05aa 9ebf
00000690: 83dc 544c 132a a73f 19d8 9e66 c55a d23f
000006a0: 2925 87f5 c269 cd3f 7b64 29c1 bc41 a33f
000006b0: c054 f34a 6dad c23f e037 d0f0 2479 c5bf
000006c0: e21a d6f5 dfb9 d7bf 7678 a2cd 1cc4 bbbf
000006d0: 93c8 218e c3a4 a8bf d3fd 9137 980d d33f
000006e0: bf26 a703 0e2c c63f f57f 2e90 bbc0 743f
000006f0: e924 cad6 22dd c4bf 2fef 7ed7 184e 75bf
00000700: dd8b e185 1226 81bf 80f8 cf8e 16b1 d93f
00000710: 9941 f0f5 8f01 cd3f e700 eaa3 381e b73f
00000720: 2032 a17a 69dc d0bf f2da e3ac f103 80bf
00000730: 5e84 2075 19dd 9d3f 8079 d884 50a3 c23f
00000740: 7c51 13d6 a7f3 a63f 3bb3 11a2 0fd4 b53f
00000750: c7e7 d4e5 53c3 953f 8c9b dae0 b775 b6bf
00000760: 7e11 c610 ffd4 a3bf c2b5 782d 49fe d13f
00000770: 0dca d591 fa95 cebf 5188 951a 43a6 b73f
00000780: 5621 c435 db87 c33f 6449 4b56 30ef af3f
00000790: 2a3e 79d9 3015 973f 074d bcdf e1b4 ca3f
000007a0: a5d3 c405 cef6 d13f 7b08 5d2b e117 e0bf
000007b0: ae7e e7a0 ea39 e5bf 1406 04a7 0edb dabf
000007c0: 8170 dd33 43f0 6cbf a687 f607 f388 adbf
000007d0: ad86 4f28 9472 d23f 24a1 d913 b94b d0bf
000007e0: 581f 6bef 9929 b13f 7cd9 0590 aa8e c23f
000007f0: a808 6f8c 216a b3bf 220e afbf 36b2 c9bf
0.006466081339993411 -0.16632049414142394 -0.2063309083820968 0.08346308417568685 0.40318262593007265 -0.15744605954299018 0.00986558264209374 0.1349889221653283
-0.06887215464756587 0.061739255568891024 0.45938980795930595 0.2585232225405391 0.2522998656779724 -0.02223913930074657 0.21183537974733802 0.11689883754653375
-0.05095033155401386 0.11527097047988152 -0.06552783504461494 0.1286061404301675 -0.026215276065619672 0.44636665013742094 -0.27678569994263114 -0.14086882919467328
0.13860591728438482 0.36174353327623404 0.0004865869726087806 0.20306552875094877 -0.05628044337518715 0.24037834362617858 0.37702674059989705 0.10106456520988898
0.24324242687590455 -0.1419302171176961 0.14153284568792723 -0.16160763658879915 0.09725603630094658 0.3531586481589398 0.11842314129641135 -0.10215870611345486
0.5858808623816092 0.20484310379572568 -0.081105000323518 -0.1081569711023404 -0.09518246445584412 0.2270301908209957 0.13663986828578176 -0.0806888403690343
0.33643433554392416 0.29754385995559707 0.04173983237476276 0.010934449081683792 -0.42243834069274266 -0.11280662062932854 -0.08094064770640559 0.00899016410378214
0.060267712621697105 -0.006732028655927479 -0.005318372014225431 0.06310538055972434 0.0595664472964321 0.4699792021380971 0.04251605541147344 0.2004607976790328
0.21162584065771187 0.014658448966918087 0.2165589915848474 0.037610879569807375 0.25605012493820806 0.132529001269335 0.07396829046726455 -0.16957202336460417
0.1961147238381185 0.03833833019446274 0.2091678518799673 0.29071142648572057 0.08346033927634698 -0.09446103516128188 0.07933683425446328 -0.02375372141011169
0.08897088140706003 -0.06495320609818712 0.2229390612625341 -0.1887865747158263 -0.07507871192894375 0.21374890996020596 0.17586277507908152 -0.010932328092777385
0.06452946511170043 -0.05233942334030598 -0.09887976135229234 0.1952780868472262 0.18482394858349716 -0.1480771582386726 -0.028976704385061114 -0.1887452582200083
0.14209950646970118 0.171981708052824 0.14943349848233636 -0.025997709751513075 -0.1584460155268843 -0.2143495315988022 -0.12122916159720751 0.37972873877858376
0.06825271421049517 -0.1837066838040731 -0.07143774682437545 0.004564179011233571 0.16399918337470754 -0.02992189735143002 -0.10415483078686058 0.27159398288058967
0.42654675501644423 0.30433132840290505 -0.1852474588089888 -0.09443333764184739 -0.1445086192626645 -0.27201372399997964 0.16186750357461596 0.05063638670739316
-0.01785662666237831 -0.48467576129514073 0.2725923847964009 -0.10175961114694493 0.12260801786785665 -0.2548344745415704 0.3729501078788994 0.059779218499267296
-0.06135216352816683 0.18975968799960863 0.7267251754734404 -0.17516035536232455 0.12730865839070776 -0.0786920394731144 0.22251590387525896 -0.08564848187155903
0.26192788964121655 -0.03374206305771746 0.17055733741417323 0.1320164162277085 0.32098693375142184 0.03292170343007738 0.22783912171122028 -0.16641060591071866
0.2222475125646128 -0.227376574439328 0.16615470044090883 0.08342563472569625 -0.17825153631192805 -0.006375360176062177 0.13985829754008403 -0.030268021942964185
0.01976475299171344 -0.061291727194437304 0.3407921043110545 -0.06507121532255782 -0.014310287285636634 0.4993527136032184 0.21263130341142603 -0.00797511618166469
0.10374234702789975 0.05021300415333839 0.12000463380817458 0.07012942791220811 -0.09908559201384497 0.08142676703986397 -0.22950513939247041 0.06916196467285624
0.10955263654183611 -0.11481752609644647 0.07539509866741882 -0.007614481836889116 -0.13511401375549192 0.017692849679289486 0.12965727898141077 -0.14605449811326002
0.007452512795429435 -0.173707315981932 -0.14667301942385585 -0.006136885398514241 -0.1646204808953798 -0.01777722710541642 0.04402550155253029 0.007926830496414284
0.09827626547190418 -0.2954571406600391 -0.1867141199687528 0.14207282695353649 0.004086474145045783 -0.11057224863844484 0.10962621496428086 -0.014761713379025345
-0.2669674476167174 0.3276730205993217 -0.11920912017186394 -0.07227009491632423 -0.2671988731102105 0.02670203042586935 -0.048891824987210335 -0.08215634965619507
-0.02781286375983692 0.17235686776852205 -0.3634860831138845 0.14240572495726092 -0.08783729818005735 0.1631628327671296 -0.19754526022755708 0.2094730513269058
-0.14228376409101073 -0.02994545218290154 0.04524288470059281 0.2867902280953572 0.22979008663814085 0.03761091096812038 0.1459175697297379 -0.1677595306250046
-0.3707199002023299 -0.10846118946435176 -0.048132048702329254 0.297704748409129 0.1732194440685841 0.005066616696154815 -0.16299853790068333 -0.005201432264524005
-0.00837339850494872 0.40143360086938884 0.2266101790305697 0.0903048896962023 -0.2634528825335867 -0.007820022667585278 0.02916373994242282 0.145608963838594
0.04482769478059631 0.08526704508558407 0.021252928641139392 -0.08773373832319303 -0.03873440818555006 0.28114537659243066 -0.23895198937277976 0.09238070868517069
0.15258350491809364 0.062371740850397456 0.022541774056945275 0.20864509033763332 0.2806887680374593 -0.5029149863187422 -0.6633198874150901 -0.4196201926243657
-0.003532534842561275 -0.05768546554760627 0.2882433313044242 -0.25462176264274405 0.06704103560616426 0.14497882873883927 -0.07583818129117736 -0.20075115546761518

module.down_path.0.net.3.bias f8 [8]
00000000: 1050 06e0 bcd0 bc3f 6564 0e60 a755 b0bf
00000010: 9d48 0920 95e3 b1bf 1203 04e0 9d51 ae3f
00000020: 606f 0cc0 27c9 b3bf 151f ed3f f236 84bf
00000030: 641d 08e0 862c b53f 925c f7bf b329 b13f
0.11256008595802336 -0.06380697341082138 -0.06987888366828306 0.05921643600050265 -0.07728813589750194 -0.009870426727175233 0.08271067590259445 0.0670425742786043

module.down_path.0.net.4.weight f8 [8]
00000000: 97e0 2b39 9b81 f03f d747 abf9 b4e3 f03f
00000010: 41be d4f2 0186 da3f 5c27 7a02 0bc0 e93f
00000020: df18 34d0 6f10 f23f 6fb3 2a39 bd03 f53f
00000030: 388c 1699 396c f23f f51a 3cd1 f9c6 f03f
1.0316421731240888 1.0555925133416986 0.41442917551009734 0.804692749822816 1.1290128834676165 1.3134128792837279 1.1514221172335635 1.0485780881151048

module.down_path.0.net.4.bias f8 [8]
00000000: 77c6 3573 dbcb ea3f cfb8 ce55 9bde f43f
00000010: 8c80 057d 5f9d a5bf 75e7 17a4 ced1 ed3f
00000020: 2fdf 4e29 50cf d83f dfce 17af b021 d43f
00000030: 0174 fde9 aec0 cfbf 1a55 a147 3e32 b73f
0.8373849153706051 1.304347357926918 -0.04221628571645039 0.9318612294148197 0.38765338930123766 0.31455628489423576 -0.24806772637649036 0.09061040161880776

module.down_path.0.net.4.running_mean f8 [8]
00000000: 37d8 6a9e a07d 0140 f050 c583 2526 db3f
00000010: 22dc 67bd 2f61 d0bf 4d3c 14c9 10e4 c4bf
00000020: a948 7d6c 35b9 f43f a09d 7846 10c4 f73f
00000030: 2ffb df30 50dd f03f 9ac9 56c9 25ae fc3f
2.186341512332571 0.42420328014601605 -0.25593179222727447 -0.1632100087958598 1.2952169645182414 1.4853670838145732 1.054031554143602 1.7925165047459815

module.down_path.0.net.4.running_var f8 [8]
00000000: ba34 7f77 d0f5 1040 ed31 f8c8 9c72 0840
00000010: cdb8 1d0c 44f7 c63f 64cf c033 ef00 e33f
00000020: c3ef 37d5 14e1 0740 a030 0e03 173f 2040
00000030: 7899 085e d1f4 1640 5bdd 0172 30a3 0440
4.240053050173794 3.055963106226264 0.17942095367056368 0.5938640604785914 2.984903016824292 8.123222442133113 5.739079922938224 2.579682245904832

module.down_path.1.weight f8 [16, 8, 3, 3]
00000000: ccec e3d5 a9a1 d4bf 881b b56f cfa9 acbf
00000010: 414a 475a 2162 a5bf 649c 9db1 c988 bfbf
00000020: 364d 79f8 ee81 c53f 70a7 047c 072f ba3f
00000030: f540 6253 6d1d b0bf beb8 ff24 a343 bc3f
00000040: 3ce7 cb7b b0b4 b03f 8339 5fe9 162b af3f
00000050: b8fd 2fb1 17e2 97bf 503a f836 d949 c13f
00000060: 5ece e444 692c c13f 5a8c 4f5d d1aa a3bf
00000070: 8a13 66f2 bd60 c93f e9c5 67fe a92b 903f
00000080: 9ce9 001f 23a5 cabf 43e4 326f df13 c7bf
00000090: 8cb5 a561 2102 a43f dcc9 b516 0929 cb3f
000000a0: 79a1 269a 9149 b23f ec76 14ab cd55 d33f
000000b0: 019c 494a e30d a13f ad79 17d7 1b06 c3bf
000000c0: 98a2 c3fc 5e98 cd3f 2324 3cb0 64f1 70bf
000000d0: 7a3d 8ccc 0887 c83f aeb8 4a19 a959 adbf
000000e0: 442d 4e0a 7596 9f3f 9748 1a12 149f b43f
000000f0: 2c18 aac2 9066 a83f 307d 7deb 2479 c13f
00000100: ea84 697b e1b4 e33f 5935 a55b 21c0 c0bf
00000110: c651 bbc9 1f00 d03f 2225 e280 ff1a ac3f
00000120: b304 540c 9593 973f bf26 ad0e 007b 90bf
00000130: 05e6 63d0 000b d03f bbd5 e353 1dfd c0bf
00000140: 0e93 8be8 4a92 93bf 5f17 d04e 12cd c93f
00000150: b796 2bdc 599f 9ebf b3cd 17a0 9969 df3f
00000160: c0c3 1975 fd83 b1bf 9562 2652 0a9a 933f
00000170: 935f f538 c80b c83f bc84 1796 0206 babf
00000180: 56fe 7d67 cce0 afbf 1bdb 6380 ff39 a53f
00000190: 95ad c14e 5341 cfbf 011b a101 6d98 c93f
000001a0: 26b6 ba81 1520 cb3f 459c 92c9 85b6 a03f
000001b0: 8485 69ae 5623 cd3f 59d8 1d48 0688 d33f
000001c0: 5fa8 caa5 9175 d2bf a910 be90 1246 cebf
000001d0: 11ba 4e0e b7de b9bf 038c 1fe9 fc57 b4bf
000001e0: 46ee 79c2 3bc1 d6bf aa09 2e01 5d2b b13f
000001f0: 9a63 5850 29d0 bebf 332a 4418 d4c1 b73f
00000200: cfa5 c446 4d5c d2bf df47 334a fb7f 7c3f
00000210: 0637 a58c b956 d13f 1a2d ec59 c845 b3bf
00000220: bfce 5d33 d2cc be3f d199 0177 e9a8 a43f
00000230: dd60 3d70 3258 d1bf e90b 5dce cbe6 c0bf
00000240: c39e fc29 5182 c6bf c41d 19da 86e7 d0bf
00000250: 5ca3 5ff2 ae22 c2bf 3bce d6bb f084 c1bf
00000260: a36f d711 4750 b2bf fd53 c40b 6a83 bd3f
00000270: 1208 3f25 3e07 b5bf 640a d846 5c0f d5bf
00000280: 3852 a0fc 6ff0 d3bf 51e0 adec 56bc a43f
00000290: bf9e 447c 46c3 a53f 68bd 3afe fbf7 b93f
000002a0: bb77 8509 9d78 bf3f 42f3 d694 9919 d2bf
000002b0: 32e0 ca51 b0e1 d6bf 4024 17e3 350b 5e3f
000002c0: afcf d5ce 45aa 9cbf aea0 1186 16c9 c3bf
000002d0: 853e e12d f3c5 cc3f 8158 3a83 5ec8 763f
000002e0: f25a 48bd fa04 b83f 3ca5 b580 aa89 943f
000002f0: f113 a825 50c7 7b3f 4b83 56ff 2074 d7bf
00000300: 8a31 3251 99de a83f b7fc d327 aaf8 afbf
00000310: eccc 99cb 9d18 9fbf 082d 22b1 9863 a53f
00000320: c84a 3178 5208 acbf ab40 82af 396b bbbf
00000330: c3e6 5b35 91cb a33f 8522 db4a 651b 7d3f
00000340: b5bc 317d 5ad8 ce3f 94ca c870 b388 983f
00000350: 3454 2ede 1c03 c83f 976a 0156 9c8e d93f
00000360: e484 ffa1 caeb b63f 233d 9423 cff7 993f
00000370: a6a9 46d8 0c7a c5bf f614 7c4e 2c0e c3bf
00000380: 0623 fc32 878c e0bf ab85 e72a 1627 c2bf
00000390: 24ec 6abe 441b b03f fbd9 44b0 1153 c7bf
000003a0: 4e03 e6f2 f4fb c53f 3958 5c6c 4ca5 a7bf
000003b0: e97a d6b6 9c27 d33f b392 fd2b dc54 d43f
000003c0: e637 0cde dcb4 c13f 376d f7ba b303 e83f
000003d0: 84c4 0e98 c7c8 b7bf deb9 409d bf04 943f
000003e0: 9c8e 4a93 74f1 bc3f 5dee a964 8d77 c4bf
000003f0: cf09 6c5f 1704 853f 7044 ef98 57aa c83f
00000400: 1450 166d 94ba c13f e27e 09b7 5e88 c53f
00000410: cb13 aa46 32c6 cd3f ff88 a1e8 6253 df3f
00000420: 2f2e d70a cc11 ca3f eafe 4920 fb17 d33f
00000430: 2c30 112e 3d4d d23f 4d6a 5258 841f bcbf
00000440: fa52 77a3 dc95 98bf 18c9 1665 b208 c7bf
00000450: be71 c557 4842 c7bf 2ecb bec9 c01a b43f
00000460: 8008 a978 f641 afbf 2cb7 7562 af62 a4bf
00000470: 49f7 9ac9 260e cf3f 2e7a 59e9 8ff6 af3f
00000480: ff41 f8db 1c06 bc3f 93ff 9acb 9787 d63f
00000490: 2423 544c 0c5e b03f 5f42 f1ec f9be c7bf
000004a0: 98b9 243f b2d9 afbf 303a f822 077e c23f
000004b0: 0d08 749d f106 b7bf 7d5b 7505 4fd5 c2bf
000004c0: 38db 1131 2363 b63f f98d 0c1d 0bfb cabf
000004d0: 9ebb c8ca 99ec ae3f 28dd b658 af77 be3f
000004e0: a99b 361d ccf3 cf3f f668 b51b bbee c3bf
000004f0: 4677 f7a8 a0b0 d2bf e990 c527 95cc acbf
00000500: f67c 7228 0a55 c5bf a831 252e 19c6 cfbf
00000510: 66fe 5ca0 fa02 c53f c524 ec4c 740c 76bf
00000520: e626 5e45 d4a4 b13f 5701 b3a3 084e c53f
00000530: acbd 760c b589 cd3f de2e 86a7 de24 b93f
00000540: 1ff1 19a2 2c35 b0bf b17a f466 fa81 a03f
00000550: 9bd3 2d80 9366 c1bf 6824 5bf3 7050 d1bf
00000560: a3f9 1c73 8f7f cabf 8215 5af9 6948 853f
00000570: ae21 0279 da94 c4bf c2ac b209 cd9b d0bf
00000580: 7f5e 9a7c 0f74 a9bf 0788 a306 f86e c3bf
00000590: 5c78 7924 3bd0 cd3f 0afe 3616 42f0 cb3f
000005a0: 3f38 941e 5c9c c3bf 79ed 7bde bff1 d63f
000005b0: 3961 5e76 b994 d03f d199 7fc5 85e3 ce3f
000005c0: 9faf af1a 3d72 da3f 3e4d b940 660b ccbf
000005d0: 05b0 7b02 96f2 a33f bba4 880f c2c8 ca3f
000005e0: 99bc 0e19 bc97 99bf 554f 48e7 baaf bd3f
000005f0: 620f 582d fc0a d6bf 5191 2d72 9f33 b2bf
00000600: 88c2 6172 68f5 c53f 7855 ce4f 9503 b83f
00000610: 6698 ca0a 70da d53f f661 b60c f3e0 b73f
00000620: 66fb b911 4be9 9e3f d6d4 9626 3976 ae3f
00000630: 2362 441c 2ddb c23f d5c9 c848 7fd6 d23f
00000640: 83a0 033e 6a43 babf c1b0 cf0c 9590 c53f
00000650: 0133 7bc6 de4a b0bf 751d 2a56 6af8 e3bf
00000660: 69c0 61d6 5756 a5bf 957b 8706 8d4f ab3f
00000670: 099d 542d 480c cebf 3bc2 f598 6c3c b8bf
00000680: 8be9 941f 9e6b dabf fb7d 01b6 2a45 bdbf
00000690: 2b0f d702 cf5d d5bf b6e5 9fd8 b7cb d3bf
000006a0: be3c fdbb 35da b33f 22cd e4c3 69d3 b8bf
000006b0: e69c 774e 8a09 ccbf 7a24 7885 f61e c4bf
000006c0: f821 7888 7b0a c7bf df63 cbf5 f26b a13f
000006d0: 21dc 2440 289b b0bf 67f1 7627 4e4b a4bf
000006e0: 025c 7178 2116 c53f d379 da71 f950 d13f
000006f0: 9098 cd71 5793 d1bf 9972 2668 c119 b6bf
00000700: 69f7 6a1b 24a6 c3bf c6e7 f4a3 b82d 903f
00000710: bab4 fc71 c843 a03f acc1 153b ce75 c93f
00000720: 22af 898e 8c93 d0bf 7173 9c39 0c2c debf
00000730: 5708 212d f16e 96bf 36d7 15ff e74f 9cbf
00000740: 6a21 f3ca 3fbf d23f 5d6b c4b3 8b34 bc3f
00000750: 5a1a 6762 f679 d0bf 3a92 1430 600d d0bf
00000760: c0aa ae15 8f47 be3f c43a 4507 aa80 c6bf
00000770: 8ab5 e620 45e4 cfbf e5c8 cd48 793c bf3f
00000780: f8d0 744c 6fe6 a93f fa28 3251 f05f c33f
00000790: 4ad2 39ee 14fa d03f 438b a4d5 79b3 c93f
000007a0: 683e 26d9 7440 bcbf ca28 5f24 56e0 d0bf
000007b0: 964a 68f9 c708 aa3f a24b 3b71 04e5 b0bf
000007c0: df11 8f4d f6ed c1bf c2db 9692 3ccc bb3f
000007d0: c9dc 1434 e67b b93f dcb8 ea3d cb8c bd3f
000007e0: e25e a423 d452 ba3f ee42 c9ea 9bd1 dcbf
000007f0: 3b30 6257 392b d13f 27c4 fafb 8cda c2bf
-0.32236715209701283 -0.0559830497609744 -0.04176429965049922 -0.12318096720047006 0.16802775509368367 0.10228010919368358 -0.0629490212033977 0.11040706303876655
0.06525710127234857 0.060875621784009425 -0.0233234121224066 0.13506617721619074 0.13416782249406628 -0.03841261161849081 0.19826483093143238 0.015791565087004775
-0.20816458715291908 -0.18029396943691908 0.039078753633343316 0.21218980416195066 0.07143507016610852 0.30211202342057564 0.03330908090429575 -0.14862392427944596
0.2312124952507204 -0.004136460603839462 0.19162092197118935 -0.05732468065012718 0.03084738612555539 0.08055234376868935 0.04765751243853375 0.13650952814621453
0.6158301744837023 -0.13086335158224463 0.25000757885325375 0.05489347885402142 0.023023918988660252 -0.016094208617949187 0.2506715807972742 -0.13272444339933806
-0.01911274952262248 0.20157078598293318 -0.029904750884176958 0.49082031854706115 -0.06842025860693379 0.01914230467227414 0.18785956174064875 -0.10165420688965104
-0.06226195109684045 0.0414581150270605 -0.24418107362303645 0.1999641664462715 0.2119166263050129 0.032642536979715454 0.22764094845028293 0.30517727892527585
-0.28842583838070895 -0.23651344363691365 -0.10105461215309954 -0.07946758929715263 -0.355544032972578 0.06706792143635334 -0.12036379062227667 0.09280133812368589
-0.28688365851357117 0.0069579902658052075 0.27091826186084267 -0.07528354831099585 0.12031282190383318 0.04035119607651761 -0.27100811921037665 -0.13204333855000464
-0.1758519606603298 -0.26413127230304334 -0.1416834529366281 -0.136869518011382 -0.07153743920883797 0.11528647219923012 -0.08214176568347423 -0.32906252783155865
-0.3115501372388141 0.04049941672468605 0.042505457562865605 0.10144019085668321 0.12293416483359369 -0.28281249556657795 -0.35752494800135814 0.001833727478116623
-0.027993288754671827 -0.15457421823817213 0.2247909521124606 0.0055621807001867704 0.09382598038824222 0.02005640421467557 0.006781876635163706 -0.36646294532151974
0.04857329479372925 -0.06244403587515406 -0.03036734156780778 0.041775485632650045 -0.05475099293893987 -0.1071048787582664 0.03866246963839395 0.007106204675161214
0.2409775840091918 0.02395897270089138 0.18759499405556002 0.399329265584734 0.08953539328605903 0.025359379335950238 -0.16778717575409735 -0.14887002784977427
-0.5171543117331516 -0.1418178281301555 0.0629160847555999 -0.18222256762392405 0.17175161228444796 -0.04618300268900594 0.29929273467307255 0.3176794461817664
0.138331993505232 0.7504519130410817 -0.09290740454049923 0.019549364064170287 0.11305931659677032 -0.15989844718193327 0.010261709785031407 0.19269843070518133
0.1385064633037706 0.1682241815315058 0.2326109738388865 0.4894644996440007 0.2036681225712171 0.2983386817286219 0.28596429346794383 -0.10985591083810071
-0.024009177663020666 -0.17995290695177668 -0.18171028409677875 0.07853321957990708 -0.061050131062544644 -0.039815407532712704 0.2426193699265531 0.062427994952248475
0.10946827288012882 0.35202593692155765 0.06393505919926362 -0.18551563329176 -0.06220776577753212 0.14447106559278344 -0.08994970411370691 -0.14713466421627777
0.08745021770469641 -0.21078623693857404 0.06039887047187807 0.11901374736668358 0.24962760378295215 -0.15572298863373363 -0.29203049183512453 -0.05624834166045096
-0.1666577050682247 -0.24823298218906342 0.1641534121535983 -0.005382971094840265 0.06892134374188749 0.16644390099646486 0.2307649908884576 0.09821883764214642
-0.06331137616684089 0.0322416544606673 -0.1359428764223168 -0.27053474202381844 -0.20701783295403428 0.010392024919620328 -0.16079264553651512 -0.25950933405938426
-0.04971359630615967 -0.15182400058898812 0.23291720658284276 0.21826959690768916 -0.15320922368158738 0.35850521780931605 0.2590774208015492 0.24131843703726344
0.41322257619935415 -0.21909788284629345 0.038960159113997896 0.2092516494606452 -0.02499288466395608 0.11596267839950987 -0.3444204752743102 -0.07110020196484369
0.17155175766994923 0.09380467604053944 0.34145737699362255 0.0932762056385242 0.030186818081797816 0.059495721779436 0.1473137271903094 0.29434187038273524
-0.10259117139833233 0.16847479939986523 -0.06364242883428163 -0.6240741427326798 -0.04167437068906638 0.053341300055527764 -0.2347498151150165 -0.09467200025915982
-0.41281846126698757 -0.11433665221692728 -0.33385062482215017 -0.3093089690661047 0.07754836883144642 -0.096975908589958 -0.219041145624238 -0.15719491498046861
-0.1800074020723199 0.03402671099110654 -0.06486751142516357 -0.039637033765276546 0.1647378767108592 0.2705672847604578 -0.27461801637253647 -0.08633049767235902
-0.15350772227059942 0.015799412734146555 0.03176714316792002 0.1989076412678633 -0.2590056793185217 -0.4714384615525012 -0.021907585505921947 -0.02764856810013968
0.29292292422589716 0.11017678393220139 -0.2574439965214076 -0.2508163899931649 0.1182794025359426 -0.17580151896478047 -0.24915374857429767 0.1220165064567343
0.05058620270065889 0.15136531796117209 0.26526377929920797 0.20078967029356862 -0.11035852719782613 -0.26369241287160305 0.0508482448532465 -0.06599452747768322
-0.14007452761701608 0.10858515337791544 0.09954680224915359 0.11542959462778718 0.10282636518638413 -0.45029352119767807 0.2682631829600301 -0.14729463866891132
