results/old/run_1/saved_model_unet3_64_128_7.pt (torch, 351968 bytes, 75 tensors)

module.down_path.0.block.0.weight f8 [8, 4, 3, 3]
0.08398825509674175 0.4702212055276368 0.10042864192928302 0.007388341753404464 -0.42952514836900413 0.23175346624207013 0.1216469470855165 0.14167020293718605
0.04807597705718766 -0.35734745589340966 0.19024014679269743 -0.3021210252927033 0.127574106306139 1.678766331087098 0.8157876705638122 -0.2524211083652843
-0.07701519332166262 -0.26813181998368046 -0.12348771825102778 0.002559036994400591 -0.10311389249484368 0.052460866289222745 0.22434232620299985 0.16287440962428623
-0.10097838044819528 -0.17419831847865133 -0.052245467114923304 -0.010082553293627814 -0.03320189797704067 -0.05372869793605354 -0.10031974167264565 0.07768771462218195
-0.10280792781089705 0.04589733340274663 -0.08314286764626748 0.04120456551181254 0.3039628704193206 0.553873087673259 0.19899579001419723 -0.03647145065629025
-0.7480276182999868 -0.006190735879044221 0.14696278068188096 0.3076107213426542 -0.004752281266966998 0.300506673132776 0.11644658319212421 0.19935790853091476
-0.6543397799253612 -0.9058764775091466 -0.7463577924370205 0.31149088416630977 -0.07207686853871931 0.2714623565054962 -0.24772363780143766 0.12757416581917735
-0.18587833225550493 0.1386442756743034 0.32796721238901233 -0.026603795298188817 -0.2324164904590431 -0.156749536086157 0.03621417479920163 -0.09511930015134393
0.0322133216402061 -0.09556715940758781 -0.01031877058406642 -0.04039886655549399 -0.009218557261424612 -0.02450748719290355 -0.07850629212326306 0.056726391957989585
-0.1030266485351018 -0.11008511472202273 -0.05149006753499755 0.39923726503974427 0.8453919017302036 0.23746271341330738 0.1798058642271846 1.0641486345581024
-0.09153481486119917 0.09866146198156349 -0.00436866700803395 0.07564114881449464 0.02263263640882985 -0.3147471701815242 0.1618070961506082 0.139808289444865
-0.3925544428366878 0.20514705142054426 -0.07262147470645494 0.1456399121411948 -0.09953861688303625 0.28119687999345777 0.589647518125456 0.24606838021233912
0.2631152686636638 0.7458797667007436 0.12535961732827947 -0.021912991423577093 0.043631253397248736 -0.06903871104783668 0.04823074257749816 -0.09310986973142844
0.14477073777741134 -0.023836901333324913 0.06445100303056131 -0.09353142096979511 -0.09156132580492704 0.32040039630399514 0.056157040162469515 0.31312509721771914
0.8791941719155161 0.6719604192191747 -0.2594355321449189 0.7081893245129351 -0.03791317228675244 0.13050035044059394 0.1404121584829718 0.33216189170026406
-0.1073862148133134 -0.47431128804163986 -0.14162426692056979 0.12290004702811343 0.051679945920783475 0.17352844189661276 0.14141486917490237 -0.18655846367341855
0.015760382509845232 -0.08946604455002562 -1.2839487582513485 -0.48043439371051283 0.08420256612633739 -0.24638999549631665 0.06412021623905627 -0.05281685758983747
-0.027449262136600868 -0.0630682855884673 0.02796440134905293 -0.0399413395069124 0.029190184740496516 -0.02918929064532649 0.05765411393738388 -0.014868125513736822
0.11524856687800013 -0.37873373395557725 -0.16733941547690653 -0.38861501924311437 0.8324347102840426 0.03593042690117409 -0.11302739493975177 -0.1362935088476139
-0.29253267569664165 -0.07648159110209214 0.13848612579254233 -0.12371579050405666 -0.09845678125766881 0.1572307865277409 0.10221316487531315 0.11754312074169711
-0.2550422351570748 0.042580960859358426 -0.2931836306573239 0.15294437514652623 -0.29218753647508633 -0.14872169484577916 0.5616443259463741 -0.069124745237459
0.022502589599676544 -0.33272728702804216 -0.08297300509112923 0.04693855952721165 -0.2927188465977901 -0.07587276617265411 -0.05900580255969138 -0.1401622280897238
-0.08474533145344092 0.05689858325336998 -0.09187118067884273 0.03215268053888349 0.17257748974358875 -0.49064259702812696 -0.10870275213157579 -0.4795256516932423
-0.7835915588012324 -0.7404107678028188 0.2806591729167425 -0.8664983696431844 0.0406915820885069 -0.08266058439112382 -0.10578101404236162 -0.22300738681602658
0.05280439545227844 0.4307483922283377 0.08547302554808828 -0.07965939091757317 -0.0211593897544983 -0.20428489522997145 -0.18396606195415688 0.2240792057802447
-0.02233009696191013 0.25856999961822935 1.1728392160287848 0.5692823057030261 -0.10070147008105731 0.3416994712830394 -0.07322939020965383 0.018658689370059076
0.02869254102449742 0.0003999560031076758 -0.01855487713298854 0.09875410998792074 0.006824572255618833 0.006393265879478183 -0.05697924169629544 0.00023253556342661946
-0.1356526769909696 -0.7889498003090162 -0.036711039412195515 -0.47552174615719794 -1.0465583234142946 -0.16732136199334213 0.17587171645534433 -0.28902067887282434
0.22345716434503926 -0.2157675853110354 0.25936416130935974 -0.2663633123592042 -4.217171534081209e-05 0.5314760889789655 -0.16457809759548714 -0.1291779621775552
0.09064751416756008 -0.08603524016967795 -0.19552911734565365 -0.6361212458912646 -0.14732070507476222 -0.3567146352745115 -0.8126809180603911 -0.22152464437982416
0.049082096757721794 -0.05974991273540514 0.05269879533461835 -0.056044195013361706 0.12145763675818194 -0.07043429505882325 0.03145186172195106 -0.056257357033321624
0.028406408947072595 -0.0507128834743761 0.07751601891113574 -0.033928561465439 -0.1086409804058811 -0.487532889567385 -0.12844087112471572 -0.010155744398178257
00000000: 057c e318 4180 b53f 0a1f e8ae 1a18 de3f
00000010: c0ff aa04 b1b5 b93f 399e 3de3 3c43 7e3f
00000020: a07b 430c 577d dbbf 3f46 1ffb 18aa cd3f
00000030: 29fa 631b 4124 bf3f 2d69 37cc 3f22 c23f
00000040: dc23 5e1a 6a9d a83f 6abe 17dd c7de d6bf
00000050: 2531 6e04 ca59 c83f cb3b c46c f355 d3bf
00000060: 9d5d 332b 5954 c03f e551 9a15 3adc fa3f
00000070: aba6 b1be ee1a ea3f 18ef 4fdd aa27 d0bf
00000080: a895 9c88 44b7 b3bf 1133 765d 1229 d1bf
00000090: 1888 581f e49c bfbf a213 6886 b0f6 643f
000000a0: 3653 070c ac65 babf 9f67 1092 26dc aa3f
000000b0: e341 13d5 3fb7 cc3f e886 5893 11d9 c43f
000000c0: 87c7 a019 b8d9 b9bf e926 7168 214c c6bf
000000d0: c3e4 3ef9 eabf aabf b21e 4065 29a6 84bf
000000e0: 33fa f3d3 d6ff a0bf 15e9 fbf0 5382 abbf
000000f0: f68e a0f9 8dae b9bf c16e 9a91 57e3 b33f
00000100: 0da3 b7cf 9e51 babf a576 e0f3 da7f a73f
00000110: 4bb6 6fd9 d948 b5bf 4564 a3ca c318 a53f
00000120: 9a8d e9ae 2074 d33f 371e b60d 54b9 e13f
00000130: 618a 13ad b178 c93f 46e6 9ccf 62ac a2bf
00000140: 884d a39d d7ef e7bf b7fc 3702 755b 79bf
00000150: d802 6128 adcf c23f ec33 04e1 e4af d33f
00000160: 5ce0 f7c9 2077 73bf 3671 5557 803b d33f
00000170: a186 8a7a 71cf bd3f 296c ab58 8f84 c93f
00000180: 5a0a 68fa 59f0 e4bf 44c2 a3aa f0fc ecbf
00000190: 5f37 b4bc 29e2 e7bf 6cc5 1f76 77ef d33f
000001a0: 0801 2c31 a173 b2bf 1651 d2a5 a35f d13f
000001b0: 53d3 667d 68b5 cfbf 2801 01ab 5954 c03f
000001c0: ea44 0977 dcca c7bf 293d e67a 18bf c13f
000001d0: 01c0 d730 6afd d43f 0753 057b 063e 9bbf
000001e0: c84d c9d4 d2bf cdbf 969c 9369 5e10 c4bf
000001f0: cf11 d410 aa8a a23f 6e51 5e0b bd59 b8bf
00000200: c463 e1b5 437e a03f 542a 3ae0 1677 b8bf
00000210: 9545 8cf1 0122 85bf 2479 4d05 29af a4bf
00000220: bb0a a2cf 2de1 82bf e8ac 00a0 7d18 99bf
00000230: 6d1b 3305 fd18 b4bf 532d 8fdc 3d0b ad3f
00000240: b822 1356 f45f babf 3eeb 81bf 892e bcbf
00000250: 1467 43f8 e75c aabf 012c 2c75 1a8d d93f
00000260: c880 4751 730d eb3f f095 109e 2d65 ce3f
00000270: 140d 3ee9 e003 c73f 6429 f8b7 c006 f13f
00000280: 3f36 465c d36e b7bf db1b 96a8 e041 b93f
00000290: 7a6f d31e e1e4 71bf 25df 63e4 375d b33f
000002a0: 82f0 ca84 022d 973f 5a0b 9c50 d124 d4bf
000002b0: a921 1d4d 18b6 c43f 040d 70ef 3ce5 c13f
000002c0: 4f84 78ab 9c1f d9bf b96c 5c32 4242 ca3f
000002d0: e6fc d92a 5297 b2bf 65c2 d121 54a4 c23f
000002e0: 8aa3 33e0 5c7b b9bf eac8 d332 21ff d13f
000002f0: 5b86 d078 64de e23f 80bc cb2e 2b7f cf3f
00000300: b146 7f6c e1d6 d03f 2b4a 973e 3fde e73f
00000310: 1bff 54b0 c80b c03f ab50 16f6 5b70 96bf
00000320: a36e d9ec d556 a63f 8ac3 1b5e 85ac b1bf
00000330: e175 102c b3b1 a83f 096a 6e65 0cd6 b7bf
00000340: acfc 15f8 d887 c23f 578f a85e b368 98bf
00000350: aaed 3566 dc7f b03f a4b3 36da acf1 b7bf
00000360: a01a e923 9070 b7bf ff11 f0a9 7081 d43f
00000370: f63c e095 9dc0 ac3f d9d7 06d9 3d0a d43f
00000380: 0cc0 e6d0 5b22 ec3f fb16 1823 b380 e53f
00000390: ece5 7e7d 979a d0bf b419 85a8 7ca9 e63f
000003a0: 7751 1ef6 5a69 a3bf 5023 a148 3cb4 c03f
000003b0: b793 528e 06f9 c13f d120 75f3 2342 d53f
000003c0: e416 aab8 a97d bbbf 75cc 90bb 1d5b debf
000003d0: 8e35 5f75 be20 c2bf c1a0 a9a2 6076 bf3f
000003e0: fb78 2d3b cb75 aa3f c096 6f13 2e36 c63f
000003f0: 0e1d 23e7 e119 c23f a079 22d2 25e1 c7bf
00000400: de16 cf5d 7d23 903f f9e0 7127 3fe7 b6bf
00000410: a0de 66da 0d8b f4bf 2f0e 37e6 6fbf debf
00000420: 4a7c c0a3 4c8e b53f 2ff0 5b16 b589 cfbf
00000430: 975a c2b7 2e6a b03f 133b 0da8 cf0a abbf
00000440: af41 b4cc a81b 9cbf d66a 0440 3e25 b0bf
00000450: 7150 fc34 b3a2 9c3f 2599 e1f5 3073 a4bf
00000460: 036c 4c23 08e4 9d3f 5f47 dc22 cce3 9dbf
00000470: 458d ae0b d784 ad3f 75b1 ac06 2e73 8ebf
00000480: 91e1 a619 ee80 bd3f 79cb 4e6a 2c3d d8bf
00000490: 870c 67c2 606b c5bf b08c 9887 11df d8bf
000004a0: d234 171e 4ea3 ea3f cf97 f110 7965 a23f
000004b0: bf7c d104 5def bcbf db2b 94d1 1072 c1bf
000004c0: 8638 c8f8 dab8 d2bf 4d8f 872c 4c94 b3bf
000004d0: 6a46 9dd2 e9b9 c13f bfb5 368a d6ab bfbf
000004e0: 7b34 92af 7634 b9bf ffce 076f 2320 c43f
000004f0: 3631 5c58 a42a ba3f 0593 7453 4e17 be3f
00000500: d24b c6aa 9c52 d0bf 897a a5f4 2bcd a53f
00000510: f453 5946 85c3 d2bf 2745 ae68 ae93 c33f
00000520: 3865 5d5a 33b3 d2bf 7dbe c8ff 4f09 c3bf
00000530: 788e 7d85 fdf8 e13f cda3 23c8 28b2 b1bf
00000540: 9fa9 9f39 eb0a 973f 7b6c 1164 674b d5bf
00000550: be36 5107 b83d b5bf 4773 2eb4 5408 a83f
00000560: c4dc 43d4 e7bb d2bf dd5c 5ec9 656c b3bf
00000570: 6545 8930 0236 aebf 55d2 e3fc d5f0 c1bf
00000580: 1bca 14bb deb1 b5bf 461f 86a4 cf21 ad3f
00000590: bae5 75a4 de84 b7bf c956 c9ee 5076 a03f
000005a0: 0fbc 3ce9 0417 c63f f4a8 1035 b066 dfbf
000005b0: 82eb 638d f1d3 bbbf 6165 e75b 8cb0 debf
000005c0: 7122 cf9a 2e13 e9bf 2b38 2aec 71b1 e7bf
000005d0: 05fd 3fe4 51f6 d13f 17f4 f4c9 5aba ebbf
000005e0: 74d4 95ec 86d5 a43f cbcc a07a 3e29 b5bf
000005f0: 5083 d9eb 7614 bbbf ab14 928c 818b ccbf
00000600: b0ec 1a7f 2d09 ab3f f837 5bb4 6191 db3f
00000610: 7451 6b69 8fe1 b53f f36c cfce 8e64 b4bf
00000620: 69dc fe9b ceaa 95bf 822d 0ae8 0126 cabf
00000630: b460 d52d 338c c7bf 5618 459e a0ae cc3f
00000640: 60f1 ab70 b3dd 96bf dc91 052f 698c d03f
00000650: 64f5 c40d f3c3 f23f 7af3 a586 8f37 e23f
00000660: 6e42 a850 92c7 b9bf 3f27 8e75 67de d53f
00000670: da75 0e4c 29bf b2bf f9c2 8572 431b 933f
00000680: d07f 5bd5 9361 9d3f 2605 04f4 2536 3a3f
00000690: 22b4 deb9 0c00 93bf 8d63 be08 f347 b93f
000006a0: 0068 5a2a 15f4 7b3f 7432 df3d d32f 7a3f
000006b0: 32df 4517 622c adbf 60d0 b747 997a 2e3f
000006c0: a841 a521 115d c1bf 216a d0a6 133f e9bf
000006d0: 6ae7 5a13 cacb a2bf f10b 12c3 f26e debf
000006e0: 5cbc c6f0 b3be f0bf 9c7f d750 c96a c5bf
000006f0: 92c9 3be3 f682 c63f 8e18 e896 507f d2bf
00000700: 949c 758e 3e9a cc3f 1651 39b1 459e cbbf
00000710: b700 a523 6c99 d03f 0cf8 dbb4 180c d1bf
00000720: 5d3a 0b1b 311c 06bf 1ba9 9824 da01 e13f
00000730: e8be 6725 e510 c5bf ad50 7549 e788 c0bf
00000740: d538 d0ec ac34 b73f cc0f d5ce 6706 b6bf
00000750: 7e29 351e 1907 c9bf a699 6cf1 1a5b e4bf
00000760: 0fee 28a5 67db c2bf d28c 209f 69d4 d6bf
00000770: 64e2 a469 7b01 eabf ae47 6f67 eb5a ccbf
00000780: d07b c9e0 4921 a93f c85b 4662 8a97 aebf
00000790: a766 0025 56fb aa3f e612 6d21 d3b1 acbf
000007a0: 94d0 b901 d917 bf3f bf61 cb61 fb07 b2bf
000007b0: e5f9 fc5a 751a a03f 872a 3ca9 c3cd acbf
000007c0: 84aa b2d5 9116 9d3f 7340 0400 0af7 a9bf
000007d0: b4b2 23fe 16d8 b33f 02ed c99b 155f a1bf
000007e0: 3840 d931 e5cf bbbf a1a4 1a26 bd33 dfbf
000007f0: dda6 791e c070 c0bf cd24 74f0 88cc 84bf

module.down_path.0.block.0.bias f8 [8]
0.0819238051752494 0.13844752311029143 -0.06528556347504681 0.12391086667504471 -0.08753435313176705 0.05896648019623304 -0.14533609152191077 -0.07328488677766866
00000000: a5d7 fd5f f5f8 b43f a546 fcff a5b8 c13f
00000010: dbb8 0600 8eb6 b0bf 6903 fd5f 9fb8 bf3f
00000020: 783a fabf a668 b6bf 1b90 01c0 da30 ae3f
00000030: cded 0180 5f9a c2bf 594b 0060 ccc2 b2bf

module.down_path.0.block.1.weight f8 [8]
0.8044392150459581 0.4246909709765983 0.8784486952818922 0.9535647696573408 1.0395385825227734 1.1767174751589569 0.8322634574267443 0.7721801085076255
00000000: eec0 074f f7bd e93f f90f d009 232e db3f
00000010: 1863 2e70 401c ec3f 4279 8943 9a83 ee3f
00000020: 20d9 6d35 f3a1 f03f d507 07b4 d5d3 f23f
00000030: 5db8 69f9 e6a1 ea3f f72e 150f b3b5 e83f

module.down_path.0.block.1.bias f8 [8]
-0.23872695584648823 1.6792598204378524 0.10361336380449954 -0.2354889921658071 1.5284108518871187 0.26728683317016083 -0.011112474471272754 0.26246802001816044
00000000: 0a64 04da 9a8e cebf 4e47 a48b 3fde fa3f
00000010: 3c08 f8c8 6786 ba3f 34c7 f5d7 8024 cebf
00000020: 8a4e fbef 5e74 f83f 0181 c73b 3a1b d13f
00000030: 103a 7413 23c2 86bf ed53 8eaa 46cc d03f

module.down_path.0.block.1.running_mean f8 [8]
-0.5783607013427244 -0.6563199891631027 -0.06077496539620529 -0.2305983578238382 -1.9436200351828505 0.3200955138843737 -0.17203548753656878 0.53473128202572
00000000: 41e0 314d ee81 e2bf cb54 25c7 9200 e5bf
00000010: 9e9f 9571 e51d afbf 30ae ae3a 3f84 cdbf
00000020: 145f 6f52 1119 ffbf 63b3 eee4 717c d43f
00000030: 0649 5c44 4205 c6bf 185b 0ec7 841c e13f

module.down_path.0.block.1.running_var f8 [8]
0.22573909351094992 0.1698542843252814 0.6580875805663678 0.6716336132800904 0.4047301754138122 0.7896616978048396 0.7241761718024516 0.2109475664805251
00000000: 9d73 07c4 04e5 cc3f dd9b 2102 c9bd c53f
00000010: 4bf6 8daf 0d0f e53f 66d5 7dc6 057e e53f
00000020: a0d3 c664 19e7 d93f 4a38 df9b e844 e93f
00000030: 63e3 cd81 732c e73f ae31 9a71 5400 cb3f

module.down_path.0.block.3.weight f8 [8, 8, 3, 3]
0.07809644905894024 0.19470564536032028 0.07167273809542259 0.24521373230701915 -0.01059133085504741 0.3845851836015165 0.06188241596657965 -0.005453595001639211
-0.00885146137945226 0.06582582346606812 0.4021296563031181 0.2439964665755383 0.19436041627541623 0.15909767879424475 0.3286761667413577 0.16038325622005703
-0.30896615846330244 0.034753270631314795 0.018196759360023282 -0.411546236279905 -0.05144149786432661 0.21913017498165097 -0.21560433847040156 0.16376704147783153
0.12247371036595855 0.25565585304374117 0.07535775003272734 -0.021019698751870236 -0.20086104259274054 -0.08942462684315905 -0.18288561757450267 0.35091298590649694
-0.06693312773296152 -0.18039450175639907 0.0210927609970372 -0.21122864008358064 -0.2050982640410692 -0.14764051694789787 -0.08152085581303331 0.1536917244800977
0.12962413235540493 -0.235427278774692 0.1572312726862091 0.38591258852476606 -0.1888870387584822 -0.0561175809662301 0.1995044037348052 0.07443914490210432
0.1333746115997499 -0.2777002131406159 0.07568807935972711 0.09136507709253501 -0.051724537510289034 0.15268748904471507 0.054496945621088075 -0.0032857724750219247
0.03492317241184192 0.11909880753017414 0.8685709383550453 0.12902310872202277 -0.05928742731723037 0.4743586945758259 -0.03867750347541272 -0.027172391154319183
-0.2229438883916072 -0.06316334037527326 -0.11330241485499666 0.1241813235468717 -0.3270446702055977 -0.03244718754312269 -0.004524654574250969 0.06077661564841099
0.14455437116404135 0.4076156021327514 -0.15965050340252115 0.5430218283764623 0.7739832045846932 -0.005968442749255946 0.025247385301591055 0.5389774411407884
-0.22337152362824927 -0.07048036192479816 -0.5526950107243428 0.03952174416496316 -0.47711457953370906 -0.360224426279944 -0.12214014594421932 -0.10763643935662502
-0.329969200095393 0.027306628356069743 -0.05663514821328827 -0.05925267323540917 -0.1706977712879359 -0.06635500485531974 0.08472395411404841 -0.15105937214441925
-0.008945722753883332 -0.13804932526239977 0.05444009441652425 -0.08393084422418802 -0.20112683822918265 0.06305018151050909 0.11160855585155287 0.1678699522656517
-0.12342476185470622 -0.08396059120562495 -0.0871426019745262 -0.00676379475503617 0.15860863208412518 -0.14860184757943962 0.024276938029864154 -0.015941757219561748
-0.18648014153402379 -0.0684061792932623 -0.07539990238290674 -0.2011656041701094 0.16494983815636763 0.07598473020576159 0.07689864709177842 -0.05517879162482042
-0.1479893482803568 -0.02858913655807958 0.04073263942147393 0.05320668309858014 0.06789131604834643 -0.021082347089463556 0.035862120930902186 -0.03548332172912235
0.10193004473176054 -0.12120943783925299 0.06428200518894588 0.08032062109171223 -0.016548938841044043 -0.08463607949540349 0.14229514976652333 -0.20138609947274777
-0.45056125108657935 0.21732816600014193 -0.6194911777672326 -0.640416796349577 -0.0442839368415595 -0.05581795918470681 -0.6422815656324263 0.20015351108852963
0.024858519986858608 -0.02883070679866761 -0.042623431672113035 0.2200050310934178 -0.2683933793014849 0.14970948141900042 0.06740045949888326 0.03944373815238504
0.05811417021674468 0.30052183939611143 -0.23788248009010732 -0.023434399034999963 0.052288811069999684 -0.06384616927422529 0.020251427474371943 0.12648008288588794
0.20197377588652154 -0.038126224993585374 -0.010677303570354667 -0.07773618904303037 0.09258942632730864 -0.16982271795495257 -0.27367182669526235 -0.0856348956612937
0.29566315813607763 0.06600862896274896 0.011687300536397306 0.09382661075294932 0.4358243802887382 -0.19635273753704252 -0.09571525919294374 -0.028623419361260505
0.2058041580376777 0.0880436890144873 0.0032884240818623865 -0.008753270427752985 -0.2844239416239577 -0.1427915645820663 0.029527157964929256 0.03907853618228798
0.30827193517094753 -0.17373390561410043 0.21059479642857898 0.35617869684839254 -0.2611166864117575 0.022676846424158174 -0.18691738316988332 0.12789338952541135
0.06867342940950895 0.056597802345637375 -0.1593171329568662 -0.03725256465458514 -0.008686796154934992 0.06252335144331407 0.022058849608057384 0.08903555316796803
-0.011202600710453996 0.38114377464610166 0.44601682137393184 0.011427305092297986 0.40433072700892586 0.7536153628370806 0.10534137707034567 -0.09621789713409809
0.10842951578102454 -0.026077163199766672 -0.2152971796944181 0.3549206326657722 -0.06377123460699094 -0.18312357299172713 0.07762415750953394 -0.08828128384950264
-0.15127587154844035 -0.4635503883340851 0.197832155434209 -0.41421074696444443 -0.6320234152447314 0.057512614380546605 -0.03224288899183642 -0.5187308153397134
0.24474749077845304 0.0648842629466196 0.7121576359123531 -0.14288672573939445 0.522615968990601 0.870307923501139 0.15066526533833036 0.015409053192482132
0.5246186405453954 -0.10970584875500218 0.05131739868912397 -0.09586364742622437 0.1620900865646272 -0.015425957636455026 0.16862109135328449 0.04968385378380127
0.05653033836392309 0.0004158864571824819 -0.020699409941703124 -0.01957379183742965 0.026002417147920658 -0.07105749887523118 -0.02193057375671532 0.01149003102257707
0.08829574289853238 -0.0493422739351458 0.023288579585548735 0.01683639854762112 -0.08338266857364961 -0.03349741317324618 0.006774376394389166 0.06084657481310237
00000000: 2352 a4fe 20fe b33f b3a6 9555 1dec c83f
00000010: 0576 2202 2559 b23f a0f5 64e0 2963 cf3f
00000020: 94fa 255d e8b0 85bf 0e0f 862c 0b9d d83f
00000030: 4540 8c51 0daf af3f f3bb d742 8256 76bf
00000040: c424 2c09 b720 82bf 47df 040f f6d9 b03f
00000050: 11b6 a406 7ebc d93f 0008 24b6 463b cf3f
00000060: 181a c557 cde0 c83f bc38 a50f 505d c43f
00000070: d63d c8c2 0709 d53f dd43 2544 7087 c43f
00000080: baeb 8afe 19c6 d3bf eac0 9441 2ecb a13f
00000090: dcbf 60d9 2ba2 923f 194d 6706 c656 dabf
000000a0: 3015 f83d 8a56 aabf 1775 8e23 750c cc3f
000000b0: 5694 4d47 ec98 cbbf d5ac a783 51f6 c43f
000000c0: d03d a4e4 6f5a bf3f 7ca5 f65d aa5c d03f
000000d0: 5d05 e43f a54a b33f b81e d81a 3086 95bf
000000e0: ddf6 7c8c d0b5 c9bf 4c95 bf47 88e4 b6bf
000000f0: 8a14 32c1 cb68 c7bf 7f72 8dbd 5b75 d63f
00000100: b5ce a18a 8722 b1bf 6902 b6c2 2a17 c7bf
00000110: eb91 a83a 5799 953f b39a 9142 8a09 cbbf
00000120: f7e9 42f0 a840 cabf 6289 ed6b e2e5 c2bf
00000130: 4cae a801 8dde b4bf 0868 27a1 2bac c33f
00000140: 4c92 9e08 8697 c03f c637 7627 7b22 cebf
00000150: c140 0c83 2720 c43f 6007 b5b6 cab2 d83f
00000160: 4790 0d53 732d c8bf f10f f68d 71bb acbf
00000170: ce77 b93c 5c89 c93f f690 e59c 710e b33f
00000180: 3204 7855 6b12 c13f c4fe 611d d7c5 d1bf
00000190: 790d 8c41 4b60 b33f 95e4 1ba2 b363 b73f
000001a0: 1ecc 037a a37b aabf dc4a fa7d 438b c33f
000001b0: 4e53 590e 06e7 ab3f f269 50aa c3ea 6abf
000001c0: db4a c336 73e1 a13f abae 556b 427d be3f
000001d0: e0b5 cf47 55cb eb3f e6d5 3148 d483 c03f
000001e0: 4270 c8f2 eb5a aebf f2b0 f191 e45b de3f
000001f0: 3920 09a9 89cd a3bf 4f9b 724d 14d3 9bbf
00000200: 5d15 bee2 6c89 ccbf 47c9 3701 792b b0bf
00000210: 452b 5c16 6301 bdbf 2666 68e3 58ca bf3f
00000220: 324e b7c4 4cee d4bf 7e95 b0f2 ea9c a0bf
00000230: e0f0 c0b6 7188 72bf f399 24d1 1c1e af3f
00000240: 085b 52f4 c180 c23f 0ef8 1fc0 5f16 da3f
00000250: 93ae 737d 6d6f c4bf 5283 3c50 6f60 e13f
00000260: 6d06 eb6c 78c4 e83f 385b a8a6 5d72 78bf
00000270: 3429 b858 73da 993f 0c68 5f9e 4d3f e13f
00000280: 9ba6 6b26 7097 ccbf 2b2d 7a41 000b b2bf
00000290: 4526 7772 adaf e1bf 05bb 56ad 313c a43f
000002a0: 4cb1 e296 0b89 debf 2aef 85c0 ea0d d7bf
000002b0: 42ed 5b9c 9344 bfbf f703 e5ca 0f8e bbbf
000002c0: 2235 c622 371e d5bf 146d 03cf 44f6 9b3f
000002d0: bca7 c23a 48ff acbf d049 7ecb 5d56 aebf
000002e0: 5244 97b0 6cd9 c5bf 978e c73f a4fc b0bf
000002f0: 778e 1b14 78b0 b53f 5daa 8edb e955 c3bf
00000300: 5f0a 5695 2252 82bf e051 9eac 99ab c1bf
00000310: 2762 3872 92df ab3f 058d 11e7 7d7c b5bf
00000320: 8867 4534 86be c9bf 2e31 9883 0e24 b03f
00000330: cb11 56d9 6092 bc3f a024 7b39 c37c c53f
00000340: b2bb aee3 c398 bfbf 3188 61f9 707e b5bf
00000350: baa5 9141 fa4e b6bf 69d7 5054 5ab4 7bbf
00000360: 1212 d5a3 494d c43f 9c4b bda5 6205 c3bf
00000370: 3588 8abb 0ddc 983f 4d5c 9837 0953 90bf
00000380: 97fc 9ece 94de c7bf f7ab e83e 1183 b1bf
00000390: 692e db72 684d b3bf 4bcf 7e65 cbbf c9bf
000003a0: 0759 2e88 131d c53f 39a8 3a3b bc73 b33f
000003b0: 49a7 5d36 a1af b33f f03c ec02 6540 acbf
000003c0: 4b9f 82a1 50f1 c2bf dbbc 267a 7846 9dbf
000003d0: d9d5 6394 e8da a43f 3390 ac07 e83d ab3f
000003e0: 192c 1c46 5361 b13f e2b2 165d 9c96 95bf
000003f0: d878 2019 855c a23f db92 c2b4 de2a a2bf
00000400: 6c4c 9a60 1618 ba3f 7173 7ceb 9407 bfbf
00000410: cf00 0216 c974 b03f 2087 c868 e48f b43f
00000420: c553 6c7c 34f2 90bf ed91 7ec9 b5aa b5bf
00000430: bb35 503b ba36 c23f c45e 8d0b 05c7 c9bf
00000440: bdbf 90db fed5 dcbf c431 bcca 68d1 cb3f
00000450: 1577 9529 dfd2 e3bf 442d 845d 4b7e e4bf
00000460: 3efc f158 62ac a6bf 659f 74ea 2b94 acbf
00000470: dce0 e611 928d e4bf f403 2758 a19e c93f
00000480: 9d69 7b09 8374 993f de8a 48fb cb85 9dbf
00000490: 8268 260a bdd2 a5bf 7637 c0f6 1f29 cc3f
000004a0: ee04 a46c 5b2d d1bf c440 4c27 ae29 c33f
000004b0: ae77 4811 2841 b13f 96ff ca3a f831 a43f
000004c0: 9dba 07f9 23c1 ad3f fe29 fcf3 bf3b d33f
000004d0: 06a2 23e0 ee72 cebf 56b3 d3e5 2fff 97bf
000004e0: 1b18 fc5a 99c5 aa3f 2af7 01f9 3858 b0bf
000004f0: 8789 cc4a cabc 943f 938d cbd5 7f30 c03f
00000500: f486 0ad5 46da c93f 594d efd2 4785 a3bf
00000510: 7931 276d fbdd 85bf 20ce a7d5 84e6 b3bf
00000520: 33fc 07ce f0b3 b73f 4aff dd35 c0bc c5bf
00000530: ea88 5fd6 d683 d1bf 1afa 4224 2bec b5bf
00000540: dde5 b42a 25ec d23f 1918 a606 f1e5 b03f
00000550: f4a6 a8ec 82ef 873f 32ae ad50 0505 b83f
00000560: 2bef 08f1 8be4 db3f 4cd0 1925 1622 c9bf
00000570: 3e3c f693 cb80 b8bf 90a8 3928 754f 9dbf
00000580: c089 1368 ca57 ca3f 0db9 effc 078a b63f
00000590: 381f 623c 53f0 6a3f c30e c311 3ced 81bf
000005a0: 1e5b de79 0034 d2bf 9f27 0376 fe46 c2bf
000005b0: 4b79 3607 5e3c 9e3f 13c8 c115 1a02 a43f
000005c0: d45d f535 baba d33f 1dd2 68a1 e93c c6bf
000005d0: ce2b af31 c5f4 ca3f 46ba 9fbb a1cb d63f
000005e0: 4704 25c3 22b6 d0bf 2e9c 1267 9938 973f
000005f0: d65f e2a7 e8ec c7bf 0270 b182 cf5e c03f
00000600: 6902 6bf5 9494 b13f 2f31 331c 63fa ac3f
00000610: 3301 dff9 8064 c4bf 1e63 c4a5 c412 a3bf
00000620: 58c4 230b 62ca 81bf fd72 afc5 8701 b03f
00000630: 43af 9d56 9896 963f 2da6 09b5 08cb b63f
00000640: 89ce 739d 63f1 86bf bf74 cbdb a864 d83f
00000650: 1215 5123 8a8b dc3f 1701 39ed 3267 873f
00000660: 015c 51fc 8de0 d93f fbbf 24f7 9d1d e83f
00000670: fbc7 6e09 a7f7 ba3f 8e18 7b71 bca1 b8bf
00000680: 975b 3368 09c2 bb3f 3339 76cc f8b3 9abf
00000690: 21b2 daa4 db8e cbbf 6168 7e07 05b7 d63f
000006a0: 8e04 10c7 4f53 b0bf 4125 90de 9770 c7bf
000006b0: 5c0c e241 2ddf b33f 9185 fb2a 9a99 b6bf
000006c0: b8ba 7cfc 015d c3bf 095a 7c3f cfaa ddbf
000006d0: 6ef3 d766 9052 c93f 1b4c f7ca 6d82 dabf
000006e0: 0109 592b 8939 e4bf 976a be1b 4b72 ad3f
000006f0: d93a 7fd3 2382 a0bf aef7 e95d 7199 e0bf
00000700: 48f4 55c2 e253 cf3f d57b 614b 419c b03f
00000710: 2ee3 7acf fec9 e63f f9a6 0abb 1c4a c2bf
00000720: cbd2 e51f 45b9 e03f cf62 9c00 90d9 eb3f
00000730: acb9 a2d9 ff48 c33f 5739 311c c88e 8f3f
00000740: 6676 0008 adc9 e03f fd28 95b8 ae15 bcbf
00000750: 3dd1 2b2a 4646 aa3f 0b27 921e 858a b8bf
00000760: 5483 6632 5ebf c43f f5e5 76fc a497 8fbf
00000770: 939b 633c 6095 c53f 3306 487e 2970 a93f
00000780: 837d 0265 8bf1 ac3f 61b7 81bb 6a41 3b3f
00000790: d504 fce2 3932 95bf f5ae 33ef 260b 94bf
000007a0: ebae 11ad 60a0 9a3f 29ff cd01 d330 b2bf
000007b0: 133b 45e4 f774 96bf c4a4 c6db 1588 873f
000007c0: 790e 20c0 8c9a b63f f233 b9f9 6343 a9bf
000007d0: 5bca c21e f6d8 973f e9eb 9394 8f3d 913f
000007e0: 5fb8 930a 9158 b5bf 61cd 28ac 9226 a1bf
000007f0: 88fe 08d1 72bf 7b3f 5bb2 ca41 4827 af3f

module.down_path.0.block.3.bias f8 [8]
0.0732827782675708 -0.08272436261090117 -0.026596009731909422 -0.04215894639589179 0.0603746995343063 0.07062217593214433 -0.10059820860829229 -0.038286913184478265
00000000: a9ec 0400 a9c2 b23f 450b ff7f 6c2d b5bf
00000010: 57b6 0200 fc3b 9bbf df22 0280 db95 a5bf
00000020: 70e7 02c0 6ee9 ae3f 2d3c 0080 4b14 b23f
00000030: c940 02e0 cdc0 b9bf dbf7 fb9f 579a a3bf

module.down_path.0.block.4.weight f8 [8]
0.4769288999062176 0.6812258486283957 0.6633562466474927 0.6622544306533653 0.746879826890073 0.7623891562449555 0.6438856347115222 0.6780911027941596
00000000: 5953 e7ca 0086 de3f d28f a126 9acc e53f
00000010: 6658 1ee1 363a e53f 9831 2934 3031 e53f
00000020: c31e d185 70e6 e73f 31b5 9cf1 7d65 e83f
00000030: f567 ee0b b69a e43f 24b4 c61c ecb2 e53f

module.down_path.0.block.4.bias f8 [8]
1.0805368876425814 -0.5428000705412366 0.8534522904033021 0.5312836855190555 1.2796221170635176 1.6559191060097593 -0.07790102872839426 1.5606958918162948
00000000: 85be 280c e149 f13f 20b7 e740 9e5e e1bf
00000010: af4f 7f2d 7b4f eb3f 747c c6a4 4600 e13f
00000020: df6a 800a 5579 f43f b522 5208 a57e fa3f
00000030: eb94 b662 52f1 b3bf 01a4 6541 9cf8 f83f

module.down_path.0.block.4.running_mean f8 [8]
2.4590061899101614 -4.518685627469578 1.0790450260946458 5.041129919228304 3.23710576308124 2.810539507155875 -0.8540501989960155 2.446428631192524
00000000: 0d9b f26f 0bac 0340 5e8c 3b53 2213 12c0
00000010: bace 9fb7 c443 f13f 08e4 27f6 1d2a 1440
00000020: 3304 d1b4 97e5 0940 b4cd 1a23 fc7b 0640
00000030: d390 3a15 6154 ebbf 6ec2 972c 4992 0340

module.down_path.0.block.4.running_var f8 [8]
1.2659178316170443 3.172528622525407 1.935442776492343 3.1311842350337162 3.1126873534863364 2.3183498787442516 2.641856020314662 3.0358081786150244
00000000: bb7e 630e 3341 f43f e4f6 baaf 5661 0940
00000010: 5a06 45d8 92f7 fe3f c4c3 f951 aa0c 0940
00000020: 402c 8fa0 c8e6 0840 1323 6f05 fb8b 0240
00000030: ffef bf68 8522 0540 98a5 60cc 5549 0840

module.down_path.1.weight f8 [16, 8, 3, 3]
-0.5584284531010051 0.054721418432703436 0.0021279187157765608 -0.18646911363793772 0.9903576229356149 0.36299985102993176 -0.260660055228983 0.43290971684470014
-0.36238600090902184 0.03979728861705344 0.051491796397426196 -0.024062630544530516 -0.24047143084194186 0.05297417999770947 -0.005115423004105005 0.01931789530577498
0.033639049824245364 -0.12810971130919446 0.08844802809711258 -0.053693127264484365 -0.05207608375592522 0.1261430595070816 0.01068459662653162 0.10126158035629905
-0.04874340213475128 -0.20780418785688504 -0.10078529705394255 -0.09415818813057891 -0.06295582976808323 0.0019280137978263665 0.20746790862198106 -0.0979762982717621
-0.01904389459465829 -0.07468536374542047 -0.15140134287824109 0.016017190672334286 0.25710185596928276 -0.23291498212476797 0.028188569585324452 -0.19459270461386366
-0.38061116897538333 -0.11392110017606863 0.2339633663514452 0.11918288572273529 0.06796564858870101 -0.33961792261302204 -0.22071053438446098 0.08346927932438218
0.2927765822652408 0.4304703811511929 0.33212154414638917 0.020554297351259757 -0.13277192570444687 -0.6040235784856764 0.11699613956441096 0.24516362186553597
-0.1738676270229428 -0.06913643516159017 0.11557817180791898 -0.222365403781096 -0.1958392607547537 0.3558630549239755 0.30259268308540904 0.34377487481607577
0.01950103720418141 -0.019424402026314833 0.1186796913024574 -0.3020095366528124 -0.18818223689564767 0.18072201610831984 -0.1622829533223263 0.029209452260044923
-0.06281487165027996 0.09429881036606075 0.01831209034348744 0.1341631184660862 0.37845687924318655 0.26670316247873965 0.00485882464387903 -0.027415053668985116
-0.3826575043720687 0.085602151965249 -0.1451157574291166 0.18580141253486643 0.37010318057465424 -0.2681348825365472 -0.37235729624235625 0.29462645297010936
0.143138434019645 -0.25012474664837514 0.054399322014915055 0.07706070448934799 0.02353268307916204 -0.08114882411263195 -0.11806728990822082 -0.170958189779381
-0.035359221244504656 -0.11804572320523603 -0.2645835469863817 -0.22543888317612173 0.1622965025408661 -0.1319128289713553 -0.2694537146802516 0.2499953796445533
0.43891057833934904 -0.2481155787075128 -0.3157818742047965 0.33204810097125137 -0.1230244073907284 -0.19726585662536666 -0.3088886978887236 0.0037961470835815797
0.45332673491904124 0.17321349793801455 -0.0944039141405419 0.4226883494225005 0.17575163332619817 -0.1018620302703622 0.057429933585627334 0.16129330031703193
0.061854512410952835 0.18494051403085904 0.15372826289933977 0.055830443709161785 -0.3290578239966847 -0.1570279101338273 0.13138112860773007 0.003094881044889554
-0.045768337716743754 0.12599061738665043 -0.0035468106201930584 0.03696471010529755 -0.025654181814805065 0.05740566529191464 0.029701469824634157 0.01847377562916977
0.024584418426533455 0.1536401929781411 -0.06080067188947264 -0.2179929627869749 0.13729829492410808 -0.04714466155333646 0.10701428386147721 0.37844025142178783
0.013459136189593669 -0.1430209334547782 -0.27901395202730744 -0.08375933797568727 -0.2818481746381064 -0.30502804534140826 0.231392337051412 -0.19745616254923015
-0.06918728703261944 0.12423552456655612 0.017191832208700505 0.015529408402928312 -0.18813540899007872 -0.30305580457172243 0.032873035258330276 -0.11492104434739367
-0.123883080159168 0.12053721619432424 0.07331991638630196 0.045183500939537116 -0.09008550195803475 -0.04061520280737297 -0.2229787671777391 -0.3868236887316201
0.017947923148117127 -0.2268499394901799 -0.33255386608747356 -0.0475232078978452 -0.0024218137410513627 0.09107868173014194 0.13830522302556666 0.08715600816141814
-0.11755605485759843 0.005704430678753692 -0.04045811097936568 -0.19906193060330607 0.09254008997846119 -0.018493643834505448 -0.11010151345723197 -0.0860233411778423
-0.11507290035501408 -0.15362029041585457 0.0153757079654602 0.18609841124265752 0.07607605633132532 -0.12785085493588544 -0.08710301446875482 0.03467016477202063
-0.05843306372018252 -0.01753691266852419 -0.018387504557503955 -0.035159198918726514 -0.0779491244095466 -0.08894342282960216 0.15099126604129967 0.06954039358628333
0.025590497515705083 -0.32376731718881957 -0.5772336120223617 -0.45999414292183527 -0.1462976681401363 -0.33568184011688307 -0.3336450034265361 0.0640711621435223
-0.13314955610634563 0.05743886444407838 -0.050764114113132315 -0.04451639015292638 -0.04601782162205808 -0.12484959083742457 -0.0731788705878071 0.09062098017158504
0.24769931864802128 -0.008772354531218723 -0.18987383038847014 -0.05072526881679561 -0.0207149849132618 0.01992450802434315 -0.14787232274465836 0.3874575438699519
0.8350279178436711 -0.06903606693902206 -0.17774005294307804 -0.09492860982049492 0.12368788943616318 0.2227232023377188 0.24411661494152698 -0.09851469865728552
-0.172127215177606 -0.2256711808458363 0.1925790220134834 -0.054423587801457854 -0.2249934268979695 0.1588460139867304 -0.12674140639901363 0.002167807533392651
-0.03548099099227183 -0.2791636564522064 -0.2476379085931646 0.08790519791619661 0.1918763298219473 0.156943298654911 -0.21514096670946659 -0.275132021679028
-0.23431520178664972 -0.09454321530703859 0.06830153897540998 0.18484073313685392 -0.13621473716524363 0.26239969160350785 0.19713615286007477 0.22209629301837866
00000000: a230 e758 a5de e1bf 864e 1e1d 7204 ac3f
00000010: 0cac 5ea9 916e 613f 98ff 644c 38de c7bf
00000020: db49 3b78 02b1 ef3f 6917 28ba 633b d73f
00000030: 1340 2583 a7ae d0bf aafd fdf4 cab4 db3f
00000040: acad 9b0d 5531 d7bf bfd0 286a 4f60 a43f
00000050: c216 14fb 215d aa3f 635b facc dfa3 98bf
00000060: db52 8b91 c4c7 cebf bec2 3e85 6e1f ab3f
00000070: c419 20e8 e8f3 74bf 9d6f 4302 12c8 933f
00000080: 1f30 ba35 2339 a13f 30be 2f26 e665 c0bf
00000090: 36a2 12ac 87a4 b63f 0dea 3d63 aa7d abbf
000000a0: 725a 4569 b7a9 aabf 58a3 99ad 7425 c03f
000000b0: eebd a748 cee1 853f 7fb9 f867 47ec b93f
000000c0: 830a 212c e5f4 a8bf c098 68df 5399 cabf
000000d0: 07ab c3b2 10cd b9bf 44e4 ab42 c01a b8bf
000000e0: 404b f28d df1d b0bf ff3f 4e0d ad96 5f3f
000000f0: 501e 40f5 4e8e ca3f 8640 dc84 f914 b9bf
00000100: 85de e321 3e80 93bf 19c5 c67a 941e b3bf
00000110: 7ac3 1d84 1e61 c3bf b825 7278 cf66 903f
00000120: 1341 c857 5b74 d03f f6b5 7c7b 28d0 cdbf
00000130: a0bf f5e1 76dd 9c3f 6ba9 2deb 69e8 c8bf
00000140: 6576 cff2 ee5b d8bf 3a9f 94e7 ee29 bdbf
00000150: dc83 78f7 82f2 cd3f b10b 6c04 c582 be3f
00000160: 3f9d f05d 3266 b13f 7089 b0cf 4cbc d5bf
00000170: 4c2f 8827 3e40 ccbf b73d eb20 3e5e b53f
00000180: 8749 77fd d9bc d23f cf39 3ca4 d38c db3f
00000190: 00f8 99b8 7a41 d53f f4e6 a98b 2f0c 953f
000001a0: 1120 5da3 abfe c0bf dc7b 7341 2954 e3bf
000001b0: 3cf9 2f81 75f3 bd3f e86a 0a85 8561 cf3f
000001c0: edc5 f25d 4b41 c6bf 5f26 fbe7 ecb2 b1bf
000001d0: 31e6 0bf4 8796 bd3f cf35 8034 7876 ccbf
000001e0: 3174 1bca 4211 c9bf 3a33 b0d5 75c6 d63f
000001f0: 1b16 77b3 ad5d d33f e760 2155 6800 d63f
00000200: 65c2 1e74 14f8 933f 8c1d ca8d fde3 93bf
00000210: 0aeb d7d0 ca61 be3f 9840 c0ce 1f54 d3bf
00000220: cad4 9304 5b16 c8bf 101c 6d26 e621 c73f
00000230: 23dd 9b14 b0c5 c4bf a78c c328 15e9 9d3f
00000240: 66bd 70ab a214 b0bf 84ed 9282 f723 b83f
00000250: 3932 9694 67c0 923f 4c13 12cf 412c c13f
00000260: dfec d233 a338 d83f 6380 2524 aa11 d13f
00000270: 2f50 14cf d8e6 733f e19b b41b b112 9cbf
00000280: 7235 b6e6 757d d8bf 7f70 28cb 05ea b53f
00000290: e66a 2534 2793 c2bf 42a5 3137 57c8 c73f
000002a0: a1ad 2d40 c5af d73f 4752 da35 1f29 d1bf
000002b0: 046d 72b2 b3d4 d7bf 2ec2 02e9 28db d23f
000002c0: ac1f 7536 5c52 c23f 889a b139 0b02 d0bf
000002d0: 620f f559 3ada ab3f f8a5 9615 40ba b33f
000002e0: 8939 d9a0 f318 983f 3330 ac59 2bc6 b4bf
000002f0: ba16 e26c a839 bebf 96fb 0a3d f5e1 c5bf
00000300: c3df b695 9a1a a2bf 5b62 9998 3e38 bebf
00000310: a36f 57d4 efee d0bf 957d 3e6b 2edb ccbf
00000320: 9b87 55bd 21c6 c43f 7e6a 2d03 85e2 c0bf
00000330: e497 15cb ba3e d1bf 1fbb dc3d d9ff cf3f
00000340: 3580 f564 1c17 dc3f 0da4 1654 40c2 cfbf
00000350: 9944 982d c535 d4bf 22b5 97ad 4640 d53f
00000360: 885b 5a0e 877e bfbf 5864 69f1 0140 c9bf
00000370: 554f e219 d5c4 d3bf 32ab 64f2 1819 6f3f
00000380: b74d 3823 4e03 dd3f f44c 6f22 dc2b c63f
00000390: cd17 d9db da2a b8bf fdde 4a6f 530d db3f
000003a0: b163 ad8e 077f c63f 5622 b748 a113 babf
000003b0: f399 1fcd 7467 ad3f b478 f644 42a5 c43f
000003c0: dd83 d407 65ab af3f 66e6 bb79 21ac c73f
000003d0: a2d0 cf22 5ead c33f cf3b b4d3 ce95 ac3f
000003e0: 7ec1 238c 480f d5bf 03c1 4a95 7d19 c4bf
000003f0: 4344 57c9 18d1 c03f 3711 ee9b 6f5a 693f
00000400: c613 5f93 f26e a7bf 4da6 a3e6 7520 c03f
00000410: 5a7e cd73 330e 6dbf 8f49 04da 09ed a23f
00000420: c3d4 99ff 1645 9abf c65a 117e 4664 ad3f
00000430: 9be4 28e6 0f6a 9e3f c8c9 a418 caea 923f
00000440: 1b56 8864 a82c 993f 7b9b 185a 7baa c33f
00000450: 1923 ae02 4421 afbf 54cf f682 31e7 cbbf
00000460: 0d70 3f93 fd92 c13f 47ea 1a57 5823 a8bf
00000470: d4d0 63c1 4965 bb3f a22e d675 5d38 d83f
00000480: 673b 22ae 7690 8b3f fd73 ea8b 824e c2bf
00000490: 9d70 c555 5ddb d1bf 8a16 5781 4071 b5bf
000004a0: 7a82 20ed cc09 d2bf 74aa c659 9485 d3bf
000004b0: 3a25 179c 439e cd3f 0874 4558 3e46 c9bf
000004c0: 07a4 1a0f 42b6 b1bf 84c7 033b e6cd bf3f
000004d0: ecf5 6054 bc9a 913f 1904 bce9 e1cd 8f3f
000004e0: 137e 6a32 d214 c8bf ace7 5f2c 4465 d3bf
000004f0: 2da6 b506 bcd4 a03f e61e 182f 776b bdbf
00000500: 25b6 cf31 cdb6 bfbf b968 81e9 86db be3f
00000510: 974d 0613 18c5 b23f 3a4c b5b5 4a22 a73f
00000520: 96e5 c0ec d70f b7bf c15f 8e0f 84cb a4bf
00000530: 738a 5d78 918a ccbf b4e7 1a25 b8c1 d8bf
00000540: a623 cfbb f060 923f 0ede 9a37 6b09 cdbf
00000550: 8f42 c002 9048 d5bf 48cb 713f f654 a8bf
00000560: 54ff 125a e9d6 63bf f4cc 64b7 ee50 b73f
00000570: bb61 e14c fcb3 c13f ea04 b42c db4f b63f
00000580: 1e67 0f53 2718 bebf f41b 5273 875d 773f
00000590: 2e54 07ef ecb6 a4bf e6ef e880 dc7a c9bf
000005a0: 60c1 0614 b5b0 b73f 5af2 cf6d ffef 92bf
000005b0: 59f6 89df 9c2f bcbf fa2d 0d2d a005 b6bf
000005c0: 3a3f aee7 6a75 bdbf 7047 ab65 d4a9 c3bf
000005d0: 107e ea96 4c7d 8f3f 8ef8 0f9f 12d2 c73f
000005e0: 59a2 f36d b879 b33f e88d 5bb4 6a5d c0bf
000005f0: b2bc 8616 624c b6bf 3a7e afaf 49c0 a13f
00000600: 4ed5 5d43 f0ea adbf 9e56 8949 32f5 91bf
00000610: 070a eb8a 2cd4 92bf bcdb 04f3 6200 a2bf
00000620: 2841 174c 79f4 b3bf 4c58 3f04 ffc4 b6bf
00000630: a583 d08a ae53 c33f f43c 3434 66cd b13f
00000640: c15c ac37 6534 9a3f a4bc b58d 9ab8 d4bf
00000650: 4337 b99f b278 e2bf 70da 0c46 8b70 ddbf
00000660: 134c 12ca e1b9 c2bf 7470 4aaf cf7b d5bf
00000670: bf35 8c92 705a d5bf 9bec 05ba f766 b03f
00000680: e911 7a6e 0b0b c1bf fa06 9d78 a068 ad3f
00000690: 0146 da03 c1fd a9bf dc82 af2f daca a6bf
000006a0: d7bf ccdd a58f a7bf 03d3 908d 24f6 bfbf
000006b0: 1dcf eeb7 d9bb b2bf b81d 2bc2 ef32 b73f
000006c0: 93d8 6a7c 9cb4 cf3f 4363 907e 3df7 81bf
000006d0: d73e f121 c94d c8bf 9e42 4c95 a9f8 a9bf
000006e0: d257 f51a 4f36 95bf 11ed 6919 1767 943f
000006f0: a9ff 15f3 7aed c2bf aca2 e0b9 1acc d83f
00000700: 5d56 cc77 8cb8 ea3f 8660 bf01 59ac b1bf
00000710: d437 4aa1 2fc0 c6bf c23e a2ca 3d4d b8bf
00000720: 3a22 0a70 02aa bf3f 10ea 0ca3 3182 cc3f
00000730: 3ec3 ca96 363f cf3f bc88 e860 4238 b9bf
00000740: 5d3d f8bb 4308 c6bf 01f8 b012 cbe2 ccbf
00000750: 13c7 b8ec 6da6 c83f 62fb 7993 68dd abbf
00000760: 53be 2ba9 95cc ccbf bd23 96f1 1055 c43f
00000770: 1333 c4f9 0f39 c0bf 32dc b7ce 38c2 613f
00000780: 6b09 e27f 902a a2bf 986a ac3d d1dd d1bf
00000790: 4828 5457 99b2 cfbf 0ccf 327e f480 b63f
000007a0: 621b bb50 678f c83f 4d4c 86cf b716 c43f
000007b0: 9003 063c bd89 cbbf 0767 cc56 c39b d1bf
000007c0: f28c 5060 0afe cdbf 396b cdf1 fb33 b8bf
000007d0: 7d75 2aac 357c b13f 454e e573 dca8 c73f
000007e0: 8ad1 ad08 7c6f c1bf 2cb9 7a13 28cb d03f
000007f0: ef56 b2e8 c13b c93f 95d3 89bd a66d cc3f
