results/old/run_1/saved_model_unet3_64_128_2.pt (torch, 351968 bytes, 75 tensors)

module.down_path.0.block.0.weight f8 [8, 4, 3, 3]
000000 a6 a9 38 2b b7 98 ae 3f c6 09 bd 0d 9b 8a de 3f
       0.059758876825372995 0.4772098192371711
000010 1b 8e a0 6c f0 e4 cb 3f 46 51 5e 65 e8 d6 98 3f
       0.21792416862545924 0.024257308184659786
000020 c7 cb 2f bf 87 cf b5 bf a2 6c fe 2a b6 0e b7 3f
       -0.08519791047710533 0.09006823110250875
000030 4f 82 e7 2f 77 e5 bb 3f 92 fd 2a 7d 26 cb d1 3f
       0.10897011680163725 0.27802431319647625
000040 ca 17 ef 43 e4 91 ca 3f 9f 5f 24 96 0b eb bc bf
       0.20757726018035633 -0.1129615060384581
000050 f8 8e d4 98 29 29 d5 3f 3d 39 c4 1d 41 54 87 3f
       0.3306373589023077 0.011391171189214172
000060 61 54 59 42 56 74 cb 3f d7 34 40 8f eb 24 ef 3f
       0.21448782195753593 0.9732568548075972
000070 c1 77 47 b7 ff 2c d2 3f 3a 45 90 9e 1c 36 b7 bf
       0.28399651430470035 -0.09066943045788359
000080 46 37 9d 0f ef 4c a3 3f fc 5e 58 22 bb 97 ad bf
       0.037696333557149006 -0.057798240606812684
000090 5b 00 df 89 28 82 9c bf c9 e6 b6 cc 94 a1 ad 3f
       -0.027840264716133194 0.057873392095144256
0000a0 ea 11 89 6f e9 35 a5 3f e5 db db a9 0b 91 af 3f
       0.041426939835705515 0.061653484806747184
0000b0 61 f8 9d f2 f5 36 a0 3f 0c 94 c1 f3 5d 41 c6 3f
       0.03166931711801691 0.17386984254986293
0000c0 69 51 c2 95 09 a1 a3 bf 6a 8c db 1f 36 22 aa bf
       -0.03833799317468129 -0.05104226244818551
0000d0 60 cb be fa 5c 99 a1 3f 6e 20 43 79 44 7a 25 bf
       0.03437319336753464 -0.00016386113987310345
0000e0 18 90 50 ef 5d e6 85 bf 1a 4c 7c 23 6a 16 57 3f
       -0.010693296304516806 0.0014091526517787723
0000f0 d7 05 6f 74 8d 21 9b bf b5 a5 64 2f cf de af 3f
       -0.02649518035082629 0.06224677518396097
000100 d5 25 2a a8 d8 66 ab bf 1c 42 be 6f dc d2 88 3f
       -0.0535190301207639 0.012120935592776987
000110 10 ec 7e 4f 20 6c a1 bf 36 b5 2f 5b 86 06 90 3f
       -0.03402806253821933 0.01564989024693838
000120 02 64 b1 4a 06 c0 9d 3f b2 99 8e 6b 51 62 c0 3f
       0.029052828129668036 0.12800042869384992
000130 a7 e0 36 d6 c6 61 b7 3f f8 9e 32 c2 2b e0 91 bf
       0.09133570413439661 -0.01745670674122743
000140 3a 6e 75 b0 d3 7d c7 bf 08 0f 9c ab bf 80 c0 bf
       -0.18352743259571175 -0.12892909888625348
000150 40 a9 69 4f b9 21 7c bf b4 47 c5 43 29 ce c5 3f
       -0.006868099086754065 0.17035404023277823
000160 b8 e1 c9 43 6b 46 73 3f b2 3d 3a 6e c6 fa c5 3f
       0.00470582866966434 0.17171554929926242
000170 8e 81 6e ab 04 8a a9 bf cb f8 70 b6 7c c7 d1 3f
       -0.04988112061187443 0.27780072990925636
000180 cf 67 b4 ae 03 93 dd bf 60 b7 4f 30 ee 97 ed bf
       -0.4620980459309267 -0.924796194418132
000190 f8 4e d4 7e 30 62 da bf 7b 81 0f 8b af 72 be 3f
       -0.412243007523315 0.11893746514352259
0001a0 69 ac 25 cb 02 e0 d8 bf 3e 85 ba fa 17 eb c1 3f
       -0.38867254103269616 0.13998698942763527
0001b0 c9 67 b9 05 a5 c0 b7 bf ef dd 53 75 be ac a3 3f
       -0.0927832735991664 0.03842730695935958
0001c0 e8 89 73 2a c8 72 76 3f ea 5f 0d fd 28 7c b0 3f
       0.005480558297878059 0.06439453294785805
0001d0 5a 75 46 3e fa 34 b0 3f fb cf 32 b6 2e 5b a8 bf
       0.0633083726920253 -0.04757066701986897
0001e0 13 86 03 04 75 27 81 bf b2 ff f5 af 53 aa 9d 3f
       -0.00837603968142545 0.028970058073809653
0001f0 1f 74 02 e9 49 12 91 3f bd af bb b7 ef 9b 99 bf
       0.016671328398491277 -0.025008912648374116
000200 ae cc 70 4a a5 3a 8c 3f 57 86 4f e6 bf ad 83 3f
       0.013783732733008893 0.009608744827292499
000210 b6 54 39 f4 23 04 64 3f e9 ef c4 f3 87 4f 90 3f
       0.0024433805681761357 0.01592838692998547
000220 05 02 02 1e 41 db 92 bf 9b c1 20 98 22 ff 88 bf
       -0.018414514023335844 -0.01220538164861367
000230 4a ed b4 eb 39 21 80 bf 6d 08 f2 c9 d0 6e 65 3f
       -0.007875874047946003 0.0026163175494398534
000240 e6 6d 0c 2f 61 29 b9 bf b6 5c d7 19 d1 e9 8c bf
       -0.09828765295645034 -0.014117845154869673
000250 fc 11 a0 58 f6 ab 89 bf 64 c0 76 ab 52 52 d7 3f
       -0.012535023288372742 0.3643995928241621
000260 73 10 d5 ec ab 95 e1 3f 94 38 d5 08 10 d7 bd 3f
       0.5495204568510544 0.11656284537932243
000270 fe 3d dd e9 f4 a4 bc 3f 6a ca 55 ba 6a 4b d4 3f
       0.11189203939033374 0.3171030826262383
000280 6a b5 d7 45 cc 7f b8 3f f3 84 0a 69 a4 ff cc 3f
       0.09570004181997196 0.22655158165893105
000290 ba 7c 95 1e 28 9a a4 bf 7a e2 c0 72 fd d9 c9 3f
       -0.04023862241114658 0.20196502783962328
0002a0 b8 12 f0 f4 77 c4 b1 bf 9e 95 36 72 99 36 dd bf
       -0.06940412263800055 -0.4564574828494531
0002b0 e7 1d 7a ff 30 1a b8 3f ea c1 28 01 c8 fd b7 3f
       0.09414964902145294 0.09371614483166693
0002c0 23 dc fa 40 f6 59 c7 bf aa 0f ba 05 99 11 c0 3f
       -0.1824329201969884 0.12553704051617603
0002d0 92 6f 62 07 97 d8 b0 bf 54 0c fa 46 28 8f c4 3f
       -0.06580490045820245 0.1606188150945821
0002e0 04 76 92 d9 c0 3d b2 bf 3d 58 09 7f 58 cb c8 3f
       -0.07125478088206455 0.19370561793283683
0002f0 02 ea 2f 14 58 ed db 3f 6f 92 eb d8 25 91 ca 3f
       0.4363613316669729 0.20755456058317942
000300 00 fe 44 b1 b9 e2 bd 3f c7 26 79 4f 00 1c d9 3f
       0.1167408044611804 0.3923340583902299
000310 b5 c1 63 a2 4d 08 a3 3f 69 5b 27 38 3f b8 93 bf
       0.03717272383972007 -0.019257533838607985
000320 57 7d b3 2f 1a 1a ac 3f 4c 65 93 ec b5 7e b4 bf
       0.05488664467133713 -0.08005845094466685
000330 19 f5 5a ae 30 ba 73 bf c1 17 c8 a8 e4 a5 b6 bf
       -0.004816236648989469 -0.08846882935185275
000340 c4 67 93 fc 3e dd bb 3f 5d 26 26 c3 1a 16 98 3f
       0.10884469667817515 0.02352182212920294
000350 4a f9 77 fa 18 e3 a1 3f a5 aa 63 53 c3 5b a6 bf
       0.03493574197271927 -0.043668846063004176
000360 62 ab 4f 07 8d 96 a2 bf 17 a3 26 e5 a3 1b cf 3f
       -0.036304862158280896 0.243031012430287
000370 d8 cb 60 9f 9a 06 a2 3f c6 a8 71 b7 29 3d c4 3f
       0.03520663447888922 0.15811654526925717
000380 a1 26 a8 9c 9e 84 e4 3f f6 d7 90 cc a9 57 da 3f
       0.6411889133170982 0.4116005418503613
000390 50 bd f4 66 9f 7b b6 bf b3 db 50 70 35 3d d0 3f
       -0.08782383216452172 0.25373588531823116
0003a0 cf ff 76 c5 0c 6e c1 3f 01 7f ec 30 77 bd c2 3f
       0.1361709560569566 0.14640703095300725
0003b0 ee e8 c4 94 35 76 a4 bf e9 f2 34 87 4c 7f b6 3f
       -0.039964365396785925 0.08787992764423404
0003c0 39 9d 84 51 da b8 a9 bf 16 a1 00 ac 11 6f d2 bf
       -0.05023843998997752 -0.28802911564936673
0003d0 52 6b 55 ad 92 2f a2 bf 2e 21 e2 02 63 b3 b9 3f
       -0.035519202860732194 0.10039347477334523
0003e0 c9 17 be 3f f9 4e b3 bf 70 e1 e5 e9 4b fd c4 3f
       -0.07542379194464312 0.16397999687957165
0003f0 4b 5d 88 7a 71 14 b5 3f 6c a4 7b 6c 18 8b b4 bf
       0.08234318963547087 -0.08024742744932362
000400 bc ca 49 a5 35 0b a3 bf 9f 78 d2 a1 ac 9b b6 bf
       -0.037194897105015085 -0.08831290198074492
000410 6f 95 f1 b7 d1 88 e7 bf 4d ef 82 ae 18 37 da bf
       -0.7354515640878797 -0.40961281816611433
000420 69 98 13 dd 6a fd b6 3f 22 1f d5 96 53 7f c4 bf
       0.08980434319855281 -0.16013569702976677
000430 da 12 ac 5d 92 97 a4 3f 34 a1 c2 48 01 15 86 bf
       0.040218900618162315 -0.010782251389472287
000440 cc 7f 8c fc df 40 91 3f 0b 8b 09 5b d6 03 a4 bf
       0.0168490407842226 -0.03909177647871872
000450 ab a6 5e 63 8a 75 8e 3f 35 2e 2f d5 cd cb ad bf
       0.014872628362201231 -0.05819552638385198
000460 68 bd af 62 8d e1 ab 3f 99 db d4 10 26 6a 9a bf
       0.054455202385606694 -0.025795550134002452
000470 38 5b d3 bf 8f a0 b1 3f f8 59 94 02 44 bb a6 bf
       0.06885622437708327 -0.04439747363555918
000480 ba 21 d5 36 71 51 b6 3f 0a f3 69 04 cd 39 c6 bf
       0.08718021000561907 -0.17363894191284884
000490 8b 1d 0b 9b 56 19 c4 bf 19 42 83 31 28 75 bd bf
       -0.1570232636497447 -0.11506892403418369
0004a0 e0 79 90 33 e3 23 d9 3f b9 89 b4 33 b7 c6 c8 3f
       0.39281539950925826 0.19356431984586012
0004b0 96 2b 2b 12 80 f8 94 bf 91 c9 ad e1 6b b9 d0 bf
       -0.02047920332806149 -0.2613172248740279
0004c0 e6 87 93 6d db 14 d1 bf af 81 10 e1 ae d2 84 bf
       -0.266898018844698 -0.010167471164152923
0004d0 0b cf 9b 0a fd 1f b4 3f a1 f7 9c ae 68 37 78 bf
       0.07861310490607935 -0.0059122170585491915
0004e0 f7 9f 25 2f 82 7a ba bf 97 08 a3 3d 2b 9c 35 3f
       -0.10343183184670567 0.0003297429626735264
0004f0 5a db 54 4c b2 aa bc 3f a1 f6 c5 6e 50 44 b5 3f
       0.11197962153970079 0.08307364181924949
000500 af 41 ee 74 0c 41 be bf b6 3f b6 5e b7 c1 b6 bf
       -0.11818006376984756 -0.08889337599089128
000510 90 74 72 73 ad 6c c4 bf c7 16 b3 e6 e6 49 c3 3f
       -0.15956657540383334 0.1506928087675787
000520 d6 98 35 5e b5 a2 c4 bf 6b 32 b3 3a 5c 64 c4 bf
       -0.1612154684073121 -0.15931275240145068
000530 d8 f1 e3 84 b2 d5 d8 3f 48 51 d1 b8 c6 8c ab bf
       0.3880430505521679 -0.05380841260981356
000540 82 c0 e2 31 8f 39 83 3f 35 78 c6 d1 e5 7f cd bf
       0.009387129506962081 -0.2304656290334052
000550 5f 31 53 10 08 8b b4 bf 15 c9 05 9f e7 75 b3 bf
       -0.08024645231779946 -0.07601783401858982
000560 61 2b 6a 2e 0c 72 c1 bf 88 48 5b ec bb ac b2 bf
       -0.13629295603126493 -0.0729482128183766
000570 92 01 48 61 d8 39 9b 3f a7 ec a7 20 8a d3 c4 bf
       0.026587849557473904 -0.16270567507294695
000580 79 3e ae c0 11 b5 b7 bf f7 18 d8 53 ba ab 77 3f
       -0.09260664896123129 0.005779006807193668
000590 69 b6 35 6f a6 44 8d 3f 43 63 82 96 26 36 9f 3f
       0.014291095990041929 0.030480006157264993
0005a0 af 7c 5f 4a aa 74 8d 3f 87 53 2d 33 0d 74 d6 bf
       0.014382677454646801 -0.35083322522887567
0005b0 f4 70 e4 35 9a ab b1 bf 88 83 35 61 60 c0 d0 bf
       -0.0690246945927731 -0.26174172871656554
0005c0 d0 fa fe 92 33 29 e2 bf d6 c0 27 3a 5b 35 dc bf
       -0.5675294753089819 -0.4407566135332791
0005d0 57 31 9d 91 eb 32 b9 3f 4e f2 9b e8 8b 33 db bf
       0.0984332304480565 -0.4250211497854125
0005e0 8d d7 c0 54 5e ee bb bf 31 92 af 65 f7 65 bc bf
       -0.10910596436664673 -0.11093088371814798
0005f0 48 53 12 8a f3 2f 90 3f 25 8a ad c2 b2 67 b4 bf
       0.01580791979047838 -0.07970731022718576
000600 e0 4b 11 5a 37 d1 b5 3f 6a 4e 4f 19 9f c1 c7 3f
       0.08522363614001405 0.18559635864095309
000610 e0 c3 b5 59 ea 23 bf 3f 5c a9 1a f1 2b 5b b1 bf
       0.12164177599130666 -0.06779741894084651
000620 ec f0 61 66 03 55 84 3f 02 d5 da 6b 40 d0 c2 bf
       0.009927774965256174 -0.1469803358683422
000630 33 9a 51 e9 79 1f b0 bf f2 10 e7 cd e8 3b bd 3f
       -0.06298028894671219 0.11419539477271082
000640 3a 29 4d 99 d4 51 ac 3f 1e ce 90 75 63 c8 c9 3f
       0.05531181689601046 0.20142787209043517
000650 d6 f6 75 32 d7 18 e3 3f 92 6c 8a e8 77 60 d9 3f
       0.5967823014795737 0.39651296338133435
000660 28 04 43 b6 44 8f b3 bf 1c c6 a4 5c 5e 38 ce 3f
       -0.07640485238791028 0.23609523318877812
000670 91 e2 06 c9 87 d6 72 bf e1 7a eb 55 82 dc 97 bf
       -0.004599123393227559 -0.02330211305058583
000680 39 2b 8b aa 5f f4 ab 3f 72 4e 8f 76 d3 09 9f bf
       0.0545987983401432 -0.030310920821490624
000690 f8 8a 7a 60 de c7 94 3f 7d 54 db a8 a8 b2 71 bf
       0.020293688429442874 -0.004320772959279681
0006a0 2d ce dd e7 e1 5f 9a 3f 21 63 c2 df f6 81 9b bf
       0.025756387497905365 -0.026862962157426232
0006b0 94 45 24 c5 47 d3 34 bf 7f 95 3a c3 70 d4 84 bf
       -0.0003177690715726264 -0.01017082305709027
0006c0 a6 89 f4 4f 1b 18 a9 bf e6 03 ed 64 21 bf d5 bf
       -0.04901204443946776 -0.3397906766513742
0006d0 c9 94 17 89 76 9f 9b bf 03 a5 ae ff e9 45 d0 bf
       -0.026975490682066536 -0.25426721543279046
0006e0 08 3d 5c ab 02 e8 e0 bf df 24 1f 9b 8b 35 c9 bf
       -0.5283215853577596 -0.19694657396602275
0006f0 b2 46 08 e3 88 85 bf 3f 42 ff c8 19 83 05 c6 bf
       0.12313132803708518 -0.17204321631469993
000700 12 c5 1d ae 06 ad bc 3f a1 82 41 57 73 bb c8 bf
       0.11201516867528863 -0.19322053680936782
000710 94 82 26 ad 0b f0 b1 3f 43 f2 76 d6 68 8a c5 bf
       0.07006905534081859 -0.1682864234152409
000720 17 08 fc 30 cc 6c b6 3f d7 e1 83 95 74 01 e3 3f
       0.08759761997137648 0.593927661916548
000730 19 6f f9 a0 9a 69 c0 bf 00 4c 90 cd 3f 37 c0 bf
       -0.12822277889323955 -0.12668607270515508
000740 8a 14 ee 29 c0 7e ad bf 27 63 7f 8f 29 38 a4 bf
       -0.05760765563813049 -0.03949098469428796
000750 81 2b 71 e9 42 17 a6 bf 57 7b 14 45 0b e8 da bf
       -0.04314622020373005 -0.4204128431901401
000760 f2 5a dc 1b 08 6a b4 bf 67 6b c1 f7 82 7c c5 bf
       -0.07974291496462252 -0.16786229226530766
000770 24 68 30 1c 50 5a d9 bf 95 34 c6 f1 1e cc c7 bf
       -0.3961372638019631 -0.18591677480109028
000780 df 8a 94 05 94 e0 a0 3f 21 0b 27 29 bb a0 bc bf
       0.03296339576833928 -0.11182756190013922
000790 6a 09 04 ee 11 73 a6 3f 19 fa 79 b7 33 3b a8 bf
       0.04384666471925665 -0.04732667555525811
0007a0 53 f8 c4 47 33 8f af 3f b8 ca 89 99 7c e7 9f bf
       0.061639406691469965 -0.031156489249449776
0007b0 c1 65 f7 9a 4f ab b6 3f 95 92 99 65 70 31 bd bf
       0.08855149777755057 -0.1140356300398458
0007c0 45 66 fd ff e1 77 a1 3f d0 cd f4 80 7a 69 a7 bf
       0.034117758272895794 -0.04572661232159769
0007d0 59 c1 9e 99 66 30 b0 3f d6 66 48 fb 08 2f 98 bf
       0.06323853731624264 -0.023616924607359056
0007e0 b8 7b 01 0b de 88 c3 bf 18 7f d3 9c e1 68 d9 bf
       -0.1526143602122525 -0.39702644648603913
0007f0 28 78 31 62 cd 0a d4 bf fe b9 52 a9 d1 12 a1 3f
       -0.3131593188207966 0.03334670249875059

module.down_path.0.block.0.bias f8 [8]
000000 5a 5f fe 5f f5 f8 b4 3f b9 89 fc ff a5 b8 c1 3f
       0.08192380517573153 0.13844752311076805
000010 e7 3a 02 00 8e b6 b0 bf 89 58 fc 5f 9f b8 bf 3f
       -0.06528556347096136 0.12391086667443764
000020 3b 7d fc bf a6 68 b6 bf 04 53 ff bf da 30 ae 3f
       -0.08753435313382323 0.058966480195215026
000030 b3 cf ff 7f 5f 9a c2 bf 48 c5 02 60 cc c2 b2 bf
       -0.1453360915180589 -0.07328488677992084

module.down_path.0.block.1.weight f8 [8]
000000 1d 86 d0 44 b0 63 ef 3f 0e 1d d6 2e 8b 79 e5 3f
       0.9809190124544248 0.6710868754170478
000010 38 75 15 e8 de 4d ed 3f 12 53 85 ec 67 46 ed 3f
       0.9157557042014224 0.9148444766566135
000020 83 78 29 7e 02 18 f2 3f be b1 71 58 f5 7e f1 3f
       1.1308617523386892 1.0934956984375357
000030 26 95 d0 2a 49 20 ee 3f 58 72 a3 8c e0 c7 ee 3f
       0.9414411388612833 0.9618990656704893

module.down_path.0.block.1.bias f8 [8]
000000 4b ab 49 1f 37 3d b3 3f df 42 75 3b 4e 54 e3 3f
       0.07515282167302677 0.6040412102975913
000010 cc 76 ad a0 d2 89 cd 3f 4b 4d 8d 70 4d 6b 94 3f
       0.2307685169752659 0.019940576548220162
000020 fb da 7c a0 3b 71 e7 3f 0f aa 63 61 af 8d bf 3f
       0.7325723776365004 0.12325569274586477
000030 d9 57 a8 4a 47 d8 87 bf 7f 68 02 68 c9 87 a5 3f
       -0.011642987218731736 0.042051595636807264

module.down_path.0.block.1.running_mean f8 [8]
000000 2f 58 84 67 de 6c 90 bf 43 db a6 61 a4 8c b6 3f
       -0.016040301387953256 0.0880835283668207
000010 86 8d d0 9c 4f c2 bb bf 15 ae fe ac d7 0a ae 3f
       -0.10843370035632036 0.05867647158387627
000020 98 bf 79 85 df 13 f8 bf 81 c2 c4 c7 8c 6a b4 3f
       -1.5048518384828409 0.07975082280314362
000030 27 14 af c6 70 83 c6 bf b6 73 43 24 f9 47 a5 bf
       -0.1758862466942059 -0.04156473701161849

module.down_path.0.block.1.running_var f8 [8]
000000 ca fb 57 d0 50 8a c7 3f af dd 74 66 b7 38 bf 3f
       0.18390855954200297 0.12195917369250851
000010 f1 9a 06 9e d2 73 d2 3f 9b 22 75 24 9f 57 d4 3f
       0.28831925804335784 0.31784800110157513
000020 8e 54 cb 49 34 6d d0 3f da bf 4c 26 8b 26 d8 3f
       0.2566652985236225 0.3773525117894657
000030 7b e3 18 3d d8 24 d0 3f 86 80 23 31 99 03 c5 3f
       0.2522488209393072 0.1641723146376572

module.down_path.0.block.3.weight f8 [8, 8, 3, 3]
000000 a0 2e 89 5b 47 eb c0 3f e7 b0 fb 28 d1 90 b2 3f
       0.1321801373436431 0.07252223253789546
000010 e6 15 7b 31 6c 2f b8 3f c0 1f 86 15 60 4c b9 bf
       0.09447361190822043 -0.09882164502607704
000020 a6 68 4e 29 57 94 c0 bf 4c 29 eb 82 3f 08 c5 3f
       -0.12952699200542844 0.164314211773965
000030 e0 1c 4c 29 bf eb ab 3f 81 1d 70 4a 47 6e a3 3f
       0.054532979766060086 0.037950733029044954
000040 48 65 3d e3 93 ed a1 bf 93 2c 78 54 00 51 b4 3f
       -0.035015698899494796 0.07936098158113429
000050 e3 7b db 54 67 ca a3 3f 3c d3 23 e5 0d 07 bc 3f
       0.0386535922132152 0.10948263973461975
000060 35 9e c0 49 22 34 90 bf 73 62 da 40 d9 05 99 3f
       -0.0158238751902486 0.02443637331325239
000070 4d ec 20 4a cd 2b 94 bf 92 b8 cd fa e5 a7 a3 bf
       -0.019698341035319356 -0.03839033781592706
000080 31 61 3a e1 e9 31 b7 bf 31 ad 3c ae 59 0e aa 3f
       -0.09060537098628597 0.050890734213988494
000090 24 97 46 cf ec 63 8e 3f 45 7c 74 60 8e c7 bb bf
       0.014839029384187415 -0.10851373534068028
0000a0 23 26 77 d5 ae 58 94 bf 6c 5b 80 9b 4e 5d a5 3f
       -0.019869548586745844 0.04172750137529743
0000b0 b6 52 f1 f0 a9 da cb bf 05 dd 84 63 5b 10 a8 bf
       -0.21761059059885718 -0.0469997939093734
0000c0 f7 c9 16 09 78 03 ae 3f 36 3c 23 a8 ea df c8 3f
       0.05862021552038137 0.1943333931908186
0000d0 8e 15 76 4e 26 59 b6 3f 05 b1 c0 78 2c ed b6 bf
       0.08729781547125112 -0.08955648372711174
0000e0 c5 b6 7c 34 44 37 c2 bf 2d 16 88 88 76 6a a0 bf
       -0.14231159746980473 -0.03206224838872305
0000f0 8e 23 e8 b5 55 e8 a9 bf 31 37 4b ba d7 35 cb 3f
       -0.05060069890539075 0.21258064838769422
000100 32 ed bb 4f 18 82 a6 bf ac 16 a4 2a ba b3 a7 bf
       -0.04396129582706933 -0.04629308481712022
000110 74 e3 85 27 a3 e7 7e bf 17 2c 8d 26 84 29 b3 bf
       -0.007545125314543866 -0.0748522371406327
000120 cf fa 9f 73 9f 08 b8 bf fb 0d 29 cc 99 e6 90 bf
       -0.09388157437204402 -0.016504672132453973
000130 07 82 74 f0 b0 aa 87 bf 24 d3 00 42 ae d5 c4 3f
       -0.01155603631792791 0.16277101729215204
000140 05 2c e5 fc a0 07 6e bf e8 49 a5 4d ff 49 c1 bf
       -0.003665747098386076 -0.13507071772853796
000150 b2 ca ac a4 65 9e bb 3f 2a 38 4c 3d 4c 46 c3 3f
       0.10788569708237608 0.15058281891873665
000160 24 a1 a3 15 d2 2c a2 bf 9d 3e 76 15 20 c8 9f bf
       -0.035498204366208236 -0.031036855039529788
000170 b7 f3 dc c6 c9 b5 ad 3f 75 ee f5 13 b0 0e a5 3f
       0.05802755882766724 0.041127684055905535
000180 4f fc 36 6f 10 d4 85 3f 7a 9f 3c 39 f4 02 c2 bf
       0.010658386606222118 -0.14071514887586628
000190 33 c6 c3 98 57 9c 74 3f af 8b 93 fb 6d 15 82 3f
       0.005031912016634932 0.008829936256409569
0001a0 46 f5 50 a0 88 46 ab bf 18 64 b9 b3 7c 53 b5 3f
       -0.0532725043962992 0.08330516231343699
0001b0 33 a4 8d dc c4 cb 97 3f 94 5f 2f bd d6 9b 81 bf
       0.023238254510406797 -0.008598020218343362
0001c0 b4 b9 9a 5b fc 0e ac 3f ab 06 f7 18 8b de c4 3f
       0.05480183237283445 0.16304148406020622
0001d0 30 fe d7 b1 6d 88 e2 3f 15 cc 57 f9 9d 4d b1 3f
       0.5791538690099909 0.06759059274172359
0001e0 b4 22 4c 44 6f 73 b2 3f 70 65 b5 f9 8c de dc 3f
       0.07207389275948622 0.451083415847811
0001f0 05 4c e0 96 2b 8a c1 3f cc da a0 e7 1b 58 af bf
       0.13702912203788756 -0.06121909334654205
000200 91 56 61 53 35 ba bf bf 03 fb fe b9 f2 d0 9e bf
       -0.12393506322527005 -0.030093948938652037
000210 06 f6 e0 2a ca 48 8a 3f 9a 92 d0 c7 15 c9 ce 3f
       0.012834147866779066 0.2405116296441932
000220 5d 68 35 37 5b ca cc bf 5f 5d 83 33 40 d9 67 bf
       -0.2249254245351179 -0.0029112104349270774
000230 cf 95 96 0b b4 42 91 bf d1 f1 d4 75 45 4a ab 3f
       -0.01685601540306952 0.053301020272985895
000240 10 c7 ab 62 54 96 9d bf 54 bc 85 7f 51 a1 b5 3f
       -0.028893774530792504 0.08449277270641292
000250 8e 2d bf 9c 10 7a b9 bf 98 fd 95 0b e7 b2 d1 3f
       -0.09951881243539715 0.2765443432944834
000260 ac c5 3d 13 58 82 e3 3f 94 fb 92 ae db 2a c0 3f
       0.6096611381346313 0.12630792640808564
000270 42 a0 9b 72 10 be a1 bf a3 19 58 db 3b 43 c3 3f
       -0.034653200140212906 0.15048931322253364
000280 74 ab 40 f3 5a 1e ac bf cf 32 e5 f8 be b9 a6 bf
       -0.05491909236328399 -0.04438587940476212
000290 6c 96 d1 d8 46 21 a9 3f 69 51 09 cc 88 43 80 bf
       0.0490820064231173 -0.007941311575600367
0002a0 e6 ee 1f 80 a3 6d c6 bf 70 69 9e 45 9f 61 84 3f
       -0.1752209067925527 0.009951824485871369
0002b0 9f ee 91 6e 29 8f be bf b3 03 fb fb 2f 3f b9 3f
       -0.11937197637046858 0.09862041379802981
0002c0 d1 e1 8e 32 26 53 ba bf bd 55 f4 66 7b 90 b4 3f
       -0.10283125624017166 0.08032962096725434
0002d0 00 eb c3 59 a1 bb b2 bf e1 e9 a1 11 41 e3 ce bf
       -0.07317551080260998 -0.2413102470489568
0002e0 da 9e 20 a6 66 37 c2 bf a4 86 f1 3e a4 e3 a8 bf
       -0.14231570350351924 -0.04861176746704857
0002f0 80 9f 57 66 ab 2b b3 bf a9 91 59 e9 9d de ba bf
       -0.07488509415236244 -0.10495936343210722
000300 d6 1f e7 fc e6 c7 82 bf 8d e2 6e 00 08 3c be bf
       -0.009170345871908053 -0.11810350428175749
000310 44 aa 53 c5 b4 d2 b3 bf ea 71 9e a6 d0 31 b9 bf
       -0.07743387048291434 -0.0984163672241675
000320 11 0f 62 0b 3f 86 bf bf 42 b6 4c 67 77 20 a5 bf
       -0.12314218547731694 -0.04126332412702684
000330 f8 89 62 37 63 ad b7 3f 7e 50 37 46 dd ae 94 3f
       0.09248943426295131 0.020198304567955898
000340 3d 71 70 16 cd 76 97 3f dd 07 69 41 c9 ce c1 bf
       0.022914127821523456 -0.13912311261998314
000350 e5 4e a1 f0 fe e9 c3 bf f8 8c fe 40 cd 86 98 bf
       -0.15557848691479773 -0.023951727954806906
000360 59 4e d2 b5 0e 01 aa 3f 41 f9 07 46 1d 02 c4 bf
       0.050789317793854045 -0.15631452483644107
000370 e6 1b c9 e0 62 43 7a 3f 4d 73 bc a2 29 7e b2 3f
       0.006411920778709201 0.0722375891022697
000380 9b 06 c2 d0 0a 1e 7e bf 59 44 15 42 ba 40 ac 3f
       -0.00735286927022263 0.055181332175046456
000390 96 f1 8d 40 35 fb 85 3f 9d b1 bd 1a b6 4d b4 bf
       0.010733047516389854 -0.07931078102928386
0003a0 26 90 68 8a 2c 5e 81 bf c4 5b f9 b6 e8 24 b8 3f
       -0.008480403875246689 0.09431318728580523
0003b0 41 9f 0f 7d 7f d7 b9 3f 2b 3b a0 eb dc d1 8e 3f
       0.10094448855636264 0.015048719349605463
0003c0 cc 90 2e d6 2d 1e b4 bf 60 15 71 39 2f cd 8c bf
       -0.07858549574899881 -0.014063233318789059
0003d0 23 58 0d 5d 38 f8 a2 bf 97 db 91 86 45 e7 bb 3f
       -0.03705001960649692 0.10899767432589012
0003e0 f1 f5 b8 a4 4b 23 bc 3f 12 28 50 94 47 68 8c bf
       0.109913566317992 -0.013870772565514531
0003f0 5d 06 da 06 b4 01 85 3f 71 78 07 2c ee f2 ab 3f
       0.010257154902549798 0.05458778655496211
000400 0a 30 2c c0 4d c7 af 3f 1c a0 ff c9 5a c0 62 bf
       0.06206744166237861 -0.002288987467171223
000410 dc 5d 88 8c 5f 52 c4 3f d1 37 15 e2 6a 3f a3 3f
       0.15876383172938702 0.03759321222115342
000420 35 18 26 1c 53 ab 75 3f 34 ba d8 dc 2c 9c a8 3f
       0.0052903410418192924 0.04806652255898705
000430 77 e7 ba c3 9a c8 b6 3f a7 16 d4 2a 08 1e a5 3f
       0.08899848249975927 0.041244750240406795
000440 ff 0a 51 86 39 f0 c1 bf b6 eb 81 bd 42 19 c1 3f
       -0.14014357622553317 0.1335833955125431
000450 14 bc 3f 31 fe df c4 bf ba e2 49 dc 06 44 dc bf
       -0.16308572201475668 -0.44165202629623546
000460 28 1b b1 d9 46 f6 b7 bf b7 da b5 f4 f2 16 aa 3f
       -0.09360163511983599 0.050956337329741634
000470 cd f7 6f b5 cf 93 c5 bf cd 02 31 fb 3f ce b1 3f
       -0.16857334479567357 0.0695533741245626
000480 c2 31 04 57 a2 8b a1 3f 46 42 26 6c bd 51 b0 3f
       0.03426844894611093 0.06374725237243081
000490 34 09 0b 08 7f d5 82 3f 07 90 12 c3 a5 b7 9f bf
       0.009196274216610158 -0.030973997145920886
0004a0 c3 f1 7c e6 58 12 c8 bf de 3f 14 61 07 c8 78 bf
       -0.18805991415309906 -0.006050137353000166
0004b0 43 ab b0 50 f2 f4 a6 3f de f9 83 26 fe 5c a0 3f
       0.044837543821208324 0.03195947857055946
0004c0 6b 40 da 6b 59 6c b7 3f e7 16 55 db 2a 1a a5 3f
       0.09149702914351258 0.04121526648900247
0004d0 56 ff a0 84 cf 35 8b 3f 48 c8 74 da a7 55 b1 bf
       0.013286229357731532 -0.06771325190928323
0004e0 11 d9 53 2d a6 35 c0 bf e2 9b c7 f6 24 8b 90 bf
       -0.12663724148996683 -0.01615579372619525
0004f0 39 70 93 4f 34 89 b7 3f ce 5c be 91 31 41 7d bf
       0.09193732207080609 -0.007142251615639595
000500 1c 3a a1 6f c7 85 ab 3f 3f c4 31 41 40 2b 8e 3f
       0.05375502813022967 0.014730932225775926
000510 fc ae 4b 94 e8 4a 95 bf 41 f7 5f 1d 1e 82 c3 bf
       -0.02079356579899548 -0.1524083751136747
000520 3c c1 e1 6b 44 51 32 3f b9 35 d3 6d 04 23 c1 bf
       0.00027950210995355044 -0.133881143212802
000530 7a 17 85 13 03 99 c1 bf be ca d6 3b ca 14 a9 bf
       -0.1374820561706505 -0.04898673992592738
000540 23 b2 9f ab 9e 90 b7 3f 5d 74 1a 6a 17 20 93 3f
       0.0920504731181571 0.018677106715234582
000550 e0 0d ea 6f 00 cd a5 bf 2d 50 fe d9 99 62 bd 3f
       -0.0425796639074425 0.1147857815943218
000560 42 29 ad 20 f4 f8 ce 3f 66 bf 34 51 9e 6e a6 bf
       0.2419724616577899 -0.04381270161900268
000570 29 fd d4 91 ac 9f b6 3f c7 ad 8d fa a4 e6 a7 3f
       0.08837393341399448 0.046681552491317606
000580 12 88 96 c5 54 a1 af 3f d0 da 75 8a bc 95 a3 3f
       0.06177773391688403 0.03825177374067368
000590 b5 86 28 5b 0b 8b b6 bf 06 83 c3 84 2f 54 b1 3f
       -0.08805914855522697 0.06769082061101636
0005a0 05 b6 09 77 67 95 bc bf 79 82 3e 57 a3 01 be bf
       -0.11165472656440308 -0.11721249465927909
0005b0 98 05 b5 11 9d 27 89 bf 6e c8 47 bb 57 1f ad bf
       -0.012282588103178324 -0.05687975083482476
0005c0 b4 03 79 ab 48 73 c1 3f 9f d5 91 5a 15 89 96 3f
       0.13633068440142682 0.022007306721624095
0005d0 01 58 6e 9a 3b bf 81 bf d5 fc e1 99 18 46 cf 3f
       -0.00866552891765693 0.24432666314894527
0005e0 e6 0a 1c d5 18 67 b6 bf 7b 3e cc bd 69 da 9c bf
       -0.08751063540334378 -0.02817692967351924
0005f0 a6 82 6c 7a 0c de bd bf f0 81 65 37 21 94 b3 3f
       -0.11666944493164041 0.07647903063253358
000600 f4 72 5e 1b 2b a6 98 bf ee ee c3 f1 fc e1 b9 3f
       -0.024071382089107154 0.10110455419993133
000610 75 fb 2e 8c c6 af b7 bf 69 a5 c3 8d 84 04 b0 bf
       -0.09252587244462325 -0.06256893597642023
000620 02 28 1e 82 37 7c a2 bf 33 a8 f2 89 ea 36 9b 3f
       -0.03610394919731165 0.026576676053686476
000630 1b 30 f3 d0 5d f5 b5 bf 5a 93 ee 1c 14 d8 af 3f
       -0.08577524520222861 0.062195423633318384
000640 43 e6 30 9f cf 05 b2 bf eb 69 b5 ae b2 66 d2 3f
       -0.07040116917132715 0.2875181871546874
000650 44 64 ac a7 bc c7 d5 3f 58 a6 67 a5 72 ab a0 3f
       0.34031597494464827 0.03255804318525851
000660 c2 13 9b 4d 94 ab ca 3f b5 62 dc 52 f9 7f d7 3f
       0.20836118497223138 0.36718590824015546
000670 86 ec 65 f4 84 62 90 bf 61 31 e6 6b 39 61 ab bf
       -0.016000821511152917 -0.05347613756302639
000680 0f a4 26 cd a7 3b a1 bf 0b fe a2 08 93 f2 a3 bf
       -0.033658260147895296 -0.03896007042339641
000690 8d 69 d4 65 1d 9b c1 3f 78 b3 97 93 a7 b6 cc 3f
       0.13754622909693773 0.22432417589825682
0006a0 d7 f7 f4 99 96 d1 ac 3f 22 5b 78 52 96 35 a3 bf
       0.05628653172833225 -0.03751821285930236
0006b0 d6 39 1b 03 6a 3a 6d 3f d8 b0 53 0b 53 73 b9 bf
       0.00356789308066328 -0.09941596056495727
0006c0 a9 ce a1 9b 18 6b b2 3f 5a 8c 4b 1b 8b c5 c6 bf
       0.07194665717707473 -0.17790354569214878
0006d0 c4 62 8f da c0 8e b3 3f 07 da d5 28 d0 13 c7 bf
       0.07639699302616082 -0.18029214853204698
0006e0 05 84 f6 42 8a 7d d3 bf f6 ab 34 90 be de 92 bf
       -0.30453735865927484 -0.018427827407474916
0006f0 ab 32 ff a7 1c ea a2 3f 26 cd 91 7e 9a c5 c8 bf
       0.03694238234274868 -0.19353038005974915
000700 7d 52 89 0a c3 a3 b9 3f 85 51 02 d1 f4 aa a0 3f
       0.10015505797611897 0.03255429316883166
000710 86 78 f8 51 66 e8 db 3f 2c 3c 7a 3d 4e 8b b0 bf
       0.4360595512861284 -0.06462563515582137
000720 1b 3e b8 e3 e2 40 ce 3f d4 85 67 a2 88 5a eb 3f
       0.23635517233968603 0.8548014804802571
000730 5a 58 39 eb bb e5 ce 3f a9 71 52 7f c5 28 c5 bf
       0.24138592706248369 -0.16530674664398973
000740 4a 64 a3 18 22 8a a2 3f d2 c7 b9 4a 48 47 b7 bf
       0.03621012259254337 -0.09093143295629538
000750 d1 11 41 eb ad b3 af 3f 08 ad 02 82 d2 08 b6 3f
       0.06191771981005768 0.08607211755832023
000760 4e 3f e0 d0 0a b0 b7 3f 6e d0 82 e7 3f 9a a7 3f
       0.09252994155417335 0.04609870625554967
000770 9a 30 54 9f 71 d6 c0 3f c0 97 52 b2 20 fa b4 3f
       0.13154430656175436 0.08194164613323007
000780 02 40 5b 77 7b 8c 85 3f d9 12 68 77 a6 89 a1 3f
       0.010521854953736923 0.03425331313704811
000790 85 fc 45 a4 7e e8 ad 3f 31 a1 bd 82 cc 2c a9 bf
       0.05841441874780976 -0.04916991325336751
0007a0 c3 c8 e7 68 37 dc a4 bf ed 26 4f 37 5c c0 ab 3f
       -0.040742618137203056 0.054201967002496555
0007b0 6c f0 a7 9d 4d 5c a9 3f f3 90 97 3a 42 38 ac 3f
       0.04953234242927426 0.055116719868040585
0007c0 0a d0 50 3a 19 d3 73 3f 2a b0 64 54 90 56 98 3f
       0.004839991136623931 0.023767714644393013
0007d0 e3 be ec 45 b6 1a 97 3f a2 ac 51 86 d0 14 a0 3f
       0.022562835710401862 0.03140880241047596
0007e0 b6 1b 60 61 42 07 b0 bf 6e 28 d9 3a aa cf 73 bf
       -0.06261076810197505 -0.004836716614201915
0007f0 3f 64 c1 1a 50 de 9a bf 93 71 07 68 e0 8a 9f 3f
       -0.026238681443235597 0.030803209638052897

module.down_path.0.block.3.bias f8 [8]
000000 c5 b0 01 00 a9 c2 b2 3f 37 cd fe 7f 6c 2d b5 bf
       0.07328277826462955 -0.08272436261068071
000010 ac fe 00 00 fc 3b 9b bf fe df ff 7f db 95 a5 bf
       -0.02659600973151892 -0.04215894639486349
000020 fd 7c fe bf 6e e9 ae 3f 47 33 ff 7f 4b 14 b2 3f
       0.060374699532298216 0.07062217593120322
000030 4e e7 01 e0 cd c0 b9 bf be 36 fd 9f 57 9a a3 bf
       -0.10059820860797439 -0.03828691318504472

module.down_path.0.block.4.weight f8 [8]
000000 9e e2 14 38 63 75 e6 3f e0 89 ed 2f 00 84 ee 3f
       0.7018295379012505 0.9536133705226426
000010 c2 6a d7 70 76 76 ec 3f df 49 93 f6 e9 9b ea 3f
       0.8894607738432898 0.8315324607777334
000020 8d e1 0a 97 1c cc eb 3f 98 60 c6 ff 11 0c ee 3f
       0.8686659765290173 0.9389734263995875
000030 87 bc 3f f0 a8 25 ee 3f 48 3a 32 fd f9 cb eb 3f
       0.9420971577036575 0.8686494775045697

module.down_path.0.block.4.bias f8 [8]
000000 a4 46 0b 68 14 b9 e6 3f 43 a4 8d 2f 6d 1c e4 bf
       0.7100927383528028 -0.6284700325751448
000010 e8 ca d4 5d 37 e5 d6 3f 66 9a bc 70 e5 4e e5 3f
       0.357740251190235 0.6658808900727535
000020 e9 b7 25 3f 47 3a ec 3f b8 f1 b5 e9 6a 15 f4 3f
       0.8821140511843143 1.2552289132428154
000030 d9 82 75 88 0b ca 75 3f d5 a4 53 f8 ff 54 e3 3f
       0.005319638300847551 0.6041259622699281

module.down_path.0.block.4.running_mean f8 [8]
000000 97 3e b0 36 fd a8 e2 3f da 92 2e b2 13 10 da bf
       0.5831285541662109 -0.4072312583978551
000010 a3 3e 12 b8 62 f2 c7 3f 22 ce 4d b5 5d 5d f2 3f
       0.1870845221314897 1.1477944452461846
000020 34 33 0e 76 87 43 f2 3f 27 ea 39 b3 88 fb e9 3f
       1.1414866076986074 0.8119548321258819
000030 14 ad 77 4d 3a dc c9 bf b9 38 a1 5c da d6 e4 3f
       -0.2020333173999026 0.6512271699118833

module.down_path.0.block.4.running_var f8 [8]
000000 24 1e 12 7f 5f 4d ed 3f e2 a0 3b b0 cb 6e e6 3f
       0.9156949502802871 0.7010248605775156
000010 e0 40 2a ce ef 2f ef 3f cf e5 fe d7 93 c5 f9 3f
       0.9746016527806454 1.6107366978961755
000020 cd 8f 15 3b 77 79 ea 3f 46 be 41 83 9e ac e6 3f
       0.8273273614872722 0.7085716785058558
000030 a8 8d 37 7c a6 cd f0 3f cb be ff 42 88 56 f1 3f
       1.050207600805928 1.0836260430477747

module.down_path.1.weight f8 [16, 8, 3, 3]
000000 23 34 71 d3 71 01 c2 bf a4 0b fe ca af 98 bd 3f
       -0.14066908668829212 0.11561106401317872
000010 78 1e ec fa 69 1b a1 bf 94 c3 d0 00 57 fd b7 3f
       -0.03341227710739941 0.09370940942677769
000020 78 48 b8 0a 31 d5 de 3f 28 3c bc 4d 88 55 c2 3f
       0.48176218077526967 0.14323524280232047
000030 f2 e2 77 7d ac b6 cd bf 6d f3 04 96 60 1b 76 3f
       -0.23213726164228593 0.00539720276748033
000040 21 af 5a ca 41 2e d2 bf 00 9f 6c 7c e8 da 9c 3f
       -0.2840733028522085 0.028178818315750753
000050 9f 4d 06 60 12 60 56 3f 1d 58 7b a8 ad 38 af 3f
       0.0013656787342356325 0.06097929650938758
000060 72 20 d5 39 77 1b be bf 7c 86 0b 6a 84 a0 b2 3f
       -0.1176065937226001 0.0727617987536408
000070 32 f6 81 a2 a0 ea a6 3f 2a fc 05 e9 99 6c 74 bf
       0.044758815610276406 -0.004986382686523997
000080 03 f5 ad 60 aa a9 a4 3f 49 14 6b e1 85 d1 94 bf
       0.040356945325564574 -0.020330516704025112
000090 71 f7 f8 32 33 67 b7 bf 84 82 00 4c 30 d5 7f bf
       -0.091418456978287 -0.007771671924303395
0000a0 55 90 68 95 f1 7a ae 3f 0a f5 c1 2b 61 b5 a2 3f
       0.059531735885940996 0.03654006632948821
0000b0 82 85 20 c8 51 b3 bb 3f 71 ff 77 5e 4e fc 95 3f
       0.10820494781412118 0.02147028400031509
0000c0 47 ff 6b 22 84 b8 b8 bf 3d f8 2f bb 56 f5 5d 3f
       -0.0965654930150751 0.0018285128578550268
0000d0 e7 fd 08 34 d5 7d 8c 3f ce f8 3b 3c e1 83 b3 bf
       0.013911882067190141 -0.0762310764366447
0000e0 80 ba 9e c0 ef 18 a1 bf 39 00 0f 81 c7 12 af bf
       -0.03339337564772382 -0.06069014978811577
0000f0 b3 82 d5 8f 01 ee cb 3f 2c e7 63 ac 53 c5 95 3f
       0.21820086978097705 0.021260554692140207
000100 f2 61 7f e1 83 d4 c1 bf 9e 64 d0 9b e6 30 b2 bf
       -0.1392979479849284 -0.07105866722158047
000110 41 1f 28 e1 f9 2e c0 bf 3a 6e 74 f2 2e 0a b1 3f
       -0.12643359655361944 0.06656163615519342
000120 3d 9f 11 c5 52 ec a3 3f ce ce 1e b0 03 f4 ae bf
       0.03891237884164276 -0.060455432175698584
000130 db c4 da 40 0c 77 ac bf 1e 32 03 a0 db a7 a7 3f
       -0.05559576312715261 0.046202529223226416
000140 b6 3d f8 51 37 7f cd bf 96 a3 fd 2a 57 d1 c5 bf
       -0.23044482710291242 -0.17045106505545665
000150 12 46 6a 5b 49 96 c4 3f 31 23 be 68 16 59 c1 3f
       0.1608363815653751 0.13553123583212703
000160 ab 74 43 11 63 17 85 3f 7d 18 5d 3c 22 ba c7 bf
       0.01029851337846773 -0.18536785075611198
000170 b6 4b ca cc 06 1e ca bf f3 e5 b8 6d c7 d4 a6 3f
       -0.20404133796236373 0.044592125076132215
000180 45 86 11 1d 70 ae ce 3f 89 52 d7 93 6c 17 c3 3f
       0.23969842357023388 0.1491523477440249
000190 9f 2f 91 71 28 e7 c6 3f de 1d 00 fd 35 67 85 3f
       0.17892938180227433 0.010450765403233694
0001a0 6b f9 3b e8 c0 b4 b6 bf 6e 24 08 0f 89 91 d9 bf
       -0.0886955801943025 -0.39950777500104706
0001b0 a9 21 6d 6f ba 0a ba 3f 77 cf f0 ae df bc c1 3f
       0.10172620029800918 0.1385764698221654
0001c0 c4 c9 52 48 7d 6e c3 bf 0a 57 73 50 f8 7f a9 bf
       -0.1518093684331473 -0.0498044584470972
0001d0 c9 02 ed 74 57 3a c1 3f 83 e6 d1 e4 1d 9d bf bf
       0.13459294518727052 -0.12349116169380107
0001e0 9e e4 c8 1f 0f 83 91 3f 46 3c 22 c0 52 bc c0 3f
       0.01710151320933006 0.13074716931848424
0001f0 f2 d6 1f 11 32 c7 bd 3f d3 40 8c b3 9d 31 d3 3f
       0.11632073324275519 0.29990332159014804
000200 30 96 9b 6b a9 74 95 3f 02 ec 10 53 f6 33 b4 3f
       0.02095284194265029 0.07891788032513605
000210 74 4a 63 8a 76 39 a2 bf 0c 21 a4 b3 26 f0 c2 bf
       -0.03559465827278965 -0.14795383235492243
000220 1d 45 99 00 7b e6 c5 bf 66 ab 6d 38 e2 f6 af 3f
       -0.1710962059901612 0.06243044794867707
000230 c1 53 36 bc 22 6b cc bf 1e c5 c4 fb db c3 9f 3f
       -0.22201952161836228 0.031020581475961533
000240 bc 7d fe 11 c3 ba bb bf 5e 14 b4 b0 d2 97 c5 3f
       -0.1083185118609355 0.16869577053163004
000250 06 0a 65 31 6b 6d b9 3f b4 e6 df 69 50 ea b2 3f
       0.09932584720539958 0.07388784966306156
000260 39 1f d1 79 cd 96 bd 3f 59 3e ae 23 b4 99 bc bf
       0.11558231567425716 -0.11172033187016818
000270 d3 1e 23 4f 30 77 a1 3f 95 56 59 0a 80 5d b6 3f
       0.034112462673474696 0.08736419918690282
000280 a0 be 26 f8 11 29 c7 bf 66 5d b6 b7 16 3c 96 bf
       -0.18094086281552269 -0.021713595354950675
000290 2a b6 65 21 92 27 8b 3f c3 69 29 51 a1 8c b1 3f
       0.013259069103436511 0.068552095713506
0002a0 22 67 b4 f3 49 03 d0 3f d9 7f d6 6c 72 c5 bb bf
       0.25020073699271184 -0.10848155171561248
0002b0 02 3e 46 3a c1 f5 c8 bf 43 b8 bb f1 54 44 c5 3f
       -0.19499984116963281 0.16614782145865278
0002c0 61 0b 3c b5 92 59 af 3f c3 f9 ad 1e 72 87 b8 bf
       0.06123026335082816 -0.09581673859609112
0002d0 77 b8 dd 1b 98 1e b0 bf dd c6 56 2e 2b d0 6c bf
       -0.06296683006596192 -0.0035172313098080625
0002e0 5c fe 40 b1 ce 1d a7 bf 3e 1d ad d5 d3 c6 a6 bf
       -0.04514928735488574 -0.04448568328239809
0002f0 d6 7b e2 5f a2 10 c0 bf cb 66 a2 e0 fd d5 b4 bf
       -0.12550763780470103 -0.08139025434720819
000300 d7 ed 29 ee 99 fb a5 3f 2a fa 02 de 60 9f c1 bf
       0.04293519050858279 -0.13767634239589316
000310 be 7f 07 34 60 d9 c0 bf 10 2a b8 65 bd 31 c3 bf
       -0.1316337827729494 -0.14995543925063304
000320 06 da 73 e3 07 9b b1 3f a7 c1 59 0a 7c 4d b5 bf
       0.0687718324951235 -0.0832135701437041
000330 62 97 04 02 61 a7 b5 bf 93 bb 29 be b5 f7 c0 3f
       -0.0845852498938178 0.13255950722983964
000340 f9 9a 4e d4 05 e7 d4 3f 81 4c 6c b2 b4 ad c0 bf
       0.32660051091299597 -0.13030108177244773
000350 bb c5 ea 63 5d 27 ce bf 91 b0 66 27 51 f3 c7 3f
       -0.23557631853831915 0.18711294578441032
000360 46 40 c3 85 67 64 95 3f 17 8f 4b 82 48 9b a9 bf
       0.02089082483217932 -0.05001284208790773
000370 5a af ae 15 96 c8 c3 bf 22 67 ed 1f d5 30 a0 3f
       -0.15455890711506975 0.03162256254900188
000380 49 09 17 fc 46 fb d2 3f 1e dc 19 44 98 26 c0 3f
       0.2965867482963814 0.12617781949276802
000390 d0 22 0a ef c1 e9 86 3f 8f 2d 16 da 2d 1f d2 3f
       0.011188044650468326 0.2831530217888138
0003a0 f7 aa 7e 71 cc 84 c9 3f 13 10 f2 56 19 77 ac bf
       0.19936519185770127 -0.05559615312907353
0003b0 a9 f4 92 01 47 cb 9a 3f 16 47 81 4a f1 0f ba 3f
       0.026166066618988158 0.10180576390237336
0003c0 fd a2 65 a7 9f 14 c2 3f 95 ce 15 3a d4 d8 b2 3f
       0.14125438378984959 0.07362104814620303
0003d0 61 8b 1f 46 9b 3c b1 3f b7 c7 70 0b a8 5b ab 3f
       0.06733103239052475 0.05343365802435989
0003e0 25 da 1d 47 08 ab ba bf a6 35 75 1c 7b 8d c4 bf
       -0.10417224632497175 -0.16056765450995875
0003f0 61 63 cb f8 b6 bd 9c 3f 8c 0f a5 a6 3c d4 b0 3f
       0.028067454276285434 0.06573847835994523
000400 db c8 33 d9 92 56 a0 bf 41 b4 63 36 4e 76 b0 3f
       -0.031910504354429846 0.0643051989352026
000410 d4 0d b6 0a a3 a6 9f 3f 86 41 c4 e5 4d 9e ba bf
       0.030909106758839247 -0.10397803172623385
000420 b4 2b 9e ff b4 19 b1 3f ee 90 20 a2 f3 ad c8 3f
       0.06679850807829163 0.19280858436935183
000430 8a 2d 86 0d c2 f0 b0 bf 70 20 e6 8f 00 df ac bf
       -0.06617367582491887 -0.05638887173250928
000440 1d 03 97 b5 9a 03 92 3f 0f 46 76 07 7e f7 aa 3f
       0.017591874440543543 0.05266946641053149
000450 1f 8c 71 52 f8 24 a0 bf 23 f6 39 6a 43 c4 c6 bf
       -0.031532058776768894 -0.17786448180042766
000460 52 db 6b 72 fc e7 ac 3f db 03 bc 73 93 42 b3 3f
       0.056457413642354695 0.0752346189074297
000470 4b bd a6 3a e9 b8 b3 3f c8 65 e6 bc 41 25 d0 3f
       0.07704026872555862 0.25227397391571715
000480 c7 bc ba d5 fb 58 a3 bf 4e 45 41 dd 0b 39 a3 3f
       -0.037788266983051204 0.037544604071295326
000490 5e cd ee a3 cf f3 bd bf ac ec c2 74 72 8d ac bf
       -0.11700151207224027 -0.05576665568647718
0004a0 93 24 d2 aa 0e ae c9 bf 2e 7f 04 00 f2 c7 c7 bf
       -0.2006243070684702 -0.1857893467031259
0004b0 c3 85 93 b5 df c4 c2 3f 0b dd 89 f6 ac 4b c3 bf
       0.1466331135371047 -0.15074693716062657
0004c0 0d 12 ad cd bf ff a0 3f ea a6 db 15 33 e8 b1 3f
       0.03320121179288913 0.0699493339885994
0004d0 1a ca dc bd 76 61 8a bf f2 c3 3d 57 73 3d ae 3f
       -0.012881210011618061 0.05906258048970149
0004e0 de c3 89 e6 77 bd bc bf 75 f6 7b 98 0b 0d cf bf
       -0.11226605776188545 -0.2425856108238126
0004f0 b5 ae f8 70 8d 35 a9 3f ff d6 d6 f0 76 2b b2 bf
       0.049236698189216645 -0.07097571735252116
000500 b3 f7 6a 87 75 8c c0 bf 52 4c 50 04 b9 27 c0 3f
       -0.1292864714832241 0.12621224127414848
000510 e5 35 71 3c df 96 a6 bf f3 3b 4d 9b e9 d0 9d 3f
       -0.04411981213398145 0.029117250541556627
000520 fe 1c 38 db 03 26 98 bf e5 db 4b 57 64 ff b5 bf
       -0.023582515959813748 -0.08592822200067436
000530 36 0a 69 77 48 1c b1 bf 5e 16 a0 c2 9c 87 c2 bf
       -0.06683781543055364 -0.1447635603255319
000540 18 b9 bb e4 8e 57 95 bf f6 e6 1c ef d0 bf c7 bf
       -0.020841820441028863 -0.185541264299722
000550 4c fb 65 cf 18 f5 c9 bf 12 e8 bd 6d f1 76 a8 bf
       -0.2027922642409642 -0.0477824636900125
000560 be 0e 7d 4c 64 55 a1 3f 12 fa cf 4b cb 50 b4 3f
       0.033854612671829085 0.07935782051934151
000570 21 80 6f b3 a5 2f c2 3f 76 d5 34 2d 49 c8 c0 3f
       0.14207907926083954 0.13111223895399932
000580 16 86 30 c2 96 4f a0 bf 4c 70 44 3f f0 e3 a9 bf
       -0.031857215122965396 -0.05056715748125437
000590 f4 07 d4 a7 74 f2 85 bf 50 ee 87 47 6d 79 c1 bf
       -0.010716353770934696 -0.13651815407489432
0005a0 39 2f e2 d2 27 7c 84 3f d0 8a 2c a2 14 6f b1 bf
       0.010002432940630622 -0.06810120543790821
0005b0 39 1f 80 df 0d dc b8 bf 47 c2 d7 ee b5 a8 c0 bf
       -0.09710776049189186 -0.13014864122625822
0005c0 e7 4f e7 bc 1e 63 be bf e4 43 c4 a5 bc 96 b9 bf
       -0.11869995223906891 -0.09995631262815113
0005d0 39 78 d4 23 c6 d7 b5 bf 54 f6 b5 87 e8 1d b8 3f
       -0.08532369971041555 0.09420636475803096
0005e0 77 63 7d 0a f2 ca 9d 3f 30 96 dc c0 8a ab b1 bf
       0.029094488039251822 -0.06902377327477249
0005f0 50 40 7c 1a 3e b2 c0 bf 9e 74 04 05 01 0c ae 3f
       -0.13043953221540727 0.05868533312080014
000600 50 00 6d 9d bc a9 94 3f 4f eb 34 20 a7 08 56 bf
       0.02017874441958184 -0.0013448364341701218
000610 4d 19 c2 9b c6 38 98 3f b9 41 c3 fe 15 84 69 bf
       0.023654082543111788 -0.0031147412865737104
000620 c8 61 08 6f 50 de bb bf 38 91 6c de 19 56 ba bf
       -0.10886099539528182 -0.10287629776263862
000630 22 d9 50 82 9e 55 7e 3f 5a af 1b 41 e5 c9 a6 3f
       0.007405871559106355 0.044509090612193616
000640 8d 68 d7 65 7b d5 a5 bf e8 95 c9 6a 62 d0 c8 bf
       -0.04264436357671384 -0.19385938848715445
000650 7e 64 77 32 05 b4 d4 bf 5a ce d4 f1 98 09 ce bf
       -0.3234875672183718 -0.23466789062659893
000660 00 50 7f 8f b1 21 98 bf 7b a1 2e b1 b5 f7 b2 bf
       -0.023566030867939958 -0.07409225059257622
000670 e2 a4 56 07 83 00 bd bf 02 0e f5 ff 52 12 73 3f
       -0.11328905991708241 0.004656147211167918
000680 5d 6c a2 58 53 15 b9 bf 67 9c 4d 9f ed ee b6 3f
       -0.09798165239264862 0.08958325518834585
000690 f4 ce 0a 0a 36 53 55 bf 49 9a 85 22 5b f6 8a 3f
       -0.0013015773512678437 0.013165199271225296
0006a0 b4 fc a3 e1 c4 27 a6 3f 78 9b d6 ee 25 bf b6 bf
       0.04327216390992686 -0.08885418969167158
0006b0 2e c4 14 bd 65 d7 9b bf f1 a7 ce 98 76 fb b7 3f
       -0.027188863435359582 0.09368077498098139
0006c0 c2 23 65 af b6 84 b8 3f 8c a0 73 f2 05 9c 7c bf
       0.09577504903894776 -0.006984732847946994
0006d0 79 ff 83 12 ba 1e ad bf 8a 08 91 bc 44 5f b1 3f
       -0.05687505222340312 0.0678599319808503
0006e0 81 ec 7a 46 3d 92 bd 3f 1e d8 e2 42 97 85 d0 3f
       0.11551268549639994 0.2581537392792387
0006f0 c2 0d 44 5e 45 b4 99 bf 06 eb 26 2a f9 ba c2 3f
       -0.02510174167492863 0.14633097227291375
000700 9f c6 32 96 b4 77 d5 3f 97 ae 6e 55 e6 a0 ad bf
       0.335431238821096 -0.05786819260478387
000710 7b 1c 32 77 47 d7 a0 bf 02 69 35 6a f1 92 b2 bf
       -0.03289244966531953 -0.07255467265114038
000720 70 9b dc 83 75 82 c3 3f e6 e0 49 6e c0 7c b8 3f
       0.1524187940460382 0.09565355961410979
000730 9f 34 bd 0f b1 b6 a9 3f 71 c2 ee 78 54 ca 96 bf
       0.05022195164802067 -0.022256202584403476
000740 6a e1 9a 4e d2 2f b2 bf 33 4d f8 6e b6 dd b9 bf
       -0.07104219836299355 -0.10103931626536138
000750 fe 07 bc 23 f8 19 c3 3f 94 a1 f7 da 4f 05 a9 bf
       0.14923001999710545 -0.04886865184727465
000760 97 46 05 e1 fd c6 c7 bf ca 6e e5 0e 93 df 8b bf
       -0.1857602452023925 -0.013610028164002048
000770 f4 e7 3e 71 b7 0d ca bf 26 20 e4 9d f8 9b b8 bf
       -0.20354359654976373 -0.09612993101848186
000780 01 79 12 ba ff c2 ca bf b8 89 d5 61 79 56 b9 bf
       -0.20907589517168648 -0.0989757408001769
000790 c1 79 10 5e 55 7e a7 bf 1f c7 ce 51 52 49 b4 3f
       -0.04588572285887294 0.07924379822977955
0007a0 41 75 53 9c fe 7c c0 3f 4e 76 ea d4 f5 06 af 3f
       0.12881453164201598 0.060599977722841744
0007b0 9a c0 69 90 82 8a c2 bf 64 02 f1 f9 e4 9a d1 bf
       -0.14485199023647938 -0.2750790062746431
0007c0 34 5e 47 5b 99 91 b5 bf 37 88 ad 55 61 0f a4 3f
       -0.08425291517721051 0.03917984171745597
0007d0 04 a0 b3 a0 8e 29 7a 3f 13 cc 26 93 33 2c c2 3f
       0.006387288226711977 0.14197392163404796
0007e0 f2 fb 59 0a 19 d7 bd bf f7 d0 47 c9 cb 38 b4 3f
       -0.11656338217470344 0.0789916387946653
0007f0 eb aa 3d b9 2d 91 cc 3f 4e ad 47 f7 1c 23 c8 3f
       0.22318049950566574 0.18857156824320004
