results/old/run_1/saved_model_unet3_64_128_6.pt (torch, 351968 bytes, 75 tensors)

module.down_path.0.block.0.weight f8 [8, 4, 3, 3]
0.05403337842429997 0.4304181353387704 0.08281805965173145 -0.016241576675582233 -0.419868697877405 0.18578998877247516 0.12805228534393098 0.2009699672902323
0.13275274701467457 -0.3502888993962222 0.1942231335710027 -0.28501272113079645 0.13739760125305273 1.603869171620967 0.7378063791900737 -0.25321912161922167
-0.05670101355579196 -0.24570238201023675 -0.09919368990341158 0.02291167114422507 -0.08244437756970212 0.06214151342583153 0.17697046917029474 0.15858847350405073
-0.09490161736842102 -0.15686098429998754 -0.029491484802181365 -0.004866841683761281 -0.02466080239847154 -0.034025636867327305 -0.10416255751886844 0.08537184716601254
-0.09307192945072376 0.049931006338519 -0.07687438660954725 0.04431116214117818 0.28131947348557923 0.5301444800016655 0.1976976967804689 -0.0777243865793535
-0.6392688917201536 -0.0799520899981622 0.1961769012999124 0.38077608360240867 0.03035709851311709 0.30229647523774805 0.08363491518010685 0.2343953459908566
-0.615995048100498 -0.8894500200242097 -0.6576591365672294 0.3351098407425513 -0.10183797532404558 0.2987751736072688 -0.21080658484562625 0.15405719804694562
-0.15483221955087492 0.14523043953578652 0.3122557346973242 -0.010344927130230443 -0.18871759006295158 -0.11420024404035191 0.05197216677597348 -0.0858083657890881
0.046004832935990315 -0.08477305947413426 -0.025931059888801365 -0.03777615840278846 -0.02677921631611285 -0.015205715609845369 -0.057060671145157456 0.058511736796490084
-0.12089656550809016 -0.1093410387186442 -0.08141780480912726 0.3898141266479255 0.8218959233561237 0.198201895192122 0.107780064947335 0.8890997947047765
-0.07662762820654434 0.0869611283102024 -0.023928758300436444 0.09924412327517851 0.007192580133966529 -0.3234218108520117 0.12335012197965847 0.15440978767614355
-0.3982814063122644 0.1796826342387953 -0.08478188285906975 0.152492614967271 -0.10698669904791894 0.24504218049045767 0.5804489949517256 0.22621652315360427
0.2550770803965209 0.7246540282083689 0.11789439854212144 -0.007323522419970783 0.04520553027139878 -0.06777860975921776 0.025345816524810647 -0.09215621389335807
0.13729587571053378 -0.01657247594477333 0.06627221959100822 -0.07453731840346439 -0.09288123939527829 0.2681555416803799 -0.011484650392255314 0.3346785417740402
0.8923698689611708 0.683178050219005 -0.26493103587590855 0.620425166752012 -0.04653947982173273 0.1624406964656241 0.055848157878698124 0.26554892588605794
-0.08469246741877472 -0.44716020269880996 -0.12011214188225837 0.11301617808117582 0.037725049501070584 0.2080903895657278 0.1574080239182156 -0.11612599821519194
0.0637955320501381 -0.07341936960829593 -1.2036134331696624 -0.42619530573098824 0.10041063178446444 -0.2163750183969205 0.07347182559172545 -0.0358378722779537
-0.013252440052704985 -0.054184946342252294 0.01947652285005936 -0.0374974013537187 0.02087131286751578 -0.03683932880624116 0.06939009330539485 -0.020531386852696273
0.13885434445522613 -0.35558358442633825 -0.1600490875471237 -0.3466403103485689 0.7545926399738425 0.09138511521245392 -0.10736487706617984 -0.17191890942697016
-0.32431971475265337 -0.07613939551841867 0.12480003863825427 -0.10355806918252412 -0.09013429564820717 0.15039438668736338 0.09917977233400911 0.09469061290503235
-0.21984976902963588 0.009796021409801433 -0.27369465220826433 0.15001489372240318 -0.2804998586692472 -0.15075170809404181 0.5314885478722964 -0.07118617875571899
-0.0053062382880089175 -0.3144394402925891 -0.09567153516452877 0.05469764954429128 -0.27660602861213585 -0.07486725329131798 -0.04081160103326412 -0.1425223450858246
-0.08292670767803771 0.05037361385491577 -0.078884272400505 0.03577921321501265 0.1583748362735241 -0.4533534626994573 -0.07725870471234685 -0.4733557583126446
-0.7613979458351697 -0.7413579414548724 0.24446316206664012 -0.7795072582207483 0.002444622973862683 -0.1057268451576524 -0.08326576577398881 -0.17956394052372973
0.05317084229065854 0.3916826193994922 0.11697663270092534 -0.09134829272954703 -0.056918038929821536 -0.22901673378735893 -0.18734971565414102 0.14997179424380747
-0.04234418489831575 0.23860938480615274 1.030055196296939 0.5359804604594886 -0.1139492959933841 0.307536232265892 -0.07437865371222656 0.014538143787270547
0.0259296755375096 -0.001416973788306226 -0.009146987179013235 0.07329077336503881 0.006478484850442559 -0.0032912620721522443 -0.05719196416118712 0.007340844648699904
-0.11414252434069272 -0.7146142031968926 0.012770270787587084 -0.4273569219221133 -0.9316709583833446 -0.17354159180717724 0.17941769639584465 -0.2429044808285261
0.2226074518676226 -0.23062389005429168 0.2548708881159535 -0.2634453832878252 0.0025661014086578097 0.5626514940946267 -0.13401297504819254 -0.13312349310646113
0.07754955061812112 -0.06125389780746499 -0.17732101097037456 -0.6014613060167775 -0.13148101160599 -0.34303347950464336 -0.7744041991431492 -0.21955091597182055
0.048952472638457055 -0.04564943691995508 0.056448048002959196 -0.04622787428564404 0.1137713946482104 -0.0604707127791736 0.03695626827493601 -0.07436547461427315
0.02639795192911814 -0.05496974803701447 0.06807932750429213 -0.03324245314269293 -0.07297635201870188 -0.44866802716646176 -0.11889701328317015 0.014694082355830952
00000000: cb13 7352 43aa ab3f 18a9 b881 f88b db3f
00000010: d4ec b879 9033 b53f 5fdf a0c2 a1a1 90bf
00000020: 02d8 7ff5 20df dabf beda d962 f7c7 c73f
00000030: a078 dd6c 0464 c03f b8af 7e46 62b9 c93f
00000040: 91eb 70c1 0afe c03f 3ec0 c321 226b d6bf
00000050: 4f34 68bb 4ddc c83f e8d8 0cff a53d d2bf
00000060: 8221 f79d 3e96 c13f 6dcb 72b8 72a9 f93f
00000070: 6ed9 ac1f 1c9c e73f cce3 84f9 bd34 d0bf
00000080: 448e be4d ea07 adbf 0c42 a4f7 2c73 cfbf
00000090: cfce 1af6 c164 b9bf d86b 0b39 2876 973f
000000a0: 6fa4 6621 131b b5bf b299 c62f 03d1 af3f
000000b0: 4adb b8e4 f7a6 c63f 9579 9c89 a04c c43f
000000c0: e553 efee 784b b8bf c91c cb4e 0514 c4bf
000000d0: a982 f10a 0433 9ebf 8172 dddd 40ef 73bf
000000e0: 779f 2d6f ae40 99bf 6238 24eb ce6b a1bf
000000f0: dce1 02ba 65aa babf 10bf 93eb edda b53f
00000100: 4a9e 2add 8fd3 b7bf 8184 8f8e 8e90 a93f
00000110: 4758 6330 0aae b3bf 76fc 7ce0 f3af a63f
00000120: db4d 9664 2301 d23f f462 788e f1f6 e03f
00000130: 6854 157b 284e c93f 8dc1 75d2 bee5 b3bf
00000140: 2339 e908 e474 e4bf faf8 c97b bd77 b4bf
00000150: c028 a81f 531c c93f b2f6 8aa6 a25e d83f
00000160: e4da 4265 ee15 9f3f a2e6 b550 d358 d33f
00000170: 4496 8009 1969 b53f 42c3 aeac aa00 ce3f
00000180: e3dd 423f 3bb6 e3bf dec6 6de3 5f76 ecbf
00000190: 6119 6f2c 8b0b e5bf 51a6 a38b 7072 d53f
000001a0: 17f4 81b5 0d12 babf 0cff dfe7 211f d33f
000001b0: cac1 d8cd b5fb cabf 789a a971 25b8 c33f
000001c0: d946 abcb 8ad1 c3bf ec4e 183a e996 c23f
000001d0: 87dc 207a fffb d33f 6178 a19d b82f 85bf
000001e0: 360a c0e2 e527 c8bf 4939 5929 3a3c bdbf
000001f0: eeca 3589 189c aa3f 068f c97c 89f7 b5bf
00000200: fd06 d609 f28d a73f fff4 05ee afb3 b5bf
00000210: f62b b1f8 ab8d 9abf de25 d189 6557 a3bf
00000220: ef2d 29c9 026c 9bbf ab70 0d9a 2c24 8fbf
00000230: 319b e968 0e37 adbf 2938 f217 40f5 ad3f
00000240: fa53 0ecb 13f3 bebf 5041 6839 c6fd bbbf
00000250: d5a1 f718 ccd7 b4bf 622f 5ef3 b6f2 d83f
00000260: 01f8 f0ad f84c ea3f 367d ed00 ae5e c93f
00000270: 1c0c 1c6e 7997 bb3f 0065 a469 8173 ec3f
00000280: e0fd 1d45 de9d b3bf 9796 1da2 1543 b63f
00000290: 0f49 56c9 c780 98bf 587e c917 1068 b93f
000002a0: 181c 3087 f775 7d3f 0c0a 1b65 f1b2 d4bf
000002b0: f238 dca3 df93 bf3f ec2b 202e b3c3 c33f
000002c0: fcd3 ad4b 717d d9bf 1d7d db2e d7ff c63f
000002d0: 394a 2cf6 43b4 b5bf d23d 15c5 e084 c33f
000002e0: f28e 84f5 7a63 bbbf f86b accb 8a5d cf3f
000002f0: 150a 4ac5 0993 e23f 2b39 61bc a9f4 cc3f
00000300: 36c8 90d1 2e53 d03f 363a 02a5 5d30 e73f
00000310: 6eb8 1eca 532e be3f e493 9014 45ff 7dbf
00000320: a75d 3ae4 2d25 a73f 76c0 4860 f059 b1bf
00000330: 8c06 42f4 40f4 993f 328f cbb4 8c97 b7bf
00000340: cfb5 0648 e992 c13f eb43 c908 60f8 90bf
00000350: 85d6 c657 37f7 b03f e4d9 dfb0 e014 b3bf
00000360: d25a 9d9d 10c7 b7bf 9289 70dc 7529 d13f
00000370: bad0 b9ae 4385 87bf 12eb e58b 5f6b d53f
00000380: 16f8 6341 4b8e ec3f 3a24 e136 98dc e53f
00000390: 5513 b24d a1f4 d0bf 6e16 1ae1 85da e33f
000003a0: 8848 9dcf 05d4 a7bf 24fe 6d53 dbca c43f
000003b0: 30ff 4237 2198 ac3f 78c9 0aec c0fe d03f
000003c0: 9bfb c7d1 67ae b5bf f080 aad3 459e dcbf
000003d0: af9f 3c59 abbf bebf 510e c7d4 a0ee bc3f
000003e0: 60b4 b19b b250 a33f 49fa e5b4 b4a2 ca3f
000003f0: 0fa9 6d35 f225 c43f d5b2 8cf4 6eba bdbf
00000400: 8848 c96b e754 b03f 244e 5c9f 9ccb b2bf
00000410: f7d6 c728 0042 f3bf 35b1 f4ac c846 dbbf
00000420: 625a afdb 82b4 b93f 7bd4 d735 2db2 cbbf
00000430: 4d08 18b0 0ccf b23f f7b8 c872 5759 a2bf
00000440: 01d4 f264 1824 8bbf 3873 f318 21be abbf
00000450: 1224 b952 a7f1 933f 2f98 ff00 dc32 a3bf
00000460: 4723 c318 4a5f 953f dcd9 dbc0 9adc a2bf
00000470: 43be 6995 8cc3 b13f 9ca0 4b0c 2e06 95bf
00000480: 17de 2baa fac5 c13f c9c1 86a6 e1c1 d6bf
00000490: 3180 620e 7d7c c4bf 8008 1bd7 5a2f d6bf
000004a0: b8ad cf76 9f25 e83f 15be 2dd1 0365 b73f
000004b0: 6a01 bdbb 437c bbbf e7c2 c656 7001 c6bf
000004c0: 6de2 137a a7c1 d4bf 5256 b015 df7d b3bf
000004d0: 97a7 7d34 e5f2 bf3f 7b37 6018 c882 babf
000004e0: 7f9a 0e8c 0a13 b7bf 807f 298e 1f40 c33f
000004f0: 616b 9976 d863 b93f b951 aadd a43d b83f
00000500: eef9 0188 0924 ccbf 9127 b0bc ef0f 843f
00000510: 13c6 1493 3684 d1bf 7cae 3923 b033 c33f
00000520: 2a17 e1ad b5f3 d1bf 043f 0afc d44b c3bf
00000530: e0eb 6945 f401 e13f 99da aee5 4139 b2bf
00000540: 05a8 967e febb 75bf 0e45 289a c61f d4bf
00000550: 7194 b002 ee7d b8bf 06ee eb8f 5401 ac3f
00000560: fffe b0c5 e9b3 d1bf 8374 6d14 802a b3bf
00000570: 3475 7817 42e5 a4bf 47e2 8b15 2c3e c2bf
00000580: 0b2f 7149 af3a b5bf fd27 2d00 92ca a93f
00000590: 3001 217a c231 b4bf 902a 452d a751 a23f
000005a0: 14ee 266b a045 c43f 40a4 f43d be03 ddbf
000005b0: 4723 12fa 39c7 b3bf a3de 54f3 754b debf
000005c0: f750 9339 5f5d e8bf c3b6 254a 34b9 e7bf
000005d0: 6d94 13a3 914a cf3f 0eb0 a134 b9f1 e8bf
000005e0: aa4a 29f7 be06 643f 58e9 421e ea10 bbbf
000005f0: 702c e0bc e750 b5bf 398f 0b82 f3fb c6bf
00000600: 2772 7a69 3539 ab3f 34e0 2efa 5311 d93f
00000610: ecbf d83b 2ef2 bd3f 709f d109 9a62 b7bf
00000620: 7517 8377 5c24 adbf ae3d ed9a 6b50 cdbf
00000630: af20 d352 13fb c7bf 80bf cc97 4632 c33f
00000640: 46ca a012 23ae a5bf e66b 2198 c08a ce3f
00000650: 32b9 5228 1b7b f03f 27fe 9e7e c026 e13f
00000660: 709d b1f3 c72b bdbf 36b1 fa72 acae d33f
00000670: ebea 36bd 7a0a b3bf 2a11 e3a0 2cc6 8d3f
00000680: 86cd b711 4f8d 9a3f b8c6 1f05 3837 57bf
00000690: 5b8b 53d6 a7bb 82bf 448e b322 2fc3 b23f
000006a0: 83ea f608 2f89 7a3f fd76 ccde 46f6 6abf
000006b0: a225 55df 4348 adbf 9615 0ffb 6e11 7e3f
000006c0: f84b 20c9 7138 bdbf ab9b ff9a 1ede e6bf
000006d0: c366 26bb 4c27 8a3f 1efb d7d8 d059 dbbf
000006e0: 4f76 1c9d 3fd0 edbf b15f a762 9c36 c6bf
000006f0: f601 2cb9 28f7 c63f afed 9a78 7e17 cfbf
00000700: c604 cfa6 667e cc3f 52d0 ba68 1585 cdbf
00000710: 8e45 4afc cd4f d03f 9c37 6006 4adc d0bf
00000720: 6fe4 1b34 8105 653f 9bd2 c5b4 3d01 e23f
00000730: dc2b 8950 5627 c1bf 295b 9ccc 300a c1bf
00000740: 7b6d b98f 49da b33f 39d2 abbf ab5c afbf
00000750: 1476 8173 74b2 c6bf 26d9 e4c7 2b3f e3bf
00000760: c344 72aa 5ed4 c0bf 32f4 f9b1 42f4 d5bf
00000770: 848e a650 ebc7 e8bf b1f1 f391 3e1a ccbf
00000780: 73bd 146a 4c10 a93f d5d5 4ded 5c5f a7bf
00000790: dd05 3130 c2e6 ac3f 94dd 7010 2eab a7bf
000007a0: e0ff 3b43 1f20 bd3f 5035 816b 04f6 aebf
000007b0: bd00 3f97 eeeb a23f 6a79 6ba1 9d09 b3bf
000007c0: 2e26 de90 1008 9b3f 8d3a 2dac fe24 acbf
000007d0: c023 2a95 a56d b13f 2261 2ca2 2705 a1bf
000007e0: bf3c 4d05 94ae b2bf f335 dc19 fab6 dcbf
000007f0: e0ae a4df 0870 bebf d4df 4d59 ee17 8e3f

module.down_path.0.block.0.bias f8 [8]
0.08192380517480538 0.13844752310833128 -0.06528556347448493 0.12391086667568758 -0.08753435313266947 0.058966480197395074 -0.14533609152030982 -0.07328488677956627
00000000: aa5a fd5f f5f8 b43f c732 fbff a5b8 c13f
00000010: b31a 0600 8eb6 b0bf 5db8 fd5f 9fb8 bf3f
00000020: 7a38 fbbf a668 b6bf 461e 04c0 da30 ae3f
00000030: 7d0c 0180 5f9a c2bf 7a61 0260 ccc2 b2bf

module.down_path.0.block.1.weight f8 [8]
0.8383084426906245 0.4185667150108427 0.90056492902313 0.9478498286000081 1.0540136474951427 1.199411032706106 0.8499099303466109 0.7875783835174333
00000000: 3b24 2a3a 6cd3 ea3f 2f9b 0a0c ccc9 da3f
00000010: 6386 c28a 6dd1 ec3f 5266 eb29 c954 ee3f
00000020: 0e78 186a 3ddd f03f f1f2 7e9f c930 f33f
00000030: 724c 6c4f 7632 eb3f 34ce 0795 d733 e93f

module.down_path.0.block.1.bias f8 [8]
-0.14897458455576995 1.5150182242800416 0.10951084879283773 -0.16531328854902272 1.4131294331914157 0.23760181761907298 -0.01464732784669551 0.18028652840899836
00000000: 8015 4d64 9911 c3bf 4207 e2bf 833d f83f
00000010: 2c58 1f2a e708 bc3f 10c5 f45f fc28 c5bf
00000020: 8427 c99b 2d9c f63f 0d71 1282 bc69 ce3f
00000030: b24f 9a10 6bff 8dbf eb87 b603 a113 c73f

module.down_path.0.block.1.running_mean f8 [8]
-0.3888438168835366 -0.5547304668679361 -0.011171856498092752 -0.11126086448965421 -1.8068428057882238 0.22499455383756622 -0.1920826108390843 0.3414762565187411
00000000: 0310 312d d1e2 d8bf f55c a91b 5ac0 e1bf
00000010: 96fb 5b32 45e1 86bf dfc8 4e8e 977b bcbf
00000020: 0af9 7d00 d4e8 fcbf b256 411d 9fcc cc3f
00000030: a092 d7b9 2996 c8bf a9f1 863a bfda d53f

module.down_path.0.block.1.running_var f8 [8]
0.19673356864825153 0.14628052821183443 0.6288344419671827 0.5665800867273949 0.36581014939269224 0.682347304492114 0.6791192477840168 0.1757017271204265
00000000: 6c4f afc9 902e c93f 4710 5b02 52b9 c23f
00000010: 641e 5b68 691f e43f 5ee3 e18f 6c21 e23f
00000020: 69ef 0bf9 6e69 d73f 16d6 a903 cad5 e53f
00000030: 8b20 ea49 58bb e53f 0b9e eae9 647d c63f

module.down_path.0.block.3.weight f8 [8, 8, 3, 3]
0.07414001945969205 0.1843508043545358 0.07497807323595172 0.19465064517643935 -0.06081465210450038 0.35007526921906057 0.07817329831480636 -0.01343138989158553
-0.029036535014609288 0.060398902838798084 0.31644486661077764 0.21590938575181529 0.21222420753899351 0.14857316224667091 0.27703981204805433 0.15791848754689544
-0.27922656634922993 0.02162611873569425 0.003060724919800119 -0.41851638906189753 -0.07099457162172532 0.17530934606368112 -0.2554621429708498 0.10476097131862465
0.09149445675472719 0.2600006154115977 0.07250978030760327 -0.015209601192577133 -0.18768612182386227 -0.048877828184920764 -0.17015237921933415 0.3216059262492716
-0.09553314251577981 -0.16937938940898686 0.016522571935529685 -0.1958445730822606 -0.1976715922059148 -0.11067082358492888 -0.08201514476137799 0.16907915182046568
0.13123127624737105 -0.20688346848933045 0.1723046755980709 0.36475810922624297 -0.15402263816687514 -0.07510814851569685 0.17672437989591316 0.04496520307945824
0.12548646475252104 -0.24627384210440867 0.10171109667884148 0.08294146460432152 -0.05138489625159911 0.14598826460974465 0.04481532152261063 -0.015856079389027167
0.014616115403462231 0.12874123079796432 0.8485120344516737 0.12828608765222874 -0.04377494658919057 0.5056729168381854 0.012374643812118573 -0.037476423656302764
-0.2117729286334632 -0.04300804225704942 -0.09919000583311058 0.14714366238713902 -0.3030873374331078 -0.03474162190796213 -0.00042654799391891895 0.07778549264606197
0.14100354820787891 0.3896372911263759 -0.13867187712157095 0.5587349882281369 0.7978361605101126 -0.023473251559045363 0.009968455161536282 0.4768115023151767
-0.18332755755323898 -0.056450083823540116 -0.47933321322417277 -0.01121016444674582 -0.39595865109941064 -0.18916614801782997 -0.12330532527693638 -0.06844541185242525
-0.22627501688263663 -0.019067373623328946 -0.05639459506945094 -0.05638956826302933 -0.14249899721741946 -0.06589642257421006 0.04983343446786681 -0.1384630929927035
-0.002736013216969778 -0.17119350622826005 0.05787674036824404 -0.084405625843943 -0.13837317002435232 -0.004291246872250227 0.1461301648683732 0.22285189903164737
-0.0986986615645266 -0.13789431603448762 -0.1345518250705076 -0.02891942624534337 0.11810515682265944 -0.16064630441980632 0.027974357991836837 0.025272431728820356
-0.13872687486288227 -0.05214984464706654 -0.075196986014788 -0.16928400189965276 0.1208337615060371 0.0839504428141241 0.07262389588349141 -0.03020637095891424
-0.16427053593491042 -0.06178885387293374 0.02711575260982895 0.08167247263892033 0.10732687578809665 0.0042489701189403675 0.041662017067500154 -0.017246152881808034
0.08758967755643601 -0.13638553965889047 0.05735089889373632 0.03899601776780719 -0.01773462664814677 -0.041851169611107485 0.13629260960789016 -0.17250875458699275
-0.3938399271838766 0.18212358728709668 -0.5639200400158956 -0.6289299723339541 -0.07794168634659643 -0.03024687489041217 -0.5326234165227819 0.16712571244400415
0.037545841397608394 -0.023593612713505966 -0.039473908348619025 0.12640905301539848 -0.22919271074052883 0.1188011437644732 0.028413256019846584 0.039014736408990225
0.03215066191300848 0.3070105814873588 -0.18288333804663945 -0.020897217412143638 0.03414151572961375 -0.07612206236520631 0.06380433297842092 0.1049640175308379
0.17707906988970146 0.028336597886629813 -0.032349516488705904 -0.07881706975812629 0.05589432999507195 -0.18768769314251132 -0.22206846146263687 -0.10413727219790765
0.25698242184810766 0.04476818094183174 -0.0065883609113163285 0.07198743692738722 0.4586020438080194 -0.17622290096324053 -0.1098455342167883 -0.033415249823163844
0.17398635481996874 0.0644092063152669 -0.029902746194978434 0.016404756345134615 -0.2529824973719178 -0.14771736290370827 0.02125005017463781 0.027100377945102005
0.29593135056604986 -0.1533118733449345 0.16368136605545494 0.33685811539462435 -0.23617858356911292 0.03193878033726561 -0.20233350587467003 0.161199783309376
0.04230491730313958 0.0515065140149763 -0.1531675667062867 -0.04837531194113418 -0.009268588620707969 0.06074441658497626 0.010814852335075736 0.09659844870666509
-0.014513951474387023 0.3969024116565978 0.47315242483943265 0.026548927970414582 0.39874478210891506 0.704229959504698 0.08665797667416213 -0.09331018819988686
0.07034754036635579 -0.03162865201055167 -0.16055526529272407 0.3248434572351899 -0.057953511624801744 -0.14286146884254264 0.08268049350280972 -0.08950716366702431
-0.13629144395168216 -0.45793047340714094 0.19388124771700974 -0.4276182571237135 -0.6524402888086238 0.03772853690298689 -0.03455103571249568 -0.47447561119619674
0.22888861797945215 0.06365431182857052 0.627867099879102 -0.12347419976239211 0.46075136132395655 0.7889587119820922 0.12881296895489971 -0.0018715702919259946
0.40649945837505524 -0.05734690265391466 0.04758325477100262 -0.11409530838795803 0.14572754328802404 -0.006961989253486905 0.13410334182868644 0.05479650764829162
0.050605057596748146 0.016088534252303156 -0.023253883419098762 -0.00896904384863192 -0.012665189593035923 -0.025998723492189863 -0.052609148601278063 -0.02610844518079109
0.07382015712074158 -0.017094598954905883 0.05559973891791253 0.042011512116079834 -0.06659673252390491 -0.03709951973840382 0.004007161960353637 0.0354785614362712
00000000: 6778 e71e d7fa b23f d5d5 d8a1 ce98 c73f
00000010: 5f2b 7754 c331 b33f 37cc 96f5 4fea c83f
00000020: c819 d01b 1923 afbf edca 1b1a a267 d63f
00000030: 49bb ae4f 2a03 b43f 38ee 97a2 ea81 8bbf
00000040: 308d 1be1 c0bb 9dbf bb57 d0e0 9aec ae3f
00000050: d224 45f8 a140 d43f 200c 5a33 eba2 cb3f
00000060: d055 66af 292a cb3f 1bd5 7404 7204 c33f
00000070: a7ed 1b31 05bb d13f 354e b949 ac36 c43f
00000080: 7c3c a91a d9de d1bf ae3d d642 2825 963f
00000090: d0ce d72d ce12 693f 5d18 f7f6 f8c8 dabf
000000a0: 2210 4f43 b32c b2bf 7d69 0362 8970 c63f
000000b0: 8e41 5be3 7d59 d0bf 93ef b571 9dd1 ba3f
000000c0: f5de 8643 2e6c b73f ec7d 089f d9a3 d03f
000000d0: 6ab1 0f3f 0090 b23f 1d98 a81d 3626 8fbf
000000e0: 7dc2 924d 1906 c8bf 0984 1bc3 8306 a9bf
000000f0: 65b4 0a9c 8dc7 c5bf ab2f dc05 3195 d43f
00000100: e714 ca2a dc74 b8bf db63 104d 39ae c5bf
00000110: 6d85 6f08 4beb 903f d662 3e5a 6f11 c9bf
00000120: 14b3 ef7f 4d4d c9bf fa2c eb4f ec54 bcbf
00000130: f3dd 86cc f1fe b4bf 868d c0b9 62a4 c53f
00000140: 37ef d8bb 2fcc c03f 0353 9f51 287b cabf
00000150: 1220 5261 140e c63f eaf5 8465 3258 d73f
00000160: 7d9b e288 03b7 c3bf 43bc 89a1 493a b3bf
00000170: a487 078c e79e c63f da58 5ed9 ad05 a73f
00000180: 35f3 19c3 f00f c03f 1a6f d9b8 e685 cfbf
00000190: 303c e009 bd09 ba3f 1939 f5dd a63b b53f
000001a0: ab64 d101 1f4f aabf 7ba0 0c53 beaf c23f
000001b0: c642 99a8 08f2 a63f f0b2 ac79 933c 90bf
000001c0: 562e 38cd 0def 8d3f 1947 f6b7 977a c03f
000001d0: 866f c7b5 0227 eb3f 21c2 7fb3 ad6b c03f
000001e0: 412d f877 ab69 a6bf b75f 09f8 782e e03f
000001f0: e915 c893 e057 893f ff20 f31b 1c30 a3bf
00000200: bc55 5415 601b cbbf ca03 eb6d 2605 a6bf
00000210: a2ac 2427 8464 b9bf 4b1a e280 9ad5 c23f
00000220: b0d7 866e c865 d3bf 1d34 cf63 a7c9 a1bf
00000230: 044e 1eaf 49f4 3bbf 32a1 0403 c0e9 b33f
00000240: 4a1e 167e 670c c23f f025 ac3f d1ef d83f
00000250: 9158 8e04 00c0 c1bf f043 b232 28e1 e13f
00000260: e5a0 1eb3 df87 e93f a786 1b3f 5f09 98bf
00000270: 2695 4867 576a 843f 5138 3364 1484 de3f
00000280: b2c7 1204 4777 c7bf 11d3 c17f 06e7 acbf
00000290: 7ccd ab36 65ad debf 3bd3 73cd 5af5 86bf
000002a0: 5893 42f4 6257 d9bf 9999 9fa9 9836 c8bf
000002b0: 88b1 7c13 f090 bfbf a8a8 7775 a385 b1bf
000002c0: b8d5 b46a 94f6 ccbf 91ff 87c8 6586 93bf
000002d0: 2829 fd9a c0df acbf 41f0 0cef 17df acbf
000002e0: 7d7c 613a 683d c2bf 532f e183 96de b0bf
000002f0: a0dd 9296 c483 a93f 4fa7 0d9c 28b9 c1bf
00000300: b0d3 39e9 d569 66bf 85db 4437 abe9 c5bf
00000310: 5a50 2926 05a2 ad3f 3320 996a 9b9b b5bf
00000320: 1b00 f347 36b6 c1bf ee24 9bcf b293 71bf
00000330: d6cc 88ab 64b4 c23f 34a1 1839 6986 cc3f
00000340: 0b20 94c3 5044 b9bf 9f11 d65c 85a6 c1bf
00000350: b2c0 2584 fe38 c1bf 3c76 c5d7 0d9d 9dbf
00000360: 71d2 0aba 233c be3f f868 dadf 0e90 c4bf
00000370: 4f5f ce62 4fa5 9c3f 6a0d 102f 04e1 993f
00000380: f061 4e5f cdc1 c1bf c452 806a 62b3 aabf
00000390: faf7 b013 1c40 b3bf b48f f221 19ab c5bf
000003a0: c1cc eb1d f6ee be3f d712 5fb6 c67d b53f
000003b0: da4a bac9 7a97 b23f 49f7 983d 6bee 9ebf
000003c0: f2b6 c421 d106 c5bf 4d7c 48e5 c9a2 afbf
000003d0: 0e9e a95a 3bc4 9b3f cab5 f7b6 7ce8 b43f
000003e0: f9e1 7d2d c679 bb3f 3690 3d3b 5e67 713f
000003f0: 1ea3 9451 b954 a53f 51cd 6fba f9a8 91bf
00000400: b273 92f0 466c b63f 39ba 3dd4 1475 c1bf
00000410: 3c23 4ad6 185d ad3f b653 f939 49f7 a33f
00000420: 2a9d d7a5 0629 92bf 63e0 8e39 846d a5bf
00000430: b5e7 7946 0972 c13f 07c7 9c51 c414 c6bf
00000440: 0848 c761 ac34 d9bf 5538 9d61 d34f c73f
00000450: 4dac 2d0a a20b e2bf a8c0 d4bf 3120 e4bf
00000460: 7c8d da81 fcf3 b3bf 9193 d769 09f9 9ebf
00000470: 8292 6143 400b e1bf ee43 a216 6064 c53f
00000480: 9d9b ce61 3539 a33f 51f9 fe8b ec28 98bf
00000490: 3824 ce92 ec35 a4bf af4a 4ffe 2b2e c03f
000004a0: 3c5b 8ece 2f56 cdbf 6420 3273 c069 be3f
000004b0: e530 8355 5d18 9d3f d099 e051 bdf9 a33f
000004c0: 7918 ec32 0d76 a03f d2e7 c0b5 0fa6 d33f
000004d0: 6f62 f2a1 b868 c7bf 9542 7385 1466 95bf
000004e0: 0d37 fd2a ff7a a13f 8dd5 5c48 bc7c b3bf
000004f0: f843 7c13 7b55 b03f 7c3d 8dfe ebde ba3f
00000500: 2cbe fde6 86aa c63f 67d9 cfe4 4404 9d3f
00000510: f486 b8a6 1d90 a0bf bf4a fa00 5b2d b4bf
00000520: 32a9 b87e 2e9e ac3f 9052 f47b 2606 c8bf
00000530: 763f ba45 bd6c ccbf 4d79 6282 bda8 babf
00000540: 0502 5f66 6672 d03f 0cd9 17e2 daeb a63f
00000550: 8fa2 5faa 65fc 7abf 2374 53c7 c46d b23f
00000560: 6030 0263 bc59 dd3f 2fc0 38d6 788e c6bf
00000570: 0ea0 1241 d61e bcbf 9737 5bba cd1b a1bf
00000580: 5175 f353 2f45 c63f 9775 af2a 1f7d b03f
00000590: d940 df53 d39e 9ebf 023b 0190 68cc 903f
000005a0: 0a0f 2b80 dd30 d0bf 6784 5c0d 67e8 c2bf
000005b0: cc59 27ba 92c2 953f 400e ef93 33c0 9b3f
000005c0: f7b4 220c 8af0 d23f 3e70 0d35 b99f c3bf
000005d0: c51d 16d1 82f3 c43f 57c6 4057 158f d53f
000005e0: e4f3 388e 193b cebf 319d 0ba2 475a a03f
000005f0: 10f1 4e77 10e6 c9bf b4d0 b7ca 31a2 c43f
00000600: e2ce 8d78 fda8 a53f 1059 73d2 0f5f aa3f
00000610: f3db e7ac fe9a c3bf ed22 711d a6c4 a8bf
00000620: 6a53 0ce8 68fb 82bf 284d 4b65 e419 af3f
00000630: 03c5 b8e8 1826 863f 0e1a 0a0a adba b83f
00000640: 6e85 5897 7db9 8dbf 0431 715f d966 d93f
00000650: 6e57 ad1b 2148 de3f 50d5 8165 a42f 9b3f
00000660: 9ef0 a6d5 0885 d93f 63f4 9d44 0d89 e63f
00000670: 5bc8 c097 372f b63f 15be b32e 2de3 b7bf
00000680: ee3f 3ae1 4b02 b23f f3f6 0074 a131 a0bf
00000690: 5a01 d12e 138d c4bf 0443 4936 3cca d43f
000006a0: 9bd7 3b2a 15ac adbf 66c4 44dc 4849 c2bf
000006b0: e998 9c7f 8c2a b53f 8b24 b504 f1e9 b6bf
000006c0: b5a0 3f7f ff71 c1bf ab07 c89d bb4e ddbf
000006d0: 1f49 20c9 19d1 c83f 2435 61f7 185e dbbf
000006e0: a2d3 e074 cae0 e4bf b89e 3fa0 2751 a33f
000006f0: 882f db60 acb0 a1bf f095 35f4 ce5d debf
00000700: 44fe 52e4 384c cd3f b997 8d23 a64b b03f
00000710: 2ce2 86be 7c17 e43f 3516 e151 019c bfbf
00000720: ee53 1e47 f37c dd3f 926f 3b57 263f e93f
00000730: 6d21 7b80 f17c c03f 660e 8b4c efa9 5ebf
00000740: 3d01 e44d 1604 da3f c5d5 d9be 925c adbf
00000750: 594a 2816 d55c a83f 9a3f 27a2 5935 bdbf
00000760: d734 463c 33a7 c23f 0691 8ac2 2c84 7cbf
00000770: 5421 b85d 4c2a c13f 56a0 91b0 490e ac3f
00000780: 2ecc c7f6 e7e8 a93f 7d1e d141 8379 903f
00000790: 89fc 28b3 ddcf 97bf 2dd4 0cb0 5c5e 82bf
000007a0: a23e ccf8 34f0 89bf b5fb 8bcc 689f 9abf
000007b0: 5e00 6d19 96ef aabf 72ba cd18 2cbc 9abf
000007c0: b481 9eb8 e0e5 b23f 8d58 cc1d 3f81 91bf
000007d0: f81b a3a8 9177 ac3f 072a 306d 8882 a53f
000007e0: eceb 35c4 7b0c b1bf 7a8f f24f b5fe a2bf
000007f0: dea5 1c59 d069 703f 07e4 27fa 3e2a a23f

module.down_path.0.block.3.bias f8 [8]
0.07328277826847832 -0.08272436261072337 -0.026596009732600026 -0.042158946394921126 0.06037469953401648 0.07062217593163674 -0.10059820860850109 -0.03828691318469389
00000000: 1aec 0500 a9c2 b23f 39d9 fe7f 6c2d b5bf
00000010: e4bf 0500 fc3b 9bbf 7000 0080 db95 a5bf
00000020: 4944 02c0 6ee9 ae3f 4dad ff7f 4b14 b23f
00000030: 8f7b 02e0 cdc0 b9bf 3e71 fc9f 579a a3bf

module.down_path.0.block.4.weight f8 [8]
0.4978586295279296 0.7515395372852816 0.6835021604730185 0.7444016413526138 0.7938644407773363 0.8100277931081276 0.7374403272574723 0.7387435921050681
00000000: 46a5 f670 eadc df3f fa51 c9a4 9c0c e83f
00000010: 3e43 3fec 3fdf e53f a257 1664 23d2 e73f
00000020: 5612 5366 5667 e93f c903 0868 bfeb e93f
00000030: f250 0a75 1c99 e73f 0d11 079a c9a3 e73f

module.down_path.0.block.4.bias f8 [8]
1.0699184275789737 -0.5881128902470567 0.8449252978791804 0.596105982660043 1.2908189126607597 1.653709272413308 -0.08237140416729885 1.4809008928992893
00000000: 556e fdc8 621e f13f dcf2 be1f d2d1 e2bf
00000010: 4c88 3ec7 a009 eb3f ca31 8fda 4c13 e33f
00000020: dafa 6ebb 31a7 f43f bcb6 a1da 9775 fa3f
00000030: 7a2e 06d7 4a16 b5bf 12ea 7922 c5b1 f73f

module.down_path.0.block.4.running_mean f8 [8]
2.200506827477501 -3.2935754466161633 1.0650574566447049 3.881521879984757 2.803015234198083 2.470822115874944 -0.7520429977932228 2.1201678064315654
00000000: e91f d552 a39a 0140 0800 7115 3e59 0ac0
00000010: 2d66 0ab0 790a f13f 99f1 e957 5b0d 0f40
00000020: 7b90 4840 936c 0640 cd54 af62 3ec4 0340
00000030: 6aa5 167a bc10 e8bf bc3e f589 1af6 0040

module.down_path.0.block.4.running_var f8 [8]
1.302937956255198 2.959107263376152 1.8231992878969145 3.1446856499318514 2.6722561394421507 2.075656470997908 2.6669567930442293 2.848242525750851
00000000: 9954 6d78 d5d8 f43f fb73 cc6d 40ac 0740
00000010: 4ab9 3904 d32b fd3f 3043 35f3 5028 0940
00000020: 9783 abd3 c760 0540 9555 a5c7 f19a 0040
00000030: 92c2 6f71 ed55 0540 2669 9960 33c9 0640

module.down_path.1.weight f8 [16, 8, 3, 3]
-0.500504353509801 0.05316023697549645 -0.020795250520608023 -0.05079817568680002 0.964434128783425 0.4051088655673565 -0.236922234764415 0.37387914325412896
-0.3375051989610724 0.038096758905664614 0.037932018540149694 0.0013207079199150614 -0.22935240240091476 0.03770257704653356 0.013572134435691743 0.042128939680567315
0.029506781365027157 -0.11768684822622792 0.06169812589263295 -0.052087403744115066 -0.020074748597893814 0.09010375467774108 0.05817857776172614 0.12360051453435342
-0.10592178986258284 -0.19413047896656768 -0.0976923945755764 -0.0847036527566863 -0.03839840452979651 -0.028818104176161652 0.2081684285000286 -0.0582974881843875
-0.02685138828949115 -0.06632437931428835 -0.14470800152620972 -0.0072146096393167145 0.22995105889870618 -0.23150078070963753 0.0351259740094226 -0.12351942645555287
-0.38551904479675536 -0.09881762351554514 0.22930202206643974 0.09088400592033592 0.04717823111611398 -0.34204339033382847 -0.2367449144727567 0.10409397342553953
0.29564188303071204 0.34805204636795073 0.3140685637043377 0.006261732163205351 -0.1387568687347337 -0.5685288709083164 0.14424791516816324 0.23575419307680898
-0.1721374003862073 -0.09140537675300649 0.10158238503745765 -0.21434555329369212 -0.1601203655849717 0.3586203592254693 0.3143069184158446 0.35085230323603933
0.024528912877808118 0.013187707450193322 0.12177175080020083 -0.26971657527485804 -0.14553899444216103 0.14583793094720734 -0.2093191479442214 0.025903970035762305
-0.0918553741511355 0.1251775802482072 0.03168383738376212 0.13115697834625506 0.3744625330194054 0.2068311063668389 -0.02665663557936328 -0.015200387143138216
-0.3689362798360314 0.04305136513792575 -0.13549029938765367 0.15272891638464203 0.3294986367805415 -0.25644605652713004 -0.3635386062789852 0.2676312307342143
0.11563715500797797 -0.24130394655960183 0.016432872614202742 0.08911779987815494 -0.016352034608475608 -0.07089618612263264 -0.10653976107792454 -0.18145903034434038
-0.020247251095442436 -0.11428844559079608 -0.2519032635790185 -0.2257244887447033 0.1504407578819196 -0.14737569019923935 -0.2607156788015111 0.22263856196473125
0.4288653774346062 -0.22263538065408972 -0.3234967300896214 0.3109265031043887 -0.10999119302366295 -0.19876816153981078 -0.3096397228673205 0.01726093434735203
0.4388907627947816 0.16607425695810593 -0.09281775898751156 0.40284392144861647 0.17771863514883818 -0.11465793074491987 0.04539398676087502 0.14810870265981302
0.05355066220153821 0.1692530142353061 0.145913193348122 0.03777274241788282 -0.29386380055478617 -0.1669100096399245 0.08710625804124704 0.003895658685494692
-0.07876735834002943 0.11258182383800765 0.013946078382574901 0.043669663352997136 -0.01936083793665694 0.0924211093755934 0.029277375690793174 0.005557612346907433
0.04212954327821169 0.13883880459107717 -0.025664047268964308 -0.1966081044031901 0.12595808311024587 0.007434672165437738 0.10636903623599674 0.3546944532376041
-0.0038713977445125913 -0.11699765070261033 -0.2516747434550837 -0.08653441592651297 -0.25884608690672306 -0.27272519150312696 0.2186445678393238 -0.1857419418022143
-0.052248505312345976 0.13337745141556467 0.0033117980049820273 0.026138264401882307 -0.15238751536134806 -0.29865416854736915 0.05298479617492482 -0.08704300399429728
-0.10874611409382706 0.13214765774330117 0.07010906524510664 0.04224017229900589 -0.10110805775773835 -0.02045582519538357 -0.19943691819248477 -0.34578422760944166
0.0047912722342510275 -0.248283505086647 -0.358224293434763 -0.04451358771448049 -0.006420842577929974 0.06778131482342806 0.1606259160289981 0.08750488013602244
-0.10428539667128224 -0.004884829289902217 -0.04183455274427544 -0.2130471336701877 0.0721000644761052 -0.03698905210574662 -0.1241629235295591 -0.08638897863220156
-0.11102732366299059 -0.14916325100772174 -0.00864778700921725 0.17249085843722656 0.0738519018519224 -0.11661863076760005 -0.0840380908599271 0.04053075957657653
-0.0591736148073452 -0.014166623527516084 -0.018852047349810806 -0.04714266334418861 -0.08577238482635675 -0.09147709478048974 0.12972952424102635 0.044942121017964375
0.003917099304741139 -0.2518907734732491 -0.49561022336585725 -0.4046681876668604 -0.1586034464147837 -0.3100312499689859 -0.3216990821804188 0.03922731467224118
-0.13307673409076054 0.0532177770496737 -0.04013340283469452 -0.020195194714384298 -0.021959163454725053 -0.14548199506081247 -0.0762151205416006 0.08357864215079432
0.24986036869194436 -0.031635550163300115 -0.2526579947387703 0.01768395011046638 0.02597098556618921 0.07303828639468447 -0.12659858836653168 0.33753008237460375
0.8070721607523403 -0.08436263810056428 -0.131121218108561 -0.08695299334608719 0.13595856823012517 0.22463141964295205 0.18111258409774675 -0.0947300309210061
-0.1506511041129267 -0.2645099700100796 0.21481172507607177 -0.03297373416328553 -0.22412126728817666 0.14248252683522142 -0.1429796958307941 -0.012844796382083452
-0.052799521668430556 -0.2636354966668359 -0.1934816005336554 0.09798122926306407 0.18891176660175882 0.16050266633520635 -0.2115132586686145 -0.2637864184514958
-0.19740234937412823 -0.10139713997438671 0.06144624603047573 0.16591519584907147 -0.10679079120900528 0.22862117208379054 0.1955128011991839 0.21998670762956737
00000000: 2691 bab4 2104 e0bf a2c5 838e d137 ab3f
00000010: 9ab1 97a3 594b 95bf b2e3 8aee 3702 aabf
00000020: 8cac 48f6 a4dc ee3f fc9c 3bbc 4ded d93f
00000030: 2513 01c1 7753 cebf feb5 3bc9 a2ed d73f
00000040: 4b23 f167 af99 d5bf d9b6 2a1b 6b81 a33f
00000050: 9dd1 3356 d36b a33f efea b554 73a3 553f
00000060: 3e15 c965 6b5b cdbf 7f91 c78e c04d a33f
00000070: ce41 4e0c b5cb 8b3f a250 49a4 ec91 a53f
00000080: c05d e493 0637 9e3f 030c 4dac b920 bebf
00000090: f7df dd91 e596 af3f a6a2 3a3f 33ab aabf
000000a0: be41 d092 798e 94bf d573 9627 0a11 b73f
000000b0: e9f9 a021 95c9 ad3f 3a9e b187 48a4 bf3f
000000c0: 81c1 64bf b01d bbbf 91bb 287d 44d9 c8bf
000000d0: 9520 c567 5e02 b9bf c513 717a 23af b5bf
000000e0: a41d 59a7 f4a8 a3bf 7099 e03b 7e82 9dbf
000000f0: b4d1 3b58 43a5 ca3f 6ebc 611a 2bd9 adbf
00000100: 36e5 382a ee7e 9bbf 0716 1570 a2fa b0bf
00000110: ba25 03b3 ca85 c2bf 58b2 4407 118d 7dbf
00000120: 0144 d34a 096f cd3f f4bb 124d d1a1 cdbf
00000130: aba2 381b 08fc a13f 551a 0c19 f89e bfbf
00000140: 44c8 5812 58ac d8bf 7188 449d 1c4c b9bf
00000150: ba4c d7c6 c459 cd3f ad45 2899 2c44 b73f
00000160: 4224 74bf be27 a83f 0cfe d2f5 09e4 d5bf
00000170: b8d0 9348 a84d cebf 62c9 9213 e7a5 ba3f
00000180: 0a77 bcee cbeb d23f c632 1d17 7c46 d63f
00000190: e9f4 7308 b319 d43f 7869 b7ed e6a5 793f
000001a0: 5cd0 a7fa c8c2 c1bf bd41 6c75 6331 e2bf
000001b0: b7eb 1437 b776 c23f 2773 9482 312d ce3f
000001c0: 49e2 892c 9908 c6bf 3d2d d5bf 5766 b7bf
000001d0: 48e7 959d 4d01 ba3f 553f b8d2 ac6f cbbf
000001e0: d135 cefa d27e c4bf 0467 a3ce a2f3 d63f
000001f0: 7b2a e0c3 9a1d d43f 0c01 0838 5d74 d63f
00000200: 006b 777a 1b1e 993f e190 a921 2802 8b3f
00000210: 5676 43f7 6e2c bf3f 24a8 7f4f 0943 d1bf
00000220: c9fd b592 05a1 c2bf b99f f73b d1aa c23f
00000230: 0a6b 6c47 f8ca cabf e786 8f00 9286 9a3f
00000240: 75e3 f073 d583 b7bf 32e2 ada6 d105 c03f
00000250: 4f05 c02a dd38 a03f 14d6 517a c0c9 c03f
00000260: 9952 39b3 31f7 d73f 990e d212 7179 ca3f
00000270: e596 2388 e04b 9bbf 469e 546d 6121 8fbf
00000280: c008 0dea a69c d7bf 328f a11a d40a a63f
00000290: d0c9 6502 bf57 c1bf 6c45 8302 9f8c c33f
000002a0: f422 4373 8116 d53f 6038 7eb8 9c69 d0bf
000002b0: 6d4e 336e 3744 d7bf 4b11 d9bd de20 d13f
000002c0: 1e35 f686 659a bd3f a742 6f37 0ce3 cebf
000002d0: 934f d469 c7d3 903f 90d8 f793 6cd0 b63f
000002e0: 0d42 7777 96be 90bf 5bce cea0 4026 b2bf
000002f0: aaa7 8d95 3046 bbbf b747 72ac 0c3a c7bf
00000300: dbc1 2705 b2bb 94bf 6786 1ff0 0142 bdbf
00000310: 9ef6 b4dd 2e1f d0bf 0c4c 8840 8ae4 ccbf
00000320: 614d 8b8b a441 c33f e0c9 d0e4 34dd c2bf
00000330: 8d71 80d0 90af d0bf 56c6 3b9f 6b7f cc3f
00000340: 1ef9 9dc4 8772 db3f f8c0 6bef 507f ccbf
00000350: 6343 06a1 2bb4 d4bf 61c0 9246 38e6 d33f
00000360: cc78 e200 6228 bcbf 1357 a630 3c71 c9bf
00000370: 417d d020 23d1 d3bf 4dc4 14b2 d9ac 913f
00000380: cd15 2e48 c916 dc3f 2fd9 2bd7 eb41 c53f
00000390: 19e1 5697 e7c2 b7bf aae8 00df 31c8 d93f
000003a0: 6650 edf6 7bbf c63f 54c6 c6de 385a bdbf
000003b0: 3f62 2571 e13d a73f 2ca4 16d9 39f5 c23f
000003c0: 5964 ab0d fe6a ab3f 8eed 7130 15aa c53f
000003d0: 0b18 be94 48ad c23f 59e6 baea f256 a33f
000003e0: d31b 371d aace d2bf 8fa6 63a4 4e5d c5bf
000003f0: 6768 9081 984c b63f 1089 d1d4 c9e9 6f3f
00000400: ae0f 10fc 182a b4bf 611e 8293 29d2 bc3f
00000410: 0722 7cf4 c28f 8c3f 1d5e dbbf de5b a63f
00000420: 305d 0bd7 53d3 93bf 256c 3aea e8a8 b73f
00000430: 8a2c 6b6c e3fa 9d3f fc89 6134 94c3 763f
00000440: 6b92 26e5 0092 a53f 6234 914e 78c5 c13f
00000450: 9d13 d00e ad47 9abf 1427 4551 742a c9bf
00000460: aa0b d0fb 641f c03f 329f e99c d173 7e3f
00000470: 1bce f04b 003b bb3f 5f99 2e5d 50b3 d63f
00000480: c5cb 7ad6 e8b6 6fbf b5fe 79db 8ef3 bdbf
00000490: 019a 1762 701b d0bf 7501 6296 1e27 b6bf
000004a0: 9490 7d2d ef90 d0bf f747 935c 5474 d1bf
000004b0: 8eb2 2892 8bfc cb3f 259d c456 64c6 c7bf
000004c0: 57ae 29eb 50c0 aabf 5c45 ed27 8312 c13f
000004d0: d256 ea03 5821 6b3f 2a03 1f3b fdc3 9a3f
000004e0: 17d9 6521 6f81 c3bf c466 ae5f 261d d3bf
000004f0: a357 83bd d220 ab3f 5d48 8047 7348 b6bf
00000500: 509e 990b c9d6 bbbf b80f 20e6 36ea c03f
00000510: 4180 61ee aaf2 b13f 8f09 34fd 80a0 a53f
00000520: 107b 6eb9 37e2 b9bf 5d4f e830 5ff2 94bf
00000530: 5439 a020 2687 c9bf f187 432b 5421 d6bf
00000540: 8863 d658 03a0 733f 01e0 3dff c0c7 cfbf
00000550: 47d7 3b96 25ed d6bf 4732 ec26 7cca a6bf
00000560: 0cda 28ce bd4c 7abf 0e4e 72c2 1d5a b13f
00000570: 0307 1ed8 638f c43f a9b3 6c46 b866 b63f
00000580: b14e 27a0 72b2 babf 1c2c bf60 1d02 74bf
00000590: 4747 c2a7 566b a5bf 0d5c cfe3 2045 cbbf
000005a0: 82e0 f65a 2675 b23f 8b5c 35a2 3af0 a2bf
000005b0: 9c69 ef2f 24c9 bfbf 4bcc f58d 961d b6bf
000005c0: be4e 1864 496c bcbf 1bee 6b0a c817 c3bf
000005d0: 1d51 1953 eeb5 81bf b465 ec31 2e14 c63f
000005e0: 838f 334f f5e7 b23f d14a 40f5 b7da bdbf
000005f0: f995 dc33 8583 b5bf 2714 ba9d 72c0 a43f
00000600: a36d c408 014c aebf c5a1 f605 6403 8dbf
00000610: b900 527b f34d 93bf 9287 9e4a 1523 a8bf
00000620: 31a8 bad3 2df5 b5bf d250 6afa 0a6b b7bf
00000630: b06d f81f fa9a c03f 0356 f857 a702 a73f
00000640: 6c75 8b56 600b 703f fbd4 8e7a fa1e d0bf
00000650: ecda 3af1 13b8 dfbf 3ab0 f065 15e6 d9bf
00000660: 8233 b123 1e4d c4bf f8b4 d64f 8dd7 d3bf
00000670: 338f 47bf b796 d4bf 521d 4143 9a15 a43f
00000680: 7e9f 638e a808 c1bf 9303 fd47 5c3f ab3f
00000690: 08ee 4d89 5d8c a4bf efa9 5693 0cae 94bf
000006a0: e4d0 8a83 767c 96bf fbb4 786d 279f c2bf
000006b0: ded6 2f8a d582 b3bf 1587 aeee 6865 b53f
000006c0: 7b98 0cb0 6cfb cf3f 6147 afea 8832 a0bf
000006d0: 1b76 1e70 8c2b d0bf b5df 8dcd bd1b 923f
000006e0: 904f 9b56 2398 9a3f 09ca 6b1b a3b2 b23f
000006f0: b783 60ee 6134 c0bf 59c4 4dc6 179a d53f
00000700: fa2f fefe 88d3 e93f d56d a533 ca98 b5bf
00000710: 0742 cb7f 94c8 c0bf b8f3 b526 8d42 b6bf
00000720: 4f66 1422 1767 c13f c3a0 82ec b8c0 cc3f
00000730: ff03 cc78 b22e c73f ea39 c130 3a40 b8bf
00000740: 54ba a20e 8948 c3bf de30 aa39 bbed d0bf
00000750: 92e1 ff5a f37e cb3f 5074 b7eb eee1 a0bf
00000760: 1e9f ab74 01b0 ccbf af1d 8110 de3c c23f
00000770: b9ea ca9e 284d c2bf 7720 1463 5f4e 8abf
00000780: 89e6 9ef5 8908 abbf f7eb 0f6b 67df d0bf
00000790: 8dbb 554d 01c4 c8bf 6886 4e3f 4c15 b93f
000007a0: 792b b1c1 422e c83f 334e 6af3 598b c43f
000007b0: 9d77 53d0 dd12 cbbf 8933 186e e0e1 d0bf
000007c0: c393 5bed 7a44 c9bf a011 19b8 29f5 b9bf
000007d0: ca62 53e2 e175 af3f a964 0a8a b53c c53f
000007e0: 4ab3 c12b a456 bbbf e9f3 a264 7543 cd3f
000007f0: b4c7 8c3f 9006 c93f 2f6f 6941 8628 cc3f
