results/old/run_1/saved_model_unet3_64_128_3.pt (torch, 351968 bytes, 75 tensors)

module.down_path.0.block.0.weight f8 [8, 4, 3, 3]
0	0x3fa981acbda91bed	0.04981746497337967
1	0x3fdd643aa1621303	0.4592424942023145
2	0x3fccca308924efd8	0.2249203366899326
3	0xbf9306f39385f6e9	-0.01858120525275001
4	0xbfd0fec4be79ab20	-0.26554983712292035
5	0x3fa87a8a52e0451b	0.047809908501344554
6	0x3fc18dc2053c1203	0.13713860755537163
7	0x3fd35461cc188320	0.30202526980615296
8	0x3fc9b43e20cf8386	0.20081307031707868
9	0xbfc91ce5c40a5b60	-0.1961943824032586
10	0x3fd31acf9db43d42	0.29851141358172495
11	0xbfa5f78d01b5623b	-0.0429042877755745
12	0x3fc90f0eb9a2a17a	0.1957720190450905
13	0x3ff203c611b2bd83	1.125921315320597
14	0x3fd8f133edcc6152	0.38972185347076505
15	0xbfc2abdbcea70dd9	-0.14586970892388143
16	0x3f9f9df3ffa4feef	0.030875980833342472
17	0xbfb420967c70be0e	-0.07862225092025474
18	0xbfa4b99f9e75b229	-0.04047869500468366
19	0x3faa7aad0708b348	0.05171719275344927
20	0xbf8c5e957cefa6a5	-0.013852279544113453
21	0x3fb18656374e1cb7	0.06845606661055369
22	0x3fb2e7d724eb7916	0.07385010386812882
23	0x3fc89aa845f23809	0.19221976676311694
24	0xbfb1f10ea69be929	-0.07008449142077623
25	0xbfb585915fc2bc41	-0.08406933391482686
26	0x3f4fc0a50fe2721f	0.0009690099684749909
27	0x3f7eef26bdef5517	0.007552291236568884
28	0xbf6614569129c001	-0.0026952448618473572
29	0xbf6588de20f909df	-0.0026287401631474995
30	0xbfaeb827c509259b	-0.05999874382230105
31	0x3fb698481e492ad5	0.08826113452338842
32	0xbfb00c92dca2ad48	-0.06269185911758257
33	0x3f9f4d2dcf733566	0.030567851816888057
34	0xbfab185f2adfa8ec	-0.05292031668052907
35	0x3f998353877d67e5	0.024915032524724174
36	0x3fb5384c0a832644	0.08289027458808912
37	0x3fcd11a530072543	0.22710099072564036
38	0x3fb66b9860d10fbe	0.08757927287757547
39	0xbfaec73fcde97e93	-0.06011390102935112
40	0xbfd08c745a20594c	-0.2585726623668918
41	0xbfc443b519a65bdc	-0.15831626655992082
42	0xbf47f1864ae6cfed	-0.0007306962705144728
43	0x3fd077e69b3124e2	0.2573181644007275
44	0x3fa3765e00e3b8ae	0.03801244507654765
45	0x3fcc7893c75195e2	0.22242972595556326
46	0xbfc251a158690d46	-0.14311615769302416
47	0x3fd32d33dca3f90d	0.29963394686628037
48	0xbfe103c51c9f5197	-0.5317102011709264
49	0xbff042cafd79f6de	-1.016306867735174
50	0xbfde10f5a39d0aad	-0.46978512742877393
51	0x3fd0485b004045c4	0.2544162275745203
52	0xbfd59feac05e9a23	-0.3378855589493545
53	0x3fce72b13ab10b3d	0.23787513128089613
54	0xbfbf0037562e72a5	-0.12109704832114206
55	0x3fb75b767248ec28	0.09123935976178699
56	0xbf83e591e0850514	-0.009715213455481243
57	0x3fb314602cd78771	0.0745296582677193
58	0x3fb7d69b4514aaa6	0.09311838566342576
59	0xbfb08bcb3fa0996a	-0.06463308623697164
60	0xbfae572b700590af	-0.05925880186512821
61	0x3f89bfb59e1b3b32	0.012572687995456275
62	0x3fa14b98a6dbf279	0.03377987896781049
63	0xbfa69a9088f72847	-0.04414798423711424
64	0x3fa1bacd74c9e74f	0.034628315454894414
65	0xbf76d6e7e43ed8f8	-0.005576043917179023
66	0xbf7064413c798117	-0.004001860455531656
67	0x3f8c43d3d3fce285	0.013801245600562293
68	0xbf8bb272b8aca58c	-0.013523956547561132
69	0xbf8a73150d7d84b2	-0.012914814447585552
70	0xbf7dba0d2a5f5f95	-0.00725751059322723
71	0xbf12d5e5b3606892	-7.185186845540457e-05
72	0xbfc433512c9068a9	-0.15781607318860338
73	0xbf9312141f174abc	-0.018623651883738587
74	0xbfa93bf4a2ddd1ac	-0.0492855500041601
75	0x3fd961e6627b9b43	0.39660033814873347
76	0x3fe6232670f2de1a	0.6917907911328627
77	0x3fc3d6e8011cca1e	0.1549959187919549
78	0x3fbb2c2d903e480f	0.10614285251202225
79	0x3fdc891d0c6aa93f	0.4458687421089457
80	0x3fb2319d8f84f2a6	0.07106957200898964
81	0x3fcab16410e4c363	0.20853854012377857
82	0xbfa103c9449e190a	-0.03323201143853012
83	0x3fc6b6ef93b9e8cd	0.17745775902932906
84	0xbfb0315582338f92	-0.06325277737374638
85	0xbfd9c5fdb3faa811	-0.4027094133003866
86	0x3fb703cebf5a6550	0.08990184947687863
87	0x3fbc8dfe00a7c7c7	0.11154162899018082
88	0xbfd1587474f83528	-0.2710238592415686
89	0x3fc210cbb648a12a	0.14113756561824548
90	0xbfb445698d0adb9b	-0.07918414777200981
91	0x3fc4d138d32272e3	0.16263494786553342
92	0xbfb4e4f4436fdd24	-0.08161856314096788
93	0x3fcaf47657dc2b76	0.21058539667168547
94	0x3fde7f0a1f7f3844	0.4765038783633637
95	0x3fcd2f7e8ba3d05d	0.22801191156725312
96	0x3fc6877e7f34f7b8	0.17600995265268948
97	0x3fdf25f9500a8a68	0.4866927415515989
98	0x3fb645938f7defcb	0.08699915173741528
99	0xbf8a078807bfc1b3	-0.012709677444917888
100	0x3faa0c59ad82bf94	0.05087547534037565
101	0xbfb25ba3d8193448	-0.07171081567612803
102	0x3f84ef9fa590bfb2	0.010222670784145158
103	0xbfb58915127d000a	-0.08412296010374135
104	0x3fbb78acd02ffb39	0.10731010515881402
105	0x3f617c34dad5af01	0.002134421569896961
106	0x3fa641f7a1060e31	0.04347204056378152
107	0xbfa7466e236b259a	-0.04545921499591117
108	0xbfacb53d8f41944e	-0.05607025502903494
109	0x3fcce33a27cb843c	0.22568442290415358
110	0xbf9544c71c9d88bc	-0.020770178910773693
111	0x3fd056df6a1d3416	0.25530228960707413
112	0x3fe6fa1d9159f2db	0.7180316771405971
113	0x3fe092c5ea8074a3	0.5179166393387685
114	0xbfc28e53108f32d2	-0.1449683981758399
115	0x3fd627fbe0b8b124	0.3461904234452666
116	0x3fb6bb05742b43f4	0.08879121862561573
117	0x3fc8022e46329894	0.18756655147189305
118	0x3f4fd7145239fd1d	0.0009716843819233299
119	0x3fc5bd654d86cd5a	0.16984239850499244
120	0xbfb6f59460a30a73	-0.08968474730776581
121	0xbfd6a99ae611008b	-0.35410187213347716
122	0xbfb52cca58b6e29e	-0.08271469751242441
123	0x3fbc74c896747c03	0.11115697549074359
124	0xbfa161438ceddfa0	-0.03394518943144864
125	0x3fc69d2dcb73c1a9	0.17667171892345593
126	0x3fb70ad41b4ba88f	0.0900089804305557
127	0xbfb0b857c34233ec	-0.06531284825378209
128	0x3f96aec4daa5459f	0.022151065678661316
129	0xbfb5511a91828a25	-0.08326879551399509
130	0xbfeb13181e2f706c	-0.8460808362538166
131	0xbfdab631f0f4ae48	-0.4173703053554374
132	0x3fb49803090d2c21	0.08044451685889033
133	0xbfc2ff23daddfd67	-0.1484112566649671
134	0x3fb05c5c10c6b330	0.06390929612707619
135	0xbf815f2e73124f63	-0.008482325445846766
136	0x3f95f6953227a5b4	0.021448451219759426
137	0xbf98909066ae2e22	-0.02398896815024732
138	0x3f97f83ffe6d2eac	0.023407936004601268
139	0xbfb1632b2d770e48	-0.06791944370257241
140	0x3fa32e17ffd0e12b	0.03746104238274691
141	0xbf9db6f66496e60d	-0.029018258943073905
142	0x3fb21be220be2ea2	0.070737965577957
143	0xbfa35d3869a98ee7	-0.0378205899221749
144	0x3fbe375b142f47f0	0.11803216212072676
145	0xbfce5e03d23dd64b	-0.23724410787296998
146	0xbfc584dff44eed9b	-0.1681175177489934
147	0xbfc956228732308a	-0.19794112779016287
148	0x3fdfdadcd88b76ae	0.49773331782294405
149	0x3fc7a4ce2d24ab52	0.1847169609476063
150	0xbfa1d786ae02ca82	-0.03484745859295392
151	0xbfc9f51285f47762	-0.2027915147854698
152	0xbfd177bcb653b418	-0.2729331760918412
153	0xbfab81c7884bf65c	-0.05372451342371384
154	0x3fb2bc590094f144	0.07318645729259737
155	0xbfa8594d2390d8ad	-0.04755631503250988
156	0xbfb2ab5f5e599136	-0.07292743733848259
157	0x3fad93ad44a6cd9a	0.05776730978996199
158	0x3fbae73d2af4e306	0.10509092615837909
159	0x3fb65138c15650e7	0.08717684478898811
160	0xbfc4c2bb0c3eea20	-0.16219270799577234
161	0xbfa10afdbf94c647	-0.033286981235857875
162	0xbfc9c0b87becb0f7	-0.2011938672161546
163	0x3fc26903e76a1c6a	0.1438298110917658
164	0xbfcabc565d5139f8	-0.20887260014065112
165	0xbfc1df91135c94e8	-0.1396352142848294
166	0x3fdbcb57c022061a	0.43428605807284415
167	0xbfac22bec56d5b20	-0.054952584838863894
168	0x3f8af6db7b5c75dd	0.013166155531105278
169	0xbfd08f084ae1488b	-0.25873000442982946
170	0xbfb1b98cb53ff658	-0.06923751282735091
171	0xbf9aa8f69a6b3582	-0.026035168814634975
172	0xbfc774a86b2623d1	-0.18324761611827836
173	0xbfa311ce186c2586	-0.03724521682859021
174	0x3f7ee7c70d628ae1	0.007545259044635628
175	0xbfc92946d5a23ca3	-0.19657216483435488
176	0xbfb6a7f28e51a2d4	-0.0885001752336721
177	0x3f9e21fb0d0162d0	0.02942650095824001
178	0xbf97ca46f82be983	-0.023232563874424194
179	0x3f94d716ffdbccb6	0.020351752630585827
180	0x3fa6fc096532e67f	0.044891637423870805
181	0xbfd4fb27ffed3a4a	-0.3278293608936208
182	0xbf9effd8ed9f2f3b	-0.030272855284962246
183	0xbfd9636ece8efa33	-0.3966938988850501
184	0xbfe337849bc5a411	-0.6005270998404076
185	0xbfe200e1d702f037	-0.562607688850682
186	0x3fc4cc46f77edb46	0.16248404583685722
187	0xbfe04010bc1535ef	-0.5078204797261473
188	0xbfb3fc8de3cfbb71	-0.07807242214015077
189	0xbfbf3c54e446ef63	-0.12201433728381299
190	0x3f721d60a4f821df	0.00442254783366322
191	0xbfbdaa902a5532a6	-0.11588383706584668
192	0x3fb6daca4b6a45a1	0.08927597371282171
193	0x3fd12c7a6f5a17e8	0.268339737646214
194	0x3fc09ae342276187	0.12972679834525655
195	0xbfb76d3de881aca9	-0.09151064802579136
196	0xbf78831979975727	-0.005984401237091131
197	0xbfc6d2db445f5973	-0.17830983007906873
198	0xbfb5eee8bacfbdf1	-0.08567671356990282
199	0x3fb937924d723fcc	0.09850420370844332
200	0xbf7ab2d0d9572862	-0.006518188301422341
201	0x3fccd1579b13fabe	0.22513861725015788
202	0x3fe6de9e7cf27fbc	0.7146751823784068
203	0x3fdca5bca84b0247	0.4476157802091944
204	0xbfb56a35798016c0	-0.08365186897580212
205	0x3fcd96b058ebeaaa	0.23116115896103412
206	0xbfa40003d13fe12f	-0.039062613766818514
207	0xbf95722c5dab1021	-0.020943349091581468
208	0x3fa3755d20ea7973	0.03800478960805522
209	0xbf9cf9e9c11541f2	-0.028297092828610766
210	0x3f9313bd78521878	0.018629990071098196
211	0x3f8dfc11b55ab635	0.014640940043444942
212	0x3f95972540184067	0.021084386860878015
213	0xbf96e516fc0cc21f	-0.022358283170605838
214	0xbf91192b35058d6b	-0.01669757376784046
215	0x3f55c1ceb2bd97f2	0.0013279455697214862
216	0xbfac9dfb16c764e2	-0.05589279797613657
217	0xbfdc877c3770735d	-0.44576936162939323
218	0x3f7e0e6e2f74e61c	0.007337980662947465
219	0xbfd54732bb5c2b9b	-0.33247059151534025
220	0xbfe502cc28aa663c	-0.6565914911508979
221	0xbfc96d376fff0428	-0.19864552467882501
222	0x3fc392c954868e43	0.15291706683375325
223	0xbfc6d9e528d83eaf	-0.17852463240023073
224	0x3fc3a78ab6712afc	0.15355047138503852
225	0xbfce2913a5e8aaa9	-0.23562856293695703
226	0x3fbc6907e636212c	0.11097764368435453
227	0xbfcd7c77d524e652	-0.23036096484593088
228	0x3fb4f29f397bb6dd	0.08182711747550848
229	0x3fe3abac66e875ef	0.6147062311098902
230	0xbfbe965b34aa2d85	-0.11948175464401885
231	0xbfc1e71bb9b2db93	-0.1398653656703713
232	0xbf935a953ce7e6b1	-0.018900234072112002
233	0xbfa6c03b89b739cc	-0.0444353681192414
234	0xbfb626e1f17a350b	-0.08653080125278138
235	0xbfdd953763d52fc6	-0.46223244427960386
236	0xbfb8d4a97c48fb45	-0.09699496540359316
237	0xbfcd147e6f5ff860	-0.2271879237959551
238	0xbfe05709c0f56609	-0.5106247681353021
239	0xbfc95b4c65902b27	-0.19809870680941197
240	0x3fa046c41326e72c	0.031789901101957646
241	0xbfb4e40c4b63a7df	-0.08160473671492195
242	0x3fa2b99190e3eafb	0.03657202619247887
243	0xbfa1ec05c9e522f9	-0.03500383462466589
244	0x3fb231f1b457bfec	0.07107458737277711
245	0xbfa180419c8c1cf2	-0.03418164287546145
246	0x3fb32ed7a6baf50f	0.0749335081154252
247	0xbfbd0d33410c5666	-0.11348266923990877
248	0x3f9d9d2439e172e4	0.028919759781603896
249	0xbfa49e27541ffd31	-0.04026911641994458
250	0x3fb2222d6054cd6d	0.07083400346600906
251	0xbf9d4ace93a09614	-0.02860567832990142
252	0xbfb882415133aa6e	-0.09573753578630725
253	0xbfdb486dbf3b9a98	-0.4262956969745715
254	0xbfd1bd58537a0fd6	-0.2771817031100431
255	0x3fa3cf8fb70d92b2	0.038692942710246384

module.down_path.0.block.0.bias f8 [8]
0	0x3fb4f8f55ffddc4f	0.08192380517526597
1	0x3fc1b8a5fffc26b7	0.13844752311006456
2	0xbfb0b68e0003330f	-0.06528556347184299
3	0x3fbfb89f5ffe199e	0.1239108666760331
4	0xbfb668a6bffd49c6	-0.08753435313454991
5	0x3fae30dabffc72e2	0.05896648019390739
6	0xbfc29a5f7fffb8d8	-0.1453360915178965
7	0xbfb2c2cc600217ce	-0.07328488677930453

module.down_path.0.block.1.weight f8 [8]
0	0x3fed53b31096a484	0.9164672206872102
1	0x3fe1b0f5d0732d77	0.5528515883719781
2	0x3fed38618aaefa02	0.9131324490224986
3	0x3fee543e9e146f07	0.9477837646004169
4	0x3ff25f39a3d790fb	1.1482483291702568
5	0x3ff284a815480241	1.1573868590641185
6	0x3fed14acd63f5d7d	0.9087738213083153
7	0x3fec5d6096d4c48e	0.8863985963745493

module.down_path.0.block.1.bias f8 [8]
0	0x3f8a6a5a9ab91941	0.012898166510365018
1	0x3fe6c8c0e61fa676	0.7120060438730451
2	0x3fcf0a01dea70fb8	0.24249289867122825
3	0x3f3402dcde535777	0.0003053464154850675
4	0x3fedda04c1d9eaae	0.9328635965496994
5	0x3fbfb97e6caeb3d3	0.12392416146640466
6	0xbf7b23b8de311194	-0.006625864162803547
7	0x3fbbc894b2c4b627	0.10852937092268942

module.down_path.0.block.1.running_mean f8 [8]
0	0xbf89761233c3c611	-0.012432234005674865
1	0x3f91ea6c09e2d0dd	0.017495811561006092
2	0xbfb33451a99451b6	-0.0750170744907511
3	0x3fb692f8bfa023fa	0.0881801097713292
4	0xbff9d2dbe492b3d2	-1.6139792374262822
5	0x3fb25787fe4a6e69	0.07164812048216053
6	0xbfc409cb4a5d150e	-0.1565488923171547
7	0xbf74b83d972233a6	-0.0050585180162103

module.down_path.0.block.1.running_var f8 [8]
0	0x3fc5fc1b193c446e	0.17175616008947564
1	0x3fc0b4f2f209ffed	0.13052212541879218
2	0x3fd9bde64d2617fc	0.40221555265486564
3	0x3fd71d47ce70d181	0.36116213951324744
4	0x3fd11287230f5728	0.26675585197277707
5	0x3fdc236bfd41e1ee	0.4396619771210045
6	0x3fd73d1be219827a	0.36310479240459126
7	0x3fc33f2312ffb690	0.15036428859405193

module.down_path.0.block.3.weight f8 [8, 8, 3, 3]
0	0x3fc0e675a6753cd1	0.13203306796865502
1	0x3fbd1ed81abb7b27	0.11375189449925625
2	0x3fb478e21e4c4298	0.07996953239149673
3	0x3f863e2abc69a8ec	0.010860761523151706
4	0xbfbe2fb6ec3729b8	-0.11791556612948895
5	0x3fce4a00ce11f1a6	0.23663339674011502
6	0x3fa3902b0b9358ea	0.038209290659937015
7	0x3f89749d87c541dd	0.012429457384002635
8	0xbfadc80aa1348ac1	-0.05816682069623403
9	0x3fb594d5f95d76cf	0.08430230463042253
10	0x3fb5de5da3ecd52a	0.08542428257063209
11	0x3fc5a4157adc3660	0.16906994341882164
12	0x3f9ab739f399da89	0.026089578145241297
13	0x3faa094f35114db4	0.05085227511213067
14	0x3f888ca3f7703c9f	0.011987000454637018
15	0xbfa2b588695ced4e	-0.03654123579186806
16	0xbfc5feb6ffe807bb	-0.17183578010013698
17	0x3f74c863cba55242	0.005073919130457018
18	0x3fa815283f35c590	0.047036416736669584
19	0xbfca8515cae68cc5	-0.2071864357686534
20	0xbf783432711c39b4	-0.005909153974938897
21	0x3fb15ea5fada2e20	0.06785046934435757
22	0xbfd15ac94a573284	-0.27116615543199196
23	0x3f91957d33e3997b	0.017171818058068205
24	0x3fb786444a97f6d4	0.09189249821789797
25	0x3fcb87d0156c8430	0.2150821785553787
26	0x3fbabb3b0f30533c	0.10441941376514036
27	0xbfb0b0d14df4fa8e	-0.06519802239652447
28	0xbfc71621b9a4385a	-0.180362907071358
29	0xbf86bff96e9968b5	-0.011108349502297757
30	0xbfbbc9630cd1282d	-0.10854167044559011
31	0x3fcf3781c8d6204f	0.2438814383169778
32	0xbfbab653f5e6ea82	-0.10434460404841597
33	0xbfb82abf39d80c68	-0.09440226709561872
34	0x3fa0563dc4634051	0.031907968733890464
35	0xbfbc60d5b2a8de02	-0.11085258113677557
36	0xbfc08bdff9df1cef	-0.1292686433864456
37	0xbf93e15b8148114c	-0.01941435791560879
38	0xbfa7e932eeba0a26	-0.046701041833348264
39	0x3fc777d2c8e1ed24	0.18334421929089573
40	0x3fac0ea5b99e2629	0.054799250515383875
41	0xbfc71149e17b6c3c	-0.1802151061045566
42	0x3fc4a7e487603ae7	0.16137367830420787
43	0x3fce9060a24b71a3	0.23878105091615706
44	0xbfb4f428e9ad8b1b	-0.08185058312441777
45	0xbfb083a612d85965	-0.06450880012594025
46	0x3fb93ff2af1d8fda	0.0986320188072222
47	0x3f641da580200398	0.002455542796269982
48	0x3fbb47b42a0fb355	0.10656286265266364
49	0xbfc1e667d68da2e9	-0.13984392143472427
50	0x3fb5a9ce16b8d60a	0.08462226919876784
51	0x3f8d526c484dd9dc	0.014317365604921521
52	0xbfaf5042ae15ed36	-0.06115921378201465
53	0x3fba851246512f4f	0.10359300820090066
54	0x3f97fb95417858b4	0.023420650597551343
55	0xbf9105bb159996cf	-0.01662342376075437
56	0x3f9d658aa1ac623b	0.0287076626947018
57	0x3fc64df6d3aea03d	0.17425427757302883
58	0x3fe5105d49ca888f	0.6582476083024335
59	0x3fb695841e99150d	0.08821893450756964
60	0x3f9c2d7a2d4f4341	0.02751723195598577
61	0x3fdec40880808950	0.480714917650535
62	0x3fbc0fa99831134e	0.1096139904557962
63	0xbfb228c360ac2d67	-0.07093449697656738
64	0xbfc4800f0c209bd2	-0.16015804378659354
65	0xbf93226988c11058	-0.018685959789096124
66	0xbfa5803ceec3a468	-0.041994003435157634
67	0x3fcc055516bdd72e	0.21891273127010308
68	0xbfd00e57d230fae8	-0.2508754303598111
69	0xbf7865ab21a75ee4	-0.005956333620325192
70	0x3f9ad40638ccaeb1	0.02619943353344806
71	0x3fb39d3916ed27d6	0.07661778268553063
72	0xbf9a244a1c7ce325	-0.02552905844570143
73	0x3fc08bd4735bfca4	0.12926726944713096
74	0xbfbbf078d6f8e419	-0.10913806198449584
75	0x3fd88fc66e180f45	0.3837753367554238
76	0x3fe5af0d6f4aa8e0	0.6776187108673888
77	0x3fb437cdc9d9e8a2	0.07897649934776266
78	0xbf9d60d2d009bff0	-0.028689664790761016
79	0x3fcad706ac296457	0.20968707472164524
80	0xbfb7ff9f50536545	-0.09374423705175612
81	0xbf9558274ffaaffb	-0.020844091660066493
82	0xbfb8b0c3e70a8b0c	-0.09644722357419883
83	0xbf988721867da287	-0.023952983697571397
84	0xbfd06acd5fab45e9	-0.25651869146994827
85	0x3f466b8a2457912c	0.0006842064400954021
86	0xbfc3dd63b4631234	-0.15519377048453153
87	0x3fbdf35fcf0f86c8	0.11699484639350566
88	0xbfba9fbfe3f023be	-0.10400008501905142
89	0x3fb5d077019e291e	0.08521217145440516
90	0xbfb6507ee9a3f794	-0.08716576770890888
91	0xbfcc3f183308a6a3	-0.2206754922092858
92	0xbfbcb8d9b4b1dbf0	-0.11219559346669405
93	0xbf7fe2cd21c76f3c	-0.007784653946568739
94	0xbfa34b39ebe89744	-0.037683305785590565
95	0xbfb7647bda6e54a5	-0.09137701113498282
96	0xbf983c9805a06829	-0.02366864713994957
97	0xbfc1451100d5445c	-0.13492023983647783
98	0xbfa84b6da719713a	-0.04745047249591257
99	0xbfc1d4f464b50e7a	-0.13931136052461907
100	0xbfc1409a68f16c5f	-0.13478403209851117
101	0xbfb2c537d201f868	-0.07332180859700232
102	0x3fc2a44e2f0dc2bc	0.145639203048196
103	0x3fbf5eaa4c69ec61	0.12253822675295246
104	0x3f9cba7e6682dd99	0.028055167204653484
105	0xbfcab1a6ed620603	-0.2085465106102192
106	0xbfc6e0ece89d4f92	-0.17873917921189936
107	0xbf9d14e0c5d9f9cf	-0.028399955821891084
108	0x3fac7aed2a2be98c	0.0556253541926309
109	0xbfc5857b67550f48	-0.16813604875107502
110	0x3f6a3b6daff55904	0.0032021658259210346
111	0x3fba2f3a1344c815	0.10228312464167318
112	0x3f8f3d508ff01c6a	0.015253667252194531
113	0x3fa61e3ef2adc3e7	0.0431995078314527
114	0xbf9e836fdb742e33	-0.02979826714458351
115	0xbfbaeafa1f31c497	-0.10514796506483247
116	0x3f81f4f84a4094af	0.008768024221419727
117	0x3fc0bced08a78d86	0.13076556131919065
118	0x3fb9258fb1d83e65	0.09822939006721183
119	0x3fa3b387ac39caf5	0.038479079984332566
120	0xbfbf965746ac4bc9	-0.12338777041831785
121	0xbfb69ec95b5e7831	-0.08836039047898293
122	0xbfa39c3dfffd4860	-0.03830140828962736
123	0x3fc339376040340c	0.150183603284319
124	0x3fc209f20c5241e3	0.14092851258875702
125	0xbf97db1b9380d33f	-0.023296767118341718
126	0x3fa5191500ab3190	0.04120698578990123
127	0x3fb10a7a8428edb8	0.0665661404281569
128	0x3fb42cf4103a1afd	0.07881093403021207
129	0xbfab9663e73de453	-0.0538817615296884
130	0x3fc26d6344ab6e67	0.1439632497120897
131	0x3f89cd3d6f819a1d	0.012598495450402198
132	0xbf88b5c8733f7aaa	-0.012065473572815694
133	0x3fa25e27ad075225	0.035874595519690446
134	0x3fb7c1c0f1c0ec47	0.0928001966685069
135	0x3f975bca3fad6432	0.022811088692240307
136	0xbfc786f2cb0da92e	-0.18380579867091157
137	0x3fc20516f8412f0a	0.1407803260975629
138	0xbfcf9cb9b8f5188d	-0.2469703820335706
139	0xbfdf1782c9249d23	-0.485809990338071
140	0xbfa1a60634443631	-0.034469789390737644
141	0x3fa01a2b69560f65	0.03144965802041958
142	0xbfce3e0b1ebf6c11	-0.2362684154639685
143	0x3fb9398228d8347b	0.09853375909024635
144	0x3fa636abb1e3ce07	0.043385854210921386
145	0x3fa375e5e110c61b	0.03800886509305831
146	0xbf84244cefc8dce6	-0.009834862773557562
147	0x3f9d01bfd5062c66	0.0283269857186891
148	0xbfc444743440dd1c	-0.15833904792246123
149	0x3f9d337cb9b14576	0.028516720613259015
150	0x3fab73d37eb2f674	0.05361805841083092
151	0x3fa998445c9063a0	0.04998983030254256
152	0x3faefae5993b3bcb	0.06050794120311983
153	0x3fb89827bec8753d	0.09607170493878399
154	0x3f84e64593816152	0.01020483356857996
155	0xbfb7db01b632ccd6	-0.09318552683071188
156	0xbfc075bb5f4b9684	-0.12859289315308697
157	0xbf904ab7ba427db9	-0.01591002535189798
158	0x3fb85e0d68f5b521	0.09518512547011372
159	0xbf8cc265be70feb8	-0.014042658685979745
160	0x3fbc6c04590ac672	0.11102320836905635
161	0x3f8c914c0d67919d	0.013949007186007384
162	0xbf79d784d4a2e1e9	-0.006309050435611565
163	0xbfc240fe96147d3d	-0.14260847404600865
164	0x3fa560e84144073b	0.04175496861172553
165	0xbfc2207ee9f3b119	-0.14161669181283612
166	0xbfbbeb77391bf19f	-0.10906167167917723
167	0xbfae95b1bf6fcbfe	-0.05973582708238466
168	0x3fc1124790500575	0.1333703474665914
169	0x3f8de4d9126e8464	0.014596649050704076
170	0xbf97ebf3c4df73a8	-0.023361023799100572
171	0x3fb27e8fd4f6cb6d	0.07224368047063275
172	0x3fd6f932c65ebca1	0.35895985958172544
173	0xbfb603ec8c515971	-0.08599737573363143
174	0xbf82e2860a591efd	-0.009221121969985807
175	0xbf5fc11fa4482a8e	-0.0019381340981704828
176	0x3fb9e13dae17a91d	0.10109315395644498
177	0x3faac98bed08db9f	0.05231892841805252
178	0xbfb845ffa2fd23f7	-0.09481809357852443
179	0x3fb4012941fd6d45	0.07814271794398049
180	0xbfc005a91c6eb5c3	-0.12517274750045546
181	0xbfc24c97972ff7eb	-0.14296240694233062
182	0x3f6526e1b2eca89c	0.002582016771516994
183	0xbf9bee1aa532e13c	-0.027275482495242573
184	0x3fc8b81ce07d85e6	0.19311867677156086
185	0xbf9d875f2b8f5351	-0.028836714776690645
186	0x3fa88891d52cb930	0.04791694380979761
187	0x3fd29c123b240b05	0.29077583098857956
188	0xbfbd66411c181b60	-0.11484152732746855
189	0x3f929902ad80bcb9	0.0181618135831598
190	0xbfc7f336617cdb51	-0.18710975418226863
191	0x3fc0335564fcd662	0.12656657630002416
192	0x3f7171b3718ceba4	0.004258824302094153
193	0x3fb0f6e15a4a04a2	0.06626709417652646
194	0xbfbec21fb840554f	-0.12014959572146221
195	0xbfa89b74c1498846	-0.04806103572333646
196	0xbfa120ecc64f61dd	-0.0334543220594161
197	0x3fa4fdf89e2d0127	0.041000146206444925
198	0xbfa77a4794368a1b	-0.04585479435197134
199	0x3fbb1934e5e4c8e2	0.10585337269438669
200	0xbfadbb3f6b3156d7	-0.05806921180253049
201	0x3fd4c3fc4046f950	0.32446199681352983
202	0x3fdbf89e318b7b76	0.43704943502773774
203	0x3fa56b1d81d12672	0.04183284959488
204	0x3fd01524c723bf27	0.2512905068133357
205	0x3fdea388084b36b7	0.47873116311971436
206	0xbf83ef01d4c731bd	-0.00973321371648061
207	0xbfa680be34dbbdfa	-0.04395098109477753
208	0xbf7a749621f34da4	-0.006458841758291287
209	0xbf929eb156f40c60	-0.018183489734849068
210	0x3f965f5c13a70e39	0.021848143290993802
211	0x3fccfdc63ae1e365	0.22649457812419907
212	0x3f948c3b6ee7f3dd	0.02006619324128055
213	0xbfa854e0f3107706	-0.04752257315725043
214	0x3f9540266e59935c	0.020752525792335205
215	0xbfb87bd57b4e68e7	-0.0956395555535071
216	0x3fa9d90df89c16d3	0.050484119985453234
217	0xbfce5db335ac1668	-0.2372344982215282
218	0x3fbe10e3fd1b31d4	0.11744522981025024
219	0xbfd1d99e3973ea59	-0.27890735254883264
220	0xbfd98c12a36cc688	-0.3991743656107265
221	0xbf895c684b7c6d51	-0.012383284381533828
222	0x3f84f91217fc1184	0.01024068961806602
223	0xbfd0994b97bc9ef3	-0.2593564016155902
224	0x3fc104bedb9098ed	0.13295732232035765
225	0xbf6883013c622c31	-0.002992155469717449
226	0x3fdae79e8e8d28e3	0.4203869239905897
227	0xbfb2e04e0d0969ee	-0.07373512094765264
228	0x3fd512b49d038b32	0.3292666943872745
229	0x3fef2b6102d943c6	0.974045281947945
230	0x3fcb9dae42ee2070	0.21574953334880176
231	0xbfc6e313934a7524	-0.17880482379852325
232	0x3fbf264591d2e93b	0.12167773065713032
233	0xbfa86b4306e7e2f5	-0.04769334277438545
234	0x3fb9faaca982f1d9	0.10148123873199867
235	0x3f98b694de19d68d	0.024133993202176064
236	0x3fb6e5808ee4a85e	0.0894394253597581
237	0x3fa5202596c46313	0.04126088586253309
238	0x3fbad6ea7e7ea9b7	0.10484185779811282
239	0x3fba329686397b66	0.10233441140142716
240	0x3fa333f6fbba9548	0.037505834797495086
241	0x3fa5a812723a4a38	0.04229791302090685
242	0x3f8ad54dbacc9606	0.01310215689006623
243	0xbf600b9eade274ac	-0.0019586657718507396
244	0xbf8c7c5834b6db18	-0.013909043415748765
245	0x3faf36909e044991	0.060963172234681846
246	0x3f98eac65533a45a	0.02433309454946584
247	0xbf8422d626f562e4	-0.009832070411606116
248	0x3f85e3800303c3d7	0.010687828151704366
249	0x3fb44196e6fbb660	0.07912581576575795
250	0x3faabf21e571c558	0.052239474542953246
251	0x3fa311ae0530292b	0.03724426091510432
252	0xbfad6f7b9509b843	-0.05749117082892543
253	0xbf5ad1da21ba3ba1	-0.0016369466965533224
254	0xbf78dda96b06dbe9	-0.006070768155431041
255	0xbf70357f77d29e5a	-0.003957269594287627

module.down_path.0.block.3.bias f8 [8]
0	0x3fb2c2a900013f84	0.07328277826422719
1	0xbfb52d6c7fff0d0c	-0.08272436261090749
2	0xbf9b3bfc0003e60c	-0.02659600973217917
3	0xbfa595db7fff51e0	-0.04215894639461104
4	0x3faee96ebfff88ed	0.06037469953277417
5	0x3fb2144b7ffebdbc	0.07062217593078562
6	0xbfb9c0cde001fb5c	-0.10059820860804564
7	0xbfa39a579ffd2630	-0.038286913185015314

module.down_path.0.block.4.weight f8 [8]
0	0x3fe3beb775f6d953	0.6170308403004959
1	0x3fec7369c23ee8e3	0.8890885156499987
2	0x3fe9b7169e6701db	0.8035996526523904
3	0x3fe9a334b46a6cda	0.8011725925201987
4	0x3fea59a57fd8bf59	0.8234431740765827
5	0x3fed821d8aed076d	0.9221332276722315
6	0x3fec74fc9d1e8d72	0.8892806118714545
7	0x3feb668e2b71be47	0.8562689636727975

module.down_path.0.block.4.bias f8 [8]
0	0x3fef08a9cc755d6f	0.9698075288132894
1	0xbfe783c390e47939	-0.7348344640666148
2	0x3fe26d20cfb68037	0.5758213097469768
3	0x3fe5d40043088dac	0.6821290311094592
4	0x3ff0bfc08d6cd0b2	1.0468144916931519
5	0x3ff5738ff5646356	1.3407134614592073
6	0xbfa7dbafc26d753c	-0.04659795044310974
7	0x3fea2b049950ccb2	0.817751216358735

module.down_path.0.block.4.running_mean f8 [8]
0	0x3fe838e8f63609a0	0.7569470223245851
1	0xbfe5b6f8f6a70cc4	-0.6785855119163888
2	0x3fdd6639a5691d3d	0.4593643298471369
3	0x3ff7f448fcc5ae60	1.4971399187005758
4	0x3ff7c7e14798c2ad	1.4862988278147597
5	0x3ff10273b28c5567	1.0630986189401825
6	0xbfd138c53e0f84b0	-0.2690899950085379
7	0x3ff11a2c0d90cb9f	1.068889668455746

module.down_path.0.block.4.running_var f8 [8]
0	0x3fef7555ce5ad864	0.9830731420868344
1	0x3ff15f529dccaa0b	1.0857721485177787
2	0x3ff416f30cdc2c79	1.2556028845163196
3	0x4001623271c4a9e4	2.172947777570913
4	0x3ff438f9dfcda776	1.2639101736371834
5	0x3ff0ab446898aff4	1.0418132863805996
6	0x3ff7d977475b5276	1.4905922686931752
7	0x3ffb7abd6c5d028c	1.717465804380626

module.down_path.1.weight f8 [16, 8, 3, 3]
0	0xbfcaeb5dd15634ec	-0.2103078148033214
1	0x3fb86a0127b85028	0.09536750049329668
2	0xbfa533ab325cfd1f	-0.04140982618127453
3	0x3fb18d845257e6dd	0.06856562624298186
4	0x3fe47c4769efd572	0.6401707715109934
5	0x3fcef07da0a40c50	0.24171419471540156
6	0xbfcf6c3ea7ff40a1	-0.24549086764318864
7	0x3fb6eedb3c755784	0.08958215929064123
8	0xbfd4c4fa04a87767	-0.32452249960794294
9	0x3f84e4a959069b39	0.010201762227394095
10	0xbf804e3e1c142e80	-0.007961735946558024
11	0x3f979b12bd6c0dc0	0.023052494822889846
12	0xbfc225d07db69383	-0.14177900446261668
13	0x3fbc58abb32486ac	0.11072800754166207
14	0x3fa55924c787dd34	0.04169573722532008
15	0x3fa4eb09b62a78c8	0.04085569714264775
16	0x3fb06e4bd3fdd2e4	0.06418298650335036
17	0xbfb40ded7572dd0a	-0.07833751790427726
18	0xbfb064a21d6d22d6	-0.06403554171005096
19	0xbfac73da81cbf4aa	-0.055571392387699106
20	0x3fa5c954d3600d6d	0.04255166130317432
21	0x3f9b78399474c116	0.026825809179343706
22	0x3fb54d6c8e2d5ac2	0.08321264716264934
23	0x3fb539fdd47388e9	0.08291613041686542
24	0xbfbfd49652e2df31	-0.12433757327641783
25	0xbfaf2f5fca3da91b	-0.06090831130753057
26	0xbf965418fc29dbf6	-0.021805181876029388
27	0xbfb44086b2d4838d	-0.07910959115953471
28	0xbfaef34c9ab2239d	-0.06044997585656307
29	0xbfb930c3516c36e4	-0.09840031373843378
30	0x3fc948bd64e39b65	0.19753234316086857
31	0x3f6d4d02e298036e	0.0035767608976588405
32	0xbfb9ee3e1578aa40	-0.1012915422840388
33	0xbfb4ae61aa2ad088	-0.08078585056756726
34	0xbfc1dd52dc5ef72b	-0.1395667625455926
35	0x3f992f73dea688d0	0.024595079864987934
36	0x3fa973309653562c	0.049706953382763736
37	0xbfbb8137a04a4657	-0.10744044936498064
38	0xbf99fb442b28ec55	-0.025372567304867328
39	0x3f8ecdb44b12eb6c	0.015040787259172204
40	0xbfd26f05636b2848	-0.28802618702741656
41	0xbfc2a707d63843f7	-0.14572236976576367
42	0x3fc49e67c48c2b5a	0.1610841474251526
43	0x3fc1c069e5830721	0.1386844988501759
44	0x3f977b6483422a3e	0.02293164302003902
45	0xbfd150b451616879	-0.2705508036357354
46	0xbfcca010fcca99d6	-0.22363483756380614
47	0x3fb3133f1fc7599f	0.07451242948386615
48	0x3fd085adfaded888	0.2581591558367866
49	0x3fc803edd05bf1a0	0.18761990236079118
50	0x3fcd72bc8ebec84e	0.23006398172361958
51	0x3f7e628b07a4272c	0.007418196759553724
52	0xbfb78721d017af79	-0.09190570192703075
53	0xbfdc75408d0235db	-0.4446565033948368
54	0x3fc59ade7f9d227a	0.16878873091834007
55	0x3fc6794c1580bc7f	0.17557669687218788
56	0xbfc3fc50404f07b2	-0.1561374963767413
57	0xbfb736085f33c62f	-0.09066822361253267
58	0x3fb84b8a335dd0c2	0.094902646580354
59	0xbfc1163228480945	-0.13348986594071213
60	0xbf90aca6822452e6	-0.01628360909770068
61	0x3fcdb2a703256037	0.2320145383225751
62	0x3fc6dd0c9eb31f32	0.17862088917740376
63	0x3fd4b30a59d57a28	0.3234277608188756
64	0x3f60813c163f3f21	0.002014748913985801
65	0x3fa7e1a929c53dd1	0.046643530224738
66	0x3f94f8a891337f9d	0.0204798067687758
67	0xbfc6dc3f65a2942b	-0.1785964247002608
68	0xbfc2b040e45b2679	-0.14600382948110616
69	0x3fb79c0497e3270f	0.09222439487635035
70	0xbfce65a62ef42e69	-0.23747708599727282
71	0x3fa8dda4a88cfe2b	0.04856600339416802
72	0xbfc0abbfbb7f0995	-0.13024136214341966
73	0x3fc558d33429b2b7	0.16677322432533057
74	0x3fb44b15bb5e6307	0.07927070450240246
75	0x3fb84f0a7d66471a	0.09495606957923677
76	0x3fcd33fea03b8b60	0.22814925025803756
77	0xbf845e5ba9978406	-0.009945598710091385
78	0x3f89053d5875524e	0.012217025053055466
79	0x3fb491cc76546f8d	0.0803497113124065
80	0xbfcd8f72bdeec90e	-0.23094019197521515
81	0x3f8d04d0672bea64	0.014169338367982572
82	0xbfb076a436b172eb	-0.06431032500536175
83	0x3fb445ba029344b8	0.07918894350884187
84	0x3fd36976503a2449	0.30331189951590837
85	0xbfbf348f8d3dc27b	-0.12189576338074375
86	0xbfd053dd677d2495	-0.25511870485622384
87	0x3fc9341bd4b38a2f	0.19690273176009174
88	0x3fb5780ea37dd33b	0.08386317721835905
89	0xbfc2dfda4aac1704	-0.14745644231896204
90	0xbfacdd5d59c3c236	-0.05637637825737267
91	0x3fa1a106588a9e22	0.03443164664104993
92	0xbfaea13809c41dd5	-0.05982375258650633
93	0xbfb873b94d67b2fd	-0.09551580562374436
94	0xbfc0846f517fa706	-0.12904159049440284
95	0xbfc115f17b31485a	-0.13348215594538965
96	0xbf62a36dd42abee1	-0.0022751946538262934
97	0xbfc4024a73a1897c	-0.15631991048855898
98	0xbfc6e6e37331eea9	-0.17892115711935233
99	0xbfc8fe8ff297ad35	-0.1952686247380854
100	0x3fbb61a8cbb5fe3e	0.10695891354952722
101	0xbfb8e5282f4fb138	-0.09724665789662346
102	0xbfc2a913e91f48a6	-0.14578484423561128
103	0x3fc7cc9ec3f23237	0.18593201224975228
104	0x3fd753439e918571	0.36445703969191984
105	0xbfc22d75d42ab9a9	-0.1420123373004121
106	0xbfcf9fd9a67b29f7	-0.2470657408615151
107	0x3fcd0f506f60e764	0.22702985227970907
108	0x3f87352832769d07	0.011331857719439243
109	0xbfb6860d23ddfd16	-0.08798296094572708
110	0xbfc661361c932300	-0.17484165568591692
111	0x3f9df8f151a3f352	0.029269953353821272
112	0x3fd634f3898fd1cb	0.3469818919541267
113	0x3fc537f90d5f3614	0.16577065613675812
114	0xbf8af41ac5d9b432	-0.013160905039706437
115	0x3fd4552ae8a525d8	0.31769821852921387
116	0x3fcad9ef8edd9b65	0.20977587200033124
117	0xbfa5a42fe1a2a85f	-0.04226827267969279
118	0x3f7c0a545d9de154	0.006845788529851699
119	0x3fc120246644133f	0.13379340165570316
120	0x3fbc91c1da3469e3	0.11159907891525438
121	0x3fbb128540f0f318	0.10575135074118369
122	0x3fc0c0a8c96a1974	0.130879495951557
123	0x3fa863e9782f1c59	0.04763726799097218
124	0xbfc4cdc7e0394bbe	-0.16252993057659454
125	0xbfc6d4adb2ee5ebf	-0.17836543309089412
126	0x3fa03096e54f47a3	0.031620707981019146
127	0x3fb961c0e63cd769	0.09914785023724239
128	0xbf6c4a0b413bddd9	-0.0034532756634424286
129	0x3fb1ee3def383f13	0.07004153337788592
130	0x3fa89f707a942161	0.048091425860607336
131	0xbfa4acb04060dffb	-0.040380008562749446
132	0x3fa576794bbc6d19	0.041919508452531846
133	0x3fc7c8242d3b55a7	0.18579532822211073
134	0xbfb1b112f607bd6f	-0.06910818583104626
135	0xbfa08ef073ba95a3	-0.03234054005342137
136	0x3fab3f62cfc95030	0.05321797167258102
137	0x3fb50b5135dd58e5	0.08220393719725257
138	0xbf9bcc8d31c6fe91	-0.027147489703337305
139	0xbfc8e6e9287c1a50	-0.19454683758540847
140	0x3fb2babb5b5ced67	0.0731618021063035
141	0x3fb23bd39c96d3a2	0.0712253815934916
142	0x3fb7b6a0fb74f2ca	0.09263044489939457
143	0x3fd204f75ca20576	0.2815531162851451
144	0xbfa32f44005ac1de	-0.03746998314216275
145	0xbf71dc694ea92bf2	-0.004360591274756397
146	0xbfc47030a99db58c	-0.1596737697795273
147	0xbfb82c05779a536f	-0.09442171258917907
148	0xbfcf1d57d5328a6d	-0.24308298025160316
149	0xbfca5bf43601227e	-0.20593121182379898
150	0x3fc5423896fbbfa6	0.16608340618358602
151	0xbfc3c6fedfa9ed04	-0.15451036377985627
152	0x3fa052a881affcd1	0.03188063223933003
153	0x3fb1aa6fe1654d59	0.06900691273522365
154	0xbf803c8cf97a901a	-0.007927991260039891
155	0x3fa162debd3d3062	0.03395744380995393
156	0xbfc20ba442d85f57	-0.14098027481008543
157	0xbfd11e6a3b1bf8d2	-0.26748138210667805
158	0x3fa163a74a6d407c	0.03396342071084832
159	0xbfb4d843b29c3914	-0.08142493353463848
160	0xbfc28dbf4dac7f91	-0.1449507836596209
161	0x3fb97b14b10ee184	0.09953431437214105
162	0xbfa549732a1f8673	-0.04157600297163535
163	0x3fa26ccff702ba3a	0.035986422445934044
164	0xbfb2a626a1ef57bb	-0.07284776166429101
165	0xbfbc66a67a2d7ca4	-0.11094131930211631
166	0xbfb115506492fbbf	-0.0667314763586395
167	0xbfc7486df6fc9ce2	-0.18189787444973776
168	0xbfa50f68516149f6	-0.04113317483338001
169	0xbfc64b1264f6047d	-0.17416601114021893
170	0xbfd05c73c8f46aa0	-0.25564283966529366
171	0xbfabeb4b405b354d	-0.054529525381080114
172	0x3f95941a33712832	0.021072778119823173
173	0x3fb33fb7556c648e	0.07519098125011878
174	0x3fc0cf92f530636b	0.1313346574031827
175	0x3fbc06d3a661f5b7	0.1094791680534034
176	0xbfa42c86e9d36852	-0.03940221409148194
177	0xbfaae467ce2a0221	-0.0525238455929904
178	0xbfa93b74146e0712	-0.04928171872508193
179	0xbfc67493170db7d7	-0.1754325735632267
180	0x3f8bd6915cd218c8	0.013592849393046072
181	0xbfb43c8b25c00505	-0.07904882117874841
182	0xbfc0bcd5c061047e	-0.13076278584961537
183	0xbfbef4b7d2fa8832	-0.1209216013035366
184	0xbfc0efb44ef8bbf7	-0.1323151956180195
185	0xbfc0c1d61cc72f1c	-0.13091541676691854
186	0xbfb1d36d3e07960e	-0.06963236584086749
187	0x3fbb07081047ea15	0.10557604215129175
188	0x3fa0b94745b0a86e	0.03266356206616271
189	0xbfb857b4f8d622ab	-0.09508830142125173
190	0xbfc05c4bd3121b64	-0.12781665617168436
191	0x3faa4489524d9809	0.05130414132763412
192	0xbf745bccb213ee19	-0.004970359413387659
193	0xbf6ff2c347ffdcd5	-0.0038999380194543
194	0x3f92c0bdd4896868	0.018313375565732676
195	0xbf9db27bac9acadd	-0.029001171503021495
196	0xbfc082f7c7f3f81a	-0.1289968229611425
197	0xbfbeef1f456c9ed5	-0.12083621449402966
198	0x3f9814b72df1b9d6	0.023516523532117826
199	0x3fa34d7d939093ba	0.037700580848003054
200	0xbfa3f127ef007390	-0.03894924919607157
201	0xbfc7a7b130ea1b46	-0.1848050583687046
202	0xbfd6ed5ca080e346	-0.3582374160210303
203	0xbfd219b148c959b7	-0.282818146782485
204	0xbfb2348eb80633f7	-0.07111446373728812
205	0xbfc1fdf5acebe735	-0.1405627340644117
206	0xbfc4c732e248f2a8	-0.16232906388349488
207	0xbf744d90536091df	-0.004956783077464582
208	0xbfb9b157482382b5	-0.10036225806426098
209	0x3faa7388af5fc2ca	0.05166270390316681
210	0xbf95a7c9d530dd4e	-0.021147874486101607
211	0x3f7825afa033bd0b	0.005895315206756689
212	0x3f5125ff985bef57	0.0010466571852125372
213	0xbfbcb3f020b8be33	-0.11212063597553694
214	0xbf9fcba41839993c	-0.031050266245437927
215	0x3fb39a32261851f3	0.07657159261754724
216	0x3fc431b911882b37	0.1577674232106234
217	0xbfa5f5996e7d40c8	-0.04288939927812546
218	0xbfc0ab0be6436777	-0.1302199243862636
219	0x3fb14db3ccf8fff3	0.0675918937131426
220	0x3fbc2dca045a874b	0.11007368665971488
221	0x3fd0509b66b0abea	0.25491986301739067
222	0xbfa9b4b6b65ee435	-0.05020686126903976
223	0x3fca938bd3331dd7	0.20762775242313466
224	0x3fe041d2ff644250	0.5080351818197162
225	0xbfb68c23ad95cfa5	-0.0880758570472709
226	0xbfaeace5e596a591	-0.05991285731881669
227	0xbfb9f3bac3c96b79	-0.10137526779128149
228	0x3fc24d51dfd79ba6	0.14298461370273435
229	0x3fc07bccdc9ff6b0	0.1287780835408987
230	0x3fb1aa42a24c5933	0.06900421583518294
231	0xbfa49b0e556569f1	-0.040245483326277205
232	0xbfba3624704ce302	-0.1023886465235471
233	0xbfbc3ff52e3696a7	-0.11035091760876502
234	0x3fc5236a2ad466bc	0.16514327136319717
235	0xbf96ba74e07a25ff	-0.022195650292394117
236	0xbfc6355f490b48ad	-0.17350379053693157
237	0x3f93aef169bb8bb3	0.01922204215851382
238	0xbfce3e0030177a78	-0.23626711223819874
239	0xbfb83ce64f4b5cb1	-0.0946792548742106
240	0xbfc2bef83376f4f7	-0.14645292771266558
241	0xbfc088d7aae4c9d4	-0.12917610020083592
242	0xbfb60b1cafe5206d	-0.08610705656349334
243	0x3fbcaeeab0003d2a	0.11204401776216302
244	0x3fc1653a3786944e	0.1359017153855881
245	0x3fac75c0388e6c55	0.05558586779007927
246	0xbfc2b292f225c445	-0.14607464622125313
247	0xbfd17f4d4f86a1e7	-0.27339489713861415
248	0xbfc214a392fe3f38	-0.14125485112571723
249	0xbf7f2e0d40bb821e	-0.007612277764309753
250	0x3f9782f41eca35cf	0.02296048582006965
251	0x3fc041b512a06959	0.1270052281332237
252	0xbfbbac1eb6b7f0fb	-0.10809509240056407
253	0x3fb6a82978b1b0ae	0.08850344845422128
254	0x3fcbeeb7735ed711	0.21822255261729898
255	0x3fc6b6bef8781db0	0.17745196468625357

module.down_path.2.block.0.weight f8 [16, 16, 3, 3]
0	0xbfc7d2948b42ceab	-0.18611389922954422
1	0xbfc79e8f50fbb20d	-0.1845263619828902
2	0xbfc6bbaa4f12c67e	-0.1776020895099925
3	0x3fcb9e87461aa9e6	0.2157754032426304
4	0xbfb3107842442cc4	-0.07447005861120021
5	0x3fd8d238c05d4bed	0.387830913406275
6	0xbf95e1e5cb9734a3	-0.021369543601214357
7	0x3fbf9644d70b2825	0.12338667154395518
8	0xbfc528e098180bd1	-0.16530997683011475
9	0xbfac3f7ba34ee2aa	-0.055171836552692824
10	0x3fb06bc119573514	0.06414420002620985
11	0x3faed3a82937fa8c	0.06020856383473924
12	0xbfba02549e32ef91	-0.10159806120185368
13	0x3fe5a89c187a8367	0.6768322446915648
14	0xbfa0b81d55ab0207	-0.032654682834167
15	0x3fad6dd2fe7922d3	0.0574785171161857
16	0xbf9a00ecac6425c5	-0.02539415170853034
17	0xbf89905ebc8647e0	-0.012482395294487192
18	0xbfc0fb4f7d50f2a4	-0.13266938799815364
19	0xbfb1408d8e50b0e6	-0.06739124989025277
20	0xbfc11f2fa28f4aad	-0.13376422345625852
21	0x3f91e3677f017f20	0.01746904099161306
22	0xbfcc8cd71f76d771	-0.22304810558642488
23	0x3f9c390f89200b1b	0.0275614192432939
24	0x3fb6ba147e211e64	0.0887768562253029
25	0xbfb5de52ff17458d	-0.08542364814572619
26	0xbfb10777505799c7	-0.06652017318228963
27	0xbf971c80f44a1a88	-0.022569670591588792
28	0xbfaf80447d167fbd	-0.06152547862006894
29	0xbfb6ef0a393eefe9	-0.08958495996097295
30	0x3fb8ee213b31df73	0.09738357253251965
31	0xbfd3ae826f751926	-0.3075262154055899
32	0x3fbbd4725da35387	0.10871043001254864
33	0xbf910c71ce3ff935	-0.016649034703726435
34	0x3f9ee19ee2f1b347	0.030157549478121905
35	0x3fce58abdd91db9a	0.2370810348399715
36	0x3fd3980a20a1af93	0.30615475832632305
37	0xbfa58dab0ce81bc9	-0.04209646732856915
38	0x3fbbf63d0a94d6f7	0.10922605045638166
39	0xbfc376d234c023a3	-0.15206363273344178
40	0x3fc7b7fee3f6fed8	0.18530260211081528
41	0xbfd025b880810ae1	-0.2523022894785481
42	0xbfb13209271936aa	-0.06716973499825465
43	0xbfbaca88a7fbe677	-0.10465292073413389
44	0x3fd550a7cc678ef3	0.33304781876925843
45	0xbfc0cde46343aacb	-0.13128332945719587
46	0xbfa394785fe8c54c	-0.03824211283461895
47	0x3fb7805afe20bb98	0.09180229858678357
48	0x3fce630ca04b3c9d	0.23739774538851047
49	0x3f7dfde8e7030077	0.007322225356063076
50	0xbf9b321e2c3f2287	-0.026558371973609354
51	0xbfabb94aed586a43	-0.05414804599077574
52	0xbfc322b61fcea97d	-0.14949680855836425
53	0xbfa14c90983c4eba	-0.03378726824135243
54	0xbfb219ed78b07ed3	-0.07070812412757314
55	0xbfaa726e43ec4c14	-0.051654287139307226
56	0xbf779330b4e363ce	-0.005755605945716403
57	0xbfc5e8938b7d5f73	-0.17116016684553478
58	0x3fb40bd7315d2cd9	0.07830567317175809
59	0x3f92a2c4ebbe4086	0.018199040306683865
60	0xbf6b00201c8ac724	-0.0032959582498158935
61	0x3fc4e544be467481	0.1632467202261161
62	0xbfca3ba71ffc5058	-0.2049454599551861
63	0xbfa86abde6abc194	-0.047689375312873455
64	0x3fb604938a5e0765	0.08600732925517958
65	0x3f975f052443ddcc	0.02282341035694717
66	0xbf95b6b420958ef2	-0.02120477150800943
67	0xbfcc12b3dca0f8f0	-0.2193207576073699
68	0x3fccbb654049c258	0.22446885718410914
69	0x3fa9de554bf3d63f	0.050524392625373775
70	0x3f362d07f2ddf63c	0.0003383774190906829
71	0x3f4f58eb39de230f	0.00095664487501876
72	0x3f8f8591c49b40ba	0.01539148217435159
73	0xbfab98483a594225	-0.05389619552864059
74	0x3f9b3063ba80ab50	0.026551779039589107
75	0x3fcd4181ba7ffa7d	0.22856160742226797
76	0x3fcdcb7c3f34bedd	0.232772379743884
77	0xbfa5ddc1c7c1ba3e	-0.04270749629437319
78	0xbfa12baff795b7de	-0.03353643319393006
79	0xbfa9eb855bab3b69	-0.05062500709538293
80	0xbfb21736e4ebb612	-0.07066672409902022
81	0x3fc7381d446a2f0e	0.18139997330251173
82	0x3fc43c7befc6d450	0.15809582908483089
83	0x3fb776e69d80825a	0.09165803284896282
84	0x3f89b8b9a574a812	0.012559366571242268
85	0x3fdc8c9efa508d0f	0.44608282513418457
86	0xbfc6dc6624d9dd49	-0.17860104369513355
87	0xbfbb06a85bbcde7c	-0.10557033767406127
88	0xbfba66e38fa593aa	-0.10313246018411229
89	0xbf9a17ae3b2d2b6a	-0.025480959283679473
90	0x3fc51a17a2aee369	0.16485877460015821
91	0x3f8b469e91d776bc	0.013318289590582004
92	0x3fbb1d317e089e83	0.1059142048549067
93	0x3fb2562913bd941c	0.07162720424601371
94	0x3fc17d48c76ed2db	0.13663587320265588
95	0xbfa1996b64688037	-0.034373622900830396
96	0x3fc68c4d70a2ad8c	0.176156692502769
97	0x3fb34e3023251b66	0.07541180475264539
98	0x3fbc6813664a7db6	0.11096307036722561
99	0xbfc7b6924a0ff80e	-0.18525913826300705
100	0x3fa356bd9b86b402	0.03777115367424956
101	0xbfa72c4d2a13c35e	-0.04525986803662961
102	0x3fd763051d8a86c0	0.36541870007395616
103	0xbfd860d985e54dff	-0.380911236531773
104	0x3fd2a309365052c1	0.29120092681959525
105	0x3fb1e1e90cf0a205	0.06985336843411723
106	0x3fb5aa8402cbaa66	0.08463311260462944
107	0x3fa5f200c160eaf0	0.04286196098879269
108	0xbf9a78abd279ad6e	-0.02585094902171419
109	0xbfb3a0b5b5d20486	-0.0766709870240608
110	0xbfab662157be15ba	-0.053513566933399884
111	0xbfc691985dea17aa	-0.1763182123724481
112	0x3fcfbb1c97defd14	0.24789769568995068
113	0xbfcb57548c344eb6	-0.2136026081649242
114	0x3fb3f29bab41ec65	0.07792065554706225
115	0xbf9f3a7686dd0125	-0.030496456128504285
116	0x3f828a1ef6aecf1e	0.009052507308161813
117	0xbfa1315ba67b0882	-0.03357969672426099
118	0xbf87cf4ea4144f2d	-0.01162587583761584
119	0x3f7bcdd04339a3fe	0.00678807594850017
120	0xbfbc1aee02dac7ef	-0.10978591508572298
121	0x3fd1098466584c31	0.2662058829748189
122	0xbfb96269de0d9304	-0.09915792151657504
123	0x3fc099aad0e53f91	0.12968955230689663
124	0xbfb366c9abc5d799	-0.07578716701195133
125	0x3f9dea61793a0fe9	0.029214404129120828
126	0x3fab510e064b25c0	0.05335277392220972
127	0xbfa249106b98be97	-0.03571368516383904
128	0x3fa27444c2e61ca0	0.03604330901276254
129	0xbfc89f5f45fa9cef	-0.19236365239087358
130	0x3fca46caa220a660	0.20528538624175763
131	0xbfcb288a41930706	-0.21217468454238303
132	0x3f995514dc9e0400	0.024738622632415996
133	0x3f6afa7c5a6541bf	0.003293269040263363
134	0xbfb56fffed6627dc	-0.08374023004412784
135	0x3fb97d0187a1283b	0.09956368981616574
136	0xbfa42ee864d577a4	-0.03942037802583734
137	0xbfa883fd2329bd9f	-0.04788199476467558
138	0xbfc32bd76c725f63	-0.14977543635609
139	0x3fd0ce5b950a1489	0.26259507708193347
140	0xbf9c2621a5ef63b1	-0.02748920989310805
141	0x3fb04459c474bd99	0.06354294821061614
142	0xbf85ca2d538a41ff	-0.010639528381291006
143	0x3fbb4ed984029cb8	0.10667190049081199
144	0x3fc575b9e5e307bc	0.16765521740859224
145	0xbfc4d4397b94c931	-0.16272657903898272
146	0xbfabc69b0379f28c	-0.05424961488185884
147	0xbfc62f9adcec2371	-0.17332778727748235
148	0x3fdd47b920286574	0.45750263348016706
149	0x3f99a75ffda1cebb	0.025052547317001777
150	0x3fabeb2965cd7f47	0.05452851646145845
151	0x3f9ba50fe8ebaee8	0.026996849624011526
152	0xbfc3f77f6143de92	-0.15599052666924657
153	0x3fa9f6390959da5e	0.05070665587566191
154	0x3fcedc72e5610859	0.24110256385944487
155	0x3fbe41f887aaca6d	0.11819413482843695
156	0xbfa456a64c40e2e6	-0.0397235839922752
157	0xbfe1e9c453ce4c29	-0.5597859989960671
158	0x3fa1d80ea2587c87	0.034851510350784536
159	0xbf8b0c23cae3b72a	-0.013206748608776648
160	0x3fc28900e2dddf42	0.14480601384615893
161	0xbf946fabe88deb23	-0.019957243031494386
162	0x3fb337f703c858fa	0.075072706626404
163	0x3f6f4dd8237fba7c	0.003821298738322652
164	0x3fb561924d999507	0.08352007288484141
165	0x3f9534ba7a2cad48	0.020708955485287533
166	0xbfc9c6a63bf481e8	-0.20137479712958783
167	0x3fa564eb7c08f7db	0.041785582438464274
168	0x3fc1b24bfaf88079	0.13825368647031036
169	0x3fab88a77501533c	0.053776963265284
170	0x3f7644a67d5ab41b	0.005436563825850472
171	0xbfb3741b85e67f1f	-0.07599041003276995
172	0xbfc5573d20ef51cc	-0.16672481640001846
173	0x3f5e58bcb6e9f45e	0.0018522112765418024
174	0xbfb0794c1c5ca615	-0.064350850033087
175	0x3fe07304180009ab	0.5140400379898912
176	0xbfca468bfe609728	-0.20527791901366155
177	0xbfb20b1584235cb4	-0.07048162914303441
178	0xbfdab89117e23c2f	-0.4175150616874274
179	0x3fb321d69308acf5	0.07473507966703948
180	0xbf90e0edcd669974	-0.016483035718601838
181	0xbfc368cd08de4dce	-0.1516357701590167
182	0xbfbaca37f88517ef	-0.1046481115091351
183	0xbfaf8cd12d2f64cb	-0.06162122417999568
184	0xbfbcb6ab641a09d0	-0.11216231531037768
185	0x3fc2c94cb9383c29	0.14676817935875988
186	0xbf99d132784bf0d8	-0.025212086288761565
187	0xbf960be9e18a58ae	-0.021529821768660078
188	0xbfa000477232c846	-0.03125212925932934
189	0x3fb76dd38f08029d	0.09151956788992739
190	0xbfc1c05407a22a0c	-0.13868189213492632
191	0xbfb95fcae8d0d9d8	-0.09911792930584029
192	0xbfb395fdce885239	-0.07650743763253666
193	0x3fbb62c948f0018d	0.10697610884381543
194	0x3fa2fca3f5489226	0.03708374375517946
195	0x3fa48d7d9036d9cf	0.04014198670795432
196	0x3f9a1be0fec27418	0.025496974515238774
197	0x3fa559c0832d241d	0.04170037843011463
198	0xbfbc120437ff7f59	-0.10964990965976308
199	0xbfbe290bfac83a71	-0.11781382439242251
200	0x3fc22194d80d8cc9	0.14164982366046378
201	0x3f9aab972b3048c7	0.02604519082167014
202	0x3fda16f6ea96f36c	0.4076516428865975
203	0xbfc6090a0dd3f8f1	-0.17215085673519284
204	0xbf8aaf89312eda07	-0.013030120671698077
205	0xbfc4012adac462e3	-0.15628562623967132
206	0xbfcf33a0494f96e4	-0.2437630041087494
207	0x3f98be107dc78ccd	0.024162538220377883
208	0x3fc573545e8e8077	0.16758207909606757
209	0xbfa525cfcf61ddea	-0.04130410582086681
210	0x3fa0da48d2139bbc	0.03291537823115884
211	0xbfb5ea24dcdd9192	-0.08560400383209402
212	0xbfb021b3aa11956f	-0.06301424886767902
213	0xbfb20d2b3251a21b	-0.07051343897331501
214	0x3fc49b085425b6dd	0.16098121746784147
215	0x3f7d2cf9df64e5ca	0.007122970643018653
216	0xbfb99a9ad84ff4c7	-0.10001533299505914
217	0xbfa8e239d59df5ba	-0.04860096676473398
218	0xbfc1c9dda6528d3a	-0.13897295590605002
219	0x3fbfb4b44517f8e6	0.12385107695442663
220	0x3fd1562d27d5d53b	0.27088478937305965
221	0x3fa5a1dfd4afa443	0.04225062819734451
222	0x3f97cae4bdce1a8c	0.023234914860518915
223	0xbfc45793edfb5a76	-0.15892266388137316
224	0x3fb227c35631fb5f	0.07091923574806235
225	0xbfbea7942ae85717	-0.11974454925106347
226	0x3fb305621ca2eec1	0.07430089186794488
227	0xbfb4c72c84013a4d	-0.0811641523625692
228	0x3fc49254f0842147	0.16071569198562427
229	0x3fdead1fb7908bb4	0.47931664396508755
230	0x3fc777b98705beb4	0.18334120839016566
231	0xbfc1500abfc313d5	-0.13525518763904523
232	0xbfc8bb9beaffd0be	-0.1932253739793221
233	0xbfaebf7f96387eda	-0.06005476673840145
234	0xbf79647179bdbce0	-0.006199305786011439
235	0xbfb3a1ee5caf5961	-0.07668962252441737
236	0xbf9733888bdafbe0	-0.022657521759125276
237	0x3fbfda278c40eb22	0.12442252325210437
238	0x3fc80b633e07d8d5	0.18784752396431395
239	0x3fb45ba23abe106f	0.07952321943418082
240	0x3f8dd85300cd8a18	0.014572761976244172
241	0xbfd350235d805520	-0.301766244230139
242	0xbfa7567d6a4f07e9	-0.04558174059594917
243	0x3f5f3295c094474b	0.0019041502403677908
244	0xbfa0ece7adb23db8	-0.0330574416667519
245	0x3f88845e083730e5	0.011971220613212494
246	0xbfaa8e055b75fc72	-0.0518647836824976
247	0x3f9d29084b3fcb8c	0.028476838677260072
248	0x3fc4f197705fe296	0.16362278925932533
249	0xbfc249b19340b5b2	-0.14287395181729107
250	0x3fac975b448a3fae	0.05584225856466617
251	0x3f8a97ade092e270	0.012984617629954814
252	0xbfaf5d9c996ca62b	-0.06126107571465086
253	0xbf8ffa76aa28b23c	-0.015614440028991365
254	0x3f9ff921addd32f2	0.03122379897768019
255	0x3fa99ebc845e4663	0.05003918758224015

module.down_path.2.block.0.bias f8 [16]
0	0xbfb5217cbfff0bb4	-0.08254222571763031
1	0x3fb0c65be00015a1	0.06552671641119058
2	0x3fb1cffabfffe01f	0.06957976520050167
3	0x3fa0c96760020881	0.03278658911678268
4	0xbfb001f140008abf	-0.06252963841010749
5	0x3fb361df3fff7d4c	0.07571215927554426
6	0xbfa553b5bffef755	-0.04165428131771757
7	0x3fa83a3c0000ee41	0.047319293022578986
8	0xbfb17ccb8000915c	-0.06831046938947821
9	0xbfb17d68bffe8800	-0.0683198422180169
10	0x3f7b86fffffefaf9	0.006720542907656884
11	0x3fb31f0cbfff64ea	0.07469253241960741
12	0x3fa09be05ffccf4e	0.03243924304697875
13	0xbf95659cc000cc0e	-0.020895432681026498
14	0x3fa4291460047e99	0.03937591240014377
15	0xbf6dac0560081041	-0.003622065065657793

module.down_path.2.block.1.weight f8 [16]
0	0x3fe6d912e625a047	0.7139982695634978
1	0x3fea854d70f5bfa5	0.8287722784279948
2	0x3ff3cef08001508f	1.2380223274422268
3	0x3ff23d9b2b09e62a	1.1400405579755764
4	0x3fe6654a7493becf	0.6998646046540332
5	0x3ff1a17e7a3407f2	1.1019272588314348
6	0x3fe671bea5d863e5	0.7013848532834542
7	0x3febed97960844a0	0.8727529459303192
8	0x3feafe28cf207efb	0.8435253186653137
9	0x3fecad206605025f	0.8961336128778149
10	0x3fdb69f982618133	0.42834317905910096
11	0x3ff128ef89796fa1	1.072494065293519
12	0x3fe9efe828b054bc	0.8105355066969859
13	0x3fea1cde7b8b5c04	0.8160240567184478
14	0x3ff11b5d4f23252b	1.0691807833957891
15	0x3ff0f491d856986a	1.0597094011987118

module.down_path.2.block.1.bias f8 [16]
0	0x4005f76a1ed6b471	2.7458078774712296
1	0xbfbfa1f99fc90a6c	-0.12356529379852937
2	0xbfd012650d48ce16	-0.25112272546104586
3	0xbfa40964d7c7c208	-0.039134169903153604
4	0x3fd673d7029e8bdf	0.3508203054026903
5	0x3fd2313ae8cb2aee	0.28425476773979497
6	0x3ff3ca16591f7239	1.2368377190933997
7	0x3fa2fca88ac45a34	0.03708388036664126
8	0x3fd7f79bf808c765	0.37448786947344664
9	0x3fe799d53ed01309	0.7375284411251367
10	0x400415e2abd55e01	2.5106862473001006
11	0x3fb71c0696b72f7d	0.09027138881282144
12	0xbfa7fac533435403	-0.046835100658121596
13	0xbfafd6dab736e825	-0.06218608366494064
14	0x3ff2818328496cb2	1.1566192220405296
15	0x3f8d8d66b4990443	0.01442985762253291
