results/old/run_1/saved_model_unet3_64_128_4.pt (torch, 351968 bytes, 75 tensors)

module.down_path.0.block.0.weight f8 [8, 4, 3, 3]
00000000: c10f 97f6 2734 a33f 8b8b bc57 ce40 dc3f
00000010: bdf6 4ea7 1366 c83f 951f f7fc ec37 9dbf
00000020: c58d e9bd 7a11 d6bf 3e75 c78c 1386 b13f
00000030: c559 3960 677d c23f f242 8029 0482 d23f
00000040: 9a1a 9856 43be c83f 30e6 7ed9 4a8a cfbf
00000050: 12f8 e499 e610 d13f 3419 81a8 2939 c1bf
00000060: 9c7d 53e7 7919 c73f 54cb fd0e 20c0 f43f
00000070: cda7 6ef0 de67 e03f f6a3 ad94 5b3f c6bf
00000080: 55fd 7910 0a87 93bf 0752 02f9 a366 c3bf
00000090: 4e4a 6db9 385a aebf 0f39 f5cc 9472 a23f
000000a0: 6c7a 1593 3ead abbf 303e 2bff e295 b13f
000000b0: 73ac 3e8b d942 b93f 4bc7 2c3c df78 c63f
000000c0: 6ea8 308e 7055 b1bf fee6 1dce 1d65 bcbf
000000d0: 5753 9a83 59af 87bf d6e7 7110 f157 7b3f
000000e0: c833 ee89 bca2 693f 47ec e50d 63f7 7cbf
000000f0: 5dee a705 5b04 b6bf 9faa 10c4 e943 bb3f
00000100: aa12 10f0 8ca2 b3bf 7527 bfff 0924 a33f
00000110: 2db3 a864 83d1 b0bf 2806 5e89 731a 9f3f
00000120: 182d bf74 514e c53f 6516 6864 5787 d83f
00000130: 7330 fbc0 0e2f c23f ea03 00e1 71ad bdbf
00000140: c3f2 1891 3ac3 d9bf 94f1 5ac8 c2aa c7bf
00000150: 2650 9582 8b65 ae3f a6e0 18ea 9695 d43f
00000160: 4566 30cf 42b2 b03f 4248 78a1 9bc5 d13f
00000170: 1b5c 1925 30b4 abbf bdaf 821b bfe2 d23f
00000180: cecc cd7b 6a45 e1bf 81ae e529 5b3e edbf
00000190: 59f7 19b3 3e80 e0bf b5ea 474f a292 d53f
000001a0: 736e 58d7 d916 cdbf 5b14 5446 9b77 d43f
000001b0: c2fd 33c5 e2e2 c3bf 4e93 ed29 9e61 c03f
000001c0: fee1 b27a b440 aebf c75b a2fe 46d2 b63f
000001d0: 69ea 8b6e 243a c23f 1717 d844 c4ae b3bf
000001e0: 568c deff 2b05 b7bf e262 749f f81b 93bf
000001f0: 7b4c a99a 75a1 a93f aba7 52c5 0bc5 adbf
00000200: 3377 e4ad 35a4 ad3f 2ff0 d2b4 1fc8 a4bf
00000210: a9f0 fe3b 722c 91bf bfa1 01a9 568b 62bf
00000220: f778 ec48 cd97 99bf 269a 9234 1d28 86bf
00000230: cc72 a363 d5c9 9abf 3046 e090 1c57 863f
00000240: b19a 5c59 d354 c5bf f899 e135 a243 a9bf
00000250: 8b89 0cda 05ae b3bf fbc5 c0cd d7e2 d83f
00000260: 7c0f a925 96cd e73f 943f 97c8 0521 c63f
00000270: f84b 2a6e e3ac bc3f c20c 4aa5 d359 e33f
00000280: dfa6 7eb2 c757 a03f adfd 47b3 d9f5 c63f
00000290: abc0 794e b658 9bbf a0fb 2b5e 2687 c33f
000002a0: 3690 c58d 4f03 a7bf 10f1 7162 fb6b d7bf
000002b0: 7b5d 076c eb97 b93f 969a 2639 7832 c13f
000002c0: af42 8a1d 4ec4 d5bf 3103 7b73 9a60 c53f
000002d0: 60ef d100 147c b6bf 16a9 7987 e793 c33f
000002e0: 9070 3491 c2a5 b8bf e22d cfbb 3a12 ce3f
000002f0: 279a 568d 310f e03f 9533 5928 906a cd3f
00000300: d22d 42db d51c ca3f 4138 cd63 2f3f e23f
00000310: 6b39 f253 d898 bc3f 67ee b940 7437 82bf
00000320: d02a 12b2 d9ec a63f b793 7a1d 8703 b0bf
00000330: 2a23 5ac2 20b0 8d3f cbe3 4f07 34fc b6bf
00000340: 607a 3b0c 282a bb3f 9e1d 09b3 d5c5 7cbf
00000350: b30b 497c f755 ad3f 0752 63aa 07ac acbf
00000360: 435d d6fc d911 b2bf 8a43 4ad8 af2f cd3f
00000370: 8ac4 f507 aaf5 a3bf 69e5 16ea 9b17 d53f
00000380: 4e59 96b6 af6b e93f f016 7755 a506 e33f
00000390: 41f4 272f 53ed c5bf 5ebc 1620 a6ca dc3f
000003a0: 1562 7fad 8788 a83f 6a24 7f4c f715 c93f
000003b0: d96a c5d0 fa11 a33f d5f2 5ec5 4b90 c93f
000003c0: 13b7 e77b 7fe0 babf 08c4 99ce a38d d8bf
000003d0: 986f b954 e96e bdbf 0aef a327 786a bd3f
000003e0: 10f4 cb15 7db9 8b3f da84 ca12 1b10 ca3f
000003f0: e737 5f10 e78f ba3f baf9 1940 9f7c b0bf
00000400: 5b72 2171 15d6 a93f 9c7a bfd8 7a1c bcbf
00000410: 4d98 fd76 0235 efbf ec2f 5ad9 1029 dbbf
00000420: a3ed ccea 1343 b43f 0c80 18d1 8e12 c3bf
00000430: 47d6 e564 fdae b13f 66c0 679c 634a 6abf
00000440: f5bf ac5a b6a6 953f 5254 e302 2a2a 96bf
00000450: b3b8 bfab 5d84 923f 40c7 12d0 aad3 b0bf
00000460: 662a 0fac cd9e 9d3f ef13 6372 3889 a1bf
00000470: 2e43 1d47 5a70 b23f ed69 87bb 7990 a0bf
00000480: 5669 0b7d f52a c23f 4012 4f67 7f8a d2bf
00000490: f486 3dfe e276 c3bf e5a1 1a34 06f7 d0bf
000004a0: 3567 f08d c565 e23f 3770 79b3 09c0 c53f
000004b0: aec2 f982 9570 a5bf 7739 fe79 5e9b c6bf
000004c0: 4d2c 6bc4 e45c d2bf 4d6b a418 61ae b0bf
000004d0: ac17 f031 11c7 b93f c8f0 53bb 53c9 b2bf
000004e0: ec21 2848 c3ff b2bf 4629 a925 9a07 b83f
000004f0: 178b 24c9 b51c b53f 7c4b 82e8 afde b53f
00000500: 4b76 0eb3 0faa c6bf 581e 5a97 71f9 8fbf
00000510: bb57 c5af c382 ccbf 2bb3 a7cd e352 c43f
00000520: aebc 8779 ef95 cdbf e0da 76c1 3668 c0bf
00000530: b4dc 78a9 5306 df3f 7e93 68d6 0974 a9bf
00000540: 0a34 f9bb e1b7 7d3f 0f58 2886 0efd d1bf
00000550: e43d 83d3 d649 b6bf 563b 9e88 b58c 923f
00000560: bdab 9e28 288e ccbf e560 a1fa 265e 9bbf
00000570: c569 334a 601c 82bf c82f e5c5 ec33 c9bf
00000580: f6a4 ea7d eef6 b8bf 8d25 9a1f d3c5 a23f
00000590: 35d5 3168 bc0d a3bf ce71 88b2 3641 9b3f
000005a0: e3f3 486e 0846 b63f ab34 fcce b5c7 d7bf
000005b0: 5948 023d d3aa 95bf 0dbd a710 ec0b debf
000005c0: 7005 102b 4f36 e5bf 0239 e1fa 0a61 e4bf
000005d0: 7dc9 5f53 2c3f c73f 011f eb45 dd43 e3bf
000005e0: 273c 7a9e 4f51 abbf 4c18 fa26 ea3d c0bf
000005f0: 0e50 5e7a 995d a4bf 1510 15a5 cfd1 c1bf
00000600: 44ab b32c 3886 b43f 1c75 6782 910e d43f
00000610: 1803 cd44 cfc1 c13f 41f3 938b 2073 b8bf
00000620: 3e2b 75f2 e91d a3bf 7f9b fff1 2999 cbbf
00000630: 9f8d 825a eba7 bdbf 4433 1809 6f53 ba3f
00000640: 0bde b5ed bce2 a6bf 129f 8463 cb1e d03f
00000650: e3cf ed13 f64f ea3f 5dcd 2c06 7cc9 de3f
00000660: c96f 3234 9571 b6bf c707 9efb 1460 cf3f
00000670: fac2 715b 6aa9 aebf f239 b2c3 625c 94bf
00000680: 9a14 159a 3e5d 9c3f 7a79 bc5e 4c13 96bf
00000690: 1fe1 f1ec 6844 8a3f 28f0 e345 bf3c a23f
000006a0: d4fb acec 3d2f 873f 3d23 c83d 2238 8fbf
000006b0: 69b2 0804 7f98 9ebf 58c3 56e7 31ca 5b3f
000006c0: 9a13 d53b 8089 a6bf 939c cb02 6308 e1bf
000006d0: 2fd4 2897 3959 a33f 8831 a9d2 53da d8bf
000006e0: d212 59eb 176d e8bf 8959 3236 3e7d cabf
000006f0: b3c3 0310 a40e c73f 719e ff71 3c9a c7bf
00000700: 75a1 ee97 2df3 c63f 7ab6 4768 cc49 cfbf
00000710: 4714 738f c9e2 c53f e30e da41 3823 d0bf
00000720: b480 75f9 9aed ad3f c66d 53f1 8252 e33f
00000730: ff3c 0985 b7a3 bebf 967c 6145 6508 c2bf
00000740: 0681 09a7 f519 933f b9c7 c5ba c9ac b0bf
00000750: b99d 4f88 8d43 bebf 0ef6 b9f3 bb54 dfbf
00000760: 48d2 01f4 8640 babf 7bbe aef5 ac26 d1bf
00000770: 2e7f 0ece 5452 e3bf ef81 8a09 8e6c c9bf
00000780: b985 4735 1790 a63f 7d60 edd1 fff7 acbf
00000790: 7654 5070 f138 a13f 62d0 67f8 3c60 9dbf
000007a0: f515 324b baf0 b43f 0812 fa77 97b8 a7bf
000007b0: 66e9 433b ad89 b03f 37aa 2fa0 ec4b babf
000007c0: 8f02 8df8 81a3 9f3f 3795 9195 eb1b a7bf
000007d0: 01b3 fbc6 0e22 b13f 35df e6cc 2f0c 9ebf
000007e0: ccd9 e3bb be4b aabf 7b85 3666 4129 ddbf
000007f0: 9844 f4d5 306c ccbf 75b1 1d40 d84f 9a3f
0.037507294513062124 0.44145544593828195 0.1906151358543208 -0.02853365224817102 -0.3448168615925307 0.06845209300032182 0.14445202063025256 0.2891855626376546
0.19330636718969602 -0.24640784854800435 0.26665654209853173 -0.13455696799992156 0.18046497149678664 1.2969055734253816 0.5126795478765814 -0.17380852470094482
-0.019069821601531107 -0.15156984003682814 -0.0592820860244002 0.03603043558051599 -0.054056125120713755 0.06869333963117508 0.09867629670650206 0.17556372106769866
-0.06770995589673287 -0.11091791422031957 -0.011564921692561887 0.006675664574794701 0.0031293566129932705 -0.0070718640621363965 -0.08600396049581023 0.1065050223993844
-0.07669907437236625 0.03738433119686039 -0.06569691855902411 0.03037434125827168 0.16645258141066033 0.38326058202105734 0.14206108496580647 -0.11592780821958085
-0.40254081887887255 -0.18489870818110588 0.059368476572359705 0.32163021908810163 0.06522004659964249 0.27768603104152956 -0.05410910084599881 0.29508950888225255
-0.5397236269040151 -0.9138618295960016 -0.5156548975062193 0.33707483045842973 -0.22725985541261515 0.31980020397197045 -0.1553615057855336 0.12797905967013395
-0.05908740995204552 0.08914607731490697 0.14239936254292054 -0.07688547783626763 -0.08992266651925837 -0.018661389095629206 0.05005996239619833 -0.058143966519608035
0.05789344546995636 -0.04058932382892554 -0.016771111404282255 -0.002263707407156284 -0.024993140769873325 -0.010818699042215729 -0.026160558897447214 0.010908339663760008
-0.16665117133489596 -0.04934412868242427 -0.07687412808858178 0.38884539692944003 0.7438460097841779 0.17288276953194937 0.11201306762295349 0.604715178328114
0.031919708765895775 0.17937775854077867 -0.02670559743859317 0.15256194685204338 -0.044947134071464154 -0.3659656964662341 0.0999743593923678 0.13435271063390947
-0.3401065147855133 0.16701059950539723 -0.08783078212758033 0.15295118441583416 -0.09627929730453588 0.2349313180005615 0.5018546829713316 0.22981454820765337
0.2040049858663751 0.5702130269289755 0.11170723008601662 -0.008894832825937017 0.04477577494352192 -0.06255382985780399 0.014496093684344642 -0.08978581598775219
0.10611200617447869 -0.007024607432476597 0.057296499177503256 -0.05599998431140212 -0.07058489249026416 0.22801778851546955 -0.038983643981631635 0.32956598148628885
0.7943953100355345 0.5945612591974321 -0.17130508234541433 0.44986870893166564 0.04791664116755016 0.19598284945667227 0.03724654959179014 0.19971606385470034
-0.10498806738879933 -0.38364501167149045 -0.11497362440553471 0.11490584342749002 0.013537385204012181 0.20361650865110087 0.10375827932077152 -0.06440158190705506
0.05046145444859881 -0.10980956832598071 -0.9752209018740899 -0.4243814585286134 0.07914852602419002 -0.14900384149314083 0.06907638276410309 -0.0032092996145749895
0.021143769535399277 -0.02164521830203043 0.018083060844155962 -0.06572978572765198 0.02892609942117943 -0.034250034297237046 0.0720268653506195 -0.03235226072475315
0.1419360027856082 -0.28970322693593076 -0.1520656339080727 -0.2650771626308866 0.5749233028647952 0.16992303145787144 -0.041874572981105515 -0.17661648709004016
-0.28691977674015307 -0.065160816684892 0.10069377392946305 -0.07338450740275271 -0.07421513091697535 0.09386599940731796 0.08246933136664968 0.0854291861199225
-0.17706485980027006 -0.015612494880101455 -0.22274061281740196 0.15877959768058622 -0.23113816675274762 -0.12818035551546014 0.4847611575127744 -0.049713427946961083
0.007255441450593212 -0.28107035733535296 -0.08706419624217393 0.018114887679583212 -0.22308828338040412 -0.026726349875702566 -0.008843185676984508 -0.19689712202887066
-0.09751787733206982 0.036665532691652826 -0.03721417209536996 0.026615957876957634 0.08700611774925408 -0.37156434262653687 -0.021159458731354473 -0.4694776690148082
-0.6628795472208093 -0.6368460559840801 0.18161539145473773 -0.6020342221827094 -0.053354728789706755 -0.1268894853894288 -0.03977660769228929 -0.13921542702348746
0.08017302600243875 0.31338918432978047 0.13872710093894436 -0.09550670058883971 -0.03733759960831272 -0.215611689723314 -0.1158434959384551 0.10283559772524337
-0.04469862367380636 0.25187954634246623 0.8222608937489863 0.4810476360609835 -0.08767063640919938 0.24511968885422972 -0.05988628736748143 -0.019883673853252355
0.02769944968647007 -0.021557992250671877 0.01282579396341582 0.03561971405176251 0.011320575509328558 -0.01524378539126447 -0.029878601666654712 0.0016961562481407535
-0.04401779871344687 -0.5322737745854219 0.03779010744293775 -0.3883256489978284 -0.7633170696868439 -0.20694711347887232 0.18013430387466442 -0.1843944126733166
0.17929620665132587 -0.24443965045741206 0.17098350052234165 -0.25214964323843797 0.05845341010240315 0.6038222039600718 -0.11968562124205916 -0.14088121307120066
0.01865371543897345 -0.06513653573872959 -0.11821827485947879 -0.48954676438720035 -0.10254710633473352 -0.26798557274285145 -0.6038002037566679 -0.19862533059951157
0.044068074468451575 -0.056579584480176394 0.0336375665284913 -0.028687431966276107 0.08179821334677924 -0.04633019771157271 0.06460077950388196 -0.10272101317210845
0.03089716987165275 -0.045134889610191235 0.06692592962253842 -0.02934336364862063 -0.05135913890437713 -0.45564303380714194 -0.22205172011357344 0.025695208466843995

module.down_path.0.block.0.bias f8 [8]
00000000: d8ff fd5f f5f8 b43f d5bc fcff a5b8 c13f
00000010: c8e9 0300 8eb6 b0bf eb19 ff5f 9fb8 bf3f
00000020: 10d6 fdbf a668 b6bf d42c fdbf da30 ae3f
00000030: e8b2 0080 5f9a c2bf cf52 0260 ccc2 b2bf
0.08192380517539222 0.1384475231111312 -0.06528556347249215 0.12391086667694366 -0.08753435313504832 0.0589664801942377 -0.1453360915196733 -0.07328488677951416

module.down_path.0.block.1.weight f8 [8]
00000000: 2461 e568 9359 eb3f 73ff 22de db4b d93f
00000010: 07f9 16a7 0461 ed3f 3899 90d8 586a ee3f
00000020: 8ab3 daa7 71cf f23f ee82 9f4f b6fe f23f
00000030: d0cb 64d5 3f22 ec3f 77a3 9648 ac14 eb3f
0.8546845482588066 0.39525505726850624 0.9180930388900216 0.9504818181783667 1.1756454998787569 1.1871855840947165 0.879180828842772 0.8462735574477013

module.down_path.0.block.1.bias f8 [8]
00000000: f8f8 332e e19a 82bf c93b 7731 7a29 ef3f
00000010: 7b86 f157 c71a c83f 2929 7355 9654 7ebf
00000020: e00b 01d7 000e f23f 0e42 2b70 ee61 bf3f
00000030: 6488 2a36 8d85 80bf 997e a3f4 5685 b83f
-0.009084471914772227 0.9738131490829512 0.1883172206317346 -0.007404887429581821 1.128418769702641 0.12258806456089408 -0.00806722947647049 0.09578460190413764

module.down_path.0.block.1.running_mean f8 [8]
00000000: 3218 fc17 a1ea afbf 05f6 2317 69ae c4bf
00000010: 1a38 276d 1b34 abbf 48bf c631 c805 b23f
00000020: 31b3 9d2c 77d7 fabf 9f9a 0eb1 4a4d b53f
00000030: c93b b078 20ad c6bf 97d7 4137 a9b9 a43f
-0.06233695428640863 -0.16157258634477514 -0.05313192088543435 0.07040072646372864 -1.677603887826262 0.08321062872583206 -0.17715841191281204 0.04047898101354901

module.down_path.0.block.1.running_var f8 [8]
00000000: 55a7 c737 70c6 c13f 86e7 5cf4 b3d0 b33f
00000010: 8d16 ddb4 7207 da3f 4301 208c afab d73f
00000020: 31f5 0239 ddcf d23f 593b 242c c84b dc3f
00000030: fbfa 4d49 dc53 d83f 12bc 3fae a77a c03f
0.13886835788371835 0.0774033042515879 0.4067045942541448 0.36985386547168647 0.29393702094587854 0.4421253615445742 0.3801184383263913 0.12874313362360162

module.down_path.0.block.3.weight f8 [8, 8, 3, 3]
00000000: 9646 df4f 65d8 ba3f 6a53 dfd2 9a17 c23f
00000010: 2959 9b74 34b6 ae3f d4f9 b464 732f b53f
00000020: e69a fb87 49a0 bfbf ccc5 e930 54d1 d13f
00000030: 1c86 728e 19db a13f c991 4829 bf70 90bf
00000040: e440 dfd1 f833 b0bf b9e4 0336 a5d2 b23f
00000050: 733a 68b5 6228 c33f 7767 f949 6c43 c93f
00000060: 56ca b3e8 219b b93f ec50 ab6d 014e b43f
00000070: 8232 8e15 a028 b43f cc43 ef98 44c8 853f
00000080: e808 ef5d 464f cfbf 88ca 6cbe a53f a4bf
00000090: 53a9 28d3 543a a53f c2f2 47ed 9ef0 d2bf
000000a0: 8a9c c267 1b69 6ebf 39b8 e864 bfaa b53f
000000b0: 47dd 68e0 67a3 d2bf 885e 46d1 bd79 b33f
000000c0: 5a42 107f 65b5 b53f c3e7 71bd ea66 cd3f
000000d0: f177 f553 bf33 b83f 896e 2479 8870 a3bf
000000e0: 0f04 1854 ce26 c9bf 317b 2cbe 1335 6c3f
000000f0: e731 3e84 ea62 c2bf 54a1 da0e b90c d03f
00000100: f5a5 8f89 063d bfbf 17f2 f507 fa83 bdbf
00000110: 0cae e83a cf11 a43f 5f31 ea4d 4f49 c2bf
00000120: d0d9 b345 a5ee c2bf 8320 cef0 a55d a3bf
00000130: 23bb 370f 6072 afbf aa37 adc1 83da c93f
00000140: 0d17 7384 863d ba3f 165b f2b2 2b17 c6bf
00000150: 3917 f1e9 405f c83f c9cc 5b68 f69a d33f
00000160: 9fef df81 2476 b7bf abac 9e2b 6ec5 b9bf
00000170: 1b23 7082 0ef4 bf3f a56a f49c 16f5 83bf
00000180: 555a edc5 4f9a bc3f 209f 5a6a 5182 c5bf
00000190: a62e 8cfc e4ee bf3f 1dfa b706 eacb 9f3f
000001a0: 5354 be86 e9f8 aabf 0631 6603 6485 c03f
000001b0: aa33 b1bc 40e8 913f 63b4 0af4 4358 98bf
000001c0: 2b05 066f 378a 7f3f 3309 02ea ce16 c33f
000001d0: 2953 169c 5391 e73f e528 22ad 9d70 b93f
000001e0: 8a02 2ff1 1aea 7e3f 381c 209e e501 e03f
000001f0: 6d50 1359 b606 b13f 4ab0 0653 5598 adbf
00000200: 3b85 9ee4 29c5 c4bf e116 3675 2f14 7d3f
00000210: 7e6a 09ab 6d34 b1bf 2e8d 84b3 1e85 c93f
00000220: f061 6b70 5823 d1bf 7006 93e1 7cc6 87bf
00000230: c2bc cbb6 e7e4 a43f c8d6 7186 f4bb b53f
00000240: fc2f 2857 3599 903f 1ed1 6408 cc29 c83f
00000250: aba4 9513 0293 bdbf 5b07 9692 60bf dd3f
00000260: d449 ad41 a166 e73f 4ee1 4116 e203 a93f
00000270: 1f93 17f3 2164 a1bf 3509 4d21 151f d33f
00000280: 10dc 1ff9 31e7 bbbf a65e 4892 c0d9 8fbf
00000290: 2390 cd6f 1b76 ccbf 25d5 5ae9 0761 b0bf
000002a0: 827f 82e8 7022 d2bf 08e7 de83 9e1b ae3f
000002b0: 4d0a a606 8d10 c0bf ef10 57e4 c97b b43f
000002c0: ed21 5b8a a720 b9bf 3bc1 e7ae 47b7 9b3f
000002d0: 597f c198 3c05 b6bf 00a2 75ed 872f c6bf
000002e0: 3346 c548 710f bebf fdbd 2d3c 7fb3 97bf
000002f0: 6c78 c5d7 6936 7cbf 1c1a d79b d7b8 babf
00000300: 62e2 6dda 165e 92bf 082a 031f f248 c3bf
00000310: 7a88 2212 1faf 93bf 8fc4 1211 c764 c2bf
00000320: cc7c 92c9 60b9 c0bf 11bb 4714 53f5 b2bf
00000330: 0549 7ed2 ff78 c53f 666f 1748 4ace c73f
00000340: 23e8 5371 1a28 79bf 8ba3 f421 4a1a cbbf
00000350: 97c2 ba15 6c00 c7bf 7daa bbaa 5ef7 a0bf
00000360: 2de5 de93 365f af3f 62d0 2ee5 af6f c7bf
00000370: d974 28eb 5523 a13f 6e4e 8dbf 2ede ba3f
00000380: cf0b 5035 ca6e 443f b723 ce7b d238 a43f
00000390: 198f f2f3 9c0d afbf a41a 00ba 48a5 c1bf
000003a0: 15a6 961e 694d a73f a1aa 8698 4dfb c03f
000003b0: 714e c035 0036 b93f 6b41 65c5 e6ab 9a3f
000003c0: 723b 5e80 a8ca c5bf c079 1b0a a032 bbbf
000003d0: 4a5a 8b89 d3af 88bf d6e2 b955 0022 c43f
000003e0: 3f8e a216 ad81 c13f c241 2570 625e 95bf
000003f0: e5d9 f3a7 6813 a13f 7d01 9130 392e a73f
00000400: 8436 b945 b6d8 b13f 7e7d dbe5 e0e1 b8bf
00000410: 49d6 abcf d28c bc3f 2778 d961 b998 8d3f
00000420: ddd9 2185 9798 96bf 1e5f 8abf 8863 953f
00000430: 0dee a1bb 2800 bb3f b405 ad32 6fe3 aabf
00000440: 9929 9830 6590 cebf 7013 fc83 e87b c43f
00000450: bc6d 49dc 1f1c d8bf 092e e5fe e03f e2bf
00000460: 91e9 5441 5bb4 a0bf 806a 7474 d34f 923f
00000470: fe4c 075e 1fad d5bf 2326 2fa8 10c1 c03f
00000480: eddb bbc1 ead8 aa3f 2300 852a b917 53bf
00000490: f483 bdb8 9eee 9dbf 8d33 9db3 10c2 ae3f
000004a0: 7736 5df7 e7bf c6bf 7892 1757 64c8 ac3f
000004b0: e7eb dcb8 c615 973f 406d 8d2b 22da 9e3f
000004c0: 99c8 2425 6866 a13f eb4e 6551 7658 c43f
000004d0: 9878 fa9d dde7 adbf 6e16 bcd0 b992 b9bf
000004e0: 65ae 1c19 177f b7bf b79e 4b1f b33b a6bf
000004f0: 10a7 4e54 2bea b73f 19ce b460 94ad 82bf
00000500: d273 d510 29eb be3f 2f04 a9e8 9cf3 993f
00000510: 66ca fc07 7fc2 753f 44a9 ce87 dab7 babf
00000520: e976 5f0d fc35 a73f d791 9b3f fa88 c3bf
00000530: 8069 cd3f b5f6 c1bf 3ce0 83ca 6fb5 b4bf
00000540: a120 53bc 6d56 c83f 2d21 9365 a197 843f
00000550: fb1c 504d 17c4 38bf f719 7bfe cc76 a63f
00000560: 75c7 ec1d 2e63 db3f e670 20b9 3b77 bdbf
00000570: e757 2c53 2887 acbf 463e e159 2afd 82bf
00000580: af6e 16f7 c6f4 bf3f 39aa c633 d9d0 b13f
00000590: 4680 2301 9622 b4bf bc71 98bc 1e94 a93f
000005a0: dbd9 c584 2ee5 c4bf 3f2b d3a3 e5ad c4bf
000005b0: 9ea0 0d76 a7db 923f c6d0 0dd9 2f73 7abf
000005c0: 10d4 fa87 2e47 cf3f 3f3c 93ea 3085 b4bf
000005d0: c24a 9f2b d638 b43f 0a08 4d57 12f1 d33f
000005e0: 0074 624e 11d7 c3bf d1a6 f7fe 916e a43f
000005f0: ac6a c8a2 d1b8 cabf 8100 d365 21f7 c23f
00000600: 7cee a478 aba0 933f 45da 5877 e195 aa3f
00000610: c527 b97b ce2a c1bf e746 5339 fc6a a6bf
00000620: 7df7 c102 d511 93bf a44c ecfd a18d af3f
00000630: 4c9a 5f50 ede9 92bf 3253 d855 3084 be3f
00000640: 56f0 fefb 2b21 a2bf 608d 490f a01b d63f
00000650: 9bb0 c3d0 b2e7 dd3f 47da 375c 797e a63f
00000660: 9e5e 8f16 0559 d43f c28f eada 2a6b e23f
00000670: f566 801d 1de3 a33f 3e5e f3bc 173f a4bf
00000680: ac11 e4c7 fa41 a43f 5cad 5e96 61e3 8ebf
00000690: 2702 8e51 79dd a9bf 848b 7a0b 67c3 d03f
000006a0: c26a 2f55 18ca 97bf 7c17 7f99 d798 a5bf
000006b0: a372 15d8 29d6 af3f f5e9 2ca5 76eb b2bf
000006c0: d489 adf3 6ed0 a8bf 8ec3 f0a3 adb5 d2bf
000006d0: be67 660a fedd c13f c9e4 bb47 c8e5 d7bf
000006e0: c749 fc9d 53fd e0bf 4cf2 2178 41a5 84bf
000006f0: 8475 98b3 4c1c 95bf ff04 5d16 0759 d6bf
00000700: e899 6f85 0eab c13f 2267 77b2 7c06 72bf
00000710: 9ff6 70d4 2be2 df3f e791 0f10 5a2f b0bf
00000720: 9a71 95a6 e9e8 d53f b7fc 71d7 3d03 ec3f
00000730: a9aa 8963 a5c0 c43f a36f c94d 6fe3 c0bf
00000740: d188 9b36 b355 cb3f c06f e53d 0b53 82bf
00000750: 31f0 db2a eb50 ba3f a5d3 a6ae 65cf 88bf
00000760: 933e ec6d 22d8 be3f 25ac 6c95 e964 a13f
00000770: eae9 68c2 1a49 c03f f7b9 c15a 327f b93f
00000780: 45c6 f121 4d66 a33f 1303 84fa 321c aa3f
00000790: 682d d068 fb09 7cbf 671a 081b 97e1 9b3f
000007a0: 9ec2 bd26 dc94 94bf f7ef 56d2 3bbc af3f
000007b0: 65ff e75c 2474 8cbf 18c2 877e 6f3c acbf
000007c0: f9c4 d065 127b 9f3f 4445 5a02 f743 b73f
000007d0: 9c82 e073 cacd ab3f ef38 46cc cd2d b03f
000007e0: d902 5cc7 223b a9bf e761 176f e498 96bf
000007f0: 9e1e d97b 597c 93bf 2fe2 b9bb 2288 793f
0.10486443710331125 0.14134536072256348 0.05998386310027321 0.08275529106774765 -0.12353953905003898 0.27840142037083804 0.034874724043458566 -0.01605509461855251
-0.06329302905874418 0.07352669304590877 0.14966997010965918 0.19737008678458398 0.10002338343819281 0.07931527068587102 0.07874489332443527 0.010635887067026582
-0.24460677706344502 -0.03954809140704635 0.041460657860016646 -0.2959363286206945 -0.0037122283229851826 0.08463665212249873 -0.2912234965801485 0.07607637748003004
0.0847991404737142 0.22970327615968075 0.09453960227753534 -0.03796793440616592 -0.19649676424163018 0.00344327789333878 -0.14364367921042673 0.2507765431460218
-0.12202492578912667 -0.11529505438188213 0.039198375645664724 -0.14286223701891296 -0.14790788558430146 -0.037823854108013165 -0.06141948877108507 0.2019810386358903
0.10250130399353115 -0.17258211362487746 0.19040690825402765 0.306333162224473 -0.09164646311540857 -0.10066879811226907 0.12481775936624866 -0.009744812645796694
0.11172960836607022 -0.16803949063363977 0.12473899045670098 0.03105130830771873 -0.052680299471071244 0.1290707604024492 0.017487536923272685 -0.023774205942278203
0.007700172937235276 0.14913355280084203 0.7364900635317088 0.0993746326149992 0.007547478907270597 0.5002315605532948 0.06650867151921754 -0.0578028358316663
-0.16226695693061707 0.007099328405620859 -0.06720624376013437 0.1993749977637917 -0.2677823160024948 -0.01160905421636757 0.040808907569834144 0.0848992183908549
0.016209443516387964 0.18877554330686847 -0.11552441576135901 0.464805739546241 0.7312780649902444 0.04885775109954925 -0.033967076229407527 0.2987721276478113
-0.10899650890483792 -0.015552048172181653 -0.22235434493188774 -0.06398057410372766 -0.2833521147349459 0.05880446777105247 -0.12550509285581982 0.0800138647528603
-0.09815451743919086 0.02706634526288208 -0.08601740579024177 -0.1733255300016623 -0.11742313410402332 -0.023145664260878707 -0.006887830208453943 -0.1043829684705106
-0.017937047082769893 -0.1506636287143268 -0.0192227225130712 -0.14370048841150093 -0.1306572899092998 -0.07405585522768045 0.16775510576241728 0.18598297615141773
-0.006141761104339979 -0.2117397943304947 -0.1797003847218732 -0.03313728174346851 0.061273294020291004 -0.18309591951913534 0.03347271438199479 0.104952737584705
0.0006235587449058224 0.0394960189942774 -0.060650734690424986 -0.1378565700726614 0.045512471183723736 0.13266916225014305 0.09848023712430078 0.026046376989428504
-0.1702471377179467 -0.1062412285495844 -0.012054112086315478 0.15728763757558423 0.1367699013254526 -0.020867860884495 0.03335120248987148 0.045274531534690056
0.06971301271661373 -0.09719663249733476 0.11152379579638096 0.014451454447392887 -0.022066466809031005 0.02088750523634452 0.10547117787239575 -0.0525164365158263
-0.23878159401676838 0.16003138012470286 -0.37671658050905044 -0.5702977159903081 -0.032626010632571874 0.01788263700755488 -0.33869156057808414 0.13089187824361756
0.052436195515774255 -0.001165324045430801 -0.02923057558598781 0.06007435028605022 -0.1777315099556522 0.05621636927734114 0.022544007332935847 0.030128988178472982
0.033984427007809966 0.15894965147400994 -0.05840961984107301 -0.09989510866224702 -0.09178299296461885 -0.04342422253631411 0.09341688926965852 -0.009120139313927788
0.12077576313954744 0.025343372059300314 0.005312439170483607 -0.10436788383109269 0.04533374465220936 -0.1526177225670284 -0.14034143081046224 -0.08089350408761303
0.190137593226841 0.010054837143244367 -0.0003778988732964919 0.04387512785392638 0.4279284755931408 -0.11510060567565325 -0.055718670037251 -0.009271937244334737
0.12482875378048662 0.06959302438796379 -0.07865273978995999 0.049958191415700764 -0.16324407084512313 -0.161556916229836 0.01841603906669375 -0.0064575070435816725
0.24435979499472227 -0.08015733458454209 0.07899225773807486 0.31158884549597643 -0.15500084235546296 0.03990608441729438 -0.2087652249182005 0.14816682311903054
0.019167594183484557 0.05192474920152227 -0.13411885300803142 -0.04378498267909752 -0.01862271146136817 0.06162744736334361 -0.018470485716443982 0.11920454116655035
-0.03540933085557245 0.3454361104288264 0.4672667540278412 0.04393367052755486 0.3179333420098177 0.575581958361447 0.038842115260377875 -0.039543859305635184
0.039565884495491005 -0.015082132722304457 -0.050517836766634176 0.26192642327276183 -0.023231868933957463 -0.042181718337402224 0.06218081248036824 -0.07390538723567615
-0.048465220685801974 -0.29233876237690815 0.13958716876805782 -0.3733998013045264 -0.5309236608175575 -0.010080825308471784 -0.02061576696552471 -0.3491838186638034
0.13803273692538132 -0.004400717828923624 0.4981793951627455 -0.06322253124341835 0.34234086292215127 0.8753956993022233 0.16212909088365748 -0.13194075868784436
0.2135528580320796 -0.008947456194327574 0.10279722019544192 -0.01211432875866498 0.12048545058882558 0.03397302578954279 0.12723097317378002 0.09959711757412736
0.03788987197266328 0.05099639232685695 -0.006845457141945267 0.02722774603355518 -0.02009910570581274 0.06198298399564799 -0.013893398366235219 -0.055148586459726257
0.030742919411015788 0.09088081176220891 0.05430443443788599 0.06319891202130966 -0.04927929576479579 -0.022067612915494108 -0.019029043373193326 0.006233344723675801

module.down_path.0.block.3.bias f8 [8]
00000000: 2d09 0200 a9c2 b23f e3c3 fe7f 6c2d b5bf
00000010: 0ff6 0300 fc3b 9bbf 5942 0080 db95 a5bf
00000020: cb58 00c0 6ee9 ae3f c6c0 fd7f 4b14 b23f
00000030: 5305 02e0 cdc0 b9bf 74a4 fb9f 579a a3bf
0.07328277826494363 -0.08272436261064757 -0.02659600973219339 -0.042158946395038206 0.060374699533143415 0.07062217592988693 -0.10059820860808104 -0.03828691318433011

module.down_path.0.block.4.weight f8 [8]
00000000: 37f2 ddb3 2b15 e23f 5343 165f cd82 ea3f
00000010: f10b 3347 1a36 e83f fd9c 4a05 312e e93f
00000020: b41d 88ce 8e9c ea3f 3250 3c8c 3a49 ec3f
00000030: 299c 03cd 62ce ea3f 28b2 441c f2b3 ea3f
0.5650843155886552 0.8284670693557054 0.7566043272603321 0.7868886092518604 0.83161106432174 0.8839390505768334 0.8376935962850257 0.834466033183678

module.down_path.0.block.4.bias f8 [8]
00000000: feb3 5b93 6e92 f03f 7aba c8fd 5336 e6bf
00000010: 938c 3751 46f8 e43f 189c 9882 6d99 e53f
00000020: 632b 67e0 bb91 f33f 745d 954c 989e f63f
00000030: 0780 87b5 a8b1 b2bf 9c2d fefd b717 f13f
1.0357499843769342 -0.6941318470688451 0.6553069673795043 0.6749789763169955 1.2230795636885083 1.413719462541704 -0.0730233615099679 1.068290702972127

module.down_path.0.block.4.running_mean f8 [8]
00000000: 98f2 33d5 7e16 f13f 747b ea59 a0f1 f0bf
00000010: 21dc 7214 22f9 e03f 3643 fb9a be10 0040
00000020: ab05 abb0 54e8 fe3f c36c a491 b9c9 f73f
00000030: 0b3e 5cd7 d7ed d7bf a3d5 393e 2169 f33f
1.0679920509566383 -1.0589908134786272 0.5304117583644975 2.0081760509423487 1.9317213917823703 1.486749237933325 -0.3738917925956861 1.213166468687043

module.down_path.0.block.4.running_var f8 [8]
00000000: c6d1 8f10 e669 f23f 5536 bdd4 1012 f93f
00000010: 5378 66ef 48d3 f83f fa55 fd36 a330 0440
00000020: 165f 0d3d 88b6 ff3f 8d80 d82f dc24 f83f
00000030: 0654 cce3 4ef5 fe3f d7f7 ccaa ede2 0140
1.1508541724152663 1.5669105825540062 1.5515832282612976 2.523748807531544 1.9820635208943194 1.5089990490887744 1.9348896883359443 2.2358048766900356

module.down_path.1.weight f8 [16, 8, 3, 3]
00000000: 8137 df53 d7b7 d3bf c54d dacd b317 b13f
00000010: 3464 143e 9cdb a3bf 65ed 8557 21be a73f
00000020: 64e2 6c8b dad2 e73f d99b 6a3c 4571 d43f
00000030: 56f8 86b9 c8ca cebf 3791 6220 7239 c73f
00000040: 191c b593 4e19 d5bf 591c ef90 6dcf 763f
00000050: c7cd 1fb9 81d2 6abf f5e0 463f d572 63bf
00000060: 01a1 97f1 1799 c6bf 6cff 04da 8d6a b43f
00000070: a0d9 11cf bcff a03f f885 6b9d 6b2f a13f
00000080: 9f8d 6757 fa5e b23f a020 a5e8 3773 b7bf
00000090: 1fcf c474 d4ce 98bf cb58 61be d279 b4bf
000000a0: 22ec a3ec 3b47 903f c1f3 41d4 90ef 9d3f
000000b0: 7068 5cc8 bf59 b33f 169d 7603 a51b be3f
000000c0: 1340 4e83 05a4 c2bf 4079 fd1c 32f0 c0bf
000000d0: 3a1a caf7 15bc b1bf 6257 aace f309 b4bf
000000e0: 0e80 58d9 9865 afbf 6f59 1d32 2188 b9bf
000000f0: 9d00 9e34 b67a c93f f0ea e2d5 5a6f 93bf
00000100: b40e d771 a493 b0bf 52f8 c2d9 649d afbf
00000110: b98f bac6 1305 c0bf 1218 e334 2978 7abf
00000120: d780 c0d9 2310 b53f 4be1 8915 faf7 c5bf
00000130: f27b 5618 b712 21bf 62fe 433f 0a5f adbf
00000140: 81c4 037b 3d45 d6bf 54dc 01b9 57ef c1bf
00000150: 5d8e 180b e1c4 c53f cb49 aa16 12c0 ba3f
00000160: 829b 037a 37b8 953f ad4f d645 bb08 d3bf
00000170: 4576 8eaa ca96 cebf 45d7 750a db64 b93f
00000180: 0fa3 b147 5c52 d13f 9e3b ac77 a5c5 ce3f
00000190: c064 2797 f7ae d03f 154b a8ac 7b90 963f
000001a0: 73a8 cd1d 5477 b5bf dfe3 abfb bf9a dfbf
000001b0: 21b3 e3e9 0510 ca3f b13d 9468 0b70 c93f
000001c0: ef69 11f5 501a c5bf bbaa bd7a 0574 b9bf
000001d0: 6daf 9973 11c5 b73f c3c4 8314 69cd c3bf
000001e0: 9bf9 9482 fb78 b0bf 3ede 1ef2 541f d33f
000001f0: 31af 8d49 c7df ce3f 91e9 abe7 3960 d63f
00000200: c485 554a 6d46 8fbf ae87 aed5 f8c9 9e3f
00000210: 7401 50e4 b30c b73f 2b66 b6e3 cdbb c9bf
00000220: 0289 c342 2e5b c1bf a42d abce aa5e bf3f
00000230: 3c8f 1e70 2837 cbbf d50a 331e 436d a53f
00000240: a9b5 1330 8c5a c1bf 284a 75b7 57fc c33f
00000250: 2747 7c8e b597 ac3f 3b1e 23e7 f6ee b73f
00000260: d26b eb8f f011 d33f abb2 747c 56ae b03f
00000270: 8c73 55c7 ef6a 96bf f176 fc63 e6a2 a73f
00000280: f5f8 4674 8973 d1bf b65f 135b b5da a63f
00000290: 616b 9ae4 246e b5bf 952d 6aac 8887 c03f
000002a0: d045 95d0 57fa d53f 5cb9 59ba 8486 bebf
000002b0: e440 276d 712b d1bf 15c3 5959 f20f cd3f
000002c0: ee1a fd54 58f6 c13f 76e8 12cd de34 c4bf
000002d0: de15 aca6 de9f a4bf 054b b9ef 8b12 b33f
000002e0: 2f41 2ba7 65e9 a5bf a57c 6432 f3ad b5bf
000002f0: 7372 a2aa f76d babf 7788 8b9e 9c5c c3bf
00000300: 1fd3 dd98 319a 503f 85ef 02f2 b66d bfbf
00000310: c335 c059 5c81 c8bf f895 01aa 2c7d cbbf
00000320: 7417 2782 e05b c13f ef6a 2391 0bbe c0bf
00000330: 452c 179e b37f c9bf 7d06 af6c 5a1b cb3f
00000340: 1e70 4344 e15f d83f 8953 6128 5543 c6bf
00000350: c891 faf0 432e d2bf 7c87 dc64 47a3 cf3f
00000360: 6e6d 0239 ed0b a2bf 0f98 6259 786b c1bf
00000370: 2673 2f78 aa39 ccbf ad2b 10eb 88af 9b3f
00000380: d217 583f 81f2 d83f 55cb ab1d efa0 c63f
00000390: 6401 e794 c751 abbf 4e26 4c60 9894 d63f
000003a0: 93b1 bbd4 c9ee c93f c590 56ce 3dda b0bf
000003b0: d070 f278 1e18 8b3f fa96 04b8 2f81 c13f
000003c0: 1827 8815 a947 b83f 5f20 52b0 ae41 c03f
000003d0: 60d0 ec96 d419 c23f f1c3 1be5 775f a23f
000003e0: 9d84 5ff5 0933 cbbf 6255 252b c067 c6bf
000003f0: be0e b59f aa7e 963f d9d9 458e 694b a83f
00000400: 035f 3a8a e87b a1bf a968 d14a 36ac b83f
00000410: 5113 6651 4384 a03f a596 d95c 67e4 6f3f
00000420: 695f 7608 1114 963f 4b87 e5dc 4bdc c33f
00000430: 15a9 2b38 eaab a3bf 977c 3c35 9ae3 99bf
00000440: c97f f380 634b ae3f fd8f 60d6 7470 bc3f
00000450: af11 6c70 5e0a 95bf 8be7 afb6 ca95 c9bf
00000460: 108b dedf 8ac6 b63f 2751 2e0e b94e af3f
00000470: c354 aa54 9a0e b83f 2aae eb84 2653 d33f
00000480: 191b 85ca 322d a1bf 6651 fc79 3873 a5bf
00000490: fef0 69e1 6580 c7bf d940 c435 e973 b7bf
000004a0: 1df0 e0f6 fbf2 ccbf d761 dabf 3fbd cbbf
000004b0: 2c78 9a18 4d45 ca3f 1c92 0ff4 3c85 c1bf
000004c0: ea36 3ddd f469 963f 1f0e 323b 21d5 b53f
000004d0: 280a 5ebb 93a6 77bf bf00 440d 28e1 a93f
000004e0: be41 2b4d 79cd c2bf 88e3 cf35 72c4 d1bf
000004f0: b93b 122a f46c ae3f 1584 780a ebc5 b3bf
00000500: 836d 99bf 3e59 bebf 8e53 98a0 f400 c03f
00000510: a583 1eff 8793 86bf eeac a9b6 72cc 9d3f
00000520: 8704 47de 6b6e bbbf d75e 17da f2cc b4bf
00000530: 37ca 96a5 2298 bebf f723 a188 3f73 d0bf
00000540: 3904 b583 e04d 9dbf de57 85ee 3081 cabf
00000550: 343d a988 9f97 d4bf 338d 5b70 7c2c aebf
00000560: efdc 2af2 5582 61bf 1ae2 3de9 c847 b33f
00000570: d48e 4303 ea44 c23f 6ada eece ea86 ba3f
00000580: e6cc fbb8 1a9d a7bf ffaa 9d82 087a a1bf
00000590: 6b41 cc70 12a5 aabf 599b 2efd b329 c7bf
000005a0: 6dbd 8c62 4564 963f f8d9 61a2 8c1f b3bf
000005b0: c617 aa94 f918 c2bf dc29 5f29 9a8d babf
000005c0: 69ee 9209 7e02 bebf 28f1 29a2 c24b c1bf
000005d0: c0b4 fc27 8856 a9bf 224d 27c5 7fc7 c03f
000005e0: c64d ef0e 716a ab3f 441d b03c 6c78 b7bf
000005f0: 1ed3 180b 6aaf b8bf 0561 29ff cae5 ab3f
00000600: 2938 3d29 cf75 9dbf 8760 c278 f7de 293f
00000610: 6134 0d69 7b87 8a3f c26c 7074 c775 a4bf
00000620: c4bb e707 d7f7 bcbf f62e 00a7 93aa b9bf
00000630: a2a1 72bb bfa1 b33f 0365 d375 1583 963f
00000640: e32a 7713 8fc2 96bf 9819 a346 f672 c7bf
00000650: 283b 26d9 f113 d9bf f805 37fa 43f2 d3bf
00000660: de2e db4c df63 b9bf 8b51 5fc1 5bff c9bf
00000670: 44fe 242a cca2 c8bf 16e6 dfce 285f 81bf
00000680: fec0 df9b 1a51 bfbf a66e 8fbe b60a a73f
00000690: e5fb b22f edb0 a5bf 6400 6d72 6598 6ebf
000006a0: 6639 c9a6 43c4 86bf 219f 734d 0dca bfbf
000006b0: cb5c eb23 d66d a5bf c4ff 2deb 6cc5 b73f
000006c0: c17a 9dc0 e980 cc3f 70e5 c305 851c 9bbf
000006d0: e118 582c 8a17 c9bf 3c21 6887 690b b73f
000006e0: 6e40 2e83 bf17 bd3f 3a88 33e8 b079 cb3f
000006f0: 202f 2b26 a68b b8bf 383f 6c48 0a70 d03f
00000700: f1dc 2d38 baef e43f 9c22 f358 5cbd bcbf
00000710: 4260 4803 5180 b2bf 7c36 3793 1991 c0bf
00000720: 4893 f828 9999 c13f f33d 646b 0ae7 c73f
00000730: 250f 947b 98db b03f 8e3d 1cfb fe1c abbf
00000740: fecd b8b5 e4d5 bebf fead c294 744f c9bf
00000750: 91d9 d9cb 8d07 c73f 74aa 9eb9 e847 9bbf
00000760: e83f 96f0 682f c9bf da9e 1772 732a a83f
00000770: 6f38 1601 e68b ccbf a855 66df d152 b2bf
00000780: 14d2 710b 3af9 b8bf 9214 e5fc 7418 c8bf
00000790: a2af 75e0 7bc6 c0bf 7f60 3cca c039 bf3f
000007a0: 158c 9b96 66fb c43f cf7c d5dd fe16 c03f
000007b0: 4ec7 ea34 c5e3 c4bf 9472 87d8 3982 d0bf
000007c0: 672f 8894 62bc c3bf d76e cf2d 6ed9 abbf
000007d0: 99fd 5c51 9a9a af3f ff70 c17c 3788 c43f
000007e0: 8bee dd29 8534 b1bf 734a 8429 a76a c33f
000007f0: 2653 8059 a2bc cf3f 6086 895c 340f cd3f
-0.30809577170008856 0.06676791930868038 -0.03878486879165913 0.04637245362661239 0.7444889758254019 0.31941347980540297 -0.24056347903200742 0.18144060689258776
-0.32966961311871185 0.0055689124992062905 -0.0032742055564029845 -0.002374092577351767 -0.1765470437669663 0.07975088665716407 0.03320112254816654 0.0335649137175657
0.07176174768351594 -0.09160184316454201 -0.024226493479729713 -0.07998387477832407 0.015896736448649425 0.02923418326871619 0.07558821336388788 0.11760932287744583
-0.14563054000291284 -0.13233019271405944 -0.06927621173427037 -0.07827686114828006 -0.061321999103029254 -0.09973342393400285 0.19905736512373987 -0.018979472450818713
-0.064752843659387 -0.06174769552443195 -0.1251549454074146 -0.00646225067447938 0.08227752748689753 -0.17163015414895208 -0.000130257463905686 -0.05736572286877785
-0.3479760838809583 -0.14011665853078858 0.17007077256959038 0.10449326566075638 0.021210543462895533 -0.29740793056520937 -0.23897679641679495 0.09919518475893792
0.2706518840919196 0.24040668815038385 0.26067914734955977 0.022035534299059984 -0.08385205962773216 -0.49382018639840725 0.20361398620971108 0.19873182875060771
-0.16486560789310498 -0.09942659613231346 0.09285077163957363 -0.15470613004393927 -0.06434604585681429 0.2987873424967552 0.2412041768214919 0.3496231806199371
-0.015271047430988179 0.030067337076282 0.09003757785831629 -0.20104383105062715 -0.13559511432601573 0.12253825708028515 -0.21262078737810863 0.04184922927517724
-0.13557579371938047 0.15613838632505517 0.055844949382061686 0.09349005835530814 0.2979699521508198 0.06516018427346164 -0.02189230589043549 0.046164703088136146
-0.272676814605702 0.044637362830769176 -0.08371191578991734 0.12913616579713208 0.3434047257370283 -0.11924008893558863 -0.26827655467515243 0.22704915392707706
0.14033035421217427 -0.15786347401973772 -0.04028220924923763 0.07450174906379566 -0.04279630342137108 -0.0846855161694174 -0.10324047008402619 -0.15126378766496248
0.001013325152112894 -0.12276786240084732 -0.1914477766262462 -0.21475752163966866 0.13561636309730896 -0.13079971873124616 -0.1992096445013393 0.21177225405522285
0.3808520475993208 -0.17392982932747383 -0.2840738156612841 0.24717037606120218 -0.03524724312702686 -0.13609222759731707 -0.2205098234980138 0.027036799761883824
0.38980132280300694 0.17678631733687192 -0.05335830395370314 0.35281953243302133 0.20259974372255538 -0.06583009994079976 0.013229597154627376 0.13675495610475946
0.09484345222167823 0.12700446710028054 0.14141328210246495 0.035884615628567824 -0.21249508362874261 -0.1750412188218134 0.02196756934905752 0.0474503503964347
-0.03414847075799623 0.09637774778949172 0.032259086309784586 0.0038930910875930196 0.021560922757628918 0.1551604107472094 -0.03842098174739498 -0.025282296656879834
0.059168920031651924 0.11109094842737473 -0.020547366725638557 -0.1998837844874369 0.08896701779898941 0.06114748285395626 0.09397282187485971 0.30195010166673575
-0.03354796144645018 -0.04189468850214233 -0.1836058951047405 -0.09161241114293563 -0.22616529039976366 -0.21671292178940746 0.20523990346276955 -0.13687860409767516
0.021888566974033553 0.08528335280612297 -0.005774094655750996 0.05054593240675009 -0.14689556377426344 -0.27761512045940906 0.059425001273772655 -0.07723874097474977
-0.11854927232473327 0.12502916184953644 -0.011023581002349856 0.02910022010693763 -0.10715364624685907 -0.08125226807112128 -0.11950890104962118 -0.2570341905853292
-0.028617389715922512 -0.20706760069395974 -0.32175434442338546 -0.05893315192749995 -0.002137344229904074 0.075314099258215 0.1427280918061259 0.10362117340160074
-0.046120486336713104 -0.03413416475708252 -0.05204064967085994 -0.1809601770630376 0.021866878643036203 -0.0747001549187657 -0.14138717421536579 -0.10372317800571501
-0.11722552999247572 -0.13512452047496848 -0.04948831070064719 0.1310882294334102 0.053546460221379585 -0.0916812561191494 -0.09642660876199868 0.05448755612150261
-0.028769719020879023 0.00019737978835077474 0.012953724044246497 -0.03996108337761363 -0.11315673773763907 -0.10025904490629131 0.0766868431698016 0.021984420124543835
-0.022226558268623086 -0.18319586228444673 -0.391842329082396 -0.3116617148881171 -0.09918017984744718 -0.20310542051323596 -0.1924681859763827 -0.008482283414184482
-0.12233129792707939 0.04500361515212363 -0.04236546714081849 -0.003734777582764125 -0.011116531875043644 -0.12417681828412387 -0.04185361088246394 0.09285622350398542
0.22268411545788605 -0.026475981213456234 -0.1960308758281775 0.09001788669423133 0.11364361717846957 0.214651215915241 -0.09588087493756037 0.2568383891348165
0.6542636010407518 -0.11226441547035865 -0.07227045374054433 -0.12942809761300456 0.13749994755303363 0.18673830264786737 0.06585076348352155 -0.05295559706984952
-0.12045125423974665 -0.19773728622145365 0.1799180264822096 -0.02664149887975005 -0.19675933596999973 0.04719887511947514 -0.22301936200205172 -0.07157623008818936
-0.0975528982106158 -0.18824636791592703 -0.1310572477335628 0.1219749921550619 0.16392214158904098 0.12570176917777195 -0.1632009991058631 -0.2579483618299403
-0.15418655636346587 -0.05439323720176297 0.06172640078738851 0.16040700522979276 -0.06720764419690732 0.15169229056535335 0.24794415826968325 0.2270265056459264
