results/old/run_1/saved_model_unet3_64_128_8.pt (torch, 351968 bytes, 75 tensors)

module.down_path.0.block.0.weight f8 [8, 4, 3, 3]
000000 23 81 0f bc 75 50 ba 3f 0d f2 a2 38 d8 5e e1 3f
       0.10279022065470093 0.5428277116948849
000010 1b b9 9d f8 08 82 b4 3f 79 76 2d 14 c9 bc a9 3f
       0.08010917730073112 0.050268443787655444
000020 3f d2 bb 7e 57 18 de bf 2b 28 33 e0 65 69 d1 3f
       -0.47023570419631605 0.2720579804851037
000030 a9 97 a1 5c 1c 65 c1 3f 37 f1 9c c2 0c 7a b6 3f
       0.13589815638550576 0.08779983283324531
000040 04 ee 26 40 90 33 90 bf 06 90 71 d5 4b 90 d8 bf
       -0.015821699061900688 -0.3838071426782793
000050 b0 be c9 9c b6 5b c6 3f d6 c7 59 7c 95 8c d5 bf
       0.17467386871020585 -0.33670556205390534
000060 f8 b7 f1 86 d0 b3 ba 3f 3b 36 5d f1 c3 b4 fb 3f
       0.10430625242744884 1.731632178143072
000070 e4 f4 e9 75 04 1e ec 3f eb 60 e8 7d 4e 32 cc bf
       0.8786642363553736 -0.22028523586119006
000080 ff f2 3a 3b 96 a3 b5 bf 97 b8 a5 20 85 dd d2 bf
       -0.08452738710452577 -0.2947705096074826
000090 fd 8e fd eb 64 52 c2 bf 03 9c 0c cb bc c7 7f bf
       -0.1431394722268279 -0.0077588438732965085
0000a0 03 58 b1 68 2a b0 bd bf e1 f0 87 24 44 06 a6 3f
       -0.11596932464576075 0.04301655717788023
0000b0 b1 70 1c 22 f1 bb d0 3f c2 26 e8 97 81 f4 c5 3f
       0.26147106486474586 0.17152423779798737
0000c0 99 50 0b 4f ab ac bd bf 68 26 2d 6b 48 3e c5 bf
       -0.11591597251691822 -0.16596322282048281
0000d0 d8 32 21 0e 65 4d 9b bf 48 f4 0c 07 bf d5 8c bf
       -0.026662425029189446 -0.014079563524882613
0000e0 cc d1 51 bf 0e b0 a2 bf 02 45 d8 fc 5c 52 b1 bf
       -0.036499462942547106 -0.06766301320046256
0000f0 42 43 1d 77 81 09 bb bf 72 0b 0d 80 37 61 b2 3f
       -0.10561379583419941 0.07179591060871163
000100 9b 80 67 1f 18 53 bc bf db c9 e8 c4 f9 51 a7 3f
       -0.11064291731554692 0.04554729965856882
000110 28 bf 31 bb b7 d7 b4 bf 2e 80 ca 0a d5 ee a3 3f
       -0.08141659088300612 0.038931520049345955
000120 51 29 27 0d 81 fb d3 3f e6 ae a5 ca d6 2c e3 3f
       0.3122255924651159 0.5992235143616795
000130 04 4e 55 3e 3c 87 c8 3f 9e b9 3f 8f 49 7c af 3f
       0.1916270546304163 0.06149511216777913
000140 0f 3e 60 3c 00 b8 ea bf f3 27 43 57 20 06 b3 3f
       -0.8349610499589647 0.07431223040035188
000150 47 79 0c bb 79 1b ca 3f 42 26 60 ad a7 5e d1 3f
       0.20396348603476097 0.271402282058805
000160 55 46 de 46 82 19 92 bf a7 b2 ec 2b 4c 5b cc 3f
       -0.017675433707671512 0.22153617996936711
000170 45 d3 2d 70 8e b3 c6 3f 36 fe 20 60 14 bd c9 3f
       0.17735462644091107 0.20108275121491354
000180 9a 63 51 50 5d 3d e6 bf 6b f3 66 95 e7 2f ed bf
       -0.6949907845220082 -0.9120977323542382
000190 2e d2 8d 84 c6 41 ea bf d8 7d db b6 64 f2 d0 3f
       -0.8205292309708676 0.26479451996962444
0001a0 ef 44 fd f1 d0 e7 aa bf 17 da bf 5b 80 d5 d1 3f
       -0.05254986719104148 0.2786560913076825
0001b0 cb 9b 87 ae 3a 5a d1 bf 61 46 72 80 d4 19 bf 3f
       -0.27113215488355696 0.1214878858175097
0001c0 1c f6 6b 6b 6a 5c cd bf 65 36 52 72 da 8f c0 3f
       -0.2293828033943307 0.12939005453192745
0001d0 5c d2 ad 49 23 f8 d6 3f 3a 88 50 72 ef ab a7 bf
       0.3588951320191762 -0.04623363752786287
0001e0 12 f0 66 77 da 75 d1 bf 3c 90 85 68 13 61 c7 bf
       -0.27281819973336596 -0.18265001872635078
0001f0 82 84 99 7f e8 6f b1 3f 41 48 3e 9f 20 e0 b7 bf
       0.06811383357264059 -0.09326366317535052
000200 83 f0 3d e2 97 24 99 3f 60 49 06 47 43 1d b7 bf
       0.02455365484591755 -0.0902902649307058
000210 81 95 f2 1f 6e 95 8b bf e0 48 5c 28 8d 1c b0 bf
       -0.013468609189952076 -0.06293565974582149
000220 76 b0 b1 b7 c2 8f 78 3f 9e ad f4 6a 7b 38 93 bf
       0.0059964758066649495 -0.01877014961534728
000230 c9 6f 55 e2 8d 96 b5 bf 72 03 fc 6e dc 38 ab 3f
       -0.08432852531171799 0.053168190524963146
000240 d7 48 72 ff 7f 54 c5 bf 9a 30 56 8b be 40 c1 bf
       -0.16664123509378356 -0.134788339648712
000250 99 1a 82 a9 33 ae b7 bf 23 1a 1c 6f 2a 32 db 3f
       -0.09250185860046613 0.4249368748718629
000260 06 7d d6 1c 97 40 eb 3f 3d 43 1c 90 50 f5 d6 3f
       0.8516345561255612 0.3587228209808478
000270 f0 f0 22 dc ba e9 ca 3f cc 5b 79 a2 ac 11 f1 3f
       0.21025787114002226 1.06681502787045
000280 40 23 4b d8 37 1b c1 bf ba 7c d4 aa a3 3e bf 3f
       -0.13364313183981302 0.1220495502534388
000290 a4 c5 ed 97 1e 93 97 bf 33 23 4e 98 65 2a a0 3f
       -0.02302215387630259 0.031573462335535395
0002a0 5e 20 9b 28 b7 15 a8 3f 23 11 5f f7 00 5f d5 bf
       0.047040675837309406 -0.33392357022627744
0002b0 bc ad 6e a7 a2 ec c2 3f 33 f6 cb e1 64 17 bd 3f
       0.1478465383091655 0.11363821518531196
0002c0 c3 ec fe ed 3a f1 d9 bf f3 e3 7f 4f 9e a2 cc 3f
       -0.4053485225846993 0.22371271974387205
0002d0 59 d8 47 d8 45 21 b6 bf 38 97 3b a3 1c 48 bd 3f
       -0.08644520311631378 0.11438158974814605
0002e0 5a e6 9f 4e da c8 bd bf db b4 a5 d5 ec 4b d3 3f
       -0.11634601993127927 0.301509102477963
0002f0 62 1e 49 20 23 a1 e3 3f f3 1d c0 62 2c 7c d0 3f
       0.6134200697496903 0.2575789417610103
000300 be 5f 2c 04 1b bc d2 3f a0 3c 6f 09 11 67 e9 3f
       0.2927310505633577 0.7938313659923502
000310 fa a3 3f c0 84 55 c3 3f 22 ec fb 8e 9b 62 95 bf
       0.15104731928957432 -0.020883970834784667
000320 80 74 44 81 17 e4 b1 3f 51 78 67 26 b2 df b1 bf
       0.0698866549104924 -0.06981957852937738
000330 6b e2 1c 03 52 03 af 3f ee 0c 0a 4a 13 55 b4 bf
       0.06057220733641063 -0.07942314679717175
000340 db 35 5c 19 dd 10 c5 3f 55 5b aa 06 d2 49 a3 bf
       0.1645771383122526 -0.037672580064443885
000350 31 22 cc 06 1e b0 b2 3f f8 04 54 a7 4d 49 bb bf
       0.07299983659698552 -0.1065872701183429
000360 fc 65 12 81 b3 f7 c3 bf 6c 5a 32 df 30 da d4 3f
       -0.1559967403634771 0.3258173160224149
000370 38 c8 39 42 18 c7 b9 3f 5c a1 1e 25 38 6d d4 3f
       0.10069419495428711 0.31916621804204737
000380 3b 80 51 1f 5b eb ea 3f 4c 81 64 10 53 22 e6 3f
       0.8412299739538932 0.6916899986427238
000390 ae ba 2a 2f 0e 1d d3 bf df 04 22 b2 d8 67 e5 3f
       -0.2986484013189664 0.6689265708120294
0003a0 9d 64 17 2d f1 9c ab bf 98 56 d3 a2 9b d7 b7 3f
       -0.05393174815589783 0.09313366627915298
0003b0 5c 5a 19 be d6 5d bf 3f 64 a4 4b 89 80 f7 d5 3f
       0.12252561703767512 0.34323132903825226
0003c0 39 5f 88 77 f7 d2 bb bf db 1b 90 3f 61 38 e0 bf
       -0.1086878458812607 -0.5068823090995197
0003d0 39 40 00 23 81 3c c5 bf 63 2f 67 29 e2 b1 bd 3f
       -0.16590894898445344 0.11599553595368443
0003e0 cb 68 99 da db a9 ab 3f 80 52 a5 24 4e d7 c6 3f
       0.05403029483268681 0.17844559468598575
0003f0 f9 ce 3f 20 72 e3 c0 3f 40 dd 0b 63 83 a2 cb bf
       0.13194109511061194 -0.21589701019522956
000400 1c 89 ef 9e 63 db 97 bf 36 a3 e9 33 23 06 ae bf
       -0.023297840667404576 -0.058640575491898536
000410 ac 11 89 6c 40 e5 f5 bf 9b 07 9c b4 9e 2a e0 bf
       -1.3684696426072191 -0.5052026298073885
000420 28 0a 54 8c 91 76 ad 3f ff 55 c0 7a a9 a9 d2 bf
       0.05754523122779559 -0.2916053484671863
000430 6d 1d 39 6f 8b ed b2 3f 2e 33 43 38 66 be b2 bf
       0.07393714394958346 -0.0732177626952761
000440 25 ff 4b 0d 1e ec a9 bf e5 f0 b1 d7 bb ec b2 bf
       -0.050629557727005094 -0.07392477050774778
000450 7d c7 78 25 98 8d a8 3f 21 e7 9b 31 df 18 aa bf
       0.04795527894420013 -0.05097100716188963
000460 fd 70 ed bc f8 ec b0 3f d5 9b ec ae f9 47 9b bf
       0.06611590015876696 -0.026641751576928236
000470 0b e9 53 1d d3 46 95 3f 84 d2 e9 b5 d0 1d 79 bf
       0.020777987160706817 -0.006131949687745778
000480 09 ad dd 1f b2 81 c7 3f 3d 9a c8 ad 2c a0 db bf
       0.1836455016703911 -0.4316512772660735
000490 df 44 87 47 54 a2 c4 bf 45 46 6b 85 3c 0a dc bf
       -0.1612038945445766 -0.43812478093341084
0004a0 43 d8 98 bd 8a 07 eb 3f f2 ac c1 a4 a7 2a a0 bf
       0.8446706488673573 -0.031575430738337476
0004b0 5f 41 15 f8 00 b8 c4 bf b0 64 05 08 ce 79 bc bf
       -0.16186534989766252 -0.11123359390093657
0004c0 df 1a e8 09 8a 59 d3 bf 02 7d b0 eb 20 ac b1 bf
       -0.30234003989646213 -0.06903272394309926
0004d0 b2 fa f1 53 10 b5 c5 3f f7 a0 d2 00 e9 ae bd bf
       0.1695881280793024 -0.11595016737067342
0004e0 28 ff d4 ee 84 a6 c3 bf 5d 63 1e 4e 10 0c c7 3f
       -0.15351926480979583 0.18005565466298892
0004f0 83 30 e2 12 b9 85 b9 3f 76 b8 4a 32 ee 02 c0 3f
       0.09969670020126568 0.12508943038614334
000500 87 0d a5 f8 e0 a5 d0 bf b2 ce e4 a9 c8 9b ac 3f
       -0.260124438111426 0.05587603639506024
000510 52 73 90 f8 8c 77 d2 bf ff d1 08 c7 99 a9 c2 3f
       -0.28854679368833047 0.14580080240706647
000520 58 6e e1 6f f6 51 d3 bf 75 8f 60 75 08 de ca bf
       -0.3018776028236281 -0.20990091067607933
000530 35 62 45 22 7f c3 e3 3f 73 bb fc a0 49 d6 b5 bf
       0.6176143330913592 -0.0853010194812052
000540 03 6e 0e 70 ce 0f a8 3f 60 d4 f5 6a b9 54 d5 bf
       0.04699559324145854 -0.33329616017664954
000550 88 1a 60 90 59 e5 b2 bf d9 ec d8 ee 22 55 a2 3f
       -0.07381210112371595 0.03580578961961018
000560 2b 39 fd 29 bf 72 d3 bf b1 79 1f 02 3b 1f b4 bf
       -0.303878584866555 -0.0786015396292672
000570 05 99 ab 58 2d 8c ac bf e8 67 db 35 42 27 c1 bf
       -0.05575696666146438 -0.13401057843913056
000580 5c 0b de 5f 9a 47 b8 bf 87 cf 6a 89 c8 04 ac 3f
       -0.09484257545959224 0.05472399404007349
000590 54 c2 cf cf d7 fd be bf 45 ab 8d b0 d2 11 94 3f
       -0.12106083701633824 0.01959923937412646
0005a0 61 5b 47 4a 0e 5b d1 3f 08 e4 5a 57 9c 45 e1 bf
       0.271182606256323 -0.5397474008706249
0005b0 43 c9 9f 87 25 45 c1 bf 6b bc ad ea 42 2f e0 bf
       -0.13492268678926153 -0.5057692130630022
0005c0 68 ad 97 22 e1 a5 e9 bf 23 b5 82 e5 68 17 ea bf
       -0.8014989543566289 -0.815357635748715
0005d0 43 74 03 6a 02 38 d4 3f 7d 5d d0 4b 3d 27 eb bf
       0.3159185443199172 -0.8485399704685929
0005e0 ac 17 79 04 ee 83 ac 3f dd 0a 5f 6a dd eb 9d bf
       0.05569404415704979 -0.02922006570566792
0005f0 08 88 8e ce e4 63 b6 bf 54 7e 97 fd a9 b4 cd bf
       -0.08746175806894041 -0.2320759285203048
000600 f7 d1 09 0e 35 25 ad 3f 12 1c b1 1d bc b0 dd 3f
       0.056924493755023 0.4639120378455469
000610 1a c9 5d 44 0e a1 a6 3f d2 b2 b3 c9 c0 63 be bf
       0.044197507710935294 -0.1187096111713786
000620 a7 c5 d3 bf b0 df 77 3f 7e 68 ee 57 5b 19 c6 bf
       0.005828562190104781 -0.17264882844466806
000630 68 86 7b 0b 03 2f c7 bf f5 07 51 32 b1 c7 d2 3f
       -0.18112218914670852 0.29343824304316907
000640 9f b1 6d 18 59 82 84 3f 84 98 ec 17 95 67 d1 3f
       0.010014244134901427 0.2719471677431857
000650 1f 54 a2 81 2d 54 f5 3f b4 32 d3 ba 82 67 e4 3f
       1.3330512107688788 0.6376355790067323
000660 7b 00 0c 15 82 7e b4 bf b8 17 d9 43 3f 24 d8 3f
       -0.08005536092605496 0.37721234918387436
000670 9a 91 2e 21 64 27 b3 bf 7d 55 d1 cc 77 5f 9e 3f
       -0.07481981096368032 0.029661056400376296
000680 f9 b7 6a b6 20 94 a1 3f b6 18 f9 c1 be 7a 4c 3f
       0.03433325030106 0.0008691245493046759
000690 87 a1 cf 94 06 da 9c bf a2 6b 98 80 e0 08 bf 3f
       -0.028175452072817044 0.12122920169387766
0006a0 f4 2c 48 81 d8 f7 74 bf 00 c6 8a 97 74 30 97 3f
       -0.005119176600156584 0.02264578032435871
0006b0 d0 75 db 78 38 f7 a9 bf 2b 88 56 63 90 f0 7d bf
       -0.05071426844891003 -0.0073094978482988555
0006c0 77 5f 24 0f 87 48 bc bf e7 30 64 67 f6 16 e9 bf
       -0.1104816829650853 -0.784053041397354
0006d0 2c 25 8e 33 1b 92 ba bf 4b 31 fa db 60 a3 e2 bf
       -0.10379190453217707 -0.5824436470443656
0006e0 44 c8 da d4 b4 51 f2 bf 19 dc ee 2c 3a 28 c6 bf
       -1.1449478449471977 -0.17310263818737395
0006f0 44 d4 5e a7 c5 f3 cf 3f 64 de c4 ab f3 df cb bf
       0.24962683365234473 -0.21777196776541807
000700 87 07 2e 34 14 cd d0 3f 4e c5 e7 02 bf 7d ce bf
       0.2625170239990599 -0.23821246759284026
000710 d8 0f 7e e0 b5 48 d1 3f f9 ef 06 d9 d3 34 cc bf
       0.2700628940876846 -0.2203621682837136
000720 6e f4 3c 2e 62 26 86 3f 40 83 33 58 fb fe e0 3f
       0.010815398250651333 0.5311257097892863
000730 ee 95 e2 ee 12 9c c4 bf f4 62 c0 08 03 e8 bc bf
       -0.1610129991942552 -0.11291521991405401
000740 9e 8c 39 b2 5f b8 b4 3f de 13 1b c2 a9 2c c1 bf
       0.080938321124949 -0.1341755101949777
000750 41 1c 13 ab 18 89 cc bf f2 c6 60 76 a7 59 e5 bf
       -0.2229338488889159 -0.6671941101141938
000760 65 fd 06 31 b1 eb c2 bf 39 ac db d6 1e 69 d9 bf
       -0.14781775373374298 -0.3970410440658188
000770 80 4d 76 d3 99 96 ea bf 0f 35 a2 b9 55 0f ce bf
       -0.8308838968390972 -0.23484298290387826
000780 9e 19 bb 3c 85 fd b0 3f 64 0a 29 e8 f9 6c a8 bf
       0.06636841519057277 -0.0477064224146673
000790 5d 75 66 11 48 97 a4 3f b3 28 0d c0 63 ec ba bf
       0.040216686367083844 -0.10516951979403437
0007a0 9d 84 90 25 1a 47 b2 3f 6a 55 89 e1 b3 3f bd bf
       0.07139743249037385 -0.11425327545415134
0007b0 cc f7 3d b3 1a cd b3 3f 16 5d 6a 32 ec e5 8c bf
       0.0773483932116214 -0.014110417641218603
0007c0 fc f4 55 24 c8 51 b4 3f a7 53 76 da 61 d9 a8 bf
       0.07937289130309816 -0.0485334948709018
0007d0 a4 b5 6f df fc 12 b0 3f ba 7a be 67 85 a6 a3 bf
       0.06278973059644116 -0.038379830278463214
0007e0 db 4f 44 7a 42 c9 c0 bf 23 63 cf 6c e7 9c e1 bf
       -0.1311419579511711 -0.5504033208081619
0007f0 d1 80 9a 9b 9e 0f c1 bf 89 82 ed ce 35 19 b1 bf
       -0.13328917119816322 -0.06679092695186219

module.down_path.0.block.0.bias f8 [8]
000000 8d 4c fd 5f f5 f8 b4 3f 5e 80 fe ff a5 b8 c1 3f
       0.08192380517475524 0.13844752311433955
000010 cc c4 04 00 8e b6 b0 bf 0f 67 fb 5f 9f b8 bf 3f
       -0.06528556347327025 0.12391086667357974
000020 3a cd f6 bf a6 68 b6 bf 3e a7 01 c0 da 30 ae 3f
       -0.08753435312865046 0.05896648019627414
000030 85 79 02 80 5f 9a c2 bf e4 32 02 60 cc c2 b2 bf
       -0.14533609152290353 -0.07328488677940076

module.down_path.0.block.1.weight f8 [8]
000000 2c 2b 05 f5 8c 09 e9 3f 18 b1 1d 60 ea d5 da 3f
       0.7824158464003168 0.41930636774374497
000010 9e ca 04 2a c6 a3 eb 3f d6 3a 66 d9 53 6b ee 3f
       0.863741952960783 0.9506015058594481
000020 2d a1 5c 7b 39 58 f0 3f 43 b0 48 3d 2b 59 f2 3f
       1.0215391939946799 1.146769751921071
000030 b4 60 62 db 17 f8 e9 3f 23 bf 86 af 6b 57 e8 3f
       0.8115348133897187 0.7606714657067396

module.down_path.0.block.1.bias f8 [8]
000000 a5 8b 25 16 fc 0a d4 bf 1a b4 f8 10 1c e3 fc 3f
       -0.3131704536701199 1.8054466879796167
000010 c4 45 c2 8a a7 04 c2 3f 4b ae ca 02 38 8e d1 bf
       0.1407670428784923 -0.2743053462279234
000020 17 fe f0 67 51 96 f8 3f 8b b0 3d a7 d6 b2 d2 3f
       1.5366987285814326 0.29216543514372323
000030 6b 8c 64 d5 fd 21 7a bf a8 a4 0d 1c 09 27 d5 3f
       -0.006380073106160382 0.33050754298762763

module.down_path.0.block.1.running_mean f8 [8]
000000 85 05 64 56 55 73 e7 bf c0 c4 54 b3 7a 9e e8 bf
       -0.7328287780111827 -0.7693456175385549
000010 71 d6 e5 39 96 6b 9b 3f e6 33 19 6f 51 f3 d3 bf
       0.026777598651696658 -0.31172595834215
000020 f5 9f 93 a3 df 57 01 c0 c4 ca a2 ce e6 d9 d7 3f
       -2.1679070262362026 0.37267465762412777
000030 96 45 d0 da 65 11 c7 bf 3a de ff c5 4e f1 e6 3f
       -0.1802184408593745 0.7169565074136195

module.down_path.0.block.1.running_var f8 [8]
000000 d6 a1 94 36 a8 14 d1 3f 59 2e 15 d0 59 24 cb 3f
       0.2668858082784288 0.21204683933534588
000010 88 59 f3 24 c1 43 e8 3f b2 c2 5f a7 ae 00 e8 3f
       0.7582708093348609 0.7500832814240168
000020 37 49 9e df ee 4e e0 3f b1 27 b8 fe 09 c7 ef 3f
       0.5096353881402028 0.993046758173696
000030 56 68 2e c0 f2 f3 ea 3f fb ea 5a 96 fc 75 d0 3f
       0.8422788384953133 0.25720133479232715

module.down_path.0.block.3.weight f8 [8, 8, 3, 3]
000000 e8 ea 1a 3b d1 12 b3 3f 2d 2d 7a e7 43 52 c7 3f
       0.07450587933537245 0.18219803621864497
000010 a8 38 7d e6 27 71 b3 3f 02 d4 b2 32 2b 79 d1 3f
       0.0759453714101449 0.27302055312185314
000020 58 2c 8a b8 8b b0 a3 bf 59 f1 3a 0f 68 92 d8 3f
       -0.03845631244356501 0.3839359425289977
000030 97 87 02 6e 61 77 b0 3f d1 c6 6c fc de 67 83 bf
       0.06432160316265222 -0.00947546203460395
000040 ad 43 da 57 d1 5d 89 bf 79 48 ab 09 bd e7 b1 3f
       -0.012385974401043354 0.06994229780255691
000050 06 e1 cf 45 52 ce dc 3f 5b 87 de 80 71 18 d0 3f
       0.45009285752850337 0.25149190506828284
000060 4e ef c2 4e 09 f9 c4 3f bb e2 70 d4 7a 28 c1 3f
       0.16384998651289567 0.13404784558385593
000070 93 c9 35 45 03 ef d4 3f 90 8f 8e f7 c7 39 c2 3f
       0.32708818205642237 0.14238833987940014
000080 67 9c 60 8e 80 2f d6 bf 44 f3 d5 76 35 d5 92 bf
       -0.34664930252114917 -0.018391452196272043
000090 d0 30 e4 42 99 bf a3 3f a0 e4 dd 6e f5 38 dc bf
       0.03857115689797441 -0.44097648455460536
0000a0 92 e0 23 8e 4a 43 a1 bf 1e a4 f1 ee cb 9a cd 3f
       -0.03371651635274121 0.23128651778395776
0000b0 11 59 72 a8 1a b3 ce bf 15 48 5c f7 ea 3d c7 3f
       -0.23984082436499723 0.18157708242557705
0000c0 f9 45 f3 e8 73 3b c1 3f f7 28 94 ed 24 eb ca 3f
       0.1346268546536036 0.21030103302502542
0000d0 ca 2e 50 e6 63 55 b1 3f cd 91 d8 fd 49 81 a3 bf
       0.06770920155411911 -0.038095772015626396
0000e0 98 50 c9 78 9f af c9 bf fe 0e 87 0a ae 54 c4 bf
       -0.20067208669445757 -0.1588342238811648
0000f0 d5 b5 dd bd 43 92 c6 bf 17 27 35 cc c9 84 db 3f
       -0.17633864184192186 0.429979752942573
000100 07 33 06 e1 7c 44 9d bf 04 74 11 ce 53 b8 c8 bf
       -0.028581572756183806 -0.19312522470400506
000110 18 9e e4 8a a1 66 9e 3f e8 ec c4 62 a2 08 d2 bf
       0.02968838129268478 -0.28177699704583725
000120 9a d8 41 b0 ec 9d cc bf eb 22 14 c7 c4 cb ca bf
       -0.2235694752341189 -0.20934352608335102
000130 02 8f b8 b2 da 1e b1 bf e9 19 40 d4 e7 ad c1 3f
       -0.0668770490961457 0.13811967719830356
000140 79 2d 85 3a 09 56 c1 3f 33 62 5b 8a ff 6a cf bf
       0.13543811185295931 -0.24545282607756888
000150 fd a0 ae 4a 7b 11 c1 3f ea 53 9e c7 0e 7e d9 3f
       0.13334599634732305 0.3983189534567929
000160 39 cb cf 5a c0 e2 cb bf 26 6d 76 4b ea c2 aa bf
       -0.2178574031273344 -0.05226833506750443
000170 b3 9f 7b 3f 81 1f c6 3f 7a 1c 04 2e d2 87 b9 3f
       0.17283645248175858 0.09972871421278909
000180 c5 12 47 2c b9 50 be 3f f9 fb 6f 22 d4 d6 d5 bf
       0.11841924029347257 -0.34123710024863346
000190 89 24 ee 5d 4e f8 a6 3f 65 8d 9b ef df 72 b7 3f
       0.04486317535981594 0.09159659957690776
0001a0 6b d9 c2 97 53 72 a9 bf 56 c5 3b 12 b2 7a c7 3f
       -0.04970036723664147 0.18343187227541574
0001b0 2e 7c 60 77 20 3a a6 3f c7 d6 84 95 43 0e 7e 3f
       0.04341222245442854 0.007337821960666075
0001c0 7f 99 d8 c5 8b 4f af 3f e5 20 91 4d 07 ac af 3f
       0.06115376272309713 0.06185934850560829
0001d0 e4 1f 05 be 9b 50 ec 3f 6f 31 0d bf 84 ba bc 3f
       0.884839888699386 0.11222104706138734
0001e0 17 2f 4b 35 81 5c b1 bf 36 cc 01 bf c6 aa e0 3f
       -0.06781776000132954 0.5208467226606277
0001f0 e5 b8 d5 a4 9d de 93 bf 7d 87 89 9b 89 ae 9d bf
       -0.019403899369927386 -0.02898612033676028
000200 61 78 00 6c 65 bc cb bf 8c 51 c9 63 46 db b1 bf
       -0.216686895118019 -0.06975212036315365
000210 2b 27 c1 8b 6a 40 c1 bf 75 db b4 f8 a8 8e bf 3f
       -0.13477832626295458 0.1232705695336856
000220 0b 14 94 45 c4 c3 d3 bf 32 ff 39 5b 39 2e 93 bf
       -0.30882365031021725 -0.0187310182504909
000230 2f 23 60 60 e2 72 87 bf 5d 52 fa 63 6b 9e ae 3f
       -0.011449593130252815 0.05980239482338299
000240 32 02 f0 8a 39 98 bb 3f 67 b3 d1 75 1f b6 da 3f
       0.10779151575116755 0.4173658991410804
000250 cd af 5c dd 82 89 c7 bf 03 3a 6b 16 0f e9 e0 3f
       -0.18388400849050726 0.5284495771282426
000260 33 e7 c3 89 6a ea e8 3f 64 88 5b 60 79 ba 5c bf
       0.7786152544715378 -0.0017534432712911436
000270 8d fc ca 91 35 d8 86 bf 62 89 e9 31 9e da e4 3f
       -0.01115457392859145 0.6516867613648112
000280 cc e2 8f 2c 40 02 d1 bf 77 16 d9 02 b2 df b7 bf
       -0.26576237060320973 -0.09325707025080897
000290 28 33 81 3d d2 da e4 bf 7d a1 06 eb 8c 52 ba 3f
       -0.6517115784896292 0.1028221200746255
0002a0 0f 39 8e 42 73 ab df bf 1e 0f 4f b3 f4 72 e2 bf
       -0.49483949184004045 -0.5765326978803136
0002b0 e0 bd cc 87 1a d9 b9 bf 08 f7 3f 7b 8d 65 c3 bf
       -0.10096898856567504 -0.1515366412931416
0002c0 e1 64 9a 23 61 a0 dd bf da 19 ad ae 6f 8b be 3f
       -0.4629137847601453 0.11931512846522399
0002d0 b7 a3 13 b4 29 d5 ad bf e5 5d b7 02 f7 5b b4 bf
       -0.05826692889406309 -0.07952827278437942
0002e0 8d 23 23 03 33 85 c2 bf b3 f8 6c 2d 23 83 b9 bf
       -0.14468991902529318 -0.09965724810624259
0002f0 50 1d ed 55 2a 63 bd 3f e6 9f 66 fc 2f a0 c3 bf
       0.11479439351852716 -0.15332603286992635
000300 6f 5c a6 a7 c0 e1 b0 bf fa c3 38 30 5b f8 bb bf
       -0.06594471066488138 -0.10925836493767341
000310 69 5d 5d c0 cf 52 70 bf 33 78 11 94 9b 86 a2 bf
       -0.003985225228311997 -0.036183225464569445
000320 f7 61 50 33 01 26 cb bf 3d 2c 43 b5 07 81 be 3f
       -0.21209731107298044 0.11915634322501574
000330 d8 ad 00 12 c1 25 ba 3f f4 aa 19 eb 91 93 b3 3f
       0.10213858308332335 0.0764704894042259
000340 27 77 0b 68 88 05 c1 bf 93 4f 2b fb b9 a3 97 bf
       -0.1329813488036333 -0.02308550448908837
000350 09 93 1e 57 7b b6 9f bf 3d 4a 86 bd 8d 0d a8 3f
       -0.030969550316188896 0.04697840631992676
000360 c4 5b cc e3 71 04 c9 3f 38 46 d9 24 65 ce b9 bf
       0.19544814703905733 -0.1008055891955103
000370 e8 83 b9 95 4e eb 62 bf 73 20 34 3a 2a cc a1 bf
       -0.0023094687328897197 -0.03476077995770845
000380 c5 d3 b2 9d 7b 31 c9 bf 68 7c 4d c4 ed 94 bf bf
       -0.19682259750484668 -0.123366222787341
000390 60 f5 d1 e3 b1 46 b3 bf e8 7f c0 ac a3 70 cc bf
       -0.0752974683000125 -0.222187480308093
0003a0 35 df 82 4e a7 19 c8 3f a3 25 cc 46 0d 97 b1 3f
       0.188282883964115 0.06871111849263527
0003b0 ae 7e 27 7c ad 71 bd 3f b5 8a a4 87 fa ff b8 bf
       0.1150158336745288 -0.09765592395391816
0003c0 13 9d 1e ac f2 86 c2 bf 45 39 4d ff 22 ba 9d 3f
       -0.14474328426624847 0.029030367691399012
0003d0 df a3 6b a6 7a ee ad 3f 6f 7c af dc ac 9e a2 3f
       0.05846007615566128 0.03636684602656081
0003e0 d9 ee 4b 2b e9 2a 62 3f 00 fa 9c ca 43 1a a7 bf
       0.002217727096988625 -0.04512225960069216
0003f0 31 8b 2f c4 77 cf 9b 3f a6 c8 1e e5 9a f0 98 bf
       0.02715861449167817 -0.024355335459127624
000400 de db f8 05 2e 13 b4 3f 78 f9 e1 bb ef 52 bb bf
       0.0784176601963362 -0.10673425995807928
000410 a7 41 d5 7b 9c 5e ab 3f 63 11 17 d1 83 b2 b8 3f
       0.05345620166429237 0.09647392134417525
000420 79 3c a3 51 c0 6a 9d bf 85 c4 f2 27 0c b1 bc bf
       -0.028727536185041622 -0.1120765302209908
000430 1e 0b da a5 c0 43 be 3f 8d 82 ca 50 e2 af c3 bf
       0.11822132157434992 -0.15380505509257994
000440 0a 22 16 1b 62 3f de bf e0 54 12 c5 ec 71 c9 3f
       -0.4726186050907307 0.19878921148907747
000450 4b a2 be c1 16 97 e3 bf 53 f3 13 11 ba 62 e6 bf
       -0.6121934684825389 -0.6995516141465522
000460 76 b6 83 e9 e3 7e 8d bf e5 54 76 85 c6 6d a9 bf
       -0.014402180255696378 -0.04966564540078781
000470 c8 4a 53 25 4a 49 e7 bf ba 19 de b9 c7 63 ca 3f
       -0.7276964882861074 0.2061700494343322
000480 25 59 2c 57 0e 0b ac bf 20 8f d6 9e 07 2b bb bf
       -0.05477185072065741 -0.10612533214458297
000490 c2 a5 72 ea ae 52 b5 bf 20 d7 b4 59 e8 da d0 3f
       -0.08329289649795782 0.263361060718454
0004a0 59 a1 63 33 ca e8 d3 bf 00 c9 4d 87 71 7e c4 3f
       -0.3110833646628826 0.1601087484992334
0004b0 7b d7 e1 d0 e3 b5 be 3f a7 c3 b8 1c 20 5c b8 3f
       0.11996291970885224 0.09515572262968296
0004c0 da 0d 94 8a 9b 9d a9 3f ba b9 7b d7 db 4c cf 3f
       0.05003057543401797 0.24453304311414376
0004d0 1f 1b 96 c4 f8 cf d8 bf bb aa 0e 03 d2 02 bd bf
       -0.38769358823667405 -0.11332428526535925
0004e0 fe 0c b2 fc 76 ab b4 3f 98 4e 38 2f 37 e0 92 bf
       0.08074134511302941 -0.018433439499928456
0004f0 cd 70 d6 00 5c 35 6d bf 96 69 d2 93 0a 45 c2 3f
       -0.003565482801333264 0.14273197381846775
000500 b3 72 d4 2b 82 06 d4 3f e1 64 1a e3 e2 2e b4 bf
       0.3128972461725354 -0.0788404278231556
000510 4e fc f6 3b b5 ca ba 3f df 24 e8 c5 f2 e8 9c 3f
       0.10465557779296938 0.028232377366326552
000520 50 e6 f5 09 f0 bf c2 3f 96 ea 78 fe 18 ae c2 bf
       0.14648247228960765 -0.14593803811461176
000530 39 73 6a ac dd e8 ce bf 15 51 85 cf 85 38 a9 bf
       -0.24148150366536372 -0.04925935896122461
000540 ea 61 0c 0c fe ae d6 3f 75 ef bf 4d 40 ae c2 3f
       0.3544306867275099 0.1459427241933288
000550 8e 41 87 f2 a2 93 9e 3f e5 c7 da 22 4f f8 b7 3f
       0.02986006360316789 0.09363264656965915
000560 65 48 35 48 a8 ae db 3f 49 8c cd e2 4e 2c c9 bf
       0.4325352387578561 -0.1966646773754255
000570 91 7b a6 1f d4 41 69 bf b3 64 8d 31 17 b5 aa 3f
       -0.0030831473388412485 0.05216286163222019
000580 99 46 a2 a3 84 b0 cc 3f 45 7f f8 c7 fa 36 c0 3f
       0.22413690557418844 0.12667784465974755
000590 87 4c 74 eb 48 da b6 3f a9 1b ba f2 3f 18 b5 bf
       0.08926826237102335 -0.0824012725444009
0005a0 ad fe 18 36 93 a5 d4 bf 98 fd ff 7e 15 b4 c2 bf
       -0.3226058986947276 -0.14612072659654696
0005b0 0e 96 0e d6 8a 78 9f 3f 2b 5d 43 1a b6 be 92 3f
       0.030733269991875693 0.018305631020522
0005c0 b7 5c 2d e8 00 07 d2 3f 6f b1 54 e5 03 e1 c7 bf
       0.2816774623256139 -0.1865544194964843
0005d0 36 44 f0 af 7d d5 cd 3f 75 3c 3e 78 17 14 d7 3f
       0.23307772722958625 0.3606012987374421
0005e0 7d 86 4b 94 7e 8e d2 bf c9 e2 4d 63 5e d8 74 bf
       -0.28994717103896744 -0.005089157774698713
0005f0 9f d7 7f a1 2e 50 c9 bf 4e ab 25 97 ef 54 b7 3f
       -0.19775946508133033 0.09113976898303841
000600 b7 4b dd 45 4d b3 a0 3f cc 16 1b 43 eb cd a7 3f
       0.03261796453320847 0.046492912236812595
000610 cd 30 d3 7b fa c0 c2 bf 9b 48 3e 82 18 ed b2 bf
       -0.14651423498287955 -0.0739302938439174
000620 ca ea 0a 3c 07 23 9c bf 3f 92 df f7 35 02 a9 3f
       -0.027477372207367158 0.048844992168401984
000630 3b b2 bd a1 10 20 ad 3f 00 ca 5f 36 21 d0 c0 3f
       0.05688526129128887 0.13135161547650398
000640 0a 2c 79 eb 30 d0 80 bf a1 6e 9f bb 54 8e d4 3f
       -0.008209592996669474 0.32118719408547675
000650 f2 3a c9 cf ab 20 d4 3f ac 71 ea 3a 01 45 4a 3f
       0.3144940880928707 0.0008016830450575016
000660 9c 73 e3 a6 06 b0 dd 3f f0 d8 9c 72 0d 73 e8 3f
       0.4638687734384861 0.7640444983033188
000670 0d b0 ec 8b d5 a5 c7 3f 71 72 68 b3 d0 f1 a7 bf
       0.18474835712675067 -0.04676677885092751
000680 d0 bf 17 a1 e5 2b c6 3f 1e ba b0 dc ad 63 76 3f
       0.17321462980134905 0.005466155194012971
000690 b0 50 0e 18 4b 4b d0 bf 6f e7 a0 ed 52 89 d7 3f
       -0.25459554051600275 0.367756588038552
0006a0 b0 17 d4 7e 7a 10 b5 bf fb 90 d1 15 cb 6e d1 bf
       -0.08228269192122073 -0.27238728647922955
0006b0 02 14 08 66 31 68 9b 3f 14 f9 68 48 cf a5 c0 bf
       0.02676465211154167 -0.1300601104321194
0006c0 a1 01 fe fb 9b 88 bd bf 1a 21 fc e3 f5 1f dd bf
       -0.11536574270394918 -0.4550757147230954
0006d0 da 6c b3 bf c7 db c9 3f 29 9a 22 8c bd cf d7 bf
       0.20201966152567402 -0.37205446896624267
0006e0 58 84 4f eb 71 5a e4 bf 5f 66 d3 5d 7e 24 ba 3f
       -0.6360406490240491 0.10211934843700864
0006f0 a4 49 48 92 1e 26 5a bf 53 ed c7 3f 2f c0 e2 bf
       -0.001596002440355273 -0.5859600301477407
000700 b8 83 1b ad cb 03 d1 3f 52 d4 e6 99 75 9e b1 3f
       0.2658566656592103 0.0688241482483403
000710 a2 d8 89 ad a6 a3 e8 3f a2 9c a4 ec 7d 4a c7 bf
       0.7699769391463358 -0.18196081213793486
000720 44 68 c0 e1 03 0c e0 3f 10 c4 1c 6a d9 8a ef 3f
       0.5014666947565805 0.9856993744380151
000730 af de a7 8b 5e 97 c2 3f 1f 1a 44 f9 b6 5a 9d 3f
       0.1452444250023652 0.028666361774435708
000740 8c e6 c3 22 fc d9 e4 3f 2c e5 28 95 a9 4e c9 bf
       0.6516094855316665 -0.19771308692160383
000750 c9 70 a2 4c e6 c4 ac 3f 76 ed 23 5b 23 eb bb bf
       0.056189724783708046 -0.10905667281251916
000760 af bf f6 4f e0 15 c1 3f 62 97 51 aa fd de 7d 3f
       0.13348010925755946 0.007292738800151218
000770 bd c7 46 97 59 f8 c2 3f c3 3a 7f f3 30 ff a7 3f
       0.1482040394453729 0.04686882946372386
000780 d8 f4 cb 37 e7 94 b2 3f e6 26 ef ed c3 61 87 3f
       0.0725845824453758 0.01141694135539546
000790 60 9e b7 ec f7 ae 8d bf 5a 62 5d 57 6a 87 b0 bf
       -0.014493882094895827 -0.06456627495698211
0007a0 91 e6 14 e7 80 20 a4 3f c9 2c bb 65 c3 a0 c0 bf
       0.03931048222370948 -0.12990610568372166
0007b0 de 04 60 96 be 6a e8 3e df 25 f2 13 e5 61 a9 3f
       1.1642918888556843e-05 0.04957500332336528
0007c0 99 da 3e eb 6c da ba 3f 4b c0 ba 50 ce 49 be bf
       0.10489540808962729 -0.1183136889546869
0007d0 ad 50 dc bb 0f 54 82 bf 2a 22 16 a0 2c 9a a0 bf
       -0.00894939701132843 -0.03242625669651418
0007e0 0d 48 42 5d 2e d0 ba bf 91 0f eb 74 fd b3 af bf
       -0.10473909165219215 -0.06192009021972845
0007f0 55 7b 05 33 59 4a 9e 3f 17 05 ec 08 d3 29 b3 3f
       0.029580491770839618 0.07485693900891409

module.down_path.0.block.3.bias f8 [8]
000000 d6 74 04 00 a9 c2 b2 3f 9c 25 ff 7f 6c 2d b5 bf
       0.0732827782671451 -0.08272436261099475
000010 84 f0 01 00 fc 3b 9b bf 90 69 02 80 db 95 a5 bf
       -0.02659600973173372 -0.04215894639601736
000020 3e d3 00 c0 6e e9 ae 3f 47 d5 00 80 4b 14 b2 3f
       0.06037469953336093 0.07062217593268826
000030 fd 44 02 e0 cd c0 b9 bf 5a 03 fb 9f 57 9a a3 bf
       -0.10059820860830722 -0.03828691318404394

module.down_path.0.block.4.weight f8 [8]
000000 ce 50 38 bf f4 ea da 3f bc 0b ef dd 55 4f e3 3f
       0.42059057878328765 0.6034344992298126
000010 0a e0 fc dd 35 b1 e2 3f 61 42 85 4d 05 18 e3 3f
       0.5841321311663716 0.5966822160790565
000020 84 1a e2 e1 9d 25 e7 3f 16 a2 0e 98 6e d7 e6 3f
       0.7233418857366165 0.7137978525034352
000030 28 27 16 47 af b1 e0 3f 52 14 09 c0 84 3a e3 3f
       0.5216900242241751 0.6008933783238126

module.down_path.0.block.4.bias f8 [8]
000000 34 90 bc 54 c7 6b f1 3f 05 50 e5 db d7 f1 e0 bf
       1.088813143732307 -0.5295218748892699
000010 2f cc f6 e7 48 53 ec 3f 2b 13 36 31 72 b6 e0 3f
       0.8851666002796089 0.522271247974094
000020 fd 32 2f a1 1e d5 f3 3f 75 cf cd a3 e2 c2 f9 3f
       1.2395311638130686 1.6100794218627617
000030 d3 9c b2 34 21 32 ab bf 9d 67 63 0d f4 7a f9 3f
       -0.05311683433802163 1.5925179026585063

module.down_path.0.block.4.running_mean f8 [8]
000000 ca 7b 7c fe cd d4 01 40 a3 08 9b f7 58 c0 16 c0
       2.2289085275401463 -5.687839382970341
000010 44 91 39 d2 a1 90 e8 3f ca c4 87 63 b5 04 17 40
       0.7676552873568103 5.754598193322815
000020 d2 8d 2e 37 91 fe 0a 40 22 10 21 c1 c7 a6 05 40
       3.37430041418859 2.7064356888022454
000030 bc c3 e4 a9 1d 04 f2 bf 4f 2c 21 bb 89 1e 03 40
       -1.126004851958199 2.3899111384867306

module.down_path.0.block.4.running_var f8 [8]
000000 0e 68 e6 fa 40 01 f2 3f 81 d7 aa 58 30 2a 0a 40
       1.12530611045668 3.2706000258576187
000010 4c f5 84 66 00 56 ff 3f 8d f6 96 df 45 60 06 40
       1.9584964756644068 2.7970082729287413
000020 4c 5c 52 34 ea 91 07 40 e8 3b 08 5f a5 29 fd 3f
       2.946247490657276 1.822667475909606
000030 83 c1 52 eb e6 37 07 40 8f b5 5f 57 77 8a 09 40
       2.902295912230501 3.1926104379733213

module.down_path.1.weight f8 [16, 8, 3, 3]
000000 2c f7 bc 3e ca 07 e3 bf 5f 79 e4 09 fd 2e a2 3f
       -0.5947009301523614 0.03551474328763748
000010 54 07 e5 52 f2 db a1 bf a7 82 0a b6 b9 60 d1 bf
       -0.03488118421456812 -0.27152865197607884
000020 f5 4f f1 4d 2b ff ef 3f db 3b b8 a5 af 2a d6 3f
       0.9998985788647575 0.3463553541523063
000030 97 29 9e 92 71 35 d2 bf 57 c6 02 35 9b f6 df 3f
       -0.28451194112917605 0.49942665268745173
000040 4d 3b 58 63 29 c2 d7 bf 27 17 a4 cb f2 61 b0 3f
       -0.3712256879961629 0.06399457427695819
000050 d1 8e 10 2d e8 eb b0 3f 5d 12 ad 01 42 20 aa bf
       0.06609965419971366 -0.05102735777339682
000060 07 7c 32 fe e7 64 ce bf f5 48 59 b1 78 ae b6 3f
       -0.23745441352818394 0.0885997231464762
000070 14 8f 29 d1 99 b9 91 bf 17 02 07 0a e4 17 a0 bf
       -0.017309573546653814 -0.03143227217106331
000080 64 ec ea ab 79 85 a3 3f 33 7a 15 08 04 1e c0 bf
       0.03812771056751599 -0.12591600794526556
000090 49 56 a7 20 10 26 be 3f e4 01 65 bd 9d fe 85 3f
       0.11776829526146416 0.010739548055995259
0000a0 ed e4 a4 d7 7a 01 ac bf 8e ea 45 99 25 2c c0 3f
       -0.05469879038214196 0.12634725555456722
0000b0 3d f9 ef 6e dc 4d af bf b5 02 6a e0 71 70 a8 3f
       -0.0611409078046443 0.04773288597516993
0000c0 22 b3 66 85 11 65 9d 3f 00 18 5e cb 94 c2 c9 bf
       0.02870585800853854 -0.20125064783150037
0000d0 2a 1b 4f 36 c0 56 b4 bf c3 e2 88 96 c4 58 b8 bf
       -0.07944871259597322 -0.09510449099696942
0000e0 a4 b3 2b 26 63 11 a4 bf 67 48 6f 9d 6d 2f 71 bf
       -0.0391951545806031 -0.004195621665490013
0000f0 6b 81 a7 70 18 1b cd 3f b3 71 99 c9 65 aa b9 bf
       0.2273893880910792 -0.10025631114826332
000100 1a ef 61 a5 a0 3a 9d bf 87 48 83 a8 20 f3 af bf
       -0.028543958753728928 -0.06240179116288496
000110 6c 0b ed db 85 3b c2 bf 82 a8 de 51 0a 95 4b bf
       -0.14244149435588882 -0.0008417415990511631
000120 fa 21 fa d7 fd 83 d3 3f 3d 5e 4a 76 63 e6 cc bf
       0.3049311265135938 -0.22578089977172225
000130 d9 b8 e8 93 f8 fa a6 3f 6a d0 a7 ee 85 83 d0 bf
       0.0448835068276467 -0.25802753740504747
000140 02 0b d2 b8 fc dc d9 bf 53 2a f2 0b a4 42 c1 bf
       -0.4041129879844193 -0.13484621604250666
000150 c3 5c 96 f0 65 17 c7 3f 33 01 8e b3 c2 f5 b3 3f
       0.1804015564673361 0.07796875842723665
000160 44 36 1f e6 ea 83 b5 3f dc e0 ae a5 64 f7 d3 bf
       0.08404415243350011 -0.3119746797560887
000170 9a ca 83 a1 16 e0 c9 bf c7 5e 53 cb d3 44 b1 3f
       -0.20215113531556456 0.06745647157674305
000180 b4 7e 63 e2 b2 0b d1 3f 61 60 5f 41 fc 8b de 3f
       0.2663390360666924 0.47729402908362856
000190 45 ae 8d ba aa 55 d5 3f 8c b4 e1 54 95 c5 ab 3f
       0.3333536931811277 0.05424181615021792
0001a0 2f 61 d5 96 d2 73 c2 bf b7 29 8d 58 d6 31 e3 bf
       -0.14415962567250903 -0.5998336534042242
0001b0 9d 95 cf fd b5 a6 b0 3f f1 e2 fb c5 b6 33 d0 3f
       0.06504380652002913 0.2531563695370514
0001c0 9f f5 ba 64 bc cd c9 bf 4c c5 97 8c 23 7f ac bf
       -0.20159106176826655 -0.055657492553914695
0001d0 fe 10 fc 3d 20 10 b9 3f 98 26 4d 75 7a f7 d3 bf
       0.09790231240555511 -0.31197987990581444
0001e0 09 37 88 ce ff d1 ce bf eb 85 53 85 a6 ef d5 3f
       -0.24078366837095924 0.3427521039976386
0001f0 f7 d1 cc 6d 9c 38 d8 3f 84 71 1b 17 6e 3a d3 3f
       0.37845526430763193 0.30044128662645897
000200 bb ff 56 3f fa 28 59 3f 15 f1 fc 59 f1 6e 84 bf
       0.0015356487104867106 -0.00997723155853029
000210 81 41 87 11 ae fc c0 3f 88 ba 3c 01 fa fa d3 bf
       0.13271118026615272 -0.31219339485952746
000220 73 e6 ab d2 5d e6 c7 bf 65 1d a4 da b4 03 c8 3f
       -0.18671772753423319 0.1876131122191779
000230 51 d9 17 2d f5 7e c2 bf f2 69 09 a1 77 74 8d 3f
       -0.14449944211782875 0.014382299997284218
000240 9e 30 c2 b2 43 95 99 bf a5 3c 58 de e3 29 a7 3f
       -0.02498346117549543 0.045241471187290196
000250 be 31 37 2e c0 01 90 bf 91 47 51 ab 28 c5 c5 3f
       -0.015631678410316978 0.1700793110381338
000260 63 3d 69 3a 26 09 d7 3f 26 58 ec 0a 38 c4 d2 3f
       0.3599334307118253 0.2932262522384711
000270 54 a8 45 59 97 86 a3 3f 47 fe 2e 56 51 c0 a3 bf
       0.03813622441050826 -0.038576642771201146
000280 91 b9 f2 e6 6e 9e dc bf 44 13 95 ad 26 ea bc 3f
       -0.44716999581842126 0.11294786203241097
000290 7d ca d6 87 2b 74 c3 bf e2 1d 9f 8b 1d 6a c4 3f
       -0.15198272831692697 0.15948838536699755
0002a0 02 0d 8f 23 0c 22 d8 3f df 5d 3a c1 84 5e d4 bf
       0.37707808945215515 -0.31826895589753507
0002b0 04 26 a5 0b c1 3f da bf 3c a2 16 a2 94 14 d3 3f
       -0.41014124047487166 0.29813114003130514
0002c0 9e bb 0c 1a e0 3b c1 3f b8 dc bb 09 66 22 d1 bf
       0.13463975212058882 -0.26772452307291017
0002d0 ad e5 f0 a7 1e 83 ba 3f be 5a ea 47 8b 7c ad 3f
       0.10356322860834295 0.05759082081674681
0002e0 16 12 75 51 e1 6a aa 3f bd 4b 54 3b c2 39 b6 bf
       0.05159668082572837 -0.08681882809132353
0002f0 f8 42 7c 7e b8 53 c2 bf 1c 0b f5 0d 8d e3 c3 bf
       -0.14317995239300507 -0.15538180524352974
000300 6b 79 21 11 d9 de ae bf 24 08 02 35 06 08 b7 bf
       -0.060293944684178445 -0.08996619028224068
000310 7b 6a 21 4b 42 15 d0 bf e7 14 94 bb b1 24 cb bf
       -0.2512975438782303 -0.21205732020477017
000320 c3 28 09 44 84 d8 c4 3f 93 2b d5 c0 9e 7d c0 bf
       0.16285756418284877 -0.12883362212809554
000330 a9 0a 1a 0f ff 87 d1 bf f9 83 28 be 5a 2e d1 3f
       -0.27392555689599846 0.2684542519583029
000340 56 85 2f bb f5 80 dc 3f 9a 88 66 87 f6 43 d3 bf
       0.44537108688208116 -0.3010231325407716
000350 b7 e4 78 d5 11 62 d4 bf 6c 52 dd 89 2d 9c d7 3f
       -0.3184856972398608 0.3689073416074169
000360 06 1d 3e ab 79 85 bf bf bf 0d b0 52 41 46 c9 bf
       -0.12313042097786217 -0.19745651757703617
000370 95 62 d0 55 59 64 d4 bf 97 1d d3 43 f6 0a a0 3f
       -0.3186248147990594 0.03133363321245069
000380 94 0d fb 13 16 4c dd 3f df 10 e0 8f dd 14 c8 3f
       0.4577689356921948 0.1881367638126283
000390 64 c6 38 dd cd ff ad bf 92 e1 64 cb 40 3b dc 3f
       -0.058592255835162615 0.4411165224332986
0003a0 65 84 f2 30 f0 ef c5 3f 95 4b 26 9f de 2c ba bf
       0.17138483419424513 -0.1022471560047918
0003b0 a6 63 f3 7e 7c e2 ad 3f 63 8c 69 89 00 ca c0 3f
       0.05836857843104974 0.13116461476883776
0003c0 36 31 ae 1f 63 7a a6 3f 1d 1f 2d 10 62 8c c5 3f
       0.043902490250817314 0.16834665098053217
0003d0 8e 32 65 7e 10 79 c6 3f 6c 5f 82 15 b5 01 ac 3f
       0.17556959315915716 0.05470052611889184
0003e0 03 6f a9 7e ee e9 d6 bf e1 7d 68 56 dd 2b c4 bf
       -0.35802805299111656 -0.15758864134930575
0003f0 f0 9e bc c2 c6 44 bd 3f a9 18 4c a8 7c 4a 94 bf
       0.11433069471661006 -0.019815395137833623
000400 c2 07 b1 55 b7 36 b5 bf 82 a7 19 3b 2e 24 c1 3f
       -0.08286615221098173 0.13391664396050024
000410 a1 c8 63 11 ad 48 9f bf 6c 84 6c 47 f4 af 86 3f
       -0.03055067461622996 0.011077793531116785
000420 ec 31 07 90 e8 ac 7f 3f 5a 5f e4 45 28 fa be 3f
       0.0077332577206559 0.12100459772443398
000430 40 16 4f e6 d8 de b6 3f cb c0 22 93 50 47 a7 3f
       0.08933787939812365 0.04546596332636595
000440 65 3a 94 4a 5a ef a7 3f 8c 97 9a 91 3b e3 c6 3f
       0.046747991184123795 0.17880959138454633
000450 9f 4e df e6 15 06 b5 bf 56 0e e8 18 bd 2a cb bf
       -0.08212410818605996 -0.2122417804349534
000460 ba c3 7d e3 60 07 c5 3f 31 40 2a 58 0d 0c bb bf
       0.1642876730725485 -0.10565265085665555
000470 82 3d c5 f0 66 d7 b8 3f b9 34 f3 4d c6 5d da 3f
       0.09703677538094804 0.41197354900652844
000480 3f 9a 66 85 1f a6 a2 3f 7b 6b 3e 24 7d 70 c3 bf
       0.03642366889407755 -0.15187038678854123
000490 ce de c7 f5 dd ce d2 bf 4e 87 a3 4c 59 4e b5 bf
       -0.29387616159463625 -0.08322675820411726
0004a0 31 18 71 d3 5d 6d d4 bf 64 9b 42 0a c7 d6 d5 bf
       -0.3191752018796051 -0.3412339782902818
0004b0 b2 8b 10 65 24 2b d0 3f f2 4f 13 dc 00 99 ca bf
       0.25263318891137054 -0.20779429193373705
0004c0 6a c7 24 12 99 f5 b3 bf 3a b9 d8 22 be 11 bc 3f
       -0.07796627705536499 0.10964573240992062
0004d0 be 91 83 7c d9 68 91 3f d3 68 08 39 3b 74 96 3f
       0.017001531815269415 0.0219277623710717
0004e0 85 b9 ff 54 f5 f3 ca bf 87 62 9c a9 b4 89 d4 bf
       -0.21057001734102357 -0.32090488971292824
0004f0 f0 d3 ae eb 20 d3 9c 3f d1 46 cf ab 59 22 c3 bf
       0.02814914167875665 -0.14948578728813414
000500 3e 16 14 4c 8c cc c4 bf 42 4c 50 7f 27 8a be 3f
       -0.16249231066483277 0.11929556711429348
000510 a1 81 60 61 3e 62 bc 3f 01 c5 b5 2c 27 5e ad 3f
       0.11087407948844553 0.057358955581444
000520 f4 12 90 b1 20 92 b2 bf 1a fa e8 62 9e 32 91 bf
       -0.07254223189381631 -0.016794657504073475
000530 0b 12 65 3d 84 25 cf bf d4 96 00 68 e1 ec d9 bf
       -0.24333241460603036 -0.405083037914989
000540 a4 93 e2 20 80 95 ab 3f fc 9a 49 f8 2e cc cb bf
       0.05387497331074734 -0.21716868518270604
000550 dd 16 98 0f 01 e1 d3 bf ff f8 95 4d 70 e3 a4 bf
       -0.3106081630979654 -0.040797719450880614
000560 71 f9 65 17 6b c2 61 3f 46 29 1f c8 c5 96 ba 3f
       0.0021679011944676853 0.10386310706886545
000570 c9 3e db 6a 27 d5 bf 3f 27 26 d8 3d 8b e1 b5 3f
       0.12434622153090936 0.08547277698394194
000580 0f 22 02 1f 51 09 c2 bf 04 bc f0 0e 5e 40 90 3f
       -0.1409093285949585 0.015870542203796148
000590 1c 17 f7 fe e3 d4 a5 bf 55 0d e6 4a eb 5b c9 bf
       -0.0426398514496624 -0.198117648669817
0005a0 b3 26 c6 c6 5b 22 c0 3f c6 75 0b fd 0f 63 6d bf
       0.12604853826296888 -0.0035872757219823385
0005b0 53 c7 a8 58 df e1 b8 bf 44 11 8c 69 06 33 b5 bf
       -0.0971965400174473 -0.08280983044466433
0005c0 04 a8 7c d5 b7 00 bf bf ae 09 b4 48 76 20 c4 bf
       -0.12110470735629525 -0.15724066305126655
0005d0 64 d8 fa 82 6c 9d a3 3f ee f3 2f c9 c2 da c9 3f
       0.03831042384028718 0.20198855231856733
0005e0 b4 cc 80 c0 54 b6 b4 3f ef 95 e6 d3 83 02 c3 bf
       0.08090715122016229 -0.14851425024714568
0005f0 66 d5 bb f5 12 2c bd bf 6b c7 db 14 8f a7 69 3f
       -0.1139537668166973 0.0031316561279419084
000600 67 63 d2 bd 35 80 b4 bf b3 87 26 e2 50 c4 a9 bf
       -0.08008132824251178 -0.0503258968413002
000610 ff b6 a4 48 e3 dc a7 bf b8 a9 17 0b 53 e3 ad bf
       -0.04660711538086381 -0.05837497244268114
000620 57 82 3a 1c 5f 8a b8 bf d7 bb 60 7c bd 28 bf bf
       -0.09586138190435044 -0.1217153957993412
000630 3b 54 88 b1 10 6f c5 3f 49 07 08 8f a2 0b ba 3f
       0.16745194119053672 0.101740035934225
000640 97 bb e0 65 02 0d 9a 3f af 21 f5 b2 3d 90 d7 bf
       0.02544025179684758 -0.36817877270052696
000650 52 06 e2 4d 3f 6b e4 bf 17 ad eb 6c 4d 6f e1 bf
       -0.6380917092466893 -0.5448367240291273
000660 ac 05 b9 dc 5f 55 c6 bf 39 99 fb a9 e7 fc d9 bf
       -0.17448042180516887 -0.4060610923755977
000670 40 c0 37 97 0a c0 d9 bf ba 7e 4a 0e d5 de b3 3f
       -0.40234627501832065 0.077618900288594
000680 ee 22 5a 65 7a 33 c1 bf 30 50 10 82 59 55 ae 3f
       -0.13438348721344745 0.05924491608325899
000690 2b 19 17 c2 e2 9a a3 bf 06 4d 4d 1a 5b b8 ac bf
       -0.03829105967774845 -0.056094023667038015
0006a0 ce 6e 14 2d ea 66 ac bf 35 20 7c eb 6e aa b6 bf
       -0.05547267723360748 -0.08853810547964332
0006b0 53 52 81 78 49 65 ae bf 18 ba 61 cb 0b b8 be 3f
       -0.059366508445837816 0.11999582019209531
0006c0 e6 de 47 2f 51 ce cc 3f eb 2c b3 70 ea 73 92 3f
       0.22504629906301615 0.01802030861726404
0006d0 07 43 cf 4e 84 20 c3 bf e5 84 6a 36 01 38 c2 bf
       -0.14942983482480818 -0.14233412892375621
0006e0 59 c1 ba b8 07 ff a4 bf 0e 08 61 a8 69 72 97 bf
       -0.04100822572707114 -0.022897387411156038
0006f0 d2 92 22 24 d8 34 c7 bf eb 61 c4 e8 db 4f db 3f
       -0.18130018009573817 0.4267492077938459
000700 02 d9 3b 8a 05 41 ea 3f bb 6b 3a 90 23 be aa bf
       0.8204372119787708 -0.052231894832594127
000710 0b 2b e3 e2 b3 31 ca bf 56 ff 2b 3e d6 a3 b9 bf
       -0.20464180544362195 -0.10015620248668475
000720 8e 50 ce 61 1b d4 c4 3f 6f 00 59 78 5d 5b d0 3f
       0.16272299075774693 0.2555764842291017
000730 7d 3a e0 a7 90 d8 d0 3f 70 c9 77 1c 5f 99 b1 bf
       0.263218082371999 -0.0687465137960197
000740 e2 f4 91 39 39 95 be bf 41 e7 b4 98 ab 09 d0 bf
       -0.11946447043915812 -0.2505902282024302
000750 70 e4 88 83 90 50 cb 3f eb d0 ed f7 cc a4 a1 bf
       0.21339613363832965 -0.034460454239622816
000760 7c be ee a5 b4 55 c9 bf c6 77 8d a9 19 ef c9 3f
       -0.1979280290811295 0.20260926035819987
000770 fd d4 f9 68 59 7f b4 bf b2 f4 b0 48 31 95 aa 3f
       -0.08006819546593032 0.05191949856132662
000780 13 de 17 bf 47 16 ae bf f2 94 bf 6f 77 44 d1 bf
       -0.05876373489075717 -0.26980386650968946
000790 41 db bd 40 a7 4e ce bf 89 b9 7d b0 b6 e9 b6 3f
       -0.23677530919277426 0.0895036869894509
0007a0 79 95 02 b8 23 79 cd 3f 43 62 5d 76 f2 c2 c7 3f
       0.2302593849646362 0.1856368139222174
0007b0 93 d6 08 3e bd 9c ca bf 90 4e b1 b0 34 89 d3 bf
       -0.20790830163030147 -0.3052493787301751
0007c0 61 20 20 d0 97 ec ca bf f5 cd 08 0b d1 d3 b9 bf
       -0.21034524595620765 -0.1008883144320903
0007d0 71 11 66 3e bb 75 ab 3f d7 e2 21 63 d6 e5 ca 3f
       0.053632594458607914 0.21013908234069476
0007e0 52 90 a8 e5 1f 2c c4 bf 89 03 ea 5f 77 03 cf 3f
       -0.15759657586852654 0.24229328330332248
0007f0 6e 64 c9 d9 20 fe c5 3f 87 ad 74 cc fc 05 c7 3f
       0.17181788095584544 0.17987022383873016
