results/run_3/good/saved_model_Interpolation_UNet3_AdamW_SmoothL1Loss_2_128_False_15.pt (torch, 354592 bytes, 75 tensors)

module.model_upsampling.down_path.0.block.0.weight f8 [8, 4, 3, 3]
00000000: bac8 490d c5b8 af3f 0a6e 2c3a f48d ce3f
00000010: a796 e017 64ac a83f 53bb 42c7 620f a9bf
00000020: 4def bad9 7a35 a33f 42e5 93f1 ed49 a23f
00000030: 3d84 5a4a 39c3 c0bf a0e6 5a14 c3f0 c7bf
00000040: ccd5 f378 63f2 c9bf 2ac5 ae13 67af b23f
00000050: f9f8 aaa9 d09a a83f 8219 ac88 ea34 c2bf
00000060: ac26 5e8b bc3f c43f bdd8 8584 7f92 abbf
00000070: a881 ec15 6cd7 cbbf a9f5 ae12 39ad b53f
00000080: d027 be99 c442 ca3f 134e 6842 99a4 c1bf
00000090: dcd4 7c1d b4ad b9bf 0bc2 9d39 fc96 c1bf
000000a0: 754b 1f8a 8fd0 713f c03f cca8 0580 6abf
000000b0: 3c1f 9750 f2ec b8bf 9705 9504 b734 c0bf
000000c0: e5a2 c6d8 a7ab b3bf efb3 17c7 cd89 d2bf
000000d0: f3b9 27b8 2298 b7bf c263 4cc3 1331 983f
000000e0: 3a20 5667 a0e5 89bf f891 825f 34d6 b6bf
000000f0: 5bf8 db64 02f7 913f ed9c 18ae bdef a5bf
00000100: d67a 3b19 fcb2 a3bf da53 ef0d e17e b53f
00000110: 6e38 6bbc 353b 96bf df7a fff5 1fc3 a8bf
00000120: 86be 444a b8e1 b1bf 64b0 917c 2522 ba3f
00000130: 21a3 79c4 c7fe 8b3f 5c45 297f 159b b23f
00000140: ee87 b6b5 ea6e 98bf a0a1 1a68 a843 a33f
00000150: 0d59 42ce 97df 62bf 8d07 ff64 e7d1 b9bf
00000160: 468f f6f0 cfef b13f d3ce 32a6 b65e a93f
00000170: c78e fe76 c098 9f3f e1d8 2c2e 83e5 97bf
00000180: 8a30 8540 7013 a63f a30f e326 81d3 c33f
00000190: 4f94 0738 90b3 c7bf 9446 b1e3 71a8 96bf
000001a0: 9105 c2d4 ec9d c3bf 2b6f 0542 13ac babf
000001b0: 9401 4a31 917c b83f b681 b805 5480 acbf
000001c0: 6343 21bf 7155 b9bf 460c 3353 8254 c63f
000001d0: 460b c158 16e4 b5bf 4c6b 66b0 31f5 babf
000001e0: 0a29 a47e 17e9 b73f f6f5 e2f6 87a4 b63f
000001f0: e3dc 5af8 a10a abbf e690 73a8 64be aebf
00000200: 0610 9859 d445 bc3f a5ff aa84 083d b03f
00000210: 12c6 081e 26a6 a53f 01d6 3d5d 2205 ae3f
00000220: ca11 ce11 c9a1 c13f dd36 c8b5 8361 c03f
00000230: 2041 44ce 4b33 b1bf b8a9 2dae a35c 70bf
00000240: 3e65 f70f c410 b73f 2e88 5423 f5b4 b3bf
00000250: 47fb 840f cc77 c03f d68f 6007 a9d6 a33f
00000260: 4ade 5198 c6f0 d2bf e8ef e594 7902 ccbf
00000270: 3798 119b 95c1 babf ad55 f2d7 b40b c63f
00000280: c367 ff88 82ba b73f a443 df18 1b92 94bf
00000290: 7bdb 788e 1d6f a43f c357 4ec2 bd6f c4bf
000002a0: 89ad 0558 7c29 bbbf 0f0c 9880 8371 c8bf
000002b0: c48a b12e a224 b0bf 7575 5bd3 d552 c2bf
000002c0: 50a5 201e a002 c6bf be5b 50bb a9bc 82bf
000002d0: d6ed af16 a71d b03f 671b 6054 3e5d 97bf
000002e0: b45e 265b 9801 b1bf 6239 9de0 91a7 c43f
000002f0: 6eee 65be e01b c2bf 30a3 8032 8e23 c5bf
00000300: 11ee 5279 dcd1 b93f 619f 5d33 d3d2 a9bf
00000310: 875d eb39 cfa4 be3f 99d6 a689 241f a0bf
00000320: 3e87 b344 14a7 873f a79e a68e 71f2 963f
00000330: ac8b 7d94 3be6 b1bf 9c1e fe36 795c bdbf
00000340: 94e3 7eb3 f715 c1bf b590 cd6b 9f3a a4bf
00000350: abfe 7d0b c0aa b53f 29ae 3f7d 657f b53f
00000360: 20e2 fbc5 cc3a b53f dde7 a99b dbfc ad3f
00000370: 5e9d b512 7ca4 cc3f 68ea 10fb faad c03f
00000380: 227d 0254 39fc bb3f 13c5 4813 f012 b73f
00000390: b470 604d a981 aebf f071 24a1 6d9d c53f
000003a0: e994 cf75 46ca 713f a344 8b50 9450 c1bf
000003b0: 17d3 38dc d745 a63f cfa7 2d6d dd90 cfbf
000003c0: 8bcf a688 6d24 c1bf f134 2d5a cf39 c8bf
000003d0: 7922 31cc 4bb9 9fbf 6b6b c23d 8b1d a73f
000003e0: 0571 d83c 723e 8c3f f0ca 7f5b 364f b33f
000003f0: 3404 e391 ab02 913f 9bc2 b436 e542 b63f
00000400: 80d0 f5a4 cf89 c23f 616a 985f 2003 a2bf
00000410: 1ce4 5f7c 2648 bdbf 7754 ce22 b726 993f
00000420: 17b5 9eef c4e5 c53f c49e 9f72 aead 823f
00000430: 5a05 3287 e72b c23f 7d19 e698 9f3a c23f
00000440: 723d c8ef a11a c03f b597 1092 b03a b9bf
00000450: 05ee d8b8 af47 b7bf b390 0607 2a07 8d3f
00000460: c0fc 5cb2 9ca0 b8bf 84b2 ea01 6d24 aebf
00000470: 909a f2c4 2b39 c23f 7233 d544 732f bdbf
00000480: 0a2c 82e8 21fb c73f 1b28 7088 f539 c73f
00000490: c9b7 70d2 5aa7 c13f 0cc2 7201 030e 97bf
000004a0: 1b97 cc86 d801 a9bf 7055 a1a1 4447 b6bf
000004b0: 8c56 dd74 c629 a8bf cca6 09c1 543a 78bf
000004c0: 4d67 c131 7217 ac3f f02a 5540 a51f b53f
000004d0: b983 2464 c4c0 9abf fcf9 6236 ca61 bdbf
000004e0: ac28 edeb cc22 b03f f17d f021 9dc8 98bf
000004f0: b6f6 fa4c 6598 d0bf e109 ed64 a14f c43f
00000500: 722d 2df8 128b b13f 46b2 2fb4 5feb c1bf
00000510: d6bc 7797 5083 b9bf b007 b6ff 5825 cbbf
00000520: d066 91c0 167a bbbf 7e08 1f64 e30c babf
00000530: 87d3 c01d f19b 943f 0268 f969 fcda a5bf
00000540: 7bf3 00ae 5ec9 67bf 3788 e5ce 2eda b73f
00000550: ebd5 95e8 47b8 b13f 1085 8619 aebf 94bf
00000560: f31b 234d 77d8 c23f ec22 d91b 56f1 bdbf
00000570: 4afe 2073 e2ae b7bf e4f7 525b 45f9 a7bf
00000580: 45e0 c05d d9fc 5a3f 767d cf71 8f47 a13f
00000590: aa4b 24bc 7fc7 8bbf 763b 8168 3302 62bf
000005a0: c20a 5798 f01e c4bf 95a8 1703 ba08 ccbf
000005b0: 1e84 8ca6 9f9a c7bf a6bd faec 288f c13f
000005c0: 76c2 fe01 4357 b43f 888b acad cf56 d3bf
000005d0: 29b6 6c8c edff bcbf 23ad 10c6 d465 c1bf
000005e0: 5472 884d 472b d2bf 0116 9cf2 b568 b5bf
000005f0: 5df2 6fb7 8b06 8a3f e826 ea56 9ce4 bbbf
00000600: 2257 7762 82cc bb3f d5eb 00c9 347b d03f
00000610: 18c2 c3b7 df88 cb3f 027c 95f1 df89 c83f
00000620: 3aa4 6b0e 6eba b63f e007 baa6 4d91 9cbf
00000630: cf2c f6df c8d9 9a3f e3af a3ba 8f65 a93f
00000640: a867 5329 6b63 853f c840 807a b0d6 833f
00000650: ef51 58d3 3509 85bf b605 c34e f3b1 98bf
00000660: 6a28 f8e0 832a a0bf face f376 ba16 bf3f
00000670: e5b5 b8a4 a778 84bf b5b2 5a88 cf8f 9ebf
00000680: 42a2 d1a6 0f5f c03f 5cb9 74ac 9ae2 bb3f
00000690: 57ad 87ee 397e bebf bfe1 6ffc 399c bc3f
000006a0: 36d3 bc6f 25dc 913f 3937 6312 ddb6 a03f
000006b0: a7ba 1538 bbcc a8bf ffac 00bf 564c c63f
000006c0: 91c7 808d 79a0 cabf 12b9 03a6 a812 b0bf
000006d0: cc3c 2bdb 8ac0 9cbf 7ecd 8aa9 b6b0 9bbf
000006e0: c667 882b 8ec5 bb3f 08c6 b9ff 8257 86bf
000006f0: 448a d3d7 cc06 c5bf 62d8 6579 66c4 cd3f
00000700: 8bf2 9852 7877 94bf 3830 aea9 3917 cbbf
00000710: 42c7 b5b5 d96e b63f 4872 9449 cf0a bfbf
00000720: b6b3 e96e c33d 893f 2125 d8df d2a1 bb3f
00000730: 2854 2f32 16fc bf3f a3bd f406 22a8 71bf
00000740: c259 9d7f 54ba c53f d45b 27f7 8e13 c3bf
00000750: 0f14 d09d 1596 b23f 9411 ae91 1725 bb3f
00000760: 4f8e ae68 884e a9bf 1d44 1161 e827 a43f
00000770: f19a 8663 bdd1 7fbf c3f8 69ab 063e b33f
00000780: a0cb 8f84 65b8 bb3f b16f f67c c55c c23f
00000790: 62ee 749f 6671 c83f cc1a 7cca aaa1 b9bf
000007a0: ce0b 3771 2c4a b93f 066e a331 1e2f c1bf
000007b0: 6cea c69a 8af3 ad3f 90da 5130 de1d c1bf
000007c0: 7d0f baee 7739 adbf 8d99 525c c9e2 b93f
000007d0: 2524 b8b7 db6c b5bf e6b3 1eba 1167 a03f
000007e0: 8737 933b 5f33 763f 70ac 7f2b 1c46 ce3f
000007f0: 4187 51ec 51d2 bb3f 1688 5ae6 75c3 c23f
0.06195655619821268 0.23870709267144746 0.04819023887129719 -0.04894550974255787 0.037517394140620476 0.0357202870745348 -0.1309577572874633 -0.18703497404003588
-0.20270961194880355 0.07298893194708414 0.04805614539280784 -0.14223987267923738 0.15819508366648927 -0.05385206692419462 -0.21751166410923628 0.08467442232264112
0.20516259676906978 -0.13783565275717588 -0.10030675620949431 -0.13742020428937027 0.004349289609268382 -0.0032348738226417317 -0.0973655173066818 -0.12660873149620208
-0.07683800737744269 -0.2896608776343887 -0.09216515537239171 0.02362471465594119 -0.012645009187295487 -0.08920600253856736 0.017543828397713273 -0.042844703199358715
-0.03847492034923554 0.08396727171141496 -0.021710242867634504 -0.048363684443520454 -0.06985046208569132 0.1020835332034849 0.013669548686452484 0.07267889360925522
-0.023860614148027474 0.03762556334305889 -0.0023038830714298187 -0.10085912910201796 0.07006549485100519 0.049550731456660245 0.030856139433707932 -0.02333645791369399
0.04311705386734939 0.15489210509087767 -0.18516733871288912 -0.02212694122528676 -0.1532569922310754 -0.10418815957876564 0.09565074399325219 -0.0556665665610611
-0.09896002689607779 0.17445401251288412 -0.08551158587310423 -0.10530386501924943 0.09340044824435637 0.08844804551605265 -0.05281549603153637 -0.06004633480350367
0.11044051349023229 0.063431293859138 0.04228324047688771 0.0586329211063621 0.1377497994364048 0.12797590614393686 -0.06718896661573526 -0.003994597794056913
0.09009957685284051 -0.07697994339517386 0.1286559177187547 0.03874710288098952 -0.29594578623752865 -0.21882552881640938 -0.10451636348588599 0.1722322515894751
0.09268966526670312 -0.020088599579881752 0.03991024364625325 -0.1596600722083946 -0.10610177182177528 -0.190964162626273 -0.06305898323038678 -0.14315293140581856
-0.17195512267179902 -0.009148908642641614 0.06295246414077069 -0.02281663312899287 -0.06643058991755418 0.16136382548797729 -0.14147576615129104 -0.16514756647054574
0.10085847818384532 -0.050436592121342334 0.11970229305312872 -0.03148760013884306 0.0115491469827621 0.022409223872868946 -0.06991932273153506 -0.11469228355974298
-0.13348289741932418 -0.03950975600199184 0.08463669090815056 0.08397516544180718 0.08292846520988251 0.05856977725211696 0.2237696734766627 0.1303094602497652
0.10931738186853981 0.09013271780783709 -0.0595829874948505 0.16886682861594648 0.004343295321608689 -0.13527158673108372 0.04350161135918123 -0.24660842734311791
-0.13392419025842303 -0.18926422026780856 -0.030980285966764918 0.04514727715396457 0.0137909817522588 0.07542743429057075 0.016611748484823788 0.08695824227903375
0.14483066134164702 -0.035180102986676294 -0.11438217674721368 0.024561749934566692 0.17107450199311167 0.009120333550483813 0.1419648561605225 0.1424140450073529
0.12581276138414982 -0.09855178419147033 -0.0909375978744081 0.014173820819287952 -0.09620074610301099 -0.05887165687940857 0.14236971966348166 -0.11400528364647558
0.18735145428613037 0.1814562717630118 0.1379197623768376 -0.02251438804950294 -0.048842207388856994 -0.08702496477174804 -0.04719371964044425 -0.0059150038438048995
0.054866379331271455 0.08251412220594623 -0.02612597333166253 -0.11477340534018049 0.06303101310655518 -0.024202780910966785 -0.2593014957200056 0.1586801283647921
0.0685283523463818 -0.13999553964767325 -0.09965995500509747 -0.21207725988284443 -0.10733167840353564 -0.10175915903440289 0.02012612098788538 -0.042686355530079836
-0.0029036378109865125 0.09317295600115548 0.06921815327026308 -0.020262451465559883 0.14723101870023889 -0.11696375064742498 -0.0925122767521255 -0.04682366123004991
0.001647197982505248 0.03374908699310712 -0.01356410782731195 -0.002198315054591611 -0.15719420851208638 -0.2190163149928749 -0.18440623886365953 0.13718139239561572
0.07945650862417061 -0.30217353782989465 -0.11328015020691197 -0.1359201399912787 -0.2838915116460943 -0.08362900899017946 0.012707797561227691 -0.1089570724672303
0.1085893144985133 0.25751990918405215 0.21511455986866745 0.19170760437097562 0.08878219463407869 -0.02789803819769776 0.0262214075751615 0.049602977307443806
0.010443532179511397 0.009686831224854933 -0.010271473419416003 -0.02411632698272622 -0.03157436486442651 0.12144055751906171 -0.009995755876924537 -0.02984546918621574
0.12790103574231365 0.10892645559645103 -0.119113560423718 0.11175882733358032 0.017441353745385878 0.032645138258529056 -0.04843697604780078 0.17420467687893645
-0.2080223027165258 -0.0627847104367201 -0.028078240992553558 -0.027041296098742056 0.10848320544064824 -0.010909102849129063 -0.16427002466578433 0.23255616119030537
-0.01998699192175705 -0.21164627823998372 0.08762894331246421 -0.12125869318374172 0.012324835607808154 0.10793798413228163 0.12494028783051248 -0.004310734671249791
0.16974884253677486 -0.14903437679342224 0.0726026068005725 0.10603473002090019 -0.049427283075854526 0.03936697182565061 -0.007768382835286345 0.07516519246016444
0.10828241812104844 0.14345615960780614 0.19096071992850044 -0.10012309497333688 0.098788049354922 -0.13425042556524164 0.058498698609999206 -0.13372399672853819
-0.0570790747561025 0.10111673835726816 -0.08369229541143904 0.032036355943411185 0.005420085909646383 0.23651458858452967 0.1086779787015333 0.14658998248802452

module.model_upsampling.down_path.0.block.0.bias f8 [8]
00000000: d2f2 5d72 e995 c03f 72fb 5062 562a bb3f
00000010: d2f1 5c72 4fb5 84bf 00e0 14cf e846 b93f
00000020: b733 e7d7 a378 8cbf e91e 3f68 5a1e ba3f
00000030: 577b 6d09 96f6 c13f edac b7ea 0879 a43f
0.12957494816136844 0.10611476803113165 -0.01011144702680947 0.09873824172689183 -0.013901977564182972 0.1020256523616997 0.14033771000228043 0.0399859224815716

module.model_upsampling.down_path.0.block.1.weight f8 [8]
00000000: f4fc 597a b195 ef3f 93d9 4480 38b9 ee3f
00000010: 7e9a 2d71 5f95 f03f c508 751e 9c2f ef3f
00000020: 2ad7 8013 04d1 f03f 7a3d 5149 110c ef3f
00000030: 7c28 3c74 d555 f03f cc40 f04b 4309 ee3f
0.9870231046369597 0.9601099496128874 1.0364679738064804 0.9745617480150705 1.051029277977657 0.9702230865458852 1.0209555187634853 0.9386307223485573

module.model_upsampling.down_path.0.block.1.bias f8 [8]
00000000: 6dd7 ac71 73d7 c63f a298 45d9 b33f c23f
00000010: fb90 5b54 4caa c23f 0294 787a b8af cb3f
00000020: 1971 fe68 6fbf d23f 8238 1f21 5be1 b03f
00000030: fe0a aaca 17e6 813f c76b cd99 f217 c23f
0.17845004129929568 0.14256904705979873 0.14582208746936218 0.21630006771115978 0.29293427708923186 0.06593865927354339 0.008739648697206 0.14135582456478188

module.model_upsampling.down_path.0.block.1.running_mean f8 [8]
00000000: d653 ef63 b0db cdbf 00af 2283 47b8 f33f
00000010: 48ab c865 8a78 e1bf 029c 29e0 7341 823f
00000020: 2250 8e8e e8b9 d4bf 234d f61e 4e1e f23f
00000030: dd52 18d8 35ae debf da13 83f7 2e12 e43f
-0.23326687698013754 1.2324900743942067 -0.5459644306150517 0.008913903501889923 -0.3238469497821389 1.1323987206895445 -0.47938295462635755 0.6272196611613439

module.model_upsampling.down_path.0.block.1.running_var f8 [8]
00000000: 35ab 66de 79f3 b33f 0bdb 725a 7f12 c63f
00000010: 63df a89e 478d b43f bbea a3a7 31ec a63f
00000020: c45a d63e ebdc a93f d0a8 c996 d632 c53f
00000030: cf3e 0528 6a20 b33f aea6 0adc 213e b83f
0.07793389968598492 0.17243949810446 0.08028075812842199 0.044770766939071525 0.05051360265786323 0.16561395991022332 0.07471335866034255 0.0946980631075813

module.model_upsampling.down_path.0.block.3.weight f8 [8, 8, 3, 3]
00000000: d917 5d87 bcfa afbf 3c30 8ee6 b29c a93f
00000010: 249b f3b5 1d39 abbf 6be0 7b9e e7d3 adbf
00000020: 1a4d f055 6f72 ac3f 5241 3113 236f babf
00000030: 9845 daff 5fca afbf 147c b4b4 fef5 503f
00000040: ee77 faa2 36e5 a0bf 4315 fb5c 249e 8b3f
00000050: b082 71f6 4640 bcbf 81be 58c7 3289 af3f
00000060: 2769 53a3 a95d b8bf fd30 2646 f1ad aa3f
00000070: 8960 6c20 11aa ba3f 7d03 1dc2 9bca b7bf
00000080: bb21 7b08 2f38 c23f 78df 165e 8820 c2bf
00000090: cb47 a217 8dfc b0bf b0c2 800e 185e a9bf
000000a0: 7b30 0df5 229b 823f 5fef 65f5 ca6c 9bbf
000000b0: f4bc 408a efa8 bd3f c088 4db9 07e5 823f
000000c0: c085 9813 6c3d a33f 99dc 3976 3ad0 b33f
000000d0: 5593 8130 74cd c2bf eb23 905c cf4a a9bf
000000e0: 4876 4e38 6d09 bf3f 3c65 13f2 c519 8dbf
000000f0: 1aca b205 77b2 a5bf d2da fc80 79fb c1bf
00000100: 81e6 44de db4a ba3f 7111 d23a f94a bcbf
00000110: c3fc 34fd 9075 83bf df1f c0cf 23e6 7dbf
00000120: eacd 58d7 68e2 a0bf f83d 847b 8db4 aa3f
00000130: fb0e 8a41 0008 bfbf f092 fab2 2be5 9bbf
00000140: 2be4 587f 5fb3 a2bf 76a7 2904 be60 afbf
00000150: c9f8 d15c 27c6 9a3f 9496 fe4b 24e1 bf3f
00000160: 8d75 257c e550 883f e263 65cb 922e a9bf
00000170: 0405 81ec f90a b63f cf9e 7ab8 a00e b1bf
00000180: 1abc 01d2 18a2 a53f a8b8 b15d 9c5d c0bf
00000190: bce5 dc8c a68c bbbf 3d88 ca76 aadb ae3f
000001a0: ce9d 1e2c 3b6d b9bf 7038 5039 de5c 7fbf
000001b0: 21c1 92d7 b8a2 91bf 39a6 24b6 6f7d bb3f
000001c0: 28db af09 e227 b83f fbbb 8543 790a 973f
000001d0: 45d1 5b51 7c6f b1bf 6708 6a10 0bab 973f
000001e0: 3e90 2ee5 785b b83f a2d2 c1b6 a1a7 1a3f
000001f0: d54f 2e49 d994 80bf 107a 20b1 2d63 93bf
00000200: 9717 3947 e174 c2bf 79ff 8b3b 20a5 a0bf
00000210: d71c 2b16 0633 b5bf a3a7 f51d 372a 9ebf
00000220: 87e8 5713 ff87 afbf 466b f1f8 7845 a2bf
00000230: 805d 6406 7ac7 b2bf 034b 0780 ddb8 a9bf
00000240: a6a6 8082 53b7 7f3f b32f 80f4 7b5b af3f
00000250: a3f5 5bd7 efe1 c13f 97ce 0928 b3ea 993f
00000260: 413e a2bb d258 b3bf 80a5 684f 270d b33f
00000270: e329 3f46 5a88 90bf f069 764f 0dc0 bb3f
00000280: 8b01 7c1b ae2c 96bf 7cf5 0e87 b2f6 763f
00000290: f24a b428 e36e d0bf fdcf 1df4 e1f6 bbbf
000002a0: eec7 7b4f dbf1 9f3f 0a28 286d 9542 c2bf
000002b0: b0ad 7fa1 7c53 bbbf df9b 4f22 b719 a3bf
000002c0: ed85 7613 923f 9d3f ed8c e6fe 0fac a53f
000002d0: caca 2035 0490 b4bf 4a11 8438 b3a3 85bf
000002e0: 1f40 e767 fb7b bfbf 53c8 d6ac 65fa 833f
000002f0: e108 bfae 7d84 bf3f 32a8 11e9 21be 413f
00000300: d6ed b7fc bc70 86bf 63f4 2327 52bf bd3f
00000310: b25a c4d6 0816 a23f c429 c679 8bd3 b9bf
00000320: e46d 12d5 6085 a3bf 2a2d d951 6e72 b9bf
00000330: b1ff d5b8 e2ff 77bf c786 5b5f f725 c4bf
00000340: 58f2 3431 3eef 85bf 1625 bcec f5ca bebf
00000350: a6e8 5174 33df a2bf dc74 0c92 951e a9bf
00000360: 7e1e e10e 26b0 babf 62d9 057b ad16 b3bf
00000370: c5d6 15e4 6278 b53f 6b10 f7e1 96fe b7bf
00000380: 8b3a 7efb 05f0 b0bf 6d15 92a3 8537 c33f
00000390: b500 61a0 6bdd 97bf b471 ae99 e345 bc3f
000003a0: 1935 e0d9 3ac0 b33f e8b7 f7a7 5690 bdbf
000003b0: 9768 ffd8 2e5f bcbf c024 ec9c 5091 bd3f
000003c0: d39a 1f61 dab0 b83f 2dd3 1329 967e ad3f
000003d0: d97b 2453 24eb a43f ecd0 6e27 0522 a8bf
000003e0: 82dd 1f99 c3fd a1bf 1557 f3a9 9aca a13f
000003f0: ad63 1866 29f2 b4bf e3cd 8c91 7441 a4bf
00000400: bf13 7daf 76b5 833f de8d c079 516e aabf
00000410: 1c2e 85c1 b30f 58bf d3f7 6041 ca28 aebf
00000420: 2e22 5480 b53f ab3f fa4b 416a a876 7cbf
00000430: 54e0 d7cc 05e0 8abf 1b22 e524 6937 903f
00000440: 6fcd c9c5 9951 a83f 0a3d ec27 224f c13f
00000450: 1a01 e993 692d be3f 5bcb e298 e755 94bf
00000460: fa09 3515 950b b03f a5ec cecf 937c b43f
00000470: d7af 435d 8950 b4bf f197 9e7e 575f b03f
00000480: dd7e e64e f0db ba3f d312 87b7 e1cb afbf
00000490: 1222 cbb3 4c1c a3bf ac39 d976 3805 ba3f
000004a0: f7cb f415 c1c0 b03f 8efd c0db b4ae 833f
000004b0: 9537 ed77 bcbb a63f d59e b095 29c0 c03f
000004c0: f11d 3dd9 69bf c03f 337c aa28 6222 873f
000004d0: 2edd 3ef5 9832 bf3f 3938 ad97 623c 7c3f
000004e0: 1ffe 761e 492d b3bf 278a 5078 7271 a9bf
000004f0: 90b6 e57d 8732 b33f 9121 15af bd3a b2bf
00000500: 03da e70f f6d4 bdbf b59d f165 6360 be3f
00000510: d326 616d 1b32 a3bf 61fb 4d34 4437 bebf
00000520: 4bda 7dbc 5185 9d3f 7ac8 8e36 2bb1 b4bf
00000530: b627 4edc fae7 c0bf fe34 dfaf 4065 9cbf
00000540: 2068 3019 583b b03f 6269 d85e 57f1 ad3f
00000550: 73f4 b59d 1f38 8c3f 4f8c 8a6b e427 913f
00000560: aaac 1426 7980 a9bf 3f62 4be8 d669 a53f
00000570: 4ff4 b435 16ff 9bbf fd6c d828 2c76 c0bf
00000580: 3125 65ef dddb a13f 7c30 0af0 1877 bebf
00000590: edac 15bc 4eda bdbf a409 45d6 0619 97bf
000005a0: beb5 ff21 7375 95bf a638 024d 9eae b53f
000005b0: 2fb1 6b12 ffa7 8cbf fcf0 c586 fc9e a3bf
000005c0: 9403 b9f4 1865 bd3f 8ba6 d0f9 07f3 91bf
000005d0: 997f f41b faa4 9bbf 7e3e fa6e 27d9 a33f
000005e0: 134d 68bb 5cfd 743f 0c1b 9f63 3403 c63f
000005f0: 26e6 c56d b9b6 bdbf 7af2 85a9 0f09 adbf
00000600: ccca d930 a645 c2bf a0a4 3d32 1eed b3bf
00000610: 1728 c21e 3328 9b3f e135 68e2 6d6f 75bf
00000620: e702 0644 0425 92bf 9517 3ab5 fe48 a83f
00000630: d92e 97fe ec66 893f d1f9 0f8a 36ae b03f
00000640: c8fa c6f8 bd8a 873f 0a18 d27c a490 973f
00000650: 8fc9 5cd4 9f67 c1bf b02c ee32 3214 adbf
00000660: 17cb 6fef f10d 73bf 5c63 5ef6 ba45 babf
00000670: 5484 39c6 a9e6 9a3f e75c 9474 72a0 adbf
00000680: 8ecb 3128 2e8d aabf b392 7539 ff54 b3bf
00000690: 5238 5115 9a2e b03f ed1d 1757 ec92 ab3f
000006a0: 4495 a4c0 f631 a13f a2d3 28f5 a0fe be3f
000006b0: 2fcd be59 3b52 b23f 4a37 67ec 46cc 92bf
000006c0: c86a 218f 0403 8d3f 498c 008f 6c28 993f
000006d0: 4422 0045 fdda 913f cb62 33ac f3ab a63f
000006e0: b82c e96f 74f8 bc3f 4542 5d59 5da7 993f
000006f0: 5ca9 bf56 ad81 96bf c73f df7e 017a 6e3f
00000700: 6883 a164 24d4 80bf aca2 a3d3 82b8 b93f
00000710: bfa7 4fe1 a207 b9bf ac38 02d0 e362 af3f
00000720: d965 62a2 7950 bebf 855f 49b9 8bd3 a93f
00000730: 5e7d 4e47 ff79 bc3f 12c2 337a 61da 72bf
00000740: e792 ff74 aea3 b33f 2312 36be 0656 60bf
00000750: f99e eb36 3d0e 9c3f c93c 6679 158d b0bf
00000760: 2792 ec95 9d28 b73f 75da 1a80 61ba 42bf
00000770: 39e7 267e c720 783f a95f ba3c cf11 bf3f
00000780: fab6 5642 6d1e b23f 5449 feef 3734 c13f
00000790: 738a c4f4 1630 07bf d7b8 6703 2bbc 49bf
000007a0: 5ebf fc17 3af0 b5bf 6c26 1a01 f05f b33f
000007b0: 6915 4fb5 e866 983f 7148 5d9d 825c babf
000007c0: dd66 9cc2 9d33 c7bf 9d1a 8a81 0544 9e3f
000007d0: 8836 7c97 21ce ab3f 1e7c a73a 0fc3 bcbf
000007e0: 5ffc 2a3b f476 a13f b990 f8ee d693 c23f
000007f0: 020c 78a9 2859 b33f 2935 b201 e1bd b03f
-0.0624598422278237 0.050023642200443835 -0.053170135937582935 -0.05825733003251873 0.055560569038926214 -0.10325831621708417 -0.06209087370110494 0.001035212265214862
-0.0329987596462472 0.013485225760983105 -0.11035579220470981 0.06159361537390585 -0.09517917859503609 0.05210832578004163 0.10415751496873517 -0.0929353093060978
0.14233959116087455 -0.14161781877714552 -0.06635362460136134 -0.049546005030042806 0.009084961989764153 -0.026782199123302926 0.1158590042621091 0.009225902884001491
0.03757798899847442 0.07739606272103784 -0.14689495438065117 -0.04939888005180378 0.12123758911771987 -0.014209314775529884 -0.04237720436630728 -0.14048689649799556
0.10270475555889826 -0.11051900564240726 -0.00950158379293809 -0.007299556626101349 -0.03297736767526856 0.05215875752230298 -0.12121583557205533 -0.02724140434169703
-0.03652475766688953 -0.06128495980085706 0.026146521606727178 0.1245291410001193 0.011873047686715288 -0.049183451965923344 0.08610498451254861 -0.06662945274240005
0.04225232661780627 -0.12785677504456783 -0.10761490763697784 0.060269667626258606 -0.09932298495424804 -0.007656925260574807 -0.017222297818706104 0.10738275715689206
0.0943585656785727 0.022500891443481646 -0.06810738550467928 0.023113415600626654 0.09514575572262715 0.00010168003581318777 -0.008096406503490453 -0.01893302339169095
-0.14419189431845034 -0.032509810704140336 -0.08280981103154104 -0.02945791359289952 -0.0615844451057948 -0.035686283482127254 -0.07335627227836561 -0.050238534811475354
0.007743192873059057 0.061244844051628354 0.1397075463827778 0.025309371298546237 -0.07557408409979251 0.07441945732775501 -0.016145144021530455 0.10839923086169967
-0.02165481608153778 0.005606362698867936 -0.25676802611376026 -0.10923587999224078 0.031196047521866825 -0.14265697317051745 -0.10674265806999617 -0.037305567682601064
0.028562815130163278 0.042328357568544785 -0.0803225164134275 -0.010566139375904133 -0.1229855660124035 0.009754938447120198 0.12311540142312395 0.0005414643839121212
-0.010957218611102808 0.11620057540490474 0.03532436010043706 -0.1008841678905475 -0.038126970300449675 -0.09940232752085323 -0.005859265931007871 -0.15740863948945202
-0.010710225941346227 -0.12028443364774363 -0.036859138440335656 -0.049061464384274805 -0.10425031531587511 -0.07456478360641008 0.08386819904793714 -0.09372847573018965
-0.06616246595351975 0.15013189780089978 -0.023305589355232487 0.11044142248142103 0.0771519452975621 -0.11548368073246673 -0.11082737729830892 0.11549857932199625
0.09644856330087785 0.05760640384133917 0.04085649027751232 -0.04713455301626532 -0.035139191095306735 0.03474887203780789 -0.08182009451446844 -0.039561884658180245
0.009623458128439453 -0.05162291156036834 -0.0014685874394498926 -0.0589049534614642 0.05322043601524161 -0.006949098464320786 -0.01312260180837669 0.015836375119109385
0.04749756373794411 0.13522746037822514 0.11788043843353471 -0.01985895033494543 0.06267673270944121 0.08002590011067186 -0.07935389067614494 0.06395480004593403
0.10491849828985829 -0.06210236897780921 -0.037325283954093305 0.10164215947700111 0.0654411963085265 0.009610569912296165 0.04440106357524979 0.1308643322856741
0.13084147555694828 0.01129604994394926 0.12186580645981301 0.006893525244619219 -0.07490975374002361 -0.04969365805324726 0.07498976539292301 -0.07120881580806883
-0.11653077972719221 0.11865826834547628 -0.037491662122716506 -0.11803079869239987 0.02882888520204067 -0.08082838136650308 -0.13207946545690924 -0.027729998335236587
0.0634055196282195 0.058481912925531856 0.013778922081423261 0.016753739417833476 -0.0498082980141928 0.04182311616540745 -0.02734026625443092 -0.12860633844761785
0.034880576584848895 -0.11900478229853378 -0.11661235896979223 -0.02255640681074457 -0.020955847692609934 0.08469571476072932 -0.013992302655844028 -0.038322345210845626
0.11482387518573339 -0.017528652784824444 -0.026996524769060313 0.03876612882333762 0.005124437555895217 0.17197279800731058 -0.11606940202718671 -0.05670975632071858
-0.14275052438059388 -0.07783688284475199 0.026520537140221814 -0.005233220325420147 -0.017719332362960662 0.04743190729372696 0.012403346557128202 0.06515828009285164
0.01149509826143226 0.023012704962205567 -0.13597486371288567 -0.05679470893581973 -0.004651970920337665 -0.10262650027142456 0.0262705352055302 -0.057864739161397165
-0.05185837021499316 -0.07551570084394647 0.06321108837548309 0.05385531008829134 0.03358431912992413 0.12107282624567842 0.07156725827262699 -0.01835738008394764
0.014165912263867667 0.024568268039854044 0.01743694051404733 0.04428063847598692 0.11316611988256653 0.025052507953036835 -0.021979053897589793 0.0037202862940617118
-0.008217129059802722 0.10047166506741217 -0.09777276993523197 0.06130134500664161 -0.11841545309507441 0.05044209133910641 0.1112365292633419 -0.004602795382411278
0.07671633106617613 -0.0019941455554450967 0.027398067929339274 -0.06465276922084508 0.09046349439865563 -0.0005715347362727623 0.005890635746647104 0.12136550171487549
0.0707767760238446 0.1344060823290173 -4.422731453447995e-05 -0.0007853708291898587 -0.08569682202937431 0.0756826403322976 0.023830066744058884 -0.10297409383682223
-0.18126270296561744 0.02955635646005793 0.05430703138527543 -0.11235137159336303 0.034110672209401775 0.14513670605186293 0.07557920586991432 0.06539732257279653

module.model_upsampling.down_path.0.block.3.bias f8 [8]
00000000: ef9c 5b8d 6f5e 9cbf c2b8 f06a 4cce b33f
00000010: 8652 9c23 38fd a63f 8eef 056b b669 b8bf
00000020: 5691 1c88 e012 a73f a45a 17ed 2213 b43f
00000030: 5402 2453 532a 8fbf e750 e068 d730 90bf
-0.027703993799971845 0.07736661539886128 0.0449006598920834 -0.09536304581518903 0.045065895667252207 0.07841699875221281 -0.015217448210479358 -0.01581131532300697

module.model_upsampling.down_path.0.block.4.weight f8 [8]
00000000: 842f d182 1db9 ef3f d0eb 7efb c5e2 ee3f
00000010: 8b4b d037 ba57 f03f 2541 7a84 185b f03f
00000020: 55f1 7167 18fe eb3f 3a79 2e6e 820d ef3f
00000030: 2d30 8d26 cd19 f03f 5f8f cd7a 990e ef3f
0.9913470797559829 0.9651822959925713 1.0214178257199105 1.0222401785759498 0.8747674961482895 0.9703991081221723 1.0062991624754531 0.9705321691985594

module.model_upsampling.down_path.0.block.4.bias f8 [8]
00000000: b9cf f34b de45 ba3f 5708 ab14 9716 b53f
00000010: aeac 6861 4959 b43f 1145 e652 2460 a33f
00000020: b680 02aa 80e0 c43f 6a69 21a2 6f74 bd3f
00000030: 97cd 47d8 707b b03f e958 7f37 0722 af3f
0.1026286063604961 0.08237594847290218 0.07948740604540447 0.037842879409376924 0.16310127545603387 0.11505792339577217 0.0643835571316259 0.060806489491072764

module.model_upsampling.down_path.0.block.4.running_mean f8 [8]
00000000: d133 5e97 f3d1 ddbf ae48 74d5 15b9 b8bf
00000010: 004a b8fe 2c98 87bf ef55 b477 07e1 c93f
00000020: 765b 2d84 13f1 b4bf d393 9881 ef18 d43f
00000030: dd5b 44c0 d449 dcbf e019 aaf6 3c14 e0bf
-0.4659394243433868 -0.09657417737278948 -0.011520720981057941 0.20217984528487373 -0.08180353142721039 0.3140219464860909 -0.44200629020764187 -0.5024704759278471

module.model_upsampling.down_path.0.block.4.running_var f8 [8]
00000000: 37cc b712 56b4 ce3f 98f4 1701 4046 cc3f
00000010: 6d22 b464 56be c63f bba6 383a 0d42 d53f
00000020: 24b2 12c8 15db cb3f 1eb3 5749 8c3a cb3f
00000030: 6415 8231 85fa d63f 8497 6111 4d26 d93f
0.23987842477763063 0.22089386037251724 0.1776836387364428 0.33215647397683384 0.2176234461707206 0.21272424298458587 0.3590405448415679 0.3929627103556117

module.model_upsampling.down_path.1.weight f8 [16, 8, 3, 3]
00000000: e98f f41c 9dee b2bf 64a3 630b 4f89 a6bf
00000010: f9cc 4a60 491e ad3f 8c42 b319 6d7a bcbf
00000020: 67eb 26fe 2f30 b3bf cdb2 236a fee9 bdbf
00000030: bd5b 9dc5 2bf1 963f 0749 e3eb b727 b9bf
00000040: afce 263f 2978 b8bf 7cf9 a161 65b4 a1bf
00000050: 267e de65 987f a1bf f76f 95e0 bc33 aebf
00000060: 784b b8b2 30e7 babf 40e9 6f6f a26a 84bf
00000070: 5eb1 61ed 09e8 b03f 4408 7750 f229 a03f
00000080: 14e4 1673 af4b b4bf 1b7e 18c9 af13 a4bf
00000090: 3316 9224 c5bb a1bf 9953 dec8 b2a8 b8bf
000000a0: a35e 9a34 1552 b33f 3fad 6d1f eb4a b2bf
000000b0: 6b9e a641 0738 bebf c8c0 711d 7836 acbf
000000c0: e876 5661 c366 74bf ef40 465f ad8d 8a3f
000000d0: efdb 5612 4154 a03f 94d1 174f 02c7 bfbf
000000e0: 6a8b 72f1 6db1 a3bf 98fd d3a9 cf76 973f
000000f0: 7b16 75e0 1469 bfbf db13 8758 6b6a c5bf
00000100: 3666 aa8b e048 983f 3034 1868 7618 b2bf
00000110: e825 ecc4 23ec 9fbf 112e 4bab 4dcc a1bf
00000120: af61 ace3 60bc 813f 020e 9ba1 f11a a3bf
00000130: 986d d2c3 14f9 9fbf 899c a6f5 5484 bc3f
00000140: 0ce6 d2ac 611d a8bf 358f b2d7 6b7c b13f
00000150: 7d1c 6413 a906 9a3f beea 4508 ce20 a53f
00000160: 1889 1b19 261f bf3f 9aaf d166 bf31 913f
00000170: fbc3 a75e a175 a13f a539 22af 500b b6bf
00000180: 2570 5dca bffb 743f e74c be64 eb3a b03f
00000190: 744b d7ef 58a0 a23f 2e81 161d 2d44 b83f
000001a0: 498b c2c1 8c11 ac3f bd9c 95bd e5c3 b83f
000001b0: 80a3 0d6b e463 bcbf d9cf 1c89 8456 b63f
000001c0: 0b3a f2d9 f95e a23f 1ec2 1985 a2cb abbf
000001d0: 5377 68cd 4731 a1bf f2f7 dfce 300c afbf
000001e0: 1af8 0995 09a0 86bf b523 33a0 1cd9 96bf
000001f0: fdda da29 723b a93f dd1d 8d31 1b09 bdbf
00000200: 3e20 7788 b50f b0bf 98d1 d3e9 b9f3 a9bf
00000210: f7f6 3b0d b707 b73f cdc7 b23d b9b6 963f
00000220: cf45 dfdd 4024 9a3f ae5b 22ac b14a c33f
00000230: d18a 9b7e 4b0d a43f 906e a89f c207 9c3f
00000240: de7c 8334 1809 803f 04e7 cbf5 8cf8 a73f
00000250: 72b3 c55a d845 b6bf dc48 2404 8782 b4bf
00000260: 349b 8207 7f2d b33f c1f3 830a f650 b83f
00000270: 1d7b 67a1 a9f9 a2bf 5914 d35a f821 b33f
00000280: c0f4 b8fd 851f 4d3f f4cf e6c6 554c 72bf
00000290: a281 23ab 36e5 963f a908 e940 a351 b4bf
000002a0: 5003 88bd bf26 ad3f e3b5 1bca a117 c0bf
000002b0: 2efe 52c8 07ab 973f e9a4 2685 a535 b33f
000002c0: d56a 27ff 8236 a0bf e7d7 c7aa cea1 a5bf
000002d0: 409c d223 1232 adbf f07e a339 7b2b ba3f
000002e0: e121 99ec 04df 923f ace8 e436 bd94 b13f
000002f0: 241d 0b72 05ca a4bf 4355 60eb bcf3 a4bf
00000300: fba4 95d7 abf4 adbf d58f 834a f366 c03f
00000310: 9f90 6389 7434 abbf ac7d ffe5 19e8 b0bf
00000320: 92d7 2d39 3bbc b03f 47a9 8b84 2023 963f
00000330: e042 8ac9 8f93 b1bf fabf 49ab 7379 b0bf
00000340: 5ca4 03f8 4c89 bcbf 51a9 a0d7 3de4 bd3f
00000350: bd3a e6a0 49cc b83f aba0 c363 3783 b1bf
00000360: 615f ee2e 3930 bb3f 9b2f 0746 5b41 b83f
00000370: 966a 83be 7c00 bf3f 48ae 3b5d 91b7 a9bf
00000380: 2d07 ab4f dac4 983f 72eb 4d46 0bb8 c03f
00000390: 0969 7ee2 bad5 9cbf 0b84 52ff 3c29 a8bf
000003a0: 7dde 14b4 ab6b ba3f 26ef c3e5 add0 afbf
000003b0: f4a1 f6c3 2488 babf 6a92 7b26 3a56 b5bf
000003c0: 72fa 6904 1cd7 b8bf 8bc3 3c27 4b6b 9cbf
000003d0: 4a57 9475 5abd 93bf cde5 6ce0 b5b8 993f
000003e0: 1c3a 5dd1 140e b9bf bacb 3c79 7e72 973f
000003f0: 6418 aaf6 572e 33bf 0fa3 3f5b e7d2 b6bf
00000400: 0966 e955 262f 763f 113c e8fe 6755 a2bf
00000410: 3008 ca29 50b0 973f 3c88 47ea 15a3 c23f
00000420: e43f 5248 45c8 9c3f e209 f92a 2973 c43f
00000430: 0ea4 e009 e281 acbf 2a59 10fa 8a85 96bf
00000440: 4a42 ac56 c87c a83f 641f 03fb f836 c1bf
00000450: aca3 540d 5606 b1bf d239 1873 0fce b63f
00000460: e3c0 c66a b6ae b63f ded0 b382 dbb3 aa3f
00000470: 023e 8074 2bb6 973f 9929 a7c7 b000 abbf
00000480: 769b 3054 510e 9b3f c3da 8352 7317 b83f
00000490: 2439 63e8 5afc b33f ffd8 105a dfa4 ae3f
000004a0: 634e 584f 04cb b3bf 19db 1fed 7def 433f
000004b0: 3788 0c94 b30e b13f 85d1 b3e9 1156 a23f
000004c0: d7a6 9277 56f9 c23f 0714 0404 e5ed a83f
000004d0: c4cd 0b33 3501 af3f c384 9d42 ddb8 943f
000004e0: 5ede 80f5 498b b6bf 57cf 7afa d5bf afbf
000004f0: eab5 753a 8a42 96bf 04f1 1479 4c36 b6bf
00000500: d95c ccd4 b137 b53f e5fb f311 5fce 913f
00000510: bfb1 5e00 2d50 a7bf 947a 6703 b144 613f
00000520: 452a 76af 1400 b9bf e766 0357 df24 b8bf
00000530: 8bf2 6989 c437 b7bf 60da 8465 7afc bfbf
00000540: 0c64 50e7 8b6c a33f 1cd2 6227 3817 bf3f
00000550: 1eba 4e1d a6b5 a9bf 8569 a9a4 7624 bb3f
00000560: d1ff cae0 3ea9 b0bf 63c9 aa07 4d43 a4bf
00000570: 5202 62fe e65f 573f ea86 5621 0ee4 b9bf
00000580: 90ff 0de7 0c8b 93bf 2bda b8a0 dde1 babf
00000590: 540f d8c3 df29 b63f 60ac 126d 5b6b b93f
000005a0: 3003 3eea 71f2 aa3f 5cef 72c6 1ad7 a6bf
000005b0: 0e8a 149d 0012 abbf 1709 bb5e 4155 afbf
000005c0: daa6 5816 334a c8bf f59a f252 bc23 92bf
000005d0: c1c3 828f e796 81bf 622d 1a99 b834 a2bf
000005e0: b659 498d c3de b03f dbf2 6675 2415 9e3f
000005f0: 8af2 74a5 5161 c03f 8b58 901c e444 903f
00000600: a09c 5b6f a16d 633f 5562 a508 357b babf
00000610: bb5b 6ac5 ee10 a1bf bd06 eb5e 732f 9bbf
00000620: 93aa a44c 1fbf acbf af2d 627e a6e6 8d3f
00000630: 8fea 4a00 b1ac b33f 9404 3b5c d0e7 be3f
00000640: 4719 0f6e bac8 a8bf 92c9 ca60 f7cf 91bf
00000650: 3053 b8bb e318 c23f f53d b9d7 a411 9ebf
00000660: 173d 0504 209d 95bf 9158 eb9a 3b2f c43f
00000670: ea59 2a0c 0bfa 903f b5be 2942 bace 9abf
00000680: f9eb b507 3839 b5bf 2650 3b09 40ca b13f
00000690: c903 8de7 9233 86bf 94a2 7f94 2a72 b73f
000006a0: 8638 def1 ab0d b33f 5953 bf26 4c79 b43f
000006b0: 2dbc 0c0f 83d8 b83f b665 fd46 2d60 bcbf
000006c0: 27d8 3663 cefe b83f 9025 4bfa 259e 77bf
000006d0: b7ce 2f2c 7993 913f 2a21 9216 277a aa3f
000006e0: 37fe d076 b542 8fbf 2d05 f5d1 1821 9b3f
000006f0: 8f79 5e4d 9bdf b43f d4e6 bef6 98b5 b93f
00000700: fc2b dc66 b98f 943f e3e6 8a79 fe10 b63f
00000710: 8fe8 af2e ca0c babf a034 8495 893e a5bf
00000720: 2b31 846c e0e9 a73f e987 3169 bcc3 a03f
00000730: b9f9 cc06 42aa b43f dd48 113e 71f4 acbf
00000740: 0dc8 6dec c286 af3f fc82 bfe9 9674 6b3f
00000750: 78ff 88ab dcbc bd3f 912d f5d3 0356 c0bf
00000760: caaf a4ee 986c a93f 2d15 394b baf3 a03f
00000770: 612f 791d c429 b8bf d7b5 5105 3932 b6bf
00000780: 53a7 ae50 8587 b3bf bc59 4a3d 6437 bbbf
00000790: e9b0 b98c 657f 90bf 99cc cc28 3f2d c03f
000007a0: a154 7e37 914a b03f dd34 cc04 d499 6f3f
000007b0: c848 9ccd e40c a8bf 5779 aa8e 10a4 b43f
000007c0: e446 a001 ba57 aabf 88d1 31cf 68ea adbf
000007d0: a382 d317 465e a1bf e0b6 f508 a1d0 90bf
000007e0: eb89 8b18 057c b7bf f2d0 8a6e 5af5 a1bf
000007f0: 930b 06b1 394e b3bf e993 d083 6820 b53f
-0.07395345646779074 -0.044016332760128646 0.056871693615358106 -0.11124307515570758 -0.07495403246768505 -0.11685171214385122 0.022404369293635307 -0.0982623053453474
-0.09558351318156143 -0.03457943741612987 -0.03417659991759718 -0.05898847810269097 -0.10509018290785643 -0.00996901419238283 0.06604063077401665 0.031570026705154436
-0.0792798667888664 -0.03921269731312923 -0.03463569709223826 -0.09632413295760357 0.07547123464825715 -0.07145566479964759 -0.1180424247055442 -0.055103067011147255
-0.004980815128332351 0.012965540380520639 0.031892808426554946 -0.12413038664801085 -0.038463054393352916 0.022914166203006653 -0.12269716720501293 -0.16731015989912987
0.023715504192841595 -0.07068576852198372 -0.03117423905772468 -0.03476183620440677 0.008660084674873085 -0.03731494043088547 -0.03122360654070419 0.11139422414145107
-0.0470991633860188 0.06830476776172818 0.025416032608543738 0.04126590586652899 0.12156904328324847 0.016791334772662127 0.03410057335339186 -0.08611015582775979
0.00512289922866319 0.06339904031328879 0.036379603650536746 0.09479028663782138 0.054821394588791046 0.09673915747190427 -0.11089923490147946 0.08725765559648781
0.035880859236488837 -0.054287985561021865 -0.03357910520956744 -0.060639882329255004 -0.011047434674079471 -0.02231259086400757 0.049281661614648066 -0.11342019996401782
-0.0627397020499538 -0.050687608521829464 0.08996147225476735 0.0221814102084819 0.0255289206905383 0.15071698098173897 0.039163932042148304 0.027373352999446043
0.00782984647997725 0.0468181657833622 -0.08700325218314989 -0.08011669016949291 0.07491296704629918 0.09498536831593098 -0.037061024620689255 0.0747370931377004
0.0008887676480707971 -0.004467330042121621 0.022358755298115825 -0.07937069258426512 0.0569362563001109 -0.1257211911064778 0.023113366700952813 0.07503733158832272
-0.031665891310429885 -0.04225011667942607 -0.05702263533867624 0.10222597272104017 0.01842887586670539 0.06867582884015871 -0.04060379998332511 -0.04092207310911047
-0.05850731856009791 0.1281417955243557 -0.05313457657919795 -0.0660415827292044 0.06537218233083156 0.021618373956621608 -0.06865786238109761 -0.06435320789182689
-0.11147004179987746 0.11676393999429037 0.09686718157011405 -0.06840845285080614 0.1062045802667604 0.09474726161641771 0.12110118533329692 -0.050228636389729575
0.024188433754495243 0.1306165784152103 -0.02815906531723392 -0.047189623038555416 0.10320542475244028 -0.062138971612482316 -0.1036398867059985 -0.08334697188872445
-0.09703230960620049 -0.027753042478426287 -0.01927701323173573 0.025118676970327592 -0.09787111388616448 0.02289769759154201 -0.0002926792864531623 -0.08915563562153415
0.005416059254082403 -0.03580784784946201 0.02313351874409636 0.14560197772431305 0.02810772184290035 0.15976442907601923 -0.05567842836928359 -0.021993800652205277
0.047827015476404514 -0.13449013000922172 -0.06650293183760309 0.08908173141410394 0.08860340220303757 0.05215345354545929 0.023155859933522656 -0.05273964345140598
0.026421805156270982 0.09410782589462045 0.07806938336873209 0.05985162710605784 -0.07731654107220147 0.0006083836435653883 0.06663057674862292 0.035812911775710034
0.14823418463247748 0.048689991703248885 0.060556089860166945 0.020236451331020044 -0.08806287997946913 -0.06201046640981527 -0.021738204782584626 -0.08676603275393197
0.08288108296652598 0.01738880679203793 -0.04553356771006944 0.002107949952218144 -0.0976574829457287 -0.09431262850139498 -0.09069469790297029 -0.12494626024713673
0.03793751906068374 0.12144804917881696 -0.050213996007517844 0.10602513809263854 -0.06508248317822952 -0.03957596510498964 0.0014266734883962196 -0.10113609613338395
-0.019085122683008715 -0.10500893758658296 0.08657644778582824 0.09929438984788552 0.052630958408377615 -0.04460986778710094 -0.05287172238810821 -0.0611973217142056
-0.18976439086082203 -0.017714445650791572 -0.00858860880575374 -0.03555847996639262 0.06589910697343879 0.029377526918085244 0.12796993807741713 0.015887798541449654
0.0023716118838482264 -0.10344249211392172 -0.03333231124741284 -0.026548197429980592 -0.056145647149908794 0.0146000869101702 0.07685381180901117 0.12072469951364645
-0.048406434950765624 -0.017394891054843216 0.1413845697976739 -0.02936418120071767 -0.0211071970418831 0.15769143165988855 0.016578838937300867 -0.02617922810389813
-0.08290434063194131 0.06949234223731135 -0.010840556804056949 0.09158578992322425 0.07442736296636285 0.07997585245113949 0.0970537101500077 -0.11084254248762346
0.0976380340788131 -0.005766056394983635 0.017164128610558573 0.051713201050974725 -0.015263955772865418 0.026493442358746556 0.08153696669476161 0.10042720817628076
0.020079514411047925 0.08619680850361137 -0.10175765647719202 -0.0414927477851077 0.04670621227896484 0.032743347016335474 0.08072292963058815 -0.0565524471536649
0.06157502304166949 0.00335149264536516 0.11616305530423954 -0.12762496804712645 0.049656657344115354 0.03310949486016521 -0.09438729972424433 -0.08670383815634551
-0.07628663272649065 -0.10631395813320571 -0.01611097976130874 0.12638082019984578 0.06363780598469983 0.0038575306883844433 -0.04697337160009024 0.08062842829756299
-0.051450550745483686 -0.05842902688246726 -0.03392237702224079 -0.016420856639732473 -0.09173614358181907 -0.03507502173798284 -0.07541237422814921 0.08252576082357134
