results/old/run_2/good_one/saved_model_end_to_end_only_unet3lvl128_10.pt (torch, 377951 bytes, 59 tensors)

module.restr_layer1.restr.0.weight f8 [6, 1, 3, 3]
0.11884775204622965 -0.17549827980518998 0.13956949179356673 0.017923063134734723 -0.27042068144660647 -0.1015886356931994 0.0037964359420433838 -0.19719625888868542
-0.31327614298672907 -0.19782216670436276 -0.09951435653403994 -0.3144310592008166 -0.05747181719873349 -0.10056911114955773 0.24849727746109992 -0.3077795978516047
0.16790219775635906 0.14561675852474334 -0.082411587093533 0.22640480479908548 -0.21814163268223868 -0.09663356806861502 -0.300202479553761 0.11896565872213334
-0.16563947746817495 -0.03480274470288775 -0.1782877643488381 -0.07477516248823432 -0.1930849147023966 -0.04203758290038951 -0.13040632918416475 -0.1493699166902403
0.036623105032466324 0.2745786473310496 -0.04183161962213794 0.19580475650535237 0.3079120468710351 -0.30857898832031355 -0.045611172475528594 -0.004507665775287037
0.0698915507529479 -0.01817650824208784 0.24380404632937122 0.27994229759052885 0.16459617392643086 -0.3274198613343065 -0.180074191305031 0.10763119864131383
0.30399650787224647 -0.2909401733841454 -0.08432786224123873 -0.16561577277944156 0.017398697214157346 -0.08798768783918372
00000000: 4fde 3d68 ce6c be3f 053f 2246 ba76 c6bf
00000010: 25e8 62c1 69dd c13f 4b04 0868 6c5a 923f
00000020: d269 be8b 924e d1bf 9e92 f27b b601 babf
00000030: 1545 cc06 b419 6f3f 9c04 691d ba3d c9bf
00000040: 6dae 2f61 b70c d4bf 02a5 359c 3c52 c9bf
00000050: cfd2 cbda c579 b9bf 304e 0773 a31f d4bf
00000060: 2dd9 9e2e f26c adbf 2309 60b3 e5be b9bf
00000070: 4394 eb3f c2ce cf3f e083 c932 a9b2 d3bf
00000080: 9021 25b8 d17d c53f ad80 cee7 91a3 c23f
00000090: 66d0 60ff ec18 b5bf 9a79 2228 d5fa cc3f
000000a0: ce14 22a5 10ec cbbf 01ed 8c3e fabc b8bf
000000b0: 0423 f775 8436 d3bf 5504 8f8d 8874 be3f
000000c0: e37f 53a5 ac33 c5bf 79b0 9e54 aad1 a1bf
000000d0: 11de 932a 22d2 c6bf 46a7 700d 7724 b3bf
000000e0: 0bb6 ffa8 01b7 c8bf d126 8537 f385 a5bf
000000f0: 75c9 8493 27b1 c0bf 026d 98ad 8d1e c3bf
00000100: bcea c87c 43c0 a23f a7df 9d51 b292 d13f
00000110: 987c 6e3c f46a a5bf ddbd cb58 2110 c93f
00000120: c2c0 d6ba d4b4 d33f 8362 c415 c2bf d3bf
00000130: 40ae 3afc 585a a7bf 70e5 6051 a176 72bf
00000140: a429 c0a4 69e4 b13f e32a d2d1 dc9c 92bf
00000150: bbfd ce92 f834 cf3f 69c7 3a19 93ea d13f
00000160: 9bc6 07c8 7c11 c53f 0978 1f6f 72f4 d4bf
00000170: e81e 41cd ab0c c7bf cd97 31de b78d bb3f
00000180: 5535 dac4 ad74 d33f 23c2 7188 c39e d2bf
00000190: 14bc 77c2 8296 b5bf 4e0d e5cb e532 c5bf
000001a0: c77a 1cce f6d0 913f b54e b871 5c86 b6bf

module.restr_layer1.restr.0.bias f8 [6]
0.0013137500521985235 -0.14033953006149266 -0.15962437183193215 -0.2794203485821806 0.07219945856846348 -0.15297319285832273
00000000: f68c 9860 4486 553f 879d f94d a5f6 c1bf
00000010: 19d3 5448 926e c4bf 2bd5 bfe2 05e2 d1bf
00000020: 3b28 57e9 a97b b23f 8adf 3e26 a094 c3bf

module.restr_layer1.restr.1.weight f8 [6]
0.9973634685701248 0.9973634685701248 0.9973634685701248 0.9973634685701248 0.9973634685701248 0.9973634685701248
00000000: 5f7b f7ca 66ea ef3f 5f7b f7ca 66ea ef3f
00000010: 5f7b f7ca 66ea ef3f 5f7b f7ca 66ea ef3f
00000020: 5f7b f7ca 66ea ef3f 5f7b f7ca 66ea ef3f

module.restr_layer1.restr.1.bias f8 [6]
0.0 0.0 0.0 0.0 0.0 0.0
00000000: 0000 0000 0000 0000 0000 0000 0000 0000
00000010: 0000 0000 0000 0000 0000 0000 0000 0000
00000020: 0000 0000 0000 0000 0000 0000 0000 0000

module.restr_layer1.restr.1.running_mean f8 [6]
0.0 0.0 0.0 0.0 0.0 0.0
00000000: 0000 0000 0000 0000 0000 0000 0000 0000
00000010: 0000 0000 0000 0000 0000 0000 0000 0000
00000020: 0000 0000 0000 0000 0000 0000 0000 0000

module.restr_layer1.restr.1.running_var f8 [6]
1.0 1.0 1.0 1.0 1.0 1.0
00000000: 0000 0000 0000 f03f 0000 0000 0000 f03f
00000010: 0000 0000 0000 f03f 0000 0000 0000 f03f
00000020: 0000 0000 0000 f03f 0000 0000 0000 f03f

module.restr_layer2.restr.0.weight f8 [12, 2, 3, 3]
-0.029305151805659693 0.10694247711596146 0.06676560081708698 -0.11449105318514552 0.14234062192305483 -0.16197290457951843 0.06380174190797873 0.15003192399741191
0.11133246657438906 -0.1537581673094316 0.06551562062714815 -0.21145161963235365 -0.0447165991359782 -0.15052229152390562 -0.1265442186217371 -0.10931127402849328
0.14660012412939555 0.07137330186501623 -0.15760670898106688 0.041104747666705 -0.2228574835859124 0.0883680106210213 -0.07049893324291606 0.02071862618477302
0.1716404494624207 0.14271191611655062 -0.16082830250585806 0.134385536450373 -0.06929121279116753 0.001423581970177069 0.029791057054540607 -0.1894359679960836
-0.20909764743895115 -0.1632127118168315 -0.04501482864233574 -0.1090799935481995 0.12339674869259361 0.03860149166630935 -0.06602092433682494 -0.14139745768706968
-0.1021422181999608 0.23155316595449468 -0.21234035968643195 -0.008421605264906753 0.17565449296084887 -0.08398362408902152 0.20467887053094566 0.08254127180443412
-0.16448249545362723 -0.020551491409594794 -0.14245933857108084 0.16906298441060305 -0.02685104959516962 0.2108685288751346 -0.1366770590500086 0.16187677797968922
-0.010037430913854048 -0.10815627607410001 0.025961096440641224 -0.15712784454490553 -0.1896141470012398 0.09208346421265214 -0.09868167546798812 0.013694819164493485
0.005504101933525086 0.005593189578368992 -0.0016091556864229245 0.19442854699017442 -0.035153919634707695 -0.16228638608387752 0.12216568766802016 -0.0034812306925386402
0.08036154765056427 -0.04823624754010938 -0.01420171402353531 0.1208950048878583 -0.006106530310744099 0.02934329108933493 0.12331598183935125 -0.11636497942341809
0.010019439686735057 -0.144603906962444 0.20385225310941005 0.16137260377242263 -0.06110898958551733 0.11954949257304315 -0.23472046905424312 0.23013723065061156
-0.18765037330482434 -0.18691032629825546 -0.02418382625645223 0.0030420135558109464 -0.011388823886364105 0.11477762726696425 0.13235974415453142 0.024045387901874646
-0.14467832036463085 -0.08378594630542131 -0.17267914582328242 0.07390754858778262 -0.047622273809104644 0.17666159297798212 0.19899684921062238 -0.12767318600414548
-0.09120376760878977 0.20722136559367887 0.09896513598724276 0.10674821756333841 0.008092045999682228 -0.1550158533809428 -0.07956998938935578 0.09126396562867327
0.05312836769815435 -0.13096012718809638 0.18786598937011828 -0.03219093014521758 -0.10827635258358032 -0.11637021823393748 0.22045272836968768 0.16954202718925032
0.23466250774636843 0.19175202754938628 0.15320702958091237 0.13510363246931853 0.1230199927604713 -0.09138166423834346 0.14486647168711633 0.13425286450283494
-0.07814447560779962 -0.10891840782515669 0.1536279772948208 -0.12193833072241318 -0.13811415766220275 0.062307681448923964 -0.20742460171808555 -0.16301231431032304
0.19407907002743757 -0.10406275127451435 0.18410804568125316 0.1628851709798443 0.14050660724690966 0.2237671640201949 -0.053126628858918126 0.10455420371779624
-0.1736662120345141 -0.137189110050397 -0.12164402103527422 -0.12319385439128465 -0.15515356350370374 -0.1784409902678606 -0.20564365879333035 -0.08013665777601046
0.17154191523903378 -0.1957989455126914 -0.1546905566869017 -0.21221529701828684 0.149320382064818 0.2221768989364735 0.010397873152864086 -0.2250996053169905
-0.07498680300228279 0.020737597366696624 -0.1602636701959156 -0.19941583515718755 0.13352374097351927 0.10500138263898626 -0.2049084270338771 0.10790136521444187
-0.14335012956374596 -0.1983997734301443 -0.11605088858223263 0.19157169357252682 -0.14085936868375928 0.2059203868837473 -0.05922393923469489 -0.19127970233770292
-0.05584042931016859 -0.14321958286416364 -0.08321440322415558 0.21977746427107395 0.12783330783261762 0.008473590241773958 -0.16904598242695973 0.15456778274732422
0.16850875541233068 0.1722043386786724 0.061221954688377656 0.036164512192187165 -0.15806041226486137 -9.135764549093084e-06 -0.14982975792791986 -0.181019599683962
0.157537512096589 -0.10194781745953656 0.003628103624939241 -0.023445315596088725 0.0669870427369159 0.17545443727743837 -0.1780113037721497 0.08376398045592427
0.030449503085199524 -0.15495167980981395 0.22228018895948068 0.0553588934521891 -0.0695499357214587 0.0703490586764385 0.21803046586610983 0.05671384677234466
0.0977632785447139 0.07705465440101777 -0.017543778826329817 -0.2198872340710643 -0.01367315705454244 -0.042951432090276596 0.21455926717061233 -0.21253961282865616
00000000: 3441 7072 2b02 9ebf 1d2b c409 9560 bb3f
00000010: 83d6 01e8 8c17 b13f 5063 1d21 494f bdbf
00000020: 13a2 06ae 3738 c23f a1ea 0034 87bb c4bf
00000030: 992f ec9a 4f55 b03f 3761 76ff 3e34 c33f
00000040: 0c86 ebd6 4880 bc3f b41f 0bfe 58ae c3bf
00000050: b382 f8b7 a1c5 b03f 9eeb 80bf d810 cbbf
00000060: 6836 c115 18e5 a6bf f402 b57f 5044 c3bf
00000070: ce36 3dd8 9932 c0bf 4856 09db d2fb bbbf
00000080: 72d6 5cf9 cac3 c23f 105a 514d 8545 b23f
00000090: 7818 5ae6 742c c4bf 5dae e075 ae0b a53f
000000a0: 0cce d511 9886 ccbf f93e a133 499f b63f
000000b0: e463 aed4 370c b2bf 18cf 8677 4337 953f
000000c0: b350 8e72 50f8 c53f 972b 3c52 6244 c23f
000000d0: 5e55 c495 0596 c4bf e00c 0e96 8b33 c13f
000000e0: fd96 d6a4 11bd b1bf 3853 5380 ef52 573f
000000f0: 91d2 0cff 8b81 9e3f 1a59 9d13 703f c8bf
00000100: dedd b532 b6c3 cabf d4ba c575 27e4 c4bf
00000110: 3f2f b501 2f0c a7bf f6f9 ef9c aaec bbbf
00000120: 7542 11e8 ed96 bf3f 0336 9120 93c3 a33f
00000130: c8db e04e bfe6 b0bf f472 40d8 4f19 c2bf
00000140: b6b0 b50e fe25 babf 07a8 87bd 88a3 cd3f
00000150: 60af 3c0a f82d cbbf bb6f 8ab9 583f 81bf
00000160: 83c6 54af d87b c63f d2a5 dc66 f37f b5bf
00000170: a76a 8ecf ea32 ca3f 0565 f8be 6c21 b53f
00000180: 2770 5e2d c30d c5bf c4f3 f33d 730b 95bf
00000190: 3817 168c 1b3c c2bf 3ffc 801a dba3 c53f
000001a0: 2784 7f6f d77e 9bbf 671d a36d bdfd ca3f
000001b0: 10db 5d45 a27e c1bf 87ca b3d5 60b8 c43f
000001c0: 183f 162c 818e 84bf 956c 9834 21b0 bbbf
000001d0: 5532 b9b0 8b95 9a3f 6e40 cee4 c31c c4bf
000001e0: 7058 1dc0 4645 c8bf c9b4 4b2b c892 b73f
000001f0: 7878 d9c8 3343 b9bf 9833 7d83 070c 8c3f
00000200: ce00 c61c 788b 763f 225b 1c65 e2e8 763f
00000210: 97ed 07c3 495d 5abf 04a5 5ddd 08e3 c83f
00000220: 3e87 50ce b1ff a1bf fa7b 68e0 ccc5 c4bf
00000230: 403d 3a21 4046 bf3f 8257 2d7f ab84 6cbf
00000240: dade 030b 9392 b43f 7343 55e3 6bb2 a8bf
00000250: fccf 39ca c915 8dbf 8f3c 3e9c f9f2 be3f
00000260: c379 a03f 2903 79bf 32c2 57ee 2a0c 9e3f
00000270: 12fb 12dd a291 bf3f 92f6 0565 18ca bdbf
00000280: 95ec 3a6e 1285 843f e585 a37d 6182 c2bf
00000290: f910 29a4 d417 ca3f 4a22 d683 dba7 c43f
000002a0: 6cd6 856f ad49 afbf 10c8 daa8 cb9a be3f
000002b0: ab16 2501 520b cebf e141 9e03 2375 cd3f
000002c0: ab94 366c ed04 c8bf 492b 5e75 adec c7bf
000002d0: c555 741b a5c3 98bf 5aec 8e97 90eb 683f
000002e0: cb00 0e11 0653 87bf 1e91 6c0b 1162 bd3f
000002f0: 8fae 3902 2af1 c03f 6cfb a1aa 5a9f 983f
00000300: a601 34b7 d184 c2bf bd06 3feb fe72 b5bf
00000310: 3290 01aa 591a c6bf caaf 1ce8 9aeb b23f
00000320: 6d7c 2459 f261 a8bf 745c 26da d89c c63f
00000330: eeee ae8f ba78 c93f 0d62 3b4f 9857 c0bf
00000340: 2fd8 264f 2159 b7bf 8cef 20ce 3a86 ca3f
00000350: 0f68 8276 c755 b93f b840 57e7 d953 bb3f
00000360: e630 6907 9092 803f abfb 503a 8fd7 c3bf
00000370: 109c 2be6 b25e b4bf ebac ad43 135d b73f
00000380: 54c2 8133 a433 ab3f fd2a ad2b 4dc3 c0bf
00000390: 320b 3024 fe0b c83f f22e 6760 547b a0bf
000003a0: 0cd2 46c1 ffb7 bbbf 820b 8b49 70ca bdbf
000003b0: 35b5 5485 cb37 cc3f d2a5 099b 8db3 c53f
000003c0: 981a 2fca 6b09 ce3f 4916 a297 548b c83f
000003d0: 0c9e c8b6 499c c33f 3b65 8369 134b c13f
000003e0: bb0e a9fd 3c7e bf3f b694 5beb c964 b7bf
000003f0: fd6e 170b fc8a c23f 298d 37a7 322f c13f
00000400: d33b 19bf 4601 b4bf b69b 8aa7 13e2 bbbf
00000410: 70ae 1de1 14aa c33f 85e3 94b6 5937 bfbf
00000420: 320a 2387 b9ad c1bf b1b5 39dc cae6 af3f
00000430: 9deb 61ac e38c cabf 2870 6767 96dd c4bf
00000440: 628f 4d3d 95d7 c83f b7b0 7441 dba3 babf
00000450: 90d3 9039 da90 c73f 734f 2ed9 6bd9 c43f
00000460: 98aa 7fd9 1efc c13f f354 b105 67a4 cc3f
00000470: 4ad7 fdda 6933 abbf e193 a075 10c4 ba3f
00000480: 5ae1 8dc6 b13a c6bf 8f53 84aa 698f c1bf
00000490: 5cb6 1904 1024 bfbf cbc2 ade7 a189 bfbf
000004a0: 269a 8d6c 12dc c3bf 3ab0 bb84 27d7 c6bf
000004b0: 60d5 920a 8852 cabf 5bd4 5b04 d683 b4bf
000004c0: 2e24 ece1 15f5 c53f e8bd c899 f00f c9bf
000004d0: 0932 fc70 e6cc c3bf 9ec5 33f0 de29 cbbf
000004e0: 741c cc26 ee1c c33f d3ee 6de9 4a70 cc3f
000004f0: 31b6 1de9 7a4b 853f e1e8 9659 10d0 ccbf
00000500: 19c2 86ca 5532 b3bf 9347 f399 3c3c 953f
00000510: cc3b 1d1b 8583 c4bf b1fe 2645 7586 c9bf
00000520: 8044 5c52 4e17 c13f 561f 78e0 5ee1 ba3f
00000530: db84 6478 703a cabf 032f ca82 6c9f bb3f
00000540: 7544 2d0b 4c59 c2bf a648 35ed 2965 c9bf
00000550: dde6 21d3 82b5 bdbf f5dd 5dd7 6b85 c83f
00000560: 6d7d ea06 ae07 c2bf 0668 9f67 995b ca3f
00000570: 1a7e 4ea4 9952 aebf 12eb f670 da7b c8bf
00000580: 7911 5de3 1d97 acbf 2a30 46f0 0455 c2bf
00000590: 5466 6704 8a4d b5bf c995 b8fe aa21 cc3f
000005a0: 1584 3d82 d75c c03f bcb7 be07 9a5a 813f
000005b0: 3aa1 057b 4ca3 c5bf 691e f589 e0c8 c33f
000005c0: b4f5 cae4 b191 c53f 9e56 6db1 ca0a c63f
000005d0: e017 5eea 7b58 af3f 3c50 48aa 2784 a23f
000005e0: 4524 bcd6 523b c4bf 9514 36eb b928 e3be
000005f0: 3c4e 221b 9f2d c3bf bdef 4976 a62b c7bf
00000600: 0a8d 2c6f 302a c43f 4325 e38d 4019 babf
00000610: d3b3 4c4d afb8 6d3f 371c eb7e 0c02 98bf
00000620: 1f91 cf15 1026 b13f 1cb8 057f 4a75 c63f
00000630: ac85 020c 13c9 c6bf 2117 a464 8e71 b53f
00000640: 56b6 b88f 272e 9f3f 3428 9fe6 74d5 c3bf
00000650: 0599 105f ad73 cc3f 3afd d639 0058 ac3f
00000660: 36d1 5c4b 06ce b1bf 19d7 515a 6502 b23f
00000670: 5f9a 361c 6ce8 cb3f da32 3cea 9809 ad3f
00000680: b86a 19a4 0307 b93f 202e a894 dab9 b33f
00000690: 57b8 3a11 fff6 91bf b251 92cf 4325 ccbf
000006a0: cd03 0f13 ac00 8cbf dbc7 49e8 bafd a5bf
000006b0: c397 c695 ad76 cb3f eb0e 1a7f 7f34 cbbf

module.restr_layer2.restr.0.bias f8 [12]
-0.21477451168906098 -0.22427665877828706 -0.03950968962867859 -0.0855704486489551 -0.10477668596879208 0.0017538426461805783 0.1412741487200346 0.047733838180358076
-0.07271671122468676 0.11683572184554027 0.15987116810848756 -0.04036250853374838
00000000: 7a04 dc2f bb7d cbbf 0cbd 5af9 18b5 ccbf
00000010: 1b1b a931 9d3a a4bf 0689 73e6 f1e7 b5bf
00000020: 7885 9e17 a5d2 babf 59f5 b033 26bc 5c3f
00000030: bfea 4274 4515 c23f 065d cbd3 9170 a83f
00000040: 342c 95f8 8f9d b2bf 21c6 5424 f2e8 bd3f
00000050: f4b4 4c8f a876 c43f f520 460c 65aa a4bf

module.restr_layer2.restr.1.weight f8 [12]
0.9973634685701248 0.9973634685701248 0.9973634685701248 0.9973634685701248 0.9973634685701248 0.9973634685701248 0.9973634685701248 0.9973634685701248
0.9973634685701248 0.9973634685701248 0.9973634685701248 0.9973634685701248
00000000: 5f7b f7ca 66ea ef3f 5f7b f7ca 66ea ef3f
00000010: 5f7b f7ca 66ea ef3f 5f7b f7ca 66ea ef3f
00000020: 5f7b f7ca 66ea ef3f 5f7b f7ca 66ea ef3f
00000030: 5f7b f7ca 66ea ef3f 5f7b f7ca 66ea ef3f
00000040: 5f7b f7ca 66ea ef3f 5f7b f7ca 66ea ef3f
00000050: 5f7b f7ca 66ea ef3f 5f7b f7ca 66ea ef3f

module.restr_layer2.restr.1.bias f8 [12]
0.0 0.0 0.0 0.0 0.0 0.0 0.0 0.0
0.0 0.0 0.0 0.0
00000000: 0000 0000 0000 0000 0000 0000 0000 0000
00000010: 0000 0000 0000 0000 0000 0000 0000 0000
00000020: 0000 0000 0000 0000 0000 0000 0000 0000
00000030: 0000 0000 0000 0000 0000 0000 0000 0000
00000040: 0000 0000 0000 0000 0000 0000 0000 0000
00000050: 0000 0000 0000 0000 0000 0000 0000 0000

module.restr_layer2.restr.1.running_mean f8 [12]
0.0 0.0 0.0 0.0 0.0 0.0 0.0 0.0
0.0 0.0 0.0 0.0
00000000: 0000 0000 0000 0000 0000 0000 0000 0000
00000010: 0000 0000 0000 0000 0000 0000 0000 0000
00000020: 0000 0000 0000 0000 0000 0000 0000 0000
00000030: 0000 0000 0000 0000 0000 0000 0000 0000
00000040: 0000 0000 0000 0000 0000 0000 0000 0000
00000050: 0000 0000 0000 0000 0000 0000 0000 0000

module.restr_layer2.restr.1.running_var f8 [12]
1.0 1.0 1.0 1.0 1.0 1.0 1.0 1.0
1.0 1.0 1.0 1.0
00000000: 0000 0000 0000 f03f 0000 0000 0000 f03f
00000010: 0000 0000 0000 f03f 0000 0000 0000 f03f
00000020: 0000 0000 0000 f03f 0000 0000 0000 f03f
00000030: 0000 0000 0000 f03f 0000 0000 0000 f03f
00000040: 0000 0000 0000 f03f 0000 0000 0000 f03f
00000050: 0000 0000 0000 f03f 0000 0000 0000 f03f

module.restr_layer3.restr.0.weight f8 [12, 4, 3, 3]
-0.05805505657469081 0.07365416107019049 0.05729839027772921 0.14014681614374633 -0.12923457446704592 0.09193666605405412 -0.022509199603759772 0.02659690969521565
0.1338497510375036 -0.16393893728075343 0.07139482185829875 -0.055774791844469 0.01606083133341941 0.0775605525856469 0.0941799172875421 0.0605561724652573
-0.04780177180556199 -0.01814416880466852 -0.1415859211089051 0.15909600249409583 -0.11543455181329162 0.12503358345791135 -0.11637732964055765 0.052405742523163844
0.021399612104805166 -0.06321922333290134 -0.03481298824941414 0.13325682171981953 -0.15671869715880565 0.014180447610974561 0.15515426201177274 0.09834712725749749
-0.03409417142958843 -0.11787281312403006 0.04695319968093444 0.13461469168271106 -0.16438243045723724 0.009635785058561764 0.09738514788926389 -0.04557580121585127
-0.04182299973532583 -0.0081977900896032 0.06581337083807523 0.014585047263687388 0.1015718343448526 0.1474864268361681 0.075413034112332 -0.14720411068119726
-0.08343190674742378 -0.04200589738541805 -0.06994937087302128 -0.09989264323916498 -0.11320687582356073 -0.07543360294569063 3.37661773054499e-05 0.0531477847362924
0.029167815087478614 -0.10191570095022448 0.12458280796325819 0.12410255394189508 -0.10506505090640551 0.05934897217909227 0.029481995099906958 -0.0879020983078888
0.026002613085140718 0.16381565803746614 0.12479194425156903 -0.12369518254971608 -0.008862948114023396 0.02109607319402764 -0.12190563460002242 -0.13811938904178558
0.014008326677131745 0.015795992742053636 0.07851012972018288 0.1545276408261525 -0.14199286893768087 -0.06720402609460069 0.08862967620232792 -0.034113885705202684
-0.033145170192662686 -0.04467505276773118 0.1217224322815169 0.12635892077902386 -0.006730962621011896 0.04386502119737196 0.06781287247913957 0.010297218325857317
-0.04469023045636377 0.10076602354665648 -0.07168155198979284 -0.08198667869025326 0.11467701238124334 -0.08048652114746635 -0.08306390445897795 0.035408317759719164
0.08497920615394883 -0.1535652304635782 0.10323939603428073 -0.06440575818352809 0.157347874586722 0.078192323410544 0.008649591053549347 0.02177197263774695
0.13669141562011317 0.1279768883955349 0.016725593660449317 -0.009933478608594781 -0.08562022849529512 0.11220806130107884 -0.08758108183350607 -0.043096305636215665
0.09341343843839488 -0.14642818711124092 0.07094563658414389 -0.10891451401421721 0.0031793709412853395 -0.13479081974928106 0.033723653768999544 -0.11633708368626933
0.01620063140718521 -0.011068152950547461 -0.1623871941739582 0.15382905844752462 0.033431094067502116 0.15938369864738772 -0.046240602555299916 0.049857507061669935
-0.1517306213124802 -0.10875889533351067 0.12838558992542043 0.10538725633069333 -0.06519759882033892 0.11381787717980263 0.12215927476946929 -0.001880918749902176
0.11946947624442843 -0.10881642564704479 0.05790100953714008 -0.03353310596936152 0.05219256380517552 0.051674497461361185 -0.12722186062016097 0.02285036877903435
-0.13837626166878686 0.012933099830435143 -0.16171548206318556 -0.037514620541479346 0.14832280850879948 0.06843179521412429 -0.08352749831979543 0.015989791576588447
-0.09029533557190786 -0.04652438260484168 0.006910117401070766 -0.07104368036569496 0.06386419150174523 0.09202287978404912 -0.09916266515210495 -0.10792641490275533
0.0678921159903159 -0.0433750140713184 0.007934853818085588 -0.0476767351456961 -0.1652493384186831 0.08647161322954182 -0.043825644662701765 -0.06928397505862005
-0.058972569216472995 -0.13427713394277335 0.11907016741879345 -0.06950579595623115 -0.0315252259469347 0.13828364247117783 0.16125124171085714 0.12389656837083288
0.09498903485266176 -0.028509710879917344 0.058184020484711864 0.1554411110382573 0.005868875015451244 -0.12787394019562495 0.08370239285083886 0.13654206865015606
-0.15074492239363946 -0.12311467775854044 0.05423391276743158 -0.15204824927963342 -0.15716951723907976 0.062115023263204325 0.11641310217082795 0.0012062888353100896
0.019632813968452376 -0.12006805307416171 -0.11806084555152509 0.03766678755199269 0.019732050415377022 0.1385414959818511 -0.02917181850473721 0.10257891206917513
0.026524621540984273 0.15053424047045197 -0.13524774805969322 -0.010340733892384768 0.15786992762818675 -0.04951651622888104 -0.016486098279404914 -0.0016383135217621372
0.03570176917364539 0.10019893159659818 -0.1611049117012845 -0.004399392380216361 -0.01871666861906101 -0.009009050551153456 0.1390511988061766 -0.01980071227239779
-0.12844462128820924 -0.15346748391950338 -0.005503550186459734 -0.1640636135401795 0.07015005075513187 0.10251435208932697 -0.08604906043326177 0.15050575025835025
-0.14006772125130793 0.04859971695704199 0.0847461496797343 -0.06758534462198366 0.13515411825466492 -0.034992738897726194 0.1367576995773234 0.02572673583699952
0.05177540215362134 -0.15134742275805987 -0.035901174650076514 0.13280751755067438 0.08539587364819859 0.1505190219116663 -0.02840704505561013 -0.03142053890778875
-0.1438902843675164 -0.04697111195434884 0.158355702835672 -0.0056548640325293775 -0.16027023914414149 -0.01471610855565055 0.11050877694199472 -0.12048489891089754
-0.16360127550769862 0.008500952809199814 0.15950948954734925 -0.11090455607259893 0.08917281081179819 0.08316102680435257 0.04263059395837952 0.1193712466894547
00000000: d321 b672 64b9 adbf c6c2 02c5 ffda b23f
00000010: d16b b6f0 3656 ad3f cbea fcb3 54f0 c13f
00000020: a599 6c2f c28a c0bf 3e64 014e 2989 b73f
00000030: 280f a1d0 a60c 97bf fc30 4365 383c 9b3f
00000040: 3754 a417 fd21 c13f e2b6 147b f3fb c4bf
00000050: 1332 fc58 ee46 b23f 328f d375 838e acbf
00000060: 0360 4b25 4072 903f 92a6 d024 02db b33f
00000070: 6ca2 b0d0 2c1c b83f 8951 9ef8 3701 af3f
00000080: 4f05 314d 7979 a8bf 2241 848e 6294 92bf
00000090: ec4e 5eca 7c1f c2bf 0c78 d1ff 415d c43f
000000a0: 46d3 dd68 1e8d bdbf bb3c edb7 1901 c03f
000000b0: 4d50 cd98 e7ca bdbf 5be8 84ec ecd4 aa3f
000000c0: 6d84 8ca8 c7e9 953f 2a7e b190 222f b0bf
000000d0: 5fb8 030c 02d3 a1bf 1fb5 a03d 8f0e c13f
000000e0: 9601 7cb7 5b0f c4bf f0ad da75 a30a 8d3f
000000f0: 6079 9648 18dc c33f 07fc 39ff 462d b93f
00000100: 0871 8c8e ca74 a1bf de89 74a5 e92c bebf
00000110: 9bf3 24f2 3f0a a83f 9e4f 2be1 0d3b c13f
00000120: f1e7 6cc5 7b0a c5bf 7a1c 952d edbb 833f
00000130: 58ee 4ca9 3bee b83f 7212 6c1f b655 a7bf
00000140: 38ed 2a00 d369 a5bf 42af acc2 00ca 80bf
00000150: fe98 6323 25d9 b03f ccb1 10e8 c3de 8d3f
00000160: ffb3 b49a 9c00 ba3f 25c0 eed1 d5e0 c23f
00000170: 8e60 34c3 444e b33f 6a33 9b94 95d7 c2bf
00000180: bb50 ec1e cb5b b5bf 81dd 0407 cc81 a5bf
00000190: b480 46b4 33e8 b1bf d5bd d273 9092 b9bf
000001a0: e232 5835 20fb bcbf 24d3 abd9 9d4f b3bf
000001b0: 6f46 9504 05b4 013f b92d 98ba 2f36 ab3f
000001c0: 0e03 96ef 2ade 9d3f 9eb6 87ba 2517 babf
000001d0: 3a96 d8ad a8e4 bf3f d9cf 875a 2fc5 bf3f
000001e0: 6178 980d 8be5 babf bcee 1e0d fd62 ae3f
000001f0: f187 1933 8730 9e3f cb6e 7b7d c080 b6bf
00000200: bbb0 3ed3 6da0 9a3f 49fc eb56 e9f7 c43f
00000210: e05f 5d67 5df2 bf3f ad49 b9cb 7caa bfbf
00000220: e7f3 5dc2 bc26 82bf e6fc c481 359a 953f
00000230: 0d23 ce29 3535 bfbf 5161 7069 e5ad c1bf
00000240: 5a87 99c7 65b0 8c3f f49c f020 d32c 903f
00000250: 0f8b 8d67 3d19 b43f f292 d6cd 8fc7 c33f
00000260: 7a20 2d84 d22c c2bf 0c60 3c76 4834 b1bf
00000270: 3c7b be38 6fb0 b63f d0fb e20e 6077 a1bf
00000280: ebe4 fe5b 67f8 a0bf ec40 2b05 a6df a6bf
00000290: 5fb4 d689 3329 bf3f afe1 2674 872c c03f
000002a0: e9d9 3e05 ed91 7bbf 694d f6de 7975 a63f
000002b0: 7fb4 8b35 2f5c b13f d439 983f b516 853f
000002c0: af85 854c a3e1 a6bf 8c4c ae57 cdcb b93f
000002d0: 9ece 85e1 b859 b2bf 13ab ae37 14fd b4bf
000002e0: 14ca c701 795b bd3f d0e0 18c0 c39a b4bf
000002f0: f91e 2111 ad43 b5bf eb98 91fd 0921 a23f
00000300: c870 457f 32c1 b53f 1967 5285 06a8 c3bf
00000310: 5c43 a0a5 e56d ba3f b684 1251 e57c b0bf
00000320: 66f8 b8a3 f923 c43f f4b6 d87f 6904 b43f
00000330: 0214 9775 e0b6 813f 734b cb59 644b 963f
00000340: fabc ddb3 1a7f c13f b4bd 26f3 8b61 c03f
00000350: 787b 1c97 8320 913f 2050 13ee 0058 84bf
00000360: 3d6a 4311 35eb b5bf 07bd a2e1 aab9 bc3f
00000370: 2e24 39ba b66b b6bf 3c6a 920e b810 a6bf
00000380: 7f8d 196f f1e9 b73f 0f7c 6da9 28be c2bf
00000390: 913c ec44 7e29 b23f 3534 c053 d2e1 bbbf
000003a0: 7a9a dec6 9f0b 6a3f 8fe5 4f59 d340 c1bf
000003b0: bf36 140c 3a44 a13f 4c9a be61 44c8 bdbf
000003c0: 840d 46f8 e596 903f 9a0a 9957 e6aa 86bf
000003d0: d417 2284 1ac9 c4bf 9171 9aab abb0 c33f
000003e0: d1fb 605f e11d a13f d65f 9a5e af66 c43f
000003f0: 7dd7 7127 d9ac a7bf d375 9454 ec86 a93f
00000400: dd5f 2bb4 e86b c3bf 9744 9b7a 9fd7 bbbf
00000410: c6f0 0063 f06e c03f d701 5bc3 a8fa ba3f
00000420: 9709 b632 cab0 b0bf 40f9 2f1c 2b23 bd3f
00000430: ffb6 098a d445 bf3f 7ad6 1a21 25d1 5ebf
00000440: c30e 5735 8d95 be3f c3f2 6bad 64db bbbf
00000450: f31b bc7c 33a5 ad3f fd83 f152 402b a1bf
00000460: 6a76 46d5 fbb8 aa3f fc7e 4469 1475 aa3f
00000470: 1195 5951 ce48 c0bf 6112 6e4a 1666 973f
00000480: b680 3437 50b6 c1bf 9102 7646 ab7c 8a3f
00000490: d5ef 5bc9 17b3 c4bf feeb b1c8 1d35 a3bf
000004a0: b6e8 e5e5 3dfc c23f 0484 7302 bf84 b13f
000004b0: c7a7 99e1 0e62 b5bf e8b1 90bf a05f 903f
000004c0: a23f 4359 981d b7bf ec3e 823b 0bd2 a7bf
000004d0: af64 fc83 c84d 7c3f 4715 c22b eb2f b2bf
000004e0: 9dae e255 6759 b03f b9fe 27bb cf8e b73f
000004f0: 52ff cf73 b962 b9bf a7c1 61c6 10a1 bbbf
00000500: 53ab d5b1 6061 b13f 72b9 ccf5 3f35 a6bf
00000510: ce80 2d0d 2640 803f d92d 76c4 1569 a8bf
00000520: 12d1 18ec e326 c5bf 236e daee 0023 b63f
00000530: eed6 1a9d 5070 a6bf c07e 0337 98bc b1bf
00000540: 92ac 4a10 a731 aebf e241 713d fe2f c1bf
00000550: cc32 feea 617b be3f c5b3 83c0 21cb b1bf
00000560: 3ad7 e10c 1324 a0bf bb23 fe44 47b3 c13f
00000570: f033 cb74 e1a3 c43f 6246 3d7d afb7 bf3f
00000580: a9b8 2b8e 3351 b83f 1501 644f a631 9dbf
00000590: 3565 43c2 4bca ad3f fc7d 2e8c 7ee5 c33f
000005a0: 3d3e 1724 f609 783f ad4f 935b 2c5e c0bf
000005b0: 0c2c e41f 856d b53f bcb7 b0e3 357a c13f
000005c0: a8ff db0f 9c4b c3bf 1769 a18a 7184 bfbf
000005d0: 1b29 5723 8cc4 ab3f 6bf8 0829 5176 c3bf
000005e0: 8327 3c78 211e c4bf 96f0 0253 8acd af3f
000005f0: 044d a6c2 3fcd bd3f d64e 38c6 8ac3 533f
00000600: 191b b1d7 9f1a 943f 7a77 3fa9 c7bc bebf
00000610: e1f7 944e 3c39 bebf bdc4 5ca9 0f49 a33f
00000620: f346 de7c a334 943f 7dc3 304d babb c13f
00000630: 8f51 c599 37df 9dbf 80ab 9890 9c42 ba3f
00000640: 0dae 3a38 4529 9b3f 61d8 dfbb b444 c33f
00000650: 6913 6357 cc4f c1bf c050 13cf 852d 85bf
00000660: 68ac 17f0 1435 c43f 393a a193 3a5a a9bf
00000670: 5674 cb53 bbe1 90bf 06b0 c7bf 95d7 5abf
00000680: 1b32 0596 8047 a23f 1631 4d1e a3a6 b93f
00000690: acb1 7df3 159f c4bf 0127 53e6 1805 72bf
000006a0: 0e8d 6f5e 762a 93bf 55b8 e14b 5673 82bf
000006b0: aeca abff 6dcc c13f 46fe 964e a346 94bf
000006c0: ddd5 e393 df70 c0bf 9882 3790 d2a4 c3bf
000006d0: e2fa 0001 e48a 76bf 0c30 4f57 0900 c5bf
000006e0: 1458 ce8d 5af5 b13f 4c23 986d 613e ba3f
000006f0: 3092 69ac 4f07 b6bf 791a 9cbd c543 c33f
00000700: 47f3 ff34 bded c1bf bcc7 d9e5 0fe2 a83f
00000710: fb1c 5675 ecb1 b53f 831e d7ec 454d b1bf
00000720: 8768 e9ea ba4c c13f 188f 537a 91ea a1bf
00000730: ff94 94bb 4681 c13f 8e02 3604 1c58 9a3f
00000740: d55e f935 4e82 aa3f 5b35 8a33 5a5f c3bf
00000750: f626 0586 a361 a2bf 0e84 4534 d6ff c03f
00000760: d248 8804 81dc b53f 7fac 4412 3544 c33f
00000770: ab99 f585 bc16 9dbf 3334 1056 5a16 a0bf
00000780: 2d0a c930 ff6a c2bf e9bf 66fb 980c a8bf
00000790: 2b3b 68ea ff44 c43f 2022 5401 8e29 77bf
000007a0: 3fb6 d235 bc83 c4bf cb69 c4a7 7a23 8ebf
000007b0: 0b07 e39e 4d4a bc3f a1f2 7b2c 19d8 bebf
000007c0: 8bd9 f1f7 e2f0 c4bf 3a1f 6792 f268 813f
000007d0: 61f6 8094 ce6a c43f 6d28 4fb1 3d64 bcbf
000007e0: a10a 2182 07d4 b63f 612d 6d82 0a4a b53f
000007f0: 9e78 b85d add3 a53f 3c2c 9d30 1d8f be3f

module.restr_layer3.restr.0.bias f8 [12]
-0.1129752089345477 -0.07781223841868738 0.024446554461736436 -0.007886523004442385 0.007959048948654781 0.11009967414151614 -0.13082773761616112 0.00414989124262662
0.06277572272548027 0.013912874434826993 -0.0047533028256851444 0.11124011489050867
00000000: 4ff5 a17b f1eb bcbf 0ba0 3cbb 80eb b3bf
00000010: 30f4 a67f 8408 993f c9db 1033 cf26 80bf
00000020: 9bac 8877 d54c 803f 12f2 bc03 7e2f bc3f
00000030: 624c 3c9b f6be c0bf 5561 b4f2 79ff 703f
00000040: 28b5 16dc 1112 b03f ac09 8765 5a7e 8c3f
00000050: bee6 f202 3378 73bf a040 756f 3b7a bc3f

module.restr_layer3.restr.1.weight f8 [12]
0.9973634685701248 0.9973634685701248 0.9973634685701248 0.9973634685701248 0.9973634685701248 0.9973634685701248 0.9973634685701248 0.9973634685701248
0.9973634685701248 0.9973634685701248 0.9973634685701248 0.9973634685701248
00000000: 5f7b f7ca 66ea ef3f 5f7b f7ca 66ea ef3f
00000010: 5f7b f7ca 66ea ef3f 5f7b f7ca 66ea ef3f
00000020: 5f7b f7ca 66ea ef3f 5f7b f7ca 66ea ef3f
00000030: 5f7b f7ca 66ea ef3f 5f7b f7ca 66ea ef3f
00000040: 5f7b f7ca 66ea ef3f 5f7b f7ca 66ea ef3f
00000050: 5f7b f7ca 66ea ef3f 5f7b f7ca 66ea ef3f

module.restr_layer3.restr.1.bias f8 [12]
0.0 0.0 0.0 0.0 0.0 0.0 0.0 0.0
0.0 0.0 0.0 0.0
00000000: 0000 0000 0000 0000 0000 0000 0000 0000
00000010: 0000 0000 0000 0000 0000 0000 0000 0000
00000020: 0000 0000 0000 0000 0000 0000 0000 0000
00000030: 0000 0000 0000 0000 0000 0000 0000 0000
00000040: 0000 0000 0000 0000 0000 0000 0000 0000
00000050: 0000 0000 0000 0000 0000 0000 0000 0000

module.restr_layer3.restr.1.running_mean f8 [12]
0.0 0.0 0.0 0.0 0.0 0.0 0.0 0.0
0.0 0.0 0.0 0.0
00000000: 0000 0000 0000 0000 0000 0000 0000 0000
00000010: 0000 0000 0000 0000 0000 0000 0000 0000
00000020: 0000 0000 0000 0000 0000 0000 0000 0000
00000030: 0000 0000 0000 0000 0000 0000 0000 0000
00000040: 0000 0000 0000 0000 0000 0000 0000 0000
00000050: 0000 0000 0000 0000 0000 0000 0000 0000

module.restr_layer3.restr.1.running_var f8 [12]
1.0 1.0 1.0 1.0 1.0 1.0 1.0 1.0
1.0 1.0 1.0 1.0
00000000: 0000 0000 0000 f03f 0000 0000 0000 f03f
00000010: 0000 0000 0000 f03f 0000 0000 0000 f03f
00000020: 0000 0000 0000 f03f 0000 0000 0000 f03f
00000030: 0000 0000 0000 f03f 0000 0000 0000 f03f
00000040: 0000 0000 0000 f03f 0000 0000 0000 f03f
00000050: 0000 0000 0000 f03f 0000 0000 0000 f03f

module.restr_layer4.restr.0.weight f8 [24, 4, 3, 3]
0.12585722850468406 0.008304498343587836 -0.1655616012493892 -0.08586269253563396 0.08439998691485819 -0.15808111485508416 0.09526150501623105 -0.005212831964014595
-0.03231700713625031 -0.14528823680408415 0.038637624597019624 0.1145837021065021 0.06816174753598656 -0.07842419093485334 -0.016281758660867507 -0.030331202569639948
0.05541622313042669 0.10053869632479738 0.077679209786178 0.1267354314902282 0.12270205269396793 0.0534747459602008 -0.1116163803807951 0.03519517619641543
0.08615133241791292 -0.08227547462220738 -0.1540458040152284 0.060896609693246576 0.10094240426508137 0.10140648856773471 0.02475675149198266 0.09390742483116206
-0.10654804298493736 -0.1474021748735167 0.14005140291386012 0.08531258770734491 0.06553592937771509 0.13918786859777046 0.11143985847456914 -0.14273871207503688
0.06167285279348965 -0.15498293433044485 -0.1294129615384356 -0.14212620966954004 0.12725365016824913 0.06536301890682587 0.04519525550590642 -0.1612043079133524
-0.11327666718299134 -0.11260035532227368 0.14590726357218609 0.09191688490000777 -0.012656371740018112 -0.11414079597403358 -0.16490846648088475 0.021277170699654152
0.048490192377969504 0.04496220274716028 -0.08803288279745211 0.017078236202308385 0.15041586564552328 -0.13696743034058703 0.05947745679368289 -0.04358476341192405
0.08269020264192459 -0.12441653331902698 -0.020718819389132608 -0.0794715517681487 0.07011380264489962 -0.08960174678288133 -0.04879060286430919 0.14748745230546123
-0.08114155080488229 0.1561341945235741 -0.04124489142130278 -0.08406080179973771 -0.08415169701998433 -0.11679360329515133 -0.0931765773244839 0.029528720831178235
0.033630321201447495 0.052887070314909954 -0.07401913153637835 -0.06449167467604702 0.04228629264319866 0.15142222256896537 0.06981682525141095 -0.006283342952376595
0.05533719883188906 -0.03716489092688786 -0.047932240480306726 0.15045719651659994 0.09544107360658918 -0.08354013834347435 0.13342590525820164 -0.039115025138610426
0.04819476061935751 0.01756624069086552 -0.07484124581014828 -0.05879783445057309 -0.15610958326053825 0.07481763029265778 -0.13663025900936843 0.14818765462833494
0.13190079462928092 0.10889633794254265 -0.07649951882844278 -0.05041983949663941 -0.142605267310061 -0.0038185901193477367 0.11829962384715802 -0.12825890731302933
-0.06618325315355851 -0.13853602681228744 -0.08973954607688499 0.16056212634584902 0.11723942235488727 -0.04456287534418297 0.0036674348773377023 -0.054903648248986525
-0.09680416751812636 0.01775724549312326 -0.08266901704080255 0.10010724869703952 0.0561470297669518 -0.1197527584211975 0.10157215387513963 -0.09887262082275061
-0.06199111610574845 0.06818538534628789 -0.05816408328099042 0.0139101398500452 -0.012407227287399911 -0.11763565477264298 -0.1114886500063006 -0.10806138300979735
0.05251591730921554 0.019940791006297604 0.08317475917575669 0.0839819372663437 -0.07986782877152558 -0.014470551387824207 -0.06177573783043568 -0.005459697905603694
-0.019401462894258013 0.15697289464852057 0.11924393244742695 -0.09989745848628079 -0.14575146654899343 -0.019581074212503102 0.16319625972251936 0.032743067334750596
-0.11638700472041051 0.023757557991718536 -0.1586615007512691 -0.022014299205752957 0.06324621249574765 -0.03657982725591992 -0.04043481898079055 -0.05450025612352115
0.08208623095199638 -0.04942546124349108 -0.09688959356880912 0.005902462850270929 0.07297517407218637 -0.0681941835755857 0.017782826493425632 0.0969214574262664
-0.013791521661932846 -0.10839965411967821 0.09558824331203239 0.03706400852743831 -0.09424156434012261 0.07535004206017124 0.025039899911887337 0.16321867142823074
0.15219978094504133 0.15898727302527244 0.13721586142326217 0.029903854961320562 0.04983386553590035 -0.16328455411484843 0.03828765719244716 -0.024759069944297635
-0.007036106614161316 -0.05187998887511909 0.0016348458286111255 -0.09260152684099807 0.12447170059462459 -0.03585748074106335 -0.002822012308874918 0.11151113602138116
-0.07254395680347267 0.14201385390350602 0.06338213176271372 -0.06646860113078756 -0.07728465676016345 -0.1640284503467354 0.07115400005501661 -0.06107659441607123
0.022638200668465485 0.1264439752828615 -0.015129665273937679 0.006664123665701132 0.1281036304554205 0.014717912415584736 -0.11576769557670656 -0.09946729641060781
-0.017967966428729512 -0.06899422796674197 0.11690265229426175 0.13370906853998038 -0.023563679274611993 0.08551783761565342 -0.13220644392613998 0.13035890494482422
-0.06439140904436065 -0.09361189647037033 0.1246324689146077 0.0026490398361059026 0.08250966059883166 -0.0518633027062944 0.1583348219029636 -0.10197705076532888
-0.15470301093715805 0.1526707240024599 -0.11133180522100432 -0.07062509568972329 0.15692371670806982 -0.08517475125865687 -0.10894829505339643 0.055927055457162145
-0.012180058901817075 -0.08932297518481497 -0.12073292872297958 0.009602316118732579 0.08899276664147819 -0.03972319530789078 -0.12665447886356349 -0.042504684163427245
0.10119449879965152 -0.09704706998374248 -0.02215251463222334 -0.10992613204098983 -0.028491382474036247 -0.02170356714804946 -0.0565708532534431 0.10760585171552393
0.01721756069611214 0.04207529490519257 -0.0028547084312657597 0.07022877410072481 0.13964946353655988 -0.03213267903080352 -0.08510383039681635 -0.05011281176098414
00000000: d447 32f4 161c c03f 8af8 5ce6 f201 813f
00000010: 5f75 6b5f 1f31 c5bf c915 63f0 18fb b5bf
00000020: 6107 95cf 3c9b b53f ad7a 3581 003c c4bf
00000030: adc9 9cd8 0e63 b83f 2439 e1ec 0c5a 75bf
00000040: 5274 82d1 da8b a0bf ee94 c810 ce98 c2bf
00000050: 5622 148c 4fc8 a33f 6cb8 3385 5b55 bd3f
00000060: 6e59 815c 0c73 b13f e2cb 4797 9b13 b4bf
00000070: d010 e153 2aac 90bf 60fe 568c 240f 9fbf
00000080: bdaa 06e4 835f ac3f 0f8e b26c e7bc b93f
00000090: 9d5a 9ce1 c8e2 b33f 765b bfda dd38 c03f
000000a0: 4f00 79d7 6669 bf3f 8837 1fba 0a61 ab3f
000000b0: 06f4 6e1f e492 bcbf ef2a 7b25 1a05 a23f
000000c0: 06e4 3d83 030e b63f fee7 c368 0110 b5bf
000000d0: 596c 2add c5b7 c3bf fab8 2326 d72d af3f
000000e0: 671f 1985 5cd7 b93f 8828 0090 c6f5 b93f
000000f0: 4595 0d78 d559 993f 055d 8026 510a b83f
00000100: 38b7 1288 bb46 bbbf 9473 3810 13de c2bf
00000110: bd10 a351 34ed c13f b5e2 23b6 0bd7 b53f
00000120: 8de7 6371 f6c6 b03f a54d d077 e8d0 c13f
00000130: 2680 9e93 5287 bc3f 0523 1e1a 4345 c2bf
00000140: 6e1e 998b 9593 af3f 8c95 3115 7bd6 c3bf
00000150: 1738 be9a 9a90 c0bf ccb1 370f 3131 c2bf
00000160: f276 e2fc d849 c03f fb98 927c a1bb b03f
00000170: 501a aa20 d523 a73f 2528 3bbf 57a2 c4bf
00000180: 3869 f31c b3ff bcbf 938c a07b 60d3 bcbf
00000190: 504c a5d6 16ad c23f bc81 986e dd87 b73f
000001a0: 06d8 ac75 95eb 89bf d70e d9c9 5438 bdbf
000001b0: 8438 2f7b b81b c5bf 38c7 39c1 aec9 953f
000001c0: 6458 e1dc b4d3 a83f 77d9 b52c 4905 a73f
000001d0: be70 96b0 5289 b6bf 575f d907 f57c 913f
000001e0: 6a9f dfbb d340 c33f 9109 f714 2688 c1bf
000001f0: e165 8e47 d473 ae3f 8c8d eafa bd50 a6bf
00000200: 26f3 0b64 2f2b b53f add9 af0d c3d9 bfbf
00000210: 8e91 c06e 5037 95bf 597b ce63 3f58 b4bf
00000220: a7a8 5b69 faf2 b13f 9ed1 18dc 23f0 b6bf
00000230: 9704 4ff7 14fb a8bf d874 1c6c dee0 c23f
00000240: c1be 0d53 b1c5 b4bf 070e a28d 34fc c33f
00000250: 7929 90e7 0c1e a5bf 3efc 9a3a 0285 b5bf
00000260: 458e 9a32 f78a b5bf 51e0 8882 2fe6 bdbf
00000270: bea3 5c90 6bda b7bf 6ded 0ce9 c63c 9e3f
00000280: a1aa 6d53 fe37 a13f 3680 c49a 0314 ab3f
00000290: 1421 3af5 eaf2 b2bf 8a0f 99c1 8682 b0bf
000002a0: a778 f187 8ca6 a53f a621 e9aa cd61 c33f
000002b0: d654 2af5 83df b13f 4414 d707 90bc 79bf
000002c0: d46d 7846 2855 ac3f a947 2ece 4607 a3bf
000002d0: cce7 921a 938a a8bf 484a 3e71 2e42 c33f
000002e0: b2de d581 d36e b83f 6caa 16f2 e262 b5bf
000002f0: 40f7 c29d 1914 c13f 304e 8173 e206 a4bf
00000300: 98ba 65d1 fbac a83f 9aac 1f75 e2fc 913f
00000310: f87f 25bf cb28 b3bf 23e8 14f0 bf1a aebf
00000320: 1c1d 5919 66fb c3bf 526c 458b 3f27 b33f
00000330: 706c 0baf 197d c1bf a85a 2625 d0f7 c23f
00000340: efe4 9f0f 20e2 c03f eb0c 1e62 a1e0 bb3f
00000350: 5224 87f3 7895 b3bf 2f4f 6a13 a1d0 a9bf
00000360: 26c2 aaaf e340 c2bf 40de bdf5 2948 6fbf
00000370: 2b7a 8d57 e248 be3f 8f42 2ab2 c96a c0bf
00000380: 5561 d6bb 62f1 b0bf b6ff 3c6c 8cbb c1bf
00000390: 0be0 8ebf 2bf9 b6bf a1d9 d0bc 4c8d c43f
000003a0: a8f0 d01c 6703 be3f 891f 70f8 f1d0 a6bf
000003b0: 46cf 771b 2b0b 6e3f 102b 52bb 541c acbf
000003c0: 0f5b 9b6d 28c8 b8bf 15d9 a392 f42e 923f
000003d0: b92c 95f4 cb29 b5bf 0c0f 3fef a0a0 b93f
000003e0: 89b2 3bb1 4dbf ac3f 615b 06e5 1da8 bebf
000003f0: 18f8 13f7 a100 ba3f 404d e750 b74f b9bf
00000400: 3c2a a2b0 4cbd afbf 7da1 20f0 9874 b13f
00000410: dec2 fcc6 aec7 adbf 86eb e85d eb7c 8c3f
00000420: a5a5 77db f568 89bf 7490 17ca 5e1d bebf
00000430: f0f9 a629 858a bcbf fdd3 fc29 e9a9 bbbf
00000440: 5c9c b9c6 5de3 aa3f b5e6 e9d4 5b6b 943f
00000450: 8936 83e6 f04a b53f de7f 031a d77f b53f
00000460: d383 93d0 3772 b4bf 5bf1 b987 bca2 8dbf
00000470: f302 56cb 11a1 afbf 46b0 357f e85c 76bf
00000480: b967 8022 fadd 93bf 4bda 6f14 b017 c43f
00000490: 8aae 1b36 c586 be3f 9cef 263d e192 b9bf
000004a0: f102 16eb fba7 c2bf c0f7 73a5 0f0d 94bf
000004b0: 273b 2b73 9de3 c43f bb38 bf06 b3c3 a03f
000004c0: 8f1c f4ea 89cb bdbf 23d4 6dba e653 983f
000004d0: 9a34 6e22 054f c4bf e842 889c ea8a 96bf
000004e0: c5dd 435e e730 b03f c2d7 8353 97ba a2bf
000004f0: 39cb 4862 dfb3 a4bf ce29 5923 75e7 abbf
00000500: b606 646d 9a03 b53f 2ad2 4247 4b4e a9bf
00000510: 7965 b3a3 c1cd b8bf 5a38 864e 2e2d 783f
00000520: ba58 0f42 80ae b23f 2f0c 3c8c 2c75 b1bf
00000530: 77fa e048 a935 923f 2c2d ed39 d8cf b83f
00000540: 7228 00b4 ba3e 8cbf 977b 5769 14c0 bbbf
00000550: d642 e89a 7878 b83f 82d0 f7c0 0dfa a23f
00000560: cdc3 c314 3720 b8bf a691 66ee 234a b33f
00000570: 95de dd3c 0fa4 993f bbbe f073 59e4 c43f
00000580: 3a04 cf4c 487b c33f a2d7 0fe9 b159 c43f
00000590: a916 a712 4a90 c13f 2932 55bc 1d9f 9e3f
000005a0: 077f 6b0d d383 a93f 68bf ee1d 82e6 c4bf
000005b0: 4acb f696 709a a33f b8b2 c20e 715a 99bf
000005c0: fcab c87c e4d1 7cbf 7a2a 128f 0390 aabf
000005d0: 1975 8b57 0ac9 5a3f 1e7d 57d1 bbb4 b7bf
000005e0: b4d7 549b 60dd bf3f 341b 3366 e95b a2bf
000005f0: 11b8 6a52 301e 67bf 0e05 5a6a fe8b bc3f
00000600: 4e4c fea1 3d92 b2bf ee17 0c8d 822d c23f
00000610: 9355 12b7 cf39 b03f 504e 1114 1604 b1bf
00000620: 0d7a 4461 edc8 b3bf 2c28 ed5e e2fe c4bf
00000630: d143 3707 2637 b23f aadb 226f 6e45 afbf
00000640: eb9d 0bee 772e 973f 1add 4ef1 502f c03f
00000650: 086d 684c 4dfc 8ebf 8602 3613 d74b 7b3f
00000660: fc06 a723 b365 c03f 8231 ecc3 6c24 8e3f
00000670: cb6b 6fa2 f3a2 bdbf c0e7 1a51 b076 b9bf
00000680: f481 bfd0 3166 92bf 63dc ba10 9ba9 b1bf
00000690: 3e65 6b0c 55ed bd3f 3e67 47f6 601d c13f
000006a0: 1d7b 6ebf 1321 98bf b5ab c83b 7fe4 b53f
000006b0: 73da 7d08 24ec c0bf 827d bdc0 99af c03f
000006c0: bd27 fd93 f47b b0bf d455 db01 f3f6 b7bf
000006d0: c30a 02da e9e7 bf3f 49b0 c76e 70b3 653f
000006e0: 4644 e065 5a1f b53f d6df f8a9 d38d aabf
000006f0: 4613 f2c0 5044 c43f 55c8 fa01 2b1b babf
00000700: 76ae 48ea 4ecd c3bf b2d7 52db b68a c33f
00000710: 7bc9 6dbe 3d80 bcbf b7a4 437c 7c14 b2bf
00000720: c42c 9d8b 1316 c43f 5cd2 1933 03ce b5bf
00000730: 7094 3514 09e4 bbbf 90d8 4c94 78a2 ac3f
00000740: 095b 2cd5 dbf1 88bf 4c40 33d9 dedd b6bf
00000750: f85d 6a6c 5ae8 bebf e004 910d 61aa 833f
00000760: eb42 4ede 3ac8 b63f cbe2 7a41 9956 a4bf
00000770: e732 4ec6 3636 c0bf f244 d188 2cc3 a5bf
00000780: 6b2e e1f6 e1e7 b93f 51b7 c0a7 13d8 b8bf
00000790: 206e 7a17 26af 96bf 1c82 1776 1e24 bcbf
000007a0: fb76 c64f d82c 9dbf 86fd 6dbc 7539 96bf
000007b0: abbd 42d9 daf6 acbf 67f5 f99d 0e8c bb3f
000007c0: e241 6df0 7aa1 913f 20ba 2c9f e48a a53f
000007d0: c7c7 42eb c162 67bf 7033 0050 83fa b13f
000007e0: 6690 659b 08e0 c13f cfec 23cb b173 a0bf
000007f0: 8093 5158 5dc9 b5bf ff80 3fef 62a8 a9bf

module.restr_layer4.restr.0.bias f8 [24]
0.0978095807125815 -0.07196089577000103 0.06922024734370544 -0.14419095493664752 0.043231745607751254 -0.06745812698213569 0.04231956466319974 0.12140480431436375
-0.024655274617580547 -0.13568621792282817 -0.01721074466923417 0.05654998718260821 0.009643632127935535 -0.029091662846055563 0.08334901464622604 -0.12368154678049159
-0.14640115336277326 0.09518275194689059 -0.07618311696587919 0.09675655007442611 -0.08861499267099965 0.1426762773431445 -0.029905103358720934 -0.07476365196696551
00000000: e860 6576 0c0a b93f fc4a ec7d 076c b2bf
00000010: 56ef 8f0a 6bb8 b13f 0e7c ea65 d974 c2bf
00000020: 948d 11ab 7822 a63f 1ed9 3c91 ef44 b1bf
00000030: 7f36 6bf4 e8aa a53f 4983 1ba0 6214 bf3f
00000040: 4029 a078 3b3f 99bf 878c 3f7e 2a5e c1bf
00000050: f106 fa85 b19f 91bf 15b9 13b3 1ef4 ac3f
00000060: 4f46 d564 0ac0 833f fc4e 0a72 34ca 9dbf
00000070: 9a32 0f6c 5c56 b53f c878 8a06 98a9 bfbf
00000080: e417 e5e2 45bd c2bf 2d53 c196 e55d b83f
00000090: 0734 e09b bc80 b3bf 8352 3e8a 09c5 b83f
000000a0: 940c 75df 78af b6bf 594a 8d5c 3743 c23f
000000b0: f106 a383 719f 9ebf 35ad 20f0 b523 b3bf

module.restr_layer4.restr.1.weight f8 [24]
0.9973634685701248 0.9973634685701248 0.9973634685701248 0.9973634685701248 0.9973634685701248 0.9973634685701248 0.9973634685701248 0.9973634685701248
0.9973634685701248 0.9973634685701248 0.9973634685701248 0.9973634685701248 0.9973634685701248 0.9973634685701248 0.9973634685701248 0.9973634685701248
0.9973634685701248 0.9973634685701248 0.9973634685701248 0.9973634685701248 0.9973634685701248 0.9973634685701248 0.9973634685701248 0.9973634685701248
00000000: 5f7b f7ca 66ea ef3f 5f7b f7ca 66ea ef3f
00000010: 5f7b f7ca 66ea ef3f 5f7b f7ca 66ea ef3f
00000020: 5f7b f7ca 66ea ef3f 5f7b f7ca 66ea ef3f
00000030: 5f7b f7ca 66ea ef3f 5f7b f7ca 66ea ef3f
00000040: 5f7b f7ca 66ea ef3f 5f7b f7ca 66ea ef3f
00000050: 5f7b f7ca 66ea ef3f 5f7b f7ca 66ea ef3f
00000060: 5f7b f7ca 66ea ef3f 5f7b f7ca 66ea ef3f
00000070: 5f7b f7ca 66ea ef3f 5f7b f7ca 66ea ef3f
00000080: 5f7b f7ca 66ea ef3f 5f7b f7ca 66ea ef3f
00000090: 5f7b f7ca 66ea ef3f 5f7b f7ca 66ea ef3f
000000a0: 5f7b f7ca 66ea ef3f 5f7b f7ca 66ea ef3f
000000b0: 5f7b f7ca 66ea ef3f 5f7b f7ca 66ea ef3f

module.restr_layer4.restr.1.bias f8 [24]
0.0 0.0 0.0 0.0 0.0 0.0 0.0 0.0
0.0 0.0 0.0 0.0 0.0 0.0 0.0 0.0
0.0 0.0 0.0 0.0 0.0 0.0 0.0 0.0
00000000: 0000 0000 0000 0000 0000 0000 0000 0000
00000010: 0000 0000 0000 0000 0000 0000 0000 0000
00000020: 0000 0000 0000 0000 0000 0000 0000 0000
00000030: 0000 0000 0000 0000 0000 0000 0000 0000
00000040: 0000 0000 0000 0000 0000 0000 0000 0000
00000050: 0000 0000 0000 0000 0000 0000 0000 0000
00000060: 0000 0000 0000 0000 0000 0000 0000 0000
00000070: 0000 0000 0000 0000 0000 0000 0000 0000
00000080: 0000 0000 0000 0000 0000 0000 0000 0000
00000090: 0000 0000 0000 0000 0000 0000 0000 0000
000000a0: 0000 0000 0000 0000 0000 0000 0000 0000
000000b0: 0000 0000 0000 0000 0000 0000 0000 0000

module.restr_layer4.restr.1.running_mean f8 [24]
0.0 0.0 0.0 0.0 0.0 0.0 0.0 0.0
0.0 0.0 0.0 0.0 0.0 0.0 0.0 0.0
0.0 0.0 0.0 0.0 0.0 0.0 0.0 0.0
00000000: 0000 0000 0000 0000 0000 0000 0000 0000
00000010: 0000 0000 0000 0000 0000 0000 0000 0000
00000020: 0000 0000 0000 0000 0000 0000 0000 0000
00000030: 0000 0000 0000 0000 0000 0000 0000 0000
00000040: 0000 0000 0000 0000 0000 0000 0000 0000
00000050: 0000 0000 0000 0000 0000 0000 0000 0000
00000060: 0000 0000 0000 0000 0000 0000 0000 0000
00000070: 0000 0000 0000 0000 0000 0000 0000 0000
00000080: 0000 0000 0000 0000 0000 0000 0000 0000
00000090: 0000 0000 0000 0000 0000 0000 0000 0000
000000a0: 0000 0000 0000 0000 0000 0000 0000 0000
000000b0: 0000 0000 0000 0000 0000 0000 0000 0000

module.restr_layer4.restr.1.running_var f8 [24]
1.0 1.0 1.0 1.0 1.0 1.0 1.0 1.0
1.0 1.0 1.0 1.0 1.0 1.0 1.0 1.0
1.0 1.0 1.0 1.0 1.0 1.0 1.0 1.0
00000000: 0000 0000 0000 f03f 0000 0000 0000 f03f
00000010: 0000 0000 0000 f03f 0000 0000 0000 f03f
00000020: 0000 0000 0000 f03f 0000 0000 0000 f03f
00000030: 0000 0000 0000 f03f 0000 0000 0000 f03f
00000040: 0000 0000 0000 f03f 0000 0000 0000 f03f
00000050: 0000 0000 0000 f03f 0000 0000 0000 f03f
00000060: 0000 0000 0000 f03f 0000 0000 0000 f03f
00000070: 0000 0000 0000 f03f 0000 0000 0000 f03f
00000080: 0000 0000 0000 f03f 0000 0000 0000 f03f
00000090: 0000 0000 0000 f03f 0000 0000 0000 f03f
000000a0: 0000 0000 0000 f03f 0000 0000 0000 f03f
000000b0: 0000 0000 0000 f03f 0000 0000 0000 f03f
